results/1009/Agent Behavior/Agent Behavior-104820.pt (torch, 441610 bytes, 36 tensors)

network_body._body_endoder.seq_layers.0.weight f4 [128, 6]
000000 05 4d e8 bc ac 20 83 3e 7c fc 28 be 2a 97 24 3d
       -0.028357038 0.25610864 -0.16502565 0.040183224
000010 13 22 08 be 09 34 8e 3e 8f 89 12 3e dd 53 67 be
       -0.13294248 0.27774075 0.14310287 -0.22590585
000020 39 d1 01 3f c1 6f ec be 8f a1 a7 be d8 bf c2 be
       0.50709873 -0.4617901 -0.32740447 -0.3803699
000030 95 d2 92 3e 33 1a 8f 3c 3d 24 0a bf 42 fe 82 3e
       0.28676286 0.017468547 -0.53961545 0.25584608
000040 3f c9 c1 3c 3a 61 26 bd 42 8d c2 be 38 fb 1b 3d
       0.023655532 -0.040620066 -0.37998396 0.038081378
000050 9c 29 cf 3d 19 13 8a 3e a4 c8 e0 3e c4 0a a3 3e
       0.10115358 0.26967695 0.43903077 0.3184415
000060 9a 2d 9b be c8 cb 84 3e 2f e3 e9 3e 95 d7 cd 3e
       -0.3030823 0.25936723 0.4568114 0.4020354
000070 39 2e e9 bc e0 74 78 3e cc af 95 be c5 5e 8d 3e
       -0.028464423 0.24263334 -0.29235685 0.27611366
000080 03 d7 a8 be a7 88 ae 3e 5b d5 f7 3e 7a 1e 60 bd
       -0.3297654 0.34088632 0.48404965 -0.054716565
000090 5b fd b5 3b a9 94 16 3d 0b 2d 87 3e 95 25 18 be
       0.005553884 0.036762867 0.26401553 -0.14858086
0000a0 3b 20 e5 bc 17 ab 54 3e c6 3c eb bd d5 31 59 3e
       -0.02796947 0.2076839 -0.11486201 0.21210416
0000b0 19 5c cd ba e5 d3 55 3e 73 dd aa 3e 49 f0 77 3e
       -0.0015667706 0.20881613 0.33372077 0.24212755
0000c0 22 ab d7 3e e0 5f 88 3e 11 13 74 be ab 95 bf 3d
       0.4212275 0.26635647 -0.23835398 0.09354719
0000d0 7d 7c 14 bf dd 63 9d 3c c8 00 21 bd 05 aa a9 3d
       -0.58002454 0.019212658 -0.039307386 0.08284382
0000e0 a1 56 a9 be 10 65 00 bf d2 06 8e 3e 0e 40 98 bf
       -0.33073905 -0.5015421 0.27739578 -1.1894548
0000f0 d9 67 f6 bd 97 ce 79 3e 63 4a e7 3e 4b 68 54 3e
       -0.12031526 0.24395214 0.4517394 0.2074291
000100 6a ab c2 3e a0 0c a8 3e 82 2b 18 3e cb a6 30 3f
       0.38021404 0.32822132 0.14860347 0.69004506
000110 a9 3d 2b bf ed e4 72 be ef 1f c5 bd 66 a7 fd bc
       -0.6689096 -0.23720141 -0.096252315 -0.03096361
000120 83 6c 13 3e e6 8d 10 3f 1d 70 be be 3f 53 30 bf
       0.14396863 0.5646652 -0.3719491 -0.68877023
000130 40 98 c8 3d ed 69 05 bf b0 46 fc 3e 88 2a 15 be
       0.097946644 -0.52114755 0.4927268 -0.14567006
000140 d7 a2 a8 bd c9 e7 f3 bd 1a ef 30 bf 95 2f 01 bf
       -0.08234184 -0.11909444 -0.6911484 -0.5046323
000150 6d a6 a1 be ae ac b9 be 31 9e 31 be e2 24 37 3e
       -0.31572285 -0.36264557 -0.17345501 0.17885163
000160 82 87 12 3f 60 52 05 3f d8 7a 05 bf fe 30 a8 3e
       0.5723802 0.5207882 -0.5214057 0.32849878
000170 12 a2 44 3f e8 5e f7 be 7a 24 23 3f 9f e4 66 3e
       0.768098 -0.48314595 0.63727534 0.2254815
000180 64 bf 37 be 38 82 f0 3e d1 bc d4 be 53 66 b2 3d
       -0.17944103 0.4697435 -0.41550305 0.08710923
000190 83 b7 8d be 98 2a 1b bf da 8a ee be 32 e4 99 3d
       -0.2767907 -0.6061187 -0.4659031 0.07514228
0001a0 90 7e 7c 3e 6a 12 22 3f 53 97 0b be f2 5a 03 bf
       0.24657655 0.6330935 -0.13631944 -0.51310647
0001b0 48 e2 75 be dc 6e b8 be ff 64 b6 bf b8 ca 25 bf
       -0.240121 -0.3602208 -1.4249572 -0.6476245
0001c0 36 25 d3 3e 2a b8 93 be e0 33 21 3f a7 4e b0 be
       0.41239327 -0.28851444 0.6296978 -0.34435007
0001d0 71 a2 2c bf 33 f1 29 be f4 f3 af bd 7e 17 80 be
       -0.67435366 -0.16595916 -0.08591452 -0.25017923
0001e0 fe 34 80 3e 92 95 6c 3d 06 4d 6a 3e b2 76 7c 3e
       0.2504043 0.05775983 0.22880945 0.24654654
0001f0 da 67 cc 3e 62 6d ad be 5d f8 b1 be ec a8 96 3c
       0.39922982 -0.33872515 -0.347598 0.018391095
000200 64 72 a2 be 3a 78 af 3e 86 62 f8 bc 8a 69 a4 bd
       -0.31727898 0.34271413 -0.030320417 -0.080279425
000210 2d 6e d7 3e 05 f9 3b 3f 57 cb f8 3e 12 57 e3 3e
       0.42076245 0.7342685 0.48592636 0.44402367
000220 b2 13 35 bd 68 b1 51 be 45 db 64 be 22 33 0d bd
       -0.044208236 -0.20477831 -0.2234927 -0.034472592
000230 06 79 05 bf 5c cb 75 3d 33 e0 11 3e 38 5f e8 be
       -0.5213779 0.06000839 0.14245681 -0.45385146
000240 a4 3c 7e 3d cd 31 72 be 07 71 9d 3d 08 b9 3d 3f
       0.06206955 -0.2365181 0.07687574 0.7411046
000250 16 b8 2f 3d 48 6a e3 be 07 1f 61 3e 57 43 ed 3e
       0.042900167 -0.44417024 0.21984492 0.4634044
000260 3a 02 1e 3e 6f d7 f4 3e b9 f0 2f bf 68 5b bb be
       0.15430537 0.47820613 -0.6872669 -0.36593175
000270 d7 2a 76 3d 99 c8 ad be 2a 17 85 bd f1 1c f4 3d
       0.06009945 -0.33942106 -0.06498559 0.11919583
000280 70 cf 02 bf 3b 15 23 3e d8 c9 03 3e 7c 7d 7d be
       -0.51097775 0.15926068 0.12869966 -0.247549
000290 c5 f0 80 be dd 08 d6 be ec bf d8 bc c2 3c 97 3e
       -0.25183693 -0.41803637 -0.026458703 0.29538542
0002a0 8c d9 97 be 8e 16 06 be 74 f7 ae 3d a3 55 2d 3f
       -0.29658163 -0.13094541 0.08543292 0.67708796
0002b0 20 1f 1c 3d 50 4e d5 be 4e f2 a7 3d 3e 7c 51 bc
       0.03811562 -0.4166131 0.08200513 -0.012785969
0002c0 7e c5 4e 3e 34 9d 1c bd d4 b2 3b bf 0c be fd be
       0.20192525 -0.038235858 -0.73319745 -0.49559057
0002d0 6b 4a 19 3f 0b f0 bc bd 39 8f 75 bf bc 63 67 be
       0.5987918 -0.09225472 -0.95921665 -0.2259664
0002e0 28 62 e7 3d a2 5a ea 3e 76 8b 1c bf cd 95 05 3d
       0.11298019 0.45772272 -0.611503 0.032613564
0002f0 d2 e0 e9 3c 76 b0 53 3e c6 2d 30 bf c1 b6 3b 3e
       0.028549585 0.20672783 -0.68819845 0.18331434
000300 75 c3 c3 be 17 f7 26 bf 15 66 1f be fe 9d 11 bf
       -0.3823506 -0.6522078 -0.15566285 -0.568817
000310 1a 92 b9 be 70 51 dd be b8 48 95 b6 47 cb 1d bf
       -0.3624428 -0.43226194 -4.4490116e-06 -0.616383
000320 92 5d 27 bf 55 fc 80 3d 15 59 04 3e 4a 7b d1 bd
       -0.6537715 0.062981285 0.12924607 -0.10228594
000330 f6 b4 e6 be 4a f3 49 bd 5e 17 76 be a7 68 e8 be
       -0.45059937 -0.049304284 -0.24032351 -0.45392343
000340 94 33 c4 be 99 32 ae 3d 2c a0 80 3d 92 a4 c2 3d
       -0.383206 0.085057445 0.0628055 0.095040455
000350 ef 4a a1 3e 8d 17 1c 3f 70 e9 2d bf ee bd 3c 3f
       0.31502482 0.60973436 -0.6793432 0.7372731
000360 b8 4c ab 3d f4 0d 98 bc bc b0 59 3f ad 9e 8b be
       0.08364242 -0.01856134 0.850353 -0.27269498
000370 1b 3c e9 be dc e2 12 3f 27 6e e6 3e 6f db 38 3f
       -0.4555367 0.5737741 0.45005915 0.7220983
000380 a6 72 1c 3f 40 9f 25 3f 94 0e 9c be e4 1c 3d 3e
       0.6111244 0.6469612 -0.30479872 0.18468052
000390 fd a8 a8 3e 6e d6 06 be da a9 8b be b9 a0 0d 3f
       0.32941428 -0.13167736 -0.27278024 0.5532337
0003a0 eb 99 b4 3e 20 4b 1c 3e a2 15 83 3e d8 bd fd bd
       0.3527368 0.15263033 0.25602442 -0.123897254
0003b0 64 81 84 3e f5 35 fe be 6f 5e ad bd 06 2c 74 be
       0.25879967 -0.4965054 -0.084652774 -0.23844919
0003c0 8e d3 2b bf 1c 3a 00 bf e4 17 4a 3e bd b7 4f 3f
       -0.6711968 -0.5008867 0.19735676 0.8113974
0003d0 fe eb f8 be ce 70 41 bf f7 0e dc bc 6c e3 66 3f
       -0.48617548 -0.7556275 -0.026862605 0.9019077
0003e0 4b 04 0a 3f 6e d6 83 be ff 5a 32 3f 8b 52 91 3e
       0.539128 -0.25749534 0.696701 0.28383288
0003f0 2a b9 87 3d 1f 33 c5 be 95 2e b1 be 53 0e 7a be
       0.06627114 -0.38515565 -0.34605852 -0.24419527

network_body._body_endoder.seq_layers.0.bias f4 [128]
000000 90 69 05 3b 72 41 f2 bb d2 c4 80 38 f0 aa 23 3b
       0.002035711 -0.0073930556 6.140176e-05 0.0024973713
000010 b7 85 66 3c 48 b3 11 3b ac 77 06 bc fd 71 5d bb
       0.014069966 0.0022232104 -0.008207243 -0.0033789866
000020 ef b6 63 bb 6c b8 9b 3c 54 07 b7 bb 42 a3 84 3c
       -0.0034746488 0.019008838 -0.0055855904 0.016191129
000030 ae 5f 31 3b 5e 59 96 3c 4f 5c 32 bc 01 5f 35 3c
       0.0027065086 0.01835316 -0.010886266 0.011070014
000040 38 78 0e bc 34 7e bb ba a4 a7 14 bc 35 8e 9d 3a
       -0.008695655 -0.0014304579 -0.009073172 0.001202053
000050 cb b0 51 3c 21 f8 e0 3b 2a 83 53 bc 3f fe 93 3c
       0.012798498 0.006865517 -0.01290969 0.01806557
000060 49 b4 80 3b 2c c1 b6 ba 75 cd a1 bb 28 bf 53 3a
       0.0039277417 -0.0013943068 -0.0049378225 0.0008077496
000070 ac f8 d5 3b 34 1f 84 3a 99 9b 3e bc c4 5f d9 b9
       0.006529888 0.00100801 -0.011633777 -0.00041460816
000080 28 b9 87 3c 7a 72 35 3b eb 82 da b7 18 a6 f3 ba
       0.016567782 0.0027686642 -2.6048589e-05 -0.0018588929
000090 4e 13 21 3c 77 ed 8d 3c 57 2f 8c 3b 6c b6 31 3c
       0.009831263 0.017325146 0.0042781043 0.010846715
0000a0 cb c4 7a 3c f9 e0 57 3b d4 9f 6f 3b bb c1 de 3b
       0.015305708 0.003294049 0.003656377 0.006797997
0000b0 f8 fb bd bb 25 7f a7 3c d4 f0 cb bb 71 03 00 bc
       -0.0057978593 0.02044637 -0.0062237773 -0.0078133205
0000c0 9d 29 3d bc 79 77 b1 bc 74 b2 9b 3b 4a 3d bd bb
       -0.011545566 -0.021663414 0.004751498 -0.0057751285
0000d0 f4 42 2e 3b c6 b0 4c bb 4a dc 46 3c 3f 36 0f bc
       0.00265902 -0.0031233295 0.012137482 -0.008740961
0000e0 21 9e a9 ba f7 e5 2c 3c ed 8a b0 3c e3 82 ae 3b
       -0.0012940803 0.010552875 0.02155062 0.0053256615
0000f0 ff 1b 82 b9 da 0d 76 3c 75 8b ce 3b 26 ad 81 3b
       -0.0002481639 0.015017951 0.0063032457 0.0039574085
000100 c5 9d 21 3b 3c 15 36 bc e8 0c bf 3a e5 15 a5 3c
       0.0024660688 -0.011113461 0.001457599 0.020152042
000110 d5 67 f3 3b d5 e5 03 3d 21 b1 08 3c 22 38 17 3a
       0.007428149 0.032201607 0.008343012 0.00057685573
000120 c8 62 09 3c be 4a a0 3c 63 2e 9a 3b 57 72 e0 bb
       0.008385368 0.01956689 0.0047052368 -0.006849568
000130 c7 f2 d6 3b 7d 11 25 3b f7 08 10 bb 4e a4 24 3b
       0.006559703 0.0025187426 -0.0021978 0.0025122347
000140 00 8e 92 bb ba c6 bc bb 1e 17 4b bc 82 cb 8c bb
       -0.004472494 -0.0057609947 -0.012395648 -0.004296721
000150 e4 9c 9f ba 2f e0 8c 3c 54 8f 9c bb 76 98 ea b9
       -0.0012177494 0.017196743 -0.004777828 -0.0004474555
000160 88 25 f4 bb 8a 0c 46 bb de 70 49 3c 14 a2 0c 3a
       -0.007450763 -0.0030219876 0.012294976 0.00053647277
000170 4a 17 23 bb aa b9 5c 3c ea f3 4f 3b c1 36 32 3c
       -0.0024885708 0.013472 0.0031731077 0.010877312
000180 42 1a ca 39 eb 92 26 3b 4f 66 94 3b 45 f0 ab 3b
       0.00038548006 0.002541716 0.0045287977 0.005247148
000190 c5 29 8b 3b 17 55 5d bb 52 82 da ba 6d 51 ca bb
       0.0042469227 -0.0033772641 -0.0016670919 -0.0061742575
0001a0 0d c5 d8 3c 13 1f 24 3c 99 b1 89 bb 32 02 3c 3b
       0.026461149 0.010017174 -0.0042020795 0.0028687832
0001b0 7a e6 cf 3c 4c 78 64 3b 76 65 b8 3c dc 4b 31 bb
       0.025378454 0.0034861742 0.022509318 -0.0027053272
0001c0 49 d9 41 bc 9f 4b 5d 3c 59 e8 48 3c 02 b2 1a 3c
       -0.01183159 0.013506799 0.012262427 0.009441854
0001d0 f7 3e f8 ba eb ff 8e bb 48 1e 9a bb 41 db 35 bc
       -0.0018939663 -0.004364004 -0.004703317 -0.0110996375
0001e0 8c e0 be bb 7f 85 4b 3c 84 03 d2 38 4c f3 f2 bb
       -0.005825108 0.012421965 0.00010014235 -0.007414257
0001f0 09 ad 9f bb aa 01 10 bc a1 24 64 3c 7a f6 65 bb
       -0.0048729223 -0.008789459 0.013924749 -0.0035089538

network_body._body_endoder.seq_layers.2.weight f4 [128, 128]
000000 f5 cf 2a bd d1 fb 6a bd c6 9a 70 be 93 03 0a be
       -0.04170223 -0.057369057 -0.23496541 -0.13477926
000010 7d 58 38 bd 18 ed 10 bd f3 81 01 be 54 16 c2 bd
       -0.045006264 -0.03538236 -0.12647228 -0.09476915
000020 b9 35 30 bd 25 ef ec 3d b8 19 88 3c b3 e8 9a 3d
       -0.043019984 0.11569051 0.016613826 0.07563915
000030 e5 44 8c 3c 73 a7 e7 3d 2e 73 0e 3e 6d f8 ab 3d
       0.017122695 0.11311235 0.13911125 0.08396993
000040 cd 71 17 be 96 64 59 bd fc 61 d5 3d 83 62 17 be
       -0.14789505 -0.05307444 0.1041908 -0.14783673
000050 51 6a ef 3d 17 85 65 3d 28 2a e3 3d 9d 93 c2 3d
       0.116902 0.056035127 0.11092025 0.09500811
000060 88 fd a9 3d fc 8d 3e 3c 58 a4 b8 3b 42 65 07 3c
       0.083003104 0.011630531 0.0056348257 0.008263888
000070 21 93 73 3d 57 90 b3 3d e9 32 e3 3c 8a d3 b7 bd
       0.059466485 0.08767765 0.027734237 -0.08975895
000080 62 b2 b1 3c 7e 41 34 bc 36 6f b2 bd 98 1a eb bc
       0.021691505 -0.011001943 -0.08712618 -0.028699204
000090 97 eb 3e bc 85 ab c5 bc 70 84 87 bd f2 39 1d be
       -0.011652849 -0.024129638 -0.06617057 -0.15354136
0000a0 be 81 c4 bd 5f 72 67 bd 6d be 3a bd 84 18 fc 3d
       -0.09595059 -0.056505557 -0.04559176 0.123093635
0000b0 f2 81 27 be 45 92 7b bd 9f 87 8e bd f2 38 ec bc
       -0.16358164 -0.06141879 -0.069594614 -0.028835747
0000c0 fc ef dc bd cb 0b 3e bb a8 7d 05 3e 72 0d 50 3d
       -0.10787961 -0.0028998728 0.13036215 0.050794072
0000d0 1c 0f 15 be b0 76 d9 bd ec 02 17 be b4 98 23 be
       -0.14556545 -0.10618341 -0.14747208 -0.1597622
0000e0 97 98 0a 3d 35 b1 fd 3c fb b6 2f 3e 66 13 00 be
       0.033836927 0.030968288 0.17159645 -0.125074
0000f0 2f 5f 65 bd 30 cc 3c 3d 2f de 7b 3b 41 dd cd bc
       -0.055998977 0.046093166 0.0038431992 -0.025129916
000100 71 d6 20 be 3e 80 e8 3d cd d5 98 bc cc 75 8a bd
       -0.15706803 0.11352585 -0.018656636 -0.06760749
000110 42 9a 9c bd d3 7c 41 3e e6 c4 ce 3d c2 97 ff bd
       -0.0764661 0.18895273 0.10096149 -0.124801174
000120 9d 6a 00 3d 0b 54 22 3c b5 7c 37 3d b7 45 b7 bd
       0.031351674 0.009907733 0.044796664 -0.08948844
000130 9c 4e 2a 3e 26 19 9e bd b9 bb 40 be 2b b6 95 bc
       0.1663155 -0.077196404 -0.1882161 -0.018275341
000140 9e a1 1e bd ac 72 16 3e 4f b9 f7 3c 5e 6b 63 3d
       -0.03872835 0.14692181 0.03023973 0.055522315
000150 a0 95 79 bd 50 ff a2 bc c7 6a 10 bd 51 3b 87 bd
       -0.06093371 -0.019897133 -0.03525808 -0.066031106
000160 95 50 09 3e 56 3b b3 3c 98 b1 9d bd a4 15 8f 3d
       0.13409646 0.02187888 -0.07699889 0.069865495
000170 7a 92 29 3c dd d5 91 bd 0b f2 f2 bd 13 2f e5 3d
       0.010349864 -0.07120869 -0.11862572 0.11190619
000180 3b 83 0a 3e 0a 33 22 3d 79 09 32 be 5f fb b9 3d
       0.13526623 0.039599456 -0.17386426 0.09081148
000190 c3 e1 24 3e b4 e1 ea b9 7f 80 b8 bc f1 88 54 bd
       0.16101746 -0.0004480012 -0.02252221 -0.05188841
0001a0 8c 34 08 bd 3e 16 13 3d 54 25 55 3c ce e1 18 be
       -0.033253238 0.035909884 0.013009388 -0.14929888
0001b0 86 3f 12 3e cb d0 6d 3b d9 d2 a0 bb 7d aa ca 3c
       0.14282045 0.003628778 -0.0049079475 0.024739498
0001c0 bb e2 0d 3e 56 f8 2c 3d 4c f9 e0 3c 54 44 ff 3d
       0.13856022 0.04222902 0.027462624 0.124642044
0001d0 2c 5a 66 3d ae 4e 94 bd af b1 ec bd 96 51 20 3e
       0.05623834 -0.072415695 -0.11557328 0.15656123
0001e0 85 2b 29 bd a0 8e 10 bd f0 c7 9a be 9f 30 c0 3d
       -0.04130127 -0.035292268 -0.30230665 0.09384274
0001f0 7c 99 79 bc 15 ec c4 3b dd 50 5c be 08 de 86 3d
       -0.015234347 0.0060095885 -0.21515222 0.06585318
000200 44 32 88 3d ac e8 f1 3d 19 de cc bd 9b 75 a9 3d
       0.066502124 0.11811957 -0.10003299 0.082743846
000210 1b a4 e7 bd e7 e2 a5 bd e1 32 93 3d 8d 09 2f 3d
       -0.113105975 -0.08099919 0.07187439 0.042733718
000220 5d 41 45 3d 31 a9 e7 3b de c1 38 3d d0 bc 4f 3c
       0.04815804 0.0070697297 0.04510676 0.012679294
000230 55 03 09 b8 d3 8b de 3d a6 d9 27 be 7a 23 de 3a
       -3.266645e-05 0.10866513 -0.1639162 0.0016947829
000240 17 c1 d6 bd 53 dc ff bd af 92 8c 3d 0b 85 f4 bd
       -0.10486048 -0.124931954 0.06863915 -0.119394384
000250 51 0d 53 3d 5a 96 16 bd 63 a1 a9 3d 7e 1f cb bc
       0.05152637 -0.03676448 0.08282735 -0.02479529
000260 f7 cd 71 3c 37 3d 9b bc 18 68 dd 3c 80 29 25 3e
       0.0147585785 -0.018950088 0.027027175 0.16129112
000270 f3 84 92 3d 3c 53 4f bc 7b d1 1f bd 38 a8 21 3e
       0.07154264 -0.012654122 -0.039018136 0.15786827
000280 07 b9 4a 3d 80 c2 98 3d 61 a0 9c 3d 39 ba 6a 3d
       0.049492862 0.07458973 0.07647777 0.057306502
000290 0a c1 c1 bd 4f d7 04 3d 94 92 0c 3e e0 d7 21 3e
       -0.094606474 0.032431897 0.1372779 0.15805006
0002a0 f3 8f 79 bd 93 a8 f4 bc 4e 6c b9 3c 2c 76 86 bd
       -0.060928296 -0.029865539 0.022634652 -0.06565508
0002b0 bc 09 30 3d f7 04 33 bd a6 71 bc 3d 35 7f c6 bc
       0.042978033 -0.043705907 0.09201364 -0.024230579
0002c0 b7 f4 49 3d 25 1f d4 3b e5 fe 50 3e c8 19 c5 bb
       0.049305644 0.0064734393 0.20409735 -0.0060150363
0002d0 7a b0 6b bb ac 1a 53 3c 66 ea 00 3d a6 60 85 3d
       -0.0035963343 0.012884777 0.03147354 0.06512575
0002e0 ed d0 d8 bd 5b a3 81 3c 04 35 2e 3d 18 6b bc 3d
       -0.105867244 0.015824964 0.04253103 0.09200114
0002f0 20 0e a1 bd 31 1a 21 3d 6c c9 15 bd a7 cb 87 3d
       -0.07864022 0.03933162 -0.036569044 0.066306405
000300 0d a5 88 bd b7 f8 b0 3c 48 5f 4d 3d fa d6 53 3d
       -0.06672106 0.021602971 0.050139695 0.05171869
000310 13 f1 0c 3e 5d 7e f8 bb 3f 5c 3f 3d 27 23 9b 3d
       0.13763838 -0.007583423 0.046718832 0.07575064
000320 49 c2 11 be 8a 1c c8 bb 08 63 08 3d ce b7 10 3e
       -0.1423427 -0.0061069177 0.03329757 0.14132616
000330 93 f2 31 be 9d 68 73 3e 5d d0 89 bd 73 e5 fa bd
       -0.17377691 0.23770376 -0.06729195 -0.12250795
000340 b3 38 d0 bd e6 1a 13 be 58 bf 2b bd cd a8 a2 bd
       -0.101670645 -0.1436573 -0.041930526 -0.079423524
000350 f5 c2 24 3d 33 54 2d bd b6 31 ac 3b 88 fb a0 3d
       0.040224988 -0.042316627 0.0052549494 0.07860476
000360 ae 36 35 3c fe 21 43 3c f0 1f 73 bc e9 63 c2 3d
       0.0110604 0.01190996 -0.014839157 0.094917126
000370 e3 0a d4 3d 63 81 a0 bd 0b 40 80 3c c9 6f ba bc
       0.10353639 -0.078371786 0.015655538 -0.022758381
000380 4f ed 7e bd 75 81 06 3e c9 a4 e3 3d 71 d2 f8 3c
       -0.062238034 0.13135321 0.11115415 0.030373784
000390 37 d4 71 3d 29 8a e6 bc 91 b1 0e 3e 2c 01 0f 3d
       0.059040274 -0.028142052 0.13934924 0.034913227
0003a0 9c 3a 03 b9 dc 56 cb 3b 0a 35 93 bd 10 78 91 3d
       -0.00012514967 0.006205423 -0.07187851 0.07102978
0003b0 4c 3a c2 3d 3c 48 ce bc 7e fc 69 3d 6d e1 50 bd
       0.094837755 -0.025180928 0.05712556 -0.050996233
0003c0 49 32 c7 bd b2 4c d3 3d e5 72 5d bd d1 e3 45 be
       -0.09726388 0.10317363 -0.05406465 -0.19325186
0003d0 b0 95 01 3d 3f 80 3a 3d 46 2b 90 3d b7 33 83 bd
       0.031636894 0.04553246 0.07039504 -0.06406348
0003e0 d8 c5 b0 3a 76 e7 cc bc f3 b0 49 3d aa ff 7b bd
       0.0013486696 -0.025012713 0.049241018 -0.061523117
0003f0 86 c9 c1 bd 6a 2d 8b 3d 90 4c c0 3c be 4d 05 bc
       -0.09462266 0.067957714 0.023474008 -0.008136211

network_body._body_endoder.seq_layers.2.bias f4 [128]
000000 3f 03 0d bb 8c de f3 bb 2c ad ff 3b 50 84 80 bb
       -0.0021516827 -0.007442301 0.007802626 -0.003922023
000010 9c cb 58 3a 0d 6e e6 ba 1f 7a c0 bb 42 11 97 bb
       0.0008270086 -0.0017580405 -0.005873933 -0.0046102116
000020 23 52 28 bb 77 4c 4b 3b f2 8f c2 3b 4f 55 39 bc
       -0.0025683723 0.0031020918 0.00593757 -0.011311843
000030 a9 be 5d 3a a4 e4 fb 39 01 15 3a bc f2 3b 1d 3b
       0.00084588915 0.000480448 -0.011357547 0.002399203
000040 41 3f 93 3b 02 c4 17 3c 27 88 ea b9 f3 30 85 3b
       0.0044936244 0.0092630405 -0.000447334 0.004064673
000050 6e e4 15 3a 8f b2 7e bb c2 39 2c bc 4a a8 03 bb
       0.00057179376 -0.0038863753 -0.010511817 -0.0020089322
000060 5e 6c 46 3a ba ae ae bb 3b 70 1a 3c 7e a0 75 bb
       0.00075692486 -0.0053308876 0.009426172 -0.0037479694
000070 62 21 2e bc 34 8a c0 3c e9 7d cc bb 6b 24 00 bb
       -0.010628076 0.0235034 -0.0062405956 -0.0019552957
000080 92 20 5c bb aa 80 0e bb 44 61 36 3b 88 35 0e bb
       -0.003358875 -0.002174417 0.002782897 -0.0021699388
000090 00 3f 3d 3b ab 08 68 b9 7d 49 0d 3c f2 6e 49 3b
       0.0028876662 -0.00022128473 0.008623478 0.0030736295
0000a0 40 d7 d1 3b 1f 0e 78 3c 1c 60 db 3b 1c 88 23 bc
       0.0064038336 0.0151400855 0.0066948067 -0.0099811815
0000b0 d5 7f 70 3b e6 d6 0f 3c 87 10 1e bc 87 8a 4b 3c
       0.0036697288 0.008779263 -0.009647495 0.012423164
0000c0 cf 84 40 3c 30 c0 23 bc fa f8 99 3a ed 7b b6 3b
       0.011750414 -0.009994552 0.0011747174 0.0055689723
0000d0 e9 90 91 ba fb 6c 8c 3b 56 2f 4e 3a 77 e8 8c bb
       -0.0011105809 0.0042854524 0.000786533 -0.004300173
0000e0 ec d9 de 3b 5c 0d e8 3b 49 b4 26 bc 50 07 90 ba
       0.0068008807 0.0070816707 -0.010174819 -0.0010988507
0000f0 9d 9b b3 bb 69 d7 29 bb 4a 24 9b 3b 41 27 8f bb
       -0.005481197 -0.0025915748 0.0047345506 -0.004368693
000100 3c 22 4f bb 81 1e b8 39 41 98 a3 3b a5 46 60 3b
       -0.0031606099 0.00035117942 0.0049925153 0.0034221795
000110 78 e2 0b bc e5 cb 33 3c ed e3 e6 3b f2 2b 21 3b
       -0.008537881 0.010973905 0.007046214 0.0024592844
000120 30 ef d6 3b ab bb 2e 3c f6 b7 ca bb be a4 48 3a
       0.006559275 0.010664861 -0.0061864806 0.0007653943
000130 a7 18 2a 3c a4 90 99 3b db bb 33 3c 13 7c d1 3a
       0.010381854 0.004686432 0.010970081 0.0015982412
000140 95 24 f2 3b 1f 8a db bb 65 a1 87 bb aa 24 e2 3b
       0.007389615 -0.006699815 -0.004139113 0.0069013434
000150 83 2f d3 3b 23 3b 0b 3c f8 fd 02 3b 55 76 96 bb
       0.006444873 0.008497986 0.0019987803 -0.004591743
000160 12 51 d3 3b c8 3d ea 3b 1e 6a 62 bb 6a 2d 0b bc
       0.0064488733 0.007148478 -0.0034548114 -0.008494714
000170 89 76 9d 3b cd eb 17 3b ac d4 69 bc ec 99 e7 bb
       0.0048053903 0.002318132 -0.014271896 -0.0070679095
000180 d0 f6 00 3c d3 e4 b0 3b ab 26 f8 bb c7 f9 61 ba
       0.007871345 0.0053983717 -0.007572969 -0.00086202886
000190 4a 61 69 bb df 51 05 bc ad ad d9 3a 0d 21 42 bc
       -0.0035610967 -0.008137195 0.0016607546 -0.0118487
0001a0 70 d4 7f bb a4 10 99 b9 a2 c6 e8 bb b3 b8 45 bc
       -0.0039036535 -0.00029194832 -0.007103757 -0.0120679615
0001b0 f9 5c 61 bb 85 75 ad bb df 01 1a 3c 90 70 06 bc
       -0.0034387691 -0.0052935504 0.00939986 -0.008205548
0001c0 a3 35 9e bb 56 dc c6 bb 2f 34 d3 3b c8 16 09 3c
       -0.0048281713 -0.0060687466 0.0064454298 0.008367248
0001d0 3a 84 9a 3b b1 e4 13 bc e8 11 ee 3b b1 42 78 bc
       0.0047154697 -0.009026692 0.007265318 -0.015152619
0001e0 13 43 c8 bb c1 47 01 3c 26 43 72 bb 40 e0 21 3c
       -0.0061115115 0.007890643 -0.0036966293 0.0098801255
0001f0 c7 fe c9 bb c5 ef 5c 3b 83 83 09 bc a0 b2 18 bc
       -0.006164405 0.003371225 -0.008393171 -0.009319931

action_model._continuous_distribution.log_sigma f4 [1, 2]
000000 2f b3 ff bc 42 9b 11 bd
       -0.031213371 -0.035548456

action_model._continuous_distribution.mu.weight f4 [2, 128]
000000 1d 17 ca bc c1 b5 d8 bb e1 3c de bc 55 09 7b bc
       -0.024669224 -0.0066134636 -0.027128639 -0.015322049
000010 74 4f 03 3d f1 9c e1 3b fc eb 6e bc 83 5a 0c 3d
       0.032058194 0.006885164 -0.01458263 0.034266006
000020 fc 6b 13 bd 56 79 98 ba c9 58 ac bc df 38 32 3c
       -0.035991654 -0.0011632841 -0.02103843 0.010877817
000030 ee 74 f1 3c ba 0c 2b 3d 57 07 8b 39 ea 10 5e 3c
       0.029474702 0.041760184 0.00026517615 0.013553837
000040 52 58 36 bc 6a 4c 06 bd f4 c0 ab 3b 98 45 a6 bc
       -0.011129456 -0.032787718 0.0052415077 -0.020296857
000050 44 23 a0 bc 37 15 b5 bc 47 93 71 3b 04 84 f4 3b
       -0.019548066 -0.022104843 0.0036861466 0.0074620266
000060 80 4f 57 3c 87 ba c3 bc dd eb 8c bb 7e 0c 3f 3c
       0.013141513 -0.023892654 -0.004300578 0.011660693
000070 64 52 1a 3c aa 54 c8 3c c3 0f 17 bc 45 72 08 bd
       0.0094190575 0.024454433 -0.0092200665 -0.0333121
000080 08 c9 8e bc 0b 6c 25 bb f4 2d ef 3c e6 7e ab 3c
       -0.017429844 -0.00252414 0.029196717 0.020934533
000090 cb 41 12 bd ae cd cd bb 5c 0d 9d 3c 58 98 f4 bc
       -0.035707276 -0.0062806224 0.01917141 -0.0298578
0000a0 73 9a 2c bc 5e bd a4 bc e3 19 a9 3a a9 8a c1 3b
       -0.01053487 -0.020109829 0.0012901392 0.005906422
0000b0 cf 88 65 3c 20 1f 9b bb 4e ef 14 3a a3 9f 14 bd
       0.0140096685 -0.004733935 0.0005681411 -0.036285054
0000c0 5d 99 09 3d f7 98 e5 bb 04 88 ad 3c cc e5 ef 3c
       0.033593524 -0.00700676 0.021183021 0.02928438
0000d0 6f 19 61 3d d3 46 03 bd ad b8 ae bc ce 34 54 3c
       0.054955896 -0.032049965 -0.021328295 0.012952043
0000e0 20 1f ea 3c d3 7c e8 bc 9f 65 8d 3b 10 13 ea ba
       0.028579295 -0.028379833 0.0043150927 -0.0017858464
0000f0 e5 e2 f1 3b 20 1f 71 3c f1 a6 d9 bc 5a ec 58 3c
       0.0073817843 0.014716893 -0.026568862 0.013239944
000100 c3 39 c8 bb 8a ae 6d bc 41 58 ac bc 0f 51 54 3c
       -0.0061104014 -0.014506945 -0.021038176 0.012958779
000110 05 09 a7 3b c9 21 78 bb 46 75 d1 bc d2 f2 17 3d
       0.0050975108 -0.0037861934 -0.025568616 0.037096806
000120 79 c0 fd bc 9b d6 56 bc e8 01 e6 3c 67 4d be 3a
       -0.030975567 -0.013112689 0.02807708 0.0014518917
000130 8c ee 54 bd a6 0c 30 bb a2 ba 10 3d e2 af 64 bc
       -0.05198531 -0.0026863008 0.035334237 -0.013957949
000140 c2 e6 79 3c 18 d8 d7 bb 84 3b 87 bc fa 51 e6 3b
       0.015252771 -0.0065870397 -0.016507871 0.0070288153
000150 d0 43 0a bd b6 aa f7 3c f2 92 8a 3c 75 7a 08 bc
       -0.033756077 0.030232769 0.016915772 -0.008329977
000160 b0 70 95 bc 00 c1 77 ba 42 08 db 3c 25 7c 7f bb
       -0.01824221 -0.00094510615 0.026737336 -0.0038983908
000170 42 66 dd 3c 5e e1 4f bc 92 7b 26 3c 55 f4 f9 bb
       0.0270263 -0.012688009 0.010161297 -0.0076280036
000180 3c d4 a0 39 fe c3 46 3c f0 09 f3 3b c2 bd 65 3d
       0.00030675705 0.012131689 0.007416956 0.05608917
000190 08 4a 9b 3c 3b b0 09 bc be 52 46 bb 26 53 6d 3c
       0.0189562 -0.008403833 -0.003026172 0.014485156
0001a0 2f 38 32 bc 8f 6b a2 3c 5d 89 6d 3c 83 1d bd bc
       -0.010877653 0.019826679 0.014498082 -0.023085361
0001b0 80 7b 28 bc f8 f3 b8 bb 2e b8 10 3c 17 13 08 bb
       -0.010283351 -0.0056443177 0.008832974 -0.0020763332
0001c0 4d 74 4a 3c 45 71 a2 3b 04 f0 4e bb 29 5a 4b bc
       0.01235683 0.0049573504 -0.0031576166 -0.012411633
0001d0 c6 ec 00 3d 6e 85 7f bb 95 51 34 3c 2b b6 75 3c
       0.031475805 -0.0038989442 0.011005779 0.0149970455
0001e0 b2 3b bf bb fa 64 d7 3c 3e 52 6f 3c ef 6b d7 bc
       -0.0058359737 0.026293267 0.01460701 -0.026296584
0001f0 e8 a8 dd ba c5 92 27 bd c8 3f b3 3c ec c3 00 3d
       -0.00169113 -0.040911455 0.021881 0.031436846
000200 a2 15 cb 3a ec 17 1c bc ed 79 35 ba b9 ad b1 bc
       0.0015494118 -0.009527188 -0.00069227704 -0.021689283
000210 55 c1 20 bc c6 70 2f bd 90 e0 ef bb 21 a1 0d bd
       -0.009811719 -0.04283216 -0.007320471 -0.034577493
000220 5b 2f b0 3c 8c 0a da 3b 06 16 e9 3c 89 b7 9c bc
       0.021506956 0.0066540893 0.028452884 -0.019130485
000230 a9 05 85 bb d9 05 21 bd ff 70 b1 bc 8c 14 a9 3b
       -0.0040595126 -0.039312217 -0.021660326 0.00515992
000240 79 d7 8c 3b 1f f1 f0 bc 2d 65 2d 3c ad 6b f5 bc
       0.0042981473 -0.02941185 0.010583204 -0.02995857
000250 8c 5e 96 bc 85 43 ff bb 69 5d 87 bc a3 25 a4 bb
       -0.01835563 -0.0077900314 -0.016524034 -0.0050093695
000260 66 13 b2 3b c5 19 89 bb 36 71 9a 3c a0 6b fd bc
       0.0054344414 -0.00418398 0.018852811 -0.030935109
000270 7d be 83 bc b3 0e 3c 3d 4b 0a a1 bc 7e a4 09 bb
       -0.016082043 0.045912456 -0.019658228 -0.0021002586
000280 8b 4f 55 bd 17 07 02 bd 00 1e f7 3b 4f 71 64 bc
       -0.05207781 -0.031745043 0.007541418 -0.0139430305
000290 f1 a4 94 3c bd 8b da 3b a7 5d 7c 3b dc 03 9c 3c
       0.018145056 0.00666949 0.003850797 0.019044809
0002a0 ff 8f c5 3c 8f 5b 51 bc 6b 4d f9 bc 49 21 e0 ba
       0.024116514 -0.012778177 -0.030432424 -0.0017099763
0002b0 63 3d 0e 3c e5 b0 48 bc 1d 18 90 ba 1d 94 15 bc
       0.008681628 -0.012249206 -0.0010993514 -0.009129551
0002c0 e1 36 11 3d 77 0b d8 3c 23 89 9c 3c 76 0e 06 3d
       0.035452727 0.026372654 0.01910836 0.032728635
0002d0 fc b5 68 bc c9 19 d9 b9 76 d4 87 bc a5 88 f6 bb
       -0.014203545 -0.00041408677 -0.016580801 -0.0075236135
0002e0 6c 9a 22 bb fc c9 2e 3c 91 86 d7 bc cd b3 40 3c
       -0.002481128 0.010668274 -0.026309283 0.011761618
0002f0 e5 01 92 bc c1 d9 49 bb 88 74 03 bb 6b 77 b1 bc
       -0.017823169 -0.0030799957 -0.0020058472 -0.021663388
000300 21 cd 95 bc 44 fb d5 3b 7c d3 2d bb be 8b 92 bc
       -0.01828629 0.0065301973 -0.002652376 -0.0178889
000310 7e af 2e bc 91 64 80 bd a2 12 1e bc b1 ee 0b bc
       -0.010661958 -0.062691815 -0.009647997 -0.008540795
000320 26 b8 a5 3b 85 dc dd bc 21 a8 16 bc c5 b8 b9 3a
       0.0050573526 -0.027082691 -0.0091953585 0.0014169445
000330 f2 41 ff 3b cd 6d ac 3c cc 28 ec ba 9f d7 b2 bb
       0.0077898437 0.02104845 -0.001801753 -0.005457833
000340 2e d9 2a 3d 0c 86 d0 bc 75 ed ba bb 96 4e 36 bd
       0.041711025 -0.025454544 -0.0057045766 -0.04450854
000350 5e 09 11 bc d6 73 63 3c 97 bc 9a bc 9b f8 ee bc
       -0.008852331 0.013882598 -0.018888755 -0.029171279
000360 0c b2 1c bd 3e eb 3e bd b2 7b df 39 62 d8 fc 3b
       -0.038255736 -0.046611063 0.00042626035 0.0077162245
000370 e3 aa 34 3c 0b 11 0a bc b8 c0 03 3c 1c 6f 9b bb
       0.011027071 -0.008426915 0.008041553 -0.00474347
000380 93 61 01 3d 0a 7d af 3c df 20 d3 bc 11 cd c2 ba
       0.031587195 0.021421928 -0.02577251 -0.001486214
000390 6f 59 6f bb da e1 77 bc 81 97 96 3c 54 22 9f 3c
       -0.0036521812 -0.015129531 0.01838279 0.019425549
0003a0 19 01 8b bb 68 aa d3 bc 5a 42 66 3b e4 e8 09 bc
       -0.004242074 -0.025838092 0.0035134763 -0.008417342
0003b0 38 6a 91 bb 5c 81 03 3a 23 62 8b 3c 6d fa ff 3a
       -0.004437711 0.00050165295 0.017014569 0.0019529589
0003c0 b6 66 c2 3b c3 8d 2b bb 06 52 ac 3c e6 15 3c 3d
       0.0059326543 -0.0026177026 0.021035206 0.04591932
0003d0 95 18 12 bd 0b 51 e3 bc 04 c3 82 3c 32 df 08 3c
       -0.035667975 -0.027748605 0.015962131 0.008353995
0003e0 9a 8c 6f bb a1 6b 9d 3b 6c cc ad bb 03 4c 67 bb
       -0.003655231 0.00480409 -0.00530391 -0.003529311
0003f0 53 20 dd 3c 86 42 a0 3c 6e 25 65 3b e6 c3 05 bb
       0.026992952 0.01956297 0.0034964937 -0.0020410954

action_model._continuous_distribution.mu.bias f4 [2]
000000 58 61 37 3a d2 ad f8 3b
       0.00069954013 0.0075890804

exp_avg f4 [128, 6]
000000 d6 40 a4 38 27 16 07 39 0f 64 0d 38 ec 24 e1 b9
       7.832206e-05 0.00012882856 3.3710206e-05 -0.00042942853
000010 88 1d b4 38 ec 24 e1 39 d6 e2 59 b8 a3 7c 0b b9
       8.5885695e-05 0.00042942853 -5.194809e-05 -0.00013302504
000020 f7 ed d7 b9 63 7a e8 39 85 fb b9 b8 63 7a e8 b9
       -0.00041185293 0.00044341673 -8.8683366e-05 -0.00044341673
000030 ba ea 71 39 89 aa f3 38 a5 d5 53 b9 1c 0e cb b9
       0.00023070993 0.000116189076 -0.00020202117 -0.0003872969
000040 af 71 a2 38 1c 0e cb 39 84 53 a1 b7 c5 cc f6 b8
       7.745937e-05 0.0003872969 -1.9231586e-05 -0.000117683354
000050 ed 68 2e b8 a3 aa cd 39 83 88 a4 b8 a3 aa cd b9
       -4.1582553e-05 0.0003922778 -7.845557e-05 -0.0003922778
000060 72 54 fd 36 88 01 86 b8 c5 a0 57 b9 de 57 5f 39
       7.5498183e-06 -6.389903e-05 -0.00020563889 0.0002129967
000070 b4 ac 32 b8 de 57 5f b9 ce 33 09 38 aa 99 3d 36
       -4.259935e-05 -0.0002129967 3.2711592e-05 2.825264e-06
000080 41 5d 5d 37 08 00 1e b7 d6 cc fc 35 08 00 1e 37
       1.3194339e-05 -9.417541e-06 1.8835078e-06 9.417541e-06
000090 cc 60 9c 38 50 6f a6 b7 14 4f e6 b8 1e b2 8a 38
       7.4566895e-05 -1.9840576e-05 -0.00010981984 6.61353e-05
0000a0 b9 e9 5d b7 1e b2 8a b8 96 06 1a 38 53 f3 9a b8
       -1.3227044e-05 -6.61353e-05 3.6722595e-05 -7.388615e-05
0000b0 be b4 6b b6 1a 20 81 39 c2 99 4e b8 1a 20 81 b9
       -3.5122935e-06 0.00024628715 -4.9257425e-05 -0.00024628715
0000c0 24 a5 f5 b9 88 5a 4a b8 d4 bb 0b 38 c4 a0 28 39
       -0.0004685308 -4.8244867e-05 3.331511e-05 0.00016081618
0000d0 01 e7 06 b8 c4 a0 28 b9 ca 33 93 b6 1d 3e cf 36
       -3.216323e-05 -0.00016081618 -4.3869704e-06 6.1763117e-06
0000e0 84 39 ce 35 c3 b3 ac b7 65 29 8a 36 c3 b3 ac 37
       1.5364935e-06 -2.0587706e-05 4.1175394e-06 2.0587706e-05
0000f0 8b bc fe b8 fc fe 7a b8 56 91 ae b9 d2 29 51 39
       -0.00012146783 -5.9842117e-05 -0.0003329615 0.00019947372
000100 ab 54 27 b8 d2 29 51 b9 76 c5 cd 39 72 99 d2 b7
       -3.9894756e-05 -0.00019947372 0.00039247767 -2.5105404e-05
000110 7c ab cd b8 eb 7f af 38 49 66 8c b7 eb 7f af b8
       -9.807103e-05 8.368477e-05 -1.673693e-05 -8.368477e-05
000120 87 94 09 3a 94 eb 02 38 f2 94 65 39 5a 33 da b8
       0.00052482676 3.1213815e-05 0.00021894628 -0.00010404615
000130 7b 8f ae 37 5a 33 da 38 21 48 d9 b9 96 74 e7 b8
       2.080923e-05 0.00010404615 -0.00041443206 -0.00011036654
000140 9d 81 8c 39 27 e1 c0 39 b9 4d 9a b8 27 e1 c0 b9
       0.0002679945 0.00036788845 -7.357769e-05 -0.00036788845
000150 c9 47 e1 b8 04 02 d5 b7 4b c1 2b 39 a4 81 b1 38
       -0.00010742207 -2.5392517e-05 0.00016379838 8.464165e-05
000160 5e 01 8e b7 a4 81 b1 b8 2a 6b c1 b7 ee 35 ab 38
       -1.6928356e-05 -8.464165e-05 -2.3057295e-05 8.1639606e-05
000170 dc dc ff 38 f2 ac 8e b9 ea 47 64 38 f2 ac 8e 39
       0.00012200486 -0.00027213205 5.442641e-05 0.00027213205
000180 27 03 bd b7 50 8a 53 b5 4a 57 7e 37 c4 48 30 36
       -2.2532024e-05 -7.8804896e-07 1.5159903e-05 2.62684e-06
000190 d8 06 0d b5 c4 48 30 b6 cf 13 21 37 96 19 4f b6
       -5.253655e-07 -2.62684e-06 9.60096e-06 -3.0860297e-06
0001a0 ae 10 11 b7 54 95 2c 37 10 11 0a b6 54 95 2c b7
       -8.646557e-06 1.0286767e-05 -2.0573534e-06 -1.0286767e-05
0001b0 e4 f2 f1 b9 7c 7e 84 b8 9c 56 66 39 d0 d2 5c 39
       -0.0004614807 -6.31781e-05 0.00021966774 0.00021059369
0001c0 a2 a8 30 b8 d0 d2 5c b9 e6 97 24 b9 87 cd fe 37
       -4.211872e-05 -0.00021059369 -0.00015696845 3.0374866e-05
0001d0 cb ac 93 b8 e3 55 d4 b8 54 de a9 37 e3 55 d4 38
       -7.0416914e-05 -0.000101249454 2.02499e-05 0.000101249454
0001e0 61 52 33 37 2a 55 dd 36 82 03 dc b6 a8 71 b8 b7
       1.0688412e-05 6.5962276e-06 -6.5569193e-06 -2.1987435e-05
0001f0 22 8e 93 36 a8 71 b8 37 74 81 ab 37 77 31 76 37
       4.397488e-06 2.1987435e-05 2.044507e-05 1.467426e-05
000200 90 c2 90 b5 38 29 4d b8 fd 20 24 37 38 29 4d 38
       -1.0785461e-06 -4.8914197e-05 9.782842e-06 4.8914197e-05
000210 f2 82 82 38 7a 3e f9 37 40 3d f2 b8 0e b4 cf b8
       6.2232735e-05 2.9712206e-05 -0.00011550868 -9.904067e-05
000220 a8 29 a6 37 0e b4 cf 38 fb 25 88 b6 0e ea 3b 36
       1.980814e-05 9.904067e-05 -4.0575374e-06 2.800141e-06
000230 b5 31 8d 37 6a 98 1c b7 71 8d fa 35 6a 98 1c 37
       1.6831656e-05 -9.333811e-06 1.8667616e-06 9.333811e-06
000240 b0 4c 06 b3 6a 16 3a 33 68 05 38 b6 d0 12 1b b4
       -3.1269053e-08 4.3326885e-08 -2.7421283e-06 -1.4442344e-07
000250 00 1e f8 32 d0 12 1b 34 80 93 6b 37 cf 6e c2 36
       2.8884642e-08 1.4442344e-07 1.4041434e-05 5.7945504e-06
000260 a2 e1 36 b6 03 07 a2 b7 37 9f 81 36 03 07 a2 37
       -2.725145e-06 -1.931517e-05 3.8630346e-06 1.931517e-05
000270 f1 af f8 b8 75 e1 1d b8 85 c7 d1 38 35 91 03 39
       -0.00011858333 -3.764169e-05 0.0001000306 0.00012547227
000280 f0 81 d2 b7 35 91 03 b9 c1 57 e5 38 b8 92 17 39
       -2.5094458e-05 -0.00012547227 0.00010935916 0.00014455139
000290 07 8a 8f 39 36 9f fc b9 f5 18 ca 38 36 9f fc 39
       0.00027377924 -0.00048183807 9.636759e-05 0.00048183807
0002a0 25 ce 9d 37 cf c5 a0 b6 4c e2 8d b7 2d fa 85 37
       1.8811852e-05 -4.7913995e-06 -1.6913888e-05 1.5971333e-05
0002b0 15 5d 56 b6 2d fa 85 b7 c8 e3 ff 35 23 d1 5a 36
       -3.1942666e-06 -1.5971333e-05 1.9065274e-06 3.2606265e-06
0002c0 66 3d 0e b7 f2 58 36 b7 bd e0 11 36 f2 58 36 37
       -8.478155e-06 -1.08687545e-05 2.1737499e-06 1.08687545e-05
0002d0 8c e0 37 b7 da 75 e2 b8 e7 4c 54 39 8e b7 bc 39
       -1.0959931e-05 -0.00010798471 0.00020246544 0.00035994913
0002e0 3e f9 96 b8 8e b7 bc b9 f4 e6 60 38 12 60 86 37
       -7.198982e-05 -0.00035994913 5.3620854e-05 1.6018781e-05
0002f0 da ae 36 b8 72 f5 5f b8 c2 2a 33 37 72 f5 5f 38
       -4.3555025e-05 -5.3395932e-05 1.0679187e-05 5.3395932e-05
000300 e5 77 be 38 ee 61 f2 b7 ca b2 4d b8 47 fc c9 38
       9.082238e-05 -2.889425e-05 -4.904232e-05 9.631417e-05
000310 9f 96 a1 b7 47 fc c9 b8 c6 28 ce 38 e0 1e ac 37
       -1.9262834e-05 -9.631417e-05 9.83044e-05 2.0518375e-05
000320 91 d2 8f b8 0f 6f 8f b8 7c 7e 65 37 0f 6f 8f 38
       -6.8579924e-05 -6.839458e-05 1.3678913e-05 6.839458e-05
000330 a8 72 20 3a b6 f3 fd 38 e8 05 d5 37 6e a0 d3 b9
       0.0006120601 0.00012109375 2.5394329e-05 -0.00040364586
000340 24 4d a9 38 6e a0 d3 39 44 32 f6 38 a5 9d 0e b9
       8.0729165e-05 0.00040364586 0.00011739557 -0.00013600902
000350 73 32 e8 b9 68 b1 ed 39 87 27 be b8 68 b1 ed b9
       -0.00044288076 0.0004533634 -9.0672685e-05 -0.0004533634
000360 29 90 83 39 42 5f 23 39 f6 94 20 b8 b8 24 08 ba
       0.00025093675 0.00015580378 -3.8285703e-05 -0.000519346
000370 58 d4 d9 38 b8 24 08 3a 2c 5a 6e b7 c6 1d 1b b9
       0.000103869184 0.000519346 -1.42069e-05 -0.00014793043
000380 cf 6c c2 b9 7c 43 01 3a 5c d2 ce b8 7c 43 01 ba
       -0.00037083632 0.00049310154 -9.862028e-05 -0.00049310154
000390 5f 43 13 ba a4 c1 03 b9 54 0d 8f 39 10 98 db 39
       -0.0005617644 -0.0001256527 0.00027285016 0.0004188423
0003a0 d9 ac af b8 10 98 db b9 c2 00 79 39 64 6f ea 38
       -8.376846e-05 -0.0004188423 0.00023746773 0.000111787376
0003b0 c1 d9 41 b9 d5 5c c3 b9 43 4a 9c 38 d5 5c c3 39
       -0.00018487034 -0.00037262464 7.452492e-05 0.00037262464
0003c0 0b 32 4c 37 8c b5 3d b6 49 3f 26 b7 4a 17 1e 37
       1.2170999e-05 -2.8268869e-06 -9.909106e-06 9.422956e-06
0003d0 0d f2 fc b5 4a 17 1e b7 71 5c 19 ba 30 27 a3 38
       -1.8845909e-06 -9.422956e-06 -0.00058502617 7.779745e-05
0003e0 b2 89 b8 38 00 f6 87 b9 94 89 59 38 00 f6 87 39
       8.7994515e-05 -0.0002593249 5.186496e-05 0.0002593249
0003f0 d5 f6 12 b9 c8 33 12 b8 50 30 06 39 a3 ab f3 38
       -0.00014015597 -3.4857338e-05 0.00012797234 0.00011619113

exp_avg_sq f4 [128, 6]
000000 61 39 d2 34 2a 62 00 34 5b 6a f1 34 72 4f b2 35
       3.9157297e-07 1.1956641e-07 4.4967132e-07 1.3285155e-06
000010 bd 3c 64 33 72 4f b2 35 b9 e7 30 34 29 06 94 33
       5.3140628e-08 1.3285155e-06 1.6475578e-07 6.8929076e-08
000020 f3 8b 02 35 c1 96 4d 35 b1 93 03 33 c1 96 4d 35
       4.8632427e-07 7.6587827e-07 3.063514e-08 7.6587827e-07
000030 1a ba 1e 35 5b 23 ab 33 ff a4 0d 35 09 b1 6d 35
       5.91304e-07 7.969239e-08 5.2766694e-07 8.8547e-07
000040 66 1f 18 33 09 b1 6d 35 d6 bb 0c 34 f2 66 83 33
       3.5418815e-08 8.8547e-07 1.310685e-07 6.1188885e-08
000050 8f 04 1a 35 ca 80 36 35 94 9a e9 32 ca 80 36 35
       5.7376104e-07 6.7987696e-07 2.7195064e-08 6.7987696e-07
000060 44 e2 68 33 8f f3 12 33 97 f9 d7 34 6b 19 cc 34
       5.4222497e-08 3.421479e-08 4.022847e-07 3.8016455e-07
000070 a1 9f 82 32 6b 19 cc 34 3d 16 7a 31 45 b6 8d 30
       1.5206583e-08 3.8016455e-07 3.639243e-09 1.0310904e-09
000080 bb e2 79 32 8a d2 44 32 cc ee fb 2f 8a d2 44 32
       1.454526e-08 1.1456573e-08 4.582631e-10 1.1456573e-08
000090 98 48 a8 33 8a d3 83 32 77 42 a1 33 9c 17 37 34
       7.836314e-08 1.5346604e-08 7.5092366e-08 1.7051792e-07
0000a0 ab 5b ea 31 9c 17 37 34 0e 87 38 34 58 e7 51 33
       6.8207178e-09 1.7051792e-07 1.7185468e-07 4.887201e-08
0000b0 c4 3b dc 34 34 c4 11 35 bb 94 ba 32 34 c4 11 35
       4.1021678e-07 5.430222e-07 2.1720885e-08 5.430222e-07
0000c0 2c 53 f7 34 49 9a 91 33 89 10 30 34 dc 39 4a 35
       4.606785e-07 6.780153e-08 1.6397293e-07 7.533506e-07
0000d0 b6 6c 01 33 dc 39 4a 35 12 0f ef 30 26 2a 3f 30
       3.0134025e-08 7.533506e-07 1.7393822e-09 6.954529e-10
0000e0 71 64 0b 31 d6 c0 04 32 94 ec a9 2f d6 c0 04 32
       2.0284256e-09 7.727257e-09 3.090902e-10 7.727257e-09
0000f0 98 26 86 34 e8 0c 21 34 ec 96 5a 35 58 ae df 35
       2.4987526e-07 1.4998989e-07 8.143095e-07 1.6665535e-06
000100 eb 27 8f 33 58 ae df 35 8a 48 48 34 f9 49 04 33
       6.6662174e-08 1.6665535e-06 1.8652841e-07 3.0800923e-08
000110 4e 04 03 34 0f bc b7 34 1e 2e 6b 32 0f bc b7 34
       1.2201892e-07 3.4223237e-07 1.3689286e-08 3.4223237e-07
000120 e7 ac e7 34 cc dd 4b 34 88 8f 16 35 eb 92 0d 36
       4.3152906e-07 1.8986537e-07 5.608822e-07 2.1096155e-06
000130 ec 36 b5 33 eb 92 0d 36 24 63 ac 33 de 68 e9 31
       8.4384595e-08 2.1096155e-06 8.027408e-08 6.7931145e-09
000140 20 1a 73 33 0b 17 a2 33 ad 79 4f 31 0b 17 a2 33
       5.6601607e-08 7.547904e-08 3.019163e-09 7.547904e-08
000150 14 84 35 34 26 1a 61 33 5c 24 78 34 1a 52 1c 35
       1.6904988e-07 5.2410677e-08 2.3110027e-07 5.8234e-07
000160 34 17 c8 32 1a 52 1c 35 6d a2 98 34 a0 bd d6 33
       2.3293616e-08 5.8234e-07 2.8430387e-07 9.999644e-08
000170 d4 d7 f0 34 1b 20 95 35 68 e1 3e 33 1b 20 95 35
       4.486052e-07 1.1110709e-06 4.4442828e-08 1.1110709e-06
000180 7f 6f 95 31 86 11 80 30 d7 cb b6 31 6e df 31 32
       4.3491464e-09 9.318206e-10 5.320071e-09 1.0353558e-08
000190 64 ad e3 2f 6e df 31 32 8d 68 0a 31 00 ec ae 2e
       4.141426e-10 1.0353558e-08 2.0141073e-09 7.954526e-11
0001a0 4f 52 19 31 7c f2 72 30 71 7c 1b 2e 7c f2 72 30
       2.2311217e-09 8.838368e-10 3.5353446e-11 8.838368e-10
0001b0 ef 40 28 35 06 5e fb 33 e6 1a 2d 35 8c 8f ae 35
       6.267937e-07 1.1705201e-07 6.4486665e-07 1.3005788e-06
0001c0 fe 6f 5f 33 8c 8f ae 35 a3 1b a4 34 df 07 3b 33
       5.202309e-08 1.3005788e-06 3.056749e-07 4.354649e-08
0001d0 cc 33 42 34 e7 e1 01 35 e2 3f a6 32 e7 e1 01 35
       1.8086502e-07 4.8384976e-07 1.9353994e-08 4.8384976e-07
0001e0 e8 96 98 31 a8 a0 96 30 93 ff 87 31 7c 34 51 32
       4.4409383e-09 1.0959598e-09 3.9580725e-09 1.2177335e-08
0001f0 28 e4 05 30 7c 34 51 32 55 a4 b8 31 55 fc 8b 30
       4.870935e-10 1.2177335e-08 5.373787e-09 1.0185298e-09
000200 f6 38 dd 31 ab 6c 42 32 0a dd f8 2f ab 6c 42 32
       6.4384222e-09 1.13169945e-08 4.5267995e-10 1.13169945e-08
000210 be 64 a4 33 02 89 05 33 d9 73 73 34 2d 77 b9 34
       7.65517e-08 3.1091083e-08 2.2673284e-07 3.4545647e-07
000220 53 65 6d 32 2d 77 b9 34 99 e1 04 31 16 5f 43 30
       1.3818254e-08 3.4545647e-07 1.9336766e-09 7.107571e-10
000230 31 5a 21 32 b4 ac 07 32 db a9 ad 2f b4 ac 07 32
       9.391941e-09 7.897302e-09 3.1589206e-10 7.897302e-09
000240 22 aa 7f 2e ed 0f 42 2d c1 9e 2e 2e f1 c3 06 2f
       5.8131396e-11 1.10311595e-11 3.970402e-11 1.2256841e-10
000250 ee 7f ac 2c f1 c3 06 2f 1e c6 22 30 51 fe 1e 2f
       4.902737e-12 1.2256841e-10 5.92168e-10 1.4460368e-10
000260 d3 20 ac 30 02 d3 dc 30 d2 53 8d 2e 02 d3 dc 30
       1.2523976e-09 1.6067079e-09 6.426827e-11 1.6067079e-09
000270 24 99 95 33 e2 3a 30 32 b7 29 71 33 97 c3 f4 33
       6.966209e-08 1.0257937e-08 5.6150125e-08 1.1397713e-07
000280 1a a6 9c 31 97 c3 f4 33 ef 0a f7 33 1d 81 62 33
       4.559081e-09 1.1397713e-07 1.15038226e-07 5.2737153e-08
000290 b0 d5 79 34 6f 4b 1d 35 4e 56 c9 32 6f 4b 1d 35
       2.3267671e-07 5.859683e-07 2.3438727e-08 5.859683e-07
0002a0 af 9b 82 30 4c 97 d2 2e 88 9b bd 30 69 3e 92 30
       9.502993e-10 9.57657e-11 1.3795765e-09 1.0640636e-09
0002b0 36 31 3b 2e 69 3e 92 30 d9 fc e9 30 43 28 01 30
       4.2562585e-11 1.0640636e-09 1.7024845e-09 4.698714e-10
0002c0 1b cf 8c 31 98 62 b3 31 f5 9c 65 2f 98 62 b3 31
       4.0980814e-09 5.2207945e-09 2.0883191e-10 5.2207945e-09
0002d0 29 31 f7 34 12 fb 02 34 1d a4 94 34 f6 ea b5 35
       4.6043104e-07 1.2198532e-07 2.7686556e-07 1.3553934e-06
0002e0 d0 da 68 33 f6 ea b5 35 a5 66 59 34 7a 0a ff 32
       5.4215718e-08 1.3553934e-06 2.0247042e-07 2.9690671e-08
0002f0 79 12 d3 34 a3 1c b1 34 fe b3 62 32 a3 1c b1 34
       3.9315253e-07 3.2989655e-07 1.3195857e-08 3.2989655e-07
000300 ab f2 97 32 e8 e5 b7 30 b8 65 9d 32 fe 69 7f 32
       1.7689066e-08 1.3380346e-09 1.8323462e-08 1.4867053e-08
000310 0c 77 23 30 fe 69 7f 32 15 5d 83 33 1a 2f 17 32
       5.946823e-10 1.4867053e-08 6.1170944e-08 8.8000665e-09
000320 74 d1 8b 33 4e fa d1 33 c3 62 86 31 4e fa d1 33
       6.510791e-08 9.777851e-08 3.911141e-09 9.777851e-08
000330 8c 04 48 35 3e 20 8a 34 e6 75 9c 35 76 d7 3f 36
       7.451242e-07 2.5727962e-07 1.1657219e-06 2.8586633e-06
000340 a3 8e f5 33 76 d7 3f 36 bd 46 29 34 df db 87 33
       1.1434647e-07 2.8586633e-06 1.5765086e-07 6.326422e-08
000350 ca ca 0b 35 62 b1 3c 35 df 86 f1 32 62 b1 3c 35
       5.207663e-07 7.0293584e-07 2.8117425e-08 7.0293584e-07
000360 54 db d9 34 0b 09 ec 33 ef e5 f2 34 db e9 a3 35
       4.0578982e-07 1.0991251e-07 4.524331e-07 1.2212507e-06
000370 29 cf 51 33 db e9 a3 35 65 2d 72 33 4d ec 09 33
       4.8850016e-08 1.2212507e-06 5.6386302e-08 3.2112712e-08
000380 96 67 8b 34 43 8f bf 34 4d 32 75 32 43 8f bf 34
       2.5966136e-07 3.568076e-07 1.4272314e-08 3.568076e-07
000390 91 5f 04 35 07 28 7b 33 f4 e2 06 35 02 6a 2e 35
       4.93129e-07 5.8476896e-08 5.024915e-07 6.4974313e-07
0003a0 02 40 df 32 02 6a 2e 35 a1 32 e9 34 c9 a6 62 34
       2.5989724e-08 6.4974313e-07 4.343647e-07 2.1108566e-07
0003b0 2d e7 d4 35 95 65 1d 36 cb 77 c9 33 95 65 1d 36
       1.5862512e-06 2.3453952e-06 9.381582e-08 2.3453952e-06
0003c0 01 e9 2a 2f 3b 61 37 2d bc de 31 2f b7 b1 fe 2e
       1.554419e-10 1.0423935e-11 1.6177187e-10 1.1582151e-10
0003d0 18 01 a3 2c b7 b1 fe 2e 1c a6 74 35 19 cf b7 34
       4.63286e-12 1.1582151e-10 9.1138804e-07 3.423709e-07
0003e0 b6 17 ff 35 50 4a 7f 36 c2 62 23 34 50 4a 7f 36
       1.9005881e-06 3.8041217e-06 1.5216486e-07 3.8041217e-06
0003f0 bf fb b8 32 41 f3 20 31 e1 55 e4 32 c0 8a df 32
       2.15349e-08 2.3421338e-09 2.6581747e-08 2.6023713e-08

exp_avg f4 [128]
000000 86 1d b4 38 86 fb b9 b8 b1 71 a2 38 83 88 a4 b8
       8.588568e-05 -8.868337e-05 7.745939e-05 -7.845557e-05
000010 b4 ac 32 b8 d6 cc fc 35 c2 e9 5d b7 c2 99 4e b8
       -4.259935e-05 1.8835078e-06 -1.32270525e-05 -4.9257425e-05
000020 04 e7 06 b8 68 29 8a 36 a8 54 27 b8 4c 66 8c b7
       -3.216324e-05 4.117541e-06 -3.9894745e-05 -1.6736936e-05
000030 78 8f ae 37 b8 4d 9a b8 55 01 8e b7 e7 47 64 38
       2.0809224e-05 -7.3577685e-05 -1.692834e-05 5.44264e-05
000040 fc 06 0d b5 10 11 0a b6 a2 a8 30 b8 58 de a9 37
       -5.2536757e-07 -2.0573534e-06 -4.211872e-05 2.0249907e-05
000050 20 8e 93 36 fc 20 24 37 a7 29 a6 37 7b 8d fa 35
       4.397487e-06 9.7828415e-06 1.9808138e-05 1.8667628e-06
000060 58 1e f8 32 36 9f 81 36 ee 81 d2 b7 f6 18 ca 38
       2.8884799e-08 3.863034e-06 -2.5094454e-05 9.63676e-05
000070 15 5d 56 b6 bb e0 11 36 3d f9 96 b8 c6 2a 33 37
       -3.1942666e-06 2.1737494e-06 -7.1989816e-05 1.067919e-05
000080 9f 96 a1 b7 80 7e 65 37 22 4d a9 38 85 27 be b8
       -1.9262834e-05 1.3678917e-05 8.072915e-05 -9.067267e-05
000090 56 d4 d9 38 5e d2 ce b8 d8 ac af b8 40 4a 9c 38
       0.00010386917 -9.8620294e-05 -8.376845e-05 7.45249e-05
0000a0 0e f2 fc b5 94 89 59 38 b9 ef c2 b7 b7 18 b7 36
       -1.884591e-06 5.186496e-05 -2.3238232e-05 5.456702e-06
0000b0 fe 38 86 37 86 35 25 b7 98 59 25 34 ce 62 c9 b7
       1.6000584e-05 -9.847228e-06 1.5399416e-07 -2.4007077e-05
0000c0 d2 08 60 38 d7 56 94 b7 f1 f2 8d b7 00 f8 27 b7
       5.3413976e-05 -1.7683413e-05 -1.6921638e-05 -1.0011718e-05
0000d0 af 91 62 b8 e2 d2 5d b8 c0 ae 39 37 c5 8a eb 34
       -5.4018277e-05 -5.2886906e-05 1.1067546e-05 4.387313e-07
0000e0 43 f8 55 36 10 11 c5 38 7b 41 40 b8 e2 fc ca 38
       3.188398e-06 9.39687e-05 -4.583735e-05 9.679214e-05
0000f0 6c 4d 29 36 4d a2 00 b9 63 63 d8 38 cb 0d 29 38
       2.5228028e-06 -0.00012267493 0.00010318195 4.0305586e-05
000100 97 01 8d 36 3d 02 af b8 40 f0 73 38 98 bc 1e 35
       4.2023125e-06 -8.345067e-05 5.8159465e-05 5.9134027e-07
000110 98 62 06 39 c8 11 04 b8 e6 e2 2d 38 78 09 e6 b6
       0.00012815965 -3.1487813e-05 4.145773e-05 -6.8556365e-06
000120 8a 4e 02 39 18 99 a1 34 7a 73 1a 37 2b 0d bc b8
       0.00012427024 3.0099977e-07 9.206002e-06 -8.966991e-05
000130 2e 6b 8a b7 05 a4 09 b6 f8 6a e7 37 b1 18 14 b9
       -1.6500791e-05 -2.0510063e-06 2.7587157e-05 -0.00014123578
000140 da d7 93 38 82 4e 31 36 9b 7c 16 b8 3f 09 01 b9
       7.049712e-05 2.6420753e-06 -3.5878835e-05 -0.00012305843
000150 33 0f 93 b7 03 2c 36 b7 91 89 42 b8 0a dd 37 37
       -1.7530843e-05 -1.0858293e-05 -4.6381323e-05 1.0959115e-05
000160 6d 74 90 b7 03 01 c1 b8 6a 61 4f 37 d9 68 e8 37
       -1.7220353e-05 -9.2031456e-05 1.2360842e-05 2.7705379e-05
000170 33 11 09 37 79 0b 4d b8 4c 80 69 38 f6 14 d7 38
       8.169841e-06 -4.8886493e-05 5.5671015e-05 0.00010255903
000180 6e a5 71 b7 0c ea 3a 39 3b c1 8a 38 00 10 5f 38
       -1.44032365e-05 0.00017825532 6.616345e-05 5.3182244e-05
000190 8d 0b a1 b8 6e ce 11 b7 f8 1d b7 37 24 0b ad b7
       -7.67923e-05 -8.690737e-06 2.1829255e-05 -2.0628395e-05
0001a0 40 da 82 b8 54 77 cc b6 c8 1d 88 35 88 2d 05 36
       -6.239535e-05 -6.0935654e-06 1.0141457e-06 1.9845047e-06
0001b0 8d 9c 5b b9 f0 be 7d 38 79 b4 c7 b8 9f c3 f3 b8
       -0.00020943787 6.0497725e-05 -9.522675e-05 -0.0001162358
0001c0 19 ec 62 b8 78 53 b5 b6 c8 bd 3a b9 a4 1e b5 38
       -5.4102482e-05 -5.4039374e-06 -0.00017809041 8.63646e-05
0001d0 80 c5 96 38 e0 d3 3a b8 15 57 86 38 a0 21 49 b6
       7.1893446e-05 -4.454318e-05 6.405838e-05 -2.9970906e-06
0001e0 76 42 91 b8 e6 50 bb 38 68 1c e7 b6 0a ad fe b7
       -6.926518e-05 8.9319234e-05 -6.8876434e-06 -3.0359737e-05
0001f0 88 74 e2 b7 17 af 2c b8 14 fa fa 38 71 13 1b b8
       -2.6995564e-05 -4.117106e-05 0.000119675096 -3.6972986e-05
