results/100A/Agent Behavior.onnx (onnx, 75061 bytes, 7 tensors)

network_body._body_endoder.seq_layers.0.weight f4 [128, 6]
-0.31921735 -0.29210186 0.02718875 -0.15138131 -0.19864453 -0.32368407 0.7853282 -0.26189268
0.20576042 -0.3555687 0.120998144 -0.28430048 -0.33750373 -0.2845931 -0.6050306 0.01832534
-0.3568513 0.41884384 -0.019370597 -0.69902176 -0.32233387 0.32014525 -0.081179745 0.4568614
0.1967864 0.61262035 -0.08066185 0.32322925 -0.13516341 0.3690896 0.341208 -0.81258047
0.5792741 1.036288 -0.800815 -0.04749968 0.5918103 -0.2706208 -0.43404472 0.086201146
0.17685048 0.12056657 0.2384509 0.51137483 0.043966804 0.13458133 -0.099067114 -0.05371752
0.31657383 -0.6273064 0.016626531 -0.53253865 0.018484175 0.1211163 -0.2900626 -0.08120674
-0.6228136 -0.061739635 -0.17231487 0.30301067 0.5812529 0.030769462 0.38705274 0.18807738
0.8005715 -0.7672866 0.4281985 0.052115515 -0.36851963 -0.268369 0.30795345 0.3937602
0.04283384 -0.23637457 0.40690243 7.5329146e-05 0.4560728 -0.23699224 -0.31045362 0.18730393
-0.12636666 -0.069620796 0.2581022 -0.25371915 0.20541832 0.653397 -0.044036217 -0.07987754
-0.07202992 -0.0137378 0.030497653 -0.13143924 0.111678794 -0.2965193 -0.06379456 0.014438107
-0.19728398 0.049765993 -0.27566057 1.0795943 -0.29764685 0.1269962 -0.5642288 0.14309436
-0.8986551 -0.27853078 0.76162744 0.33177805 1.1625568 0.2918679 -0.3161019 -0.08445007
-0.25195244 -0.50712734 -0.20661396 0.25430846 0.22698009 -0.5308125 -0.38849333 0.7283093
0.85221946 -0.8827599 -0.43322083 0.8337829 0.45686996 -0.6458452 -0.11986849 -0.2740556
-0.40445402 -0.26883957 -0.28575104 -0.27858692 0.437101 -0.32578093 0.124558255 -1.0230769
0.32602412 0.41477877 -0.2947939 -0.11800991 -0.16714828 0.39474025 -0.271832 -0.73612154
0.16029629 0.022034144 0.10672561 -0.3791965 0.19907898 -0.71976566 -0.27391648 -0.5133134
-0.32449934 0.35380173 0.28421786 0.15697967 -0.040445596 0.11112082 -0.4597625 0.4575569
-0.0902176 0.05668684 0.308226 -0.17799124 -0.54669315 -0.8785001 0.18481416 0.66233414
0.41552627 -0.06223295 0.23306264 -0.80818576 -0.5963742 -0.3536315 0.5290368 0.22284892
0.37174794 0.17855817 0.38328177 0.16297486 -0.011682396 0.6942713 -0.012146465 -0.41229367
0.16506995 0.02365713 0.06826337 0.054930907 0.46050107 0.36314794 0.3720882 0.36096743
-0.4547942 0.6527658 -0.38379756 -0.127827 0.034584988 -0.88207406 -0.029946344 -0.46070608
0.3864379 -0.8939441 0.046663098 0.57309586 0.20313972 0.3773653 -0.42762724 -0.8732589
0.30306983 0.6436314 -0.80259085 -0.3376045 -0.12850621 -0.13388112 0.06465174 0.19329944
0.014188125 -0.25270352 0.012915712 -0.1149725 -0.21342695 0.121498115 -0.28899765 0.048785657
-0.08125033 0.020037616 -0.034713548 -0.30274203 0.64460194 -0.049104217 0.2613981 0.2678767
-0.023012951 0.19396758 -0.4510914 -0.023194833 -0.8573018 -0.43064192 0.35431203 0.11364308
0.7967597 0.57920545 0.15881269 0.22534485 0.07515018 -0.3651078 0.32217205 -0.39403066
0.65457106 0.2703575 -0.37511042 0.17303453 -0.672794 0.484394 -0.5389203 0.40592015
00000000: 7570 a3be 608e 95be f1ba de3c b403 1bbe
00000010: 7969 4bbe ebb9 a5be 450b 493f cc16 86be
00000020: dcb2 523e 1a0d b6be e0cd f73d d58f 91be
00000030: 4acd acbe 30b6 91be 49e3 1abf 061f 963c
00000040: 37b5 b6be b372 d63e 16af 9ebc 17f3 32bf
00000050: f208 a5be 14ea a33e 9141 a6bd bde9 e93e
00000060: 6082 493e b0d4 1c3f 0a32 a5bd 4e7e a53e
00000070: 4768 0abe 50f9 bc3e d1b2 ae3e 4605 50bf
00000080: 4f4b 143f 16a5 843f 3602 4dbf 068f 42bd
00000090: e180 173f cf8e 8abe 1c3b debe 3a8a b03d
000000a0: 4b18 353e 9beb f63d 792c 743e 76e9 023f
000000b0: 8916 343d b0cf 093e b3e3 cabd e706 5cbd
000000c0: f715 a23e 2797 20bf 5d34 883c 7454 08bf
000000d0: 206c 973c d30b f83d 1683 94be b84f a6bd
000000e0: b670 1fbf b3e2 7cbd 4f73 30be 3724 9b3e
000000f0: fdcc 143f 3d10 fc3c c72b c63e 5b97 403e
00000100: 41f2 4c3f e56c 44bf d53c db3e 1477 553d
00000110: 9bae bcbe a967 89be 13ac 9d3e f09a c93e
00000120: 8972 2f3d 2d0c 72be 8455 d03e 07fa 9d38
00000130: 6082 e93e 18ae 72be c7f3 9ebe 9acc 3f3e
00000140: 4366 01be 5995 8ebd f925 843e 7ae7 81be
00000150: 2e59 523e 0745 273f 525f 34bd d696 a3bd
00000160: 6c84 93bd 8214 61bc 37d6 f93c 0298 06be
00000170: dab7 e43d 61d1 97be b9a6 82bd cf8d 6c3c
00000180: d004 4abe 6dd7 4b3d 6223 8dbe 2530 8a3f
00000190: 2b65 98be 4b0b 023e 4c71 10bf 5487 123e
000001a0: 430e 66bf 969b 8ebe 04fa 423f d0de a93e
000001b0: a9ce 943f b66f 953e 1cd8 a1be 29f4 acbd
000001c0: e9ff 80be 19d3 01bf 9c92 53be b834 823e
000001d0: 786d 683e 54e3 07bf 99e8 c6be 7a72 3a3f
000001e0: 0e2b 5a3f 8efc 61bf 1fcf ddbe cc72 553f
000001f0: dcea e93e 1c56 25bf 9c7d f5bd 0451 8cbe
00000200: 9914 cfbe 57a5 89be f64d 92be f2a2 8ebe
00000210: b4cb df3e c2cc a6be 6618 ff3d 2ff4 82bf
00000220: a2ec a63e e25d d43e 3aef 96be 2eaf f1bd
00000230: eb28 2bbe 651b ca3e 902d 8bbe 7672 3cbf
00000240: b624 243e f380 b43c f592 da3d 0b26 c2be
00000250: 5cdb 4b3e 9042 38bf c83e 8cbe 8268 03bf
00000260: c724 a6be 8025 b53e 0185 913e 47bf 203e
00000270: 48aa 25bd 5093 e33d fe65 ebbe e644 ea3e
00000280: 01c4 b8bd 7630 683d cccf 9d3e 5643 36be
00000290: 15f4 0bbf 62e5 60bf ec3f 3d3e bb8e 293f
000002a0: dcbf d43e fae7 7ebd f9a7 6e3e 43e5 4ebf
000002b0: fbab 18bf 300f b5be f56e 073f 8232 643e
000002c0: bf55 be3e f4d7 363e 823d c43e e2e2 263e
000002d0: 8567 3fbc c4bb 313f f701 47bc 2818 d3be
000002e0: 1908 293e 99cc c13c aacd 8b3d 3bff 603d
000002f0: ccc6 eb3e 87ee b93e 5882 be3e b9d0 b83e
00000300: c9da e8be a91b 273f 1d81 c4be 15e5 02be
00000310: fda8 0d3d 9bcf 61bf 0952 f5bc abe1 ebbe
00000320: 30db c53e 85d9 64bf ce21 3f3d 69b6 123f
00000330: dc03 503e 0636 c13e f5f1 dabe e58d 5fbf
00000340: f82b 9b3e 07c5 243f 9876 4dbf 7fda acbe
00000350: 2297 03be 2218 09be 2268 843d 4af0 453e
00000360: 4f75 683c 5b62 81be 6c9c 533c b476 ebbd
00000370: 988c 5abe 01d4 f83d 80f7 93be 78d3 473d
00000380: 9366 a6bd ed25 a43c cb2f 0ebd 0101 9bbe
00000390: a204 253f 8121 49bd f9d5 853e 2327 893e
000003a0: a885 bcbc 709f 463e 74f5 e6be 1703 bebc
000003b0: 2178 5bbf 197d dcbe 6368 b53e b4bd e83d
000003c0: 72f8 4b3f cf46 143f cb9f 223e cdc0 663e
000003d0: 56e8 993d 69ef babe bcf3 a43e 63be c9be
000003e0: f891 273f 4c6c 8a3e 790e c0be f72f 313e
000003f0: 3a3c 2cbf 7e02 f83e aef6 09bf c4d4 cf3e

network_body._body_endoder.seq_layers.0.bias f4 [128]
0.00089709985 0.0031392854 0.009791621 -0.005682329 -0.003201079 -0.009315358 -0.0066396156 -0.0067743976
-0.008532473 -0.0075757094 -0.0009833549 0.0031215302 0.01578954 -0.014459213 -0.011740018 0.00090587157
-0.003158464 0.014885304 -0.0044424157 0.011445788 -0.0069777467 -0.0035816324 -0.001208297 -0.007752272
-0.004069988 -0.0025855445 0.003872052 -0.001618891 0.011941361 0.005839643 0.011270273 0.0041555716
-0.0066855685 -0.0026675893 0.005809629 0.052138917 -0.0049626837 -0.0035224047 -0.001906598 -0.0051400214
0.009151459 0.012103238 -0.0017068414 -0.011704492 -0.0051937676 -0.00088778697 0.017802367 0.0011907325
0.02560528 -0.009538985 0.0015664577 0.010973499 0.0046122125 -0.0014659893 -0.004977912 0.00838437
-0.00049110997 0.016963538 -0.01827943 0.012207819 0.0061418344 0.0061571635 0.0008362333 0.0013641205
0.0010274797 0.010501176 -0.0003252421 -0.016572028 -0.017460266 -0.00962787 -0.014000174 -0.009957296
-0.018511416 -0.0016251097 0.004268725 0.0040914356 0.011487629 -0.013424127 -0.012036813 0.005024648
0.02868761 0.010363591 0.010645093 -0.013426504 -0.005022604 0.028628677 -0.003636407 -0.0040562088
0.0020308385 0.026483815 -0.008104412 0.01322459 0.012516189 0.0069427257 -0.0017660126 -0.0014309443
0.003399193 -0.0062330323 0.018817257 -0.010440771 0.009611686 -0.001297884 0.009392337 0.034036506
0.012274993 0.0134251835 -0.00033887752 -0.0071533746 0.0070252465 0.024516635 0.0038282257 -0.0025515906
-0.015550925 -0.0023901633 -0.015893692 0.0070555247 0.0064762197 0.0067791594 -0.0005515725 -0.0019108369
-0.0028306986 -0.0062119486 0.002576216 -0.010905425 0.007912109 0.012856024 -0.014532312 0.02023047
00000000: 5a2b 6b3a 78bc 4d3b 096d 203c d532 babb
00000010: 32c9 51bb 719f 18bc 2291 d9bb c4fb ddbb
00000020: c9cb 0bbc a83d f8bb eae3 80ba 9692 4c3b
00000030: 1159 813c 56e6 6cbc 3459 40bc 0378 6d3a
00000040: 3cfe 4ebb 7de1 733c af91 91bb 1d87 3b3c
00000050: 95a5 e4bb d2b9 6abb b85f 9eba c506 febb
00000060: 895d 85bb 3d72 29bb 41c2 7d3b f830 d4ba
00000070: b3a5 433c 7a5a bf3b f3a6 383c 762b 883b
00000080: 9d12 dbbb b9d2 2ebb b35e be3b 9e8f 553d
00000090: 029e a2bb 25d8 66bb d0e6 f9ba a06d a8bb
000000a0: 00f0 153c a94c 463c 18b8 dfba 33c4 3fbc
000000b0: 7b30 aabb 60ba 68ba 45d6 913c 5a12 9c3a
000000c0: 2ac2 d13c 6749 1cbc 9951 cd3a 31ca 333c
000000d0: 0b22 973b 7026 c0ba c11d a3bb 995e 093c
000000e0: d5bd 00ba 1ef7 8a3c bebe 95bc 4e03 483c
000000f0: 7141 c93b 08c2 c93b ab36 5b3a 4acc b23a
00000100: 7fac 863a 200d 2c3c 4185 aab9 10c2 87bc
00000110: d508 8fbc 37be 1dbc fc60 65bc ed23 23bc
00000120: 41a5 97bc a201 d5ba a9e0 8b3b 7311 863b
00000130: 9c36 3c3c dff0 5bbc 0e36 45bc cda5 a43b
00000140: 4702 eb3c 0dcc 293c c268 2e3c d7fa 5bbc
00000150: a894 a4bb b086 ea3c c950 6ebb f2e9 84bb
00000160: d117 053b 96f4 d83c 5ec8 04bc f3ab 583c
00000170: b410 4d3c ce7f e33b 8d79 e7ba 868e bbba
00000180: ffc4 5e3b 773e ccbb a626 9a3c c40f 2bbc
00000190: 557a 1d3c c31d aaba 51e2 193c dd69 0b3d
000001a0: 0d1d 493c 4df5 5b3c 5fab b1b9 db66 eabb
000001b0: 0a34 e63b 1cd7 c83c f8e2 7a3b 9638 27bb
000001c0: 4fc9 7ebc 49a4 1cbb 7d33 82bc 0832 e73b
000001d0: 7836 d43b b623 de3b 6797 10ba 0c75 faba
000001e0: 3e83 39bb 9a8d cbbb bbd5 283b abac 32bc
000001f0: caa1 013c 13a2 523c ef18 6ebc 5fba a53c

network_body._body_endoder.seq_layers.2.weight f4 [128, 128]
-0.05401549 -0.0016502383 -0.10005953 -0.0425434 0.07653248 -0.041398026 0.027208006 -0.0608093
0.010088593 -0.0053344816 -0.049993377 -0.029446514 -0.05788027 0.05655594 -0.009423278 -0.088070676
-0.12399889 0.021926707 0.07193738 0.03893428 -0.035794593 0.11009425 -0.0559316 0.108802006
-0.02877665 0.06976477 0.016581088 0.1416205 0.15087968 -0.10381079 -0.113610335 -0.054831777
-0.05057449 0.042381503 -0.02456191 0.106641605 -0.13183463 0.08756709 -0.17680153 0.11800637
0.10451929 -0.14884223 -0.11623293 0.124237105 -0.068442434 0.06749879 -0.016030032 -0.03821418
0.2365237 -0.08745248 -0.021355947 -0.057340182 0.016228648 0.09765476 -0.080774635 0.156793
-0.19334596 -0.0077299997 -0.015089324 -0.036459256 0.011762719 -0.029466044 0.029999048 -0.053578306
0.014844476 -0.16065463 -0.03412851 -0.059662424 -0.015798327 0.030520495 -0.0122221345 0.09663291
-0.12535353 -0.071739964 -0.14655045 -0.0056322934 -0.0029580772 0.080926806 -0.071144514 -0.019414105
-0.12257815 0.09341743 -0.0021171486 -0.13464011 0.11656636 -0.018865854 0.053271413 0.109187454
-0.115258 0.18275313 0.06500703 -0.07706955 0.09995145 -0.07080274 0.080156095 -0.011640152
0.12702459 0.058613718 -0.06401219 0.11173564 0.12737899 -0.05214121 -0.05369496 0.053075626
0.04538463 -0.06348641 -0.07154683 -0.049949273 -0.026754579 0.055593207 0.006592876 -0.011624741
0.06740532 -0.0081002265 -0.039788175 0.023473147 0.009759445 0.13804959 -0.02665124 0.04052493
0.105317876 -0.06223316 0.016547367 0.00082534493 0.117828384 0.03356467 -0.001828392 0.007984881
-0.026442636 -0.088097535 0.06435632 0.021809075 -0.064210966 0.086562335 -0.12124846 0.039279122
-0.03665958 0.05675829 0.08443335 0.0048311893 0.026188608 -0.085149005 0.13285214 0.14529268
-0.1098471 0.029484957 -0.068530105 0.12281715 0.04815326 0.046341825 -0.0040115835 -0.13179402
-0.107869975 -0.06764541 -0.11499227 -0.038023934 0.013092499 0.001453331 0.105482176 -0.008738523
-0.084846765 -0.04464126 0.08937702 0.046716817 0.028193519 0.02546083 -0.13470079 -0.09680673
-0.12485026 0.011262379 -0.081851296 -0.06782171 -0.0062699574 0.14219901 0.045481034 0.058527555
-0.029617248 0.06608345 -0.027568158 0.08636214 0.032014113 0.02647494 0.13016476 0.17102402
-0.08933942 -0.02192665 0.031972013 0.032448146 0.098255776 -0.017802473 0.0492928 0.07754829
0.04083588 -0.024130743 0.13683057 -0.007995319 0.017626489 0.028072191 0.06716123 0.03595103
-0.01349335 -0.015458338 0.11076702 0.10682671 -0.108617276 -0.1611447 0.08978845 0.06612164
-0.014353549 -0.14414647 0.1909222 -0.048815507 0.20722643 -0.095420904 -0.04657838 0.037350524
0.0873574 0.05013906 -0.01281491 0.07151678 -0.045637775 0.065066114 0.103558466 -0.098885424
0.04081273 -0.14863776 -0.02257524 -0.123621345 0.008220508 -0.0018421884 0.020597588 0.009997286
0.11537066 -0.048265092 0.124424055 0.10408523 0.096056916 0.078976505 -0.117934644 -0.041144982
0.017811175 -0.023086075 0.061047044 0.014881911 -0.048791926 0.06975465 -0.0552223 -0.004754129
0.0654482 0.002789622 0.08614604 0.14571491 0.10917005 0.02750351 -0.11357845 0.004439064
00000000: 593f 5dbd cf4c d8ba 03ec ccbd fd41 2ebd
00000010: 10bd 9c3d fa90 29bd 53e3 de3c 2c13 79bd
00000020: a04a 253c e0cc aebb dbc5 4cbd d139 f1bc
00000030: dd13 6dbd 34a7 673d 1864 1abc 665e b4bd
00000040: 21f3 fdbd a39f b33c e853 933d 8d79 1f3d
00000050: 5a9d 12bd 1879 e13d 8918 65bd 96d3 de3d
00000060: 02bd ebbc d5e0 8e3d 10d5 873c f704 113e
00000070: 3480 1a3e c09a d4bd 89ac e8bd 4997 60bd
00000080: 3227 4fbd 3a98 2d3d 0f36 c9bc ea66 da3d
00000090: a8ff 06be 6056 b33d 760b 35be 53ad f13d
000000a0: 360e d63d 196a 18be 880b eebd 0670 fe3d
000000b0: 8c2b 8cbd ce3c 8a3d 6a51 83bc 7986 1cbd
000000c0: 4533 723e 491a b3bd abf2 aebc 8add 6abd
000000d0: f1f1 843c 38ff c73d 2c6d a5bd 588e 203e
000000e0: 7cfc 45be f04b fdbb 3639 77bc 4d56 15bd
000000f0: 6bb8 403c c662 f1bc 90c0 f53c ed74 5bbd
00000100: 3f36 733c a682 24be 56ca 0bbd 9660 74bd
00000110: 7e6b 81bc 1e06 fa3c 593f 48bc 7ae7 c53d
00000120: ad5c 00be 67ec 92bd 5211 16be 1a8f b8bb
00000130: 4ddc 41bb f4bc a53d 37b4 91bd 540a 9fbc
00000140: 410a fbbd a351 bf3d dcbf 0abb 19df 09be
00000150: 58ba ee3d 908c 9abc 2033 5a3d ac9d df3d
00000160: 630c ecbd a323 3b3e 6822 853d a4d6 9dbd
00000170: 59b3 cc3d 0701 91bd e128 a43d 56b6 3ebc
00000180: bc12 023e f014 703d d318 83bd a8d5 e43d
00000190: a36f 023e 0592 55bd 3fef 5bbd d465 593d
000001a0: 3ce5 393d 2a05 82bd 2587 92bd 9c97 4cbd
000001b0: 6b2c dbbc b4b5 633d 0d09 d83b b375 3ebc
000001c0: cd0b 8a3d d0b6 04bc edf8 22bd c24a c03c
000001d0: 14e6 1f3c df5c 0d3e b453 dabc 78fd 253d
000001e0: e6b0 d73d 33e8 7ebd 588e 873c f65b 583a
000001f0: 0250 f13d 1b7b 093d a8a6 efba 05d3 023c
00000200: 3a9e d8bc 7b6c b4bd 3fcd 833d f2a8 b23c
00000210: 0a81 83bd 9847 b13d 1d51 f8bd 25e3 203d
00000220: 5b28 16bd 617b 683d 64eb ac3d f44e 9e3b
00000230: 7e89 d63c 9a62 aebd 640a 083e 9bc7 143e
00000240: 84f7 e0bd 708a f13c 8359 8cbd 8f87 fb3d
00000250: 5a3c 453d edd0 3d3d 9a73 83bb 03f5 06be
00000260: efea dcbd ad89 8abd 1181 ebbd fcbe 1bbd
00000270: ec81 563c b27d be3a 0a07 d83d 062c 0fbc
00000280: 24c4 adbd c1d9 36bd 4d0b b73d 225a 3f3d
00000290: 18f6 e63c 3b93 d03c 01ef 09be 9b42 c6bd
000002a0: 7eb1 ffbd d785 383c a7a1 a7bd 1ce6 8abd
000002b0: 3774 cdbb 9e9c 113e 524a 3a3d 97ba 6f3d
000002c0: df9f f2bc c356 873d 9ed6 e1bc a2de b03d
000002d0: 3b21 033d f9e1 d83c e949 053e ec20 2f3e
000002e0: 96f7 b6bd 859f b3bc 16f5 023d 59e8 043d
000002f0: 533a c93d 7ed6 91bc 3fe7 493d a3d1 9e3d
00000300: 8643 273d d6ad c5bc 501d 0c3e ccfe 02bc
00000310: 6d65 903c a7f7 e53c d48b 893d 6341 133d
00000320: 3613 5dbc f844 7dbc d2d9 e23d f6c7 da3d
00000330: bc72 debd 1e03 25be 02e3 b73d c86a 873d
00000340: 262b 6bbc 229b 13be 1c81 433e c5f2 47bd
00000350: 2a33 543e 096c c3bd f9c8 3ebd ddfc 183d
00000360: 70e8 b23d 9d5e 4d3d a1f5 51bc 6477 923d
00000370: adee 3abd 6241 853d 7616 d43d 7184 cabd
00000380: 402b 273d 7f34 18be b6ef b8bc 302d fdbd
00000390: 4faf 063c 9675 f1ba 46bc a83c a8cb 233c
000003a0: 7447 ec3d 9eb1 45bd 0ad2 fe3d a32a d53d
000003b0: 7db9 c43d 6fbe a13d b887 f1bd a487 28bd
000003c0: bee8 913c 021f bdbc 770c 7a3d 42d3 733c
000003d0: 0bda 47bd 87db 8e3d c730 62bd 86c8 9bbb
000003e0: b509 863d 17d2 363b 566d b03d 4a36 153e
000003f0: 8c94 df3d 0a4f e13c d29b e8bd 9175 913b

network_body._body_endoder.seq_layers.2.bias f4 [128]
0.00411157 0.00073805824 0.00044030228 -0.0005776936 0.0044191014 0.003049049 -0.00084389275 0.024691077
-0.01279233 -0.003922098 -0.0027675375 -0.0066075283 0.020170651 0.0077281687 -0.004469363 -0.0030026194
-0.0041338406 -0.0019593865 0.0052653323 0.0026042324 -0.0014841467 0.0040977187 0.0030217557 -0.014447205
-0.008542871 -0.004775541 0.015178766 0.0011545224 0.012493322 0.0058542164 -0.0017941995 -0.0033524432
0.023481136 -0.005009527 0.006070345 -0.015588141 -0.0031338073 -4.9521004e-05 0.005937113 -0.0013605121
0.0015052955 -0.0035570106 -0.004250298 0.002273137 -0.005272942 -0.0030865038 -0.006123583 -3.9919927e-05
-0.005074169 0.0039252117 -0.0056883665 0.015266021 0.004815838 -0.006615639 0.0061597265 -0.0054715965
0.009135666 -0.0070993328 0.00417861 -0.003424236 0.004758421 0.0073797917 0.005661135 -0.00540418
-0.000500736 -0.009117939 -0.002555533 -0.0013011524 -0.005515818 0.0017109124 0.0046010935 -0.001810039
-0.0032664172 0.003339921 0.009874716 -0.010430161 0.009878363 -0.005428534 -0.0027563078 -0.0035773122
0.0027340956 -0.016020546 0.020544866 0.003204564 -0.0049205036 -0.002135297 0.020323921 -0.0032347757
0.015443624 -0.013479663 0.011475929 0.0001661731 0.00013406527 -0.008850188 0.0045895916 0.0030084169
0.0015888128 -0.0046552755 0.0024013235 0.00802234 0.00097182964 0.0013507236 -0.0035662604 -0.007052307
-0.00096346636 0.010284238 0.0027788705 0.02326687 0.007340976 -0.008485505 -0.0049202275 0.0037300133
0.011873527 0.013669334 -0.0051906514 -0.007694343 0.005083948 0.0059773303 -0.0044085155 -0.003096163
0.022997474 0.006372298 -0.003611259 -0.010907845 0.013751309 0.011275456 0.014262808 0.0062116846
00000000: 59ba 863b 407a 413a 5fd8 e639 5c70 17ba
00000010: 1cce 903b 8ed2 473b af38 5dba f144 ca3c
00000020: ec96 51bc f184 80bb 935f 35bb f783 d8bb
00000030: ec3c a53c 943c fd3b bc73 92bb 98c7 44bb
00000040: 2b75 87bb 0d69 00bb cf88 ac3b c5ab 2a3b
00000050: b387 c2ba 2846 863b a608 463b f8b3 6cbc
00000060: 66f7 0bbc 247c 9cbb 5cb0 783c 5853 973a
00000070: cab0 4c3c bad4 bf3b 582b ebba aab4 5bbb
00000080: 835b c03c f526 a4bb bfe9 c63b 6765 7fbc
00000090: 9060 4dbb c6b4 4fb8 1d8c c23b 3653 b2ba
000000a0: 564d c53a bc1c 69bb 1546 8bbb e9f8 143b
000000b0: a5c8 acbb f146 4abb 56a8 c8bb b26f 27b8
000000c0: 3745 a6bb 109f 803b 7a65 babb 551e 7a3c
000000d0: 2dce 9d3b 01c8 d8bb 88d7 c93b 144b b3bb
000000e0: c3ad 153c 85a1 e8bb b9ec 883b 2669 60bb
000000f0: 87ec 9b3b 2ed2 f13b 0b81 b93b 8c15 b1bb
00000100: d343 03ba 6863 15bc bb7a 27bb 6e8b aaba
00000110: 09be b4bb b240 e03a c5c4 963b d53e edba
00000120: 6311 56bb 93e2 5a3b 90c9 213c 44e3 2abc
00000130: dcd8 213c d8e1 b1bb 2ca3 34bb 5771 6abb
00000140: 832e 333b 853d 83bc b54d a83c aa03 523b
00000150: 2d3c a1bb 57f0 0bbb 5a7e a63c 88fe 53bb
00000160: 4107 7d3c ced9 5cbc 8905 3c3c c03e 2e39
00000170: df93 0c39 6100 11bc 4964 963b dc28 453b
00000180: b63f d03a 488b 98bb 865f 1d3b 2270 033c
00000190: 62c2 7e3a c30a b13a ecb7 69bb 0a17 e7bb
000001a0: 2291 7cba 387f 283c b61d 363b 2a9a be3c
000001b0: 928c f03b ca06 0bbc dc39 a1bb 3d73 743b
000001c0: 2f89 423c 58f5 5f3c 5716 aabb d420 fcbb
000001d0: 3f97 a63b 7bdd c33b 4f75 90bb ffe8 4abb
000001e0: 3365 bc3c b6ce d03b dfaa 6cbb d1b6 32bc
000001f0: 2c4d 613c b1bc 383c 8dae 693c 638b cb3b

action_model._continuous_distribution.log_sigma f4 [1, 2]
-0.027795523 -0.03629525
00000000: 70b3 e3bc 54aa 14bd

action_model._continuous_distribution.mu.weight f4 [2, 128]
0.028435802 0.017317615 -0.012833306 0.033355355 0.0039540813 0.01959498 0.0034929272 0.009756627
-0.009047535 0.008664029 -0.007817216 -0.0052396255 0.020245833 -0.034139063 -0.0029899052 -0.013947609
0.01005526 -0.025110872 0.013498431 -0.03165043 -0.011053541 0.022775678 0.008523918 -0.016664825
-0.0015078123 -0.0029092962 0.038820926 0.002790422 -0.016576506 0.020792197 0.011381616 -0.018577168
0.04182584 -0.030822266 -0.029259648 -0.015935706 0.004980655 0.012999855 0.030890828 0.006280945
-0.0066150185 0.0025818232 -0.03562968 -0.008377768 -0.00036372957 -0.00562829 -0.013945065 0.0062676496
0.0036749023 -0.0023952208 -0.002475072 -0.01666119 0.020211829 -0.03174315 -0.02165269 -0.008596091
0.016102573 -0.036737848 0.0049408497 0.018056836 0.021570046 0.018879332 -0.008643455 -0.040061995
0.022584632 -0.026426971 -0.020686101 -0.013988656 0.033049848 -0.04084715 -0.0055036787 0.0011908757
-0.019309008 -0.033632603 0.016496738 -0.008225182 -0.0118657695 -0.012838601 -0.020183189 0.013995589
-0.01041812 0.023077268 0.07355943 0.0034980215 -0.0037019153 0.008521964 -0.011586239 -0.020897625
0.022006413 -0.023673192 0.030802146 0.007989808 -0.015970659 -0.021713119 -0.02642837 0.0016085004
0.02522906 -0.005422126 -0.018720211 -0.008914539 -0.008018627 -0.039530043 0.007288332 -0.006711188
-0.016764516 -0.018134702 -0.024766654 -0.014187109 0.036955163 -0.021996668 -0.045462735 0.0018133285
-0.03299979 0.010228797 -0.001833944 -0.02124661 -0.034276564 -0.013886018 -0.006802371 0.0037386762
0.046290167 0.026436009 0.0006685976 0.0072156605 -0.042238463 0.049857717 0.05235443 -0.03769188
-0.012771304 -0.003466243 -0.005605441 -0.0050076004 0.023345238 0.0033371593 -0.043004204 -0.041932438
0.014044026 -0.00405292 -0.012879217 -0.010319018 -0.030946923 0.029337807 -0.020218894 0.012596974
0.013092835 -0.016650513 0.02733442 0.013389285 -0.0139663685 -0.0188115 -0.0019252015 -0.0031095673
-0.001989258 0.009869712 0.008084814 -0.03249787 0.010560622 0.0077366023 -0.0022483768 -0.00043809498
-0.042285208 -0.0021520369 -0.011513093 -0.004405209 -0.025659181 -0.0032033646 0.029130897 0.0025313965
0.016295277 -0.004833181 0.00530333 -0.01986946 -0.022039155 0.013829134 -0.017750317 -0.017419314
-0.024411846 0.017073473 0.007409629 0.008600632 0.026627986 -0.031901095 0.023818912 0.004515288
0.020659454 -0.015922325 0.007491462 -0.02638352 -0.0026874803 0.0004826761 0.027123427 0.005222884
-0.030488618 0.0057846466 0.0029631387 0.015628148 -0.0063226335 0.023914216 0.012550221 -0.01859365
-0.01329972 -0.014906091 0.0023065754 -0.013271203 -0.013426549 0.00532052 6.0982504e-05 -0.0050902157
0.009994669 0.0015786502 0.011377125 0.012741107 -0.02041103 -0.027750341 -0.04247635 -0.001324219
0.024666656 -0.011207632 0.032957103 0.0028858338 0.033429988 -0.02092907 0.041294187 0.0326593
-0.0030158442 0.024627153 -0.009093163 0.05184549 -0.005365802 -0.0024204284 -0.03435314 -0.0029149791
-0.02907585 -0.017649649 0.016952666 0.03736828 0.0043855496 0.0035257002 0.002032843 0.026389528
0.001982703 0.03357034 -0.011850511 -0.006708552 -0.014858777 0.0074191233 -0.01538462 -0.006262513
0.026304081 -0.0033479251 -0.021743584 -0.009699605 0.019770388 0.019370252 0.040485036 -0.017217172
00000000: 33f2 e83c acdd 8d3c c942 52bc a09f 083d
00000010: 3d91 813b a785 a03c 98e9 643b 42da 1f3c
00000020: 1d3c 14bc 92f3 0d3c c813 00bc 2ab1 abbb
00000030: 97da a53c 67d5 0bbd 49f2 43bb 8384 64bc
00000040: d1be 243c 51b5 cdbc 8628 5d3c e2a3 01bd
00000050: e919 35bc 0f94 ba3c e7a7 0b3c ac84 88bc
00000060: c9a1 c5ba e4a9 3ebb b102 1f3d 83df 363b
00000070: 74cb 87bc 6654 aa3c f579 3a3c 252f 98bc
00000080: 9251 2b3d fa7e fcbc eeb1 efbc 998b 82bc
00000090: c334 a33b 58fd 543c c30e fd3c 63d0 cd3b
000000a0: ccc2 d8bb ce33 293b 6df0 11bd e842 09bc
000000b0: f5b2 beb9 856d b8bb d879 64bc db60 cd3b
000000c0: a1d6 703b 23f9 1cbb d134 22bb 0c7d 88bc
000000d0: 4793 a53c 1b05 02bd fb60 b1bc 9ed6 0cbc
000000e0: 8be9 833c 6d7a 16bd dae6 a13b eeeb 933c
000000f0: aab3 b03c d4a8 9a3c 479d 0dbc 0c18 24bd
00000100: 6803 b93c 607d d8bc e675 a9bc ad30 65bc
00000110: 475f 073d 574f 27bd 3458 b4bb 2817 9c3a
00000120: ed2d 9ebc 57c2 09bd 2b24 873c eac2 06bc
00000130: a568 42bc ff58 52bc 3757 a5bc c14d 653c
00000140: c3b0 2abc 8a0c bd3c 54a6 963d 103f 653b
00000150: d59b 72bb b59f 0b3c 35d4 3dbc 7f31 abbc
00000160: cb46 b43c 48ee c1bc c854 fc3c afe7 023c
00000170: e6d4 82bc b6df b1bc 4f80 d8bc 51d4 d23a
00000180: 2cad ce3c 17ac b1bb 215b 99bc 490e 12bc
00000190: 8f60 03bc 41ea 21bd f6d2 ee3b 86e9 dbbb
000001a0: bd55 89bc 3a8f 94bc 70e3 cabc 0c71 68bc
000001b0: 4c5e 173d 5b32 b4bc 2237 3abd 35ad ed3a
000001c0: ca2a 07bd af96 273c f360 f0ba 5f0d aebc
000001d0: 9565 0cbd 2e82 63bc 6ce6 debb 9404 753b
000001e0: c29a 3d3d 5490 d83c d344 2f3a 5971 ec3b
000001f0: 3d02 2dbd 9b37 4c3d 9971 563d cd62 1abd
00000200: bb3e 51bc e829 63bb d9ad b7bb cc16 a4bb
00000210: 833e bf3c 3eb4 5a3b 2d25 30bd 59c1 2bbd
00000220: ea18 663c 5bce 84bb 5a03 53bc 1911 29bc
00000230: 6784 fdbc d755 f03c 18a2 a5bc 8a63 4e3c
00000240: 5583 563c a866 88bc 6fec df3c bb5e 5b3c
00000250: 32d3 64bc 931a 9abc 0b57 fcba e2c9 4bbb
00000260: 365e 02bb 93b4 213c 2b76 043c 7d1c 05bd
00000270: 7606 2d3c 5383 fd3b 8159 13bb 1db0 e5b9
00000280: 4133 2dbd 3009 0dbb 69a1 3cbc 9259 90bb
00000290: 3433 d2bc 8aef 51bb eba3 ee3c c9e5 253b
000002a0: ac7d 853c a95f 9ebb 8ec7 ad3b 47c5 a2bc
000002b0: 758b b4bc 9893 623c 1d69 91bc f3b2 8ebc
000002c0: 5afb c7bc abdd 8b3c 79cc f23b aae9 0c3c
000002d0: ef22 da3c b9aa 02bd e11f c33c fbf4 933b
000002e0: 043e a93c 896f 82bc f07a f53b 4022 d8bc
000002f0: 7020 30bb b10f fd39 f331 de3c ba24 ab3b
00000300: 44c3 f9bc 228d bd3b 3831 423b 9a06 803c
00000310: 182e cfbb bfe7 c33c 719f 4d3c b651 98bc
00000320: 12e7 59bc ad38 74bc ea29 173b 766f 59bc
00000330: 07fb 5bbc c257 ae3b 77c7 7f38 d3cb a6bb
00000340: aec0 233c b6ea ce3a 1f67 3a3c 13c0 503c
00000350: 0835 a7bc af54 e3bc aefb 2dbd 6b91 adba
00000360: ba11 ca3c 37a0 37bc 07fe 063d 4220 3d3b
00000370: e2ed 083d 7173 abbc 1824 293d c2c5 053d
00000380: 78a5 45bb e2be c93c 7dfb 14bc f05b 543d
00000390: 9cd3 afbb 0da0 1ebb e1b5 0cbd 3c09 3fbb
000003a0: 7a30 eebc ff95 90bc 51e0 8a3c 7b0f 193d
000003b0: a8b4 8f3b 6f0f 673b 7239 053b da2e d83c
000003c0: 3df0 013b 0e81 093d a528 42bc 6ad3 dbbb
000003d0: 3a72 73bc 1e1c f33b c60f 7cbc c435 cdbb
000003e0: a87b d73c dd68 5bbb 9a1f b2bc 18eb 1ebc
000003f0: 82f5 a13c 5dae 9e3c a3d3 253d 070b 8dbc

action_model._continuous_distribution.mu.bias f4 [2]
0.003032622 0.0043343967
00000000: f4be 463b 8e07 8e3b
