results/big7/My Behavior/My Behavior-1999994.pt (torch, 441488 bytes, 36 tensors)

network_body._body_endoder.seq_layers.0.weight f4 [128, 6]
0	0x3f44ba1f	0.768465
1	0x3dab61a4	0.08368233
2	0xbdc7b708	-0.09751707
3	0x3f57cc59	0.84296185
4	0xbdcb4dfe	-0.09926985
5	0xbbdb816e	-0.006698779
6	0x3faa11f5	1.328673
7	0xbecaa510	-0.39579058
8	0xbded8e69	-0.11599428
9	0x3ec79200	0.38978577
10	0xbf83ac12	-1.0286887
11	0xbd36d8e8	-0.04464045
12	0xbe0ba1c5	-0.13635929
13	0xbf87e3ab	-1.0616354
14	0xbec19199	-0.37806395
15	0x3f2cd5b6	0.67513597
16	0xbe11688e	-0.1420004
17	0xbf25ca8f	-0.64762205
18	0xbf116c67	-0.56806034
19	0x3eb70873	0.35748634
20	0x3d9cc8f1	0.07655514
21	0xbf575f1a	-0.8412949
22	0xbe80535f	-0.25063607
23	0x3f2a1120	0.6643238
24	0x3d88f400	0.06687164
25	0xbe66f6e6	-0.22555122
26	0xbf3b3cd5	-0.731397
27	0x3db1731e	0.08664535
28	0xbe7ec662	-0.24880365
29	0xbeb88dd3	-0.36045703
30	0xbd964c1f	-0.07338738
31	0xbe0b0b52	-0.13578537
32	0xbeb74846	-0.35797328
33	0xbe075cf6	-0.13219056
34	0xbece91c3	-0.40345582
35	0x3d99f1fd	0.07516859
36	0x3ea337f2	0.3187862
37	0x3eac78c3	0.33685884
38	0x3f24ced6	0.64378107
39	0xbe27d3f2	-0.16389444
40	0xbf2cf902	-0.67567456
41	0xbede4d7c	-0.4341849
42	0x3e85735f	0.26064584
43	0xbe22e7e4	-0.15908772
44	0xbe910f88	-0.28332162
45	0xbf3c2e76	-0.73508394
46	0xbeb7db61	-0.3590956
47	0x3f844237	1.0332707
48	0x3f58d4e2	0.84699833
49	0xbee1ff4f	-0.44140097
50	0x3d8a201d	0.06744406
51	0xbe86bdb5	-0.2631661
52	0xbdf3a8f8	-0.118974626
53	0x3f01d6ba	0.5071827
54	0x3f8b95d1	1.0905095
55	0xbe7c9c7f	-0.24669074
56	0x3d3433ca	0.043994702
57	0xbe258ba8	-0.16166556
58	0x3f009057	0.50220245
59	0xbddade20	-0.10686898
60	0x3ec8704a	0.3914817
61	0x3ea3fa3a	0.32026845
62	0x3f7a164c	0.9769027
63	0x3efd1021	0.49426368
64	0x3c5c7a47	0.013456888
65	0x3d3f541b	0.04671107
66	0xbd6434fd	-0.055714596
67	0x3f2ed4ca	0.6829344
68	0xbe88a410	-0.2668767
69	0xbe0b16f2	-0.13582972
70	0x3d00dd86	0.03146126
71	0x3e953484	0.2914163
72	0x3eecc185	0.46241394
73	0x3e5be7ab	0.21475093
74	0xbee683d2	-0.45022446
75	0x3f29783e	0.661991
76	0xbd320781	-0.043464188
77	0x3e968072	0.2939487
78	0xbe7cf831	-0.24704053
79	0xbed13800	-0.40863037
80	0x3d33df6a	0.043914236
81	0xbe6b9de4	-0.23009449
82	0x3f7aa4a8	0.97907495
83	0x3ea967f6	0.33087128
84	0xbee2f8e0	-0.44330502
85	0xbf3930d9	-0.7234016
86	0xbf6a9a11	-0.91641337
87	0x3e9be737	0.3044984
88	0x3cc117da	0.023570944
89	0xbdc7552d	-0.09733043
90	0x3eed9a18	0.46406627
91	0x3ed16e8f	0.40904662
92	0xbf13b8b5	-0.57703716
93	0xbeb4e0bb	-0.35327706
94	0xbef7cad4	-0.48396933
95	0x3e7b2368	0.24525225
96	0x3f58204a	0.8442427
97	0x3e898376	0.2685811
98	0xbf2e6eab	-0.68137616
99	0x3ed4751a	0.4149559
100	0xbda0b2c1	-0.078465946
101	0xbdf3561d	-0.11881659
102	0x3e02f918	0.12790334
103	0x3c8ae162	0.016953174
104	0xbe404ab4	-0.18778497
105	0x3e645c7e	0.22300908
106	0xbe5f2a32	-0.2179344
107	0xbe1784d1	-0.14796759
108	0xbe83106d	-0.2559847
109	0x3e6e97d2	0.23300102
110	0xbea26ecc	-0.31725156
111	0xbf65f36f	-0.89824575
112	0xbe496014	-0.19665557
113	0x3f397def	0.72457784
114	0xbed7f89c	-0.4218186
115	0xbdde90cb	-0.10867461
116	0xbd03212c	-0.032014057
117	0x3d116b4b	0.035502713
118	0xbf1928dd	-0.5982798
119	0x3e4742fa	0.19459143
120	0xbd9c7478	-0.07639402
121	0xbf2cf010	-0.67553806
122	0x3eab2d2f	0.3343291
123	0xbcbad4f1	-0.022806617
124	0xbe6e0311	-0.23243357
125	0xbf83e0ba	-1.0302956
126	0x3e68e8fe	0.2274513
127	0x3e049218	0.12946355
128	0xbe8420e5	-0.25806347
129	0x3e15251b	0.14564936
130	0x3cf16085	0.02946497
131	0x3e5876ef	0.2113912
132	0x3f0eddb0	0.5580702
133	0x3d95a04e	0.07305966
134	0x3d174c1f	0.03693783
135	0x3f317a9f	0.6932773
136	0xbf0c51f5	-0.54812557
137	0x3c4deb1c	0.0125682615
138	0x3f32a3f4	0.6978142
139	0x3f166b2a	0.5875727
140	0x3c6a41d0	0.0142979175
141	0x3e8e2fc0	0.27770805
142	0xbe74f23d	-0.23920532
143	0x3e3dbf66	0.18530044
144	0x3f79b3c1	0.9753991
145	0x3e8fbfb8	0.28075957
146	0x3e0d5058	0.1380018
147	0x3eb58f3c	0.35460842
148	0x3c976de1	0.018485012
149	0xbe2b5114	-0.16730148
150	0xbeff425e	-0.49855322
151	0xbcc67deb	-0.024229964
152	0xbeece41c	-0.46267784
153	0x3ea5215c	0.32252014
154	0x3e3391cd	0.17536087
155	0x3eed654b	0.46366343
156	0xbf75b063	-0.9597227
157	0xbf3935d5	-0.72347766
158	0xbf161dd5	-0.5863927
159	0x3e776837	0.24160849
160	0x3e73e24d	0.23816796
161	0xbf4a06bd	-0.7891653
162	0xbe39788b	-0.1811239
163	0xbd30f6d9	-0.043204162
164	0xbe929b0e	-0.28633922
165	0xbf06d5ea	-0.52670157
166	0x3ee6631b	0.44997486
167	0x3ef1a092	0.47192818
168	0xbeabcf75	-0.33556715
169	0xbe6f204e	-0.23352167
170	0x3f4c04b8	0.796947
171	0x3d9cb59a	0.07651825
172	0xbec81104	-0.39075482
173	0x3eb0d3c8	0.34536576
174	0x3f11f908	0.57020617
175	0x3c4e2ae6	0.01258347
176	0x3f0e3096	0.55542886
177	0x3f233bdb	0.6376321
178	0xbe51d6f8	-0.2049216
179	0x3dc7a668	0.09748536
180	0x3f427427	0.75958484
181	0x3e90fd00	0.28318024
182	0x3f570d0c	0.8400428
183	0x3f16f896	0.5897306
184	0xbe6545ee	-0.22389957
185	0xbf6026a1	-0.87558943
186	0x3f8beaa0	1.0930977
187	0x3de1194c	0.10991153
188	0xbd9f5502	-0.07779886
189	0xbf1de8c4	-0.616833
190	0xbf30c424	-0.69049287
191	0x3d859388	0.0652228
192	0xbedfa371	-0.43679383
193	0xbd0a8e53	-0.033827137
194	0x3d788ce3	0.060681235
195	0x3e9e909c	0.30969703
196	0xbef1d64b	-0.47233805
197	0x3e427a57	0.18991981
198	0x3e3b2ddf	0.18279217
199	0xbf3127e2	-0.6920148
200	0x3e895f33	0.26830444
201	0x3e2836b7	0.16427122
202	0xbe888319	-0.2666252
203	0x3efd6f54	0.49499
204	0x3ef5dbb0	0.4801917
205	0x3ec2d3b3	0.3805214
206	0xbf084670	-0.5323248
207	0x3de0c52b	0.10975107
208	0x3ef69edd	0.48168078
209	0x3eef0ee5	0.4669105
210	0x3e840bc6	0.25790232
211	0xbe08dd16	-0.13365588
212	0x3eaf1ee9	0.3420327
213	0xbf71d9a7	-0.94472736
214	0xbe8701d6	-0.26368588
215	0xbe6b56cc	-0.22982329
216	0xbee14f92	-0.4400602
217	0xbe924516	-0.28568333
218	0x3c68489a	0.014177466
219	0xbe3ee3d5	-0.18641599
220	0xbe354160	-0.1770072
221	0x3c0206a3	0.007936153
222	0xbbc0964c	-0.005877292
223	0x3ee124ac	0.4397329
224	0x3edac8ae	0.4273123
225	0x3df8f854	0.1215674
226	0x3dfc1e02	0.12310411
227	0xbbaf00a0	-0.0053406507
228	0x3e6d973d	0.23202224
229	0x3e0369a1	0.12833263
230	0xbf55e46f	-0.83551687
231	0x3f032257	0.51224273
232	0x3eee3cb5	0.4653069
233	0x3d131774	0.03591104
234	0xbf8bb92b	-1.0915884
235	0xbea1a1df	-0.3156881
236	0x3ea81454	0.3282801
237	0x3e54ba57	0.20774208
238	0xbd9f943a	-0.07791944
239	0xbd9feca6	-0.07808809
240	0x3eafded0	0.3434968
241	0x3c32a6b6	0.010904005
242	0xbf2b78f5	-0.6698144
243	0xbec776fa	-0.3895796
244	0x3e09a785	0.1344281
245	0x3ed5dee6	0.4177162
246	0xbe8eb873	-0.278751
247	0x3e9644d6	0.29349393
248	0x3f063e0f	0.52438444
249	0xbe85720b	-0.2606357
250	0x3f0de6cc	0.55430293
251	0xbe9929d2	-0.2991472
252	0xbefeea82	-0.4978829
253	0x3e827df0	0.25486708
254	0x3eaf182e	0.34198135
255	0xbef0a648	-0.47001863

network_body._body_endoder.seq_layers.0.bias f4 [128]
0	0x3d3f7963	0.046746623
1	0x3d1d1822	0.038353093
2	0x33089fdd	3.1810362e-08
3	0xbc32420c	-0.010880005
4	0xba9a1435	-0.001175529
5	0x3d1959c4	0.037439123
6	0x3d629a1d	0.055322755
7	0xbc393f8e	-0.0113066565
8	0xbc8ae1e7	-0.016953422
9	0x3e19a81d	0.15005536
10	0xbc12cb61	-0.008959622
11	0xbd402a05	-0.046915073
12	0x3d6c7aff	0.057734486
13	0xbc4d79a7	-0.012541211
14	0x3dcdf674	0.10056773
15	0xbba2a96f	-0.0049640457
16	0x3ddfc5ac	0.10926375
17	0x3c7cdeb1	0.015433953
18	0xbc5197b4	-0.0127925165
19	0xbc45b538	-0.012067132
20	0x32fd40c2	2.9482525e-08
21	0xbba3f650	-0.005003728
22	0x3d1dd258	0.038530678
23	0xba20f99c	-0.00061407103
24	0x3dbc7f99	0.09204025
25	0xb9fa9174	-0.00047792087
26	0x2fadccd6	3.161406e-10
27	0xbc457b27	-0.012053288
28	0xbca3ffc9	-0.020019429
29	0xbba9f29a	-0.005186391
30	0x3d8e5b3e	0.06950997
31	0x3dee9f16	0.11651437
32	0xbc93b14b	-0.018028876
33	0xbcc742ba	-0.02432381
34	0xbd0c4ab3	-0.034250926
35	0x3d32443e	0.043522112
36	0x3d406072	0.046966977
37	0x38c1918e	9.230069e-05
38	0xbc17334c	-0.009228539
39	0xbbba0d95	-0.0056778886
40	0x3d8736af	0.06602227
41	0x3d17885f	0.036995288
42	0x3cdc9a03	0.026928907
43	0xbc87904c	-0.016548298
44	0xbc2bc567	-0.010484076
45	0xbd1ddfcd	-0.03854351
46	0x3d675074	0.05647321
47	0x3abdb87d	0.0014474537
48	0xbc882ab1	-0.01662192
49	0x3bb9517c	0.0056554656
50	0x3a852a06	0.0010159619
51	0xbcbd29b7	-0.02309118
52	0x3d8a9c9c	0.06768152
53	0xbce02167	-0.027359677
54	0x3da395b6	0.079875395
55	0x3c0a4d74	0.008441318
56	0xbc74bd9c	-0.0149377845
57	0x31719b46	3.5158378e-09
58	0x3ab88b9f	0.0014079696
59	0xbbbbe5bb	-0.005734173
60	0x3d50fdef	0.05102342
61	0x36dcdccf	6.5822164e-06
62	0x3db4dca6	0.08831148
63	0xbc1c4e76	-0.009540191
64	0x3d5625e3	0.052282225
65	0xb50f24ce	-5.332521e-07
66	0xbc0176f4	-0.007901896
67	0x3d053bfa	0.0325279
68	0xbcc85f67	-0.024459554
69	0xbc9aad3e	-0.018881436
70	0x3d828045	0.06372122
71	0xbc7236ef	-0.014783605
72	0x3cbe4ee3	0.023230975
73	0xbc805ab9	-0.01566826
74	0xbacea9d3	-0.0015767164
75	0x3e0e953b	0.13924114
76	0x3d30f611	0.043203417
77	0x3ded4516	0.11585443
78	0xbc1a7260	-0.009426683
79	0x3db29ae3	0.087209485
80	0xb9b1a1f6	-0.0003388074
81	0xb6a3bde4	-4.8798847e-06
82	0x39e23055	0.0004314209
83	0x3cf555b9	0.029948102
84	0xbc79a66b	-0.015237431
85	0xbc84375c	-0.016139679
86	0x3b5c3670	0.0033601783
87	0xbc33fba6	-0.010985291
88	0x38464bc0	4.7277426e-05
89	0xb7c5527d	-2.3522642e-05
90	0x3cc63ee7	0.024199916
91	0xbca2a726	-0.019855093
92	0x3d06c447	0.03290203
93	0x3b63c7cc	0.003475654
94	0x3c710609	0.014710912
95	0xbc3de397	-0.011589906
96	0x3d85bcac	0.06530127
97	0xbc1404ea	-0.009034375
98	0xbcb694be	-0.022287723
99	0xbc297d19	-0.010344767
100	0x3d1e1f10	0.038603842
101	0xb409d437	-1.2836323e-07
102	0x38f7f4c1	0.00011823467
103	0xbab44bca	-0.0013755497
104	0x3cc9d04b	0.024635455
105	0xb874a154	-5.8324382e-05
106	0xbc8c12d8	-0.01709883
107	0x3d2eb1ff	0.04265022
108	0x3d8a82b9	0.067632146
109	0x31a791c0	4.8769095e-09
110	0xb46c93f6	-2.203304e-07
111	0xbb66a87c	-0.003519564
112	0xbcf862df	-0.030320583
113	0x3d89fc30	0.06737554
114	0xbb1606e8	-0.00228923
115	0xbc82a332	-0.015946958
116	0x3dbe639b	0.09296342
117	0xbc9e8f15	-0.019355336
118	0x3420e1cc	1.4983306e-07
119	0xbc02c30a	-0.007981071
120	0x306f5b2b	8.707725e-10
121	0x36f467cd	7.2838507e-06
122	0x3dd7b337	0.105322294
123	0xb8389df6	-4.401613e-05
124	0x3ab96856	0.0014145474
125	0xbc718b62	-0.014742704
126	0x3d0334be	0.03203272
127	0xb8b31cd1	-8.5407526e-05

network_body._body_endoder.seq_layers.2.weight f4 [128, 128]
0	0xbc66c5de	-0.014085261
1	0x3dd023b4	0.1016306
2	0xbc4ac141	-0.012375177
3	0xbda5f271	-0.08102883
4	0xbd3ff02b	-0.0468599
5	0x3e9ec78d	0.3101162
6	0xbd85e3f3	-0.065376185
7	0x3e1030ec	0.14081162
8	0xbdc73989	-0.09727771
9	0xbd891270	-0.0669297
10	0xbdce0d80	-0.10061169
11	0xbd876346	-0.06610732
12	0xbea8b6f7	-0.3295209
13	0x3e81a894	0.25323927
14	0xbdd05c57	-0.101738624
15	0xbd7bbeb9	-0.061461184
16	0x3d921843	0.07133534
17	0x3e4698e7	0.19394265
18	0xbd537c09	-0.05163196
19	0x3c55a2f4	0.013039339
20	0xbdc88ba4	-0.09792259
21	0x3cdb4d22	0.026770178
22	0xbd5f966d	-0.054586817
23	0xbd3c1171	-0.04591507
24	0xbe3486d7	-0.17629562
25	0x3dc21c86	0.09478097
26	0xbdd7179f	-0.10502552
27	0xbcafb5f6	-0.02144907
28	0x3b8daecf	0.0043238173
29	0x3e3878e7	0.1801487
30	0x3cdb588c	0.02677562
31	0x3bc20a56	0.0059216423
32	0xbbd53ed3	-0.0065077334
33	0x3d80c791	0.06288064
34	0xbd1ada8c	-0.03780608
35	0x3e2aaba4	0.16667038
36	0xbd679b6f	-0.056544717
37	0x3d868acd	0.06569443
38	0xbe87ca49	-0.2652152
39	0x3df2eb86	0.11861329
40	0xbf10d30e	-0.56572044
41	0xbcde4801	-0.027133944
42	0x3d10d527	0.035359528
43	0x3ca768d6	0.020435732
44	0x3e0ab5d7	0.13545929
45	0xbce579c7	-0.02801217
46	0x3d76395f	0.060113307
47	0x3db09f2f	0.08624112
48	0xbe28195e	-0.16415927
49	0x3e3e6473	0.18593006
50	0x3cdd53f8	0.027017578
51	0xbd8b97e6	-0.06816082
52	0xbe2d28a9	-0.16910042
53	0x3d3dc84c	0.046333596
54	0xbeb9f7c8	-0.36321855
55	0x3e5078bf	0.20358561
56	0xbd25af64	-0.04045047
57	0x3dc6da27	0.09709578
58	0xbd29838a	-0.04138521
59	0x3dbc6433	0.09198799
60	0xbe50f248	-0.20404923
61	0x3de733c4	0.112891704
62	0x3d8f8f3d	0.070097424
63	0xbdaee3d4	-0.085395485
64	0x3e8912dc	0.267722
65	0xbc72bff1	-0.01481627
66	0x3d499e2b	0.049223106
67	0x3e33689e	0.17520377
68	0x3e51354d	0.20430489
69	0xbce933ce	-0.028467085
70	0xbd6d27c6	-0.05789926
71	0xbd196326	-0.03744807
72	0xbd801132	-0.0625328
73	0xbda300bf	-0.07959127
74	0x3dc1c82f	0.0946201
75	0x3d31bd1a	0.043393232
76	0x3dde26c0	0.10847235
77	0xbe9bd11b	-0.30432972
78	0xbcb7ef1e	-0.022452887
79	0xbe08d8f1	-0.13364007
80	0x3da410fa	0.080110505
81	0x3e2508f0	0.1611669
82	0xbdcd0c3a	-0.10012098
83	0xbd9c8bdf	-0.07643866
84	0xbdc40739	-0.0957169
85	0xbd457e01	-0.04821587
86	0x3d3cf37f	0.046130653
87	0x3e0362cb	0.12830655
88	0x3c861e82	0.01637197
89	0x3e0f4c9b	0.13994066
90	0x3db80411	0.089851506
91	0x3d991ec1	0.07476569
92	0xbda8d29f	-0.08243298
93	0xbc162563	-0.009164187
94	0xbd42944f	-0.04750472
95	0x3d9d132d	0.07669673
96	0x3e0344e5	0.1281925
97	0xbe2c4d34	-0.16826326
98	0xba82e901	-0.0009987653
99	0xbca56297	-0.020188613
100	0x3e1c806f	0.15283369
101	0xbcc3f265	-0.023919294
102	0x3ae09798	0.0017135022
103	0x3c97c40d	0.018526101
104	0x3d981cf6	0.07427399
105	0x3d0ccb47	0.034373548
106	0x3c826af4	0.01592014
107	0x3d63e9c3	0.055642854
108	0x3ab2dc25	0.001364593
109	0x3d0c23a3	0.034213673
110	0xbd2b0ba4	-0.04175915
111	0xbe52380d	-0.20529194
112	0x3d8fd199	0.070223995
113	0xbe25eb28	-0.16202986
114	0x3cbcb50b	0.023035547
115	0x3d1f14f0	0.038838327
116	0xbdd4c02a	-0.10388215
117	0xbe9eed01	-0.31040195
118	0x3e04185b	0.12899916
119	0x3d5cd251	0.05391151
120	0x3c85bceb	0.016325435
121	0x3d9ae148	0.075625
122	0x3e760585	0.24025543
123	0xbc0eb7b9	-0.008710795
124	0x3e3d1c68	0.18467867
125	0xbd9b07d8	-0.075698555
126	0xbdcbcc40	-0.09951067
127	0xbd692906	-0.05692389
128	0x3de45b37	0.1115021
129	0x3d5712e7	0.05250826
130	0x3acfd07d	0.0015854981
131	0xbd817f9c	-0.06323168
132	0x3d0bbdf1	0.03411669
133	0x3e501910	0.2032206
134	0xbf0979f5	-0.53701717
135	0xbe1d0e08	-0.15337384
136	0xbd02b391	-0.03190953
137	0xbdcfce3a	-0.101467565
138	0xbcd9be65	-0.026580045
139	0xbdcebf4b	-0.1009508
140	0xbf3368fe	-0.7008208
141	0x3d239c4c	0.03994398
142	0x3d2cbd94	0.042172983
143	0x3e4048c2	0.18777755
144	0xbd5e28cb	-0.054238122
145	0x3e53c5f1	0.20680977
146	0xbd98b278	-0.07455915
147	0xbdd7fc48	-0.10546166
148	0x3dd15612	0.10221495
149	0x3daf9637	0.08573573
150	0x3c83ed98	0.016104504
151	0x3bb7976d	0.005602768
152	0xbc180443	-0.00927836
153	0x3de14bcd	0.11000786
154	0xbc32a77c	-0.010904189
155	0xbdd5c225	-0.10437421
156	0x3d905e82	0.07049276
157	0xbd1bc687	-0.038031127
158	0x3ebecd2c	0.3726591
159	0x3d797f65	0.06091251
160	0xbdb169ac	-0.086627334
161	0x3db4390f	0.087999456
162	0xbe191b86	-0.14951906
163	0xbe8e6c0e	-0.27816814
164	0x3d91095c	0.07081863
165	0xbbbe97cf	-0.005816437
166	0xbd87b186	-0.06625657
167	0x3dcfbf22	0.101438776
168	0xbf29913f	-0.6623725
169	0xbec808d5	-0.39069238
170	0xbea556e8	-0.32292867
171	0x3d9db978	0.07701391
172	0x3b03e1a7	0.0020123513
173	0x3dbc844d	0.09204922
174	0x3e8e239b	0.2776154
175	0xbcc1e5a0	-0.023669064
176	0xbd1150f6	-0.0354776
177	0xbd9dbfbf	-0.07702588
178	0xbd2dbc93	-0.042416167
179	0xbda14d35	-0.07876054
180	0xbdd442ee	-0.10364328
181	0x3d76d604	0.060262695
182	0xbf1ac8d1	-0.6046267
183	0x3d677f1f	0.056517716
184	0x3e1c3187	0.15253268
185	0xbcc364c3	-0.023851758
186	0x3cc127f4	0.023578621
187	0x3da6a21b	0.08136388
188	0x3e1c998f	0.15292953
189	0xbc2322f0	-0.00995706
190	0xbdf6ab01	-0.12044335
191	0x3e31909b	0.17340319
192	0x3e9613c2	0.2931195
193	0x3d1e9639	0.038717482
194	0xbd93d7b4	-0.072188765
195	0x3d764420	0.060123563
196	0x3d5d65b4	0.05405207
197	0xbcee78c7	-0.029110326
198	0x3e0d370d	0.13790531
199	0x3e1bbbe4	0.15208393
200	0x3da91ac1	0.08257056
201	0xbdac1735	-0.08402864
202	0xbdbd7669	-0.092511006
203	0x3ca582dd	0.020204002
204	0x3e6cd3d3	0.2312768
205	0x3e8f4555	0.27982584
206	0x3d6021dd	0.054719795
207	0xbd87f0a1	-0.06637693
208	0xbdc08aea	-0.09401496
209	0xbd506d1d	-0.05088531
210	0x3d6f6b9e	0.05845224
211	0xbd3c7b14	-0.046015814
212	0x3dcaf606	0.099102065
213	0x3e6db658	0.2321409
214	0x3b275523	0.0025532923
215	0x3e0d2936	0.13785252
216	0xbdd11a2b	-0.10210069
217	0xbc7e224a	-0.015511105
218	0xbe8206b8	-0.2539575
219	0xbd0ddcb5	-0.03463431
220	0xbdc0ed1b	-0.09420224
221	0xbf1bd46d	-0.6087101
222	0x3cbed105	0.023293028
223	0xbc9f33f2	-0.01943395
224	0x3cadbba5	0.02120764
225	0xbdea8057	-0.1145026
226	0x3df733e7	0.120704465
227	0x3df4765a	0.11936636
228	0x3de3b762	0.11118962
229	0x3d32aa21	0.04361928
230	0xbe1c498a	-0.15262428
231	0x3c87ffe8	0.016601518
232	0x3e9a8f96	0.30187672
233	0x3c9a4205	0.018830309
234	0xbe3fe49a	-0.18739548
235	0xbe771a95	-0.24131234
236	0x3d07e7f9	0.03318021
237	0xbd5591ca	-0.05214099
238	0x3de03261	0.10947109
239	0x3d33029b	0.043703657
240	0x3dcd0c66	0.100121304
241	0xbee3dbeb	-0.44503722
242	0xbab4b622	-0.001378719
243	0xbe1eab37	-0.15495001
244	0x3f0eccec	0.55781436
245	0xbe61a296	-0.22034678
246	0x3e61fd50	0.22069287
247	0x3e2f24f1	0.17103936
248	0xbe38f6ad	-0.1806285
249	0xbd2921d1	-0.041292015
250	0x3d8c8e0d	0.068630315
251	0x3e598d48	0.21245301
252	0xbd4281ab	-0.047486942
253	0x3dc202a8	0.09473163
254	0xbedd8f13	-0.4327322
255	0x3aa7f31a	0.0012813539

network_body._body_endoder.seq_layers.2.bias f4 [128]
0	0x3c3995c4	0.011327211
1	0xbb7c18d6	-0.0038466952
2	0xbbae2692	-0.0053146565
3	0xbc743a07	-0.014906413
4	0xbc265571	-0.010152207
5	0xbc9b268d	-0.01893928
6	0xbc18ceeb	-0.009326677
7	0xb995f083	-0.0002859869
8	0xbbadbdfb	-0.0053021885
9	0xbbc23062	-0.005926178
10	0xbc1116b6	-0.008855512
11	0x3c4aa4c3	0.012368384
12	0x3b85000f	0.004058845
13	0xbb5b05c4	-0.0033420185
14	0xb822cc5a	-3.8814127e-05
15	0x395d63d5	0.00021113393
16	0x3a53a550	0.0008073645
17	0xbaa8d308	-0.0012880275
18	0xb80f7975	-3.4206972e-05
19	0xbbe2c572	-0.00692051
20	0x3bcecb9e	0.006310894
21	0x3c450040	0.012023985
22	0x3bd89de9	0.006610621
23	0x3bb65101	0.0055638556
24	0x3bf9fe06	0.007629159
25	0xbbeb6979	-0.007184204
26	0x3c30151d	0.010747221
27	0xbc376242	-0.01119286
28	0xbc3e8bfa	-0.011630053
29	0xba021e6a	-0.00049636385
30	0xbb43d0a7	-0.0029879005
31	0x3b64259e	0.003481246
32	0xbad51e6b	-0.0016259676
33	0xbb9d44ff	-0.0047994847
34	0xbb830263	-0.0039980873
35	0xbbfe8905	-0.007767799
36	0xbbccbe92	-0.0062483037
37	0xbbf99267	-0.0076163295
38	0xbc94fde5	-0.018187473
39	0xbc0510af	-0.008121653
40	0xbbeb9445	-0.007189306
41	0xbc2980f2	-0.010345684
42	0xbc2345f1	-0.009965406
43	0xba3fb805	-0.0007313493
44	0xbc2150c6	-0.009845918
45	0xbbd8e3fb	-0.0066189743
46	0xbc2291a1	-0.009922416
47	0xbc00c4f1	-0.0078594545
48	0x3b8537e3	0.0040655
49	0x3b83920c	0.004015213
50	0xbb9b6519	-0.0047422764
51	0xb3ba048f	-8.662129e-08
52	0x3bc6f8b2	0.0060721273
53	0xbc655c33	-0.013999033
54	0x3b1bde5c	0.002378366
55	0xbbb8f337	-0.005644228
56	0x3c1283c9	0.008942553
57	0x3cae42ed	0.021272147
58	0x3c85f2ed	0.016351188
59	0x3bb9485f	0.0056543793
60	0xbc1be825	-0.009515797
61	0x3bcb8663	0.0062110885
62	0x3c130fc0	0.008975923
63	0xbc1cdd8b	-0.009574304
64	0xbc4d7f88	-0.012542613
65	0xbabf7ce6	-0.0014609366
66	0xbc10820d	-0.008820069
67	0xbc1c025a	-0.009522045
68	0xbc255c9f	-0.010092883
69	0xbc2c1cb6	-0.010504892
70	0xbb930169	-0.004486252
71	0xbbb56155	-0.0055352845
72	0xbc0d4e83	-0.008624676
73	0x3c337643	0.010953489
74	0xbb3aeef7	-0.0028523782
75	0xba7b958f	-0.0009597176
76	0x39b3854d	0.00034240857
77	0xbba5e7e6	-0.005063045
78	0x3968b286	0.0002219175
79	0xbb95efab	-0.00457569
80	0xbc1c7e98	-0.009551667
81	0xbc32e085	-0.010917787
82	0x3ba76b12	0.0051091993
83	0x3c979371	0.018502923
84	0x3c460830	0.012086913
85	0xbadda015	-0.001690867
86	0xba25fddf	-0.000633208
87	0x3b8689d9	0.004105788
88	0xbbe77923	-0.007064001
89	0x3c5ebc81	0.0135947475
90	0xbc3ba0b6	-0.011451891
91	0xbc2fd765	-0.010732506
92	0xbb521422	-0.0032055457
93	0xbadf1c7c	-0.0017022039
94	0xb803032e	-3.1235795e-05
95	0xbc78dbe5	-0.015189146
96	0xbc3fa71e	-0.011697559
97	0xbc4e7222	-0.012600454
98	0xbc1fd87b	-0.009756203
99	0xbb60c1e2	-0.003429525
100	0x3b22a4fd	0.002481758
101	0xbc8f380e	-0.017482784
102	0x3b343ae1	0.0027500915
103	0xbbef69a5	-0.007306295
104	0xbc230196	-0.009949109
105	0xbc0d9a56	-0.008642754
106	0xbae2700a	-0.0017275822
107	0xbbc537b5	-0.0060186037
108	0x3b72d26b	0.0037051688
109	0x3c1e0b21	0.009646208
110	0x3b9ad9e8	0.0047256835
111	0xbb2ee4d9	-0.0026686697
112	0xba50d075	-0.0007965633
113	0xbb8f2a42	-0.004369051
114	0x3c0bb29c	0.0085264705
115	0x3afe0ebb	0.0019383052
116	0xbbcfca21	-0.0063412343
117	0x3c648bda	0.013949359
118	0xbbdf8200	-0.006820917
119	0xbbb15581	-0.005411804
120	0x3b362ed3	0.0027798906
121	0xbc5815c6	-0.013188785
122	0x36165cdd	2.2405795e-06
123	0xbc16a8f6	-0.009195557
124	0x3bb5e1c8	0.005550597
125	0xbaf4b7ff	-0.0018670558
126	0x3b2a09aa	0.0025945702
127	0xbc208c07	-0.00979901

action_model._continuous_distribution.log_sigma f4 [1, 2]
0	0xbf4617f3	-0.77380294
1	0xbe6a0812	-0.22854641

action_model._continuous_distribution.mu.weight f4 [2, 128]
0	0xbdd0226c	-0.101628155
1	0xbe8e27bd	-0.27764693
2	0x3d87c473	0.066292666
3	0x3b17630d	0.002309981
4	0xbd6c500b	-0.057693522
5	0xbaf63914	-0.0018785321
6	0xbb0d4a74	-0.002155927
7	0xbcc1367d	-0.023585552
8	0xbb6565fe	-0.003500342
9	0xba3707a4	-0.00069820345
10	0xbb8f0418	-0.0043645017
11	0xbe268ada	-0.16263905
12	0xbd421a1e	-0.04738819
13	0x3c4ba632	0.012429761
14	0x3c0ae6ca	0.008477876
15	0x3aefeb4e	0.0018304379
16	0xbcbdaa80	-0.02315259
17	0xbc396293	-0.011315006
18	0x3cc272b7	0.02373634
19	0xbaffcea2	-0.0019516537
20	0xbd682a4e	-0.05668097
21	0xbd90b4ba	-0.07065721
22	0xbd7f0ddd	-0.06226908
23	0xbd207c34	-0.03918095
24	0x3bae0d36	0.0053116335
25	0x3ce3a493	0.027788436
26	0x3c05e3ae	0.008171959
27	0xbb3f3836	-0.0029177791
28	0x3b2f1e90	0.0026721098
29	0x3ac142cf	0.0014744642
30	0x3d561c1d	0.052272905
31	0x3b874fad	0.004129371
32	0xbccf892e	-0.025333967
33	0xbc9f02ae	-0.019410457
34	0xbd0139d8	-0.031549305
35	0xbd49c332	-0.04925842
36	0xbc261fb2	-0.010139393
37	0x3d107357	0.035266247
38	0xb91f7c95	-0.00015209832
39	0x3b927f27	0.004470724
40	0x3d16c047	0.036804464
41	0x39853219	0.00025405062
42	0x3cb84a9d	0.022496516
43	0x3b196c63	0.002341055
44	0x3ca3f73d	0.020015353
45	0x3c2353c6	0.009968704
46	0x3c9738e7	0.01845975
47	0x3cf7bbdb	0.030240944
48	0xbd1f8d35	-0.038953025
49	0x3d28decc	0.0412281
50	0xbc9f4082	-0.01943994
51	0x3cc3ee23	0.023917263
52	0xbcf49f3b	-0.029861083
53	0xbaf7184c	-0.0018851846
54	0xbd66cf3d	-0.05634998
55	0x3b02d3b2	0.0019962606
56	0x3cda3d72	0.026640628
57	0x3c183323	0.009289536
58	0xbde0c0f1	-0.10974301
59	0xbdc5975d	-0.09648011
60	0x3c18c809	0.009325036
61	0xbe23796e	-0.1596429
62	0x3d0b797a	0.034051396
63	0x3cd7d1e4	0.0263452
64	0x3cf0025d	0.029298002
65	0xbc8b2150	-0.016983658
66	0x3c903aad	0.017606104
67	0x3cc1525a	0.023598839
68	0xbccea1fe	-0.025223728
69	0x3ca1713e	0.019707318
70	0xbc122f12	-0.008922355
71	0x3d02f7fb	0.031974774
72	0x3c4bb97f	0.012434362
73	0x3ddb6417	0.1071245
74	0xbd92d61e	-0.07169746
75	0xbc23df06	-0.010001903
76	0xbd5cf337	-0.053942885
77	0xbcfad469	-0.030618863
78	0xbd07e2db	-0.03317533
79	0x3b4a3365	0.0030853387
80	0xba881ce5	-0.0010384588
81	0x3baeb528	0.005331654
82	0xbd2ebb8e	-0.042659335
83	0x3d53355e	0.051564567
84	0x3d9adfa0	0.07562184
85	0xbca9d608	-0.02073194
86	0x3d87e564	0.0663555
87	0xbc99051c	-0.018679194
88	0xbc4b2b5c	-0.012400474
89	0xbdd466d3	-0.10371175
90	0x3c812672	0.015765402
91	0x3ccfa496	0.025347035
92	0x3d36585b	0.044517856
93	0xbc9a1632	-0.018809412
94	0x3aa9263b	0.001290507
95	0x3b3b33ff	0.0028564928
96	0x3c0d7641	0.008634151
97	0xbcf1eb18	-0.029531047
98	0x3beddcfd	0.00725901
99	0xbc4d4803	-0.012529376
100	0xbd6b080c	-0.05738072
101	0x3bbe6679	0.0058105555
102	0xbbd80dc2	-0.006593437
103	0x3b012df5	0.001971123
104	0x3c581df5	0.013190736
105	0x3c0ebeee	0.008712513
106	0xbdcb5b66	-0.09929542
107	0xbd56dac7	-0.052454736
108	0xbc5fa7aa	-0.013650814
109	0x3d197534	0.03746529
110	0x3cdf64bb	0.027269712
111	0xbad33ecb	-0.0016116736
112	0x3b1e060f	0.0024112498
113	0x3c1ddee8	0.0096356645
114	0xbe0a7edf	-0.1352496
115	0xbd0d1d8a	-0.034452
116	0x3be295fc	0.006914852
117	0xbd816218	-0.06317538
118	0xbb39f411	-0.0028374235
119	0xbc9fb4ed	-0.019495452
120	0xbe05dbce	-0.1307213
121	0xbb8ec3d0	-0.0043568388
122	0x3b866f31	0.0041026105
123	0xbc2f11cc	-0.010685395
124	0xbe17ab39	-0.1481141
125	0x3d044504	0.03229238
126	0xbd153932	-0.0364315
127	0x3cf8fc1e	0.030393656
128	0x3d07d556	0.033162437
129	0x3e3f0ed8	0.18658006
130	0x3d47f1e0	0.048814654
131	0xbb8cde09	-0.0042989296
132	0x3c09bb2d	0.008406443
133	0x3c6c1292	0.014408724
134	0xbc49c25f	-0.012314408
135	0x3b7ca736	0.0038551814
136	0xbdac0a91	-0.08400453
137	0x3d13d2e6	0.0360898
138	0x3c986687	0.018603576
139	0x3e7b3477	0.24531732
140	0xbd5ae680	-0.05344248
141	0x3d1413aa	0.036151566
142	0x3c8b7dae	0.017027702
143	0x3d916b8e	0.071005926
144	0x3c7c6172	0.015404092
145	0x3c315852	0.01082428
146	0xbc753615	-0.014966507
147	0xbd6a4576	-0.05719515
148	0x3d3b5d94	0.04574354
149	0x3c2bae63	0.010478589
150	0xbe1510ae	-0.14557144
151	0xbdc6003a	-0.09668012
152	0x3d6397c7	0.055564668
153	0x3d095c25	0.03353514
154	0x3ded958c	0.116007894
155	0x3c9876b9	0.018611299
156	0xbb53f410	-0.0032341518
157	0xbcecaf97	-0.028892322
158	0x3d043f08	0.032286674
159	0xbdc1b4d4	-0.09458318
160	0xbb80082c	-0.003907224
161	0x3d291ab0	0.041285217
162	0xbd726612	-0.059179373
163	0x3caa64c9	0.020800011
164	0x38327002	4.2542822e-05
165	0x3b297ea9	0.002586285
166	0xbc373d1c	-0.011184003
167	0x3ccc520b	0.024941465
168	0x3ba9caad	0.0051816315
169	0x3cabce36	0.020972352
170	0xbc5dea53	-0.013544637
171	0x3b98229a	0.0046427967
172	0xbbcfcbd6	-0.006341438
173	0xbd1eb75f	-0.038749095
174	0x3c0daf12	0.008647697
175	0x3bc0a1ff	0.0058786864
176	0x3cdb1fe5	0.026748607
177	0x3d29480e	0.041328482
178	0xbc0f61c1	-0.008751334
179	0x3c27fd7a	0.010253305
180	0xbdd1f687	-0.102520995
181	0x3c8f8f6a	0.01752444
182	0x3d455d39	0.048184607
183	0x3bd5742c	0.006514093
184	0x3e0dc9ff	0.13846587
185	0xbd283dc6	-0.041074537
186	0xbd9a259b	-0.07526704
187	0xbd10d449	-0.0353587
188	0x3cd92a8a	0.026509542
189	0xbcd1016f	-0.025513379
190	0x3e719c2a	0.23594728
191	0x3cf25fcf	0.0295867
192	0x3ce130a5	0.027489016
193	0x3c3b9dcd	0.011451197
194	0x3cb0b4e3	0.021570629
195	0xbbeabf88	-0.0071639456
196	0xba498d28	-0.00076885754
197	0xbc97b3a2	-0.018518273
198	0xbd768023	-0.060180794
199	0xbad52b40	-0.00162635
200	0x3ccd26c2	0.025042895
201	0x3d300c39	0.042980406
202	0x3b0e8b37	0.002175046
203	0x3bd0fef8	0.006378051
204	0xbca3d74a	-0.020000119
205	0xbd927a43	-0.07152226
206	0xbca37228	-0.019951895
207	0xbbeeb508	-0.007284764
208	0xbc5d5c73	-0.013510811
209	0x3a5b4644	0.00083646574
210	0x3d3f24a6	0.04666581
211	0x3dc7162d	0.097210266
212	0x3d8203c8	0.063483775
213	0x3ba9cb7c	0.005181728
214	0x3d1d0f2c	0.038344547
215	0xbd7f554b	-0.0623372
216	0xbd0a15ae	-0.03371208
217	0x3d946c07	0.07247167
218	0xbc9da195	-0.019242087
219	0xbb30d9df	-0.002698533
220	0x3dc9f8fb	0.098619424
221	0xbdf71c5e	-0.120659575
222	0x3ca8d40f	0.02060893
223	0x3b3cfe14	0.0028837966
224	0x3b9bfbb5	0.0047602304
225	0x3b8dc52b	0.004326483
226	0x3c97ba5f	0.018521486
227	0x3c8b9a2d	0.01704129
228	0x3d006675	0.03134771
229	0x3c1b2502	0.009469273
230	0x3d1f2135	0.038850028
231	0xbc8ceb9d	-0.017202193
232	0x3bc6f3b9	0.0060715345
233	0x3cc703fa	0.024293888
234	0x3c11b852	0.008894043
235	0xbdaffde2	-0.08593346
236	0x3cd932ae	0.026513424
237	0x3dea9dad	0.114558555
238	0x3df6e830	0.12056005
239	0xbc60fea2	-0.013732584
240	0xbbe923f9	-0.007114884
241	0x3c1524a4	0.009102974
242	0x3d88b8f2	0.066759005
243	0xbb4d6848	-0.0031342674
244	0x3d055d35	0.032559592
245	0x3dbe4cf7	0.09292024
246	0x3d5b464a	0.05353383
247	0xbc4d9131	-0.012546823
248	0xbcee649c	-0.029100709
249	0xbcca0ddf	-0.024664817
250	0xbb96f26e	-0.0046065366
251	0xbb86a6c0	-0.0041092336
252	0xbc57e30a	-0.013176689
253	0x3c9f2259	0.019425558
254	0xbcd29e29	-0.025710182
255	0x3ce86742	0.02836955

action_model._continuous_distribution.mu.bias f4 [2]
0	0xbb9e4cb1	-0.0048309197
1	0x3bf504c0	0.007477373

exp_avg f4 [128, 6]
0	0xb832c0dc	-4.261812e-05
1	0x3750bbf0	1.2441524e-05
2	0x393e4e9d	0.00018149098
3	0xb80aa7bc	-3.305798e-05
4	0xb8e7b6ac	-0.00011048964
5	0x3b4e785c	0.0031504845
6	0x399d715c	0.00030029833
7	0xb9299bfc	-0.00016175205
8	0x3a9bef2c	0.001189684
9	0xb9787182	-0.00023693408
10	0xba4f97cb	-0.0007919042
11	0x3cb8fa2f	0.022580234
12	0x274e17a0	2.860105e-15
13	0xa8468106	-1.10191854e-14
14	0x292ef638	3.8849322e-14
15	0xa7bb3087	-5.195554e-15
16	0xa89c6927	-1.7365082e-14
17	0x2b0b5efc	4.951454e-13
18	0x376ed400	1.4235266e-05
19	0xb96e2ae9	-0.00022713434
20	0x3a5f9458	0.000852888
21	0xb8bba414	-8.947417e-05
22	0xb99cc9b7	-0.00029904928
23	0x3c0bb500	0.0085270405
24	0xaf947ab9	-2.7008243e-10
25	0x2e695b70	5.305928e-11
26	0xaf8be0b4	-2.5443614e-10
27	0x2e1c9188	3.559955e-11
28	0x2f02d316	1.1898424e-10
29	0xb1692504	-3.3927003e-09
30	0x39c92578	0.00038365624
31	0xba76ce27	-0.00094148744
32	0x3b86f339	0.00411835
33	0xba040302	-0.00050358486
34	0xbadc9c7e	-0.0016831306
35	0x3d4493d6	0.04799255
36	0x30b3668a	1.3053107e-09
37	0x3083ffe6	9.604235e-10
38	0xb1fc0d78	-7.3356965e-09
39	0x30430b36	7.095652e-10
40	0x3122f93e	2.371578e-09
41	0xb3913806	-6.762279e-08
42	0xb8edac10	-0.0001133309
43	0x391c3b9b	0.00014899524
44	0xba5f1934	-0.00085105305
45	0x38ca93e2	9.659656e-05
46	0x39a944d0	0.0003228546
47	0xbc16d40e	-0.009205831
48	0xb8b7d684	-8.766077e-05
49	0x39951d1b	0.0002844118
50	0xba979200	-0.0011563897
51	0x392bf0f7	0.00016397597
52	0x3a0fab74	0.00054805656
53	0xbc8004a0	-0.015627205
54	0xb5c1a6b0	-1.4428133e-06
55	0x36e91138	6.9459456e-06
56	0xb8f5d14a	-0.000117214935
57	0x3789565d	1.6371889e-05
58	0x386582e8	5.471977e-05
59	0xbacc81fe	-0.0015602706
60	0x388d5dfe	6.740911e-05
61	0x3a257091	0.0006311024
62	0xbab6b069	-0.0013938072
63	0x394bc032	0.00019431187
64	0x3a2a3fbe	0.00064944837
65	0xbc97b39e	-0.018518265
66	0xb8452430	-4.7002162e-05
67	0xb8edf24c	-0.00011346172
68	0xb8761e60	-5.867926e-05
69	0xb7a1fb18	-1.930962e-05
70	0xb88758c8	-6.4538384e-05
71	0x3af13450	0.0018402431
72	0xb9649c44	-0.00021801988
73	0x3a21f6f2	0.00061784603
74	0xbb1b0c0b	-0.0023658301
75	0x39a243cd	0.00030949563
76	0x3a879598	0.0010344265
77	0xbcf1a082	-0.029495481
78	0xb7720260	-1.4424877e-05
79	0x3925271e	0.00015750199
80	0xb9437e00	-0.00018643588
81	0x3837029a	4.3633023e-05
82	0x3918eb22	0.00014583443
83	0xbb88425a	-0.0041583003
84	0x3714d5a8	8.871233e-06
85	0x36d6a404	6.396791e-06
86	0xb62c30e0	-2.5658446e-06
87	0x35de4910	1.6561553e-06
88	0x36b9bc40	5.535345e-06
89	0xb9258050	-0.00015783426
90	0x39356e28	0.00017302542
91	0xb9f0790a	-0.00045866548
92	0x3adfd576	0.0017077166
93	0xb979afa6	-0.00023811925
94	0xba50a19b	-0.00079586514
95	0x3cb9e70c	0.02269318
96	0x3766fc50	1.3767814e-05
97	0xb70d9dcf	-8.440998e-06
98	0x379243ee	1.7436189e-05
99	0xb68dd3d6	-4.2267884e-06
100	0xb76d03ce	-1.4127187e-05
101	0x39d331a5	0.00040282044
102	0x361749d6	2.2543732e-06
103	0xb5f9710b	-1.8584846e-06
104	0x370f395f	8.536822e-06
105	0xb5aeaffe	-1.3015231e-06
106	0xb691f6e4	-4.3500786e-06
107	0x3902100a	0.00012403741
108	0x387964a0	5.945994e-05
109	0xba158ede	-0.0005705188
110	0x3ae5de8e	0.001753764
111	0xb97d3e1e	-0.000241511
112	0xba539a62	-0.0008072016
113	0x3cbc8cf0	0.023016423
114	0xb83716f0	-4.3651962e-05
115	0xb9383fce	-0.00017571377
116	0x3a15bf3c	0.0005712395
117	0xb8b52760	-8.638087e-05
118	0xb9975e12	-0.00028871052
119	0x3c06e08f	0.00823225
120	0x1d4fd5a0	2.7506663e-21
121	0x1e0c1cd6	7.4175014e-21
122	0x9ce50840	-1.5156081e-21
123	0x1d4c1dac	2.7014515e-21
124	0x1e2a8dd4	9.0290544e-21
125	0xa097f934	-2.5745304e-19
126	0xb96b2cd4	-0.00022428046
127	0x39dbe116	0.00041938637
128	0xbb00beb4	-0.0019644918
129	0x398bf040	0.00026691146
130	0x3a69dba4	0.00089209736
131	0xbcd06187	-0.02543713
132	0xb987d45e	-0.00025907432
133	0xb9365158	-0.00017387175
134	0xba2490cc	-0.000627768
135	0x382d4380	4.130928e-05
136	0x3910c670	0.00013806834
137	0xbb8100b8	-0.0039368533
138	0x387d3b7e	6.0375307e-05
139	0xb947adf9	-0.00019042929
140	0x39f62f98	0.00046956236
141	0xb8c217df	-9.255087e-05
142	0xb9a22dee	-0.00030933268
143	0x3c1082df	0.008820265
144	0x36b5b66c	5.415457e-06
145	0xb6523fea	-3.1329641e-06
146	0x363a743c	2.7783817e-06
147	0xb5a31e22	-1.2153216e-06
148	0xb6884c03	-4.061965e-06
149	0x38f2e5a0	0.0001158223
150	0xb903e61a	-0.00012578853
151	0x37f11040	2.8737006e-05
152	0xb990ddf9	-0.00027631203
153	0x3829b5ce	4.046206e-05
154	0x390dce3c	0.00013523636
155	0xbb7cb6b4	-0.0038561048
156	0x24e63a21	9.9845074e-17
157	0xa3f0f3c6	-2.6124094e-17
158	0x242b2cc4	3.7117632e-17
159	0x23140040	8.023149e-18
160	0x23f754fc	2.6815786e-17
161	0xa65c6326	-7.6462204e-16
162	0x387d1d90	6.0347433e-05
163	0xb9aeed02	-0.0003336445
164	0x3a810257	0.0009842616
165	0xb923991e	-0.00015601932
166	0xba08b2cc	-0.0005214631
167	0x3c739cc5	0.01486892
168	0xb8a8851c	-8.035658e-05
169	0x39ac0b52	0.0003281483
170	0xbaa43bc5	-0.001253002
171	0x3929d2fc	0.00016195694
172	0x3a0de696	0.0005413083
173	0xbc7ce22c	-0.015434783
174	0xb8a1c5a8	-7.7138946e-05
175	0xb8f88b3a	-0.000118514945
176	0xb62c9000	-2.5713816e-06
177	0xb72bca30	-1.023947e-05
178	0xb80f8b10	-3.422337e-05
179	0x3a7fcf60	0.00097583793
180	0x22dc5b0f	5.972753e-18
181	0xa374fe91	-1.3281173e-17
182	0x24567771	4.6505024e-17
183	0xa31c0502	-8.457837e-18
184	0xa4025dae	-2.8268606e-17
185	0x266853c2	8.060468e-16
186	0xba38ab50	-0.00070445705
187	0x398fcddc	0.00027428463
188	0xbb437048	-0.0029821564
189	0x39936068	0.00028109853
190	0x3a7649cc	0.0009395152
191	0xbcdb74f0	-0.026789159
192	0x385aca00	5.2163377e-05
193	0xb95a7e46	-0.0002083714
194	0x3a682fdb	0.00088572287
195	0xb8df5ba8	-0.00010650541
196	0xb9baa1dc	-0.0003559728
197	0x3c264cda	0.010150159
198	0xb84aacd8	-4.8321526e-05
199	0xb7d721e0	-2.5645772e-05
200	0xb8dd0578	-0.0001053912
201	0x3659a060	3.242887e-06
202	0x3735d760	1.0838587e-05
203	0xb9a20880	-0.0003090538
204	0xb95bad28	-0.00020949973
205	0x398d875e	0.00026994472
206	0xbab0a9a3	-0.001347829
207	0x3920e8fc	0.00015345583
208	0x3a0673c9	0.00051289477
209	0xbc6f9c04	-0.014624599
210	0x332c13e0	4.0064947e-08
211	0x360c50f0	2.0908737e-06
212	0xb6e0ac01	-6.695744e-06
213	0x35919733	1.0847347e-06
214	0x36734db6	3.6255055e-06
215	0xb8d8cc2b	-0.00010337712
216	0x388195c0	6.1790925e-05
217	0xb9cb19db	-0.0003873844
218	0x3af195b7	0.0018431459
219	0xb94e22b4	-0.00019658619
220	0xba2c3ddc	-0.0006570497
221	0x3c997a2f	0.01873502
222	0x36e36a00	6.777467e-06
223	0x39376f56	0.00017493716
224	0xba418dc6	-0.00073834916
225	0x38c0db06	9.19607e-05
226	0x39a1252a	0.00030736002
227	0xbc0f96f4	-0.008764017
228	0xb81f4d9c	-3.7980833e-05
229	0xb8496f3c	-4.802573e-05
230	0x38a1c050	7.712899e-05
231	0xb6776305	-3.6863505e-06
232	0xb74eb5d5	-1.2320893e-05
233	0x39b830d2	0.0003513159
234	0xb89bff80	-7.4385665e-05
235	0x35062900	4.9978553e-07
236	0x390d9aec	0.00013504521
237	0xb62d9160	-2.5863628e-06
238	0xb7110740	-8.6443615e-06
239	0x39813aa0	0.00024648476
240	0xb932087c	-0.00016978564
241	0x3905380a	0.00012704745
242	0xba28d985	-0.00064411043
243	0x38b28132	8.511766e-05
244	0x39952768	0.00028448855
245	0xbc04e79f	-0.008111863
246	0x34447b3e	1.8298758e-07
247	0x33e1ca61	1.05141915e-07
248	0xb522d036	-6.065269e-07
249	0x3360c40a	5.233236e-08
250	0x343bcefb	1.7491031e-07
251	0xb6a75929	-4.9873674e-06
252	0x36e45078	6.8042973e-06
253	0x36f2e646	7.2389694e-06
254	0xb8087cb6	-3.2541073e-05
255	0x363f6694	2.8520926e-06

exp_avg_sq f4 [128, 6]
0	0x35776769	9.216515e-07
1	0x33593ec5	5.058134e-08
2	0x37e39185	2.7128272e-05
3	0x33334984	4.1743547e-08
4	0x34fa59d0	4.6631476e-07
5	0x39c6c651	0.0003791326
6	0x38827ae7	6.2217754e-05
7	0x373f61f8	1.1407297e-05
8	0x3c7323e6	0.014840102
9	0x365bceb2	3.2753856e-06
10	0x3819775f	3.6589216e-05
11	0x3cf3b317	0.029748483
12	0x144bc10d	1.02869534e-26
13	0x132a79a9	2.1517e-27
14	0x1530c6b4	3.5699666e-26
15	0x12cd0f42	1.294108e-27
16	0x148f2b67	1.4456429e-26
17	0x1963593e	1.1753647e-23
18	0x3a808c74	0.0009807483
19	0x396d1665	0.00022610424
20	0x3e9c68e6	0.3054878
21	0x3875ad56	5.8573984e-05
22	0x3a2b871e	0.00065432664
23	0x3f0830af	0.53199285
24	0x228e46ad	3.856401e-18
25	0x210324c2	4.4433175e-19
26	0x23349ef3	9.791478e-18
27	0x212216ee	5.491808e-19
28	0x22e25636	6.1348702e-18
29	0x27b3b53d	4.987898e-15
30	0x393057fd	0.00016817446
31	0x37c3f5f1	2.3360337e-05
32	0x3a1960a0	0.0005850885
33	0x3785a5a6	1.5931972e-05
34	0x393a9ee7	0.00017797538
35	0x3e142c8b	0.14470117
36	0x374eda50	1.2329387e-05
37	0x37d1fa6c	2.5031353e-05
38	0x3ced913c	0.028999917
39	0x36d788fb	6.423446e-06
40	0x38967bbd	7.1756054e-05
41	0x3d6ef661	0.058340434
42	0x3783d370	1.5714875e-05
43	0x366be562	3.5151247e-06
44	0x3b3ce546	0.002882318
45	0x35bb41c7	1.395173e-06
46	0x3782bd67	1.5585405e-05
47	0x3c4f9c5f	0.012671559
48	0x36a3dea4	4.8836973e-06
49	0x3604caf5	1.978767e-06
50	0x3a867342	0.0010257738
51	0x357fb94a	9.5264534e-07
52	0x37328adf	1.064196e-05
53	0x3c0dc28c	0.008652341
54	0x361b95c9	2.3183986e-06
55	0x361b2f76	2.3124426e-06
56	0x3b480f24	0.0030526603
57	0x35232774	6.0779644e-07
58	0x36e3d2e5	6.7896785e-06
59	0x3bb4e35a	0.0055202665
60	0x38a1b173	7.710131e-05
61	0x377158a6	1.43853595e-05
62	0x3c919c50	0.01777473
63	0x368fcc0d	4.2854867e-06
64	0x3848cb43	4.7873018e-05
65	0x3d1f6d56	0.03892263
66	0x37299739	1.0108394e-05
67	0x36032039	1.9539277e-06
68	0x3b00b326	0.001963803
69	0x353ccd21	7.033396e-07
70	0x3703d173	7.856975e-06
71	0x3bd152c1	0.006388039
72	0x38959dce	7.134267e-05
73	0x37f43305	2.9110824e-05
74	0x3ca2377e	0.019801851
75	0x372188d1	9.628203e-06
76	0x38e18fae	0.000107555985
77	0x3db3179f	0.0874474
78	0x372a27bf	1.0142044e-05
79	0x364f9f70	3.0938209e-06
80	0x3b6a8a8f	0.0035788154
81	0x35673dc9	8.6144115e-07
82	0x37217302	9.623125e-06
83	0x3c00302d	0.007823986
84	0x3413fb6a	1.3781906e-07
85	0x31ae4a95	5.0725455e-09
86	0x33fd8ac6	1.1806473e-07
87	0x31c0f8c1	5.6162155e-09
88	0x3386badd	6.2738515e-08
89	0x3855f264	5.10089e-05
90	0x37499b2a	1.2016661e-05
91	0x361f7c3f	2.3765167e-06
92	0x38d47a43	0.00010131721
93	0x35e742eb	1.7230317e-06
94	0x37a17698	1.924792e-05
95	0x3c803302	0.015649322
96	0x3185380f	3.8771826e-09
97	0x2f4eb922	1.8801363e-10
98	0x3197a0d9	4.4129647e-09
99	0x2fe4339c	4.150963e-10
100	0x319f53af	4.6370228e-09
101	0x367d0184	3.770082e-06
102	0x2fe9449d	4.2431206e-10
103	0x2ec9dcd7	9.179651e-11
104	0x3208ff51	7.974294e-09
105	0x2eb059cf	8.0195066e-11
106	0x30764031	8.95855e-10
107	0x354384ea	7.2836576e-07
108	0x392ba909	0.00016370801
109	0x3820a989	3.8304865e-05
110	0x3d4b5691	0.049643103
111	0x373427af	1.0738076e-05
112	0x38fb9016	0.00011995451
113	0x3dc7bca1	0.09752775
114	0x36eab871	6.9952152e-06
115	0x367ae17f	3.738416e-06
116	0x3b836ae1	0.0040105437
117	0x35875fc4	1.0086155e-06
118	0x373d082f	1.1267183e-05
119	0x3c1616a2	0.0091606695
120	0x125ac2ff	6.902902e-28
121	0x11ca86f7	3.195316e-28
122	0x1755f765	6.913627e-25
123	0x10cfe539	8.200028e-29
124	0x12912639	9.160209e-28
125	0x17667e0e	7.447611e-25
126	0x3a22ae97	0.00062058255
127	0x3904d42a	0.00012667538
128	0x3e2951f8	0.16535175
129	0x380f3fb6	3.4153192e-05
130	0x39c80739	0.00038152354
131	0x3e9ed1ac	0.31019342
132	0x3b9306a2	0.0044868747
133	0x3a84c0ca	0.0010128256
134	0x3fade459	1.3585311
135	0x3989352b	0.0002617029
136	0x3b3f97b3	0.0029234707
137	0x40181f1a	2.3768983
138	0x3911075c	0.00013831019
139	0x3806ebe6	3.2167787e-05
140	0x3d2f6026	0.042816304
141	0x370ba824	8.324194e-06
142	0x38c30336	9.298923e-05
143	0x3d9ad631	0.07560385
144	0x371d61f8	9.380739e-06
145	0x3647bdb5	2.9763735e-06
146	0x3b8c0c19	0.004273903
147	0x354d302e	7.643856e-07
148	0x370f4262	8.53892e-06
149	0x3be37dab	0.006942471
150	0x3adb6781	0.0016739221
151	0x39bc2184	0.00035883125
152	0x3f0128c8	0.5045285
153	0x38c14cb5	9.217245e-05
154	0x3a86f581	0.0010296555
155	0x3f564f6f	0.83714956
156	0x0d86a58e	8.298243e-31
157	0x0ad1e571	2.0212274e-32
158	0x0d24ab16	5.074234e-31
159	0x0ae54f26	2.208167e-32
160	0x0ca019a6	2.466734e-31
161	0x117e3be7	2.0055526e-28
162	0x381c3856	3.7245765e-05
163	0x3709d548	8.215495e-06
164	0x3c317425	0.010830914
165	0x3619dccd	2.29273e-06
166	0x37d6d941	2.5611955e-05
167	0x3caa960f	0.020823507
168	0x37d39e3d	2.5226846e-05
169	0x370429f9	7.877586e-06
170	0x3bfb2d58	0.0076653175
171	0x362bcdda	2.5600807e-06
172	0x37efe6df	2.8598528e-05
173	0x3cbe7a6e	0.023251738
174	0x3a5a737b	0.0008333248
175	0x393f7ef7	0.00018262478
176	0x3e811bbb	0.2521647
177	0x38456414	4.7061665e-05
178	0x3a09d0b3	0.0005257234
179	0x3edad8a0	0.42743397
180	0x34d4333c	3.9525355e-07
181	0x34ae1696	3.242646e-07
182	0x3a3b0bcc	0.0007135242
183	0x33b2b3e6	8.321494e-08
184	0x35798904	9.295911e-07
185	0x3a462076	0.00075579376
186	0x3bd536fa	0.006506798
187	0x3abb4070	0.0014286172
188	0x3fea0221	1.82819
189	0x39c6b9e9	0.00037904017
190	0x3b8abf67	0.0042342427
191	0x405c539e	3.4426036
192	0x396b4e6a	0.00022440558
193	0x3851a9da	4.998767e-05
194	0x3d8911eb	0.06692871
195	0x375d940a	1.32070945e-05
196	0x391ab3d9	0.00014753583
197	0x3df5a9ac	0.11995253
198	0x35eb1ea2	1.751778e-06
199	0x357b3681	9.35841e-07
200	0x3a5a21ef	0.00083210965
201	0x34a0e5bb	2.9969473e-07
202	0x3660ac21	3.3478793e-06
203	0x3b3262e5	0.002721959
204	0x39d8be8a	0.00041340693
205	0x38ae011e	8.297175e-05
206	0x3ddbce64	0.10732725
207	0x37be2241	2.2665716e-05
208	0x3984bf98	0.0002531975
209	0x3e52ccda	0.20585957
210	0x3a9a63e1	0.0011779034
211	0x398315e4	0.00025002577
212	0x3eb2f903	0.34955606
213	0x38868f4f	6.416311e-05
214	0x3a3be52e	0.00071676343
215	0x3f152f85	0.58275634
216	0x3b157bed	0.0022809461
217	0x3a0906c7	0.0005227145
218	0x3f35a305	0.70951873
219	0x390e4565	0.00013568027
220	0x3ac6a9b6	0.0015156779
221	0x3f9dbc27	1.2323045
222	0x3a7b5446	0.0009587448
223	0x395c84fc	0.00021030376
224	0x3e94edb9	0.29087618
225	0x38631a82	5.4145705e-05
226	0x3a1e8f6f	0.0006048595
227	0x3efbc9d7	0.4917743
228	0x35135fb0	5.490101e-07
229	0x3219a9d8	8.94439e-09
230	0x34325f44	1.6612199e-07
231	0x328d75f6	1.6468203e-08
232	0x34458829	1.839659e-07
233	0x391cd64a	0.00014957148
234	0x387cf9ca	6.0314116e-05
235	0x3787f718	1.6208316e-05
236	0x3c9d644a	0.01921286
237	0x368d24b0	4.2063984e-06
238	0x384516a1	4.6989535e-05
239	0x3d1c7c29	0.038204346
240	0x38b1f55c	8.4857194e-05
241	0x3819a45c	3.6631114e-05
242	0x3cf93cef	0.030424563
243	0x3722dc05	9.70718e-06
244	0x38e36972	0.00010843844
245	0x3db48fb4	0.08816472
246	0x3aabc118	0.0013103811
247	0x39af0e9e	0.00033389492
248	0x3ee8f570	0.45499754
249	0x38b3b227	8.5685686e-05
250	0x3a7aebe3	0.0009571893
251	0x3f473a57	0.77823395
252	0x392cb701	0.00016471373
253	0x3866c4a9	5.5019427e-05
254	0x3d8da478	0.069161355
255	0x376ce114	1.4119101e-05

exp_avg f4 [128]
0	0x389e19b2	7.538813e-05
1	0x3a0da486	0.0005403239
2	0x285570f3	1.1848367e-14
3	0x3955f4b4	0.00020404422
4	0xaeb28690	-8.118406e-11
5	0x3a968671	0.0011484158
6	0xb0de6598	-1.6181501e-09
7	0xb966fcc8	-0.00022028678
8	0xb9c40df8	-0.0003739444
9	0xb81c9907	-3.7335816e-05
10	0xb9e85336	-0.00044312485
11	0x3838b290	4.4035318e-05
12	0xba39055e	-0.000705799
13	0xb8d0acf0	-9.950425e-05
14	0xb67d7570	-3.7768295e-06
15	0x3a0e59e7	0.00054302666
16	0x3721b7b4	9.6391195e-06
17	0x36472f92	2.9681e-06
18	0x3a1060fb	0.0005507615
19	0x394e8f1a	0.00019699
20	0x9de8bdcc	-6.1606134e-21
21	0xba1f9049	-0.0006086869
22	0xb8c59000	-9.420514e-05
23	0x395d502e	0.00021106072
24	0x3639fe52	2.7715182e-06
25	0xb8c182b0	-9.2272996e-05
26	0xa3a8c1c2	-1.8296656e-17
27	0x39ba8a94	0.00035579933
28	0xb9c1a3fa	-0.00036934
29	0x37c3e190	2.3350847e-05
30	0x23b1e660	1.9287946e-17
31	0xba280b74	-0.0006410398
32	0x397eae97	0.00024288367
33	0xb6f82580	-7.3953415e-06
34	0xb9b779e6	-0.000349953
35	0xb6260226	-2.4737178e-06
36	0x39eb0b54	0.00044831133
37	0xb95be6e1	-0.00020971477
38	0x370d0a56	8.406661e-06
39	0x36c5e880	5.898124e-06
40	0xb94b89d0	-0.00019410928
41	0xb40024c1	-1.19343e-07
42	0xb6da3e38	-6.5041495e-06
43	0xb9363cf1	-0.00017379575
44	0x3a1137bb	0.00055396155
45	0x380e2f58	3.389953e-05
46	0x32d77eb8	2.508692e-08
47	0x313cf11f	2.7494662e-09
48	0xb7267dd8	-9.923671e-06
49	0x319b3c28	4.5179327e-09
50	0xb9dbc4f4	-0.00041917677
51	0x39f3385a	0.00046390557
52	0xb2421418	-1.1296855e-08
53	0x3a006845	0.000489835
54	0x38da163c	0.000103991915
55	0xb7bc20b6	-2.2426579e-05
56	0x3a150e1c	0.00056860014
57	0x25394ce0	1.6072238e-16
58	0x397db1dc	0.00024194218
59	0xb934ba09	-0.00017235441
60	0xae6d2aa6	-5.392544e-11
61	0xaa036ba0	-1.1672477e-13
62	0x35d62fcc	1.5958153e-06
63	0x37aab320	2.034899e-05
64	0x3aa8b8ef	0.0012872497
65	0xa964a990	-5.0773242e-14
66	0x37109d00	8.619623e-06
67	0xb4616880	-2.0992775e-07
68	0x36259a07	2.4676572e-06
69	0xb7f505c0	-2.9208953e-05
70	0xafc1e8c2	-3.527188e-10
71	0xb97ba416	-0.00023998352
72	0x39ad7fa6	0.00033092237
73	0x395e1bfd	0.00021181996
74	0x3788b450	1.6296428e-05
75	0x384caa93	4.879625e-05
76	0x3abeb4cd	0.0014549732
77	0x31720183	3.5216494e-09
78	0xb3edae20	-1.1067846e-07
79	0x386fb1c0	5.7147583e-05
80	0x38bb3a8c	8.92776e-05
81	0x2cbb4535	5.322543e-12
82	0x2eb3e214	8.180137e-11
83	0x3529ce02	6.3257187e-07
84	0xb84ef03f	-4.9337974e-05
85	0xb8e4cbaa	-0.000109098226
86	0x3087fdd8	9.89469e-10
87	0x382579e0	3.945257e-05
88	0x2ea44c45	7.471405e-11
89	0xac9a1f97	-4.3804504e-12
90	0xb6395084	-2.7614014e-06
91	0xb8f72396	-0.00011784506
92	0x338bc6a4	6.5088244e-08
93	0xaf958fc2	-2.7205088e-10
94	0xb71d00ab	-9.358085e-06
95	0x38c0d4f8	9.194942e-05
96	0xb4b15a00	-3.3034303e-07
97	0xb9639ad6	-0.00021706088
98	0x38189dea	3.6386693e-05
99	0xb967a2ac	-0.00022090477
100	0x37f4ac50	2.9167306e-05
101	0xa6012f90	-4.4820325e-16
102	0x389c7420	7.4602896e-05
103	0xb984c1f5	-0.0002532151
104	0x371912ac	9.123858e-06
105	0x24312166	3.8409046e-17
106	0xb9a1261c	-0.00030736707
107	0xb66e7668	-3.5533685e-06
108	0xb6fad440	-7.4752897e-06
109	0xa6b8e0da	-1.2828511e-15
110	0xa95d6338	-4.9157916e-14
111	0xb9d21f00	-0.00040077418
112	0x39e239a5	0.00043149028
113	0xb819f105	-3.670251e-05
114	0xb8a43790	-7.830479e-05
115	0xb97faeee	-0.00024383861
116	0xaa98611a	-2.7068002e-13
117	0xb8b8f1d0	-8.818845e-05
118	0x2475d360	5.3304948e-17
119	0x389757ce	7.216596e-05
120	0x23e91c06	2.5273779e-17
121	0xab76e440	-8.7713517e-13
122	0x35566f00	7.988274e-07
123	0xaeaebce7	-7.94616e-11
124	0x398ee24a	0.0002725295
125	0x376a90d0	1.3981204e-05
126	0xb15e9424	-3.238946e-09
127	0xa9a205de	-7.195263e-14

exp_avg_sq f4 [128]
0	0x3469199f	2.1709137e-07
1	0x378ee437	1.703399e-05
2	0x14054ddf	6.7301414e-27
3	0x399fb551	0.00030461935
4	0x2252bda0	2.8560694e-18
5	0x38adc2e0	8.285581e-05
6	0x380c1d31	3.3405788e-05
7	0x36f37646	7.255733e-06
8	0x36a63d5f	4.95433e-06
9	0x36541fe1	3.1609018e-06
10	0x37baf528	2.2287088e-05
11	0x3675785c	3.6577903e-06
12	0x385204ce	5.0072376e-05
13	0x36965308	4.4800145e-06
14	0x32fae46f	2.920771e-08
15	0x3716565c	8.960804e-06
16	0x3114591f	2.1587494e-09
17	0x2fe5485b	4.170627e-10
18	0x386a3a71	5.5844375e-05
19	0x36b001a5	5.2454e-06
20	0x120725c9	4.2645063e-28
21	0x393a3eb5	0.00017761702
22	0x3ab263ed	0.0013610102
23	0x3835932b	4.3290824e-05
24	0x36856338	3.9752595e-06
25	0x39fb517c	0.0004793516
26	0x0c151175	1.1483796e-31
27	0x37480b3d	1.1923546e-05
28	0x375f5f01	1.3313956e-05
29	0x398051a0	0.00024474878
30	0x34e85736	4.3276822e-07
31	0x3b012fe3	0.001971238
32	0x38900ae5	6.868484e-05
33	0x35d130ca	1.5585913e-06
34	0x38f733d0	0.00011787529
35	0x39aef2a6	0.00033368653
36	0x3a38f93e	0.0007056183
37	0x3993a25a	0.00028158986
38	0x33b7eba6	8.564466e-08
39	0x37b781f9	2.1875823e-05
40	0x3853bdeb	5.0483195e-05
41	0x39e9a1a0	0.00044561643
42	0x3899fd48	7.342786e-05
43	0x36718701	3.599038e-06
44	0x3769cdc2	1.3935789e-05
45	0x37cf7884	2.4732442e-05
46	0x31160a72	2.183381e-09
47	0x28204959	8.897689e-15
48	0x39f0d011	0.0004593139
49	0x35a38362	1.2182684e-06
50	0x398beb27	0.00026687348
51	0x384efca1	4.9349506e-05
52	0x37a5f9e8	1.9785904e-05
53	0x36fd3ecd	7.5472985e-06
54	0x380e4cf4	3.3927106e-05
55	0x393586b3	0.00017311684
56	0x38e1c688	0.000107658154
57	0x118ec490	2.252479e-28
58	0x38d085ee	9.943159e-05
59	0x361a612f	2.3004357e-06
60	0x3625f3b2	2.4728765e-06
61	0x1b22fe9e	1.3482597e-22
62	0x389cb3c5	7.472144e-05
63	0x39c4b1cb	0.000375165
64	0x381472dc	3.539292e-05
65	0x158fd036	5.808574e-26
66	0x39c6e96d	0.0003793942
67	0x36902823	4.296207e-06
68	0x39ee734c	0.000454808
69	0x37a4cb22	1.9644915e-05
70	0x329b20b4	1.8059247e-08
71	0x3714f929	8.8795e-06
72	0x3ada791f	0.0016668177
73	0x3823a0d2	3.9012004e-05
74	0x37b40565	2.1460184e-05
75	0x3687739a	4.0367713e-06
76	0x38bbb95e	8.951382e-05
77	0x370e4ff7	8.482478e-06
78	0x3771d9b8	1.4415411e-05
79	0x3b185984	0.0023246715
80	0x362d52f6	2.5827298e-06
81	0x1ce40d93	1.5091283e-21
82	0x218a2d0e	9.36317e-19
83	0x36dd914b	6.6032276e-06
84	0x38bc0c4c	8.966829e-05
85	0x3940d286	0.00018388973
86	0x2726385c	2.306768e-15
87	0x37433512	1.1635262e-05
88	0x201b148b	1.3135808e-19
89	0x1bd33012	3.4938087e-22
90	0x398fb597	0.0002741038
91	0x37dc5a12	2.6267986e-05
92	0x2c33c483	2.5546516e-12
93	0x3a24b434	0.0006282956
94	0x350a33c5	5.148434e-07
95	0x35fbc24e	1.8757507e-06
96	0x344a75ec	1.8855616e-07
97	0x384e221e	4.9146e-05
98	0x3399b5d7	7.157694e-08
99	0x372c62d4	1.0275009e-05
100	0x3411885c	1.3553785e-07
101	0x139ef702	4.0128376e-27
102	0x38b9d2d3	8.8607565e-05
103	0x37df9ebe	2.6657592e-05
104	0x33356163	4.223092e-08
105	0x1b8624c9	2.2192212e-22
106	0x399d28c1	0.00029975738
107	0x39e2f813	0.0004329091
108	0x330eb94d	3.323048e-08
109	0x120bdc8f	4.4132526e-28
110	0x17c902d9	1.2990039e-24
111	0x3998eab5	0.0002916657
112	0x37b3f0ef	2.1450656e-05
113	0x37fcb30b	3.0124114e-05
114	0x379c3a84	1.8623898e-05
115	0x387c2de5	6.0124225e-05
116	0x3620a7ac	2.3939456e-06
117	0x371be884	9.292857e-06
118	0x14fe5d4a	2.5684242e-26
119	0x330f3f3e	3.33523e-08
120	0x0db5decf	1.1208625e-30
121	0x1c1ea0c9	5.2485625e-22
122	0x330ddb25	3.302843e-08
123	0x20b99d8c	3.1444475e-19
124	0x383c1848	4.4845307e-05
125	0x360f7254	2.1375208e-06
126	0x38c5641d	9.4123396e-05
127	0x1e8e5c2f	1.5072961e-20
