results/big7/My Behavior/My Behavior-2538570.onnx (onnx, 75061 bytes, 7 tensors)

network_body._body_endoder.seq_layers.0.weight f4 [128, 6]
000000 f9 4f 47 3f d0 07 bb 3d d0 8e cb bd 20 d1 54 3f
       0.77856404 0.091323495 -0.09939349 0.831316
000010 43 27 e3 bd 90 13 a2 3b 13 95 a9 3f d5 a3 cb be
       -0.11091473 0.0049461797 1.3248619 -0.3977343
000020 d8 46 ed bd 50 5a c7 3e fe b9 83 bf 69 1b 35 bd
       -0.11585778 0.3893609 -1.0291135 -0.044215593
000030 c5 a1 0b be ab e3 87 bf 99 91 c1 be b6 d5 2c 3f
       -0.13635929 -1.0616354 -0.37806395 0.67513597
000040 8e 68 11 be 99 ca 25 bf 71 67 11 bf a2 b7 b6 3e
       -0.1420004 -0.64762264 -0.56798464 0.35686976
000050 f3 eb 9c 3d 25 44 57 bf 6c 1d 80 be 2b f6 29 3f
       0.07662191 -0.84088355 -0.25022447 0.6639125
000060 33 23 88 3d 63 62 66 be d0 36 3b bf d8 f2 af 3d
       0.06647339 -0.22498469 -0.7313051 0.08591241
000070 53 75 80 be dc 02 b4 be 71 e0 96 bd 53 22 12 be
       -0.2508951 -0.35158432 -0.073670276 -0.14270906
000080 2a a3 b3 be d4 21 08 be 3e f4 ce be e5 7b 9b 3d
       -0.35085422 -0.13294154 -0.40420717 0.075919904
000090 f2 37 a3 3e c3 78 ac 3e d6 ce 24 3f f2 d3 27 be
       0.3187862 0.33685884 0.64378107 -0.16389444
0000a0 02 f9 2c bf 7c 4d de be 1e 80 85 3e 95 37 1e be
       -0.67567456 -0.4341849 0.26074308 -0.1545089
0000b0 ae 9d 91 be 8a 83 3b bf 76 85 b6 be b6 ec 83 3f
       -0.28440613 -0.7324759 -0.35648698 1.0306613
0000c0 a6 cc 57 3f 04 83 e0 be 20 a3 88 3d 70 7b 87 be
       0.84296644 -0.43849957 0.066717386 -0.26461363
0000d0 1a a0 f6 bd a4 35 02 3f 51 7d 8b 3f 00 50 7c be
       -0.12042256 0.508631 1.0897619 -0.24639893
0000e0 31 f7 33 3d 9b a3 24 be 5b ca 00 3f 4e ae dc bd
       0.043936912 -0.16078036 0.5030877 -0.107754335
0000f0 bd f7 c9 3e 7a 9c a7 3e 22 00 7a 3f 92 84 fc 3e
       0.39446822 0.3273657 0.9765645 0.49319893
000100 e7 08 4b 3c 62 b0 43 3d fc e4 6d bd b0 01 2f 3f
       0.012392259 0.047775634 -0.058079705 0.6836195
000110 4f 0b 89 be 72 a2 08 be c0 af 0a 3d 4a fa 93 3e
       -0.2676644 -0.13343218 0.033859015 0.28901893
000120 f5 6a ed 3e df 1d 61 3e e1 ea e6 be 05 a9 29 3f
       0.46370664 0.21984051 -0.45101073 0.6627353
000130 41 fc 2e bd fc 1e 96 3e 79 42 76 be f0 b4 cd be
       -0.042721037 0.29320514 -0.24048795 -0.40177107
000140 20 6f 32 3d ed 3b 6a be 37 fd 7a 3f fd b6 a8 3e
       0.04356301 -0.22874422 0.98042625 0.3295211
000150 18 d4 de be 4d ee 37 bf e5 11 6c bf 6c f7 9f 3e
       -0.4352119 -0.71847993 -0.92214805 0.31243455
000160 38 0e 01 3d 7c 96 d7 bd 7d 4e ee 3e 6a 91 ce 3e
       0.0315077 -0.105267495 0.46544257 0.40345317
000170 be e2 12 bf 3e d0 b3 be 56 ba f6 be 7f 02 79 3e
       -0.5737723 -0.35119814 -0.48189038 0.24317358
000180 4f f1 51 3f 40 f6 88 3e d7 c9 30 bf 05 7d de 3e
       0.8200883 0.26750374 -0.69057983 0.43454757
000190 26 1e 71 bd a9 bd 0d be 72 03 08 3e e1 7e 7c 3c
       -0.058866642 -0.13841881 0.13282564 0.01541111
0001a0 e1 4e 3f be 9a 15 68 3e 6a 70 5b be e8 3e 1b be
       -0.18682434 0.2266449 -0.21429601 -0.15160716
0001b0 46 e4 82 be be f7 6a 3e f0 54 a2 be 49 a7 65 bf
       -0.25564784 0.22946069 -0.31705427 -0.8970838
0001c0 b4 2f 48 be ca 31 39 3f de 5b d8 be 34 47 e5 bd
       -0.19549447 0.723416 -0.4225759 -0.111952215
0001d0 4e 44 03 bd 55 25 0c 3d 4b 7d 19 bf 6d 94 48 3e
       -0.032047562 0.03421529 -0.59956807 0.1958787
0001e0 78 74 9c bd 10 f0 2c bf 2f 2d ab 3e f1 d4 ba bc
       -0.07639402 -0.67553806 0.3343291 -0.022806617
0001f0 11 03 6e be ba e0 83 bf e0 21 69 3e 3e 0e 06 3e
       -0.23243357 -1.0302956 0.22766829 0.1309137
000200 78 3c 84 be 16 7e 15 3e e5 28 f4 3c f3 1d 58 3e
       -0.25827384 0.14598879 0.029804656 0.21105175
000210 27 c2 0e 3f 90 36 95 3d bd 23 17 3d b1 a0 31 3f
       0.55765 0.072857976 0.036899317 0.6938582
000220 e3 2b 0c bf 54 6b 44 3c 08 d0 32 3f 8c 2a 16 3f
       -0.54754466 0.01198848 0.6984868 0.5865867
000230 a5 64 6a 3c a7 af 8e 3e 46 f2 73 be 70 bf 3c 3e
       0.014306222 0.27868387 -0.23822889 0.18432403
000240 b8 a1 79 3f ff b8 8f 3e 18 50 0d 3e 63 ab b5 3e
       0.9751239 0.28070828 0.13800085 0.3548232
000250 ef 30 99 3c 6a 89 2b be 28 39 ff be d8 74 c4 bc
       0.018700091 -0.16751638 -0.49848294 -0.023981497
000260 da ea ec be 46 43 a5 3e 9b d5 33 3e 61 43 ed 3e
       -0.46272928 0.32277888 0.17561953 0.4634047
000270 63 b0 75 bf d5 35 39 bf d5 1d 16 bf 37 68 77 3e
       -0.9597227 -0.72347766 -0.5863927 0.24160849
000280 4d e2 73 3e bd 06 4a bf e0 3c 3b be bf bb 46 bd
       0.23816796 -0.7891653 -0.1828494 -0.048518892
000290 cd 7a 92 be f2 13 07 bf ed e6 e5 3e c0 1c f2 3e
       -0.28609315 -0.5276481 0.44902745 0.4728756
0002a0 c1 1d ac be 4f e9 6a be d8 df 4b 3f 4c 46 9d 3d
       -0.3361645 -0.22940563 0.79638433 0.07679424
0002b0 da ec c7 be 9e af b0 3e c0 fd 11 3f 3e 60 4a 3c
       -0.3904789 0.34508985 0.57027817 0.0123520475
0002c0 5e 2e 0e 3f 6a 51 23 3f a6 80 51 be d1 f9 c6 3d
       0.555395 0.63796103 -0.20459232 0.097156174
0002d0 27 74 42 3f 00 fd 90 3e 0c 0d 57 3f 96 f8 16 3f
       0.75958484 0.28318024 0.8400428 0.5897306
0002e0 ee 45 65 be a1 26 60 bf a3 c5 8b 3f 94 ae e1 3d
       -0.22389957 -0.87558943 1.0919689 0.11019626
0002f0 a3 9c 9f bd 00 e1 1d bf 60 bc 30 bf 34 55 85 3d
       -0.07793548 -0.6167145 -0.6903744 0.06510392
000300 b7 ae df be c8 50 11 bd bd 4e 79 3d 1f 68 9e 3e
       -0.43687984 -0.03547743 0.060866106 0.30938813
000310 c8 fe f1 be f8 ca 42 3e ad fd 3b 3e 49 03 30 bf
       -0.47264695 0.19022739 0.18358488 -0.6875501
000320 2a c5 88 3e 15 cf 2c 3e ef 36 86 be 2a 23 fb 3e
       0.26712924 0.1687587 -0.26213786 0.49050266
000330 f4 10 f6 3e 7d 0f c4 3e 10 5d 08 bf ee c4 e2 3d
       0.4805981 0.38293067 -0.53267 0.110727176
000340 c9 1e f7 3e f9 8e ee 3e e2 0b 84 3e 2f db 08 be
       0.48265675 0.46593454 0.25790316 -0.13364862
000350 e9 1e af 3e 65 d9 71 bf 6e 01 87 be bb 57 6b be
       0.3420327 -0.9447234 -0.26368278 -0.22982685
000360 a9 63 e1 be 4f c8 92 be 54 95 6a 3c cf 73 3f be
       -0.44021347 -0.28668448 0.014317829 -0.18696521
000370 5b d1 35 be 3c 06 0b 3c 8a f2 ba bb cc 5e e1 3e
       -0.17755644 0.008485373 -0.0057051824 0.44017637
000380 f6 be da 3e ab 6b f9 3d 5a 91 fc 3d e9 37 b6 bb
       0.42723817 0.12178739 0.12332411 -0.005560864
000390 f6 68 6a 3e 50 0d 04 3e e3 b2 53 bf 60 e5 fd 3e
       0.22891602 0.12895703 -0.82694834 0.49589062
0003a0 46 dd e5 3e 9f 13 56 3d e4 01 8c bf 5f 51 a2 be
       0.4489538 0.052264806 -1.0938077 -0.31702706
0003b0 41 44 a8 3e ba c9 53 3e a3 75 a1 bd 3e 0b 9e bd
       0.32864574 0.20682421 -0.078837655 -0.07716988
0003c0 7e 3f af 3e 75 87 44 3c c0 85 2b bf 0a 7f c7 be
       0.34228128 0.011995186 -0.6700096 -0.3896411
0003d0 78 97 09 3e f6 e6 d5 3e 72 b8 8e be d6 44 96 3e
       0.13436687 0.41777772 -0.27875096 0.29349393
0003e0 0f 3e 06 3f 0b 72 85 be cc e6 0d 3f d2 29 99 be
       0.52438444 -0.2606357 0.55430293 -0.2991472
0003f0 d4 df fe be e7 86 82 3e f9 16 af 3e 88 9f f0 be
       -0.49780142 0.25493547 0.34197214 -0.46996713

network_body._body_endoder.seq_layers.0.bias f4 [128]
000000 be 2b 6f 3d a0 d5 1e 3d 4a 49 13 33 2e 00 39 bc
       0.058391325 0.038777947 3.429276e-08 -0.011291547
000010 a9 f6 b8 39 a2 6d 1c 3d 1d 9a 62 3d a4 fc 63 bc
       0.0003527899 0.03819049 0.055322755 -0.013915215
000020 dd 0a 7e bc 12 c0 18 3e fd 59 01 bc 3b fc 49 bd
       -0.01550552 0.14917019 -0.00789499 -0.04931281
000030 c0 6f 69 3d dd 99 63 bc 52 b5 bd 3d 4c c6 e6 bb
       0.05699134 -0.013891664 0.092631 -0.007042682
000040 bf a2 b7 3d 6f 44 41 3c 17 9e 64 bc 60 9d 30 bc
       0.08966588 0.011796101 -0.013953707 -0.010779709
000050 c2 40 fd 32 ac 17 af bb 64 72 1b 3d 67 73 d0 ba
       2.9482525e-08 -0.005343398 0.03795089 -0.0015903533
000060 ce 0e bc 3d e9 1b 41 ba 38 a7 16 30 a3 f5 35 bc
       0.09182511 -0.00073665247 5.4807314e-10 -0.011105928
000070 6b 42 a6 bc da bb b4 bb 3e 5b 8e 3d c4 60 ee 3d
       -0.020295342 -0.0055155577 0.06950997 0.1163955
000080 9c 2b 91 bc a2 05 ec bc 3d 4a 10 bd 73 40 32 3d
       -0.01772099 -0.02881128 -0.03522705 0.043518495
000090 50 a0 42 3d bb 1f 06 b9 7d 76 e9 3b 50 f8 9b bb
       0.047516167 -0.00012791056 0.0071247206 -0.0047598258
0000a0 d0 56 87 3d ef 87 17 3d c7 2d dc 3c 6f e9 81 bc
       0.06608355 0.03699487 0.026877297 -0.01585838
0000b0 a6 33 2e bc 80 65 25 bd f6 aa 67 3d 8a 37 67 bc
       -0.010632431 -0.04038 0.056559525 -0.014112363
0000c0 80 b3 89 bc 87 55 b9 3b 3b 89 a1 3a 3f d9 c6 bc
       -0.016809225 0.0056559476 0.0012324223 -0.024273513
0000d0 96 9c 8a 3d 04 d0 e1 bc 27 f5 a1 3d d8 0d 08 3c
       0.06768148 -0.02756501 0.07908087 0.008304082
0000e0 37 94 69 bc f4 fd ac 30 3c 30 bb 3a 8a ff ba bb
       -0.014256529 1.2586825e-09 0.0014281343 -0.005706732
0000f0 ef fd 50 3d 70 88 39 b5 6c e8 b4 3d 3f df 18 bc
       0.05102342 -6.9116413e-07 0.088333935 -0.00933057
000100 06 92 4e 3d de 80 ef b4 94 3b 01 bc 7c 5b 05 3d
       0.050432228 -4.4610982e-07 -0.00788774 0.03255795
000110 2a 5e c8 bc 33 56 a2 bc 46 80 82 3d d0 3b 8b bc
       -0.024458963 -0.019816494 0.063721225 -0.016996294
000120 5d dc bc 3c df 33 7f bc 77 91 7e ba de 15 11 3e
       0.023054296 -0.015576332 -0.0009711007 0.14168498
000130 83 bb 31 3d 16 45 ed 3d 03 af 1b bc 33 07 b3 3d
       0.043391716 0.11585443 -0.009502175 0.087416075
000140 5d 8b 80 3c 83 b3 7a b8 51 e0 ee b9 b4 42 f5 3c
       0.015691454 -5.9771828e-05 -0.00045562026 0.029939033
000150 b0 80 85 bc 8c 9c 84 bc 7a 81 1f bb a5 8d 1e bc
       -0.016296715 -0.016187929 -0.0024338649 -0.009677325
000160 ea 38 06 37 8e ad 72 b7 88 26 c6 3c d1 3f 9e bc
       8.000274e-06 -1.4464733e-05 0.024188295 -0.01931754
000170 21 30 ee 3c cc c7 63 3b 3a 29 5f 3c 32 e1 01 bc
       0.029075684 0.003475654 0.013620669 -0.007927226
000180 22 e3 7b 3d 9c bc 25 bc 00 cf 7f bc 34 8e 63 bc
       0.061495908 -0.010115769 -0.0156133175 -0.013888884
000190 65 e2 12 3d 38 ec 26 b4 02 a5 2c 3a 52 1a a9 ba
       0.035860438 -1.554589e-07 0.00065858674 -0.0012901521
0001a0 c4 c6 a2 3c 51 a1 74 b8 76 d8 8c bc 74 a9 2e 3d
       0.01987017 -5.832437e-05 -0.01719306 0.04264207
0001b0 03 1a 7b 3d 1c 21 a7 32 49 65 24 35 f5 9a 68 bb
       0.061304104 1.9456415e-08 6.124215e-07 -0.0035492752
0001c0 91 ca 00 bd 1a f7 88 3d b6 e1 6a bb 26 42 8d bc
       -0.031443182 0.06687756 -0.00358401 -0.017243456
0001d0 9b 63 be 3d bc 83 9f bc 5e 76 21 34 d7 e7 d7 3c
       0.09296342 -0.019471996 1.5037355e-07 0.026355667
0001e0 3e 09 74 30 6c c4 f4 36 3d de d1 3d c3 e0 5b 3a
       8.8779817e-10 7.294633e-06 0.10247467 0.0008387679
0001f0 3f b7 9f 3a 5b 4c 8c bc be 34 03 3d 3d d8 b3 b8
       0.0012185349 -0.017126253 0.03203272 -8.575663e-05

network_body._body_endoder.seq_layers.2.weight f4 [128, 128]
000000 de c5 66 bc b4 23 d0 3d 41 c1 4a bc 71 f2 a5 bd
       -0.014085261 0.1016306 -0.012375177 -0.08102883
000010 2b f0 3f bd da c7 9e 3e f3 e3 85 bd ec 30 10 3e
       -0.0468599 0.3101185 -0.065376185 0.14081162
000020 89 39 c7 bd 70 12 89 bd 80 0d ce bd 46 63 87 bd
       -0.09727771 -0.0669297 -0.10061169 -0.06610732
000030 f7 b6 a8 be 94 a8 81 3e 7a 62 d0 bd 06 bb 7b bd
       -0.3295209 0.25323927 -0.10175033 -0.061457656
000040 dd 17 92 3d e7 98 46 3e 09 7c 53 bd f4 a2 55 3c
       0.07133458 0.19394265 -0.05163196 0.013039339
000050 a4 8b c8 bd 22 4d db 3c 6d 96 5f bd 71 11 3c bd
       -0.09792259 0.026770178 -0.054586817 -0.04591507
000060 d7 86 34 be 86 1c c2 3d 9f 17 d7 bd f6 b5 af bc
       -0.17629562 0.09478097 -0.10502552 -0.02144907
000070 cf ae 8d 3b e7 78 38 3e 8c 58 db 3c 56 0a c2 3b
       0.0043238173 0.1801487 0.02677562 0.0059216423
000080 d3 3e d5 bb 91 c7 80 3d 8c da 1a bd a4 ab 2a 3e
       -0.0065077334 0.06288064 -0.03780608 0.16667038
000090 6f 9b 67 bd cd 8a 86 3d 63 f8 87 be 86 eb f2 3d
       -0.056544717 0.06569443 -0.26556692 0.11861329
0000a0 0e d3 10 bf 01 48 de bc 27 d5 10 3d d6 68 a7 3c
       -0.56572044 -0.027133944 0.035359528 0.020435732
0000b0 d7 b5 0a 3e c7 79 e5 bc 5f 39 76 3d 2f 9f b0 3d
       0.13545929 -0.02801217 0.060113307 0.08624112
0000c0 5e 19 28 be 73 64 3e 3e f8 53 dd 3c e6 97 8b bd
       -0.16415927 0.18593006 0.027017578 -0.06816082
0000d0 a9 28 2d be 4c c8 3d 3d c8 f7 b9 be bf 78 50 3e
       -0.16910042 0.046333596 -0.36321855 0.20358561
0000e0 64 af 25 bd 27 da c6 3d 8a 83 29 bd 33 64 bc 3d
       -0.04045047 0.09709578 -0.04138521 0.09198799
0000f0 48 f2 50 be c4 33 e7 3d 3d 8f 8f 3d d4 e3 ae bd
       -0.20404923 0.112891704 0.070097424 -0.085395485
000100 dc 12 89 3e f1 bf 72 bc 2b 9e 49 3d 9e 68 33 3e
       0.267722 -0.01481627 0.049223106 0.17520377
000110 4d 35 51 3e ce 33 e9 bc c6 27 6d bd 26 63 19 bd
       0.20430489 -0.028467085 -0.05789926 -0.03744807
000120 32 11 80 bd bf 00 a3 bd 2f c8 c1 3d 1a bd 31 3d
       -0.0625328 -0.07959127 0.0946201 0.043393232
000130 e4 26 de 3d 1b d1 9b be 1e ef b7 bc f1 d8 08 be
       0.108472615 -0.30432972 -0.022452887 -0.13364007
000140 42 15 a2 3d f0 08 25 3e 3a 0c cd bd df 8b 9c bd
       0.07914211 0.1611669 -0.10012098 -0.07643866
000150 39 07 c4 bd 01 7e 45 bd 7a f3 3c 3d a3 63 03 3e
       -0.0957169 -0.04821587 0.046130635 0.12830977
000160 82 1e 86 3c 9b 4c 0f 3e 11 04 b8 3d c1 1e 99 3d
       0.01637197 0.13994066 0.089851506 0.07476569
000170 aa d3 a8 bd 63 25 16 bc 4f 94 42 bd 2d 13 9d 3d
       -0.08243497 -0.009164187 -0.04750472 0.07669673
000180 e7 f4 02 3e 34 4d 2c be 06 55 84 ba 97 62 a5 bc
       0.12788735 -0.16826326 -0.001009614 -0.020188613
000190 7f 7d 1c 3e 65 f2 c3 bc 98 97 e0 3a 0d c4 97 3c
       0.15282248 -0.023919294 0.0017135022 0.018526101
0001a0 f4 05 98 3d 47 cb 0c 3d f4 6a 82 3c c3 e9 63 3d
       0.074230105 0.034373548 0.01592014 0.055642854
0001b0 3a 0a b0 3a a3 23 0c 3d a4 0b 2b bd 0d 38 52 be
       0.0013430782 0.034213673 -0.04175915 -0.20529194
0001c0 99 d1 8f 3d 28 eb 25 be 0b b5 bc 3c f0 14 1f 3d
       0.070223995 -0.16202986 0.023035547 0.038838327
0001d0 2a c0 d4 bd 01 ed 9e be 5b 18 04 3e 2d c9 5c 3d
       -0.10388215 -0.31040195 0.12899916 0.053902794
0001e0 eb bc 85 3c 48 e1 9a 3d b7 03 76 3e b9 b7 0e bc
       0.016325435 0.075625 0.24024855 -0.008710795
0001f0 68 1c 3d 3e d8 07 9b bd 40 cc cb bd 06 29 69 bd
       0.18467867 -0.075698555 -0.09951067 -0.05692389
000200 37 5b e4 3d e7 12 57 3d 7d d0 cf 3a 9c 7f 81 bd
       0.1115021 0.05250826 0.0015854981 -0.06323168
000210 f1 bd 0b 3d 10 19 50 3e f5 79 09 bf 08 0e 1d be
       0.03411669 0.2032206 -0.53701717 -0.15337384
000220 91 b3 02 bd 3a ce cf bd 65 be d9 bc 4b bf ce bd
       -0.03190953 -0.101467565 -0.026580045 -0.1009508
000230 fe 68 33 bf 4c 9c 23 3d 94 bd 2c 3d c2 48 40 3e
       -0.7008208 0.03994398 0.042172983 0.18777755
000240 cb 28 5e bd f1 c5 53 3e 78 b2 98 bd 48 fc d7 bd
       -0.054238122 0.20680977 -0.07455915 -0.10546166
000250 12 56 d1 3d 37 96 af 3d 98 ed 83 3c 6d 97 b7 3b
       0.10221495 0.08573573 0.016104504 0.005602768
000260 43 04 18 bc cd 4b e1 3d 7c a7 32 bc 25 c2 d5 bd
       -0.00927836 0.11000786 -0.010904189 -0.10437421
000270 82 5e 90 3d 87 c6 1b bd 2c cd be 3e 65 7f 79 3d
       0.07049276 -0.038031127 0.3726591 0.06091251
000280 ac 69 b1 bd 0f 39 b4 3d 86 1b 19 be 0e 6c 8e be
       -0.086627334 0.087999456 -0.14951906 -0.27816814
000290 5c 09 91 3d cf 97 be bb 86 b1 87 bd 22 bf cf 3d
       0.07081863 -0.005816437 -0.06625657 0.101438776
0002a0 3f 91 29 bf d5 08 c8 be e8 56 a5 be 78 b9 9d 3d
       -0.6623725 -0.39069238 -0.32292867 0.07701391
0002b0 a7 e1 03 3b 4d 84 bc 3d 9b 23 8e 3e a0 e5 c1 bc
       0.0020123513 0.09204922 0.2776154 -0.023669064
0002c0 f6 50 11 bd bf bf 9d bd 93 bc 2d bd 35 4d a1 bd
       -0.0354776 -0.07702588 -0.042416167 -0.07876054
0002d0 ee 42 d4 bd 04 d6 76 3d d1 c8 1a bf 1f 7f 67 3d
       -0.10364328 0.060262695 -0.6046267 0.056517716
0002e0 87 31 1c 3e c3 64 c3 bc f4 27 c1 3c 1b a2 a6 3d
       0.15253268 -0.023851758 0.023578621 0.08136388
0002f0 8f 99 1c 3e f0 22 23 bc 01 ab f6 bd 9b 90 31 3e
       0.15292953 -0.00995706 -0.12044335 0.17340319
000300 c2 13 96 3e 39 96 1e 3d b4 d7 93 bd 20 44 76 3d
       0.2931195 0.038717482 -0.072188765 0.060123563
000310 b4 65 5d 3d c7 78 ee bc 0d 37 0d 3e e4 bb 1b 3e
       0.05405207 -0.029110326 0.13790531 0.15208393
000320 c1 1a a9 3d 35 17 ac bd 69 76 bd bd dd 82 a5 3c
       0.08257056 -0.08402864 -0.092511006 0.020204002
000330 d3 d3 6c 3e 55 45 8f 3e dd 21 60 3d a1 f0 87 bd
       0.2312768 0.27982584 0.054719795 -0.06637693
000340 ea 8a c0 bd 1d 6d 50 bd 9e 6b 6f 3d 14 7b 3c bd
       -0.09401496 -0.05088531 0.05845224 -0.046015814
000350 06 f6 ca 3d 58 b6 6d 3e 23 55 27 3b 36 29 0d 3e
       0.099102065 0.2321409 0.0025532923 0.13785252
000360 2b 1a d1 bd 4a 22 7e bc b8 06 82 be b5 dc 0d bd
       -0.10210069 -0.015511105 -0.2539575 -0.03463431
000370 1b ed c0 bd 6d d4 1b bf 05 d1 be 3c f2 33 9f bc
       -0.09420224 -0.6087101 0.023293028 -0.01943395
000380 a5 bb ad 3c 57 80 ea bd e7 33 f7 3d 5a 76 f4 3d
       0.02120764 -0.1145026 0.120704465 0.11936636
000390 62 b7 e3 3d 21 aa 32 3d 8a 49 1c be e8 ff 87 3c
       0.11118962 0.04361928 -0.15262428 0.016601518
0003a0 96 8f 9a 3e 05 42 9a 3c 9a e4 3f be 95 1a 77 be
       0.30187672 0.018830309 -0.18739548 -0.24131234
0003b0 f9 e7 07 3d ca 91 55 bd 61 32 e0 3d 9b 02 33 3d
       0.03318021 -0.05214099 0.10947109 0.043703657
0003c0 66 0c cd 3d eb db e3 be 22 b6 b4 ba 37 ab 1e be
       0.100121304 -0.44503722 -0.001378719 -0.15495001
0003d0 ec cc 0e 3f 96 a2 61 be 50 fd 61 3e f1 24 2f 3e
       0.55781436 -0.22034678 0.22069287 0.17103936
0003e0 ad f6 38 be d1 21 29 bd 0d 8e 8c 3d 48 8d 59 3e
       -0.1806285 -0.041292015 0.068630315 0.21245301
0003f0 ab 81 42 bd a8 02 c2 3d 13 8f dd be 1a f3 a7 3a
       -0.047486942 0.09473163 -0.4327322 0.0012813539

network_body._body_endoder.seq_layers.2.bias f4 [128]
000000 c4 95 39 3c d6 18 7c bb e5 11 e3 bb 50 e5 80 bc
       0.011327211 -0.0038466952 -0.0069296234 -0.015734345
000010 ad 25 c8 bb 97 69 9b bc b1 1b 36 bc 01 e9 7d ba
       -0.006108007 -0.018971248 -0.011115001 -0.00096859044
000020 fe db c4 bb a4 62 d9 bb 64 94 28 bc c3 a4 4a 3c
       -0.0060076704 -0.0066340733 -0.010289285 0.012368384
000030 ff 9e 55 3b bd 7f 59 bb c0 f9 bf b7 87 b8 bc b9
       0.003259599 -0.003318771 -2.2885273e-05 -0.00035995638
000040 db 1b ac 39 80 0d b3 ba 4a 9d 0a b8 0f bd fb bb
       0.0003282715 -0.001366064 -3.304825e-05 -0.0076824497
000050 7e c2 b6 3b e6 56 44 3c 6d c0 96 3b 18 60 9f 3b
       0.0055773845 0.011983609 0.0046005757 0.00486375
000060 a4 2a ed 3b 71 b3 08 bc c7 9e 33 3c 2d 57 36 bc
       0.007237749 -0.008343563 0.010963148 -0.011129183
000070 b0 62 3e bc 8e b9 02 ba 04 32 46 bb eb 3a 64 3b
       -0.011620209 -0.0004986756 -0.0030242214 0.0034825157
000080 cf 54 7a bb cf a1 bf bb 52 00 83 bb 7b 6b 1f bc
       -0.0038197523 -0.0058481465 -0.003997841 -0.009730215
000090 0f 82 0a bc 93 92 f9 bb 34 fb 9d bc 3c d0 16 bc
       -0.00845386 -0.00761635 -0.019284822 -0.00920492
0000a0 10 af 10 bc 90 ae 2f bc 57 28 25 bc 80 a8 42 ba
       -0.008830801 -0.010722771 -0.010080419 -0.0007425621
0000b0 53 34 23 bc 2e f4 14 bc 31 e0 2c bc 0d 4f 02 bc
       -0.009961206 -0.00909142 -0.010551498 -0.0079534175
0000c0 c1 b5 6a 3b ba 83 84 3b 1a 00 9f bb 5e fd 30 34
       0.00358139 0.0040440233 -0.004852307 1.6483452e-07
0000d0 08 0a b0 3b a6 3c 77 bc 0c 91 34 b9 b8 18 bd bb
       0.0053722896 -0.015090143 -0.00017220172 -0.005770769
0000e0 b5 b7 d5 3b 2a 26 ae 3c 03 25 86 3c bc 54 b9 3b
       0.0065221437 0.021258432 0.01637507 0.005655853
0000f0 5c 03 20 bc a6 86 cb 3b cd 19 06 3c db e0 1c bc
       -0.009766426 0.0062111197 0.008184862 -0.009575094
000100 59 e3 48 bc e2 6c be ba 81 c1 10 bc 92 47 1c bc
       -0.012261235 -0.0014528299 -0.008835197 -0.009538548
000110 07 53 47 bc 12 58 4c bc a9 b0 b3 bb 71 5c b9 bb
       -0.012165791 -0.0124721695 -0.005483706 -0.005656772
000120 28 33 0a bc 0a 4b 2d 3c fc 45 53 bb 07 98 83 ba
       -0.008435048 0.010576973 -0.003223776 -0.0010039815
000130 9c 5c a6 ba 1a b4 a5 bb 72 e9 ae b9 a5 1c 96 bb
       -0.0012692395 -0.00505687 -0.00033361797 -0.0045810514
000140 53 f4 3a bc 63 6d 3a bc 10 a3 9c 3b 5a 72 7f 3c
       -0.0114107905 -0.011378619 0.0047801808 0.015591228
000150 41 ee 26 3c 80 5e 1d bb f4 8f 0a bb ef b0 4e 3b
       0.01018864 -0.0024012625 -0.0021142932 0.0031538566
000160 41 b3 04 bc 95 bc 5e 3c 9a 32 41 bc 8a b7 35 bc
       -0.008099378 0.013594766 -0.0117918495 -0.011091122
000170 bc 0c 8b bb 44 05 19 bb fc 93 a3 b8 81 67 82 bc
       -0.0042434614 -0.0023349086 -7.80001e-05 -0.015918495
000180 aa a3 41 bc 9f 3c 6d bc 4c 61 3c bc 18 81 60 bb
       -0.011818806 -0.014479785 -0.011497807 -0.0034256633
000190 10 90 0e 3a de 6e 93 bc e1 3a 34 3b 3c 93 0a bc
       0.0005438337 -0.017997202 0.0027500915 -0.008457955
0001a0 5e f7 23 bc 3d ce 1b bc 77 33 63 bb 3f 0f c5 bb
       -0.010007707 -0.00950962 -0.0034668127 -0.0060137804
0001b0 4c 36 6a 3b 2b 63 20 3c a1 9b 57 3a 45 5c 35 bb
       0.003573793 0.0097892685 0.00082247896 -0.0027673405
0001c0 71 d0 50 ba 44 dc 93 bb 9c b2 0b 3c 63 1f f9 3a
       -0.00079656305 -0.0045123417 0.0085264705 0.0019006546
0001d0 ba f1 d2 bb 7f 3d 5c 3c d3 81 df bb 04 51 aa bb
       -0.0064375075 0.013442396 -0.006820896 -0.005197646
0001e0 fd 37 36 3b 62 a0 7b bc e6 64 f5 34 5f d3 32 bc
       0.0027804368 -0.015358062 4.570822e-07 -0.010914653
0001f0 48 e3 b5 3b 7f f1 f4 ba d0 1b d1 3a 33 b2 1e bc
       0.0055507757 -0.0018687694 0.0015953723 -0.009686041

action_model._continuous_distribution.log_sigma f4 [1, 2]
000000 10 31 48 bf 51 e3 a6 be
       -0.78199863 -0.32595304

action_model._continuous_distribution.mu.weight f4 [2, 128]
000000 6c 22 d0 bd bd 27 8e be d9 23 86 3d 59 5d ef 3a
       -0.101628155 -0.27764693 0.06549806 0.0018262073
000010 2f d0 70 bd ed 83 f6 ba 6f 06 5a bb d8 14 ba bc
       -0.05879229 -0.0018807627 -0.0033267995 -0.022715017
000020 08 6c ad ba 1c 4d 28 ba c1 9d 11 bb da 8a 26 be
       -0.0013231048 -0.00064201816 -0.0022219273 -0.16263905
000030 52 43 3c bd 10 11 4b 3c 77 b9 1e 3c d4 ce dd 3a
       -0.04596264 0.012394205 0.009687773 0.0016922601
000040 47 78 b6 bc ea 6f 15 bc 8b 14 c3 3c 75 d1 95 ba
       -0.02227415 -0.009120921 0.023813507 -0.0011430221
000050 ce a5 61 bd a0 cd 81 bd ab 06 67 bd 0f 3f 1b bd
       -0.055089764 -0.06338048 -0.056402843 -0.037901934
000060 fa 4f ba 3b 29 94 e2 3c 16 b4 16 3c 06 b4 44 bb
       0.0056858035 0.027658539 0.009198209 -0.003001453
000070 5c d3 2f 3b 3a 64 32 3b b0 17 56 3d a5 3e 87 3b
       0.002682886 0.0027220384 0.052268684 0.004127341
000080 bb e0 cd bc e5 04 8f bc fb 39 01 bd cd dc 44 bd
       -0.025131574 -0.017458389 -0.031549435 -0.048062135
000090 1a b0 fd bb 57 73 10 3d af f0 6e b9 9e 97 7e 3b
       -0.00774194 0.035266247 -0.0002278711 0.0038847695
0000a0 06 26 13 3d 89 f0 0c 39 e5 32 b7 3c ff 96 f9 b9
       0.035924934 0.00013441047 0.022363136 -0.00047605482
0000b0 d1 30 a3 3c a1 df 0f 3c bb 10 97 3c 6b c2 f4 3c
       0.019920738 0.008781345 0.018440595 0.029877862
0000c0 02 9c 1b bd 55 a9 1d 3d 07 14 93 bc d8 05 c4 3c
       -0.037990578 0.038491566 -0.017953886 0.023928568
0000d0 32 25 eb bc df 76 53 bb 88 9f 61 bd 32 b6 38 3b
       -0.02870426 -0.0032266898 -0.05508378 0.0028184769
0000e0 7d 93 f7 3c 52 b4 10 3c 6f c3 e0 bd b3 97 c5 bd
       0.030221695 0.008832054 -0.10974776 -0.09648075
0000f0 cf 38 19 3c 6e 79 23 be 68 59 0a 3d d5 d1 d7 3c
       0.009351923 -0.1596429 0.03377667 0.026345173
000100 13 63 f0 3c 31 24 8b bc da 33 90 3c 55 e9 c0 3c
       0.029344117 -0.01698503 0.01760285 0.023548761
000110 ab 2e c5 bc b7 a3 9a 3c 5f dd 04 bc 80 c7 f8 3c
       -0.024070105 0.018876893 -0.00810942 0.030368567
000120 36 89 46 3c d7 d6 da 3d e6 a4 87 bd 6a 45 12 bc
       0.012117675 0.10685509 -0.06623249 -0.008927682
000130 4e bc 59 bd 27 c7 fa bc 3c e4 04 bd 0e 71 48 3b
       -0.053158097 -0.030612541 -0.032444224 0.0030584964
000140 2c 3f b7 ba f6 59 a5 3b 0c d7 2c bd 58 8d 5b 3d
       -0.0013980619 0.0050461246 -0.042197272 0.053601593
000150 91 c1 95 3d 75 65 a6 bc 5c 73 85 3d 05 90 92 bc
       0.073123105 -0.02031205 0.06516144 -0.01789094
000160 3b 5f 43 bc d3 66 d4 bd f9 15 80 3c c6 27 ce 3c
       -0.01192456 -0.10371175 0.015635477 0.02516545
000170 48 29 35 3d c7 ab 90 bc d0 47 29 3b b3 94 22 3b
       0.044228822 -0.017660035 0.0025830157 0.002480787
000180 99 fb 09 3c 64 94 e9 bc b8 25 e9 3b c4 49 4d bc
       0.008421802 -0.028513141 0.007115092 -0.012529794
000190 62 16 65 bd d7 b8 82 3b c2 0d d8 bb 96 11 1c 3b
       -0.05592955 0.00398932 -0.006593437 0.0023814193
0001a0 83 9c 52 3c 0d 51 c3 3b e8 eb c8 bd 8c dc 56 bd
       0.012854698 0.0059605897 -0.098106205 -0.052456424
0001b0 5d f8 5f bc a5 74 18 3d 77 7e dc 3c bc 01 50 38
       -0.013670054 0.037220616 0.026915772 4.959268e-05
0001c0 fd 03 1e 3b 6e cf f5 3b df 7e 0a be dc 79 0d bd
       0.0024111264 0.007501534 -0.1352496 -0.034540042
0001d0 b9 6a d7 3b 07 ef 7d bd 12 f4 39 bb 52 4b a0 bc
       0.0065740016 -0.061995532 -0.0028374237 -0.019567166
0001e0 ce db 05 be dc 0c 8b bb 9c 34 78 3b b9 fd 10 bc
       -0.1307213 -0.0042434763 0.0037873155 -0.008849555
0001f0 39 ab 17 be c6 44 04 3d bb da 0d bd 87 fa f9 3c
       -0.1481141 0.03229215 -0.034632426 0.030514969
000200 56 d5 07 3d d8 0e 3f 3e 9f a1 48 3d 7e b2 82 bb
       0.033162437 0.18658006 0.04898226 -0.003988563
000210 c3 54 de 3c f2 ea 6b 3c c3 e2 16 bc 85 d5 83 3b
       0.027140027 0.014399277 -0.009209338 0.0040232562
000220 a7 c5 a7 bd f8 d4 12 3d 6e 2b 94 3c 77 34 7b 3e
       -0.08191996 0.035847634 0.018087115 0.24531732
000230 1e 85 5b bd 74 54 14 3d 07 7e 8d 3c 52 dc 90 3d
       -0.053593747 0.036213353 0.017272009 0.07073273
000240 b3 58 7d 3c 51 e3 33 3c 64 c2 74 bc d6 26 61 bd
       0.015463042 0.010979489 -0.014938924 -0.054968677
000250 1e 35 35 3d 82 d5 56 3c ae 76 11 be 21 c4 c4 bd
       0.04424011 0.013112428 -0.14205429 -0.09607721
000260 d3 24 55 3d c6 cf 09 3d 82 03 e1 3d 7a fb 99 3c
       0.05203707 0.033645414 0.10986997 0.018796671
000270 02 bd 54 bb 0b db ec bc 35 37 04 3d 69 b5 c1 bd
       -0.003246129 -0.028913042 0.032279212 -0.09458429
000280 9a 29 82 bb ec 74 2a 3d 36 66 72 bd f4 60 a6 3c
       -0.0039722444 0.04161541 -0.059179507 0.020309903
000290 0d 9a ff b9 84 7e 29 3b 3c c4 25 bc b6 b9 c6 3c
       -0.00048752167 0.0025862763 -0.010117587 0.024258476
0002a0 2e 47 cf 3b 91 60 a2 3c 42 6a 58 bc e5 21 e8 3b
       0.006325624 0.019821437 -0.013208928 0.0070841187
0002b0 93 73 ba bb a8 85 17 bd 4f 74 11 3c 86 39 c6 3b
       -0.005690047 -0.0369927 0.008877828 0.006049338
0002c0 c1 c7 d6 3c 3d a5 1f 3d a1 5a 10 bc 09 fa 27 3c
       0.026218297 0.038975943 -0.00881067 0.010252484
0002d0 bc 14 d1 bd 23 6b 82 3c b4 41 42 3d b4 2b a9 3b
       -0.10209033 0.015920227 0.04742594 0.0051626805
0002e0 d1 63 05 3e a8 40 28 bd 95 27 9a bd d3 d3 10 bd
       0.13026358 -0.041077286 -0.07527081 -0.03535826
0002f0 c8 a5 d8 3c 81 01 d1 bc 60 3a 71 3e b9 5f f2 3c
       0.026446238 -0.025513412 0.23557425 0.02958666
000300 d4 37 e2 3c f5 95 3b 3c 62 5b b0 3c ef 40 ea bb
       0.027614512 0.011449327 0.02152795 -0.007148854
000310 f7 67 58 ba 9e 12 8d bc f7 6b 74 bd ae f6 d2 ba
       -0.0008255238 -0.017220791 -0.059673276 -0.0016095245
000320 b1 80 d7 3c d5 37 30 3d 19 de 82 3b 93 19 d4 3b
       0.026306482 0.043021996 0.0039937613 0.0064727752
000330 bb fd b1 bc 9d 88 92 bd b6 97 a2 bc f9 9d ed bb
       -0.021727433 -0.07154963 -0.019847732 -0.007251498
000340 a5 3f 3c bc b1 f1 88 3a 50 6e 3f 3d 51 64 b7 3d
       -0.011489783 0.0010448006 0.04673606 0.08954681
000350 50 24 7d 3d 74 3f b4 3b ad b0 1f 3d bc 05 7f bd
       0.06180221 0.0055007283 0.03898685 -0.062261328
000360 d9 f9 08 bd 07 6c 94 3d d4 00 9c bc 80 d9 1d bb
       -0.0334414 0.07247167 -0.019043364 -0.002408594
000370 0c bf c8 3d 84 b5 f5 bd 57 31 a0 3c bb c9 51 3b
       0.09802064 -0.11997512 0.019554777 0.003201111
000380 0a 07 bd 3b 32 25 9a 3b f3 0d 99 3c 57 99 8b 3c
       0.0057686614 0.004704141 0.01868341 0.017040892
000390 02 bf fb 3c 1d 87 18 3c 35 21 1f 3d f7 62 84 bc
       0.030730728 0.009309557 0.038850028 -0.016160471
0003a0 40 c5 be 3b 42 e7 ab 3c c7 f0 0c 3c a0 01 b0 bd
       0.005821854 0.020984296 0.008602328 -0.0859406
0003b0 85 97 d8 3c b7 86 e5 3d b7 0e f0 3d 6c a2 49 bc
       0.026439438 0.112073354 0.11721557 -0.012306791
0003c0 4e 25 e9 bb e0 8a 1c 3c f2 b8 88 3d ed 74 4f bb
       -0.007115043 0.009554595 0.066759005 -0.0031655387
0003d0 86 5c f8 3c 32 e3 bb 3d 4a 46 5b 3d 0d 55 50 bc
       0.030317556 0.091741934 0.05353383 -0.01271559
0003e0 b0 64 ee bc cf ef bc bc df ff 96 bb 50 b4 34 bb
       -0.029100746 -0.023063568 -0.004608139 -0.0027573295
0003f0 c5 e4 57 bc d6 21 9f 3c f5 8f d3 bc 34 de e6 3c
       -0.0131771015 0.019425314 -0.02582548 0.028182127

action_model._continuous_distribution.mu.bias f4 [2]
000000 6d ab 98 bb c6 88 fb 3b
       -0.0046591074 0.007676217
