results/big9/My Behavior/My Behavior-1499953.pt (torch, 441488 bytes, 36 tensors)

network_body._body_endoder.seq_layers.0.weight f4 [128, 6]
0.61204815 -0.39514843 -0.4907901 0.33214507 0.016986936 -0.2525949 -0.69760704 0.3457596
0.6877636 -0.019021038 -0.6134065 -0.14017074 0.14566524 0.43140647 0.45578566 -0.6860625
0.003627178 0.07302541 -0.13210572 -0.4763769 -0.018906755 -0.43858638 0.5261052 -0.09164434
0.18435483 -0.54213333 0.05634368 -0.42403668 0.27832454 0.5214228 0.32006162 0.5195232
0.7911724 -0.11971138 -0.15895157 0.051248703 -0.004711333 0.13548861 -0.07241049 0.1825458
0.024542656 0.089870274 0.71650136 0.30371794 -0.2554975 -0.07063171 0.5371901 0.6452672
-0.43402776 -0.33241072 0.6856748 0.24274707 0.17694701 -0.22597845 -0.14497899 0.6351308
0.7605755 -0.9813737 0.02105148 -0.34027654 -0.14704621 -0.6778965 -0.109185584 -0.34892243
-0.16138504 0.5021386 0.19937569 -0.57123077 -0.31387872 -0.23078324 0.30718118 0.45698464
-1.0810443 0.052632555 -0.41431093 0.9555116 -0.15714839 0.096790455 -0.078041196 -0.5410464
0.4795404 0.51726663 -0.33853382 0.13532661 0.87459666 0.08466528 0.34591457 -0.17121169
-0.43528447 -0.30350786 -0.61166334 0.19060741 -0.49545088 0.5813186 0.15213245 0.85187405
-0.23337175 -0.18575396 -0.25820744 1.00995 -0.09205512 -0.022183547 -0.34019876 -0.40712017
-1.0328187 -0.31207916 0.10190577 0.1725862 -0.28938642 0.24488077 0.17930771 0.2737215
0.2249423 0.08867008 0.49499658 0.027335593 0.03585992 -0.40958697 0.14890975 0.8244053
-0.11726081 0.075377114 0.09454542 0.009582311 -0.29697824 -0.026351051 -0.037127376 -0.72991645
0.14675428 -0.4499296 0.32519168 0.39135322 -0.45996666 0.5008318 -0.40833625 0.63113654
0.6261129 -1.011281 0.48050717 -0.3166764 -0.46863684 0.72501713 0.41147324 0.70480055
-0.7371741 -0.35145918 0.57897526 0.51229507 0.25712767 0.23926103 0.059510507 -0.11389336
0.9747655 0.5592105 0.2470583 0.026219677 -0.09816392 -0.39601246 0.04633493 0.095255755
-0.025502194 0.07082835 -0.49479482 0.2869746 -0.12229401 -0.18285929 0.13877146 0.4385116
0.39013228 -0.57915664 -0.32394692 0.25583592 0.16335483 -0.40810174 -0.55666906 -0.4747494
-0.38300523 -0.88563836 0.3769603 0.27722177 -0.3339005 0.64644355 -0.20056042 0.2396195
0.11463007 0.08201837 0.6815402 0.087533526 0.045696866 -0.76387167 0.02010857 -0.12043508
-0.22584635 -0.55034477 0.12571077 0.2790099 0.30381498 -0.13161215 0.66676843 -0.4920381
0.018257558 0.49230886 -0.091973685 0.012431731 1.2678927 -0.6051689 0.07097462 -0.08922381
0.09307086 -0.18141913 0.009765858 0.35569826 0.3152359 -0.44986987 0.3548205 -0.66562444
-0.6764542 -0.6125714 0.56003654 0.12351958 0.23268871 -0.14944246 0.40348098 0.502724
0.28416124 -0.094221115 -0.6303737 -0.13612518 0.6584246 -0.13872372 -0.24679877 -0.40705612
-0.31635576 0.16521715 -0.1863992 -0.7812774 0.085940525 0.39759943 -0.43039462 0.038031727
0.9237077 -0.25903088 0.06161952 0.03975033 0.45435214 -0.13548861 -0.40233922 0.88001454
-0.061644398 -0.47247767 0.29213202 -0.6449135 -0.08661873 0.035458054 0.45383525 0.027111733
00000000: 30af 1c3f e550 cabe d748 fbbe eb0e aa3e
00000010: 3028 8b3c 1e54 81be 6096 32bf 6707 b13e
00000020: 4611 303f 02d2 9bbc 3508 1dbf eb88 0fbe
00000030: 4529 153e 4fe1 dc3e bd5c e93e cba1 2fbf
00000040: f3b5 6d3b 598e 953d b946 07be ace7 f3be
00000050: 57e2 9abc 658e e0be d5ae 063f 07b0 bbbd
00000060: 83c7 3c3e 40c9 0abf a1c8 663d 561b d9be
00000070: 8e80 8e3e f77b 053f 1edf a33e 79ff 043f
00000080: 468a 4a3f 3d2b f5bd 33c4 22be 29ea 513d
00000090: 8761 9abb 87bd 0a3e f34b 94bd 49ed 3a3e
000000a0: ae0d c93c e80d b83d a26c 373f eb80 9b3e
000000b0: 91d0 82be 5ca7 90bd 4a85 093f 3b30 253f
000000c0: e338 debe bd31 aabe 6288 2f3f b092 783e
000000d0: 9931 353e e566 67be 5f75 14be ef97 223f
000000e0: 13b5 423f 4f3b 7bbf 2774 ac3c ba38 aebe
000000f0: 4893 16be a08a 2dbf b19c dfbd f6a5 b2be
00000100: 1f42 25be 288c 003f 2429 4c3e 2e3c 12bf
00000110: b6b4 a0be 7152 6cbe da46 9d3e e4f9 e93e
00000120: a95f 8abf 3c95 573d 9020 d4be 699c 743f
00000130: 82eb 20be 133a c63d 10d4 9fbd 0482 0abf
00000140: 5286 f53e 966b 043f 4e54 adbe 0f93 0a3e
00000150: 91e5 5f3f fe64 ad3d b71b b13e 1e52 2fbe
00000160: 9bdd debe 6265 9bbe f895 1cbf 972e 433e
00000170: bdab fdbe 4cd1 143f 9cc8 1b3e 6b14 5a3f
00000180: 01f9 6ebe 4936 3ebe c433 84be 0b46 813f
00000190: 6587 bcbd 45ba b5bc 882e aebe 0e72 d0be
000001a0: 6733 84bf d7c8 9fbe f9b3 d03d 70ba 303e
000001b0: 752a 94be 06c2 7a3e 719c 373e 3925 8c3e
000001c0: 4657 663e a998 b53d 3170 fd3e e5ee df3c
000001d0: dae1 123d 62b5 d1be cc7b 183e 3a0c 533f
000001e0: 7026 f0bd 515f 9a3d 07a1 c13d 20ff 1c3c
000001f0: 880d 98be 29de d7bc e012 18bd cedb 3abf
00000200: c146 163e 2c5d e6be 867f a63e 735f c83e
00000210: c080 ebbe 8336 003f 7311 d1be 2a92 213f
00000220: ef48 203f a871 81bf 0905 f63e 6923 a2be
00000230: 2bf1 efbe b99a 393f 9fac d23e cf6d 343f
00000240: 71b7 3cbf 75f2 b3be b937 143f c525 033f
00000250: 3da6 833e d800 753e 4ac1 733d ec40 e9bd
00000260: 3b8a 793f 6b28 0f3f dafc 7c3e a6ca d63c
00000270: 2a0a c9bd 25c2 cabe b2c9 3d3d 7315 c33d
00000280: fae9 d0bc 740e 913d bf55 fdbe 56ee 923e
00000290: 4875 fabd 773f 3bbe 1b1a 0e3e 9884 e03e
000002a0: 6bbf c73e 9c43 14bf 5fdc a5be edfc 823e
000002b0: 7d46 273e b6f2 d0be dd81 0ebf 5a12 f3be
000002c0: 4319 c4be 32b9 62bf f100 c13e 03f0 8d3e
000002d0: 02f5 aabe 537d 253f b65f 4dbe d05e 753e
000002e0: 2cc3 ea3d 3ff9 a73d 6b79 2e3f c744 b33d
000002f0: a32c 3b3d 188d 43bf baba a43c aba6 f6bd
00000300: 4444 67be 65e3 0cbf 53ba 003e 63da 8e3e
00000310: a38d 9b3e 56c5 06be 56b1 2a3f 6bec fbbe
00000320: e090 953c e80f fc3e b35c bcbd 76ae 4b3c
00000330: 4f4a a23f 59ec 1abf 245b 913d f9ba b6bd
00000340: ef9b be3d f0c5 39be fa00 203c 151e b63e
00000350: 9a66 a13e 5855 e6be 08ab b53e 5d66 2abf
00000360: 1a2c 2dbf 7bd1 1cbf 8e5e 0f3f d5f7 fc3d
00000370: f345 6e3e 7207 19be 0f95 ce3e 85b2 003f
00000380: 957d 913e 00f7 c0bd 2c60 21bf 6664 0bbe
00000390: 848e 283f 970d 0ebe d1b8 7cbe a969 d0be
000003a0: 62f9 a1be af2e 293e 6fdf 3ebe cc01 48bf
000003b0: 9601 b03d 2792 cb3e af5c dcbe 28c7 1b3d
000003c0: 1c78 6c3f b29f 84be c064 7c3d 3ed1 223d
000003d0: d8a0 e83e 87bd 0abe 68ff cdbe a248 613f
000003e0: d67e 7cbd 98e8 f1be 5492 953e 0d19 25bf
000003f0: 2965 b1bd 773c 113d 185d e83e 6d19 de3c

network_body._body_endoder.seq_layers.0.bias f4 [128]
0.014995036 -0.009054003 -0.008562283 0.0056898952 -0.0020617847 -0.0098249 -0.0021442035 0.0011991042
0.012191592 0.002738685 -0.0036418496 -0.013709729 0.012930495 -0.008106963 0.11934711 -0.0066583175
-0.01383435 -0.0002124978 -0.009603318 -0.009753568 -0.00091038056 -0.007816777 -1.793077e-15 -0.006587976
-0.0013854689 -0.012952686 -0.01717905 -0.0024207172 -0.0004065822 0.023252875 0.011662588 -0.03192549
0.023036253 -0.008692836 0.1420908 -0.005783211 0.0022458602 0.0013005952 0.0042040646 -0.0024105888
0.1402336 7.689974e-09 -0.007277929 -0.015201228 5.752427e-05 9.2893984e-08 -0.0066461964 0.003077337
-0.006183421 -0.004249325 -0.021144668 -8.4601623e-07 -1.7118943e-07 5.930155e-09 0.010343886 3.8279243e-08
-0.013971487 0.10333498 -0.008904448 0.11764586 -0.007854796 0.013854688 -0.0026240223 -0.010191456
-7.62737e-09 0.003069871 0.01730456 -0.011543212 -0.0040014605 -0.018615562 0.036733262 -0.0012991813
0.000843532 0.01558924 0.027931774 -1.4579916e-12 0.02903888 0.0030730066 0.04392974 -0.004941671
-0.0058240453 -0.009891574 0.015887054 -0.004371409 0.0015105187 -0.005674789 -0.0048920014 0.06965859
0.039170228 0.012803516 -0.00054828404 -0.009326971 0.03723828 -1.1359371e-11 0.015139602 0.080690645
0.014333192 -0.029118596 0.08236914 -0.0037963758 -0.006877577 -0.0021177856 -3.9404214e-05 -0.0016310392
-0.0072699403 -0.0055456767 -0.0003653824 0.025704963 -0.0069067087 0.033060532 -0.005286268 0.0060951128
0.00086706225 4.867855e-11 -0.0024638192 7.93025e-06 0.0010490301 -0.024380282 -0.0021901063 0.0063051498
0.005338362 -0.002109879 0.0056028194 0.022889478 -0.016972546 -0.0025171705 -0.018524816 0.0059060245
00000000: bdad 753c 3e57 14bc d148 0cbc 4d72 ba3b
00000010: 021f 07bb 9ef8 20bc c485 0cbb 432b 9d3a
00000020: 3ebf 473c 837b 333b 19ac 6ebb c59e 60bc
00000030: 6dda 533c 11d3 04bc 426c f43d 042e dabb
00000040: 78a9 62bc f2d1 5eb9 3c57 1dbc 6ecd 1fbc
00000050: 9ba6 6eba f011 00bc 6f34 01a7 f3df d7bb
00000060: 9f98 b5ba 8137 54bc 14bb 8cbc e5a4 1ebb
00000070: 8a2a d5b9 d07c be3c 7114 3f3c 4dc4 02bd
00000080: 86b6 bc3c 666c 0ebc 4080 113e 1781 bdbb
00000090: 482f 133b bc78 aa3a 40c2 893b f8fa 1dbb
000000a0: 6699 0f3e dd1c 0432 b27b eebb 920e 79bc
000000b0: 3746 7138 027d c733 56c8 d9bb 26ad 493b
000000c0: 4b9e cabb ec3d 8bbb 9537 adbc cb19 63b5
000000d0: 31d0 37b4 32c2 cb31 6779 293c 7968 2433
000000e0: aae8 64bc 4aa1 d33d f6e3 11bc 50f0 f03d
000000f0: 67b1 00bc c6fe 623c caf7 2bbb 11fa 26bc
00000100: 8709 03b2 e42f 493b 4bc2 8d3c be1f 3dbc
00000110: af1e 83bb aa7f 98bc 9e75 163d 4a49 aaba
00000120: 7920 5d3a 036a 7f3c 2dd1 e43c af31 cdab
00000130: f2e2 ed3c 7f64 493b acef 333d beed a1bb
00000140: a2d7 bebb 4510 22bc 9125 823c 093e 8fbb
00000150: 99fc c53a 95f3 b9bb 154d a0bb 2aa9 8e3d
00000160: f670 203d d7c5 513c b8ba 0fba 27d0 18bc
00000170: 2b87 183d 0fd6 47ad 180c 783c 2341 a53d
00000180: c4d5 6a3c 1f8a eebc 27b1 a83d 9ecc 78bb
00000190: 4c5d e1bb 8cca 0abb f445 25b8 98c8 d5ba
000001a0: ae38 eebb 82b8 b5bb cc90 bfb9 3793 d23c
000001b0: ac51 e2bb 7b6a 073d 6e38 adbb 83b9 c73b
000001c0: 904b 633a 2d17 562e 0778 21bb 2a0c 0537
000001d0: 9c7f 893a 28b9 c7bc e387 0fbb 6e9b ce3b
000001e0: 6ded ae3b e545 0abb db97 b73b b782 bb3c
000001f0: 020a 8bbc 1df7 24bb 5bc1 97bc 5387 c13b

network_body._body_endoder.seq_layers.2.weight f4 [128, 128]
-0.18424104 -0.00468934 0.10154943 0.000563094 0.081282936 0.08488601 -0.05830389 -0.0029069257
-0.075510256 0.112397626 0.06693843 -0.1342692 0.10684838 0.014610169 -0.24926141 -0.06812158
0.043796815 -0.016558442 0.0069053154 0.11911396 -0.035447042 -0.10487003 -0.05122572 -0.031722814
-0.07377301 -0.17255844 0.03186577 -0.07711856 -0.034420833 -0.3456931 0.0582566 -0.13857703
-0.011602681 0.16706806 -0.12208526 -0.015010496 0.12442957 0.2125563 -0.3614202 -0.05106394
0.08497292 -0.08142837 -0.022809017 -0.17123169 -0.082492396 -0.04277691 0.06376139 -0.08688516
-0.08909502 -0.0046203653 0.12907417 -0.074518 -0.05716059 0.07911695 0.060641155 -0.03413365
0.02480599 0.21043739 -0.09728655 0.25453436 0.14179008 0.14574294 -0.07947825 -0.021503253
-0.040421326 0.17424875 -0.004480353 0.096189976 -0.03432705 0.039273456 0.06605073 0.013487413
0.12553774 -0.10129572 -0.021167714 0.08495852 0.012504436 0.08334472 -0.04599311 -0.13724148
-0.08466478 0.04432925 0.18383284 0.06991669 -0.061543323 -0.1329696 -0.02131289 -0.105211765
0.049099684 -6.0146187e-05 -0.036652744 0.09621957 -0.33252323 -0.06997301 0.09233519 -0.2663517
0.17244817 -0.1222259 0.026287962 0.1545295 0.122160345 0.03714152 0.0967179 -0.18203065
0.12417791 0.0062741563 -0.16772024 -0.079735965 0.023831194 -0.026579464 0.07277186 0.085656606
-0.20075665 0.036140643 -0.10443 0.044943452 0.08528553 -0.030965533 -0.03905741 0.020528976
0.096498534 0.052917343 0.17572823 0.088271156 0.20386268 0.0011659856 0.22588739 0.078353174
-0.13519666 -0.018377488 0.10773025 0.15527685 0.033131775 0.013925947 -0.026720162 0.24354509
0.10115798 0.040160026 -0.1268061 0.031721435 -0.053030178 -0.014650456 0.0016600263 -0.06423334
-0.050145477 -0.0050926246 -0.08778466 0.07430675 -0.09248786 0.08300345 -0.09057926 -0.045207106
0.02900681 0.040954635 0.1008608 -0.13726306 0.10580274 0.13159892 -0.071310274 0.16960484
-0.12657328 -0.06835103 0.17763036 -0.030306717 0.016213335 -0.09270906 0.04175123 0.17913893
0.2375307 0.09194955 0.09279455 -0.02501736 -0.08103808 0.0071777287 -0.07976116 0.023536833
0.027786018 -0.09092194 -0.021881612 0.08804453 0.01677006 -0.1803329 -0.014388878 -0.05040338
0.086121485 0.051372107 -0.07885797 -0.19585638 -0.08908769 -0.03335227 -0.036177773 -0.09863238
-0.04901543 -0.007668878 0.049215898 0.16499412 -0.056015477 0.14840525 0.1981657 0.025949193
-0.12351525 0.17133272 -0.17878515 -0.024786562 0.014326502 0.11332016 -0.054712545 -0.009362218
-0.09451116 -0.21060021 -0.023203421 -0.020633023 0.026653575 0.1998036 -0.006061435 0.13105309
-0.06467712 0.019705743 -0.011090098 -0.11204454 0.2177041 -0.049765293 0.13403018 0.1924145
-0.09523969 0.062242612 0.098296106 -0.09202048 -0.15444063 -0.14270426 0.011294228 -0.022301154
-0.0964286 -0.008356319 0.039512686 0.028265148 0.022007411 -0.047727764 0.21887164 0.05102272
0.019272426 -0.12835479 -0.21866772 -0.109797716 0.02681662 -0.023794457 0.002882034 0.087030075
-0.012428494 0.061917804 -0.11008646 0.09270701 -0.029460952 -0.107063115 -0.04636466 -0.018276252
00000000: afa9 3cbe 09a9 99bb 26f9 cf3d 999c 133a
00000010: ab77 a63d b7d8 ad3d 0fd0 6ebd 1f82 3ebb
00000020: 1fa5 9abd ba30 e63d 0417 893d dd7d 09be
00000030: 53d3 da3d 7e5f 6f3c 623e 7fbe 5483 8bbd
00000040: 4a64 333d 92a5 87bc fc45 e23b 05f2 f33d
00000050: eb30 11bd 19c6 d6bd 10d2 51bd c8ef 01bd
00000060: 4e16 97bd 29b3 30be af85 023d 56f0 9dbd
00000070: dcfc 0cbd b0fe b0be 799e 6e3d 23e7 0dbe
00000080: 2c19 3ebc e413 2b3e d607 fabd 95ee 75bc
00000090: eed4 fe3d 5ca8 593e 120c b9be 6c28 51bd
000000a0: 4806 ae3d ebc3 a6bd fad9 babc 5c57 2fbe
000000b0: c6f1 a8bd d736 2fbd 5595 823d d9f0 b1bd
000000c0: 7377 b6bd 6f66 97bb 052c 043e e59c 98bd
000000d0: 3921 6abd 1108 a23d dc62 783d bacf 0bbd
000000e0: ee35 cb3c e67c 573e 2c3e c7bd 5452 823e
000000f0: 6b31 113e a33d 153e 7ec5 a2bd 9727 b0bc
00000100: d590 25bd 446e 323e edcf 92bb 40ff c43d
00000110: 859a 0cbd 34dd 203d 9b45 873d 4ffa 5c3c
00000120: f78c 003e 2174 cfbd ea67 adbc bcfe ad3d
00000130: 68df 4c3c a3b0 aa3d 4563 3cbd 0889 0cbe
00000140: ba64 adbd 9692 353d ad3e 3c3e 7b30 8f3d
00000150: da14 7cbd 2f29 08be 5f98 aebc 4479 d7bd
00000160: c01c 493d 7a45 7cb8 3021 16bd c40e c53d
00000170: 7c40 aabe 024e 8fbd 3b1a bd3d 405f 88be
00000180: 4196 303e 9351 fabd da59 d73c fb3c 1e3e
00000190: 342f fa3d b521 183d 0914 c63d 3e66 3abe
000001a0: fd50 fe3d 7097 cd3b dbbe 2bbe 9c4c a3bd
000001b0: a339 c33c 2dbd d9bc 6a09 953d bb6c af3d
000001c0: 2793 4dbe 3608 143d 65df d5bd a016 383d
000001d0: 2eaa ae3d 6eab fdbc aafa 1fbd 622c a83c
000001e0: 06a1 c53d dbbf 583d 1af2 333e 82c7 b43d
000001f0: 61c1 503e fcd3 983a 064f 673e a177 a03d
00000200: fe70 0abe 638c 96bc ada1 dc3d e500 1f3e
00000210: 2fb5 073d a829 643c 3ee4 dabc e263 793e
00000220: ea2b cf3d d77e 243d 75d9 01be 56ee 013d
00000230: 2c36 59bd 7708 70bc 3d95 d93a c58c 83bd
00000240: 5865 4dbd 08e0 a6bb 72c8 b3bd 232e 983d
00000250: 466a bdbd b6fd a93d 9e81 b9bd 162b 39bd
00000260: b19f ed3c 0cc0 273d 1b90 ce3d b08e 0cbe
00000270: 1baf d83d dec1 063e 1f0b 92bd e4ac 2d3e
00000280: 6d9c 01be a0fb 8bbd bce4 353e cb45 f8bc
00000290: d4d1 843c 3fde bdbd 5603 2b3d 3270 373e
000002a0: 3f3b 733e 0c50 bc3d 120b be3d 35f1 ccbc
000002b0: 4bf7 a5bd 2733 eb3b d259 a3bd 51d0 c03c
000002c0: 819f e33c 4835 babd 1141 b3bc b150 b43d
000002d0: 5d61 893c 30a9 38be 54bf 6bbc c673 4ebd
000002e0: 7660 b03d 8f6b 523d 4a80 a1bd 938e 48be
000002f0: 9b73 b6bd 649c 08bd 252f 14bd c6ff c9bd
00000300: 67c4 48bd 364b fbbb 9c96 493d 38f4 283e
00000310: 7c70 65bd 8cf7 173e f3eb 4a3e 6793 d43c
00000320: 90f5 fcbd d871 2f3e 7413 37be 300d cbbc
00000330: b4b9 6a3c 6614 e83d 431a 60bd fd63 19bc
00000340: 118f c1bd 95a7 57be 1a15 bebc 9606 a9bc
00000350: 9958 da3c 5199 4c3e 019f c6bb c832 063e
00000360: 7075 84bd f06d a13c 3eb3 35bc 9c77 e5bd
00000370: d3ed 5e3e b1d6 4bbd 353f 093e 4f08 453e
00000380: 070d c3bd 1cf2 7e3d 784f c93d 3c75 bcbd
00000390: af25 1ebe 1121 12be 6d0b 393c e9b0 b6bc
000003a0: 5c7c c5bd f1e8 08bc 0ed8 213d 508c e73c
000003b0: e348 b43c 307e 43bd e31f 603e 33fd 503d
000003c0: 35e1 9d3c 706f 03be 6eea 5fbe a0dd e0bd
000003d0: 87ae db3c 98ec c2bc 82e0 3c3b d33c b23d
000003e0: e2a0 4bbc 869d 7d3d 0375 e1bd 2cdd bd3d
000003f0: 1858 f1bc e843 dbbd dfe8 3dbd 14b8 95bc

network_body._body_endoder.seq_layers.2.bias f4 [128]
0.0023473334 0.0032029243 -0.0026005292 -0.0035295151 -0.004439182 0.0025594148 -0.00074257323 -0.001253511
0.01042875 0.005821462 0.0033558488 -0.004767169 0.002533846 -0.0018000487 -0.0023121191 0.0033026184
0.00059249 -0.0015718675 0.0017424034 -0.0064039826 -0.0029799042 0.016082399 -0.0066758897 -0.0002157943
0.0018709502 -0.0021508243 -0.008699041 -0.002163615 -0.0031071398 -0.007230591 0.0017507378 -0.000728653
0.010916991 -0.001029641 -0.004811629 -0.0049921074 -0.005735256 -0.0016761564 0.004918701 0.00064521923
0.003897385 0.0035380048 -0.0072249766 -0.0038586417 -0.010344932 0.0131506 -0.005566607 -0.004645176
-0.0029103216 0.0025145716 -0.0069158357 -0.0063289404 -0.0051722596 -0.0050256257 -0.0069142566 -0.0008423925
-0.0027731808 0.0066883424 -0.004352551 -0.00203118 0.00018671482 0.009084382 -0.0008957587 -0.004655645
-0.0027342925 0.006814402 0.004595448 -0.0046191243 0.004237126 -6.3025022e-06 0.010753429 -0.0002365362
-0.0031629452 -0.00057145726 -0.0052916748 0.011529586 -0.0024236597 -0.0127522005 -0.007865 -0.0046685985
-0.002161575 -0.0061505865 -4.585021e-06 -0.0013157876 -0.007267909 -0.0044997856 0.0070146653 -0.0013598474
-0.008718473 -0.001883399 0.0027653908 -0.0012068651 0.009442117 -0.0035484573 -0.0018315315 -0.003226764
0.004236205 -0.00947467 -0.00318582 0.0017361824 1.7072412e-05 0.0074547376 0.0031870417 -0.0041763773
-0.000889324 0.0014396426 0.015320759 -0.001999725 0.00012797181 -0.001073073 -0.0036121167 -0.003172449
-0.00097584206 0.0031993845 -0.004517569 -0.003324369 0.007014317 -0.0029943616 0.008972915 0.005821049
-0.006341717 -0.007883613 -0.0038781252 4.727441e-05 -0.0018315747 0.00019004595 0.015160113 -0.0033316873
00000000: b8d5 193b 27e8 513b a46d 2abb 704f 67bb
00000010: 8f76 91bb dbbb 273b 3fa9 42ba da4c a4ba
00000020: 59dd 2a3c f6c1 be3b cded 5b3b e935 9cbb
00000030: e20e 263b 9def ebba ec86 17bb be70 583b
00000040: 5551 1b3a 1f07 ceba 5b61 e43a 80d8 d1bb
00000050: 7f4a 43bb 3cbf 833c 6cc1 dabb d746 62b9
00000060: ac3a f53a d8f4 0cbb 6c86 0ebc 70cb 0dbb
00000070: 28a1 4bbb 98ee ecbb 0379 e53a 1303 3fba
00000080: 2edd 323c 05f5 86ba dfaa 9dbb d594 a3bb
00000090: d0ee bbbb 7ab2 dbba 0e2d a13b ee23 293a
000000a0: 456b 7f3b dfdd 673b 7fbf ecbb 44e1 7cbb
000000b0: ca7d 29bc 9d75 573c 1668 b6bb 9036 98bb
000000c0: 18bb 3ebb 83cb 243b 3c9e e2bb 0063 cfbb
000000d0: 0f7c a9bb 01ae a4bb fd90 e2bb 01d4 5cba
000000e0: 41be 35bb e229 db3b d89f 8ebb 8c1d 05bb
000000f0: e1c8 4339 a9d6 143c 59d1 6aba 628e 98bb
00000100: d131 33bb 594b df3b 6995 963b 065c 97bb
00000110: 97d7 8a3b 157a d3b6 262f 303c b406 78b9
00000120: 6a49 4fbb d9cd 15ba c965 adbb 97e6 3c3c
00000130: 43d6 1ebb 9bee 50bc 33dc 00bc 0bfb 98bb
00000140: 36a9 0dbb dc8a c9bb 08d9 99b6 8176 acba
00000150: a427 eebb f072 93bb 47db e53b e83c b2ba
00000160: edd7 0ebc 62dc f6ba 8f3b 353b ac2f 9eba
00000170: 1cb3 1a3c 3c8d 68bb 0010 f0ba 1e78 53bb
00000180: ddcf 8a3b a53b 1bbc 31c9 50bb 9d90 e33a
00000190: ba36 8f37 df46 f43b b0dd 503b fed9 88bb
000001a0: 8621 69ba 64b2 bc3a ec03 7b3c d10d 03bb
000001b0: 2c30 0639 5ba6 8cba 43b9 6cbb dde8 4fbb
000001c0: a7cf 7fba c4ac 513b 1e08 94bb a8dd 59bb
000001d0: 5bd8 e53b 0d3d 44bb 2203 133c 80be be3b
000001e0: 2ece cfbb 452a 01bc 2528 7ebb 8348 4638
000001f0: 7311 f0ba 1247 4739 1f62 783c 7058 5abb

action_model._continuous_distribution.log_sigma f4 [1, 2]
-0.5458583 -0.30608538
00000000: 5fbd 0bbf 39b7 9cbe

action_model._continuous_distribution.mu.weight f4 [2, 128]
0.13435209 0.022460015 0.002318827 -0.015365319 -0.009402006 -0.015498655 -0.029053545 -0.040467065
0.09064176 -0.09400156 0.035445645 0.017796457 -0.06909102 0.034605928 0.011296398 -0.046627294
-0.07703402 0.023550045 0.05411534 0.029517204 -0.02277386 -0.12173816 -0.0017612447 -0.025613353
0.014731826 0.028693879 -0.0060846503 -0.036288366 0.09285627 0.0015027358 0.029028889 -0.004977943
-0.08557586 0.0073918286 0.007667263 0.0036882907 -0.003912495 0.020673899 0.027627934 -0.08313649
-0.04394589 0.010830055 0.006054968 0.041758373 0.0058234306 -0.06667699 0.03730633 -0.01209625
-0.023762625 0.023130996 0.005141714 0.0075783916 -0.004283279 -0.016005712 0.044578582 0.010511876
0.034567475 -0.011929819 -0.020492416 0.030032195 0.03277352 0.07026703 -0.04912662 0.0012297485
-0.03969298 -0.0787175 -0.124539286 -0.0018800594 -0.020830302 0.0016369297 0.056171827 0.023041008
0.019706246 -0.03131545 -0.009858076 -0.05227084 -0.017831877 -0.015412205 0.07992315 -0.012362817
0.029008027 -0.015802009 0.0009056541 0.0047176215 0.003497308 -0.025585784 0.12341158 -0.033859033
0.0029524683 -0.011520678 0.08077245 0.022619765 -0.06014912 0.021497969 -0.016745163 -0.043714408
-0.012663382 0.10435418 0.046161946 0.0110054305 -0.013372214 0.040733222 -0.016755864 0.002377972
-0.043734558 -0.028984293 0.055582892 0.033812102 0.013076407 0.023806656 -0.008319456 -0.05145357
-0.026448462 0.036330417 -0.007890807 -0.17410709 0.08740668 0.022548653 0.09700651 -0.054968882
8.0682876e-05 -0.0146803865 -0.014325102 0.037847623 0.035770584 0.015674306 -0.087483145 0.013803266
-0.00036454346 0.004558799 -0.011112191 0.026160136 -0.0050963964 -0.0024565577 -0.015122661 -0.00900723
0.0019226327 -0.014220851 -0.0037267434 -0.0024972842 0.0050361003 0.006816953 -0.016663086 -0.041392665
0.0032406282 -0.0071237287 0.016736494 0.012541522 -0.002938356 0.036754746 0.001677549 -0.010557969
-0.008409516 0.009195225 0.017336732 0.007365701 -0.0094529055 0.0048745135 0.004926056 0.015693473
0.015514092 -0.00033554388 -0.00025782213 0.00052586664 0.027296005 -0.0034798218 -0.00628632 0.01975645
0.014375515 -0.024195142 -0.0016202106 0.027078846 -0.01647417 0.023873901 -0.013338228 0.012946546
0.0025536737 0.034042004 0.009673306 -0.0032420708 0.0021261044 0.002253551 0.009132219 -0.01649348
0.021979298 -0.032340284 0.008452569 0.010109613 -0.02069888 -0.0066552646 -0.013732881 0.022803534
-0.006967098 -0.009883598 0.013135073 -0.009165435 -0.0061894036 0.023913397 -0.0029684643 -0.005121055
0.008754543 -0.01640183 0.025192438 0.0045066387 0.003002012 0.016815173 -0.04222898 0.012260805
-0.001239278 0.012756775 0.013088543 -0.004437601 0.001549993 0.01487383 0.0023146858 -0.003754212
-0.006114789 -0.009477227 -0.013504478 -6.5501863e-06 -0.0063509806 0.030795272 -0.013481249 0.008121181
-0.008812512 0.0049300296 0.016305149 -0.003153486 0.0059008664 -0.0010874751 -0.0021183677 -0.0017530287
-0.0030936366 -0.0056739016 0.036356732 0.011506316 -0.021157522 -0.0134053165 -0.009934363 0.03154877
-0.010750498 0.016322501 0.01679048 0.0036691432 0.0045748358 0.012654314 0.0055381153 0.01528101
-0.003766587 -0.003779754 9.204091e-05 0.014882436 0.009229253 -0.029214045 -0.002086961 -0.013155956
00000000: 9893 093e 11fe b73c 76f7 173b d2be 7bbc
00000010: df0a 1abc 12ee 7dbc b301 eebc cbc0 25bd
00000020: 63a2 b93d e483 c0bd 742f 113d e0c9 913c
00000030: 987f 8dbd f2be 0d3d 8714 393c 43fc 3ebd
00000040: 03c4 9dbd 06ec c03c 0ca8 5d3d 10ce f13c
00000050: 3f90 babc db51 f9bd 91d9 e6ba 18d3 d1bc
00000060: c25d 713c 6d0f eb3c bf61 c7bb 1ca3 14bd
00000070: 6e2b be3d 72f7 c43a fecd ed3c 031e a3bb
00000080: 6642 afbd 2737 f23b aa3d fb3b 40b7 713b
00000090: 6334 80bb 4f5c a93c fa53 e23c 7743 aabd
000000a0: 9b00 34bd 8b70 313c c168 c63b d40a 2b3d
000000b0: 7ad2 be3b f28d 88bd 86ce 183d 5a2f 46bc
000000c0: d6a9 c2bc 377d bd3c d37b a83b 2854 f83b
000000d0: c05a 8cbb 691e 83bc 0898 363d 013a 2c3c
000000e0: a096 0d3d 4a75 43bc b6df a7bc 1406 f63c
000000f0: 873d 063d 29e8 8f3d ff38 49bd 832f a13a
00000100: 1b95 22bd a436 a1bd 740e ffbd 536c f6ba
00000110: 4fa4 aabc 3f8e d63a 6e14 663d 7fc0 bc3c
00000120: fe6e a13c a144 00bd c583 21bc f319 56bd
00000130: 2814 92bc 7983 7cbc c0ae a33d 6a8d 4abc
00000140: 3ea2 ed3c 3773 81bc 6b69 6d3a 4796 9a3b
00000150: 1733 653b 4799 d1bc 36bf fc3d c5af 0abd
00000160: 337e 413b 3ac1 3cbc 076c a53d 164d b93c
00000170: ec5e 76bd 821c b03c 272d 89bc e10d 33bd
00000180: 137a 4fbc a5b7 d53d 4f14 3d3d 1f50 343c
00000190: 2117 5bbc e1d7 263d 9843 89bc c0d7 1b3b
000001a0: 0223 33bd 7870 edbc e3aa 633d 8f7e 0a3d
000001b0: 6d3e 563c 2d06 c33c 544e 08bc fbc0 52bd
000001c0: 72aa d8bc 34cf 143d 7248 01bc 2149 32be
000001d0: 4602 b33d f4b7 b83c 59ab c63d 0d27 61bd
000001e0: 4a34 a938 0186 70bc d5b3 6abc 1c06 1b3d
000001f0: 2d84 123d 6767 803c 5d2a b3bd 1827 623c
00000200: 3220 bfb9 fa61 953b e80f 36bc c84d d63c
00000210: acff a6bb 33fe 20bb 0ac5 77bc 1093 13bc
00000220: d900 fc3a 92fe 68bc 613c 74bb 7aa9 23bb
00000230: df05 a53b bf60 df3b 0681 88bc 5b8b 29bd
00000240: b860 543b 2b6e e9bb f91a 893c f57a 4d3c
00000250: 6f91 40bb 258c 163d 34e1 db3a 55fb 2cbc
00000260: 11c8 09bc 92a7 163c c305 8e3c fa5b f13b
00000270: 5ce0 1abc 62ba 9f3b c16a a13b 998f 803c
00000280: d12e 7e3c f0eb afb9 4d2c 87b9 50da 093a
00000290: df9b df3c b90d 64bb 79fd cdbb 47d8 a13c
000002a0: 4887 6b3c e434 c6bc 3f5d d4ba 75d4 dd3c
000002b0: d7f4 86bc 3393 c33c 9588 5abc c01d 543c
000002c0: 895b 273b a16f 0b3d c97c 1e3c ec78 54bb
000002d0: 1d56 0b3b 50b0 133b 4d9f 153c 561d 87bc
000002e0: ee0d b43c 3f77 04bd a57c 0a3c caa2 253c
000002f0: b390 a9bc 6814 dabb e1ff 60bc 7ace ba3c
00000300: 414c e4bb d1ee 21bc 7d34 573c 9f2a 16bc
00000310: 7bd0 cabb 07e6 c33c 918a 42bb 86ce a7bb
00000320: 376f 0f3c 215d 86bc 5f60 ce3c 6dac 933b
00000330: 67bd 443b f9bf 893c 4cf8 2cbd 8be1 483c
00000340: 456f a2ba cb01 513c 5471 563c 4c69 91bb
00000350: 2229 cb3a 5db1 733c fcb1 173b 3a09 76bb
00000360: 915e c8bb 5f46 1bbc e341 5dbc acc9 dbb6
00000370: e31b d0bb 5e46 fc3c 75e0 5cbc b40e 053c
00000380: 5b62 10bc 168c a13b 6092 853c b7aa 4ebb
00000390: 0e5c c13b 9c89 8eba 50d4 0abb e2c5 e5ba
000003a0: 9cbe 4abb 23ec b9bb ccea 143d fd84 3c3c
000003b0: 8a52 adbc f9a1 5bbc bdc3 22bc 4839 013d
000003c0: db22 30bc c4b6 853c 308c 893c 0276 703b
000003d0: 81e8 953b 0a54 4f3c 1479 b53b 345d 7a3c
000003e0: d8d8 76bb c0b5 77bb 1606 c138 76d5 733c
000003f0: 4b36 173c 4b52 efbc 65c5 08bb 148c 57bc

action_model._continuous_distribution.mu.bias f4 [2]
0.00013037313 -0.00329625
00000000: c5b4 0839 e605 58bb

exp_avg f4 [128, 6]
6.8493805e-10 -3.2811662e-10 2.208658e-09 -2.7524363e-10 -9.1994634e-10 2.6231207e-08 0.00033869958 -9.448853e-05
0.0019053457 -4.78731e-05 -0.00016000618 0.0045623924 0.0002943382 -0.00017165372 0.007051167 -8.72565e-05
-0.00029163717 0.008315697 -2.5265313e-06 -4.6536286e-07 3.1411815e-05 -2.3788374e-07 -7.9507754e-07 2.2670753e-05
-0.000656874 0.00030275647 -0.011129142 0.00015357036 0.00051327766 -0.014635523 -1.2513337e-06 -5.0439183e-05
0.0029157642 -2.5701444e-05 -8.590198e-05 0.002449394 0.00053451734 -0.0001556082 0.005149549 -7.888244e-05
-0.00026364863 0.0075176354 0.00011281632 1.644839e-05 -0.0013310546 8.201887e-06 2.7413225e-05 -0.0007816544
-0.00052223884 7.951356e-06 0.0005194582 4.037851e-06 1.3495766e-05 -0.00038481364 -0.0004271583 0.00021532516
-0.0063971197 0.00010906991 0.00036454416 -0.010394556 -0.00076477416 0.00030063358 -0.009680373 0.00015257778
0.0005099605 -0.014540929 0.00027632507 -8.533335e-05 0.0023346115 -4.327457e-05 -0.00014463655 0.0041241436
-1.7239995e-06 1.1680875e-05 -9.177273e-05 6.07715e-06 2.0311643e-05 -0.0005791632 0.0005052628 -0.00017363939
0.006514025 -8.768097e-05 -0.0002930561 0.008356155 0.0012223759 -0.00046257902 0.013853265 -0.00023436794
-0.0007833278 0.02233569 -0.0002251826 -2.8148057e-05 0.0009226806 -1.4349389e-05 -4.7959817e-05 0.0013675205
-5.9061273e-07 8.2891705e-07 -5.995209e-06 3.8390823e-07 1.2831358e-06 -3.6587124e-05 3.1431844e-07 -2.9286042e-07
2.0602092e-06 -2.09216e-07 -6.992623e-07 1.993866e-05 0.00074505905 -0.00025875669 0.007933424 -0.0001307315
-0.00043694352 0.012458947 -0.0011065875 0.00029563622 -0.0093335565 0.00014984376 0.0005008225 -0.014280375
-0.0004002659 0.00016783504 -0.007897199 8.5061976e-05 0.0002843025 -0.008106559 -0.00018156882 5.3715812e-05
-0.0015229599 2.7331558e-05 9.135023e-05 -0.002604747 -1.3646352e-23 -1.6213761e-24 1.3648155e-23 -2.117875e-24
-7.078569e-24 2.0183726e-22 0.0011513592 -0.00042211567 0.0143370675 -0.00021407181 -0.00071549194 0.02040143
-0.0003515574 -6.187236e-05 0.00361752 -3.152829e-05 -0.00010537674 0.0030047074 0.0005530484 -0.00016103016
0.00591564 -8.1281214e-05 -0.00027166598 0.007746243 0.0001066721 -6.03057e-05 0.0020477888 -3.0661453e-05
-0.00010247968 0.0029220905 -0.0006845446 0.00010849624 -0.002605105 5.4981894e-05 0.00018376556 -0.005239876
1.6478666e-12 7.388646e-13 -3.9286647e-12 7.265681e-14 2.4284088e-13 -6.9243274e-12 -0.00019549439 -8.180494e-05
0.0036874101 -4.126041e-05 -0.00013790457 0.0039321976 -1.2643562e-05 -1.626684e-05 0.00033790412 -8.643357e-06
-2.8888659e-05 0.0008237276 9.783719e-05 -1.2808714e-05 0.00030206627 -6.499554e-06 -2.1723416e-05 0.0006194187
-0.00014965901 0.00014748659 -0.006871785 7.470813e-05 0.00024969675 -0.0071198163 0.0025518232 -0.0006910329
0.020755773 -0.0003499487 -0.0011696322 0.03335069 0.0003635452 -0.0001341955 0.004274572 -6.797974e-05
-0.00022720841 0.0064785867 2.9528135e-10 -1.6303076e-09 8.1816765e-08 -8.256595e-10 -2.7596e-09 7.868683e-08
-0.001685846 0.00052022474 -0.018413668 0.00026355134 0.0008808669 -0.025116906 0.0014407064 -0.00010340486
0.002454312 -5.2424264e-05 -0.00017521728 0.004996133 0.0017446516 -0.00082252343 0.03301287 -0.0004170878
-0.0013940316 0.03974922 3.3949655e-06 -7.3041985e-05 0.0029749465 -3.70664e-05 -0.00012388699 0.0035324963
0.0003849628 -0.000119499695 0.00351965 -6.0537903e-05 -0.00020233577 0.005769372 -5.315082e-16 9.216917e-17
-8.2437143e-16 5.050076e-17 1.687889e-16 -4.8128107e-15 -0.00083796936 0.00025697026 -0.008459891 0.00013041637
00000000: 3b46 3c30 4f62 b4af 1fc7 1731 1951 97af
00000010: 78df 7cb0 0953 e132 7d93 b139 2528 c6b8
00000020: cbbc f93a 5acb 48b8 55c7 27b9 1f80 953b
00000030: 6851 9a39 f2fd 33b9 7a0d e73b 7afd b6b8
00000040: e1e6 98b9 903e 083c 7a8d 29b6 fcd6 f9b4
00000050: 2ec0 0338 fc6c 7fb4 506d 55b5 122d be37
00000060: 1132 2cba 49bb 9e39 0157 36bc bb07 2139
00000070: 7b8d 063a d5c9 6fbc 80f3 a7b5 a98e 53b8
00000080: 6816 3f3b 6e99 d7b7 4626 b4b8 0386 203b
00000090: da1e 0c3a c22a 23b9 8cbd a83b b06d a5b8
000000a0: 523a 8ab9 7f56 f63b cd97 ec38 a6fa 8937
000000b0: c876 aeba d69a 0937 74f5 e537 f0e7 4cba
000000c0: dbe6 08ba d066 0537 402c 083a e07c 8736
000000d0: e06b 6237 d0c0 c9b9 37f4 dfb9 e8c8 6139
000000e0: ee9e d1bb 76bc e438 4a20 bf39 ee4d 2abc
000000f0: 207b 48ba 5b9e 9d39 6d9a 1ebc 49fd 1f39
00000100: dfae 053a 143d 6ebc b9df 9039 fef4 b2b8
00000110: 4800 193b b781 35b8 94a9 17b9 d323 873b
00000120: 2c64 e7b5 faf8 4337 1c76 c0b8 52ea cb36
00000130: ec62 aa37 fcd2 17ba 9d73 043a f812 36b9
00000140: 9a73 d53b 5de1 b7b8 53a5 99b9 41e8 083c
00000150: 2138 a03a 4e86 f2b9 cef8 623c aac0 75b9
00000160: 3d58 4dba 56f9 b63c fe1e 6cb9 7e1f ecb7
00000170: 0ce0 713a 28be 70b7 7628 49b8 603e b33a
00000180: 998a 1eb5 bf82 5e35 742a c9b6 f21b ce34
00000190: 3638 ac35 2075 19b8 99bf a834 6e3a 9db4
000001a0: 2042 0a36 dba4 60b4 f0b4 3bb5 f241 a737
000001b0: 1150 433a bca9 87b9 31fb 013c f814 09b9
000001c0: 9115 e5b9 9c20 4c3c ea0a 91ba 9fff 9a39
000001d0: c6eb 18bc 611f 1d39 a149 033a 3cf8 69bc
000001e0: c8da d1b9 e0fc 2f39 4163 01bc 4d63 b238
000001f0: 700e 9539 5fd1 04bc 8263 3eb9 ea4c 6138
00000200: 0e9e c7ba 1346 e537 4893 bf38 67b4 2abb
00000210: bbfa 8399 53e5 fa97 32ff 8319 d6dc 2398
00000220: 60eb 0899 9b01 741b 34e9 963a 684f ddb9
00000230: 05e6 6a3c 7778 60b9 da8f 3bba e620 a73c
00000240: 3c51 b8b9 78c1 81b8 ea13 6d3b 3e3d 04b8
00000250: b5fd dcb8 a0ea 443b 73fa 103a 34da 28b9
00000260: fcd7 c13b 8575 aab8 646e 8eb9 32d4 fd3b
00000270: 26b5 df38 c1f0 7cb8 3234 063b 7c9a 00b8
00000280: 5cea d6b8 8b80 3f3b 0373 33ba 7a88 e338
00000290: 69ba 2abb 5c9c 6638 31b1 4039 44b3 abbb
000002a0: a7ea e72b cef8 4f2b 443a 8aac cd9b a329
000002b0: 0fb5 882a cca0 f3ac a0fd 4cb9 b18e abb8
000002c0: 7aa8 713b 070f 2db8 7a9a 10b9 aad9 803b
000002d0: af1f 54b7 c674 88b7 b928 b139 f002 11b7
000002e0: ec55 f2b7 6cef 573a f12d cd38 02e5 56b7
000002f0: a65e 9e39 be16 dab6 ae3a b6b7 7c60 223a
00000300: c9ed 1cb9 a1a6 1a39 b62c e1bb 9fac 9c38
00000310: bbe9 8239 594d e9bb 7d3c 273b 6f26 35ba
00000320: 0308 aa3c 5279 b7b9 584e 99ba bc9a 083d
00000330: 369a be39 d5b6 0cb9 b511 8c3b 5890 8eb8
00000340: cb3e 6eb9 534a d43b 2855 a22f 5911 e0b0
00000350: 3eb3 af33 9ff4 62b0 66a3 3db1 8bfa a833
00000360: 9bf7 dcba b15f 083a 43d8 96bc 432d 8a39
00000370: fae9 663a f8c1 cdbc 16d6 bc3a 10db d8b8
00000380: 86d8 203b 20e2 5bb8 88ba 37b9 9ab6 a33b
00000390: cbac e43a 9d9e 57ba 8138 073d 94ac dab9
000003a0: f0b7 b6ba 14d0 223d 10d5 6336 1e2e 99b8
000003b0: 52f7 423b be77 1bb8 a9e7 01b9 7481 673b
000003c0: d5d4 c939 e99b fab8 eea9 663b 14ea 7db8
000003d0: 182a 54b9 000d bd3b 6232 19a6 1387 d424
000003e0: e09b 6da6 c6e4 6824 b199 4225 5866 ada7
000003f0: 2cab 5bba f7b9 8639 5b9b 0abc 61c0 0839

exp_avg_sq f4 [128, 6]
2.0641634e-16 1.2626342e-17 3.998696e-16 1.4240497e-17 1.5907984e-16 1.2933793e-13 3.1487207e-06 1.011654e-06
0.0014575187 2.5958826e-07 2.899843e-06 0.002357688 5.2819763e-07 2.1035211e-07 0.0002735444 5.4180994e-08
6.0525343e-07 0.000492095 1.9514923e-09 7.474385e-10 6.867328e-07 1.9171661e-10 2.1416577e-09 1.7412491e-06
2.9355563e-06 1.310077e-06 0.0020984604 3.364316e-07 3.7582588e-06 0.0030556154 1.1472125e-06 7.01105e-07
0.00089287426 1.8010145e-07 2.0119053e-06 0.0016357583 4.792415e-06 2.4882022e-06 0.003337234 6.3911955e-07
7.1395802e-06 0.0058047515 1.0239746e-06 5.989784e-07 0.0007818117 1.5404527e-07 1.7208329e-06 0.0013991036
2.5927577e-05 1.115421e-05 0.010809708 2.862083e-06 3.197226e-05 0.02599466 4.2295733e-06 1.8687088e-06
0.0027224873 4.7947816e-07 5.356237e-06 0.004354829 8.854817e-06 3.8765256e-06 0.0053322846 9.964411e-07
1.1131208e-05 0.0090501085 2.2753284e-06 1.0670774e-06 0.0013441766 2.7415163e-07 3.062539e-06 0.0024899652
6.362838e-09 9.352215e-09 4.778481e-07 3.0794345e-09 3.4400134e-08 2.796871e-05 2.765305e-06 1.1670869e-06
0.0018040695 2.9949905e-07 3.345694e-06 0.0027201788 1.4111962e-05 4.8006964e-06 0.008904957 1.2319177e-06
1.376171e-05 0.011188818 2.7769836e-06 1.51739e-06 0.0015026244 3.893999e-07 4.349968e-06 0.0035366926
1.6700218e-10 1.4794235e-10 4.6676853e-08 4.0019203e-11 4.470521e-10 3.6347157e-07 2.1052964e-09 5.888632e-10
2.1557216e-08 3.5041786e-10 3.914486e-09 3.1826355e-06 7.818989e-06 3.0026779e-06 0.005353666 7.702866e-07
8.604841e-06 0.0069960807 2.0467462e-05 9.360437e-06 0.013601628 2.4035703e-06 2.6850168e-05 0.02183021
3.7879238e-06 1.8329073e-06 0.0017262138 4.7048667e-07 5.2557866e-06 0.0042731585 1.3547067e-06 4.7125368e-07
0.0004676381 1.2105626e-07 1.3523154e-06 0.0010994856 3.78e-43 0.0 3.97e-43 4e-45
2.97e-43 8.143e-42 1.7669936e-05 8.774557e-06 0.012540098 2.2535612e-06 2.5174399e-05 0.0204678
1.6648179e-05 7.437568e-06 0.0073136054 1.9120089e-06 2.1358945e-05 0.01736568 3.9489532e-06 2.099847e-06
0.003119595 5.387852e-07 6.018756e-06 0.004893486 4.0226593e-07 2.512352e-07 0.00028328894 6.450055e-08
7.205332e-07 0.00058582256 1.688612e-05 7.828758e-06 0.008814615 2.0148377e-06 2.2507673e-05 0.018299619
5.1493503e-22 1.0863795e-22 6.1653774e-21 6.113016e-23 6.828819e-22 5.5521014e-19 2.5144669e-05 1.0054334e-05
0.0074559487 2.5821005e-06 2.8844572e-05 0.023451792 6.707563e-08 2.7415267e-08 2.3661616e-05 7.1590978e-09
7.9973844e-08 6.502191e-05 4.64917e-07 2.1596276e-07 0.00021216505 5.5439962e-08 6.193179e-07 0.0005035288
1.8870618e-07 1.10113135e-07 0.00017743668 2.8257164e-08 3.1565955e-07 0.00025664349 0.00013622436 5.9349637e-05
0.07756724 1.52367575e-05 0.00017020934 0.1383869 3.970356e-06 1.5841028e-06 0.0017130757 4.065289e-07
4.5413185e-06 0.00369227 1.7110484e-16 6.681443e-17 1.5676535e-13 1.7145557e-17 1.9153219e-16 1.5572319e-13
6.2117855e-05 2.8061899e-05 0.033907253 7.2002863e-06 8.043402e-05 0.06539606 0.00011448323 4.8653706e-05
0.050288174 1.2483421e-05 0.00013945179 0.113380075 4.917425e-05 2.4332177e-05 0.024019925 6.254171e-06
6.986494e-05 0.056803036 2.6853947e-06 8.989981e-07 0.00066365494 2.3100401e-07 2.5805398e-06 0.0020980753
4.117965e-06 1.7089342e-06 0.0019423215 4.3860487e-07 4.8996517e-06 0.0039835908 1.0124667e-29 6.65024e-30
5.70236e-27 1.7770932e-30 1.9851842e-29 1.6140334e-26 1.12234875e-05 5.258143e-06 0.00720329 1.3497032e-06
00000000: 5afb 6d25 37ea 6823 5682 e625 6c58 8323
00000010: 1568 3725 1f9f 112a 9c4e 5336 2bc8 8735
00000020: 360a bf3a 8a5d 8b34 ec9a 4236 7183 1a3b
00000030: 77c9 0d35 26dd 6134 826a 8f39 a2b4 6833
00000040: b378 2235 f0ff 003a 041b 0631 4f74 4d30
00000050: eb57 3835 6ecb 522f 712c 1331 ddb4 e935
00000060: 7900 4536 e7d5 af35 5386 093b cf9e b434
00000070: 6536 7c36 b840 483b ecf9 9935 9233 3c35
00000080: c70f 6a3a e961 4134 4504 0736 f166 d63a
00000090: 88ce a036 fdfa 2636 7fb5 5a3b f68f 2b35
000000a0: 8790 ef36 c935 be3b 806f 8935 7bc9 2035
000000b0: 7ff2 4c3a a467 2534 5ef7 e635 2062 b73a
000000c0: 0c7f d937 f822 3b37 341b 313c 3612 4036
000000d0: f419 0638 c1f2 d43c c2eb 8d36 58d0 fa35
000000e0: c26b 323b 7db5 0035 bab9 b336 f4b2 8e3b
000000f0: 268f 1437 1a13 8236 72ba ae3b 75bd 8535
00000100: 2dc0 3a37 e846 143c d8b1 1836 8038 8f35
00000110: 152f b03a 1d2f 9334 0586 4d36 af2e 233b
00000120: 1da0 da31 7aab 2032 7945 0035 fc9d 5331
00000130: 59bf 1333 599e ea37 9493 3936 cda4 9c35
00000140: 8776 ec3a d6ca a034 9686 6036 0745 323b
00000150: 6ac2 6c37 ab15 a136 19e6 113c 5f58 a535
00000160: 18e2 6637 4e51 373c 375c 3a36 20a9 cb35
00000170: b5f3 c43a b70e d134 f1f5 9136 dbc7 673b
00000180: ef9e 372f 12aa 222f be79 4833 9e01 302e
00000190: fdc4 f52f 2723 c334 c4ac 1031 90dd 2130
000001a0: d22c b932 eea4 c02f 2f80 8631 4395 5536
000001b0: 4d2e 0337 9d81 4936 ce6d af3b b1c5 4e35
000001c0: 835d 1037 613f e53b 8ab1 ab37 c50a 1d37
000001d0: 5dd9 5e3c 064d 2136 4c3c e137 45d5 b23c
000001e0: 0934 7e36 3702 f635 2042 e23a 3297 fc34
000001f0: dd5a b036 da05 8c3b 5ed3 b535 9d00 fd34
00000200: 532d f539 b1fb 0134 3481 b535 9d1c 903a
00000210: 0e01 0000 0000 0000 1b01 0000 0300 0000
00000220: d400 0000 b316 0000 e639 9437 6f36 1337
00000230: fc74 4d3c e33b 1736 9c2d d337 16ac a73c
00000240: b1a7 8b37 3990 f936 f8a6 ef3b 1050 0036
00000250: fc2b b337 7842 8e3c 4081 8436 19eb 0c36
00000260: 1f72 4c3b 09a1 1035 b8f4 c936 8959 a03b
00000270: 02f7 d734 81e1 8634 6686 9439 8d83 8a33
00000280: aa6a 4135 e391 193a aba6 8d37 4258 0337
00000290: 2d6b 103c a636 0736 dcce bc37 15e9 953c
000002a0: 2ba1 1b1c d155 031b dfeb e81d bdcd 931a
000002b0: 6e63 4e1c 7ede 2321 c4ed d237 09af 2837
000002c0: 0851 f43b 2648 2d36 3ff7 f137 f91d c03c
000002d0: 380b 9033 cf7e eb32 ef7c c637 17fc f531
000002e0: 16be ab33 5f5c 8838 b599 f934 64e3 6734
000002f0: 9f78 5e39 e21c 6e33 343f 2635 3fff 033a
00000300: 299f 4a34 5677 ec33 4c0e 3a39 29ba f232
00000310: eb77 a934 1b8e 8639 73d7 0e39 30ee 7838
00000320: 93db 9e3d 60a1 7f37 397a 3239 4cb5 0d3e
00000330: 1939 8536 5c9d d435 4889 e03a e840 da34
00000340: a161 9836 03fa 713b 3c45 4525 4710 9a24
00000350: 8980 302a cd23 9e23 53d2 5c25 2754 2f2a
00000360: 4545 8238 7866 eb37 55e2 0a3d fd99 f136
00000370: b0ae a838 5fee 853d b716 f038 8511 4c38
00000380: f9fa 4d3d e36f 5137 ce39 1239 d033 e83d
00000390: 7340 4e38 f41c cc37 6fc5 c43c ebda d136
000003a0: 7484 9238 4daa 683d bb36 3436 ae52 7135
000003b0: 21f9 2d3a e609 7834 562d 2d36 dd7f 093b
000003c0: 0d2d 8a36 885e e535 7f95 fe3a 6579 eb34
000003d0: b067 a436 c888 823b 475a 4d0f 05e2 060f
000003e0: cde4 e113 c82c 100e 5452 c90f 9cd8 9f14
000003f0: 834c 3c37 1b6f b036 9309 ec3b 7327 b535

exp_avg f4 [128]
6.276882e-10 0.000109173794 0.00019898688 5.4248846e-07 -0.00035021442 5.861175e-05 0.00017988999 -1.8704239e-05
-9.208117e-06 -0.0002487321 -0.00034795093 9.868688e-05 -1.3858831e-05 0.00019995499 0.0005344722 3.2723496e-05
-8.7549563e-07 4.771135e-07 0.00029813094 -0.00034171605 -0.00019398237 -6.232913e-05 4.8297764e-24 0.0004881871
7.189972e-05 0.0001853604 6.992285e-05 -0.00012538512 -1.6569252e-13 9.409369e-05 1.9711024e-05 1.482211e-05
-0.0001703705 0.00079805125 0.00015502656 1.8829018e-09 -0.0006010241 0.00011955257 0.0009511611 8.452931e-05
0.00013805562 -1.1516623e-16 -0.00029741222 6.7888956e-05 0.00014029676 3.343467e-15 -1.856306e-07 1.1874299e-05
0.00014260906 0.00047398146 -9.844577e-05 7.1608086e-16 -1.6195378e-14 -3.0998423e-16 2.6050503e-10 -1.3428278e-14
0.00016556983 -0.00014196982 1.6669219e-07 -0.00014543664 -0.00012542985 -4.30133e-05 8.761122e-05 7.2481904e-05
-4.096984e-17 -4.3425374e-09 -9.5274205e-05 3.154691e-05 -2.3714416e-11 -0.00034615485 -0.00021105108 4.399188e-12
1.5923621e-09 1.4450142e-08 4.087681e-05 1.127721e-21 9.944726e-06 8.193762e-08 1.7862818e-09 0.00042435474
-1.6243734e-05 0.0002992289 -1.39155445e-05 -0.00031885784 -0.00017374541 0.00016985295 0.0003773134 0.000114285154
1.6498785e-06 6.906995e-05 -4.6948334e-11 -0.00016735504 0.00014897778 -2.7474355e-20 0.0006605882 3.3522083e-05
-3.9198276e-06 0.00012807103 7.424475e-05 -0.0006318626 2.5362556e-06 0.00015599222 -3.325297e-13 0.00045013503
-0.00018078332 -0.00013217742 -5.6761113e-05 0.0006949629 0.00024405165 -8.196857e-06 -0.0003081248 1.656568e-06
0.00018584827 -3.8868286e-20 5.4396205e-05 3.071307e-14 -5.716714e-12 0.00027462954 -0.00014203199 0.00041376989
-0.00048186714 0.00019642804 -9.601445e-05 -0.00024766178 -8.617099e-05 -0.00029533546 -0.0002467103 1.412146e-06
00000000: a189 2c30 3cf4 e438 22a7 5039 869f 1135
00000010: fc9c b7b9 e3d5 7538 daa0 3c39 0ce7 9cb7
00000020: 907c 1ab7 4268 82b9 2f6d b6b9 1ef6 ce38
00000030: 3a83 68b7 02ab 5139 d21b 0c3a 9640 0938
00000040: 9a03 6bb5 fd12 0035 754e 9c39 5a28 b3b9
00000050: bf67 4bb9 b2b6 82b8 cad7 ba18 5df3 ff39
00000060: dec8 9638 4e5d 4239 8ba3 9238 d079 03b9
00000070: 9e8d 3aaa 2a54 c538 1a59 a537 7aac 7837
00000080: 7ca5 32b9 5034 513a a08e 2239 5c64 0131
00000090: 0b8e 1dba 4cb8 fa38 5757 793a 5445 b138
000000a0: 06c3 1039 12c7 04a5 feed 9bb9 9b5f 8e38
000000b0: a01c 1339 14ec 7027 c051 47b4 ba37 4737
000000c0: 5489 1539 b780 f839 ac74 ceb8 7165 4e26
000000d0: 00e0 91a8 99b1 b2a5 d336 8f2f 00e7 71a8
000000e0: d09c 2d39 bcdd 14b9 00fc 3234 5a80 18b9
000000f0: d285 03b9 2e69 34b8 eabb b738 6d01 9838
00000100: a6f0 3ca4 5d35 95b1 f3cd c7b8 3d51 0438
00000110: 1e98 d0ad 1e7c b5b9 984d 5db9 5dc8 9a2c
00000120: 43da da30 6640 7832 2473 2b38 986a aa1c
00000130: 46d8 2637 aff5 af33 3481 f530 ee7b de39
00000140: 2743 88b7 d3e1 9c39 cf76 69b7 602c a7b9
00000150: 6e2f 36b9 8e1a 3239 26d2 c539 60ac ef38
00000160: 6571 dd35 a6d9 9038 207b 4eae 077c 2fb9
00000170: eb36 1c39 75be 019f 532b 2d3a 109a 0c38
00000180: 1087 83b6 ce4a 0639 d9b3 9b38 95a3 25ba
00000190: 8a34 2a36 d891 2339 9532 bbaa 1a00 ec39
000001a0: a790 3db9 1b99 0ab9 c812 6eb8 2c2e 363a
000001b0: 1ee8 7f39 3c85 09b7 d08b a1b9 3e57 de35
000001c0: 44e0 4239 e08c 379f 7b27 6438 c251 0a29
000001d0: 9523 c9ac 27fc 8f39 6cee 14b9 41ef d839
000001e0: 1da3 fcb9 40f8 4d39 5e5b c9b8 9ad8 81b9
000001f0: b3b6 b4b8 41d7 9ab9 e558 81b9 f888 bd35

exp_avg_sq f4 [128]
7.405897e-17 1.3500115e-06 2.8177345e-07 9.970401e-10 1.7496441e-06 9.366359e-07 3.3238052e-06 8.01126e-07
1.4884547e-05 2.4935746e-06 5.182089e-06 1.4257536e-06 1.6014853e-08 1.5575729e-06 6.406714e-06 2.0251125e-06
2.0812391e-10 1.8223785e-09 4.0059494e-06 1.25000015e-05 2.4468152e-06 6.2956576e-07 1.3e-43 1.1719869e-05
9.943598e-06 2.802008e-06 3.3544185e-07 1.0478368e-05 3.179126e-22 1.3428456e-05 3.7231544e-08 2.8832133e-07
1.469542e-07 7.924026e-05 2.1141987e-06 8.9167165e-17 3.7445814e-05 6.4921434e-05 3.2525415e-05 1.2013602e-06
2.2810098e-06 9.241961e-30 7.0192746e-06 6.2051964e-07 9.2865885e-06 2.2118239e-26 1.7479492e-11 1.5743343e-07
1.3142956e-06 1.9525229e-05 4.2594183e-07 7.633678e-28 3.8345866e-26 4.4115508e-29 2.055922e-17 3.7735818e-26
6.047386e-07 3.7361926e-07 1.656583e-05 6.637608e-07 2.029287e-07 1.4650579e-05 6.3469924e-06 2.9089585e-07
3.8176427e-31 1.4689053e-16 6.945956e-06 7.6743726e-07 9.2574364e-20 1.3893534e-05 1.0620165e-05 8.730282e-20
4.930747e-17 2.6642203e-14 4.0600185e-06 2.74838e-38 8.435587e-09 5.00727e-10 3.4525556e-15 1.3060237e-05
9.73443e-07 6.338832e-07 9.283194e-09 1.5118521e-05 1.6297892e-06 3.6289437e-06 3.217332e-05 1.4310167e-07
8.87428e-10 3.6260028e-06 3.3935126e-19 5.129949e-07 4.491591e-06 8.627824e-38 4.7091835e-05 1.357053e-07
8.120678e-09 1.4483597e-06 5.2187727e-07 3.4025667e-05 9.199931e-10 5.3613244e-06 1.5414981e-23 1.1005749e-05
6.194146e-05 2.1665933e-06 2.3853838e-06 6.492933e-05 1.1016552e-05 8.782974e-09 1.281105e-05 1.9234471e-10
4.8255174e-06 1.2774472e-36 3.0582726e-07 8.889444e-26 8.652552e-21 5.409053e-06 9.405019e-07 9.937031e-05
9.074966e-06 1.2816752e-06 1.2946064e-05 6.9623725e-06 1.7808122e-06 4.5060356e-06 4.061054e-05 3.526398e-08
00000000: b3c4 aa24 0b32 b535 a646 9734 3b08 8930
00000010: 50d5 ea35 216d 7b35 8a0e 5f36 f60c 5735
00000020: a5b8 7937 4957 2736 cee1 ad36 855c bf35
00000030: 0991 8932 cc0d d135 41f9 d636 2be7 0736
00000040: acd5 642f 3e77 fa30 d86a 8636 19b7 5137
00000050: f733 2436 6eff 2835 5d00 0000 74a0 4437
00000060: 6ed3 2637 220a 3c36 c716 b434 3fcc 2f37
00000070: 982a c01b c84a 6137 84e8 1f33 95ca 9a34
00000080: 77ca 1d34 ca2d a638 a8e1 0d36 019b cd24
00000090: 230f 1d38 6e26 8838 e66b 0838 6c3e a135
000000a0: 7313 1936 0173 3b0f 1c87 eb36 c991 2635
000000b0: 98cd 1b37 660c db14 51c0 992d f90a 2934
000000c0: da66 b035 1cca a337 00ad e434 c1eb 7112
000000d0: 29e1 3d15 34b1 5f10 16a0 bd23 d5db 3a15
000000e0: 5255 2235 d795 c834 d9f6 8a37 4b2d 3235
000000f0: 9ee4 5934 c2cb 7537 40f8 d436 6c2c 9c34
00000100: 78c7 f70c 6f5a 2925 4f11 e936 e301 4e35
00000110: c595 da1f 4618 6937 432d 3237 5123 ce1f
00000120: fc63 6324 bdf8 ef28 4b3b 8836 d4a2 1501
00000130: 1bec 1032 88a3 0930 69c8 7827 4a1d 5b37
00000140: 3fa7 8235 1f28 2a35 eb7b 1f32 8ea5 7d37
00000150: 21bf da35 c788 7336 d7f1 0638 7da7 1934
00000160: 32ef 7330 4156 7336 5051 c820 beb4 0935
00000170: 79b6 9636 28df ea01 7984 4538 64b6 1134
00000180: 1f83 0b32 4365 c235 2217 0c35 c8b6 0e38
00000190: c2e2 7c30 6de5 b336 a515 9519 55a5 3837
000001a0: 91e6 8138 ca65 1136 9514 2036 ab2a 8838
000001b0: bbd3 3837 eee3 1632 0aef 5637 397c 532f
000001c0: e1ea a136 ac58 d903 9430 a434 8c17 dc15
000001d0: 2d71 231e 697f b536 cc76 7c35 0765 d038
000001e0: af40 1837 0606 ac35 ec32 5937 539e e936
000001f0: 3e04 ef35 8d32 9736 3c55 2a38 2875 1733
