results/big9/My Behavior/My Behavior-999984.pt (torch, 441427 bytes, 36 tensors)

network_body._body_endoder.seq_layers.0.weight f4 [128, 6]
0.6145755 -0.39623404 -0.4885879 0.3304882 0.013876616 -0.24769169 -0.7034502 0.34416568
0.68600875 -0.020607136 -0.6149924 -0.13858467 0.14036125 0.43045363 0.4538211 -0.6869997
0.0026898345 0.073962726 -0.12738962 -0.47706428 -0.019752108 -0.4393166 0.5253744 -0.090913385
0.19907166 -0.5419246 0.056867648 -0.42381874 0.27854264 0.5212054 0.32835427 0.51807666
0.7868499 -0.12118709 -0.16042688 0.052724514 -0.015339943 0.1343273 -0.07187291 0.18136537
0.023362076 0.09105091 0.69492084 0.30645698 -0.25539744 -0.067946345 0.53987634 0.64258116
-0.42985582 -0.33288547 0.6862632 0.2422731 0.17647308 -0.22550452 -0.12420343 0.63141954
0.7605105 -0.9851097 0.017316142 -0.3365412 -0.13308805 -0.67827976 -0.10960762 -0.3492557
-0.16171779 0.5024712 0.19419721 -0.5735701 -0.31029218 -0.23316523 0.30479902 0.45936677
-1.084619 0.04631558 -0.40585253 0.9516641 -0.16099718 0.10063911 -0.08251667 -0.54244304
0.48054236 0.51596504 -0.33983615 0.13662896 0.8791615 0.086344324 0.34183785 -0.16954285
-0.43361598 -0.30517635 -0.6200632 0.19118454 -0.495844 0.5819188 0.15273255 0.8512737
-0.2380914 -0.18386103 -0.26126865 1.0121616 -0.089841336 -0.024398228 -0.3398885 -0.40688398
-1.0334387 -0.31214786 0.10183676 0.17265524 -0.30966517 0.24418929 0.17887026 0.2731483
0.22436881 0.0892433 0.50482315 0.027826024 0.036957167 -0.40907255 0.14942466 0.8238908
-0.11686573 0.07481852 0.09417535 0.009033924 -0.29752684 -0.025802676 -0.032585938 -0.7294163
0.14912349 -0.44941044 0.32571077 0.39083412 -0.45996666 0.5008318 -0.40833625 0.63113654
0.6261129 -1.011281 0.46407923 -0.31686297 -0.46711248 0.7247986 0.4112532 0.705019
-0.7346764 -0.3511199 0.5792286 0.51268804 0.2575196 0.2388681 0.055556905 -0.11514263
0.97737795 0.5580088 0.24585603 0.027421858 -0.10213947 -0.39613613 0.053454533 0.09504391
-0.025713956 0.07104016 -0.4909124 0.28722778 -0.121359706 -0.18252233 0.13910842 0.43817517
0.3901259 -0.5791563 -0.32396865 0.2558383 0.16336355 -0.40832567 -0.5646534 -0.47036412
-0.3854231 -0.88121766 0.38138133 0.27280074 -0.33641315 0.64484465 -0.1978386 0.23757064
0.11258123 0.084067285 0.6874898 0.08301084 0.051046606 -0.76842266 0.015557888 -0.11588437
-0.22207513 -0.54610807 0.11974686 0.2832502 0.30805543 -0.13585238 0.6596276 -0.49302226
0.018687345 0.49129853 -0.09298439 0.013442341 1.281302 -0.61763537 0.08768292 -0.10169909
0.08059547 -0.1689437 0.02601383 0.3502731 0.34401032 -0.45298636 0.34688473 -0.6410145
-0.6699169 -0.61252195 0.559658 0.12356562 0.23273437 -0.14948812 0.40037975 0.50273556
0.2830869 -0.09420855 -0.6303606 -0.13613802 0.6512093 -0.13551797 -0.24861027 -0.40391058
-0.31321016 0.16207132 -0.18485087 -0.7819033 0.08826223 0.3969253 -0.43106878 0.038705867
0.93172735 -0.26829776 0.07386071 0.03047064 0.4450729 -0.12620872 -0.40233922 0.88001454
-0.061644398 -0.47247767 0.29213202 -0.6449135 -0.07578789 0.03518801 0.45392188 0.026841968
00000000: d254 1d3f 30df cabe 3128 fabe c035 a93e
00000010: bf5a 633c e4a2 7dbe 5015 34bf 7c36 b03e
00000020: 459e 2f3f 4cd0 a8bc 2470 1dbf 24e9 0dbe
00000030: dcba 0f3e 6b64 dc3e 3d5b e83e 36df 2fbf
00000040: ef47 303b c579 973d 6d72 02be c541 f4be
00000050: 2ccf a1bc 1bee e0be f07e 063f cc30 babd
00000060: 71d9 4b3e 92bb 0abf 0dee 683d c5fe d8be
00000070: 249d 8e3e b86d 053f 0d1e a83e aca0 043f
00000080: ff6e 493f f030 f8bd f246 24be a9f5 573d
00000090: 6254 7bbc 198d 093e 1b32 93bd d8b7 393e
000000a0: d361 bf3c e678 ba3d 55e6 313f eee7 9c3e
000000b0: 74c3 82be 7427 8bbd 5635 0a3f 3380 243f
000000c0: 1016 dcbe f76f aabe f2ae 2f3f 7116 783e
000000d0: 5cb5 343e a8ea 66be 5e5e febd b6a4 213f
000000e0: d1b0 423f 2630 7cbf 95da 8d3c 214f acbe
000000f0: 3c48 08be bea3 2dbf f679 e0bd a5d1 b2be
00000100: 5999 25be f4a1 003f a2db 463e 7dd5 12bf
00000110: 9ede 9ebe dec2 6ebe 9e0e 9c3e 1f32 eb3e
00000120: ccd4 8abf 68b5 3d3d e7cb cfbe 42a0 733f
00000130: 72dc 24be e11b ce3d 80fe a8bd 8cdd 0abf
00000140: a609 f63e 4916 043f 01ff adbe 76e8 0b3e
00000150: ba10 613f 4bd5 b03d 5f05 af3e a49c 2dbe
00000160: ea02 debe 1340 9cbe 76bc 1ebf e1c5 433e
00000170: 44df fdbe a1f8 143f ec65 1c3e 13ed 593f
00000180: 3bce 73be 1146 3cbe 01c5 85be 838e 813f
00000190: bcfe b7bd cbde c7bc de05 aebe 1953 d0be
000001a0: b847 84bf d8d1 9fbe cb8f d03d 89cc 303e
000001b0: 6f8c 9ebe c20c 7a3e c429 373e 18da 8b3e
000001c0: f0c0 653e 31c5 b63d 173c 013f 67f3 e33c
000001d0: 6660 173d f571 d1be c702 193e 82ea 523f
000001e0: 4d57 efbd 743a 993d 02df c03d 0603 143c
000001f0: 7055 98be 2260 d3bc d578 05bd 07bb 3abf
00000200: d4b3 183e 2019 e6be 90c3 a63e 691b c83e
00000210: c080 ebbe 8336 003f 7311 d1be 2a92 213f
00000220: ef48 203f a871 81bf cb9b ed3e dd3b a2be
00000230: 5e29 efbe 678c 393f c88f d23e 207c 343f
00000240: c113 3cbf fdc5 b3be 5348 143f 863f 033f
00000250: 9cd9 833e d799 743e a38f 633d e6cf ebbd
00000260: 7135 7a3f aad9 0e3f afc1 7b3e cea3 e03c
00000270: 802e d1bd 5bd2 cabe 24f3 5a3d 62a6 c23d
00000280: 13a6 d2bc 817d 913d df58 fbbe 850f 933e
00000290: 708b f8bd 22e7 3abe 7072 0e3e 7f58 e03e
000002a0: 95be c73e 9643 14bf 38df a5be 3dfd 823e
000002b0: c648 273e 1010 d1be 208d 10bf 91d3 f0be
000002c0: 2d56 c5be 7b97 61bf 6a44 c33e 8aac 8b3e
000002d0: 583e acbe 8a14 253f 3496 4abe b845 733e
000002e0: fd90 e63d 782b ac3d 55ff 2f3f 9601 aa3d
000002f0: 3f16 513d 59b7 44bf 83e6 7e3c c954 edbd
00000300: aa67 63be bdcd 0bbf d73d f53d 2c06 913e
00000310: 71b9 9d3e e31c 0bbe 5bdd 283f 6a6d fcbe
00000320: 3416 993c 7b8b fb3e 9a6e bebd 443d 5c3c
00000330: b401 a43f 5a1d 1ebf 1a93 b33d 9d47 d0bd
00000340: 3d0f a53d 94ff 2cbe f51a d53c ff56 b33e
00000350: 1f22 b03e d4ed e7be e09a b13e 8719 24bf
00000360: ad7f 2bbf 3dce 1cbf bf45 0f3f f90f fd3d
00000370: eb51 6e3e 6a13 19be 93fe cc3e 47b3 003f
00000380: c4f0 903e 6af0 c0bd 505f 21bf c467 0bbe
00000390: a7b5 263f 39c5 0abe b193 7ebe 5ecd cebe
000003a0: 155d a0be 06f6 253e 8c49 3dbe d12a 48bf
000003b0: d4c2 b43d cb39 cb3e 0cb5 dcbe 0b8a 1e3d
000003c0: af85 6e3f 535e 89be 4944 973d 909d f93c
000003d0: 98e0 e33e dc3c 01be 68ff cdbe a248 613f
000003e0: d67e 7cbd 98e8 f1be 5492 953e 0d19 25bf
000003f0: ae36 9bbd 4e21 103d 7368 e83e b0e3 db3c

network_body._body_endoder.seq_layers.0.bias f4 [128]
0.01764222 -0.007467925 -0.007624943 0.00642057 -0.0022796176 -0.008349195 -0.0009636048 -0.0014862658
0.012665735 0.006474007 -0.0033089435 -0.011327663 0.01677895 -0.0068047177 0.11767826 -0.0072582634
-0.016047752 -0.0001434833 -0.009030087 -0.010268401 -0.00036199464 -0.008335939 -1.7740791e-15 -0.0063686413
-0.0017781241 -0.011750498 -0.016967293 -0.0027573996 -0.00041247392 0.018831829 0.013711439 -0.027374828
0.018795844 -0.0076822224 0.15456617 0.00026882504 0.0021999266 0.0012880526 0.0010585225 -0.0017364221
0.14951347 6.1296657e-09 -0.007008157 -0.011241549 -0.0017193011 3.7175024e-08 -0.0062405695 0.006070023
-0.005743128 -0.003838234 -0.020421665 -8.466615e-07 -1.2578379e-07 3.6771806e-09 0.012460354 -3.435383e-07
-0.012410636 0.10394935 -0.00873673 0.121116735 -0.0061163316 0.014153204 -0.0025332512 -0.009423253
-6.264569e-09 0.00029772765 0.01662521 -0.010562212 -0.003964429 -0.0185555 0.03869852 -0.0012225612
0.00082509546 0.015783418 0.022816591 -1.4135672e-12 0.028762214 0.0032599214 0.049907878 -0.0041135345
-0.0047397376 -0.009496051 0.0070999153 -0.0060610794 0.0008594353 -0.0049427403 -0.0044729854 0.062800646
0.044470463 0.010634596 -7.426758e-06 -0.008261689 0.03343952 -1.1528754e-11 0.0155294575 0.104875356
0.008364188 -0.026531164 0.10009609 -0.0040808115 -0.0060531246 -0.0013047879 -4.0851482e-05 -0.0016958318
-0.0049787327 -0.0047479505 -0.000104950755 0.025449123 -0.0060685035 0.030424826 -0.005323604 -3.990155e-05
-0.0035588276 4.902192e-11 -0.0017603472 8.103669e-06 0.0010627825 -0.02233534 -0.001062808 0.0067120455
0.005027896 -0.0019361919 0.0060612247 0.024392502 -0.0151411295 -0.0025833598 -0.017772356 0.004475711
00000000: 6b86 903c 7fb5 f4bb a8da f9bb a563 d23b
00000010: a365 15bb 10cb 08bc 6c9a 7cba cece c2ba
00000020: f183 4f3c e823 d43b dcda 58bb aa97 39bc
00000030: 0274 893c 1cfa debb 4d01 f13d bad6 edbb
00000040: 9376 83bc 0174 16b9 eef2 13bc cc3c 28bc
00000050: 19ca bdb9 7693 08bc f7ab ffa6 09b0 d0bb
00000060: f20f e9ba 2985 40bc fefe 8abc 7db5 34bb
00000070: 5041 d8b9 3545 9a3c f2a5 603c 2d41 e0bc
00000080: bef9 993c 27bb fbbb 9846 1e3e 16f1 8c39
00000090: a52c 103b e0d3 a83a 1fbe 8a3a a898 e3ba
000000a0: 0f1a 193e 1c9d d231 afa4 e5bb 792e 38bc
000000b0: 2c5a e1ba 5faa 1f33 b17d ccbb 0be7 c63b
000000c0: d930 bcbb e28a 7bbb 564b a7bc 2346 63b5
000000d0: 2f0f 07b4 a5b1 7c31 8326 4c3c 8b6f b8b4
000000e0: fb55 4bbc 66e3 d43d 8024 0fbc 0d0c f83d
000000f0: 826b c8bb d7e2 673c e704 26bb fd63 1abc
00000100: bb3f d7b1 5418 9c39 9831 883c 210d 2dbc
00000110: 0ae8 81bb b401 98bc 5782 1e3d 593e a0ba
00000120: 384b 583a 3a4c 813c dce9 ba3c 20f1 c6ab
00000130: bc9e eb3c 68a4 553b 346c 4c3d d4ca 86bb
00000140: cd4f 9bbb 5395 1bbc 68a6 e83b 059c c6bb
00000150: ba4b 613a b6f6 a1bb 1f92 92bb a09d 803d
00000160: a926 363d bb3c 2e3c 5e33 f9b6 095c 07bc
00000170: e1f7 083d e4d0 4aad 446f 7e3c e4c8 d63d
00000180: f209 093c e257 d9bc 2eff cc3d 54b8 85bb
00000190: 4a59 c6bb 6b05 abba f257 2bb8 ac46 deba
000001a0: a324 a3bb b294 9bbb 0219 dcb8 ae7a d03c
000001b0: 4cda c6bb 7c3d f93c a171 aebb f75b 27b8
000001c0: 383b 69bb c699 572e 73bb e6ba fef4 0737
000001d0: 104d 8b3a 9af8 b6bc eb4d 8bba b8f0 db3b
000001e0: 0cc1 a43b d2c7 fdba 3d9d c63b c9d2 c73c
000001f0: 8012 78bc 964d 29bb 5597 91bc fca8 923b

network_body._body_endoder.seq_layers.2.weight f4 [128, 128]
-0.18427308 -0.008580909 0.100064725 0.0023150032 0.081063226 0.083357476 -0.055433527 -0.0015503832
-0.08008695 0.10704659 0.06670531 -0.13260545 0.08374186 0.012997438 -0.1536876 -0.06809598
0.011167188 -0.016557626 0.004446345 0.119115956 -0.040287957 -0.1055956 -0.05122572 -0.029706094
-0.075931855 -0.17449668 0.030323302 -0.077981785 -0.03442293 -0.2161072 0.046895467 -0.14449054
-0.0049173078 0.17724152 -0.13293877 -0.021677334 0.11964472 0.21024132 -0.2965705 -0.053232286
0.07746591 -0.08142837 -0.024480972 -0.17281522 0.0012122917 -0.042776924 0.06499451 -0.09063705
-0.08701894 -0.0055498886 0.12576604 -0.074518 -0.057160597 0.07911695 0.06062265 -0.034134634
0.024548875 0.22095768 -0.09659169 0.2702746 0.15454893 0.14848983 -0.08059208 -0.024280157
-0.040421326 0.15759823 -0.019506367 0.095806256 -0.03253451 0.038009852 0.060728822 0.013486729
0.121418916 -0.11294166 0.01781876 0.08495852 -0.0039837393 0.08073492 -0.04599355 -0.12760152
-0.07760097 0.045524325 0.12785575 0.06286727 -0.061839618 -0.13334332 -0.023261854 -0.13102672
0.04899745 0.029155314 -0.040353093 0.09627383 -0.2812529 -0.06997301 0.10488438 -0.26835826
0.15985732 -0.123755306 0.033644628 0.15308973 0.12600656 0.03683926 0.096702375 -0.17849337
0.11782642 0.006197783 -0.17017005 -0.06276074 0.02343698 -0.024529075 0.07088433 0.061640292
-0.13910589 0.036140643 -0.10045055 0.044943452 0.08528553 -0.034515526 -0.037461355 0.02524815
0.096680835 0.0485381 0.17458172 0.08334642 0.20332599 0.0024606946 0.22187115 0.07288702
-0.13521194 -0.017619353 0.10855965 0.15580767 0.033479914 0.014869943 -0.02741274 0.24383096
0.10244648 0.04246761 -0.12671863 0.03159874 -0.051257763 -0.01401534 0.063863054 -0.06462466
-0.048452727 -0.005287425 -0.087469555 0.07467665 -0.091643624 0.08335831 -0.09057926 -0.045240644
0.02942585 0.04184369 0.101094045 -0.13743924 0.1058026 0.13392234 -0.07125354 0.16710617
-0.12631728 -0.06519064 0.17311926 -0.032035984 0.017023018 -0.089534126 0.042883914 0.17940398
0.23419107 0.09194955 0.09347826 -0.023920892 -0.076243564 0.0071777203 -0.07845696 0.021700725
0.027987301 -0.09037233 -0.020732068 0.08804453 0.01677006 -0.1803329 -0.014365763 -0.05040333
0.08642122 0.053152647 -0.07733569 -0.1927104 -0.086909845 -0.030760258 -0.035652053 -0.09732425
-0.04901543 -0.013397547 0.045260094 0.1659894 -0.055767562 0.14901827 0.19970727 0.025949908
-0.123530604 0.17097461 -0.18123282 -0.024786562 0.013900449 0.11319864 -0.05480743 -0.00883852
-0.09453809 -0.21058388 -0.021681428 -0.018069891 0.026500871 0.20048268 -0.004927314 0.10201857
-0.0588907 0.016433358 -0.0119752595 -0.11143656 0.22133972 -0.049765293 0.13723873 0.18390721
-0.09475283 0.06291789 0.098538406 -0.091328494 -0.1550571 -0.14289668 0.011293623 -0.022073977
-0.09188643 -0.00766185 0.04006442 0.031037295 0.022390103 -0.046376668 0.2196543 0.05202458
0.02251009 -0.12835479 -0.218276 -0.109797716 0.026817178 -0.023028255 0.002894062 0.09036489
-0.012282907 0.06272235 -0.10659126 0.09438249 -0.028525924 -0.10638769 -0.04261736 -0.017922569
00000000: 15b2 3cbe f196 0cbc bcee cc3d 4fb7 173b
00000010: 7a04 a63d 53b7 aa3d 440e 63bd 3a36 cbba
00000020: a004 a4bd 3e3b db3d cb9c 883d b9c9 07be
00000030: da80 ab3d 35f3 543c 4860 1dbe e875 8bbd
00000040: 95f6 363c dca3 87bc a5b2 913b 11f3 f33d
00000050: fc04 25bd 8242 d8bd 10d2 51bd 325a f3bc
00000060: 2982 9bbd 42af 32be 9368 f83c eab4 9fbd
00000070: 0fff 0cbd 354b 5dbe 7615 403d 54f5 13be
00000080: 5e21 a1bb cd7e 353e 1a21 08be aa94 b1bc
00000090: 4a08 f53d 8049 573e 17d8 97be 190a 5abd
000000a0: 72a6 9e3d ebc3 a6bd 528c c8bc 79f6 30be
000000b0: c2e5 9e3a db36 2fbd d71b 853d eb9f b9bd
000000c0: fc36 b2bd d7db b5bb d0c8 003e e59c 98bd
000000d0: 3b21 6abd 1108 a23d 754f 783d c2d0 0bbd
000000e0: b91a c93c bb42 623e ddd1 c5bd 6f61 8a3e
000000f0: 1342 1e3e b80d 183e 760d a5bd 2ee7 c6bc
00000100: d590 25bd 6e61 213e d1cb 9fbc 1236 c43d
00000110: e842 05bd 38b0 1b3d c9be 783d 71f7 5c3c
00000120: 7baa f83d f54d e7bd a6f8 913c bcfe ad3d
00000130: 078a 82bb 5a58 a53d bc63 3cbd f9a9 02be
00000140: 42ed 9ebd b777 3a3d 9eec 023e 8ec0 803d
00000150: 8a4b 7dbd 278b 08be a58f bebc de2b 06be
00000160: 8db1 483d 20d7 ee3c 4949 25bd 372b c53d
00000170: 6100 90be 024e 8fbd 9fcd d63d 4166 89be
00000180: a3b1 233e 6c73 fdbd f3ce 093d 8ec3 1c3e
00000190: dd07 013e c4e4 163d e50b c63d f7c6 36be
000001a0: fa4e f13d c616 cb3b 0f41 2ebe b488 80bd
000001b0: e9fe bf3c 33f1 c8bc ce2b 913d 887a 7c3d
000001c0: c671 0ebe 3608 143d 05b9 cdbd a016 383d
000001d0: 2eaa ae3d 2760 0dbd 1471 19bd 35d5 ce3c
000001e0: 9a00 c63d e3cf 463d 8dc5 323e 87b1 aa3d
000001f0: b034 503e 9b43 213b 3132 633e ca45 953d
00000200: 0075 0abe 7656 90bc 8654 de3d 0c8c 1f3e
00000210: 3c22 093d 10a1 733c af90 e0bc d3ae 793e
00000220: 76cf d13d 84f2 2d3d 87c2 01be ae6d 013d
00000230: a9f3 51bd 99a0 65bc a2ca 823d ef59 84bd
00000240: 5e76 46bd 2342 adbb 3d23 b3bd 12f0 983d
00000250: a7af bbbd c3b7 aa3d 9e81 b9bd 414e 39bd
00000260: 7b0e f13c 4a64 2b3d 650a cf3d dfbc 0cbe
00000270: 09af d83d f022 093e 60ed 91bd e11d 2b3e
00000280: 5159 01be ac82 85bd 2d46 313e 2a38 03bd
00000290: db73 8b3c ab5d b7bd 0ba7 2f3d adb5 373e
000002a0: c9cf 6f3e 0c50 bc3d 8871 bf3d bff5 c3bc
000002b0: 9625 9cbd 1533 eb3b 0bae a0bd b8c5 b13c
000002c0: a045 e53c 2115 b9bd 4cd6 a9bc b150 b43d
000002d0: 5d61 893c 30a9 38be 615e 6bbc b973 4ebd
000002e0: 9cfd b03d 97b6 593d 2d62 9ebd e055 45be
000002f0: cafd b1bd f0fc fbbc e307 12bd f051 c7bd
00000300: 67c4 48bd 6381 5bbc a662 393d 20f9 293e
00000310: 876c 64bd 3f98 183e 1080 4c3e e794 d43c
00000320: 9dfd fcbd f813 2f3e 1995 39be 300d cbbc
00000330: b5be 633c b0d4 e73d c17d 60bd 71cf 10bc
00000340: 309d c1bd 4da3 57be 409d b1bc 4f07 94bc
00000350: 5b18 d93c 554b 4d3e 4e75 a1bb 1def d03d
00000360: 6037 71bd 409f 863c e133 44bc da38 e4bd
00000370: e1a6 623e b1d6 4bbd 4f88 0c3e 2c52 3c3e
00000380: c60d c2bd 18db 803d 81ce c93d 6f0a bbbd
00000390: 4ac7 1ebe 8253 12be e308 393c 7cd4 b4bc
000003a0: f42e bcbd 4210 fbbb 971a 243d ed41 fe3c
000003b0: 736b b73c 76f5 3dbd 0fed 603e ba17 553d
000003c0: 1567 b83c 706f 03be be83 5fbe a0dd e0bd
000003d0: b3af db3c c0a5 bcbc 4eaa 3d3b 3a11 b93d
000003e0: 3f3e 49bc 9374 803d 854c dabd 9b4b c13d
000003f0: 33af e9bc cae1 d9bd 8a8f 2ebd 5ad2 92bc

network_body._body_endoder.seq_layers.2.bias f4 [128]
0.0020096793 0.0034393712 -0.0016169917 -0.003932066 -0.0036780795 0.0031013342 -0.0003195805 -0.00093044626
0.009738564 0.005878576 0.0017999138 -0.004578985 0.0031637438 -0.0019023523 -0.0011535396 0.00406888
0.0012903711 -0.0014817598 0.0016287013 -0.008536076 -0.002373695 0.01732212 -0.00693951 0.00022382973
0.0020463238 -0.0018312356 -0.008554653 -0.0020829749 -0.0037219936 -0.0067710555 0.0017002557 -0.00070631516
0.011580212 -0.0010266332 -0.004547066 -0.004873603 -0.00587425 -0.0016066795 0.003203192 0.0006616822
0.004006365 -0.002471463 -0.006657098 -0.0029434422 -0.009570584 0.011229312 -0.0041805226 -0.0044356496
-0.0025784017 0.0026954412 -0.0056371144 -0.005840134 -0.0034667335 -0.0035312846 -0.00504843 -0.0003795119
-0.0035260965 0.005598655 -0.0024383592 -0.0021378489 0.0002234284 0.007298939 -0.00026808045 -0.00599247
-0.0030827203 0.0076123565 0.005365104 -0.004791479 0.002231636 -6.0430134e-06 0.010110325 -0.0007941414
-0.0032123155 -0.0001578826 -0.0052910354 0.011999381 -0.0021325613 -0.011495964 -0.008195879 -0.0044212006
-0.0021483242 -0.006025322 0.0012466921 -0.0007684867 -0.0062251063 -0.0043613603 0.0066799857 -0.001039759
-0.007521506 -0.0017986152 0.0025223314 -0.0011040344 0.010632497 -0.0039866026 -0.0012161162 -0.0015795814
0.0047229338 -0.01002285 -0.0008872284 -0.000720981 1.3185208e-05 0.0063767065 0.0035132736 -0.004152267
-0.00075212563 0.001915828 0.0105404565 -0.0015927898 0.00014256737 -0.0007655622 -0.0027141117 -0.0028914472
-0.0005983331 -0.0008480482 -0.004406116 0.0009856973 0.00963798 -0.0030939975 0.007570652 0.0063420706
-0.005021688 -0.0073487894 -0.0022441347 -0.0017108407 -0.002155139 0.00057946437 0.016643705 -0.0024946013
00000000: d3b4 033b 1367 613b 3df1 d3ba 8fd8 80bb
00000010: ef0b 71bb c13f 4b3b 5e8d a7b9 31e9 73ba
00000020: 7f8e 1f3c 12a1 c03b 16eb eb3a 4f0b 96bb
00000030: d056 4f3b 5a58 f9ba 5e32 97ba 3d54 853b
00000040: ab21 a93a 9c37 c2ba 267a d53a e6da 0bbc
00000050: fe8f 1bbb 1ee7 8d3c d464 e3bb d6b3 6a39
00000060: 9e1b 063b 1206 f0ba d128 0cbc 8582 08bb
00000070: b1ec 73bb bbdf ddbb 1ddb de3a 0228 39ba
00000080: eeba 3d3c 1890 86ba 8eff 94bb bfb2 9fbb
00000090: c87c c0bb 3897 d2ba a5ec 513b be74 2d3a
000000a0: d347 833b 45f8 21bb c923 dabb c4e6 40bb
000000b0: f0cd 1cbc 26fb 373c c4fc 88bb ed58 91bb
000000c0: 67fa 28bb 00a6 303b 8bb7 b8bb 985e bfbb
000000d0: 2332 63bb 206d 67bb 4d6d a5bb 3af9 c6b9
000000e0: 1516 67bb ec74 b73b e1cc 1fbb 271b 0cbb
000000f0: 1b48 6a39 f02b ef3b 268d 8cb9 7b5c c4bb
00000100: 7707 4abb 1371 f93b c1cd af3b d701 9dbb
00000110: a440 123b 17c5 cab6 c7a5 253c ed2d 50ba
00000120: b685 52bb 4a8d 25b9 6c60 adbb 0d99 443c
00000130: 71c2 0bbb 9159 3cbc 0248 06bc b8df 90bb
00000140: e6ca 0cbb 1070 c5bb 0c68 a33a 4574 49ba
00000150: fafb cbbb bee9 8ebb c8e3 da3b 8648 88ba
00000160: f776 f6bb 83bf ebba b34d 253b 3fb5 90ba
00000170: ed33 2e3c 0ca2 82bb 1766 9fba f509 cfba
00000180: d7c2 9a3b e136 24bc e494 68ba 3700 3dba
00000190: 0a36 5d37 b1f3 d03b f33e 663b bd0f 88bb
000001a0: 4c2a 45ba 851c fb3a e1b1 2c3c 28c5 d0ba
000001b0: 237e 1539 02b0 48ba 3ddf 31bb 6f7e 3dbb
000001c0: 74d9 1cba 8d4f 5eba 2e61 90bb 8332 813a
000001d0: 9ee8 1d3c aac4 4abb 3b13 f83b 25d1 cf3b
000001e0: f98c a4bb 1dce f0bb 5512 13bb 4a3e e0ba
000001f0: 3c3d 0dbb 32e7 173a 6158 883c 777c 23bb

action_model._continuous_distribution.log_sigma f4 [1, 2]
-0.43021202 -0.25373664
00000000: c044 dcbe c5e9 81be

action_model._continuous_distribution.mu.weight f4 [2, 128]
0.11473417 0.024180794 0.0027721068 -0.014565129 -0.008639952 -0.014086185 -0.029273666 -0.04052124
0.0894518 -0.09358993 0.03469379 0.018017441 -0.064343065 0.034828678 0.012862576 -0.0452882
-0.07337748 0.024060724 0.05398079 0.0070432834 -0.017729627 -0.121059984 -0.0015181093 -0.02563103
0.015912095 0.02949353 -0.006191827 -0.03626321 0.07189524 0.0028024341 0.030189395 -0.0048365477
-0.08195849 0.0076207197 0.008491172 0.0039520334 -0.0037141445 0.020722896 0.026302967 -0.08185894
-0.045687027 0.011415209 0.006366463 0.041322917 0.0064837956 -0.055886276 0.03458824 -0.012065837
-0.02343669 0.020758683 0.0069094 0.008094465 -0.0061878203 -0.017131694 0.044320337 0.010762488
0.03293099 -0.006396481 -0.022584423 0.029949607 0.03330759 0.07149349 -0.048039652 0.0002832268
-0.037457287 -0.07892577 -0.120810755 -0.0010723618 -0.015541637 0.0016832232 0.057362705 0.021524271
0.020160861 -0.031096848 -0.00985344 -0.050652422 -0.018051833 -0.005604926 0.06039578 -0.012535178
0.028826619 -0.016054448 0.00024075422 0.005793564 0.0047777225 -0.02525278 0.10484163 -0.03348174
0.0028235363 -0.010413264 0.07975574 0.023170609 -0.060837697 0.018344041 -0.01614479 -0.04529475
-0.013366866 0.08815567 0.04305523 0.011417913 -0.013114719 0.033269312 -0.016621478 0.0023787732
-0.044180114 -0.028487893 0.05344797 0.036923964 0.013680837 0.022778787 -0.007742535 -0.050510168
-0.0267867 0.009437097 -0.006855417 -0.042859517 0.08511538 0.022873288 0.09716392 -0.053015087
0.0018837348 -0.014574645 -0.014408493 0.037525903 0.03729525 0.01595719 -0.08763855 0.015001448
0.0060102 0.0054728254 -0.011895783 0.026390906 -0.0053431536 -0.00017651627 -0.015371854 -0.0093236705
0.0009722971 -0.014462078 -0.0058094063 -0.0024522303 0.0076255975 0.006544457 -0.017367579 -0.041744214
0.0056031174 -0.007124654 0.016579188 0.020206524 9.9577126e-05 0.041808467 0.0016056192 -0.011838302
-0.0081813 0.009194655 0.01786493 0.0070785093 -0.0045165354 0.0060951966 0.0054955143 0.016086841
0.017605122 -0.00033743944 -0.0009559945 0.0005836739 0.027023599 -0.004157726 -0.008695967 0.019403553
0.013885013 -0.016615754 -0.0017352798 0.027338875 -0.017224124 0.027975684 -0.0144436695 0.012405781
0.0025969034 0.03601161 0.0098871505 -0.0031737736 0.0024648635 0.00372196 0.0086458195 -0.017059779
0.021188496 -0.032208234 0.008932814 0.00952639 -0.02161456 -0.009320898 -0.014800421 0.022308536
-0.005132214 -0.009516929 0.01561535 -0.008646839 -0.004903654 0.023921305 -0.003777085 -0.0068920804
0.008489351 -0.016877253 0.024821443 0.007305337 0.0018322049 0.021648077 -0.03612289 0.012041751
-0.0013860634 0.012593614 0.015022692 -0.004705964 0.00049082853 0.015462507 0.009038625 -0.003991312
-0.006713381 -0.009569318 -0.0144525515 0.00072001305 -0.0052464604 0.029841376 -0.013238064 0.008768646
-0.0080861915 0.010640279 0.0154585345 -0.0026080615 0.005874877 -0.0031189066 0.00039011467 -0.0017302767
-0.003945059 -0.005233815 0.039762508 0.011043463 -0.02138878 -0.014241522 -0.01012559 0.03209544
-0.011224241 0.015457043 0.017125707 0.010126621 0.0043263757 0.012429887 0.01637098 0.017962959
-0.0044543035 -0.0033236549 -0.0013093335 0.0132028535 0.00859483 -0.029609097 -0.0004454492 -0.013547702
00000000: c0f9 ea3d cd16 c63c 3cac 353b 94a2 6ebc
00000010: 968e 0dbc bec9 66bc 54cf efbc 9af9 25bd
00000020: 8132 b73d 14ac bfbd 131b 0e3d 5099 933c
00000030: 4cc6 83bd 84a8 0e3d 8ebd 523c 1f80 39bd
00000040: ef46 96bd ff1a c53c f61a 5d3d 58cb e63b
00000050: b93d 91bc 4cee f7bd 4cfb c6ba 2af8 d1bc
00000060: 155a 823c 6a9c f13c cfe4 cabb bb88 14bd
00000070: d03d 933d 0ba9 373b c04f f73c e77b 9ebb
00000080: dad9 a7bd 3bb7 f93b 8f1e 0b3c 0f80 813b
00000090: 0169 73bb 10c3 a93c 5279 d73c a9a5 a7bd
000000a0: 5222 3bbd db06 3b3c c39d d03b 3842 293d
000000b0: 0576 d43b 02e9 64bd 66ac 0d3d caaf 45bc
000000c0: 4dfe bfbc 1d0e aa3c 4068 e23b a69e 043c
000000d0: 33c3 cabb c457 8cbc 3e89 353d 2555 303c
000000e0: a5e2 063d 9299 d1bb f802 b9bc e158 f53c
000000f0: 8a6d 083d 2e6b 923d 3ac5 44bd 0f7e 9439
00000100: d06c 19bd d6a3 a1bd a16b f7bd 7e8e 8cba
00000110: 5aa2 7ebc 999f dc3a 28f5 6a3d ab53 b03c
00000120: 6428 a53c d1be febc 5370 21bc ea78 4fbd
00000130: 70e1 93bc 87a9 b7bb 9161 773d 5960 4dbc
00000140: cd25 ec3c 9e84 83bc f872 7c39 f0d7 bd3b
00000150: 718e 9c3b ebde cebc 35b7 d63d 2624 09bd
00000160: 140b 393b 659c 2abc fa56 a33d 4ad0 bd3c
00000170: f330 79bd 3e46 963c 1442 84bc fd86 39bd
00000180: b300 5bbc f68a b43d ae5a 303d 3312 3b3c
00000190: 1edf 56bc 6745 083d c429 88bc 31e5 1b3b
000001a0: 35f6 34bd 715f e9bc 42ec 5a3d 953d 173d
000001b0: 9725 603c 949a ba3c 17b5 fdbb c0e3 4ebd
000001c0: c86f dbbc 0e9e 1a3c 68a3 e0bb 768d 2fbd
000001d0: f950 ae3d c360 bb3c e1fd c63d 5926 59bd
000001e0: a7e7 f63a 7eca 6ebc 9a11 6cbc c3b4 193d
000001f0: e7c2 183d a7b8 823c d77b b3bd a2c8 753c
00000200: 36f1 c43b 6355 b33b 88e6 42bc be31 d83c
00000210: 9f15 afbb 3a17 39b9 3bda 7bbc 4fc2 18bc
00000220: c1e1 7e3a 5af2 6cbc d55c bebb 99b5 20bb
00000230: 26e0 f93b e272 d63b 7446 8ebc fbfb 2abd
00000240: 5b9a b73b ee75 e9bb 14d1 873c 2788 a53c
00000250: 10d4 d038 5b3f 2b3d a473 d23a 70f5 41bc
00000260: dc0a 06bc 2ea5 163c 7959 923c d7f2 e73b
00000270: 72ff 93bb 37ba c73b b713 b43b 8dc8 833c
00000280: 9e38 903c 5bea b0b9 b49b 7aba b101 193a
00000290: 9860 dd3c 893d 88bb 8779 0ebc 33f4 9e3c
000002a0: f77d 633c c31d 88bc 5472 e3ba c7f5 df3c
000002b0: 9b19 8dbc 432d e53c 24a5 6cbc 9e41 4b3c
000002c0: cf30 2a3b e980 133d b7fd 213c 16ff 4fbb
000002d0: 8c89 213b 20ec 733b 32a7 0d3c f3c0 8bbc
000002e0: 7f93 ad3c c8ec 03bd f05a 123c 9314 1c3c
000002f0: 0511 b1bc aeb6 18bc 777d 72bc 64c0 b63c
00000300: 222c a8bb e5ec 1bbc 86d7 7f3c 79ab 0dbc
00000310: d5ae a0bb 9df6 c33c f988 77bb f6d6 e1bb
00000320: eb16 0b3c 2a42 8abc 5756 cb3c 9c61 ef3b
00000330: 9826 f03a 4f57 b13c 98f5 13bd c44a 453c
00000340: 92ac b5ba 7255 4e3c bd21 763c 7d34 9abb
00000350: f2aa 003a 7456 7d3c be16 143c 8dc9 82bb
00000360: ecfb dbbb a1c8 1cbc 65ca 6cbc 42bf 3c3a
00000370: 80ea abbb e775 f43c 77e4 58bc 5eaa 0f3c
00000380: f27b 04bc 9154 2e3c cb45 7d3c 03ec 2abb
00000390: 0a82 c03b 9266 4cbb 4e88 cc39 74ca e2ba
000003a0: 8e45 81bb 6c80 abbb 03de 223d a4ef 343c
000003b0: 8637 afbc 4655 69bc cde5 25bc 8276 033d
000003c0: e1e5 37bc 8a3f 7d3c 364b 8c3c 21ea 253c
000003d0: 45c4 8d3b baa6 4b3c 6f1c 863c 0e27 933c
000003e0: 68f5 91bb add1 59bb f19d abba c850 583c
000003f0: 54d1 0c3c c78e f2bc 2e8b e9b9 2ef7 5dbc

action_model._continuous_distribution.mu.bias f4 [2]
-3.4974913e-05 -0.003786785
00000000: 07b2 12b8 b62b 78bb

exp_avg f4 [128, 6]
-6.927563e-10 7.315341e-10 -3.3251715e-09 6.877675e-10 2.2987237e-09 -6.554546e-08 9.2965376e-05 -2.486534e-05
0.00048101798 -1.2604736e-05 -4.212879e-05 0.0012012533 7.593518e-05 -9.5925294e-05 0.002946412 -4.8350714e-05
-0.00016160248 0.0046079075 3.826607e-06 5.8263475e-07 -3.105607e-05 2.9992688e-07 1.0024431e-06 -2.858357e-05
1.9657331e-05 0.00017951467 -0.0060099307 9.060149e-05 0.0003028171 -0.008634479 0.00025724247 -8.823299e-05
0.0015170078 -4.4535227e-05 -0.00014885 0.0042442866 2.4046607e-05 -0.0002003719 0.0062484173 -0.00010120441
-0.00033825525 0.009644961 -0.00022077825 3.5771773e-05 -7.8342564e-05 1.8531873e-05 6.193907e-05 -0.0017661208
-8.333701e-05 0.0004691809 -0.014377465 0.00023762789 0.0007942229 -0.022646353 0.00054761575 -0.00023567877
0.0047258297 -0.00011942448 -0.00039915208 0.011381365 0.00024933342 8.665478e-05 -0.004047891 4.2683907e-05
0.00014266244 -0.004067852 -4.182471e-05 -0.00010672003 0.0036282376 -5.3586744e-05 -0.00017910282 0.00510691
6.055768e-07 -1.0350788e-05 0.00010071679 -6.97208e-06 -2.3302753e-05 0.0006644516 0.00013704979 -0.00010270048
0.0028744976 -5.285848e-05 -0.00017666878 0.0050375066 2.5815581e-05 -7.5023185e-05 0.0016756392 -3.8050635e-05
-0.00012717661 0.0036262935 -0.0003242819 0.00026866398 -0.0070173526 0.00013612832 0.00045498135 -0.012973272
-7.2737794e-07 1.1063878e-06 -3.4294855e-05 5.02956e-07 1.68103e-06 -4.7932615e-05 9.686639e-07 3.677579e-06
-2.2373595e-05 2.1479598e-06 7.1791223e-06 -0.00020470443 -6.553116e-05 1.5503376e-05 -3.805838e-05 6.6169955e-06
2.211593e-05 -0.0006306117 -0.00018030139 0.00040202422 -0.012163645 0.00020293644 0.00067827397 -0.019340206
-5.265587e-06 0.00030106734 -0.009544598 0.00015231433 0.0005090798 -0.0145158265 -9.7499425e-05 9.930958e-05
-0.0025928451 5.0215604e-05 0.0001678355 -0.0047856374 3.613161e-24 3.514806e-24 -9.343316e-24 2.3995614e-24
8.020049e-24 -2.2868247e-22 -0.00020007325 -0.00022940445 0.008583083 -0.00011521834 -0.00038509417 0.010980515
-0.00013481316 0.00037469086 -0.0108212195 0.00018876654 0.00063091394 -0.017989792 -3.1120428e-05 -0.00021576122
0.0073495847 -0.00010992739 -0.00036741007 0.010476274 -0.00018232159 7.717182e-05 -0.0013794559 3.9789786e-05
0.00013298928 -0.0037920363 -0.00025421215 0.00039737308 -0.011240138 0.00019965238 0.0006672976 -0.019027222
-2.4353604e-13 -4.802377e-13 -5.2215203e-12 -4.9163803e-13 -1.6432005e-12 4.6853976e-11 -0.0010668328 0.0008737829
-0.022465121 0.00044165307 0.0014761362 -0.042090315 -3.9131202e-05 4.7398375e-05 -0.0011455605 2.4954035e-05
8.340383e-05 -0.002378164 5.7608708e-05 -8.031498e-05 0.002227749 -4.056876e-05 -0.00013559287 0.0038662765
3.1581421e-06 3.8486345e-05 -0.001218556 1.947454e-05 6.5089705e-05 -0.0018559583 0.00014959852 -0.0008289186
0.025315061 -0.00041819643 -0.0013977371 0.03985487 8.069786e-05 -0.00015538203 0.0044083577 -7.8558514e-05
-0.00026256585 0.0074867643 1.2844913e-11 3.576111e-10 -1.27006645e-08 1.8105845e-10 6.051514e-10 -1.7255191e-08
7.032415e-05 0.000690161 -0.022280777 0.00034957033 0.001168368 -0.033314675 0.00064337946 -0.0011522742
0.033146314 -0.0005837778 -0.0019511594 0.05563508 -0.00036081386 -0.00023224641 0.007989921 -0.00011490921
-0.00038406067 0.010951053 -0.00013172426 0.00011048623 -0.0026267383 5.6508252e-05 0.0001888674 -0.005385337
4.262822e-05 -0.00015833197 0.004695086 -8.0006605e-05 -0.000267406 0.0076247714 -3.9403523e-16 6.3620814e-16
-1.9757758e-14 3.0901946e-16 1.0328349e-15 -2.9450096e-14 4.104084e-05 0.00023561873 -0.007874125 0.00011896065
00000000: 646c 3eb0 2315 4930 0981 64b1 560d 3d30
00000010: 93f7 1d31 ffc1 8cb3 68f6 c238 e995 d0b7
00000020: 2431 fc39 ee78 53b7 72b3 30b8 5f73 9d3a
00000030: 643f 9f38 802b c9b8 9718 413b 2fcc 4ab8
00000040: d673 29b9 eefd 963b 4e66 8036 5b66 1c35
00000050: 3442 02b8 a305 a134 af8b 8635 c0c6 efb7
00000060: cce5 a437 1a3c 3c39 f4ee c4bb 4e01 be38
00000070: 6cc3 9e39 a177 0dbc 80de 8639 ba09 b9b8
00000080: 56d6 c63a 56cb 3ab8 9e14 1cb9 a813 8b3b
00000090: b2b7 c937 ec1a 52b9 86bf cc3b b43d d4b8
000000a0: da57 b1b9 e605 1e3c b680 67b9 a609 1638
000000b0: d84b a4b8 e574 9b37 49e5 8138 2e7d e7ba
000000c0: 37c5 aeb8 65fc f539 758f 6bbc c02b 7939
000000d0: 6633 503a d884 b9bc df8d 0f3a 8a20 77b9
000000e0: 22db 9a3b 8873 fab8 4945 d1b9 e878 3a3c
000000f0: f7b8 8239 6eba b538 2ca4 84bb 7f07 3338
00000100: a897 1539 9e4b 85bb f16c 2fb8 e1ce dfb8
00000110: bac7 6d3b 54c2 60b8 8ccd 3bb9 de57 a73b
00000120: ec8e 2235 4ca8 2db7 ea37 d338 b6f1 e9b6
00000130: 487a c3b7 982e 2e3a 06b5 0f39 e660 d7b8
00000140: 1162 3c3b 5cb4 5db8 2a40 39b9 ab11 a53b
00000150: 8a8e d837 c455 9db8 1fa1 db3a 8f98 1fb8
00000160: b65a 05b9 1ca7 6d3b 6104 aab9 78db 8c39
00000170: d2f1 e5bb abbd 0e39 908a ee39 d98d 54bc
00000180: 0841 43b5 327f 9435 d2d7 0fb8 e002 0735
00000190: c09f e135 410b 49b8 0a03 8235 53cc 7636
000001a0: eeae bbb7 ab25 1036 31e4 f036 eda5 56b9
000001b0: c66d 89b8 3f0d 8237 e0a0 1fb8 8f07 de36
000001c0: 9985 b937 a34f 25ba 490f 3db9 c7c6 d239
000001d0: 064a 47bc 56cb 5439 32ce 313a 5a6f 9ebc
000001e0: 0caf b0b6 93d8 9d39 f260 1cbc 91b6 1f39
000001f0: c473 053a cad3 6dbc 9b78 ccb8 6d44 d038
00000200: b9ec 29bb 989e 5238 00fd 2f39 d6d0 9cbb
00000210: 03c7 8b18 f4f8 8718 dcb9 3499 36a8 3918
00000220: 5c21 1b19 e63a 8a9b c1ca 51b9 4a8c 70b9
00000230: 0fa0 0c3c 60a1 f1b8 77e6 c9b9 9ee7 333c
00000240: a25c 0db9 2872 c439 7c4b 31bc a2ef 4539
00000250: eb63 253a 545f 93bc 4e87 02b8 f63d 62b9
00000260: c9d4 f03b d188 e6b8 f2a0 c0b9 aea4 2b3c
00000270: 942d 3fb9 4ed7 a138 dcce b4ba f5e3 2638
00000280: 0a73 0b39 d083 78bb c747 85b9 8356 d039
00000290: 8e28 38bc c759 5139 95ed 2e3a fade 9bbc
000002a0: 3e19 89aa c62c 07ab 46b7 b7ac 4162 0aab
000002b0: 8a42 e7ab e310 4e2e f8d4 8bba 940e 653a
000002c0: c608 b8bc ac8d e739 e97a c13a e566 2cbd
000002d0: cf20 24b8 9ecd 4638 a226 96ba 6254 d137
000002e0: 17e9 ae38 f9da 1bbb e1a0 7138 c76e a8b8
000002f0: 6dff 113b 6028 2ab8 ef2d 0eb9 5b61 7d3b
00000300: 78f0 5336 666c 2138 f4b7 9fba 425d a337
00000310: c580 8838 a043 f3ba 8cdd 1c39 c94b 59ba
00000320: 8861 cf3c 6041 dbb9 4634 b7ba dc3e 233d
00000330: 553c a938 0cee 22b9 fc73 903b c8bf a4b8
00000340: fea8 89b9 8853 f53b 58f8 612d 4a99 c42f
00000350: 1d32 5ab2 6c13 472f be57 2630 9138 94b2
00000360: fe7a 9338 eceb 343a 2d86 b6bc 8946 b739
00000370: ed23 993a f874 08bd 77a8 283a e807 97ba
00000380: 6ec4 073d aa08 19ba 0cbe ffba 9ce1 633d
00000390: 9e2b bdb9 2c87 73b9 28e8 023c 6afb f0b8
000003a0: c05b c9b9 0c6c 333c 761f 0ab9 d8b4 e738
000003b0: 5b25 2cbb 4603 6d38 b50a 4639 7b77 b0bb
000003c0: b4cb 3238 ea05 26b9 3cd9 993b 38c9 a7b8
000003d0: a032 8cb9 38d9 f93b 5625 e3a5 e05f 3726
000003e0: 4af6 b1a8 3923 b225 e2d8 9426 a6a1 04a9
000003f0: 4423 2c38 6c10 7739 7902 01bc 837a f938

exp_avg_sq f4 [128, 6]
7.3146007e-16 1.6708517e-17 6.892624e-16 3.7213883e-17 4.1571382e-16 3.379917e-13 5.353722e-06 1.6311536e-06
0.0010923705 4.185373e-07 4.6754535e-06 0.0038013302 6.814812e-07 2.592385e-07 0.00018385451 6.725647e-08
7.513192e-07 0.0006108517 3.6230976e-09 1.2850031e-09 9.0225217e-07 3.300962e-10 3.687487e-09 2.9980754e-06
4.808449e-07 3.128586e-07 0.00026560668 8.059419e-08 9.003138e-07 0.0007319915 1.013752e-06 4.191545e-07
0.0003151854 1.0857489e-07 1.2128868e-06 0.0009861253 1.263242e-06 9.505734e-07 0.000816398 2.4495733e-07
2.7364047e-06 0.002224803 5.611491e-07 2.3995125e-07 0.00017981156 6.245924e-08 6.977296e-07 0.00056728296
3.871415e-05 1.577818e-05 0.0118355 4.0485024e-06 4.5225643e-05 0.03677026 3.207895e-06 1.1963446e-06
0.0009080252 3.069635e-07 3.4290767e-06 0.0027879735 3.886049e-06 1.5664439e-06 0.0010897227 4.0485125e-07
4.52257e-06 0.0036770338 1.4345677e-06 6.8735994e-07 0.0005206037 1.7694849e-07 1.9766837e-06 0.0016071234
2.0365098e-08 1.1558501e-08 8.7385104e-07 4.332468e-09 4.8397737e-08 3.9349346e-05 2.1794133e-06 7.244828e-07
0.00046936414 1.8660441e-07 2.0845482e-06 0.001694821 1.8296724e-06 7.5777723e-07 0.0005863382 1.9443256e-07
2.1719957e-06 0.0017659192 1.8365618e-06 1.0592952e-06 0.0008795689 2.719453e-07 3.0378862e-06 0.0024699238
3.8789938e-10 2.4084437e-10 8.227952e-08 6.771828e-11 7.5647805e-10 6.150462e-07 8.844104e-09 2.3014386e-09
8.576689e-08 1.4235975e-09 1.5902893e-08 1.2929704e-05 1.7617434e-06 6.4110696e-07 0.0004101974 1.6600178e-07
1.8543993e-06 0.0015076983 3.7881803e-06 2.6784187e-06 0.002293296 6.8885265e-07 7.695145e-06 0.00625645
7.1649774e-06 3.0520312e-06 0.002323897 7.836446e-07 8.75406e-06 0.0071173934 1.8234252e-06 6.9592807e-07
0.00050609413 1.788562e-07 1.9979943e-06 0.0016244497 3.78e-43 0.0 3.9e-43 4e-45
2.97e-43 1.9656e-41 2.6120347e-06 1.5684831e-06 0.0012688938 4.044096e-07 4.517636e-06 0.0036730203
2.2183951e-05 9.737835e-06 0.0072389836 2.505869e-06 2.799297e-05 0.022759393 2.7689057e-06 1.031878e-06
0.0008052375 2.6521303e-07 2.9626815e-06 0.0024087802 5.670723e-07 1.978443e-07 0.00015505697 5.067811e-08
5.6612214e-07 0.00046028054 1.3129456e-05 6.3697657e-06 0.0047195 1.6455391e-06 1.8382252e-05 0.014945498
1.9721438e-21 1.7512572e-22 1.0774792e-20 1.4789249e-22 1.652102e-21 1.3432255e-18 4.2131698e-05 1.7706732e-05
0.012980626 4.549194e-06 5.0818828e-05 0.041317742 9.661922e-08 3.5217415e-08 3.0771145e-05 9.296453e-09
1.0385007e-07 8.443433e-05 5.9720173e-07 2.6860135e-07 0.00020633492 6.898277e-08 7.7060423e-07 0.0006265322
1.4482286e-07 7.072699e-08 5.6442517e-05 1.8154335e-08 2.02801e-07 0.0001648852 6.877557e-05 3.0998504e-05
0.023516022 7.967056e-06 8.899964e-05 0.07236023 5.189579e-06 2.0583582e-06 0.0015500898 5.2833764e-07
5.9020367e-06 0.0047985786 2.4873342e-19 6.6176336e-19 7.5547033e-16 1.697858e-19 1.8966708e-18 1.5420677e-15
5.054667e-05 2.145276e-05 0.016319305 5.504283e-06 6.148805e-05 0.049992245 0.00014721684 6.109041e-05
0.047265384 1.56733e-05 0.00017508565 0.14235148 5.5411052e-05 2.257566e-05 0.016058622 5.81181e-06
6.492343e-05 0.052785292 6.5692752e-06 2.2816384e-06 0.0016175553 5.8713437e-07 6.558858e-06 0.0053326027
4.696443e-06 1.9060251e-06 0.0014367757 4.8933873e-07 5.4663788e-06 0.0044443877 1.0797642e-29 8.13813e-30
5.621113e-27 2.1850621e-30 2.4409238e-29 1.9845691e-26 4.3108416e-06 2.0520579e-06 0.0016008288 5.274811e-07
00000000: 3ad4 5226 df1b 9a23 97aa 4626 669e 2b24
00000010: 88a4 ef25 bd45 be2a 1fa4 b336 03ee da35
00000020: df2d 8f3a 54b3 e034 d7e1 9c36 bd1f 793b
00000030: 08ef 3635 782d 8b34 12c9 4039 a36e 9033
00000040: 43ae 4935 9021 203a 35fa 7831 079c b030
00000050: 4c32 7235 e978 b52f f566 7d31 8b32 4936
00000060: 6913 0135 f5f6 a734 2041 8b39 2013 ad33
00000070: 18ad 7135 1ee3 3f3a 4110 8835 2808 e134
00000080: 783f a539 ad29 e933 79ca a235 e040 813a
00000090: aa8c a935 e82a 7f35 8b03 563a ae82 8334
000000a0: 13a3 3736 00ce 113b dfa1 1635 a6d2 8034
000000b0: cc8b 3c39 5521 8633 9d4b 3b35 b7b5 143a
000000c0: 0161 2238 625b 8437 afe9 413c 5fd8 8736
000000d0: aab0 3d38 6a9c 163d 3747 5736 1692 a035
000000e0: 8a08 6e3a becc a434 171f 6636 6fb6 363b
000000f0: e864 8236 9a3e d235 07d5 8e3a 555a d934
00000100: 95c0 9736 64fa 703b 5f8b c035 0483 3835
00000110: 1f79 083a 3bff 3d34 2ba7 0436 1da6 d23a
00000120: 53ef ae32 d392 4632 9692 6a35 cbdc 9431
00000130: e0dd 4f33 0a0b 2538 0942 1236 147a 4235
00000140: fd14 f639 6e5d 4834 44e4 0b36 c224 de3a
00000150: 1193 f535 0e6a 4b35 7eb4 193a 37c5 5034
00000160: 9ac2 1136 6a76 e73a c87f f635 1b2d 8e35
00000170: df92 663a e1ff 9134 7dde 4b36 72de 213b
00000180: fc3f d52f d567 842f a5b1 b033 01ea 942e
00000190: 69f0 4f30 a719 2535 c8f0 1732 5627 1e31
000001a0: d92e b833 62a8 c330 d59a 8832 a8ec 5837
000001b0: 0b75 ec35 8918 2c35 c30f d739 393e 3234
000001c0: ade4 f835 f69d c53a 7138 7e36 e2be 3336
000001d0: 1f4b 163b 98e9 3835 651a 0137 e802 cd3b
000001e0: b06a f036 7fd1 4c36 864c 183b a65b 5235
000001f0: 67de 1237 0639 e93b 6abc f435 d0cf 3a35
00000200: 67ab 043a 9e0b 4034 4815 0636 7deb d43a
00000210: 0e01 0000 0000 0000 1601 0000 0300 0000
00000220: d400 0000 cb36 0000 6a4a 2f36 ab84 d235
00000230: 0351 a63a a21d d934 3396 9736 0eb7 703b
00000240: ac17 ba37 af5f 2337 ff34 ed3b 802a 2836
00000250: 72d2 ea37 e871 ba3c 70d1 3936 0f7f 8a35
00000260: 9316 533a 9a62 8e34 7bd2 4636 a0dc 1d3b
00000270: e938 1835 076f 5434 ca96 2239 2ca9 5933
00000280: 9ef7 1735 cf51 f139 9646 5c37 dfbb d536
00000290: 09a6 9a3b 4bdc dc35 9633 9a37 f6dd 743c
000002a0: cf02 151d c9b6 531b b287 4b1e 82ca 321b
000002b0: 9aa8 f91c a039 c621 91b6 3038 eb88 9437
000002c0: b1ac 543c 47a5 9836 4d26 5538 cb3c 293d
000002d0: fa7c cf33 f541 1733 4410 0138 3cb6 1f32
000002e0: 2e04 df33 5612 b138 644f 2035 4a34 9034
000002f0: 9c5b 5839 ae23 9433 85db 4e35 dd3d 243a
00000300: 9b80 1b34 93e2 9733 b1bc 6c38 cef1 9b32
00000310: 84c1 5934 09e5 2c39 9a3b 9038 6404 0238
00000320: aca4 c03c 3faa 0537 51a5 ba38 9a31 943d
00000330: 2522 ae36 5322 0a36 622c cb3a 16d3 0d35
00000340: 1c0a c636 653d 9d3b 88d3 9220 6d51 4321
00000350: dfbf 5926 9c72 4820 19f3 0b22 423c de26
00000360: 1302 5438 74f5 b337 10b0 853c 6eb1 b836
00000370: 25f3 8038 abc4 4c3d 385e 1a39 aa1d 8038
00000380: 5999 413d 287a 8337 3297 3739 96c4 113e
00000390: 2a69 6838 dc60 bd37 5f8d 833c 1103 c336
000003a0: 8027 8838 6435 583d a56d dc36 401e 1936
000003b0: 2604 d43a 919b 1d35 2914 dc36 1dbd ae3b
000003c0: 2396 9d36 86d2 ff35 3152 bc3a 1a5b 0335
000003d0: d66b b736 3aa2 913b 9000 5b0f 960f 250f
000003e0: dcac de13 f745 310e 018a f70f ce8a c414
000003f0: d9a5 9036 16b6 0936 e7d2 d13a 3a98 0d35

exp_avg f4 [128]
-1.5684413e-09 2.8744853e-05 0.00011026292 -6.839768e-07 -0.00020661502 0.0001015618 0.00023079492 -4.2261592e-05
-0.00054190616 0.00027234538 -9.7339886e-05 0.0001222036 1.5899699e-05 0.00012054284 8.6773805e-05 -0.00031043828
-1.1469826e-06 -4.898385e-06 -1.5089916e-05 -0.00046279305 -0.00034735026 -0.00011451582 -5.4721577e-24 0.00026275349
-0.00043047886 0.00025068747 -9.073988e-05 -0.00045530353 1.1211717e-12 -0.0010071818 -5.6907247e-05 9.251633e-05
-4.4411318e-05 0.00095368957 0.00017915132 -4.1290066e-10 -0.000797189 0.0013312952 0.00026204844 -0.00012886609
0.00018245363 -7.047134e-16 -0.0002712877 -9.8113465e-05 -0.0007512074 7.885101e-15 -2.7808866e-07 3.21978e-05
9.641706e-05 0.00060095405 -9.319445e-05 2.3804228e-15 -1.5543592e-14 -9.765848e-16 -1.1558227e-09 -3.4416243e-14
4.4956792e-05 -2.7376918e-05 0.00078018324 3.302972e-05 -1.1895099e-06 0.00031746321 0.000550831 -0.000166719
3.598401e-16 -7.2088696e-11 -0.00042678398 0.00017700513 9.682641e-11 -0.0003941619 -0.00023688664 -1.2888209e-11
7.340749e-10 1.7750645e-08 -0.00037105213 4.7007873e-20 6.1746105e-06 -2.6843093e-06 -1.1612655e-08 0.00043372097
-1.4166009e-05 -1.6373722e-05 -7.3305355e-06 0.00061143714 -0.00027306651 0.00037222885 0.0009348324 4.5978395e-06
-8.191714e-06 -0.0001610538 -4.2835645e-11 5.669793e-05 -9.781141e-05 4.0307064e-20 0.0010551082 3.698372e-05
-1.6387503e-07 0.00020398399 0.00011261869 -0.00065232 2.3087396e-06 0.00030238263 4.2203204e-13 0.00031334365
0.0013409099 0.00011437524 -8.889971e-05 0.000922468 0.00034476427 -1.5280637e-05 -0.000327793 -6.617639e-07
-0.00051760324 2.4347851e-20 -7.106376e-05 -4.703795e-14 2.6372656e-12 0.00024058626 -0.00015321802 0.0015644595
-0.00021097863 0.00013452453 0.00057395094 -0.00012486406 -6.7524685e-05 0.00018040495 0.0013495467 -4.345558e-05
00000000: 9f90 d7b0 1a21 f137 f43c e738 879a 37b5
00000010: cca6 58b9 94fd d438 8a01 7239 0a42 31b8
00000020: b50e 0eba 94c9 8e39 f422 ccb8 c723 0039
00000030: 5860 8537 f2cb fc38 55fa b538 52c2 a2b9
00000040: 06f2 99b5 cf5c a4b6 b22a 7db7 08a3 f2b9
00000050: 901c b6b9 3628 f0b8 a0b1 d398 2dc2 8939
00000060: e5b1 e1b9 b46e 8339 9a4b beb8 ceb5 eeb9
00000070: 78ca 9d2b 6a03 84ba b1af 6eb8 5405 c238
00000080: 4a46 3ab8 0601 7a3a 91da 3b39 9afe e2af
00000090: 73fa 50ba db7e ae3a 8c63 8939 3a20 07b9
000000a0: 0651 3f39 ac1e 4ba6 9e3b 8eb9 44c2 cdb8
000000b0: adec 44ba 9c0b 0e28 374c 95b4 200c 0738
000000c0: 8433 ca38 5889 1d3a 6471 c3b8 0d87 2b27
000000d0: 1501 8ca8 9fbd 8ca6 e5da 9eb0 3aff 1aa9
000000e0: fd8f 3c38 7ca7 e5b7 3685 4c3a 6489 0a38
000000f0: 40a7 9fb5 3171 a639 a565 103a 4ad1 2eb9
00000100: 076f cf25 5486 9eae fac1 dfb9 749a 3939
00000110: 6cec d42e 84a7 ceb9 c664 78b9 55bb 62ad
00000120: eec7 4930 157a 9832 c689 c2b9 08fd 5d1f
00000130: 802f cf36 1524 34b6 ff80 47b2 0b65 e339
00000140: 8caa 6db7 4d5a 89b7 d2f8 f5b6 da48 203a
00000150: 5e2a 8fb9 b627 c339 8a0f 753a 2447 9a36
00000160: 256f 09b7 8de0 28b9 a664 3cae f0ce 6d38
00000170: 1a20 cdb8 4058 3e1f 8e4b 8a3a f81e 1b38
00000180: a0f5 2fb4 89e4 5539 b32d ec38 7400 2bba
00000190: d8ef 1a36 1c89 9e39 3a95 ed2a 4648 a439
000001a0: 78c1 af3a bddc ef38 ab6f bab8 c8d1 713a
000001b0: 7ac1 b439 eb2e 80b7 a2db abb9 12a4 31b5
000001c0: c4af 07ba 7ef5 e51e 1108 95b8 10d7 53a9
000001d0: c194 392c e245 7c39 26a9 20b9 8d0e cd3a
000001e0: 253a 5db9 270f 0d39 3275 163a f1ed 02b9
000001f0: 0a9c 8db8 162b 3d39 46e3 b03a 1344 36b8

exp_avg_sq f4 [128]
1.9353424e-16 2.1766423e-06 3.4977415e-07 1.7166985e-09 4.1913825e-07 5.646548e-07 1.2739242e-06 3.248255e-07
2.1054622e-05 1.5963947e-06 2.1054714e-06 9.2023873e-07 2.25314e-08 9.704547e-07 1.0111659e-06 1.4142788e-06
3.5217604e-10 7.403546e-09 8.633076e-07 3.5824442e-06 4.075421e-06 9.30161e-07 1.3e-43 2.1031717e-06
1.3032026e-05 1.3792692e-06 2.63557e-07 8.557797e-06 7.6912787e-22 2.365855e-05 4.834707e-08 3.5875237e-07
9.441329e-08 4.1433468e-05 2.7476706e-06 8.829884e-19 2.8625569e-05 8.1510516e-05 3.0224865e-05 3.0534509e-06
2.5448542e-06 1.1363634e-29 2.7432152e-06 3.485887e-07 2.0093717e-05 1.2932493e-27 3.8584812e-11 1.3060347e-07
3.445618e-06 6.438247e-06 3.163423e-07 2.8735593e-27 7.69648e-27 5.9115986e-29 3.9943685e-17 5.558672e-26
5.7613324e-08 6.46631e-07 1.709153e-05 1.6328381e-06 4.3899055e-07 2.6252412e-05 3.7314155e-06 4.342083e-07
3.1864882e-31 5.912958e-20 4.3166065e-06 6.146257e-07 1.0825989e-19 2.6996252e-06 7.2177872e-06 2.8649923e-19
3.0087477e-17 4.2166723e-14 1.2421531e-05 3.1681576e-38 1.3640224e-08 2.0447941e-09 7.546042e-15 9.866757e-06
2.8835848e-06 5.2867574e-07 8.414326e-09 1.2863127e-05 2.4017784e-06 3.5575438e-06 2.0810823e-05 1.3812789e-09
2.116675e-09 1.2208124e-05 1.2174961e-20 1.2261984e-06 9.711933e-06 2.008292e-37 4.812841e-05 7.248721e-08
6.4449277e-09 4.2142992e-07 8.1688347e-07 9.385388e-06 4.997394e-11 4.1994786e-06 3.9667602e-23 1.1187093e-06
4.631313e-05 5.84047e-06 7.0672368e-06 5.015627e-05 4.022927e-06 5.679634e-09 6.8248255e-06 2.7249875e-10
1.01174155e-05 3.4564072e-36 7.927069e-07 2.6840097e-25 2.9561513e-20 5.4760244e-07 2.6391126e-07 0.00012287858
3.5518667e-06 6.853824e-07 2.7532218e-05 1.8771724e-06 3.7058317e-07 8.472692e-06 6.17232e-05 4.9373813e-08
00000000: 3a21 5f25 6e12 1236 98c8 bb34 f5f0 eb30
00000010: ec05 e134 c892 1735 b4fb aa35 ad63 ae34
00000020: 759e b037 b443 d635 b94b 0d36 5306 7735
00000030: 138b c132 9240 8235 65b7 8735 40d2 bd35
00000040: 5f9c c12f 4862 fe31 0cbe 6735 ec69 7036
00000050: 9abf 8836 2db0 7935 5d00 0000 3724 0d36
00000060: 20a4 5a37 541f b935 007f 8d34 7593 0f37
00000070: 6374 681c 5976 c637 2aa6 4f33 8d9a c034
00000080: 41c0 ca33 d9c8 2d38 9f64 3836 5c4e 8221
00000090: f120 f037 a0f0 aa38 678b fd37 e3e9 4c36
000000a0: 43c8 2a36 5c7b 660f 1418 3836 ab25 bb34
000000b0: ee8e a837 6dec cc12 a3b2 292e 023c 0c34
000000c0: 443b 6736 1f08 d836 c1d5 a934 b5aa 6313
000000d0: ca71 1814 78e0 9510 2e35 3824 45a0 8915
000000e0: 8572 7733 2594 2d35 c85f 8f37 e427 db35
000000f0: 67ae eb34 a038 dc37 3b69 7a36 221d e934
00000100: 9ed0 ce0c a39d 8b1f 5ed7 9036 c2fc 2435
00000110: 179f ff1f 352b 3536 5230 f236 8a1e a920
00000120: 06c1 0a24 ece6 3d29 1266 5037 ac7d 2c01
00000130: 5756 6a32 6684 0c31 faef 0728 6689 2537
00000140: 9c83 4136 52ea 0d35 998e 1032 b6ce 5737
00000150: 3d2e 2136 23be 6e36 e792 ae37 6ed7 bd30
00000160: f174 1131 7ed1 4c37 80fa 651e db93 a435
00000170: 6ff0 2237 62ad 8802 7ddd 4938 44aa 9b33
00000180: 2f72 dd31 e340 e234 ce47 5b35 ef75 1d37
00000190: a8c9 5b2e 3fe9 8c36 1dd2 3f1a 8f26 9635
000001a0: 5840 4238 41f9 c336 1a23 ed36 e35e 5238
000001b0: aefc 8636 9726 c331 ce00 e536 cace 952f
000001c0: f8bd 2937 f104 9304 67ca 5435 d521 a616
000001d0: ad99 0b1f f4fe 1235 b0af 8d34 f8d8 0039
000001e0: 9b5c 6e36 1ffb 3735 fdf4 e637 27f3 fb35
000001f0: 90f4 c634 ef25 0e37 6471 8138 150f 5433
