results/big9/My Behavior/My Behavior-499997.onnx (onnx, 75061 bytes, 7 tensors)

network_body._body_endoder.seq_layers.0.weight f4 [128, 6]
0.6128035 -0.3983638 -0.48792833 0.3309918 0.014664756 -0.24871066 -0.69445384 0.34414655
0.68629026 -0.020624228 -0.61500996 -0.13856775 0.15410873 0.42787954 0.45720357 -0.6895435
0.0001458845 0.07650666 -0.11539962 -0.4757023 -0.02178015 -0.43796927 0.52672106 -0.092261195
0.205817 -0.5459152 0.05910649 -0.42782906 0.27453196 0.5252147 0.33605674 0.5159066
0.78555334 -0.12324979 -0.16248974 0.054787174 -0.030517025 0.13277651 -0.07127352 0.17973268
0.0217294 0.09268369 0.6798628 0.30485833 -0.25130218 -0.06952472 0.5382972 0.64416015
-0.4174509 -0.33320057 0.6871614 0.24197088 0.17617089 -0.22520232 -0.11939729 0.62543166
0.76266044 -0.9911122 0.011312833 -0.33053747 -0.11796173 -0.6796528 -0.10985456 -0.3506774
-0.16313949 0.50389326 0.18038446 -0.5766594 -0.3067609 -0.23623417 0.30172965 0.46243608
-1.0857649 0.047185294 -0.40112787 0.95145756 -0.16120437 0.10084643 -0.07086121 -0.5436818
0.4810805 0.5146988 -0.34110174 0.13789494 0.86131275 0.09078079 0.3349534 -0.16512519
-0.42919803 -0.3095945 -0.6084737 0.18996441 -0.49024925 0.5807484 0.151562 0.85244364
-0.23309948 -0.18329471 -0.2625756 1.012486 -0.08951666 -0.024722904 -0.33949754 -0.40859362
-1.031739 -0.31308058 0.1009034 0.17358883 -0.3033575 0.24348225 0.18018673 0.27238023
0.22360133 0.090010606 0.52332425 0.025294192 0.041387796 -0.41154623 0.14694998 0.82636565
-0.10640203 0.074176446 0.09542458 0.008399339 -0.29816175 -0.02516808 -0.022616724 -0.7305966
0.15179646 -0.45058447 0.3245367 0.39200822 -0.45996666 0.5008318 -0.40833625 0.63113654
0.6261129 -1.011281 0.44805288 -0.31750932 -0.46494302 0.7241629 0.41061842 0.70565456
-0.72229004 -0.35134774 0.5806547 0.5124568 0.25728875 0.23909901 0.058112796 -0.11710096
0.980547 0.5559917 0.2438396 0.029438172 -0.09535014 -0.40020528 0.063612655 0.09104179
-0.02971618 0.07504247 -0.47898132 0.28667688 -0.11931682 -0.18306592 0.13856483 0.43871853
0.3901216 -0.5791523 -0.32398248 0.25584057 0.16337427 -0.4085884 -0.5612501 -0.46491212
-0.38899648 -0.8757864 0.38681203 0.26737005 -0.33191678 0.65151095 -0.2025269 0.24412315
0.11913471 0.07751381 0.6772742 0.08304543 0.049084257 -0.76838154 0.01559911 -0.115925565
-0.20699307 -0.54619724 0.12063091 0.28317505 0.3079801 -0.13577749 0.64722943 -0.49316323
0.01798562 0.4911646 -0.09311883 0.013576828 1.2721744 -0.617035 0.08544488 -0.101097114
0.0811974 -0.1695454 0.027510626 0.35058963 0.3386643 -0.45282114 0.34740263 -0.6450589
-0.65688777 -0.61290884 0.56010896 0.12319235 0.23236112 -0.1491149 0.38992923 0.5010798
0.28337106 -0.09588049 -0.63203233 -0.13446595 0.63883865 -0.13282067 -0.2523751 -0.40120485
-0.3105044 0.15936536 -0.17530729 -0.7812946 0.08868695 0.3975317 -0.43046245 0.038099412
0.92094266 -0.2677538 0.0721065 0.03101875 0.4456217 -0.1267567 -0.40233922 0.88001454
-0.061644398 -0.47247767 0.29213202 -0.6449135 -0.060992695 0.035044484 0.45392615 0.026684523
00000000: b1e0 1c3f 57f6 cbbe bed1 f9be c277 a93e
00000010: 7244 703c 02ae 7ebe bac7 31bf fa33 b03e
00000020: b8b0 2f3f 24f4 a8bc 4b71 1dbf b4e4 0dbe
00000030: aece 1d3e 0713 db3e 9616 ea3e ec85 30bf
00000040: 93f8 1839 86af 9c3d a356 ecbd 408f f3be
00000050: 496c b2bc 823d e0be 31d7 063f 70f3 bcbd
00000060: b1c1 523e 19c1 0bbf a619 723d 690c dbbe
00000070: 748f 8c3e 7874 063f a10f ac3e 7412 043f
00000080: 061a 493f 636a fcbd b663 26be 8468 603d
00000090: d7fe f9bc 91f6 073e daf7 91bd d80b 383e
000000a0: db01 b23c f2d0 bd3d 7d0b 2e3f 6416 9c3e
000000b0: aeaa 80be fa62 8ebd d8cd 093f aee7 243f
000000c0: 20bc d5be 4499 aabe cfe9 2f3f 37c7 773e
000000d0: 2466 343e 709b 66be 9186 f4bd 4a1c 203f
000000e0: b73d 433f 87b9 7dbf 7659 393c 353c a9be
000000f0: eb95 f1bd bafd 2dbf 6dfb e0bd fd8b b3be
00000100: 0a0e 27be 26ff 003f b4b6 383e f39f 13bf
00000110: c40f 9dbe 5fe7 71be 4f7c 9a3e 6cc4 ec3e
00000120: 58fa 8abf 5e45 413d a260 cdbe b992 733f
00000130: c212 25be 9388 ce3d af1f 91bd bb2e 0bbf
00000140: 2f50 f63e 4dc3 033f e3a4 aebe 5534 0d3e
00000150: fe7e 5c3f 47eb b93d 037f ab3e 9416 29be
00000160: d8bf dbbe 2c83 9ebe efc4 1bbf 0886 423e
00000170: f301 fbbe edab 143f 1233 1b3e bf39 5a3f
00000180: a1b1 6ebe 9cb1 3bbe 4f70 86be 2499 813f
00000190: 8354 b7bd b087 cabc 9fd2 adbe 2f33 d1be
000001a0: 0610 84bf 194c a0be 71a6 ce3d 45c1 313e
000001b0: ad51 9bbe 6953 793e df82 383e 6c75 8b3e
000001c0: bff7 643e 7b57 b83d 94f8 053f c435 cf3c
000001d0: 4086 293d 30b6 d2be 0e7a 163e b38c 533f
000001e0: 4fe9 d9bd d2e9 973d f66d c33d 629d 093c
000001f0: a8a8 98be 4a2d cebc b546 b9bc 6108 3bbf
00000200: 8870 1b3e 02b3 e6be ad29 a63e 4db5 c83e
00000210: c080 ebbe 8336 003f 7311 d1be 2a92 213f
00000220: ef48 203f a871 81bf 3067 e53e 9590 a2be
00000230: 030d eebe bd62 393f 943c d23e c7a5 343f
00000240: 00e8 38bf dae3 b3be c9a5 143f 5e30 033f
00000250: 5abb 833e 5fd6 743e af07 6e3d a1d2 efbd
00000260: 2105 7b3f 7955 0e3f 17b1 793e 5228 f13c
00000270: ef46 c3bd b5e7 ccbe 5a47 823d 1e74 ba3d
00000280: 596f f3bc deaf 993d 0a3d f5be 50c7 923e
00000290: 605c f4bd a275 3bbe f0e3 0d3e b79f e03e
000002a0: 05be c73e 5343 14bf 08e1 a5be 89fd 823e
000002b0: 964b 273e 8032 d1be 16ae 0fbf f608 eebe
000002c0: 8c2a c7be 8a33 60bf 3a0c c63e bae4 883e
000002d0: fff0 a9be 6cc9 263f 3663 4fbe 6bfb 793e
000002e0: e6fc f33d 8fbf 9e3d d861 2d3f b913 aa3d
000002f0: 930c 493d a7b4 44bf 6993 7f3c 626a edbd
00000300: fef5 53be 95d3 0bbf 570d f73d 52fc 903e
00000310: 91af 9d3e 4109 0bbe d4b0 253f e47f fcbe
00000320: 9456 933c ed79 fb3e 16b5 bebd 5871 5e3c
00000330: 9cd6 a23f 01f6 1dbf bafd ae3d 010c cfbd
00000340: d34a a63d 4f9d 2dbe f75d e13c 7c80 b33e
00000350: 6865 ad3e 2cd8 e7be c2de b13e 9422 25bf
00000360: cc29 28bf 98e7 1cbf 4d63 0f3f 454c fc3d
00000370: 13f0 6d3e 94b1 18be cea4 c73e c446 003f
00000380: 0316 913e fe5c c4bd dfcc 21bf 71b1 09be
00000390: ee8a 233f 2402 08be 4f37 81be b96a cdbe
000003a0: 6ffa 9ebe ac30 233e c183 33be ec02 48bf
000003b0: 81a1 b53d 4689 cb3e 9365 dcbe 210e 1c3d
000003c0: e6c2 6b3f 0717 89be 93ac 933d 091b fe3c
000003d0: 8728 e43e 82cc 01be 68ff cdbe a248 613f
000003e0: d67e 7cbd 98e8 f1be 5492 953e 0d19 25bf
000003f0: 7ad3 79bd ce8a 0f3d 0269 e83e 8099 da3c

network_body._body_endoder.seq_layers.0.bias f4 [128]
0.01693297 -0.0074508116 -0.0050810026 0.0050731353 0.0017308276 -0.0062865703 0.0006690912 9.217725e-05
0.01296783 0.012477304 -0.0018873644 -0.008258654 0.016986247 -0.0055388077 0.113260604 -0.0060876254
-0.016372422 0.00078987284 -0.008262836 -0.007793963 0.00027259128 -0.0071622776 -1.7866745e-15 -0.005733152
-0.001547243 -0.0097341845 -0.01296512 -0.0022138297 -0.00041996056 0.013401026 0.007158232 -0.02741604
0.01887108 -0.007547724 0.15396446 -9.448196e-05 0.002573177 0.0029599813 -0.0016474626 -0.0023428423
0.14896546 4.4794923e-09 -0.006850733 -0.008418627 -0.00074957625 1.5365115e-08 -0.0073162965 0.006692839
-0.004207951 -0.002411767 -0.0201685 -8.395864e-07 -9.260073e-08 1.7015745e-09 0.012046612 -5.8429913e-07
-0.0030558023 0.11243519 -0.007783117 0.14389564 0.009519393 0.014547153 -0.0016136048 -0.0064974157
-4.6945936e-09 0.0002068751 0.015075939 -0.0072381534 -0.0038787366 -0.014544268 0.03929014 -0.0011149931
0.0008282587 0.014074774 0.020828983 -1.2849053e-12 0.025948672 0.0047266134 0.04805912 -0.003388664
-0.0037828856 -0.0052773776 0.00143859 -0.013207768 0.0012772034 -0.0040081735 -0.004152004 0.041566145
0.043596577 0.011662888 -7.2797498e-06 -0.0057086213 0.02983138 -1.1394225e-11 0.015416395 0.07301604
0.0056899986 -0.01949553 0.09913154 -0.0031830207 -0.0021379471 -0.001166761 -3.6393194e-05 0.0021797756
0.0037182602 -0.0031431373 -0.00017597087 0.024177097 -0.004435937 0.02576334 -0.0042600273 -0.0012758013
-0.0017977175 4.9006868e-11 -0.0013661907 8.022749e-06 0.0011029221 -0.017749818 0.00091386895 0.007851149
0.0047540395 -0.0014937667 0.009033916 0.027376361 -0.011002798 -0.0014196109 -0.011778591 0.0038228352
00000000: 03b7 8a3c f025 f4bb 8a7e a6bb 8b3c a63b
00000010: f0dc e23a 93ff cdbb f365 2f3a 494f c138
00000020: 0577 543c 9b6d 4c3c 7161 f7ba 4e4f 07bc
00000030: be26 8b3c e37e b5bb 2df5 e73d b47a c7bb
00000040: 751f 86bc 780f 4f3a d960 07bc 8064 ffbb
00000050: 95ea 8e39 8ab1 eabb 54be 00a7 2add bbbb
00000060: dccc caba 217c 1fbc a86b 54bc e615 11bb
00000070: 272e dcb9 fa8f 5b3c 9a8f ea3b 9a97 e0bc
00000080: 8697 9a3c e652 f7bb dca8 1d3e 9e24 c6b8
00000090: bfa2 283b 3ffc 413b acef d7ba 5f8a 19bb
000000a0: 678a 183e 08ea 9931 1d7c e0bb 48ee 09bc
000000b0: 367f 44ba 3ffc 8332 8bbd efbb 9a4f db3b
000000c0: dae2 89bb bc0e 1ebb 6938 a5bc f05f 61b5
000000d0: cadb c6b3 d5dc e930 275f 453c bbd8 1cb5
000000e0: db43 48bb 6c44 e63d 8409 ffbb 6159 133e
000000f0: 3af7 1b3c 2f57 6e3c 987f d3ba 46e8 d4bb
00000100: 154e a1b1 9dec 5839 1201 773c 082e edbb
00000110: 6732 7ebb 154b 6ebc b3ee 203d f624 92ba
00000120: 801f 593a e299 663c 8ba1 aa3c 98d5 b4ab
00000130: 4f92 d43c b5e1 9a3b a4d9 443d 5914 5ebb
00000140: 4aea 77bb daed acbb 128f bc3a 6565 58bc
00000150: d667 a73a ff56 83bb 890d 88bb 4341 2a3d
00000160: 5392 323d b315 3f3c 9344 f4b6 630f bbbb
00000170: f060 f43c 0773 48ad 0c95 7c3c 6f89 953d
00000180: 2b73 ba3b 17b5 9fbc 7a05 cb3d 3a9a 50bb
00000190: cd1c 0cbb 01ee 98ba e5a4 18b8 91da 0e3b
000001a0: 0eae 733b 18fd 4dbb d284 38b9 0c0f c63c
000001b0: 565b 91bb a40d d33c b397 8bbb ca38 a7ba
000001c0: 64a1 ebba d488 572e c111 b3ba 7299 0637
000001d0: ed8f 903a 1168 91bc b590 6f3a 1ba2 003c
000001e0: c6c7 9b3b 7eca c3ba fd02 143c 6444 e03c
000001f0: 1445 34bc 3d12 baba fefa 40bc 8888 7a3b

network_body._body_endoder.seq_layers.2.weight f4 [128, 128]
-0.1841892 -0.02721521 0.09390211 0.0014972223 0.083544865 0.076269984 -0.03781242 0.007423122
-0.10757606 0.06488746 0.070678405 -0.12048746 0.07599971 0.0074562505 -0.12931763 -0.060296975
-0.021497391 -0.015877686 -0.0031227972 0.12236607 -0.06530958 -0.105337806 -0.05122572 -0.016730743
-0.082673535 -0.18335693 0.027425548 -0.0750117 -0.034424674 -0.13790855 0.020942306 -0.16408415
0.022372104 0.20520622 -0.16585582 -0.020534469 0.095023565 0.18410243 -0.21515876 -0.059031907
0.053220015 -0.08142837 -0.03063101 -0.18125843 0.05993364 -0.042776924 0.070038505 -0.10196274
-0.07502529 -0.0073642735 0.107550554 -0.074518 -0.057160597 0.07911695 0.060513753 -0.034135427
0.02660058 0.21142697 -0.096373476 0.19361328 0.11286637 0.15223683 -0.08309258 -0.04053724
-0.040421326 0.15772475 -0.076791056 0.09380726 -0.030409915 0.03428112 0.025074743 0.013483758
0.11501625 -0.13973688 0.06979386 0.08495852 -0.044919834 0.08053579 -0.045796447 -0.09514419
-0.049742263 0.05524461 0.078695856 -0.01895865 -0.056728486 -0.13348436 -0.033789832 -0.072377436
0.04835788 0.07845634 -0.039881017 0.098377645 -0.2580614 -0.06997301 0.13843936 -0.21910568
0.13785936 -0.12916872 0.039151277 0.1480141 0.14900762 0.042231258 0.096690625 -0.16284344
0.050517503 0.0072504357 -0.17930011 -0.017118746 0.024968386 -0.022948412 0.06303071 0.023340618
-0.08877958 0.036140643 -0.0831861 0.044943452 0.08528407 -0.051077627 -0.026358152 0.03539634
0.10202139 0.02648727 0.15338416 0.04988877 0.20098566 0.0092170285 0.17936078 0.058677804
-0.13532196 -0.017414227 0.109659225 0.15744306 0.033861976 0.01614495 -0.028886558 0.2443641
0.103643015 0.047490485 -0.12677951 0.031498313 -0.049273886 -0.013340138 0.043621335 -0.06540969
-0.046243604 -0.004009768 -0.087613836 0.075163655 -0.09111028 0.08367192 -0.09057926 -0.045143865
0.02949145 0.04295268 0.10120258 -0.13807462 0.10580118 0.122667275 -0.06573304 0.16005002
-0.12579335 -0.05840768 0.16005652 -0.031965274 0.016860917 -0.08038613 0.04432675 0.17925979
0.22402157 0.09194955 0.094212785 -0.022326596 -0.07866382 0.0071777203 -0.07018589 0.017589817
0.028489765 -0.08976945 -0.019375924 0.08804453 0.01677006 -0.1803329 -0.014381762 -0.05040339
0.086716466 0.054971486 -0.07443374 -0.20403565 -0.09044942 -0.025187533 -0.035158016 -0.09546567
-0.04901543 -0.014164641 0.034084465 0.16761532 -0.054950114 0.14973012 0.20147021 0.02594841
-0.12382838 0.16900651 -0.17859887 -0.024786562 0.011235255 0.10859975 -0.05483557 -0.00722638
-0.09385519 -0.21047637 -0.020852279 -0.0016071089 0.026038023 0.20144519 -0.003355188 0.082654215
-0.057503354 0.016294235 -0.012056096 -0.11054827 0.20719844 -0.049765293 0.1440019 0.14855105
-0.08828909 0.0636499 0.088095926 -0.09053039 -0.15456763 -0.14348209 0.011288801 -0.021414688
-0.071231335 -0.0066126585 0.040308837 0.037371226 0.022788897 -0.03990548 0.22054294 0.054231696
0.019597817 -0.12835479 -0.21724674 -0.109797716 0.026815312 -0.02262133 0.003030449 0.0982757
-0.012137093 0.0628167 -0.09744849 0.096690215 -0.027073069 -0.10514987 -0.030138355 -0.012882069
00000000: 189c 3cbe 6ff2 debc c04f c03d 723e c43a
00000010: 9219 ab3d 7033 9c3d 32e1 1abd a93d f33b
00000020: d650 dcbd b7e3 843d d7bf 903d 21c2 f6bd
00000030: bca5 9b3d 9053 f43b d76b 04be f6f9 76bd
00000040: 4c1b b0bc ec11 82bc d8a7 4cbb 109b fa3d
00000050: 07c1 85bd 59bb d7bd 10d2 51bd e90e 89bc
00000060: be50 a9bd ebc1 3bbe 8bab e03c bc9f 99bd
00000070: e300 0dbd e637 0dbe 338f ab3c ad05 28be
00000080: b445 b73c 9421 523e 1cd6 29be e737 a8bc
00000090: b79b c23d 5985 3c3e 9452 5cbe 71cb 71bd
000000a0: 3bfd 593d ebc3 a6bd e2ed fabc cf9b 39be
000000b0: fa7c 753d db36 2fbd 5970 8f3d d7d1 d0bd
000000c0: dca6 99bd 0150 f1bb 7743 dc3d e59c 98bd
000000d0: 3b21 6abd 1108 a23d 45dd 773d 97d1 0bbd
000000e0: 76e9 d93c 5080 583e 755f c5bd 8f42 463e
000000f0: 7c26 e73d f9e3 1b3e 712c aabd 610a 26bd
00000100: d590 25bd 9982 213e a144 9dbd 051e c03d
00000110: 371e f9bc 5c6a 0c3d 8c69 cd3c fbea 5c3c
00000120: a48d eb3d 2f17 0fbe 15f0 8e3d bcfe ad3d
00000130: dcfd 37bd f3ef a43d 0e95 3bbd f5da c2bd
00000140: 8bbe 4bbd 2c48 623d 4b2b a13d 2c4f 9bbc
00000150: 215c 68bd 20b0 08be 3567 0abd 9f3a 94bd
00000160: ea12 463d b8ad a03d 475a 23bd 387a c93d
00000170: a020 84be 024e 8fbd 0cc3 0d3e 3d5d 60be
00000180: 012b 0d3e ce44 04be 175d 203d 0291 173e
00000190: 7495 183e affa 2c3d bc05 c63d 6ec0 26be
000001a0: 71eb 4e3d 1095 ed3b 739a 37be 9d3c 8cbc
000001b0: 808a cc3c 4ffe bbbc 3f16 813d d334 bf3c
000001c0: 12d2 b5bd 3608 143d 795d aabd a016 383d
000001d0: 6aa9 ae3d c636 51bd 0ded d7bc c1fb 103d
000001e0: 97f0 d03d d5fb d83c bd10 1d3e 2b58 4c3d
000001f0: 2fcf 4d3e 0503 173c 5aaa 373e 2358 703d
00000200: d791 0abe 48a8 8ebc 0495 e03d c138 213e
00000210: dbb2 0a3d 6a42 843c 81a3 ecbc 953a 7a3e
00000220: ca42 d43d 6285 423d 7dd2 01be 6004 013d
00000230: 6ad3 49bd 9890 5abc 49ac 323d 84f5 85bd
00000240: ef69 3dbd 5f64 83bb e26e b3bd 67ef 993d
00000250: 0798 babd 2f5c ab3d 9e81 b9bd c6e8 38bd
00000260: 0e98 f13c 26ef 2f3d 4c43 cf3d 6f63 0dbe
00000270: 4aae d83d fb38 fb3d 0b9f 86bd 27e4 233e
00000280: f9cf 00be e43c 6fbd dbe5 233e 05ee 02bd
00000290: e81f 8a3c 7ca1 a4bd f78f 353d e18f 373e
000002a0: e965 653e 0c50 bc3d a2f2 c03d 44e6 b6bc
000002b0: 7f1a a1bd 1533 eb3b 9fbd 8fbd 8518 903c
000002c0: 5e63 e93c 0cd9 b7bd 42ba 9ebc b150 b43d
000002d0: 5d61 893c 30a9 38be 7ba1 6bbc c973 4ebd
000002e0: 6798 b13d c829 613d b770 98bd b9ee 50be
000002f0: 8c3d b9bd 1656 cebc da01 10bd 8183 c3bd
00000300: 67c4 48bd cf12 68bc 279c 0b3d 5aa3 2b3e
00000310: 5f13 61bd da52 193e 354e 4e3e c391 d43c
00000320: bc99 fdbd 0b10 2d3e 9fe2 36be 300d cbbc
00000330: 1314 383c 8c69 de3d 439b 60bd 45cb ecbb
00000340: 2637 c0bd 1e87 57be 66d2 aabc a0a5 d2ba
00000350: b14d d53c a647 4e3e b7e2 5bbb 9d46 a93d
00000360: a388 6bbd 7d7b 853c ef86 45bc 2267 e2bd
00000370: d42b 543e b1d6 4bbd 3c75 133e c41d 183e
00000380: e9d0 b4bd e15a 823d a36b b43d ff67 b9bd
00000390: fa46 1ebe f8ec 12be aaf4 383c db6d afbc
000003a0: bce1 91bd 00af d8bb e11a 253d 9212 193d
000003b0: c8af ba3c ee73 23bd 02d6 613e 0e22 5e3d
000003c0: 9a8b a03c 706f 03be ee75 5ebe a0dd e0bd
000003d0: c9ab db3c 5e50 b9bc 7f9a 463b c544 c93d
000003e0: a8da 46bc 0ba6 803d 1393 c7bd 8505 c63d
000003f0: 57c8 ddbc d158 d7bd b6e4 f6bc 500f 53bc

network_body._body_endoder.seq_layers.2.bias f4 [128]
0.0046602315 0.003597321 -9.5333366e-05 -0.0035921275 -0.0014229888 0.002027815 0.00070031616 4.370346e-05
0.009204046 0.005847995 0.0014834102 -0.004550463 0.0023100835 -0.001975694 -0.0019223707 0.004875479
0.00042177644 -0.001407276 0.0014099309 -0.00795145 -0.0047155716 0.012058507 -0.0067009814 0.0010209327
0.0012668986 -0.001680304 -0.0068821255 -0.0028455355 -0.00029022453 -0.0051319515 0.00091907487 -0.00044833458
0.010502493 -0.0010282618 -0.0032633378 -0.0049362755 -0.004499 -0.0014634946 0.0029029753 -0.00042502128
0.0035416505 -0.0022983246 -0.004799129 -0.001977013 -0.008082535 0.005497293 -0.0034467836 -0.0027459147
-0.001224519 0.0068713627 -0.0038138013 -0.00437962 -0.002003941 -0.002450413 -0.0038078316 7.799259e-05
-0.0033527971 0.005917628 -0.0016047749 -0.0021187025 0.00022557614 0.006779141 0.00080204254 -0.004303844
-0.0021678442 0.008675337 0.0043819104 -0.005173788 -0.00022076714 -5.716505e-06 0.009505703 -0.00081835745
-0.0028928728 0.0008311058 -0.0037758623 0.011009759 -0.0006890514 -0.0100226225 -0.007536997 -0.002689717
-0.00214533 -0.004256698 0.0013905807 -0.0007634238 -0.00515593 -0.0029237056 0.008818238 2.5931346e-05
-0.004502028 -0.0027889772 0.0021867712 -0.0017155126 0.010655514 -0.0032833146 0.00021442892 -0.0032138396
0.0045954147 -0.006745633 0.00037399188 -0.0017815615 1.6857852e-05 0.007117367 0.002054743 -0.0041622147
-0.0006536367 0.0032624644 0.011048853 -0.0016776777 0.00012507907 -0.00071335724 -0.0005587357 -0.0023986788
0.00047550935 -0.00017552852 -0.0030135307 -0.0027223236 0.009314533 -0.002844326 0.008469941 0.0055483812
-0.0025749172 -0.0056084744 -0.00061044405 -0.0024978083 -0.0021289117 0.0006385246 0.015528745 -0.0026129147
00000000: dbb4 983b 08c1 6b3b b6ed c7b8 e669 6bbb
00000010: 9583 baba 17e5 043b 6c95 373a 3c4e 3738
00000020: 91cc 163c 8aa0 bf3b fd6e c23a 0d1c 95bb
00000030: c564 173b a57a 01bb 0ff8 fbba 7bc2 9f3b
00000040: e021 dd39 5974 b8ba 6ecd b83a cc46 02bc
00000050: 1585 9abb 0b91 453c e893 dbbb d1d0 853a
00000060: 100e a63a a53d dcba 7483 e1bb 2a7c 3abb
00000070: 4729 98b9 ee29 a8bb 12ee 703a 730e ebb9
00000080: a612 2c3c bec6 86ba b9dd 55bb 7bc0 a1bb
00000090: 596c 93bb bbd2 bfba d83f 3e3b 64d5 deb9
000000a0: 091b 683b 7d9f 16bb 0342 9dbb c690 01bb
000000b0: 9c6c 04bc a322 b43b 6fe3 61bb cef4 33bb
000000c0: 0a80 a0ba 2b29 e13b f8f0 79bb ea82 8fbb
000000d0: 8d54 03bb 1c97 20bb d08c 79bb f48f a338
000000e0: 9aba 5bbb a9e8 c13b 4f57 d2ba eed9 0abb
000000f0: a288 6c39 8e23 de3b 2a40 523a 4307 8dbb
00000100: 6412 0ebb 0023 0e3c 2196 8f3b e188 a9bb
00000110: ba7d 67b9 67d0 bfb6 cfbd 1b3c 0a87 56ba
00000120: 5a96 3dbb 91de 593a 7574 77bb 4762 343c
00000130: 75a1 34ba ed35 24bc eaf8 f6bb f745 30bb
00000140: aa98 0cbb c57b 8bbb 2544 b63a 8120 48ba
00000150: 13f3 a8bb a49b 3fbb 5f7a 103c 2487 d937
00000160: c085 93bb 46c7 36bb ef4f 0f3b 0ddb e0ba
00000170: 7794 2e3c e12c 57bb 53d8 6039 489f 52bb
00000180: 2295 963b 790a ddbb 5714 c439 4983 e9ba
00000190: f669 8d37 cd38 e93b dea8 063b 3063 88bb
000001a0: d158 2bba 12cf 553b 4006 353c 86e5 dbba
000001b0: a827 0339 9800 3bba 1e78 12ba 2733 1dbb
000001c0: c94d f939 140e 38b9 a87e 45bb 0369 32bb
000001d0: fc9b 183c df67 3abb 82c5 0a3c 32cf b53b
000001e0: f1bf 28bb 4bc7 b7bb 3506 20ba 45b2 23bb
000001f0: 3685 0bbb a962 273a 476c 7e3c 6f3d 2bbb

action_model._continuous_distribution.log_sigma f4 [1, 2]
-0.24348019 -0.039109416
00000000: df52 79be 3231 20bd

action_model._continuous_distribution.mu.weight f4 [2, 128]
0.07194378 0.025099363 0.0025675124 -0.014713048 -0.008611912 -0.0143001815 -0.029489454 -0.039437305
0.08031086 -0.089441195 0.027743973 0.018061206 -0.037145156 0.03399514 0.012799527 -0.04473385
-0.05532468 0.023821048 0.050546866 0.0014641292 -0.0006634671 -0.09806375 -0.0015872014 -0.02630985
0.016029758 0.029584967 -0.0068555805 -0.031575304 0.016872978 0.002206495 0.028937882 -0.0044448217
-0.076335594 0.0075298627 0.0073770885 0.0037788767 -0.0035652162 0.019317368 0.021213263 -0.075882986
-0.04396367 0.01170298 0.0064203376 0.039586835 0.00790162 -0.03082019 0.032480333 -0.012676532
-0.022931434 0.01618025 0.008249504 0.007982381 -0.005939672 -0.015916845 0.04363204 0.010205996
0.030557528 -0.0060745333 -0.02318606 0.029170083 0.028825648 0.059950322 -0.047281805 -0.0010090044
-0.029260442 -0.073016606 -0.09082963 -0.000270243 -0.00700356 0.0018413826 0.053081185 0.020775134
0.019498497 -0.031100132 -0.010103058 -0.045096543 -0.018622957 -0.004928849 0.038639773 -0.012975538
0.027892753 -0.014354301 0.00091817294 0.0059265406 0.004675596 -0.023688722 0.07728537 -0.03322352
0.002108617 -0.010511436 0.07234808 0.024373006 -0.053599503 0.01763964 -0.01583403 -0.0427018
-0.012704097 0.02644018 0.041016836 0.011574644 -0.013216629 0.033640042 -0.016710231 0.002274479
-0.042842064 -0.027088648 0.051322907 0.036627866 0.013349836 0.020103155 -0.0075980863 -0.049410157
-0.027065542 0.008697155 -0.008181559 -0.00825785 0.07924102 0.022574866 0.08694195 -0.042966437
0.0021101513 -0.014206528 -0.014808971 0.031857613 0.035328038 0.016087672 -0.080630176 0.015099964
0.009763868 0.01176007 -0.012717659 0.02678909 -0.0049767615 0.012648691 -0.014561273 -0.008067343
-0.0006853132 -0.0139745595 -0.01068565 -0.002164982 0.0155040175 0.007998637 -0.01622532 -0.0444316
0.013892709 -0.005272123 0.01971308 0.020104878 0.011226401 0.041192908 0.0018786545 -0.014470395
-0.0052317297 0.0097982595 0.021513589 0.010495003 0.0036778797 0.010010776 0.010837269 0.018471152
0.030151093 -9.49012e-05 -0.001377515 0.00070292165 0.028556881 -0.0043310607 -0.014141812 0.023746409
0.01471845 -0.015310785 -0.00032760476 0.027832463 -0.01846393 0.025201278 -0.019764002 0.012802632
0.0045623905 0.03923576 0.010474229 -0.0011003761 0.0031510775 0.008337144 0.006142241 -0.017095508
0.022509187 -0.032779064 0.011840579 0.009766223 -0.024221525 -0.016349848 -0.015932657 0.023270939
0.0009810618 -0.009064424 0.021031918 -0.007377705 -0.008795138 0.02392329 -0.0047280868 -0.008446696
0.009668436 -0.016526422 0.025771158 0.017881857 0.00074986456 0.02115476 -0.038192194 0.013270115
0.00030056667 0.014700885 0.018672606 -0.0036381946 0.0018484842 0.019182924 0.011747243 -0.0031130034
-0.0068964805 -0.0073530604 -0.017181022 0.006632935 -0.0036151537 0.031238517 -0.010916536 0.009234999
-0.008074163 0.019549517 0.011566409 -0.0024595526 0.0061391504 -0.0018700013 0.013052104 -0.0017305905
-0.0039708586 -0.0020994805 0.04297372 0.011252699 -0.02082672 -0.015303933 -0.009153529 0.035469092
-0.011603588 0.01568754 0.019942211 -0.0038490365 0.002077676 0.013623511 0.008925503 0.030462325
-0.006737739 -0.0002134867 -0.0025568085 0.010404545 0.008824248 -0.029078213 0.002151952 -0.012806215
00000000: 4357 933d 2e9d cd3c b643 283b ff0e 71bc
00000010: fa18 0dbc 4f4b 6abc de93 f1bc 0389 21bd
00000020: 057a a43d f22c b7bd 5447 e33c 18f5 933c
00000030: 8525 18bd 7d3e 0b3d 1bb5 513c d73a 37bd
00000040: 229c 62bd 5c24 c33c 3b0a 4f3d 06e8 bf3a
00000050: 86ec 2dba a6d5 c8bd a409 d0ba c187 d7bc
00000060: d750 833c 2c5c f23c c7a4 e0bb 1b55 01bd
00000070: 3339 8a3c d89a 103b 230f ed3c dea5 91bb
00000080: d655 9cbd 11bd f63b 81bb f13b 08a7 773b
00000090: 67a6 69bb 753f 9e3c 70c7 ad3c 8a68 9bbd
000000a0: 4013 34bd dbbd 3f3c b261 d23b ce25 223d
000000b0: cc75 013c a07a fcbc 190a 053d 3bb1 4fbc
000000c0: b4da bbbc 728c 843c ed28 073c 88c8 023c
000000d0: 94a1 c2bb 0b64 82bc 83b7 323d 0d37 273c
000000e0: c853 fa3c e10c c7bb b1f0 bdbc 19f6 ee3c
000000f0: c423 ec3c 788e 753d 91aa 41bd 9240 84ba
00000100: 98b3 efbc bb89 95bd e304 babd 67af 8db9
00000110: 1f7e e5bb 8c5a f13a a86b 593d 9d30 aa3c
00000120: 50bb 9f3c b4c5 febc 4c87 25bc 27b7 38bd
00000130: 2c8f 98bc 2f82 a1bb bd44 1e3d 5a97 54bc
00000140: 587f e43c 4d2e 6bbc 8bb1 703a 6d33 c23b
00000150: be35 993b da0e c2bc cb47 9e3d 6315 08bd
00000160: b930 0a3b 2838 2cbc 3b2b 943d e6a9 c73c
00000170: 278b 5bbd 0281 903c 5eb6 81bc 15e8 2ebd
00000180: d824 50bc 1499 d83c 4501 283d 93a3 3d3c
00000190: 8f8a 58bc 24ca 093d e5e3 88bc 6d0f 153b
000001a0: 297b 2fbd 03e9 ddbc f837 523d 1a07 163d
000001b0: 45b9 5a3c 5faf a43c 5ef9 f8bb 4e62 4abd
000001c0: 8eb8 ddbc 837e 0e3c f20b 06bc ef4b 07bc
000001d0: 1e49 a23d edee b83c 9f0e b23d 93fd 2fbd
000001e0: 774a 0a3b 7fc2 68bc 54a1 72bc 217d 023d
000001f0: 22b4 103d 4bca 833c 6f21 a5bd d765 773c
00000200: a1f8 1f3c 4fad 403c ba5d 50bc cb74 db3c
00000210: 1a14 a3bb 753c 4f3c 6892 6ebc e42c 04bc
00000220: 97a6 33ba 8df5 64bc dd12 2fbc 5fe2 0dbb
00000230: 9004 7e3c b70c 033c f6ea 84bc e9fd 35bd
00000240: 3f9e 633c c6c1 acbb 537d a13c fcb2 a43c
00000250: f0ee 373c e5b9 283d 2f3d f63a 3c15 6dbc
00000260: ee6e abbb e188 203c 443d b03c 3cf3 2b3c
00000270: 9508 713b 3d04 243c cd8e 313c d050 973c
00000280: 6dff f63c b205 c7b8 bc8d b4ba 4644 383a
00000290: 1ff0 e93c 92eb 8dbb 0fb3 67bc d487 c23c
000002a0: a725 713c 16da 7abc 5ec2 abb9 e800 e43c
000002b0: ab41 97bc e972 ce3c 1ee8 a1bc 21c2 513c
000002c0: 1b80 953b adb5 203d 1a9c 2b3c 7f3a 90ba
000002d0: 4f82 4e3b 8498 083c da44 c93b e10b 8cbc
000002e0: 3065 b83c 5743 06bd fdfe 413c 8202 203c
000002f0: 386c c6bc 1ef0 85bc 3485 82bc b2a2 be3c
00000300: f996 803a f382 14bc 214b ac3c adc0 f1bb
00000310: 7c19 10bc c7fa c33c 11ee 9abb 0364 0abc
00000320: 5c68 1e3c 6b62 87bc 091e d33c f97c 923c
00000330: 8f92 443a bf4c ad3c 6b6f 1cbd e56a 593c
00000340: 6095 9d39 fbdb 703c 4bf7 983c c76e 6ebb
00000350: d648 f23a 8225 9d3c 8277 403c 8803 4cbb
00000360: dffb e1bb f1f1 f0bb 37bf 8cbc 1759 d93b
00000370: 37ec 6cbb ebe7 ff3c 45db 32bc 654e 173c
00000380: 7f49 04bc 4f26 a03c 0981 3d3c 7230 21bb
00000390: ed2a c93b d51a f5ba 7ed8 553c fbd4 e2ba
000003a0: fa1d 82bb 7097 09bb 3605 303d 3e5d 383c
000003b0: cc9c aabc 59bd 7abc aff8 15bc 0a48 113d
000003c0: fa1c 3ebc 2883 803c d95d a33c 1e40 7cbb
000003d0: 9e29 083b 2635 5f3c 463c 123c 208c f93c
000003e0: 40c8 dcbb 66db 5fb9 2190 27bb d377 2a3c
000003f0: 9493 103c 6f35 eebc c307 0d3b 29d1 51bc

action_model._continuous_distribution.mu.bias f4 [2]
-0.0006242574 -0.0033834076
00000000: 34a5 23ba 29bc 5dbb
