results/big9/My Behavior/My Behavior-499997.pt (torch, 441427 bytes, 36 tensors)

network_body._body_endoder.seq_layers.0.weight f4 [128, 6]
000000 b1 e0 1c 3f 57 f6 cb be be d1 f9 be c2 77 a9 3e
       0.6128035 -0.3983638 -0.48792833 0.3309918
000010 72 44 70 3c 02 ae 7e be ba c7 31 bf fa 33 b0 3e
       0.014664756 -0.24871066 -0.69445384 0.34414655
000020 b8 b0 2f 3f 24 f4 a8 bc 4b 71 1d bf b4 e4 0d be
       0.68629026 -0.020624228 -0.61500996 -0.13856775
000030 ae ce 1d 3e 07 13 db 3e 96 16 ea 3e ec 85 30 bf
       0.15410873 0.42787954 0.45720357 -0.6895435
000040 93 f8 18 39 86 af 9c 3d a3 56 ec bd 40 8f f3 be
       0.0001458845 0.07650666 -0.11539962 -0.4757023
000050 49 6c b2 bc 82 3d e0 be 31 d7 06 3f 70 f3 bc bd
       -0.02178015 -0.43796927 0.52672106 -0.092261195
000060 b1 c1 52 3e 19 c1 0b bf a6 19 72 3d 69 0c db be
       0.205817 -0.5459152 0.05910649 -0.42782906
000070 74 8f 8c 3e 78 74 06 3f a1 0f ac 3e 74 12 04 3f
       0.27453196 0.5252147 0.33605674 0.5159066
000080 06 1a 49 3f 63 6a fc bd b6 63 26 be 84 68 60 3d
       0.78555334 -0.12324979 -0.16248974 0.054787174
000090 d7 fe f9 bc 91 f6 07 3e da f7 91 bd d8 0b 38 3e
       -0.030517025 0.13277651 -0.07127352 0.17973268
0000a0 db 01 b2 3c f2 d0 bd 3d 7d 0b 2e 3f 64 16 9c 3e
       0.0217294 0.09268369 0.6798628 0.30485833
0000b0 ae aa 80 be fa 62 8e bd d8 cd 09 3f ae e7 24 3f
       -0.25130218 -0.06952472 0.5382972 0.64416015
0000c0 20 bc d5 be 44 99 aa be cf e9 2f 3f 37 c7 77 3e
       -0.4174509 -0.33320057 0.6871614 0.24197088
0000d0 24 66 34 3e 70 9b 66 be 91 86 f4 bd 4a 1c 20 3f
       0.17617089 -0.22520232 -0.11939729 0.62543166
0000e0 b7 3d 43 3f 87 b9 7d bf 76 59 39 3c 35 3c a9 be
       0.76266044 -0.9911122 0.011312833 -0.33053747
0000f0 eb 95 f1 bd ba fd 2d bf 6d fb e0 bd fd 8b b3 be
       -0.11796173 -0.6796528 -0.10985456 -0.3506774
000100 0a 0e 27 be 26 ff 00 3f b4 b6 38 3e f3 9f 13 bf
       -0.16313949 0.50389326 0.18038446 -0.5766594
000110 c4 0f 9d be 5f e7 71 be 4f 7c 9a 3e 6c c4 ec 3e
       -0.3067609 -0.23623417 0.30172965 0.46243608
000120 58 fa 8a bf 5e 45 41 3d a2 60 cd be b9 92 73 3f
       -1.0857649 0.047185294 -0.40112787 0.95145756
000130 c2 12 25 be 93 88 ce 3d af 1f 91 bd bb 2e 0b bf
       -0.16120437 0.10084643 -0.07086121 -0.5436818
000140 2f 50 f6 3e 4d c3 03 3f e3 a4 ae be 55 34 0d 3e
       0.4810805 0.5146988 -0.34110174 0.13789494
000150 fe 7e 5c 3f 47 eb b9 3d 03 7f ab 3e 94 16 29 be
       0.86131275 0.09078079 0.3349534 -0.16512519
000160 d8 bf db be 2c 83 9e be ef c4 1b bf 08 86 42 3e
       -0.42919803 -0.3095945 -0.6084737 0.18996441
000170 f3 01 fb be ed ab 14 3f 12 33 1b 3e bf 39 5a 3f
       -0.49024925 0.5807484 0.151562 0.85244364
000180 a1 b1 6e be 9c b1 3b be 4f 70 86 be 24 99 81 3f
       -0.23309948 -0.18329471 -0.2625756 1.012486
000190 83 54 b7 bd b0 87 ca bc 9f d2 ad be 2f 33 d1 be
       -0.08951666 -0.024722904 -0.33949754 -0.40859362
0001a0 06 10 84 bf 19 4c a0 be 71 a6 ce 3d 45 c1 31 3e
       -1.031739 -0.31308058 0.1009034 0.17358883
0001b0 ad 51 9b be 69 53 79 3e df 82 38 3e 6c 75 8b 3e
       -0.3033575 0.24348225 0.18018673 0.27238023
0001c0 bf f7 64 3e 7b 57 b8 3d 94 f8 05 3f c4 35 cf 3c
       0.22360133 0.090010606 0.52332425 0.025294192
0001d0 40 86 29 3d 30 b6 d2 be 0e 7a 16 3e b3 8c 53 3f
       0.041387796 -0.41154623 0.14694998 0.82636565
0001e0 4f e9 d9 bd d2 e9 97 3d f6 6d c3 3d 62 9d 09 3c
       -0.10640203 0.074176446 0.09542458 0.008399339
0001f0 a8 a8 98 be 4a 2d ce bc b5 46 b9 bc 61 08 3b bf
       -0.29816175 -0.02516808 -0.022616724 -0.7305966
000200 88 70 1b 3e 02 b3 e6 be ad 29 a6 3e 4d b5 c8 3e
       0.15179646 -0.45058447 0.3245367 0.39200822
000210 c0 80 eb be 83 36 00 3f 73 11 d1 be 2a 92 21 3f
       -0.45996666 0.5008318 -0.40833625 0.63113654
000220 ef 48 20 3f a8 71 81 bf 30 67 e5 3e 95 90 a2 be
       0.6261129 -1.011281 0.44805288 -0.31750932
000230 03 0d ee be bd 62 39 3f 94 3c d2 3e c7 a5 34 3f
       -0.46494302 0.7241629 0.41061842 0.70565456
000240 00 e8 38 bf da e3 b3 be c9 a5 14 3f 5e 30 03 3f
       -0.72229004 -0.35134774 0.5806547 0.5124568
000250 5a bb 83 3e 5f d6 74 3e af 07 6e 3d a1 d2 ef bd
       0.25728875 0.23909901 0.058112796 -0.11710096
000260 21 05 7b 3f 79 55 0e 3f 17 b1 79 3e 52 28 f1 3c
       0.980547 0.5559917 0.2438396 0.029438172
000270 ef 46 c3 bd b5 e7 cc be 5a 47 82 3d 1e 74 ba 3d
       -0.09535014 -0.40020528 0.063612655 0.09104179
000280 59 6f f3 bc de af 99 3d 0a 3d f5 be 50 c7 92 3e
       -0.02971618 0.07504247 -0.47898132 0.28667688
000290 60 5c f4 bd a2 75 3b be f0 e3 0d 3e b7 9f e0 3e
       -0.11931682 -0.18306592 0.13856483 0.43871853
0002a0 05 be c7 3e 53 43 14 bf 08 e1 a5 be 89 fd 82 3e
       0.3901216 -0.5791523 -0.32398248 0.25584057
0002b0 96 4b 27 3e 80 32 d1 be 16 ae 0f bf f6 08 ee be
       0.16337427 -0.4085884 -0.5612501 -0.46491212
0002c0 8c 2a c7 be 8a 33 60 bf 3a 0c c6 3e ba e4 88 3e
       -0.38899648 -0.8757864 0.38681203 0.26737005
0002d0 ff f0 a9 be 6c c9 26 3f 36 63 4f be 6b fb 79 3e
       -0.33191678 0.65151095 -0.2025269 0.24412315
0002e0 e6 fc f3 3d 8f bf 9e 3d d8 61 2d 3f b9 13 aa 3d
       0.11913471 0.07751381 0.6772742 0.08304543
0002f0 93 0c 49 3d a7 b4 44 bf 69 93 7f 3c 62 6a ed bd
       0.049084257 -0.76838154 0.01559911 -0.115925565
000300 fe f5 53 be 95 d3 0b bf 57 0d f7 3d 52 fc 90 3e
       -0.20699307 -0.54619724 0.12063091 0.28317505
000310 91 af 9d 3e 41 09 0b be d4 b0 25 3f e4 7f fc be
       0.3079801 -0.13577749 0.64722943 -0.49316323
000320 94 56 93 3c ed 79 fb 3e 16 b5 be bd 58 71 5e 3c
       0.01798562 0.4911646 -0.09311883 0.013576828
000330 9c d6 a2 3f 01 f6 1d bf ba fd ae 3d 01 0c cf bd
       1.2721744 -0.617035 0.08544488 -0.101097114
000340 d3 4a a6 3d 4f 9d 2d be f7 5d e1 3c 7c 80 b3 3e
       0.0811974 -0.1695454 0.027510626 0.35058963
000350 68 65 ad 3e 2c d8 e7 be c2 de b1 3e 94 22 25 bf
       0.3386643 -0.45282114 0.34740263 -0.6450589
000360 cc 29 28 bf 98 e7 1c bf 4d 63 0f 3f 45 4c fc 3d
       -0.65688777 -0.61290884 0.56010896 0.12319235
000370 13 f0 6d 3e 94 b1 18 be ce a4 c7 3e c4 46 00 3f
       0.23236112 -0.1491149 0.38992923 0.5010798
000380 03 16 91 3e fe 5c c4 bd df cc 21 bf 71 b1 09 be
       0.28337106 -0.09588049 -0.63203233 -0.13446595
000390 ee 8a 23 3f 24 02 08 be 4f 37 81 be b9 6a cd be
       0.63883865 -0.13282067 -0.2523751 -0.40120485
0003a0 6f fa 9e be ac 30 23 3e c1 83 33 be ec 02 48 bf
       -0.3105044 0.15936536 -0.17530729 -0.7812946
0003b0 81 a1 b5 3d 46 89 cb 3e 93 65 dc be 21 0e 1c 3d
       0.08868695 0.3975317 -0.43046245 0.038099412
0003c0 e6 c2 6b 3f 07 17 89 be 93 ac 93 3d 09 1b fe 3c
       0.92094266 -0.2677538 0.0721065 0.03101875
0003d0 87 28 e4 3e 82 cc 01 be 68 ff cd be a2 48 61 3f
       0.4456217 -0.1267567 -0.40233922 0.88001454
0003e0 d6 7e 7c bd 98 e8 f1 be 54 92 95 3e 0d 19 25 bf
       -0.061644398 -0.47247767 0.29213202 -0.6449135
0003f0 7a d3 79 bd ce 8a 0f 3d 02 69 e8 3e 80 99 da 3c
       -0.060992695 0.035044484 0.45392615 0.026684523

network_body._body_endoder.seq_layers.0.bias f4 [128]
000000 03 b7 8a 3c f0 25 f4 bb 8a 7e a6 bb 8b 3c a6 3b
       0.01693297 -0.0074508116 -0.0050810026 0.0050731353
000010 f0 dc e2 3a 93 ff cd bb f3 65 2f 3a 49 4f c1 38
       0.0017308276 -0.0062865703 0.0006690912 9.217725e-05
000020 05 77 54 3c 9b 6d 4c 3c 71 61 f7 ba 4e 4f 07 bc
       0.01296783 0.012477304 -0.0018873644 -0.008258654
000030 be 26 8b 3c e3 7e b5 bb 2d f5 e7 3d b4 7a c7 bb
       0.016986247 -0.0055388077 0.113260604 -0.0060876254
000040 75 1f 86 bc 78 0f 4f 3a d9 60 07 bc 80 64 ff bb
       -0.016372422 0.00078987284 -0.008262836 -0.007793963
000050 95 ea 8e 39 8a b1 ea bb 54 be 00 a7 2a dd bb bb
       0.00027259128 -0.0071622776 -1.7866745e-15 -0.005733152
000060 dc cc ca ba 21 7c 1f bc a8 6b 54 bc e6 15 11 bb
       -0.001547243 -0.0097341845 -0.01296512 -0.0022138297
000070 27 2e dc b9 fa 8f 5b 3c 9a 8f ea 3b 9a 97 e0 bc
       -0.00041996056 0.013401026 0.007158232 -0.02741604
000080 86 97 9a 3c e6 52 f7 bb dc a8 1d 3e 9e 24 c6 b8
       0.01887108 -0.007547724 0.15396446 -9.448196e-05
000090 bf a2 28 3b 3f fc 41 3b ac ef d7 ba 5f 8a 19 bb
       0.002573177 0.0029599813 -0.0016474626 -0.0023428423
0000a0 67 8a 18 3e 08 ea 99 31 1d 7c e0 bb 48 ee 09 bc
       0.14896546 4.4794923e-09 -0.006850733 -0.008418627
0000b0 36 7f 44 ba 3f fc 83 32 8b bd ef bb 9a 4f db 3b
       -0.00074957625 1.5365115e-08 -0.0073162965 0.006692839
0000c0 da e2 89 bb bc 0e 1e bb 69 38 a5 bc f0 5f 61 b5
       -0.004207951 -0.002411767 -0.0201685 -8.395864e-07
0000d0 ca db c6 b3 d5 dc e9 30 27 5f 45 3c bb d8 1c b5
       -9.260073e-08 1.7015745e-09 0.012046612 -5.8429913e-07
0000e0 db 43 48 bb 6c 44 e6 3d 84 09 ff bb 61 59 13 3e
       -0.0030558023 0.11243519 -0.007783117 0.14389564
0000f0 3a f7 1b 3c 2f 57 6e 3c 98 7f d3 ba 46 e8 d4 bb
       0.009519393 0.014547153 -0.0016136048 -0.0064974157
000100 15 4e a1 b1 9d ec 58 39 12 01 77 3c 08 2e ed bb
       -4.6945936e-09 0.0002068751 0.015075939 -0.0072381534
000110 67 32 7e bb 15 4b 6e bc b3 ee 20 3d f6 24 92 ba
       -0.0038787366 -0.014544268 0.03929014 -0.0011149931
000120 80 1f 59 3a e2 99 66 3c 8b a1 aa 3c 98 d5 b4 ab
       0.0008282587 0.014074774 0.020828983 -1.2849053e-12
000130 4f 92 d4 3c b5 e1 9a 3b a4 d9 44 3d 59 14 5e bb
       0.025948672 0.0047266134 0.04805912 -0.003388664
000140 4a ea 77 bb da ed ac bb 12 8f bc 3a 65 65 58 bc
       -0.0037828856 -0.0052773776 0.00143859 -0.013207768
000150 d6 67 a7 3a ff 56 83 bb 89 0d 88 bb 43 41 2a 3d
       0.0012772034 -0.0040081735 -0.004152004 0.041566145
000160 53 92 32 3d b3 15 3f 3c 93 44 f4 b6 63 0f bb bb
       0.043596577 0.011662888 -7.2797498e-06 -0.0057086213
000170 f0 60 f4 3c 07 73 48 ad 0c 95 7c 3c 6f 89 95 3d
       0.02983138 -1.1394225e-11 0.015416395 0.07301604
000180 2b 73 ba 3b 17 b5 9f bc 7a 05 cb 3d 3a 9a 50 bb
       0.0056899986 -0.01949553 0.09913154 -0.0031830207
000190 cd 1c 0c bb 01 ee 98 ba e5 a4 18 b8 91 da 0e 3b
       -0.0021379471 -0.001166761 -3.6393194e-05 0.0021797756
0001a0 0e ae 73 3b 18 fd 4d bb d2 84 38 b9 0c 0f c6 3c
       0.0037182602 -0.0031431373 -0.00017597087 0.024177097
0001b0 56 5b 91 bb a4 0d d3 3c b3 97 8b bb ca 38 a7 ba
       -0.004435937 0.02576334 -0.0042600273 -0.0012758013
0001c0 64 a1 eb ba d4 88 57 2e c1 11 b3 ba 72 99 06 37
       -0.0017977175 4.9006868e-11 -0.0013661907 8.022749e-06
0001d0 ed 8f 90 3a 11 68 91 bc b5 90 6f 3a 1b a2 00 3c
       0.0011029221 -0.017749818 0.00091386895 0.007851149
0001e0 c6 c7 9b 3b 7e ca c3 ba fd 02 14 3c 64 44 e0 3c
       0.0047540395 -0.0014937667 0.009033916 0.027376361
0001f0 14 45 34 bc 3d 12 ba ba fe fa 40 bc 88 88 7a 3b
       -0.011002798 -0.0014196109 -0.011778591 0.0038228352

network_body._body_endoder.seq_layers.2.weight f4 [128, 128]
000000 18 9c 3c be 6f f2 de bc c0 4f c0 3d 72 3e c4 3a
       -0.1841892 -0.02721521 0.09390211 0.0014972223
000010 92 19 ab 3d 70 33 9c 3d 32 e1 1a bd a9 3d f3 3b
       0.083544865 0.076269984 -0.03781242 0.007423122
000020 d6 50 dc bd b7 e3 84 3d d7 bf 90 3d 21 c2 f6 bd
       -0.10757606 0.06488746 0.070678405 -0.12048746
000030 bc a5 9b 3d 90 53 f4 3b d7 6b 04 be f6 f9 76 bd
       0.07599971 0.0074562505 -0.12931763 -0.060296975
000040 4c 1b b0 bc ec 11 82 bc d8 a7 4c bb 10 9b fa 3d
       -0.021497391 -0.015877686 -0.0031227972 0.12236607
000050 07 c1 85 bd 59 bb d7 bd 10 d2 51 bd e9 0e 89 bc
       -0.06530958 -0.105337806 -0.05122572 -0.016730743
000060 be 50 a9 bd eb c1 3b be 8b ab e0 3c bc 9f 99 bd
       -0.082673535 -0.18335693 0.027425548 -0.0750117
000070 e3 00 0d bd e6 37 0d be 33 8f ab 3c ad 05 28 be
       -0.034424674 -0.13790855 0.020942306 -0.16408415
000080 b4 45 b7 3c 94 21 52 3e 1c d6 29 be e7 37 a8 bc
       0.022372104 0.20520622 -0.16585582 -0.020534469
000090 b7 9b c2 3d 59 85 3c 3e 94 52 5c be 71 cb 71 bd
       0.095023565 0.18410243 -0.21515876 -0.059031907
0000a0 3b fd 59 3d eb c3 a6 bd e2 ed fa bc cf 9b 39 be
       0.053220015 -0.08142837 -0.03063101 -0.18125843
0000b0 fa 7c 75 3d db 36 2f bd 59 70 8f 3d d7 d1 d0 bd
       0.05993364 -0.042776924 0.070038505 -0.10196274
0000c0 dc a6 99 bd 01 50 f1 bb 77 43 dc 3d e5 9c 98 bd
       -0.07502529 -0.0073642735 0.107550554 -0.074518
0000d0 3b 21 6a bd 11 08 a2 3d 45 dd 77 3d 97 d1 0b bd
       -0.057160597 0.07911695 0.060513753 -0.034135427
0000e0 76 e9 d9 3c 50 80 58 3e 75 5f c5 bd 8f 42 46 3e
       0.02660058 0.21142697 -0.096373476 0.19361328
0000f0 7c 26 e7 3d f9 e3 1b 3e 71 2c aa bd 61 0a 26 bd
       0.11286637 0.15223683 -0.08309258 -0.04053724
000100 d5 90 25 bd 99 82 21 3e a1 44 9d bd 05 1e c0 3d
       -0.040421326 0.15772475 -0.076791056 0.09380726
000110 37 1e f9 bc 5c 6a 0c 3d 8c 69 cd 3c fb ea 5c 3c
       -0.030409915 0.03428112 0.025074743 0.013483758
000120 a4 8d eb 3d 2f 17 0f be 15 f0 8e 3d bc fe ad 3d
       0.11501625 -0.13973688 0.06979386 0.08495852
000130 dc fd 37 bd f3 ef a4 3d 0e 95 3b bd f5 da c2 bd
       -0.044919834 0.08053579 -0.045796447 -0.09514419
000140 8b be 4b bd 2c 48 62 3d 4b 2b a1 3d 2c 4f 9b bc
       -0.049742263 0.05524461 0.078695856 -0.01895865
000150 21 5c 68 bd 20 b0 08 be 35 67 0a bd 9f 3a 94 bd
       -0.056728486 -0.13348436 -0.033789832 -0.072377436
000160 ea 12 46 3d b8 ad a0 3d 47 5a 23 bd 38 7a c9 3d
       0.04835788 0.07845634 -0.039881017 0.098377645
000170 a0 20 84 be 02 4e 8f bd 0c c3 0d 3e 3d 5d 60 be
       -0.2580614 -0.06997301 0.13843936 -0.21910568
000180 01 2b 0d 3e ce 44 04 be 17 5d 20 3d 02 91 17 3e
       0.13785936 -0.12916872 0.039151277 0.1480141
000190 74 95 18 3e af fa 2c 3d bc 05 c6 3d 6e c0 26 be
       0.14900762 0.042231258 0.096690625 -0.16284344
0001a0 71 eb 4e 3d 10 95 ed 3b 73 9a 37 be 9d 3c 8c bc
       0.050517503 0.0072504357 -0.17930011 -0.017118746
0001b0 80 8a cc 3c 4f fe bb bc 3f 16 81 3d d3 34 bf 3c
       0.024968386 -0.022948412 0.06303071 0.023340618
0001c0 12 d2 b5 bd 36 08 14 3d 79 5d aa bd a0 16 38 3d
       -0.08877958 0.036140643 -0.0831861 0.044943452
0001d0 6a a9 ae 3d c6 36 51 bd 0d ed d7 bc c1 fb 10 3d
       0.08528407 -0.051077627 -0.026358152 0.03539634
0001e0 97 f0 d0 3d d5 fb d8 3c bd 10 1d 3e 2b 58 4c 3d
       0.10202139 0.02648727 0.15338416 0.04988877
0001f0 2f cf 4d 3e 05 03 17 3c 5a aa 37 3e 23 58 70 3d
       0.20098566 0.0092170285 0.17936078 0.058677804
000200 d7 91 0a be 48 a8 8e bc 04 95 e0 3d c1 38 21 3e
       -0.13532196 -0.017414227 0.109659225 0.15744306
000210 db b2 0a 3d 6a 42 84 3c 81 a3 ec bc 95 3a 7a 3e
       0.033861976 0.01614495 -0.028886558 0.2443641
000220 ca 42 d4 3d 62 85 42 3d 7d d2 01 be 60 04 01 3d
       0.103643015 0.047490485 -0.12677951 0.031498313
000230 6a d3 49 bd 98 90 5a bc 49 ac 32 3d 84 f5 85 bd
       -0.049273886 -0.013340138 0.043621335 -0.06540969
000240 ef 69 3d bd 5f 64 83 bb e2 6e b3 bd 67 ef 99 3d
       -0.046243604 -0.004009768 -0.087613836 0.075163655
000250 07 98 ba bd 2f 5c ab 3d 9e 81 b9 bd c6 e8 38 bd
       -0.09111028 0.08367192 -0.09057926 -0.045143865
000260 0e 98 f1 3c 26 ef 2f 3d 4c 43 cf 3d 6f 63 0d be
       0.02949145 0.04295268 0.10120258 -0.13807462
000270 4a ae d8 3d fb 38 fb 3d 0b 9f 86 bd 27 e4 23 3e
       0.10580118 0.122667275 -0.06573304 0.16005002
000280 f9 cf 00 be e4 3c 6f bd db e5 23 3e 05 ee 02 bd
       -0.12579335 -0.05840768 0.16005652 -0.031965274
000290 e8 1f 8a 3c 7c a1 a4 bd f7 8f 35 3d e1 8f 37 3e
       0.016860917 -0.08038613 0.04432675 0.17925979
0002a0 e9 65 65 3e 0c 50 bc 3d a2 f2 c0 3d 44 e6 b6 bc
       0.22402157 0.09194955 0.094212785 -0.022326596
0002b0 7f 1a a1 bd 15 33 eb 3b 9f bd 8f bd 85 18 90 3c
       -0.07866382 0.0071777203 -0.07018589 0.017589817
0002c0 5e 63 e9 3c 0c d9 b7 bd 42 ba 9e bc b1 50 b4 3d
       0.028489765 -0.08976945 -0.019375924 0.08804453
0002d0 5d 61 89 3c 30 a9 38 be 7b a1 6b bc c9 73 4e bd
       0.01677006 -0.1803329 -0.014381762 -0.05040339
0002e0 67 98 b1 3d c8 29 61 3d b7 70 98 bd b9 ee 50 be
       0.086716466 0.054971486 -0.07443374 -0.20403565
0002f0 8c 3d b9 bd 16 56 ce bc da 01 10 bd 81 83 c3 bd
       -0.09044942 -0.025187533 -0.035158016 -0.09546567
000300 67 c4 48 bd cf 12 68 bc 27 9c 0b 3d 5a a3 2b 3e
       -0.04901543 -0.014164641 0.034084465 0.16761532
000310 5f 13 61 bd da 52 19 3e 35 4e 4e 3e c3 91 d4 3c
       -0.054950114 0.14973012 0.20147021 0.02594841
000320 bc 99 fd bd 0b 10 2d 3e 9f e2 36 be 30 0d cb bc
       -0.12382838 0.16900651 -0.17859887 -0.024786562
000330 13 14 38 3c 8c 69 de 3d 43 9b 60 bd 45 cb ec bb
       0.011235255 0.10859975 -0.05483557 -0.00722638
000340 26 37 c0 bd 1e 87 57 be 66 d2 aa bc a0 a5 d2 ba
       -0.09385519 -0.21047637 -0.020852279 -0.0016071089
000350 b1 4d d5 3c a6 47 4e 3e b7 e2 5b bb 9d 46 a9 3d
       0.026038023 0.20144519 -0.003355188 0.082654215
000360 a3 88 6b bd 7d 7b 85 3c ef 86 45 bc 22 67 e2 bd
       -0.057503354 0.016294235 -0.012056096 -0.11054827
000370 d4 2b 54 3e b1 d6 4b bd 3c 75 13 3e c4 1d 18 3e
       0.20719844 -0.049765293 0.1440019 0.14855105
000380 e9 d0 b4 bd e1 5a 82 3d a3 6b b4 3d ff 67 b9 bd
       -0.08828909 0.0636499 0.088095926 -0.09053039
000390 fa 46 1e be f8 ec 12 be aa f4 38 3c db 6d af bc
       -0.15456763 -0.14348209 0.011288801 -0.021414688
0003a0 bc e1 91 bd 00 af d8 bb e1 1a 25 3d 92 12 19 3d
       -0.071231335 -0.0066126585 0.040308837 0.037371226
0003b0 c8 af ba 3c ee 73 23 bd 02 d6 61 3e 0e 22 5e 3d
       0.022788897 -0.03990548 0.22054294 0.054231696
0003c0 9a 8b a0 3c 70 6f 03 be ee 75 5e be a0 dd e0 bd
       0.019597817 -0.12835479 -0.21724674 -0.109797716
0003d0 c9 ab db 3c 5e 50 b9 bc 7f 9a 46 3b c5 44 c9 3d
       0.026815312 -0.02262133 0.003030449 0.0982757
0003e0 a8 da 46 bc 0b a6 80 3d 13 93 c7 bd 85 05 c6 3d
       -0.012137093 0.0628167 -0.09744849 0.096690215
0003f0 57 c8 dd bc d1 58 d7 bd b6 e4 f6 bc 50 0f 53 bc
       -0.027073069 -0.10514987 -0.030138355 -0.012882069

network_body._body_endoder.seq_layers.2.bias f4 [128]
000000 db b4 98 3b 08 c1 6b 3b b6 ed c7 b8 e6 69 6b bb
       0.0046602315 0.003597321 -9.5333366e-05 -0.0035921275
000010 95 83 ba ba 17 e5 04 3b 6c 95 37 3a 3c 4e 37 38
       -0.0014229888 0.002027815 0.00070031616 4.370346e-05
000020 91 cc 16 3c 8a a0 bf 3b fd 6e c2 3a 0d 1c 95 bb
       0.009204046 0.005847995 0.0014834102 -0.004550463
000030 c5 64 17 3b a5 7a 01 bb 0f f8 fb ba 7b c2 9f 3b
       0.0023100835 -0.001975694 -0.0019223707 0.004875479
000040 e0 21 dd 39 59 74 b8 ba 6e cd b8 3a cc 46 02 bc
       0.00042177644 -0.001407276 0.0014099309 -0.00795145
000050 15 85 9a bb 0b 91 45 3c e8 93 db bb d1 d0 85 3a
       -0.0047155716 0.012058507 -0.0067009814 0.0010209327
000060 10 0e a6 3a a5 3d dc ba 74 83 e1 bb 2a 7c 3a bb
       0.0012668986 -0.001680304 -0.0068821255 -0.0028455355
000070 47 29 98 b9 ee 29 a8 bb 12 ee 70 3a 73 0e eb b9
       -0.00029022453 -0.0051319515 0.00091907487 -0.00044833458
000080 a6 12 2c 3c be c6 86 ba b9 dd 55 bb 7b c0 a1 bb
       0.010502493 -0.0010282618 -0.0032633378 -0.0049362755
000090 59 6c 93 bb bb d2 bf ba d8 3f 3e 3b 64 d5 de b9
       -0.004499 -0.0014634946 0.0029029753 -0.00042502128
0000a0 09 1b 68 3b 7d 9f 16 bb 03 42 9d bb c6 90 01 bb
       0.0035416505 -0.0022983246 -0.004799129 -0.001977013
0000b0 9c 6c 04 bc a3 22 b4 3b 6f e3 61 bb ce f4 33 bb
       -0.008082535 0.005497293 -0.0034467836 -0.0027459147
0000c0 0a 80 a0 ba 2b 29 e1 3b f8 f0 79 bb ea 82 8f bb
       -0.001224519 0.0068713627 -0.0038138013 -0.00437962
0000d0 8d 54 03 bb 1c 97 20 bb d0 8c 79 bb f4 8f a3 38
       -0.002003941 -0.002450413 -0.0038078316 7.799259e-05
0000e0 9a ba 5b bb a9 e8 c1 3b 4f 57 d2 ba ee d9 0a bb
       -0.0033527971 0.005917628 -0.0016047749 -0.0021187025
0000f0 a2 88 6c 39 8e 23 de 3b 2a 40 52 3a 43 07 8d bb
       0.00022557614 0.006779141 0.00080204254 -0.004303844
000100 64 12 0e bb 00 23 0e 3c 21 96 8f 3b e1 88 a9 bb
       -0.0021678442 0.008675337 0.0043819104 -0.005173788
000110 ba 7d 67 b9 67 d0 bf b6 cf bd 1b 3c 0a 87 56 ba
       -0.00022076714 -5.716505e-06 0.009505703 -0.00081835745
000120 5a 96 3d bb 91 de 59 3a 75 74 77 bb 47 62 34 3c
       -0.0028928728 0.0008311058 -0.0037758623 0.011009759
000130 75 a1 34 ba ed 35 24 bc ea f8 f6 bb f7 45 30 bb
       -0.0006890514 -0.0100226225 -0.007536997 -0.002689717
000140 aa 98 0c bb c5 7b 8b bb 25 44 b6 3a 81 20 48 ba
       -0.00214533 -0.004256698 0.0013905807 -0.0007634238
000150 13 f3 a8 bb a4 9b 3f bb 5f 7a 10 3c 24 87 d9 37
       -0.00515593 -0.0029237056 0.008818238 2.5931346e-05
000160 c0 85 93 bb 46 c7 36 bb ef 4f 0f 3b 0d db e0 ba
       -0.004502028 -0.0027889772 0.0021867712 -0.0017155126
000170 77 94 2e 3c e1 2c 57 bb 53 d8 60 39 48 9f 52 bb
       0.010655514 -0.0032833146 0.00021442892 -0.0032138396
000180 22 95 96 3b 79 0a dd bb 57 14 c4 39 49 83 e9 ba
       0.0045954147 -0.006745633 0.00037399188 -0.0017815615
000190 f6 69 8d 37 cd 38 e9 3b de a8 06 3b 30 63 88 bb
       1.6857852e-05 0.007117367 0.002054743 -0.0041622147
0001a0 d1 58 2b ba 12 cf 55 3b 40 06 35 3c 86 e5 db ba
       -0.0006536367 0.0032624644 0.011048853 -0.0016776777
0001b0 a8 27 03 39 98 00 3b ba 1e 78 12 ba 27 33 1d bb
       0.00012507907 -0.00071335724 -0.0005587357 -0.0023986788
0001c0 c9 4d f9 39 14 0e 38 b9 a8 7e 45 bb 03 69 32 bb
       0.00047550935 -0.00017552852 -0.0030135307 -0.0027223236
0001d0 fc 9b 18 3c df 67 3a bb 82 c5 0a 3c 32 cf b5 3b
       0.009314533 -0.002844326 0.008469941 0.0055483812
0001e0 f1 bf 28 bb 4b c7 b7 bb 35 06 20 ba 45 b2 23 bb
       -0.0025749172 -0.0056084744 -0.00061044405 -0.0024978083
0001f0 36 85 0b bb a9 62 27 3a 47 6c 7e 3c 6f 3d 2b bb
       -0.0021289117 0.0006385246 0.015528745 -0.0026129147

action_model._continuous_distribution.log_sigma f4 [1, 2]
000000 df 52 79 be 32 31 20 bd
       -0.24348019 -0.039109416

action_model._continuous_distribution.mu.weight f4 [2, 128]
000000 43 57 93 3d 2e 9d cd 3c b6 43 28 3b ff 0e 71 bc
       0.07194378 0.025099363 0.0025675124 -0.014713048
000010 fa 18 0d bc 4f 4b 6a bc de 93 f1 bc 03 89 21 bd
       -0.008611912 -0.0143001815 -0.029489454 -0.039437305
000020 05 7a a4 3d f2 2c b7 bd 54 47 e3 3c 18 f5 93 3c
       0.08031086 -0.089441195 0.027743973 0.018061206
000030 85 25 18 bd 7d 3e 0b 3d 1b b5 51 3c d7 3a 37 bd
       -0.037145156 0.03399514 0.012799527 -0.04473385
000040 22 9c 62 bd 5c 24 c3 3c 3b 0a 4f 3d 06 e8 bf 3a
       -0.05532468 0.023821048 0.050546866 0.0014641292
000050 86 ec 2d ba a6 d5 c8 bd a4 09 d0 ba c1 87 d7 bc
       -0.0006634671 -0.09806375 -0.0015872014 -0.02630985
000060 d7 50 83 3c 2c 5c f2 3c c7 a4 e0 bb 1b 55 01 bd
       0.016029758 0.029584967 -0.0068555805 -0.031575304
000070 33 39 8a 3c d8 9a 10 3b 23 0f ed 3c de a5 91 bb
       0.016872978 0.002206495 0.028937882 -0.0044448217
000080 d6 55 9c bd 11 bd f6 3b 81 bb f1 3b 08 a7 77 3b
       -0.076335594 0.0075298627 0.0073770885 0.0037788767
000090 67 a6 69 bb 75 3f 9e 3c 70 c7 ad 3c 8a 68 9b bd
       -0.0035652162 0.019317368 0.021213263 -0.075882986
0000a0 40 13 34 bd db bd 3f 3c b2 61 d2 3b ce 25 22 3d
       -0.04396367 0.01170298 0.0064203376 0.039586835
0000b0 cc 75 01 3c a0 7a fc bc 19 0a 05 3d 3b b1 4f bc
       0.00790162 -0.03082019 0.032480333 -0.012676532
0000c0 b4 da bb bc 72 8c 84 3c ed 28 07 3c 88 c8 02 3c
       -0.022931434 0.01618025 0.008249504 0.007982381
0000d0 94 a1 c2 bb 0b 64 82 bc 83 b7 32 3d 0d 37 27 3c
       -0.005939672 -0.015916845 0.04363204 0.010205996
0000e0 c8 53 fa 3c e1 0c c7 bb b1 f0 bd bc 19 f6 ee 3c
       0.030557528 -0.0060745333 -0.02318606 0.029170083
0000f0 c4 23 ec 3c 78 8e 75 3d 91 aa 41 bd 92 40 84 ba
       0.028825648 0.059950322 -0.047281805 -0.0010090044
000100 98 b3 ef bc bb 89 95 bd e3 04 ba bd 67 af 8d b9
       -0.029260442 -0.073016606 -0.09082963 -0.000270243
000110 1f 7e e5 bb 8c 5a f1 3a a8 6b 59 3d 9d 30 aa 3c
       -0.00700356 0.0018413826 0.053081185 0.020775134
000120 50 bb 9f 3c b4 c5 fe bc 4c 87 25 bc 27 b7 38 bd
       0.019498497 -0.031100132 -0.010103058 -0.045096543
000130 2c 8f 98 bc 2f 82 a1 bb bd 44 1e 3d 5a 97 54 bc
       -0.018622957 -0.004928849 0.038639773 -0.012975538
000140 58 7f e4 3c 4d 2e 6b bc 8b b1 70 3a 6d 33 c2 3b
       0.027892753 -0.014354301 0.00091817294 0.0059265406
000150 be 35 99 3b da 0e c2 bc cb 47 9e 3d 63 15 08 bd
       0.004675596 -0.023688722 0.07728537 -0.03322352
000160 b9 30 0a 3b 28 38 2c bc 3b 2b 94 3d e6 a9 c7 3c
       0.002108617 -0.010511436 0.07234808 0.024373006
000170 27 8b 5b bd 02 81 90 3c 5e b6 81 bc 15 e8 2e bd
       -0.053599503 0.01763964 -0.01583403 -0.0427018
000180 d8 24 50 bc 14 99 d8 3c 45 01 28 3d 93 a3 3d 3c
       -0.012704097 0.02644018 0.041016836 0.011574644
000190 8f 8a 58 bc 24 ca 09 3d e5 e3 88 bc 6d 0f 15 3b
       -0.013216629 0.033640042 -0.016710231 0.002274479
0001a0 29 7b 2f bd 03 e9 dd bc f8 37 52 3d 1a 07 16 3d
       -0.042842064 -0.027088648 0.051322907 0.036627866
0001b0 45 b9 5a 3c 5f af a4 3c 5e f9 f8 bb 4e 62 4a bd
       0.013349836 0.020103155 -0.0075980863 -0.049410157
0001c0 8e b8 dd bc 83 7e 0e 3c f2 0b 06 bc ef 4b 07 bc
       -0.027065542 0.008697155 -0.008181559 -0.00825785
0001d0 1e 49 a2 3d ed ee b8 3c 9f 0e b2 3d 93 fd 2f bd
       0.07924102 0.022574866 0.08694195 -0.042966437
0001e0 77 4a 0a 3b 7f c2 68 bc 54 a1 72 bc 21 7d 02 3d
       0.0021101513 -0.014206528 -0.014808971 0.031857613
0001f0 22 b4 10 3d 4b ca 83 3c 6f 21 a5 bd d7 65 77 3c
       0.035328038 0.016087672 -0.080630176 0.015099964
000200 a1 f8 1f 3c 4f ad 40 3c ba 5d 50 bc cb 74 db 3c
       0.009763868 0.01176007 -0.012717659 0.02678909
000210 1a 14 a3 bb 75 3c 4f 3c 68 92 6e bc e4 2c 04 bc
       -0.0049767615 0.012648691 -0.014561273 -0.008067343
000220 97 a6 33 ba 8d f5 64 bc dd 12 2f bc 5f e2 0d bb
       -0.0006853132 -0.0139745595 -0.01068565 -0.002164982
000230 90 04 7e 3c b7 0c 03 3c f6 ea 84 bc e9 fd 35 bd
       0.0155040175 0.007998637 -0.01622532 -0.0444316
000240 3f 9e 63 3c c6 c1 ac bb 53 7d a1 3c fc b2 a4 3c
       0.013892709 -0.005272123 0.01971308 0.020104878
000250 f0 ee 37 3c e5 b9 28 3d 2f 3d f6 3a 3c 15 6d bc
       0.011226401 0.041192908 0.0018786545 -0.014470395
000260 ee 6e ab bb e1 88 20 3c 44 3d b0 3c 3c f3 2b 3c
       -0.0052317297 0.0097982595 0.021513589 0.010495003
000270 95 08 71 3b 3d 04 24 3c cd 8e 31 3c d0 50 97 3c
       0.0036778797 0.010010776 0.010837269 0.018471152
000280 6d ff f6 3c b2 05 c7 b8 bc 8d b4 ba 46 44 38 3a
       0.030151093 -9.49012e-05 -0.001377515 0.00070292165
000290 1f f0 e9 3c 92 eb 8d bb 0f b3 67 bc d4 87 c2 3c
       0.028556881 -0.0043310607 -0.014141812 0.023746409
0002a0 a7 25 71 3c 16 da 7a bc 5e c2 ab b9 e8 00 e4 3c
       0.01471845 -0.015310785 -0.00032760476 0.027832463
0002b0 ab 41 97 bc e9 72 ce 3c 1e e8 a1 bc 21 c2 51 3c
       -0.01846393 0.025201278 -0.019764002 0.012802632
0002c0 1b 80 95 3b ad b5 20 3d 1a 9c 2b 3c 7f 3a 90 ba
       0.0045623905 0.03923576 0.010474229 -0.0011003761
0002d0 4f 82 4e 3b 84 98 08 3c da 44 c9 3b e1 0b 8c bc
       0.0031510775 0.008337144 0.006142241 -0.017095508
0002e0 30 65 b8 3c 57 43 06 bd fd fe 41 3c 82 02 20 3c
       0.022509187 -0.032779064 0.011840579 0.009766223
0002f0 38 6c c6 bc 1e f0 85 bc 34 85 82 bc b2 a2 be 3c
       -0.024221525 -0.016349848 -0.015932657 0.023270939
000300 f9 96 80 3a f3 82 14 bc 21 4b ac 3c ad c0 f1 bb
       0.0009810618 -0.009064424 0.021031918 -0.007377705
000310 7c 19 10 bc c7 fa c3 3c 11 ee 9a bb 03 64 0a bc
       -0.008795138 0.02392329 -0.0047280868 -0.008446696
000320 5c 68 1e 3c 6b 62 87 bc 09 1e d3 3c f9 7c 92 3c
       0.009668436 -0.016526422 0.025771158 0.017881857
000330 8f 92 44 3a bf 4c ad 3c 6b 6f 1c bd e5 6a 59 3c
       0.00074986456 0.02115476 -0.038192194 0.013270115
000340 60 95 9d 39 fb db 70 3c 4b f7 98 3c c7 6e 6e bb
       0.00030056667 0.014700885 0.018672606 -0.0036381946
000350 d6 48 f2 3a 82 25 9d 3c 82 77 40 3c 88 03 4c bb
       0.0018484842 0.019182924 0.011747243 -0.0031130034
000360 df fb e1 bb f1 f1 f0 bb 37 bf 8c bc 17 59 d9 3b
       -0.0068964805 -0.0073530604 -0.017181022 0.006632935
000370 37 ec 6c bb eb e7 ff 3c 45 db 32 bc 65 4e 17 3c
       -0.0036151537 0.031238517 -0.010916536 0.009234999
000380 7f 49 04 bc 4f 26 a0 3c 09 81 3d 3c 72 30 21 bb
       -0.008074163 0.019549517 0.011566409 -0.0024595526
000390 ed 2a c9 3b d5 1a f5 ba 7e d8 55 3c fb d4 e2 ba
       0.0061391504 -0.0018700013 0.013052104 -0.0017305905
0003a0 fa 1d 82 bb 70 97 09 bb 36 05 30 3d 3e 5d 38 3c
       -0.0039708586 -0.0020994805 0.04297372 0.011252699
0003b0 cc 9c aa bc 59 bd 7a bc af f8 15 bc 0a 48 11 3d
       -0.02082672 -0.015303933 -0.009153529 0.035469092
0003c0 fa 1c 3e bc 28 83 80 3c d9 5d a3 3c 1e 40 7c bb
       -0.011603588 0.01568754 0.019942211 -0.0038490365
0003d0 9e 29 08 3b 26 35 5f 3c 46 3c 12 3c 20 8c f9 3c
       0.002077676 0.013623511 0.008925503 0.030462325
0003e0 40 c8 dc bb 66 db 5f b9 21 90 27 bb d3 77 2a 3c
       -0.006737739 -0.0002134867 -0.0025568085 0.010404545
0003f0 94 93 10 3c 6f 35 ee bc c3 07 0d 3b 29 d1 51 bc
       0.008824248 -0.029078213 0.002151952 -0.012806215

action_model._continuous_distribution.mu.bias f4 [2]
000000 34 a5 23 ba 29 bc 5d bb
       -0.0006242574 -0.0033834076

exp_avg f4 [128, 6]
000000 b8 5b 84 af 9c 61 9d b0 f8 6d 84 31 97 e2 7a b0
       -2.407583e-10 -1.1450996e-09 3.8542076e-09 -9.1271474e-10
000010 1a a2 51 b1 98 cb ba 33 2a 69 3c 39 b8 4d 18 b7
       -3.0505647e-09 8.6983334e-08 0.00017968254 -9.078001e-06
000020 00 d0 83 b6 38 de 9c b6 36 13 83 b7 e0 96 e9 39
       -3.9283186e-06 -4.675032e-06 -1.5625363e-05 0.00044553634
000030 db 1d 83 38 d6 be e0 36 a4 77 d0 b8 24 70 57 36
       6.252128e-05 6.6979364e-06 -9.940498e-05 3.210277e-06
000040 c9 03 34 37 26 67 a0 b9 63 14 7d 36 e0 dc 6c 34
       1.0729717e-05 -0.0003059443 3.7711804e-06 2.2059567e-07
000050 08 b8 00 b7 0e df 17 34 d8 cc fd 34 80 26 62 b7
       -7.672243e-06 1.4144118e-07 4.7273966e-07 -1.3479614e-05
000060 b2 6d 15 b7 7e 19 db b6 40 3c 68 38 a0 76 33 b6
       -8.9066325e-06 -6.5296763e-06 5.5369223e-05 -2.6742127e-06
000070 6e f4 15 b7 68 9e 85 39 af 91 06 b8 80 98 d0 35
       -8.938003e-06 0.0002548576 -3.2083768e-05 1.5541591e-06
000080 90 a8 43 38 80 1d dc b3 80 e8 b7 b4 00 e4 23 37
       4.664861e-05 -1.0249914e-07 -3.4255572e-07 9.7686425e-06
000090 69 95 4a b8 e7 99 68 b7 6f ea 88 39 3e e4 f0 b6
       -4.8299702e-05 -1.3864111e-05 0.00026114608 -7.1791283e-06
0000a0 66 48 c9 b7 ce 5a 33 3a cd c0 66 b8 7a b1 27 b7
       -2.399478e-05 0.0006841839 -5.5015833e-05 -9.995298e-06
0000b0 de 87 5a 39 a4 c5 bd b6 95 91 9e b7 34 4b 0d 3a
       0.00020840715 -5.6556473e-06 -1.890286e-05 0.0005389929
0000c0 21 85 d3 39 a8 ca e0 b7 c0 30 8a 39 3d f7 64 b7
       0.00040344245 -2.679725e-05 0.00026357733 -1.3647424e-05
0000d0 46 51 3f b8 8d 79 aa 3a b4 b7 91 b8 7d 9a 8b 37
       -4.561364e-05 0.0013006196 -6.948356e-05 1.664203e-05
0000e0 e0 3a e0 b8 ba 87 0d 37 9d 84 ec 37 48 c0 52 ba
       -0.00010692119 8.435856e-06 2.8195145e-05 -0.00080395164
0000f0 c0 e9 0b 39 00 82 4f 34 b0 c3 ab b8 60 9d a8 35
       0.00013343152 1.9325671e-07 -8.190365e-05 1.2562778e-06
000100 20 e4 8c 36 d0 15 fb b8 3e 68 8f b8 f3 d6 0f b7
       4.1988824e-06 -0.000119726756 -6.838188e-05 -8.573511e-06
000110 f0 9d 2c 39 89 0a 9d b6 38 38 83 b7 42 d9 e9 39
       0.00016462035 -4.680191e-06 -1.5642596e-05 0.00044603093
000120 23 00 53 37 58 d7 a6 37 16 33 00 b9 94 c4 46 37
       1.2576612e-05 1.988902e-05 -0.00012226062 1.1847489e-05
000130 da 15 26 38 dc fd 93 ba 15 3e fb 38 4e 22 8a b6
       3.9597835e-05 -0.0011290866 0.00011980176 -4.116714e-06
000140 e4 39 b3 38 90 7e ac b5 8c 21 90 b6 14 6e 00 39
       8.546168e-05 -1.2851833e-06 -4.29544e-06 0.00012248039
000150 92 9e cc b8 2a 7e 7e 37 3a 57 c0 b9 3c 29 01 37
       -9.757014e-05 1.5168955e-05 -0.00036686083 7.6986e-06
000160 d3 d8 d7 37 17 55 40 ba 1d 63 0e 38 e0 f7 c8 b5
       2.5730964e-05 -0.0007336898 3.3947745e-05 -1.4973302e-06
000170 88 3f 3e 38 08 20 b2 b4 80 d6 94 b5 b8 9f 04 38
       4.5358698e-05 -3.317839e-07 -1.1089287e-06 3.1620002e-05
000180 e5 1d 09 36 9d 3c 65 35 d5 06 9c b6 94 66 ea 34
       2.0431992e-06 8.539735e-07 -4.6499576e-06 4.3660532e-07
000190 f2 db c3 35 97 85 2e b8 58 6c 04 b6 78 a9 8e b6
       1.4592645e-06 -4.1609248e-05 -1.9732597e-06 -4.2516585e-06
0001a0 1d 75 be 37 cc d5 40 b6 ca 20 21 b7 11 93 8f 39
       2.27043e-05 -2.8734676e-06 -9.603982e-06 0.00027384658
0001b0 a6 8d a5 38 20 64 2c 35 00 54 77 b7 d0 29 e1 35
       7.894197e-05 6.4220694e-07 -1.4741905e-05 1.6775975e-06
0001c0 48 24 bc 36 00 a5 27 b9 95 23 a0 38 d8 07 52 36
       5.6070603e-06 -0.00015987828 7.636022e-05 3.1297004e-06
0001d0 90 13 8d b7 f1 64 23 36 1c 87 08 37 c0 4e 73 b9
       -1.681762e-05 2.4347648e-06 8.137689e-06 -0.00023203623
0001e0 00 71 ed 38 74 ec 0f b7 f0 30 45 b9 20 46 8b b6
       0.000113220885 -8.578518e-06 -0.00018805615 -4.1506864e-06
0001f0 d0 be 68 b7 f8 63 cf 39 06 97 ae 38 f4 34 8c b6
       -1.3872705e-05 0.000395566 8.325097e-05 -4.1784897e-06
000200 68 dc 07 38 24 7a cb b5 90 05 aa b6 f4 7f 17 39
       3.2391777e-05 -1.5160226e-06 -5.0670424e-06 0.00014448148
000210 01 90 69 99 40 ae 5b 98 a6 41 d6 19 48 62 9b 98
       -1.2074899e-23 -2.839306e-24 2.2153597e-23 -4.01658e-24
000220 b8 d5 81 99 74 61 e7 1b 1e b7 e5 b8 e8 2d 3d 36
       -1.3424608e-23 3.8278722e-22 -0.00010953679 2.8189916e-06
000230 40 18 6c b7 80 b3 03 35 70 17 dc 35 b0 1d 44 b8
       -1.4072342e-05 4.906251e-07 1.6398099e-06 -4.675769e-05
000240 aa 94 9d 39 fc da 36 37 58 70 43 b9 60 f6 e0 36
       0.00030056137 1.0899032e-05 -0.000186385 6.704402e-06
000250 00 f9 bb 37 a6 7e 27 ba 89 eb 08 39 38 10 19 b7
       2.2408087e-05 -0.00063894165 0.00013057714 -9.123287e-06
000260 b0 77 d2 38 e4 83 81 b6 7e 70 58 b7 4a dc c0 39
       0.00010035874 -3.8598537e-06 -1.2900795e-05 0.00036785222
000270 a5 85 4f 38 15 67 c6 b6 e8 c7 0d 39 ce e8 5d b6
       4.9477112e-05 -5.91286e-06 0.00013521279 -3.3067076e-06
000280 02 6c 39 b7 bb 38 a5 39 cf 58 64 39 20 05 2e 37
       -1.1052007e-05 0.0003151352 0.00021776858 1.0372401e-05
000290 88 92 d3 b8 78 9e d6 36 5c 54 b3 37 56 cb 1f ba
       -0.000100885576 6.396145e-06 2.1377746e-05 -0.0006095668
0002a0 ad e9 9e 2c ef 69 e1 2a 7b ec 8b ab 1e 4c 26 aa
       4.5165733e-12 4.0041535e-13 -9.942181e-13 -1.477017e-13
0002b0 2d f4 0a ab bc a1 77 2d 66 a4 ae 39 e8 f0 51 b7
       -4.936631e-13 1.4076237e-11 0.00033310353 -1.2513461e-05
0002c0 b0 03 2a 39 50 63 91 b6 70 f6 72 b7 e8 7e d8 39
       0.00016213837 -4.3328982e-06 -1.4481702e-05 0.00041293283
0002d0 5e 2c 2f 37 5a 38 10 b7 c0 32 e2 37 4a ca d0 b6
       1.0441143e-05 -8.596189e-06 2.6964932e-05 -6.2224326e-06
0002e0 b0 75 ae b7 24 74 1b 3a 34 9b 16 b8 18 08 b8 b5
       -2.0797219e-05 0.0005930087 -3.590733e-05 -1.3711424e-06
0002f0 b0 90 92 38 68 b8 39 b5 a4 2e 1b b6 bc 46 8a 38
       6.988773e-05 -6.9186217e-07 -2.3123948e-06 6.593528e-05
000300 08 89 91 37 74 d5 23 36 f8 65 a1 b8 c8 a8 a8 35
       1.7349157e-05 2.4413139e-06 -7.6960714e-05 1.2566097e-06
000310 58 ed 8c 36 10 26 fb b8 aa d6 f1 b9 60 a4 f6 36
       4.1999556e-06 -0.000119757024 -0.0004612704 7.350507e-06
000320 c0 bb 2c 39 30 e7 3c 36 90 d7 1d 37 20 a5 8c b9
       0.0001647314 2.8148752e-06 9.408119e-06 -0.0002682591
000330 7c 5a ba b8 20 5d 48 b7 de 5f 06 3a 84 9b c5 b6
       -8.886025e-05 -1.1942611e-05 0.00051259797 -5.889162e-06
000340 b0 1d a5 b7 d2 20 13 3a cc e8 38 2d 0b f2 ca 2b
       -1.9683357e-05 0.00056124956 1.051088e-11 1.4420144e-12
000350 12 60 61 ae c9 1f 4c 2b a5 8f 2a 2c e6 fa 97 ae
       -5.1244405e-11 7.251947e-13 2.4238192e-12 -6.9112535e-11
000360 f6 31 e6 39 74 9d 36 b8 c8 34 a3 39 da f8 b9 b7
       0.00043906242 -4.353882e-05 0.00031129108 -2.21696e-05
000370 b9 64 9b b8 f7 76 0a 3b 95 ea 29 ba 80 81 2e 36
       -7.409737e-05 0.0021128037 -0.0006481794 2.60034e-06
000380 08 3f 57 3a 80 8b cd 35 20 be ab 36 60 06 19 b9
       0.00082109915 1.531429e-06 5.1183306e-06 -0.00014593592
000390 69 48 f7 b9 18 01 60 b7 68 7b e7 39 94 95 1a b7
       -0.0004716546 -1.3351695e-05 0.00044151698 -9.213942e-06
0003a0 ac 2a 01 b8 4c 30 66 3a df 29 3a 39 70 7e e7 b6
       -3.0795738e-05 0.00087810005 0.0001775394 -6.8990557e-06
0003b0 60 5e 06 38 e0 46 2e b6 a4 9e 11 b7 e4 c1 81 39
       3.2035983e-05 -2.5969275e-06 -8.67961e-06 0.00024749257
0003c0 ba a4 ec b8 e0 d4 19 b6 a0 50 6d 39 70 3a 8e b5
       -0.0001128404 -2.2922686e-06 0.00022632116 -1.0596832e-06
0003d0 60 af 6d b6 20 ca d3 38 9c 23 37 25 8a 7b 59 24
       -3.5417834e-06 0.00010098913 1.5884785e-16 4.7159016e-17
0003e0 00 83 f6 a5 fc ce 45 24 a4 48 25 25 02 47 93 a7
       -4.2762967e-16 4.2892888e-17 1.433608e-16 -4.0877683e-15
0003f0 8c db 04 39 08 8b 86 b6 40 77 14 37 d0 ef 90 b5
       0.00012670289 -4.0096966e-06 8.8492525e-06 -1.0798631e-06

exp_avg_sq f4 [128, 6]
000000 46 e1 4f 27 69 80 df 23 29 72 d1 26 70 f4 0f 25
       2.8849142e-15 2.4232092e-17 1.4533231e-15 1.2486091e-16
000010 8b 03 c9 26 0d 9a 9f 2b 33 db 61 36 06 56 95 35
       1.3948137e-15 1.1340387e-12 3.3655203e-06 1.1126401e-06
000020 42 df 2f 3a f3 3b 99 34 b5 f8 55 36 d4 e3 29 3b
       0.0006708988 2.854209e-07 3.188424e-06 0.002592315
000030 88 c0 21 35 9d 03 65 34 3d 03 f6 38 5e 06 77 33
       6.0257344e-07 2.1328601e-07 0.00011730797 5.751496e-08
000040 17 78 2c 35 08 f0 08 3a 61 c8 12 31 ea 28 53 30
       6.4249747e-07 0.0005223756 2.1359698e-09 7.6819495e-10
000050 52 38 ec 34 64 fe 5a 2f e3 e5 18 31 0a cc f2 35
       4.3999404e-07 1.9917362e-10 2.2249587e-09 1.8089788e-06
000060 03 6f 82 34 98 97 d8 33 83 72 66 38 7c 5a e4 32
       2.429516e-07 1.00858585e-07 5.494292e-05 2.6583841e-08
000070 bf 6e 9f 34 8a 2c 7d 39 6b 0a 40 35 01 b3 9b 34
       2.9696636e-07 0.00024144552 7.1540734e-07 2.9001242e-07
000080 89 45 23 39 b1 16 a7 33 43 51 69 35 15 40 39 3a
       0.00015570795 7.780671e-08 8.6917515e-07 0.0007066739
000090 41 de 31 35 ee ff 80 34 a6 57 0d 39 9b 79 8a 33
       6.626106e-07 2.402807e-07 0.0001347946 6.448246e-08
0000a0 ab 5c 41 35 be 86 19 3a a0 fe 0c 35 3e d9 43 34
       7.203295e-07 0.0005856565 5.252459e-07 1.8239822e-07
0000b0 54 3c d2 38 1a 1b 55 33 8c c9 14 35 fa 44 ec 39
       0.00010024817 4.9617576e-08 5.5427586e-07 0.0004506482
0000c0 96 18 96 37 df dd bd 36 e9 97 65 3b f1 e3 c2 35
       1.7892842e-05 5.658468e-06 0.0035033172 1.4520466e-06
0000d0 d2 11 88 37 fe 12 58 3c a5 b6 84 35 31 2a 94 34
       1.6220762e-05 0.013188122 9.887923e-07 2.7597846e-07
0000e0 cf 96 42 39 4b 16 98 33 a8 5e 54 35 3f 9e 28 3a
       0.00018557462 7.0821066e-08 7.91139e-07 0.0006432272
0000f0 48 23 1e 36 45 74 60 35 2c e3 f5 39 79 40 6e 34
       2.356437e-06 8.3615697e-07 0.00046899298 2.2188932e-07
000100 0c 58 26 36 04 13 04 3b dc e7 0b 35 6d f9 42 34
       2.4787178e-06 0.0020152936 5.2118935e-07 1.8158399e-07
000110 62 d8 dc 38 12 85 4d 33 a2 7d 0f 35 d5 db e3 39
       0.00010530722 4.785131e-08 5.345447e-07 0.00043460602
000120 ff 0a a0 33 e6 a4 e6 32 a0 a3 f7 35 b1 e3 48 32
       7.452581e-08 2.6850511e-08 1.8450555e-06 1.1693303e-08
000130 fe 41 0c 34 9a b9 de 38 18 07 ae 35 fe fa f6 34
       1.3062524e-07 0.00010620356 1.2966075e-06 4.6003692e-07
000140 28 97 8c 39 de 88 ff 33 07 69 b2 35 a9 a7 8d 3a
       0.000268155 1.1899259e-07 1.32926e-06 0.0010807413
000150 83 7e a7 34 8c 00 ac 33 93 fd 6e 38 de 8d b0 32
       3.1198223e-07 8.0094736e-08 5.697978e-05 2.055361e-08
000160 de 88 76 34 a0 be 43 39 47 34 dd 33 91 d9 37 33
       2.2960327e-07 0.00018667663 1.03006236e-07 4.2805883e-08
000170 9a 2a be 37 a8 1d 43 32 12 3a 08 34 df 52 d8 38
       2.2669603e-05 1.1357237e-08 1.2687113e-07 0.000103151186
000180 db 07 58 30 be 74 bc 2f 84 d1 a5 33 e0 ba f1 2e
       7.8591506e-10 3.427995e-10 7.721522e-08 1.0992607e-10
000190 b7 c5 a8 30 9d 00 86 35 3b d2 23 33 69 a0 1f 32
       1.2279803e-09 9.983956e-07 3.81426e-08 9.291491e-09
0001a0 78 5f bd 34 75 7a cc 31 73 c3 8e 33 24 b4 62 38
       3.5273456e-07 5.951103e-09 6.647942e-08 5.4050368e-05
0001b0 30 c0 23 35 9b 2c 75 34 f5 74 07 39 66 91 80 33
       6.10019e-07 2.283363e-07 0.00012918173 5.986912e-08
0001c0 43 87 33 35 e0 8a 0e 3a 51 99 17 35 d4 15 68 34
       6.687953e-07 0.0005437564 5.647499e-07 2.1614625e-07
0001d0 9f 41 fc 38 56 d2 73 33 8e 3b 2a 35 71 29 07 3a
       0.00012028519 5.6769146e-08 6.34166e-07 0.00051560166
0001e0 a5 a4 33 36 08 10 65 35 ec 08 0b 3a 31 4a 6c 34
       2.6768914e-06 8.5332476e-07 0.00053037587 2.2006203e-07
0001f0 52 f9 24 36 9c fc 02 3b bd 46 4f 35 37 4e 86 34
       2.4583028e-06 0.0019986993 7.7216447e-07 2.5016354e-07
000200 5d f8 1f 39 de 9e 8a 33 ca 90 41 35 26 b0 19 3a
       0.00015255944 6.4550235e-08 7.21088e-07 0.0005862735
000210 0e 01 00 00 00 00 00 00 16 01 00 00 03 00 00 00
       3.78e-43 0.0 3.9e-43 4e-45
000220 d4 00 00 00 cb d1 00 00 c3 f3 d3 35 a3 2e 20 35
       2.97e-43 7.526e-41 1.5791669e-06 5.967251e-07
000230 b5 b5 ad 39 d0 a9 27 34 97 1e ea 35 15 e3 b9 3a
       0.00033132514 1.5614864e-07 1.7443261e-06 0.0014182056
000240 48 b6 13 37 78 68 50 36 68 44 ec 3a a7 fa 58 35
       8.804323e-06 3.1055224e-06 0.0018025758 8.083102e-07
000250 cd 7d 17 37 51 90 f0 3b 30 77 f9 35 e7 4d 27 35
       9.029592e-06 0.0073414226 1.8586634e-06 6.232571e-07
000260 8a 1b c1 39 35 f1 2c 34 c7 7d f1 35 75 bd bf 3a
       0.00036832347 1.6106499e-07 1.7992505e-06 0.0014628606
000270 ea da 1b 34 88 bc 3a 33 61 f6 de 37 07 88 42 32
       1.451514e-07 4.3477968e-08 2.6579191e-05 1.1323215e-08
000280 a0 d1 07 34 0d ad d7 38 ae c4 9b 36 4a 16 e4 35
       1.2649116e-07 0.00010284232 4.6422565e-06 1.6993811e-06
000290 9a cd 6f 3a 06 5c f8 34 9e 66 ad 36 7c ad 89 3b
       0.00091477635 4.6260556e-07 5.167748e-06 0.004201589
0002a0 a9 01 1f 1e 1b b8 20 1c ee b9 f8 1e 6e ea 28 1c
       8.417733e-21 5.317751e-22 2.633492e-20 5.588953e-22
0002b0 6a de eb 1d ba 46 bb 22 af 8a 21 37 32 16 60 36
       6.2433953e-21 5.0761336e-18 9.628638e-06 3.339152e-06
0002c0 bb 22 fe 3a 95 b8 67 35 b6 c8 21 37 38 74 00 3c
       0.0019389013 8.632281e-07 9.6430795e-06 0.007840209
0002d0 28 c4 0a 33 48 4e ed 31 21 0a 3d 36 85 c3 62 31
       3.2309032e-08 6.9065074e-09 2.816909e-06 3.2998468e-09
0002e0 c3 52 1e 33 78 69 fb 37 d4 14 32 34 37 5e 64 33
       3.6862513e-08 2.9970644e-05 1.6585119e-07 5.3171075e-08
0002f0 8f fc 08 38 e4 a8 6b 32 b5 88 24 34 28 a3 02 39
       3.266014e-05 1.3717202e-08 1.5323424e-07 0.00012458547
000300 19 4c 53 33 80 12 88 32 46 f8 27 37 bb df 8b 31
       4.9196476e-08 1.5840897e-08 1.0011781e-05 4.0708676e-09
000310 c2 50 43 33 d1 13 1b 38 62 3f b2 37 ed e1 ed 36
       4.5475424e-08 3.6973335e-05 2.1248768e-05 7.0894516e-06
000320 79 67 8a 3b 4c fa f6 35 9b 6f ac 37 54 e9 88 3c
       0.0042237607 1.8401274e-06 2.0555968e-05 0.016712822
000330 61 1b ee 35 7a e2 0e 35 36 fd b0 39 4d e0 12 34
       1.774035e-06 5.322869e-07 0.00033757993 1.367891e-07
000340 d9 17 cd 35 41 d7 a2 3a 6a 4a f3 1e ba 02 f5 1d
       1.5280631e-06 0.001242377 2.5759403e-20 6.485378e-21
000350 c6 b5 b6 22 8a 7c fb 1c 70 95 af 1e 2b 69 8b 23
       4.952366e-18 1.6641979e-21 1.8590652e-20 1.511495e-17
000360 fc af b8 37 ae 24 f4 36 c8 42 90 3b 34 94 fa 35
       2.2016458e-05 7.2760367e-06 0.004402492 1.8669584e-06
000370 4a f3 ae 37 66 e8 8a 3c 32 0f 5e 38 bb 23 7c 37
       2.0855707e-05 0.01695652 5.2943076e-05 1.502869e-05
000380 7f a7 21 3c 7a 59 81 36 b5 9e 34 38 c5 68 0f 3d
       0.009866594 3.854916e-06 4.306315e-05 0.035012025
000390 d0 2f cd 37 e0 7c 0f 37 43 9d a3 3b 91 1f 15 36
       2.4460169e-05 8.552539e-06 0.0049931123 2.2221104e-06
0003a0 27 3b d0 37 08 55 a5 3c a8 43 81 36 39 dd ad 35
       2.4823077e-05 0.020182148 3.852376e-06 1.2953889e-06
0003b0 f4 05 46 3a 9b 53 b6 34 64 98 7e 36 16 25 4a 3b
       0.00075539877 3.3960973e-07 3.7937652e-06 0.003084486
0003c0 48 30 f1 35 b2 4c 11 35 c1 d3 b2 39 b6 71 15 34
       1.7969951e-06 5.4128316e-07 0.00034108575 1.3918074e-07
0003d0 e8 ad d0 35 23 b0 a5 3a fa 7f 7f 0e 98 c0 2d 0e
       1.5547821e-06 0.0012640994 3.1492795e-30 2.1416627e-30
0003e0 23 7a 7c 12 84 eb 57 0d 8c c0 16 0f c4 63 ef 13
       7.9667724e-28 6.653548e-31 7.432654e-30 6.043046e-27
0003f0 a6 2f 03 36 06 d3 32 35 d2 19 cf 39 b5 2a 39 34
       1.9548256e-06 6.6617247e-07 0.00039501354 1.7245004e-07

exp_avg f4 [128]
000000 e7 08 0f 31 e0 dd 32 37 94 a6 f5 b6 7c 2b ad b4
       2.08143e-09 1.0661286e-05 -7.3209612e-06 -3.22554e-07
000010 b4 a1 cc 36 00 f7 7a 34 56 56 89 37 cd 62 58 37
       6.0984985e-06 2.3372922e-07 1.6371876e-05 1.2897607e-05
000020 bc 89 02 38 e3 60 a1 b7 b0 43 40 b6 ab 10 33 37
       3.112269e-05 -1.9237812e-05 -2.8649629e-06 1.0673112e-05
000030 af a4 e2 b7 64 af 44 36 52 46 93 b7 b0 1b 4b 35
       -2.7017986e-05 2.9308367e-06 -1.7556511e-05 7.5663684e-07
000040 fa a2 85 b5 e9 e0 db 36 c0 5e 80 b6 f7 4e ba b6
       -9.956705e-07 6.5528916e-06 -3.8257276e-06 -5.5524247e-06
000050 10 ce 1e 37 08 04 68 36 d3 2c 31 19 40 2c 96 b5
       9.4655115e-06 3.457304e-06 9.159738e-24 -1.1188749e-06
000060 4c 41 80 b7 ea ad 13 37 c6 07 fd 36 a4 b7 74 b7
       -1.5289195e-05 8.802375e-06 7.5408925e-06 -1.45862905e-05
000070 78 9e bd 2a 28 c7 25 37 35 12 6e 37 98 c3 d3 35
       3.3683104e-13 9.881136e-06 1.4190145e-05 1.577765e-06
000080 e8 4f 40 b6 f0 63 d7 b6 04 52 61 37 36 c0 e8 ab
       -2.865674e-06 -6.4191336e-06 1.3430141e-05 -1.6537941e-12
000090 a6 0d 54 38 80 5c 6a b6 54 43 b0 37 b8 b7 c6 36
       5.055745e-05 -3.492256e-06 2.1012187e-05 5.9222475e-06
0000a0 e0 2c 22 36 ae 8c e1 a4 e0 42 25 36 d8 bb 91 35
       2.4166002e-06 -9.7816516e-17 2.4625842e-06 1.0858012e-06
0000b0 06 d1 ab b7 54 cc bd a5 18 2b 28 b4 9a 5e 0c 36
       -2.0482123e-05 -3.2924732e-16 -1.5661897e-07 2.091669e-06
0000c0 00 69 1a b6 78 3d c5 36 38 85 94 35 b8 98 2e 27
       -2.3008906e-06 5.8782134e-06 1.1065631e-06 2.423014e-15
0000d0 ed df 23 26 20 e0 16 a3 62 7b ea 30 6f 65 0d a7
       5.685546e-16 -8.178977e-18 1.7060808e-09 -1.9622668e-15
0000e0 50 c6 a3 35 36 34 3c b7 58 2f 11 37 8c 14 12 b7
       1.2202163e-06 -1.12178295e-05 8.653697e-06 -8.707062e-06
0000f0 a0 24 25 b6 e0 b7 69 b7 d6 ea 1a 35 a4 84 3d 37
       -2.4608235e-06 -1.3930694e-05 5.77112e-07 1.1296161e-05
000100 8b 69 10 23 fb c3 8b ad 12 8b 42 b7 a2 b5 34 37
       7.828605e-18 -1.5889503e-11 -1.1595681e-05 1.0771126e-05
000110 44 c6 17 2d dc b7 eb 35 20 74 8e 36 d0 05 c3 ad
       8.62738e-12 1.7562375e-06 4.2454485e-06 -2.2171515e-11
000120 e0 ae 96 ad 4c 19 32 b1 ff c0 aa b8 0e 1c 15 1e
       -1.7130686e-11 -2.5916789e-09 -8.14218e-05 7.893796e-21
000130 a5 7e f6 b5 06 45 60 b6 aa 8e a7 32 c8 b5 32 37
       -1.8365287e-06 -3.3418778e-06 1.9506235e-08 1.0651951e-05
000140 42 2e 3d 37 c0 c2 57 b7 52 dd 38 b7 fb 9b 7b b5
       1.1276048e-05 -1.2860342e-05 -1.1018785e-05 -9.373177e-07
000150 a4 12 4f 37 80 e3 1e 37 40 bc 02 b7 71 97 20 b4
       1.2342502e-05 9.470503e-06 -7.792434e-06 -1.4956255e-07
000160 04 af 8e 37 d4 a1 43 b8 fc f0 ed a9 28 84 ab 35
       1.7009217e-05 -4.6642337e-05 -1.05667184e-13 1.2778955e-06
000170 94 3d a1 b7 49 da 62 9f 20 b7 5e b6 9d 9e ac b5
       -1.922137e-05 -4.8037923e-20 -3.318717e-06 -1.2861161e-06
000180 04 34 24 b6 1c df 28 b5 7e 71 0c b7 00 b1 e5 b5
       -2.4468181e-06 -6.2909544e-07 -8.371075e-06 -1.7113343e-06
000190 b4 65 9c b3 c8 2e 83 36 c1 d7 a9 2a 74 a0 eb b6
       -7.282816e-08 3.9095503e-06 3.017014e-13 -7.022225e-06
0001a0 ca db 0d 39 54 33 43 37 70 e1 d4 b6 e9 cd 20 b8
       0.00013528686 1.16348565e-05 -6.3443367e-06 -3.833874e-05
0001b0 24 5d f1 36 e1 e1 df b5 40 0b 44 36 47 55 8a 35
       7.1932027e-06 -1.6680534e-06 2.9212824e-06 1.030662e-06
0001c0 b0 79 fb b6 db 0e 31 a0 dc f1 dc 36 53 05 8d 29
       -7.494549e-06 -1.4997398e-19 6.584667e-06 6.2625815e-14
0001d0 7a 9a 2e ad d9 de a2 35 b8 cc 03 37 94 c3 66 b8
       -9.925056e-12 1.2134798e-06 7.855873e-06 -5.501842e-05
0001e0 00 8b 8d 34 12 18 86 37 d0 82 c4 b6 11 ba 5a 37
       2.6364432e-07 1.5985253e-05 -5.8564838e-06 1.30371345e-05
0001f0 e8 6d 2a b6 32 0d 64 37 f3 87 b1 38 16 08 69 36
       -2.5395948e-06 1.3592931e-05 8.46534e-05 3.4724412e-06
