results/big8/My Behavior.onnx (onnx, 75061 bytes, 7 tensors)

network_body._body_endoder.seq_layers.0.weight f4 [128, 6]
0	0xbcdd094a	-0.026981968
1	0x3e9a1e46	0.30101222
2	0x3e5ded11	0.21672465
3	0xbdf0ab0d	-0.11751375
4	0xbf075773	-0.5286781
5	0x3e9597ac	0.2921728
6	0xbec4a4e9	-0.38407066
7	0x3f06536a	0.5247103
8	0x3f68a160	0.9087124
9	0xbed9bd72	-0.42527348
10	0x3e9a9ac3	0.301962
11	0x3ea139c7	0.31489393
12	0xbea17394	-0.31533492
13	0x3d801203	0.062534355
14	0xbd5f854f	-0.054570492
15	0x3d138811	0.036018435
16	0xbe8f02a2	-0.27931696
17	0x3ea08d4a	0.31357795
18	0xbf462ba6	-0.7741035
19	0x3e0af0b3	0.13568382
20	0x3cee30da	0.029076029
21	0x3f765e51	0.96237665
22	0x3e62ad3a	0.22136393
23	0xbe2f5895	-0.17123635
24	0xbee18c00	-0.44052124
25	0xbdb57e1b	-0.08861943
26	0x3e0c750d	0.13716526
27	0x3d58002e	0.052734546
28	0x3e81917d	0.2530631
29	0x3e8c5d40	0.27414894
30	0xbe9ff165	-0.31238857
31	0x3e627c6b	0.22117774
32	0x3ec2db96	0.38058156
33	0x3eb8b2f9	0.36074045
34	0xbe563711	-0.20919444
35	0x3e8edd95	0.2790343
36	0x3eed8c6e	0.46396202
37	0xbdc7e741	-0.09760905
38	0x3f22aec0	0.635479
39	0x3e454c0f	0.19267295
40	0x3f61b12f	0.88160986
41	0xbf2132af	-0.6296796
42	0xbb0ebbcb	-0.0021779414
43	0xbf134c64	-0.5753844
44	0x3f01e975	0.5074685
45	0xbf18fa5d	-0.59757024
46	0x3e8bea17	0.27327034
47	0xbf4e684a	-0.8062788
48	0xbf545900	-0.82948303
49	0xbb58c0a6	-0.0033073812
50	0xbe8209da	-0.2539814
51	0xbd8d1ec3	-0.06890633
52	0xbcb45002	-0.022010807
53	0x3f64d518	0.89387655
54	0xbe93fd1d	-0.28904048
55	0xbcd8abca	-0.026449103
56	0x3f24b916	0.6434492
57	0xbdd7691d	-0.10518096
58	0x3d630346	0.055423044
59	0xbde96d63	-0.11397817
60	0x3f03f1e0	0.51540947
61	0x3d42e3f9	0.047580693
62	0x3e9b8513	0.30374965
63	0xbe20219c	-0.15637821
64	0xbc64858e	-0.013947858
65	0x3e4836ea	0.19552198
66	0xbefdb3bd	-0.49551192
67	0xbe4976d8	-0.19674242
68	0x3ef09ca7	0.46994516
69	0xbe5dce77	-0.21660791
70	0xbc7225b2	-0.014779495
71	0x3e9d4272	0.30714756
72	0xbe8f92c6	-0.28041667
73	0x3ead592a	0.3385709
74	0xbe31e26c	-0.1737153
75	0x3eb79afb	0.35860428
76	0x3f4a17b1	0.789424
77	0xbe3ec06b	-0.18628089
78	0x3ef3725d	0.4754819
79	0xbf429376	-0.7600626
80	0x3c9b198a	0.018933076
81	0xbe7a2607	-0.24428569
82	0x3f1cd265	0.61258537
83	0xbf14a1cf	-0.580594
84	0xbd8fd86d	-0.07023702
85	0x3d494292	0.049135752
86	0xbe75f461	-0.24019004
87	0xbe9447da	-0.28961068
88	0xbf159a43	-0.5843851
89	0x3e4d5d38	0.20055091
90	0x3d5f7ce2	0.054562457
91	0x3ed3e88b	0.41388354
92	0x3f2117a3	0.6292669
93	0xbd77aa4d	-0.060465146
94	0x3f183918	0.5946212
95	0xbeaa98ef	-0.33319804
96	0x3ed4ce67	0.41563722
97	0x3e897d01	0.26853183
98	0xbeb870fe	-0.36023706
99	0xbe886f0c	-0.26647222
100	0x3ef907f5	0.48638883
101	0x3f1b7b56	0.6073507
102	0xbf34edc7	-0.7067532
103	0xbd178a13	-0.036996912
104	0xbe0b0b9f	-0.13578652
105	0x3eeddeea	0.46459132
106	0x3f23a2f1	0.63920504
107	0x3f2ff706	0.687363
108	0x3e9501a7	0.29102823
109	0x3e575df9	0.21031941
110	0x3e789661	0.24276115
111	0x3f5f0db8	0.8713031
112	0x3f80197d	1.0007778
113	0x3ecf2381	0.40456775
114	0x3ed1053b	0.40824303
115	0x3ed8406e	0.42236656
116	0xbf0e670c	-0.5562599
117	0xbf43bf6e	-0.76463974
118	0x3f289f8e	0.6586846
119	0xbce40c19	-0.0278378
120	0x3f175efb	0.59129304
121	0xbee9bab8	-0.45650268
122	0x3d99be6b	0.075070225
123	0xbef9a929	-0.4876187
124	0x3d351431	0.04420871
125	0x3f54dea8	0.83152246
126	0xbdf704cf	-0.12061464
127	0xbe42dd68	-0.19029772
128	0xbf198f2a	-0.59984076
129	0xbf4547c3	-0.77062625
130	0x3dccf53a	0.10007711
131	0x3eedfc54	0.46481574
132	0xbb6e8d6e	-0.0036400217
133	0x3f1357e5	0.5755599
134	0xbda781c9	-0.081790514
135	0x3c937c7a	0.018003691
136	0xbef8cae5	-0.48592296
137	0x3e366dfe	0.17815396
138	0xbf161600	-0.5862732
139	0xbf02cd37	-0.51094383
140	0xbe84bc99	-0.2592514
141	0xbd1a30b8	-0.037644118
142	0x3e302b71	0.17204072
143	0xbe8a7849	-0.27044895
144	0x3e406989	0.18790258
145	0x3d14dea0	0.036345124
146	0x3eef6c28	0.46762204
147	0xbe8cb4db	-0.27481732
148	0x3f17de46	0.5932354
149	0xbeaba14f	-0.33521506
150	0xbf366550	-0.7124834
151	0xbe918458	-0.28421283
152	0x3f165f23	0.5873892
153	0xbf5957c7	-0.8489956
154	0x3e378dc2	0.1792517
155	0x3f503a58	0.81339025
156	0xbd3d4fb0	-0.046218574
157	0xbeaa22fa	-0.3322981
158	0x3e612013	0.21984892
159	0xbd12aa55	-0.035806973
160	0x3ef412cc	0.4767059
161	0x3e4c9ee9	0.19982494
162	0xbd0db456	-0.03459581
163	0x3f4c3dab	0.797816
164	0xbef2e946	-0.47443599
165	0x3e152b7d	0.1456737
166	0xbedc95d2	-0.43083054
167	0x3f1574b3	0.58381194
168	0xbf1f7880	-0.62293243
169	0x3f1cc103	0.6123201
170	0x3eabc98d	0.3355221
171	0xbe8a645c	-0.27029693
172	0xbe23bd66	-0.15990219
173	0xbe2b5804	-0.16732794
174	0x3dd4ab3f	0.10384225
175	0xbf3d6d08	-0.73994493
176	0x3e0e4d17	0.13896595
177	0xbe93c799	-0.28863218
178	0xbed5fcc4	-0.41794407
179	0xbea859ab	-0.3288091
180	0x3d11cdc0	0.03559661
181	0x3dd533b0	0.10410249
182	0x3e093308	0.13398373
183	0x3dc9440f	0.09827434
184	0x3e9d3bba	0.3070963
185	0x3ecce32d	0.4001707
186	0xbf0d48a5	-0.5518897
187	0xbe65fee3	-0.22460513
188	0xbc84c6e3	-0.016208118
189	0x3f1a872f	0.60362524
190	0x3f715b86	0.9428028
191	0xbcb4a704	-0.022052296
192	0xbe072259	-0.13196696
193	0x3e9058b2	0.2819267
194	0x3ea030b9	0.31287172
195	0x3e6abc76	0.22923455
196	0x3e788a93	0.24271612
197	0xbe822a39	-0.25422838
198	0xbf2fe47a	-0.68708
199	0x3e728ce9	0.23686565
200	0xbe234b41	-0.15946676
201	0xbebee791	-0.37286046
202	0xbe3fc4e8	-0.18727458
203	0xbdb0bde3	-0.08629968
204	0x3effd0f7	0.49964115
205	0x3e37fe12	0.17968014
206	0xbea76ae8	-0.3269875
207	0x3e251f88	0.1612531
208	0x3f3a3a4f	0.7274522
209	0xbe478cf2	-0.1948736
210	0xbe828199	-0.254895
211	0xbe8c28b4	-0.27374804
212	0x3e573b2e	0.21018669
213	0xbd9b1c7f	-0.075737946
214	0x3f0e2da5	0.555384
215	0xbe2f906d	-0.17144938
216	0x3cf9fac8	0.03051509
217	0x3ed841d4	0.42237723
218	0x3f3a5a4a	0.7279402
219	0xbe7dfaf8	-0.24802768
220	0x3edebccd	0.4350342
221	0xbdf69f7c	-0.12042138
222	0xbe07c1cf	-0.13257526
223	0xbe7e409a	-0.24829331
224	0x3f1501a5	0.58205634
225	0xbf28fe03	-0.6601259
226	0xbea7ac37	-0.32748577
227	0x3bae11c4	0.0053121764
228	0xbd3acbfd	-0.045604695
229	0x3ef79e63	0.48363027
230	0xbca4fc6b	-0.020139894
231	0x3d30426c	0.043032095
232	0x3f4d5d89	0.8022085
233	0x3ead438d	0.338406
234	0x3d5ba38f	0.05362278
235	0x3e993e4f	0.2993035
236	0xbe99db4e	-0.3005013
237	0x3ea27a9e	0.31734174
238	0xbea9e99a	-0.33186036
239	0xbbe1b734	-0.0068882946
240	0xbe677510	-0.2260325
241	0x3e7c0b6e	0.24613735
242	0x3ec6fd9b	0.3886536
243	0xbec9d647	-0.39421293
244	0x3edc244e	0.42996448
245	0xbe32c985	-0.17459686
246	0x3c86b8f6	0.016445618
247	0xbe8414d9	-0.25797155
248	0xbf1b925e	-0.60770214
249	0x3ed5cc60	0.41757488
250	0xbdb732eb	-0.08945259
251	0xbe07454e	-0.13210031
252	0xbf19340b	-0.59845036
253	0x3ec8f53c	0.392496
254	0x3d1c1242	0.03810335
255	0x3e75df90	0.24011064

network_body._body_endoder.seq_layers.0.bias f4 [128]
0	0x3a81d25f	0.0009904614
1	0x39a24e6e	0.00030957483
2	0xbafbb8d4	-0.0019204863
3	0x3d2a8dd2	0.041639157
4	0x390fcf72	0.00013714822
5	0xbb1b61bd	-0.002370938
6	0xbb0d491b	-0.0021558467
7	0xbac66ff8	-0.001513957
8	0xbbb9e0a9	-0.0056725335
9	0x3b7cdff0	0.0038585626
10	0x3b753e01	0.003742099
11	0xba9f27af	-0.0012142564
12	0x3c596a49	0.013269969
13	0xbbd49656	-0.006487648
14	0x3a922b58	0.0011151833
15	0x3c3904bc	0.011292633
16	0xbba88775	-0.005143101
17	0xbb4987c9	-0.00307511
18	0xba9ea889	-0.0012104671
19	0xbc89ea7c	-0.016835444
20	0xbb77e7b0	-0.0037827305
21	0x3b812e09	0.0039422554
22	0xba8b2ac6	-0.0010617606
23	0xba03a3f2	-0.0005021683
24	0x3a6c08d0	0.0009003999
25	0xbb81bd08	-0.003959302
26	0xba93132a	-0.0011220921
27	0x39f7f268	0.00047292118
28	0x3ca26390	0.019822866
29	0xbbe3ee6b	-0.006955912
30	0xba830301	-0.0009995402
31	0x3b0403a7	0.0020143779
32	0xbb4c47e3	-0.0031170778
33	0x3ce592dc	0.02802413
34	0xbb2c3ea4	-0.0026282454
35	0xbb47b304	-0.0030471692
36	0x3c36e174	0.011162151
37	0xbb1f9cb0	-0.0024354868
38	0xbbd6dcb8	-0.0065570734
39	0xba88e2d2	-0.0010443574
40	0x3bbbf6ef	0.005736224
41	0x3a8df311	0.0010829886
42	0x3d3b4ffe	0.045730583
43	0x3b194ddd	0.0023392357
44	0x3c51e96f	0.012812003
45	0xba0ce8d1	-0.00053752685
46	0x2e07a779	3.0844192e-11
47	0xbb1a6f0f	-0.0023564731
48	0xbb2d2146	-0.0026417538
49	0x3aa0ccd6	0.0012268077
50	0xbb92a011	-0.004474648
51	0xbaee0bf5	-0.0018161522
52	0xbc10085b	-0.008791055
53	0xbb6f62a5	-0.0036527303
54	0xbcb2954e	-0.02179971
55	0xbbdb39f4	-0.006690258
56	0x3c907e84	0.017638452
57	0x3c8d7839	0.01726924
58	0x3b5d1db9	0.003373964
59	0xb9c6d3c1	-0.00037923272
60	0x3ac63b5e	0.0015123894
61	0xbb9cd35c	-0.004785938
62	0xbb8602fd	-0.0040897117
63	0xbb9e39ac	-0.0048286524
64	0x3b729571	0.0037015344
65	0xbbe21936	-0.006899978
66	0x3c7879c0	0.015165746
67	0x3c204740	0.009782612
68	0x3b5691e0	0.0032740757
69	0xb730763e	-1.0517948e-05
70	0x3ada7509	0.0016666959
71	0x3c239bcc	0.009985875
72	0xbb3b5b14	-0.0028588222
73	0xb3bfdf4c	-8.934748e-08
74	0xbbba7fc8	-0.0056915022
75	0xbb80990b	-0.003924494
76	0xb9e6656c	-0.00043944584
77	0xb5adadc4	-1.2940077e-06
78	0xb8c1c255	-9.239154e-05
79	0x3c2a8afe	0.010409115
80	0x3d67d2e2	0.056597598
81	0xb9889cb8	-0.00026056706
82	0x3ae0e929	0.0017159331
83	0xbb803833	-0.0039129495
84	0xba9e5a13	-0.0012081288
85	0xbb2df6de	-0.002654485
86	0xbb8b2af1	-0.0042470624
87	0x3bf4ad10	0.0074669197
88	0x3b311300	0.0027019382
89	0x3b8b72a9	0.004255612
90	0xbb8556eb	-0.0040691993
91	0x3c182fe1	0.009288759
92	0xbade308f	-0.0016951727
93	0xbb6f02db	-0.0036470208
94	0x332bad6f	3.9971777e-08
95	0x3a2f62c2	0.0006690436
96	0x3cad176b	0.02112933
97	0xba157d11	-0.0005702535
98	0x3b4d7d04	0.0031355033
99	0x1d0944aa	1.8167298e-21
100	0xba5d4c5b	-0.0008441859
101	0x2f3d1001	1.7195136e-10
102	0x3a7fbc76	0.0009755561
103	0x3ae6172d	0.0017554514
104	0x3aad5221	0.0013223329
105	0xbac87a49	-0.0015295233
106	0xb95f6e6f	-0.00021308077
107	0xbb825023	-0.003976838
108	0xba6187d5	-0.00086033094
109	0xbaa630ed	-0.0012679376
110	0x3aa22dd6	0.0012373279
111	0x3b74b3ef	0.0037338694
112	0x33aeda70	8.14224e-08
113	0xbb3c61e3	-0.0028744868
114	0xbc4cfee6	-0.012511944
115	0x396e49ec	0.00022724987
116	0xbbca3ddc	-0.006171925
117	0x3a2057e2	0.0006116611
118	0xbbd223ef	-0.006412975
119	0x39857b4a	0.00025459594
120	0x3b6d8d20	0.0036247447
121	0x3aedeff8	0.0018153181
122	0x3a87023c	0.0010300349
123	0x3a8ec700	0.0010893047
124	0x3c8a7368	0.016900733
125	0xbb15e94b	-0.002287465
126	0xbbc7b09d	-0.006094052
127	0x394c39d4	0.00019476499

network_body._body_endoder.seq_layers.2.weight f4 [128, 128]
0	0x3d09d7c2	0.03365303
1	0x3ae9bb5a	0.0017832324
2	0x3df5e41d	0.120064
3	0x3d60a48e	0.05484443
4	0x3d3a0b68	0.045421034
5	0xbd44af95	-0.04801901
6	0xbe005c5e	-0.12535235
7	0x3d524ec9	0.051344667
8	0x3b12655e	0.0022338252
9	0x3e16f9b3	0.1474369
10	0x3da1d278	0.07901472
11	0x3d201922	0.03908647
12	0x3caed967	0.0213439
13	0x3cf62531	0.030047031
14	0x3c013a11	0.007887379
15	0x3cd2a934	0.025715448
16	0x3d5423e0	0.051792026
17	0x3cea7551	0.028620394
18	0xbc822523	-0.015886849
19	0xbcdd1af8	-0.026990399
20	0x3dc3846e	0.09546743
21	0xbd4c26db	-0.049841743
22	0x3bf773e2	0.007551656
23	0x3d561aca	0.05227164
24	0xbd6c4918	-0.057686895
25	0x3dc7cf16	0.097562954
26	0x3d216c35	0.039409835
27	0xbe023608	-0.12715924
28	0xbe008a13	-0.12552671
29	0x3d2abc60	0.041683555
30	0x3c44517a	0.011982316
31	0xbdbbcced	-0.09169946
32	0xbca75978	-0.020428404
33	0x3e32787e	0.17428777
34	0xbd176de7	-0.036970045
35	0xbd4129d1	-0.04715902
36	0xbd99c0ef	-0.07507502
37	0xbd4298d4	-0.04750903
38	0x3e0b9146	0.13629636
39	0x3dbef9ec	0.093250126
40	0xbb160837	-0.002289308
41	0x3c955260	0.018227756
42	0xbccf99a2	-0.025341813
43	0xbc823c63	-0.015897935
44	0x3e074a1e	0.13211867
45	0xbb65edcb	-0.0035084363
46	0x3cb7ed81	0.022452118
47	0xbe6b963c	-0.23006529
48	0xbdfcdcfb	-0.12346836
49	0xbd00e042	-0.03146387
50	0xbe10733b	-0.14106457
51	0xbdd457dd	-0.10368321
52	0x3d908f22	0.070585504
53	0x3c70d6c3	0.014699641
54	0x3d2969c5	0.041360635
55	0x3d76fa18	0.0602971
56	0xbdda22a0	-0.106511354
57	0x3e860236	0.26173562
58	0xbd8f5222	-0.069980875
59	0xbd40656d	-0.046971727
60	0xbd18aafc	-0.03727244
61	0x3ba65117	0.0050755846
62	0xbe088c5a	-0.1333479
63	0xbdbb46ba	-0.091443494
64	0xbd335598	-0.0437828
65	0x3d4c2fd9	0.04985032
66	0xbe75cc92	-0.24003819
67	0x3e833d21	0.25632575
68	0xbd939c6e	-0.07207571
69	0xbdd0a55d	-0.101877905
70	0x3d473a81	0.048639778
71	0x3b9893f0	0.0046563074
72	0x3c11d154	0.008900005
73	0x3d882193	0.06647029
74	0x3d7dafce	0.06193524
75	0x3b7d5da8	0.003866056
76	0x3cd9709c	0.026542954
77	0xbd876dee	-0.06612764
78	0xbd68638b	-0.056735557
79	0x3d9d9b0c	0.076955885
80	0xbcc95cd4	-0.024580397
81	0xbdac2265	-0.08404998
82	0x3b3a754f	0.002845127
83	0xbdbae041	-0.09124804
84	0x3ddb810a	0.107179716
85	0x3dbc7608	0.092022
86	0xbd00e575	-0.031468827
87	0x3c518ef2	0.0127904285
88	0xbdd6adb9	-0.10482354
89	0x3e5044f2	0.203388
90	0xbcd6c736	-0.026218038
91	0xbc086933	-0.008325863
92	0xbd5d48e5	-0.054024596
93	0x3d84f0f3	0.0649127
94	0xbe3388b3	-0.17532615
95	0x3def0d99	0.116725154
96	0xbe75f763	-0.24020152
97	0x3de4b644	0.11167577
98	0xbe181a5f	-0.1485381
99	0x3e2422f9	0.16028966
100	0x3ccdfc9d	0.02514487
101	0x3caca380	0.021074057
102	0x3da959ba	0.08269067
103	0xbc91291e	-0.017719802
104	0x3d8f036a	0.06983073
105	0x3cf69520	0.030100405
106	0xbc97426d	-0.018464291
107	0xbdccee8f	-0.10006439
108	0x3d0b93c2	0.03407646
109	0x3d940262	0.07227017
110	0x3d098df8	0.033582658
111	0x3d3a7bf3	0.045528363
112	0xbd1a1cae	-0.037625007
113	0x3c62cc85	0.013842707
114	0x3b739ede	0.003717355
115	0x3cfa51e3	0.030556625
116	0x3d67c6bd	0.056586016
117	0xbde00c9c	-0.10939905
118	0x3dd066e8	0.10175878
119	0x3d5822e9	0.052767668
120	0x3d8d1f95	0.068907894
121	0xbcda5fe7	-0.026657058
122	0x3dcc89e1	0.09987236
123	0x3e12d008	0.1433717
124	0x3da7fa04	0.082019836
125	0xb89cef73	-7.4832606e-05
126	0xbe4cc207	-0.1999589
127	0xbdd96d1f	-0.10616516
128	0xbd8536e9	-0.06504614
129	0xbd881771	-0.06645096
130	0x3e354133	0.17700653
131	0x3e20520d	0.156563
132	0xbd843b61	-0.06456638
133	0x3b29b760	0.0025896654
134	0xbd8e6c42	-0.06954242
135	0xbe51c35e	-0.20484683
136	0x3ddcd61b	0.10783025
137	0x3cb7bcde	0.022428926
138	0x3ceec717	0.029147668
139	0x3ca57868	0.020199016
140	0xbd966be4	-0.07344797
141	0xbcb61dee	-0.022231068
142	0x3d6af652	0.057363816
143	0xbd05de7d	-0.032682884
144	0xbd3d1c17	-0.046169367
145	0x3dbcc986	0.09218125
146	0xbd63f948	-0.055657655
147	0xbe105f6a	-0.14098898
148	0xbdeb8829	-0.1150058
149	0xbd7a4d92	-0.061109133
150	0x3d6db3e8	0.0580329
151	0xbe560e92	-0.20903996
152	0xbc7ebc7a	-0.015547866
153	0xbcc7ae62	-0.024375144
154	0x3da8d1ca	0.08243139
155	0xbca6caf4	-0.020360447
156	0x3d1d77f6	0.03844448
157	0x3dd26713	0.10273566
158	0xbdea502f	-0.11441075
159	0xbdb3d0d3	-0.087800644
160	0x3d4406f7	0.047858205
161	0xbe070bd0	-0.131881
162	0x3ce50a7f	0.027959106
163	0xbd2e348c	-0.04253058
164	0x3e1e8872	0.15481737
165	0xbe27f593	-0.16402273
166	0xbda360fa	-0.07977481
167	0xbd82913e	-0.06375359
168	0xbd899615	-0.06718079
169	0x3dea0c71	0.11428154
170	0xbe0db8ec	-0.13840073
171	0x3bbfb82e	0.0058508134
172	0x3d72b181	0.059251312
173	0xbd38a54f	-0.045079526
174	0x3dde6e0a	0.10860832
175	0x3da739ab	0.08165296
176	0xbccb73de	-0.024835523
177	0xbdb6cbc6	-0.089255854
178	0x3de3552a	0.11100228
179	0x3d259165	0.040421862
180	0x3dbd73c7	0.092505984
181	0x3dbeb15d	0.09311173
182	0x3cc33a39	0.023831474
183	0xbe10b9d8	-0.14133394
184	0xbccce9f0	-0.025013894
185	0x3bb54f06	0.005533102
186	0xbd053ff9	-0.032531712
187	0x3e350403	0.17677312
188	0xbcd7477f	-0.02627921
189	0x3cb2c5fc	0.021822922
190	0x3e0c0be6	0.13676414
191	0x3d5a7da6	0.053342484
192	0xbcf81b32	-0.030286405
193	0xbdaae760	-0.083449125
194	0xbc4c0b8c	-0.012453925
195	0x3ba83988	0.0051338114
196	0x3e0c3628	0.13692534
197	0x3dc128d4	0.094316155
198	0x3c51a6e5	0.012796138
199	0x3dbcec47	0.09224754
200	0x3d810ff7	0.06301873
201	0x3e431525	0.19051035
202	0xbcc732c9	-0.024316208
203	0xbdafabb7	-0.08577674
204	0x3d152b97	0.036418524
205	0x3df62da5	0.12020425
206	0xbbe31cf2	-0.006930941
207	0xbe788b51	-0.24271895
208	0xbdb0150e	-0.08597766
209	0x3dcac1e1	0.09900261
210	0xbd7a456b	-0.06110136
211	0x3dec4423	0.115364335
212	0x3deb432c	0.114874214
213	0x3e0b9078	0.13629329
214	0xbdd1b45f	-0.10239481
215	0x3c8235ef	0.015894858
216	0xbbb3faed	-0.005492559
217	0x3d880b40	0.06642771
218	0x3cf69fdf	0.03010553
219	0xbe4bd802	-0.19906619
220	0xbdaf35f5	-0.08555213
221	0x3c16507d	0.009174463
222	0xbd17a6f7	-0.037024464
223	0xbdbd738a	-0.09250553
224	0x3c4f2e41	0.012645305
225	0x3def86a3	0.11695602
226	0xbd86f1c7	-0.06589084
227	0xbd2be635	-0.04196759
228	0xbc47d8d5	-0.012197693
229	0xbb04f136	-0.0020285374
230	0x3e63c27e	0.22242162
231	0x3dc304ff	0.09522437
232	0x3d066d98	0.03281936
233	0xbb6a5747	-0.0035757588
234	0x3dc3a4e7	0.09552937
235	0x3d587a6b	0.052851122
236	0x3d247c20	0.040157437
237	0xbe218472	-0.1577318
238	0xbdfe1e91	-0.12408174
239	0xbe340a93	-0.17582159
240	0xbe2d034f	-0.16895793
241	0x3dcd06a6	0.10011034
242	0x3ddfc246	0.109257266
243	0xbb37cd25	-0.002804586
244	0xbe058c8c	-0.13041896
245	0x3d80187c	0.0625467
246	0x3c328f68	0.0108984485
247	0xbd098197	-0.033570852
248	0xba04a298	-0.0005059629
249	0x3d33e611	0.04392058
250	0x3caef799	0.021358298
251	0x3d8e838b	0.069586836
252	0x3cb7bde6	0.022429418
253	0xbdc1c7d3	-0.094619416
254	0x3da196c4	0.078900844
255	0x3cb0a7d6	0.021564405

network_body._body_endoder.seq_layers.2.bias f4 [128]
0	0x3a288efc	0.0006429998
1	0xbbc43f00	-0.0059889555
2	0xbaa763f8	-0.0012770882
3	0xbbb14559	-0.005409878
4	0x3b3a1ede	0.0028399746
5	0x35ef373c	1.7822963e-06
6	0x3b151d4e	0.0022753063
7	0x3b23962e	0.002496134
8	0x3880531b	6.118995e-05
9	0xbaef1d79	-0.0018243036
10	0xbbb65d14	-0.005565295
11	0xbb06bd7b	-0.0020559717
12	0x3a9b6c4e	0.0011857839
13	0xba2b4aab	-0.0006534259
14	0xbb15d010	-0.002285961
15	0x3a65bfe1	0.0008764249
16	0xbb65eb4c	-0.0035082875
17	0x3abe2e09	0.0014509569
18	0x3a917c92	0.0011099747
19	0x3b74cbfe	0.0037353034
20	0xbbbc2c49	-0.005742584
21	0xbaf54f62	-0.0018715675
22	0xb87a4894	-5.967224e-05
23	0x3b49e8e9	0.0030808991
24	0xbb709584	-0.0036710212
25	0xbb7a3aa2	-0.003818192
26	0x38e8b502	0.000110963374
27	0x3a021da6	0.00049635244
28	0x3b1f7265	0.002432966
29	0x3b690d8d	0.0035561055
30	0x3a9413b4	0.0011297376
31	0xbc282466	-0.010262584
32	0xbb99731f	-0.004682913
33	0x3b0e7d97	0.0021742338
34	0xbb78f78f	-0.0037989353
35	0x397b63cf	0.00023974407
36	0x3b6c4a74	0.003605512
37	0x3b1299f8	0.0022369605
38	0xbb955e85	-0.0045583867
39	0x3b45aefb	0.003016411
40	0x3b25fbc2	0.0025327061
41	0xba8c12aa	-0.0010686715
42	0xbb6fcdf0	-0.0036591254
43	0x3b02f115	0.0019980122
44	0xbb7931f1	-0.0038024152
45	0xb9b35280	-0.00034203008
46	0xbb9aef2b	-0.004728218
47	0x3a299e44	0.0006470422
48	0x3b6f8929	0.003655026
49	0xbb25c04d	-0.0025291622
50	0xbb284e2e	-0.0025681364
51	0x3b1f37ef	0.0024294814
52	0xbaff3f89	-0.0019473891
53	0xbb8492be	-0.0040458133
54	0xbb2e744a	-0.0026619607
55	0xbb59b963	-0.0033222071
56	0xba28aa1c	-0.00064340397
57	0x3b465313	0.0030261918
58	0x3ab7ade6	0.0014013618
59	0xbb3ca319	-0.0028783737
60	0xb8b9b41b	-8.855035e-05
61	0xbb5e54b2	-0.0033924994
62	0xb2bf5031	-2.2271793e-08
63	0xbb0323eb	-0.0020010422
64	0xbaf36136	-0.00185684
65	0xbb829fce	-0.0039863354
66	0xba1d9f0d	-0.0006012775
67	0xbb1699a1	-0.0022979754
68	0x39ba151b	0.0003549241
69	0xbbb4fd69	-0.005523373
70	0xbab0ff10	-0.0013503749
71	0xbaf3f42c	-0.0018612198
72	0xbb4ce69b	-0.0031265381
73	0xba132685	-0.0005613345
74	0xba9308b7	-0.0011217807
75	0xbaf05577	-0.0018336017
76	0xbaf585ba	-0.001873187
77	0x3ad3535c	0.0016122865
78	0xb9c19072	-0.0003691945
79	0xb8b983e4	-8.846054e-05
80	0x3b2b73d4	0.0026161568
81	0xbb83de37	-0.004024293
82	0xbb7d74a8	-0.003867427
83	0x3b07d4a0	0.00207261
84	0xbb807978	-0.00392073
85	0xbc0083d6	-0.007843932
86	0xbb07133a	-0.0020610825
87	0xbb367108	-0.0027838368
88	0xbb2ceb98	-0.0026385542
89	0x3b693f47	0.0035590695
90	0xbb655502	-0.0034993296
91	0x3a3b2937	0.00071396254
92	0x3b5fa3df	0.0034124774
93	0xbb76c2eb	-0.0037652801
94	0xba3b2808	-0.0007139449
95	0xbb208268	-0.002449179
96	0x3b315a91	0.0027062038
97	0xbba4d525	-0.0050302916
98	0xbbd15336	-0.0063880933
99	0x399186cf	0.00027756995
100	0xbb2bddb2	-0.002622467
101	0x393f2c61	0.00018231712
102	0xbb1b3e31	-0.0023688192
103	0x3c0021dc	0.007820573
104	0x3b331932	0.002732825
105	0x3a11ee47	0.0005566817
106	0xbb8576ea	-0.0040730136
107	0x3c0f3173	0.008739817
108	0xba10c381	-0.00055222964
109	0xbb323f6a	-0.0027198442
110	0xbb943800	-0.0045232773
111	0xbb38376e	-0.002810921
112	0xbb770791	-0.003769372
113	0x3b4314fd	0.0029767149
114	0xbb906e80	-0.004407704
115	0xbb2d650e	-0.0026457938
116	0x3a396ff6	0.00070738734
117	0xbb956e12	-0.0045602405
118	0x3b182cd2	0.0023220074
119	0xbb36cf4f	-0.0027894562
120	0xba932f05	-0.0011229223
121	0xbb234ab3	-0.002491635
122	0xbbe6c345	-0.007042321
123	0xbb466c90	-0.003027711
124	0xbbe9c58c	-0.007134145
125	0xbbbf3621	-0.00583531
126	0x3b099d9c	0.0020998484
127	0x3b1f1adc	0.0024277484

action_model._continuous_distribution.log_sigma f4 [1, 2]
0	0x3d8d79f6	0.06908028
1	0x3b710825	0.0036778536

action_model._continuous_distribution.mu.weight f4 [2, 128]
0	0xbc86fbab	-0.016477427
1	0x3c1b31ad	0.009472293
2	0x3cb8cd11	0.02255872
3	0xbd20c1c7	-0.0392473
4	0xbcb2bf71	-0.021819802
5	0xbc3ce990	-0.011530295
6	0xbce530c6	-0.027977359
7	0xbcdca452	-0.026933823
8	0xbc48d460	-0.012257665
9	0x3c591c72	0.013251411
10	0xbb218981	-0.002464861
11	0x3c807ff0	0.015686005
12	0xbc41228c	-0.011788022
13	0x3c72847f	0.014802097
14	0x3c62c7dd	0.013841596
15	0x3d113eab	0.035460155
16	0xb987bfed	-0.00025892202
17	0xbcd5244a	-0.02601828
18	0xbb5db8a9	-0.003383199
19	0x3c23e5e2	0.010003539
20	0x3c724e92	0.01478924
21	0xbb0443d5	-0.0020182033
22	0xbc81f43d	-0.015863532
23	0xbccce2b3	-0.025010442
24	0x3c274caa	0.010211149
25	0xbcb16163	-0.021652883
26	0xbc664cc1	-0.0140563855
27	0xbc54eaeb	-0.012995462
28	0xbc30e8fe	-0.010797737
29	0xbc877f1f	-0.016540108
30	0x3b160d95	0.002289628
31	0xbb0739c5	-0.0020633799
32	0xbc9b09d2	-0.018925581
33	0xbc7deb10	-0.015497938
34	0x3c94ac57	0.018148584
35	0x3af13994	0.0018404
36	0xbca57a73	-0.02019999
37	0xbcdfcbd2	-0.027318869
38	0x3c1ee85d	0.009698954
39	0xbd0aba6c	-0.033869192
40	0xbc94dc30	-0.0181714
41	0xbc8c11d3	-0.017098343
42	0x398f2131	0.00027299815
43	0xbbe51773	-0.0069913208
44	0x3b9fdb8e	0.004878468
45	0xbc000733	-0.007814216
46	0x3b4d6a30	0.003134381
47	0xbb6ca989	-0.0036111793
48	0xbc2e6d83	-0.010646227
49	0x3c37b81e	0.011213331
50	0x3b2cb804	0.00263548
51	0xbb6c3ce1	-0.003604703
52	0x3c789f1a	0.0151746515
53	0x3d19e660	0.03757322
54	0xbc941f90	-0.018081456
55	0xbbbb0253	-0.005707064
56	0xbc9aeacf	-0.018910794
57	0xbcbe6ed1	-0.0232462
58	0x3bd651d3	0.006540516
59	0x3cc6fec4	0.024291404
60	0x3d1a2ba2	0.037639268
61	0x3c4fd6dc	0.012685504
62	0xbaa7a9a1	-0.0012791642
63	0x3c836f19	0.016044186
64	0x3c2336b0	0.009961769
65	0xbb5b4307	-0.00334567
66	0x3c564831	0.013078735
67	0x3c83e25e	0.016099151
68	0x3bf8fd22	0.007598535
69	0xbcc06840	-0.02348721
70	0xbc1d5866	-0.009603595
71	0xbbdf1864	-0.0068083275
72	0xbbce3487	-0.006292883
73	0x3c2faa56	0.010721764
74	0x3cd6b5af	0.02620968
75	0x3ba63228	0.005071897
76	0x3cfcbfbe	0.030853149
77	0x3c5be4eb	0.0134212775
78	0xbba3330d	-0.004980451
79	0x3b47219e	0.0030385028
80	0xbb47f283	-0.0030509538
81	0x3c982ee1	0.018577041
82	0x3cd0cf8d	0.025489593
83	0xba0ed9a8	-0.00054493034
84	0x3c81ad7c	0.015829794
85	0x3a3b69a6	0.0007149227
86	0x3c8a6f66	0.016898822
87	0x3c5509cf	0.013002827
88	0x3cd84a02	0.026402477
89	0xbd22f013	-0.039779734
90	0x3cd28887	0.025699867
91	0xba8b17ed	-0.0010611989
92	0xbbf9a833	-0.007618928
93	0x3bd13570	0.006384544
94	0xbc0e04e2	-0.008668156
95	0xbc81bbad	-0.015836561
96	0x3c8cdd85	0.017195472
97	0xbb39040a	-0.0028231167
98	0x3d1d8127	0.038453247
99	0xbc40f7db	-0.011777843
100	0x3c5da0c4	0.013527099
101	0xb9b97b38	-0.00035377755
102	0x39b8c880	0.000352446
103	0xbd1939d5	-0.03740867
104	0x3cdb6cd1	0.026785286
105	0xbcce8dd7	-0.025214119
106	0x3c749438	0.014927916
107	0xbcf1a3cd	-0.029497052
108	0xbbc93291	-0.006140061
109	0x3b86f021	0.004117981
110	0x3cbfded1	0.023421677
111	0x3d02ac7f	0.031902786
112	0x3cea9dbb	0.028639665
113	0xbd323a7e	-0.043512814
114	0x3be707c8	0.007050488
115	0x3bbdff45	0.0057982528
116	0x3c5f31d3	0.013622719
117	0x3cec3824	0.028835364
118	0xbce2daaf	-0.027692167
119	0xbc06c346	-0.008225268
120	0xbc48146f	-0.012211903
121	0x3cabe483	0.020982986
122	0xba82060f	-0.0009920018
123	0xbbdfd20c	-0.0068304595
124	0xbcd19e70	-0.025588244
125	0x3b5a406d	0.003330256
126	0xbca6d0b2	-0.020363186
127	0xbc00496a	-0.007830003
128	0x3c4dc9ac	0.012560289
129	0x3be3167a	0.0069301696
130	0xbcac0e11	-0.021002801
131	0x3c1072ad	0.008816403
132	0xbbfe60a5	-0.007762986
133	0x3aa0ea52	0.0012276864
134	0xbc05c334	-0.008164216
135	0xbcb0fd83	-0.021605259
136	0x3bef2e7d	0.007299243
137	0x3cd1e262	0.025620643
138	0x3b5ea6ab	0.0033973854
139	0xbc3aa64c	-0.011392187
140	0xbc03c737	-0.008043102
141	0x3bfc057a	0.0076910825
142	0xbcba60b1	-0.022751184
143	0x3abe249e	0.0014506762
144	0x3b576bff	0.0032870767
145	0x3d090cef	0.0334596
146	0xbbb4653d	-0.0055052326
147	0x3c0bc4f8	0.008530848
148	0xbb55c7a3	-0.0032620213
149	0xbc5a5ca9	-0.013327756
150	0x3cac0e1d	0.021002823
151	0x3b8e9bd6	0.004352073
152	0x3c0cef43	0.008601966
153	0xbc83a9e1	-0.016072216
154	0x3cf65bac	0.03007301
155	0x3c94e7a0	0.018176854
156	0x3b75be4c	0.003749746
157	0xbcf6ce3a	-0.030127633
158	0xbcaa4aed	-0.02078768
159	0xba751cb5	-0.0009350286
160	0xbca0f598	-0.019648358
161	0x3b07d0a1	0.0020723718
162	0x3cd4670b	0.025928041
163	0xbbdb46cf	-0.0066917907
164	0xbb6f8d2b	-0.0036552649
165	0x3b037a20	0.0020061806
166	0x3c55e239	0.013054424
167	0xbbdda33c	-0.006763844
168	0xbcc95ec8	-0.024581328
169	0xbc7e0d11	-0.015506045
170	0x3a0ff08b	0.0005490861
171	0x3b4a4c79	0.0030868335
172	0xbb9cd2a9	-0.004785855
173	0xbcba9bab	-0.022779306
174	0x3ba6de66	0.00509243
175	0xbb4754bb	-0.0030415494
176	0xbcea80c7	-0.028625859
177	0x3b7a89e1	0.0038229155
178	0x3cc872b5	0.02446876
179	0xbd193ffe	-0.037414543
180	0x3c731d16	0.014838478
181	0x3b981cc3	0.0046421005
182	0xbc616419	-0.013756775
183	0x3c9e9071	0.019355984
184	0x3c0e4b12	0.00868489
185	0xbafc59ee	-0.0019252875
186	0xbcf875e8	-0.03032966
187	0xbbfa195d	-0.007632418
188	0x3bc186f0	0.0059059784
189	0x3c466d8b	0.012111078
190	0x3c145685	0.009053831
191	0xbc5237fc	-0.0128307305
192	0xbc1b22f2	-0.009468781
193	0x3c6d0e31	0.0144687155
194	0xbcd68424	-0.026186056
195	0xbc313486	-0.010815745
196	0xbcff9a6d	-0.031201566
197	0x3af72632	0.0018855988
198	0x3d033245	0.032030363
199	0xb869e0b5	-5.5760804e-05
200	0x3b8057e2	0.0039167264
201	0x3b845efa	0.0040396424
202	0xbd1b0979	-0.03785083
203	0xbb895070	-0.004190497
204	0x3c0e5960	0.008688301
205	0x3b878549	0.004135762
206	0x3c825e34	0.01591406
207	0x3b1e9be3	0.0024201802
208	0xbaec0e88	-0.0018009702
209	0x3d06829f	0.032839414
210	0x3b7f92de	0.0038997452
211	0xbccbd12d	-0.024880016
212	0x3cfed5b0	0.031107754
213	0x3b0e25e7	0.0021690072
214	0xbc5c43d5	-0.013443907
215	0x3bb89fd8	0.0056342892
216	0xbcaca724	-0.021075793
217	0xbc4d1c2a	-0.012518922
218	0x3ad17abe	0.0015982015
219	0xbccb003e	-0.024780389
220	0x38ba7cb2	8.8923975e-05
221	0xbbd4422c	-0.006477615
222	0x3b01b65f	0.001979254
223	0x3bc7203f	0.006076842
224	0xbb5ed77b	-0.0034002948
225	0x3c1f47f6	0.009721747
226	0x3cf4e2ae	0.029893246
227	0x3ca04857	0.019565744
228	0xb8e5a4f8	-0.00010950299
229	0xbca4e7c3	-0.020130044
230	0x3ccb46e7	0.024814082
231	0xbcb459d8	-0.022015497
232	0x3b3e53c2	0.0029041623
233	0xbd04105b	-0.03224216
234	0x3b673bdf	0.0035283489
235	0xbbdbb6a0	-0.00670512
236	0x3cbd9c88	0.023145929
237	0x3d004cc6	0.031323217
238	0x3c9842b8	0.018586501
239	0xbc0f7a30	-0.008757159
240	0xbc1f410e	-0.0097201
241	0xbbf1055c	-0.007355375
242	0xbc9dfd74	-0.019285895
243	0xbb9d7e41	-0.0048063104
244	0x3ae8fe69	0.0017776015
245	0xbbf40866	-0.0074472902
246	0x3c3aa01f	0.011390715
247	0xbbf61f7a	-0.0075110765
248	0x3cb30cb9	0.021856653
249	0xbcbbfd94	-0.022948064
250	0x3c4a25f7	0.012338153
251	0xbb24ad0f	-0.0025127565
252	0xbcfb8d04	-0.03070689
253	0xbb284778	-0.0025677364
254	0xbc906c22	-0.017629687
255	0xbd5e44c5	-0.054264802

action_model._continuous_distribution.mu.bias f4 [2]
0	0xbb647cfc	-0.0034864536
1	0xbb0ed6f8	-0.0021795612
