results/big3/My Behavior.onnx (onnx, 75061 bytes, 7 tensors)

network_body._body_endoder.seq_layers.0.weight f4 [128, 6]
00000000: 8b11 dfbe b3a4 1d3f 7472 27bd 7d24 4b3e
00000010: 5604 463e 42ce 6d3e dc2a 393f 08db 90be
00000020: 4050 5b3e 1788 363e 59ad dbbe 6c6a 40bf
00000030: 1aec ab3e 51d9 98bf b7b6 973e f941 433e
00000040: 8fff 94bd 0e91 87be c657 3fbe eb45 cf3e
00000050: cc26 cabe 58a2 6c3f 802b 5d3e 583e e3be
00000060: 0cae 0a3d d43c 7d3d 5fb6 9f3b e8ed 643d
00000070: 9db1 b5bd c233 103f 0e91 35bc 37ef 113f
00000080: b769 423c d128 c2be 966a 8bbe e6cd 5bbf
00000090: 74cc 9f3e e5dd dfbe b560 983e 158b 0fbf
000000a0: 329c 7f3e 700a 10bf 9c33 a33e 1acf 0bbf
000000b0: 5fcd 26bf a625 91be 8a40 13be 8547 a73e
000000c0: 04c3 85bf 24ef 0dbe 3613 073e 00ad 0abf
000000d0: 5f78 203f e0f6 b83d 6efd 37bd e3ee 3e3e
000000e0: 42b9 623f 44e2 9cbe 4f9f 09be 1037 7cbe
000000f0: 2411 a33e 83d8 933e 9b3b 3ebc fb96 213f
00000100: f7dd a73d e663 da3d 67f2 403e cfaf cebe
00000110: 4f07 b93e aa54 dfbe 7242 16bf d046 b1be
00000120: 793c 06be 42b1 113f bc5f 9b3d 9fa6 37bd
00000130: d347 5fbd a670 b13e 5aea f63e 346b 89be
00000140: 1e54 1f3f eba5 243f 1e15 26bb 5641 433e
00000150: 5652 f63d 9566 86be 910c 28bb 31ac 1fbf
00000160: e49d 8dbe 3b8a 143f ad22 a83e d4c4 99be
00000170: fddf 4a3e 61de 57be 54c0 673e 834b 4abe
00000180: 8f45 e33e f186 fe3e 775b 61bf 4411 01bf
00000190: c50c 143e 4bf0 d1be 456e cabd d41a 6d3e
000001a0: 7a27 57be cb3d f6be 5283 1f3f de70 ce3d
000001b0: e74e 6cbd 71cd c13d 9f8d a53e a456 673e
000001c0: c8e1 c03e 0d15 4abf 0f9c c9bd 62cf 463f
000001d0: 6d6c 28be dca0 87bd 4987 47be cd20 e13e
000001e0: 968b 2ebe 5d6a 753e d17f a6bd e6d5 dfbe
000001f0: 0bf9 08be 5883 0cbf 4052 d9bd 853f bc3e
00000200: e579 ee3e 358a 6e3e 35a9 113e a3e4 e2be
00000210: ca75 07bf 3d0c c53e ee46 b9bd 6580 82bf
00000220: d34f 77be b84a fd3e 0cff d23e 8074 fbbe
00000230: e8f9 40bf 27d4 5b3e b26b f43e b0f7 9cbc
00000240: 1730 1e3f 5974 52bb a79f 923e 8036 0b3f
00000250: 6272 34bf 19f8 60bd 5f95 993c 51c6 64bf
00000260: 018a c6be 9d4b a13e bc92 af3e 032d b73e
00000270: 4c71 203f 7aa3 a1bd 90e5 d3bd 82a8 873e
00000280: 037f 2fbf b12d 03bf 3c0d 8e3e f99e 35bf
00000290: 4a2c 4a3f ac0a 683e ef02 c9be f956 1f3f
000002a0: 4cfa 8d3e 8590 92be 1197 94be e372 4a3e
000002b0: 0205 133f 5aa3 9c3d 73ba 5dbf 7ddd fd3e
000002c0: 17a9 0ebc 9bcf ea3c 4de7 adbe 2d6e 06bf
000002d0: b9f8 8ebe 2911 f43e 05dc 6f3e 4c9d 303d
000002e0: 9bf3 39be 0f7f 35be 78ef febe 29e6 203e
000002f0: 65c9 cf3e ff75 803f 87d5 d53c 4dc6 42be
00000300: 35c6 8f3e 8b6b 33be 084c 413d 3201 d13e
00000310: 04ff 0bbe a092 ee3e 5d52 2dbf 43eb 2f3f
00000320: 69e9 a8be 8053 763e 2aa4 51be 6d18 65bd
00000330: 9c12 68bd 3d65 aebd 05f9 573e 2514 c83e
00000340: f6f8 60be f19d 49bd c2b0 bb3e 97b0 54bf
00000350: bdbc 863e a961 9e3d 6d61 fcbe 1c1b e23c
00000360: e414 343d 768f 6b3e b7ad 96be 6731 5abe
00000370: be42 fe3c 93b5 b3be 3ccc adbd dd11 18be
00000380: 032c 453e 991a bb3e c174 68be 32d4 9cbe
00000390: 2470 443e 6af5 ca3d adcb f7be 8d4b 883e
000003a0: 8cf1 67bf b2d9 d0be 3a60 273e ef1f 7cbd
000003b0: 182c 14bd a7e8 853e e4bc 313e 216e 3d3e
000003c0: c1be 8b3e 7125 afbd f237 ac3e 0bf9 433f
000003d0: c5aa aebd 86af 253e b219 45be 6589 313b
000003e0: a5e9 a63e 0ac2 ecbe 3451 03be 232e febe
000003f0: 68ec 2dbf e5cd 1e3d f6f9 47be 7067 04be
-0.43568072 0.61579436 -0.040880635 0.19838138 0.19337592 0.23223212 0.72331023 -0.28292108
0.21417332 0.17825352 -0.4290569 -0.75162387 0.3357857 -1.194132 0.29631588 0.19068135
-0.072753064 -0.26477855 -0.18685827 0.4048303 -0.39482725 0.92435217 0.21598625 -0.44383502
0.03385739 0.06182559 0.0048740353 0.055890948 -0.08871768 0.56328976 -0.011081947 0.5700564
0.011866025 -0.37921765 -0.27229756 -0.8586105 0.31210673 -0.4372398 0.29761282 -0.560716
0.24961928 -0.56265926 0.31875312 -0.54612887 -0.6515712 -0.28349036 -0.14380088 0.32671753
-1.0450139 -0.13860756 0.13190922 -0.5417023 0.6268367 0.09031463 -0.044919424 0.18645816
0.8856393 -0.30641377 -0.13439678 -0.2463038 0.31849015 0.28876123 -0.011610891 0.63121
0.08196633 0.10663585 0.18842469 -0.40368506 0.3613839 -0.4361928 -0.5869514 -0.34624338
-0.13109006 0.569111 0.07586619 -0.044836637 -0.054511856 0.34656256 0.4822567 -0.26839602
0.6223773 0.6431567 -0.0025342177 0.19067892 0.12027423 -0.2625014 -0.0025642256 -0.6237212
-0.27659523 0.5802342 0.32838956 -0.3003298 0.19812007 -0.21080925 0.22631961 -0.19755368
0.44389006 0.49712327 -0.8803019 -0.5041697 0.14457996 -0.4100364 -0.098843135 0.23154765
-0.21011153 -0.4809402 0.62309754 0.100801215 -0.057692435 0.09463013 0.3233461 0.22591645
0.37672257 -0.7893837 -0.09844219 0.7766019 -0.16447611 -0.06622478 -0.19485201 0.43970338
-0.17045435 0.23966356 -0.08129848 -0.4371788 -0.13376252 -0.54887915 -0.10611391 0.36767212
0.46577373 0.2329491 0.14224704 -0.4431506 -0.52914107 0.384859 -0.09046732 -1.0195433
-0.24151544 0.49471068 0.4121021 -0.4911232 -0.75381327 0.21467648 0.47738415 -0.019161075
0.6179213 -0.0032112806 0.2863743 0.54380035 -0.70487034 -0.054924104 0.018747984 -0.89365107
-0.38777164 0.31503 0.34291637 0.3577653 0.6267288 -0.07892509 -0.1034652 0.2649575
-0.6855318 -0.51241595 0.27744472 -0.709457 0.7897383 0.22660321 -0.3926005 0.62242085
0.27730024 -0.28625885 -0.29021505 0.19770388 0.57429516 0.07648344 -0.86612624 0.49583045
-0.008707306 0.028663447 -0.3396553 -0.52511865 -0.27924135 0.47669342 0.23423775 0.04311876
-0.18159334 -0.1772425 -0.49792075 0.15712799 0.4058334 1.003601 0.026102794 -0.19020958
0.28080907 -0.17521493 0.04719165 0.40821224 -0.136715 0.4659624 -0.677038 0.68718356
-0.32990578 0.2405529 -0.2047278 -0.055931497 -0.056658372 -0.085154034 0.21091087 0.3907787
-0.21969971 -0.04922289 0.36658293 -0.83081955 0.2631587 0.07733471 -0.4929308 0.027600817
0.043965235 0.23003945 -0.2942941 -0.21307908 0.031037685 -0.35099468 -0.0848622 -0.14850564
0.1925507 0.3654373 -0.22700788 -0.30630642 0.19183403 0.0991009 -0.4839758 0.2662014
-0.90602946 -0.40791088 0.16345301 -0.06155389 -0.036174864 0.26154062 0.17357212 0.18499042
0.2729397 -0.08552063 0.33636433 0.76551884 -0.085286655 0.16180238 -0.19248083 0.002708995
0.32600132 -0.4624179 -0.12823945 -0.49644575 -0.6793885 0.038770575 -0.19528946 -0.12930083

network_body._body_endoder.seq_layers.0.bias f4 [128]
00000000: 112a 1b3c 0ccf 1f32 23a2 3abb 259a 08b7
00000010: 99d4 32bb 3f36 b62b 6581 b6b9 a1a1 b53b
00000020: fb4e 233a 3bf7 15bc caa4 25bb 5289 94ba
00000030: 0b7c 0eba ca2b 73b9 66f7 1c3a 5f8e 8b3b
00000040: bd5b 5639 0752 2abb d6df d431 75d5 48ba
00000050: 5013 8d35 ab8f 153b cbac 623b fed8 1abd
00000060: 64d6 b4bb bee6 bfb8 fe1b ba38 acfc 23bb
00000070: 4de1 8439 947f 9138 9f0a 183b fabb 943c
00000080: 649a 95bb 470a 6abc ceda 06b9 7894 48bb
00000090: 8800 053a 6398 bdbb c694 2fba da01 1ab6
000000a0: 1038 68bc 77bc 8bbb f01b 823d e806 8dbc
000000b0: 98a8 8eb6 8dbd b8ba f5f0 3fbb 75ea 1833
000000c0: 3e0a 08af a5fc 1c3a dc22 cb3b e7d7 12bc
000000d0: ca74 ad3a 416a 92b9 236b 38ba f639 503a
000000e0: 6a75 f2ba 954d bc3a 91be 6d3d 0230 bc37
000000f0: 019d bfbb a2e8 f93a 6f12 4dbb 3163 a6ba
00000100: 2dd0 cb3d b107 3339 532a e138 4b54 6a3d
00000110: 2811 29bb 6f95 8d3c 15b7 cd3b b5a7 87bb
00000120: 40bf 7c3c 6e37 89ba b920 29b5 98a6 84b6
00000130: 7a0d e3b5 7038 313c e86d 6e3d 6fa0 65b4
00000140: 3a31 da39 0158 353c eef2 e2ba 1222 37b9
00000150: cb86 983b 6bc5 7332 4953 63bb 5634 84bc
00000160: ce28 c4ba 28fb b33d 0368 a13a da1a 253c
00000170: 907d 133d 025c f13c d9c3 583c 6914 2bbc
00000180: 932e 7abb bda1 5c3d 4017 0d39 a4fd 33b9
00000190: 435a baba 0e53 3bac b98a 17ba 81dd 5bbb
000001a0: 24a3 f6bb 1141 a431 2e06 a93c 56c5 4bbb
000001b0: d340 c9ba 2b8d 2e3b 4c26 8cba 5c55 34bc
000001c0: 9a55 b93d cace 613b 6f86 7c35 d920 4abb
000001d0: ad85 4cbb fe98 2e3a 51b1 32bc 7c0e b5b0
000001e0: 0ab4 16ba 4484 103d e038 a33a 3353 263b
000001f0: 01b1 b13d 2f9a e5b8 6410 7a3a 69be 36ba
0.009470479 9.302095e-09 -0.0028477989 -8.142121e-06 -0.0027287363 1.2946934e-12 -0.00034810152 0.0055429493
0.00062297255 -0.009153183 -0.0025275224 -0.0011332429 -0.0005435354 -0.00023190599 0.0005987793 0.0042589153
0.00020442806 -0.0025988834 6.1954593e-09 -0.0007661202 1.0510939e-06 0.0022821228 0.0034587856 -0.037804596
-0.0055187214 -9.150569e-05 8.874385e-05 -0.002502243 0.00025344864 6.937902e-05 0.002319969 0.01815604
-0.004565524 -0.014284677 -0.00012860747 -0.0030606072 0.00050736265 -0.005785988 -0.0006697889 -2.2948866e-06
-0.014173523 -0.00426441 0.06352985 -0.017215207 -4.2515567e-06 -0.0014094576 -0.0029287909 3.5603495e-08
-1.2372767e-10 0.00059885747 0.006199224 -0.008962608 0.0013233658 -0.00027926455 -0.00070350076 0.0007943207
-0.0018498127 0.0014366383 0.058043066 2.2433702e-05 -0.0058475737 0.0019066522 -0.0031291505 -0.0012694356
0.09951816 0.00017073636 0.000107367196 0.057209294 -0.002579758 0.01728317 0.0062779286 -0.0041398653
0.015426457 -0.001046879 -6.3005024e-07 -3.9533006e-06 -1.691674e-06 0.010816678 0.058210284 -2.1385652e-07
0.00041616877 0.011068345 -0.001731483 -0.00017464932 0.0046547404 1.4189349e-08 -0.0034687093 -0.016138237
-0.0014965774 0.08788139 0.0012314323 0.010077203 0.036008418 0.029462818 0.0132302875 -0.010441878
-0.0038174733 0.053865183 0.00013455469 -0.00017165259 -0.0014217574 -2.6620403e-12 -0.0005780864 -0.0033548775
-0.007526772 4.7804254e-09 0.02063283 -0.0031092963 -0.0015354402 0.0026634436 -0.0010692566 -0.011006679
0.0904953 0.0034455531 9.407294e-07 -0.0030842333 -0.0031207607 0.0006660371 -0.010906533 -1.31736e-09
-0.0005748874 0.03528239 0.0012452863 0.002537918 0.08676339 -0.0001094829 0.00095391856 -0.00069711223

network_body._body_endoder.seq_layers.2.weight f4 [128, 128]
00000000: 807a 6e3c 62dd 6a3d 0f89 cebd aefb 2bbd
00000010: 4242 efbc 6c40 d5bd b3ad 93bc dab6 80bc
00000020: 9a02 e8bc 1e99 243d d53c e4bd 93ff f3bd
00000030: 33e1 eb3c a0fd 4abd b28f 023e 3f2b 9e3d
00000040: 9c5a fa3d 44d3 bdbd 7019 98bd b3b3 e53d
00000050: 23a5 273b 0e07 5abd d722 6c3d 289e f9bc
00000060: e72e 913d f87d dc3d bfc1 c0bd a2e7 81bd
00000070: 3d47 9c3d 7e53 ccbc ca17 a8bd e361 43bd
00000080: 74a3 1e3d 11fa 94bd 25af 33bd 4059 983d
00000090: 35d4 28bd 6df8 babc f340 4e3d 3dd2 903d
000000a0: 80d2 423d b390 683d 93a9 75bc 78f1 793e
000000b0: d228 9a3d 7e1b 843d 1b66 cbbc 28bb 2ebc
000000c0: b301 fd3c 0aab d83b ffb5 5b3d 0505 8e3c
000000d0: 7fd1 cabc d05f e3bb 4f96 88bd 7149 acbd
000000e0: 1c64 323e b887 b13c ed2e bfbd 7f97 363e
000000f0: f9e2 f43d 6407 5c3d e171 07bd 5f91 393e
00000100: 1987 21be f140 f33d 8757 153a 2b22 113c
00000110: c3f4 25bd 7719 ca3d 086c 973d 05eb 40bb
00000120: 3202 103e 2966 023e 03c3 003d adf0 03be
00000130: 6882 2dbd 9e85 d1bc 3639 1c3c c49e ddbd
00000140: 4ff6 313e 4002 e93d 7bb6 a93d f402 0b3d
00000150: 7a13 0b3d bc0f 1b3e 1cc0 16bd eb06 403d
00000160: b064 a33d 905d ef3b ae8e 1fbe c955 453d
00000170: 051d 25be 91ff 143d f67f 293d c4bc 5cbd
00000180: 61c2 7cbd 1fd3 cdbd d85c 8abd 6d17 66bd
00000190: 46f2 b53d 75ca 593c 56a6 76bd 7df6 d93b
000001a0: 529b e1bd 014b cd3d 0e9c 9e3d eddf 8b3d
000001b0: e88b 473e 9bcf ca3d 84e8 c83c 2cae 363c
000001c0: 35cf 60bd 6175 043e 2b74 e33d ca3b c8bd
000001d0: 33b7 9d3c 048d 3dbc c81e 943d 64e5 fcba
000001e0: ea4a 613a 5410 ff3d d66f b8bd 3330 5ebd
000001f0: 9a45 b5bc bba8 5cbd b213 b73d 0207 9a3c
00000200: 98d5 d43c 4636 c2bd e2b1 9b3c 59cd 253d
00000210: f317 313e 211d b0bd 4e1d f63c 2e74 f4b9
00000220: 71c7 94bc 3902 1a3b cba3 07bb 10e2 4d3d
00000230: dd1f 6fbc 07ba d23d 946e ce3d b32a f93c
00000240: 9337 683d a2dd 6d3e 35b9 db3c 11df adbd
00000250: c78f 183d d782 e43a 31a7 113d 6f27 1ebb
00000260: 0c58 17be 2444 223e b760 1cbc abb0 a13d
00000270: b1b0 27bd 6cd7 cb3d e9b2 41bd 632b 9abd
00000280: aae1 37bd 819d 083d e883 e2bd 44ba 76bd
00000290: f71f a7bc b8f9 5d3d b9e3 b03d af5a 6a3e
000002a0: 1809 05bc 867b 9b3d 690c 41be 831f 45bd
000002b0: 6d59 da3b 82f3 923d 5fc9 18be 6e1b c33b
000002c0: abf6 b13d 4416 bb3d 88fb 44be 236f 9fbd
000002d0: 752d d6bc 0578 d23d 3236 8cbb 713f d1bd
000002e0: 9116 4f3c 61c4 893b 2400 003e f541 09be
000002f0: 726b 02be 67c5 be3d dc0a 093c 1fd2 793d
00000300: 32ad 183e 22f8 b7bc 1911 8dbc e6df 833c
00000310: e257 2bbe e5ab 843d 595a ccbd 0967 20bd
00000320: 87f9 5abd b479 ba3a 783d ad3d 442a 7ebd
00000330: 3c0a 9ebd 1eee 8dbd b617 973d d9b4 6fbd
00000340: b0ed cfbc 4026 02be 2ea8 d53d a4c4 ffba
00000350: b2a9 0d3d 72d0 72bd c981 773d a654 183e
00000360: c3f4 193d 7b68 32bd 0f72 113c 978e a83d
00000370: 7635 bfbd b530 893d 17e1 703d ce47 b43b
00000380: f53c 68be 014d 883c 0265 21bc 45cb c23d
00000390: 52c9 db3c 6df3 583c 8ac9 7d3d fb33 893c
000003a0: 218d 34bd b50d 94bd f2da 68bd 71a5 63ba
000003b0: 588e e7bd 1358 37be 296d 0f3d d414 7fbc
000003c0: a80b b1bd a653 ad3d e5ed 8e3d 72f9 a73d
000003d0: 2bee fdbd be4e 07be e513 05bd c934 2e3c
000003e0: 74a9 73bd baa7 e0bd a3c9 53be 2e30 55be
000003f0: 9f1d 313d 05f9 303d b7c0 aa3c 329a 1e3d
0.014555573 0.057340033 -0.100847356 -0.041988067 -0.029206399 -0.10412678 -0.018027162 -0.01571219
-0.028321553 0.040185086 -0.11144415 -0.11913981 0.028793907 -0.049558282 0.12750128 0.07723092
0.122243136 -0.09268811 -0.07426727 0.112159155 0.0025580607 -0.053229384 0.057650413 -0.030470923
0.07089024 0.10766214 -0.09411954 -0.063430086 0.07630775 -0.024942156 -0.082076624 -0.047700774
0.0387301 -0.07274259 -0.043868203 0.07438898 -0.041218 -0.022823537 0.05035491 0.0707135
0.04756403 0.05677862 -0.014994043 0.2440852 0.07527317 0.06450556 -0.024828961 -0.010664739
0.0308846 0.0066121863 0.053640362 0.017336378 -0.024758099 -0.006938912 -0.06669294 -0.08412445
0.17421001 0.021671161 -0.09335122 0.17831229 0.11957354 0.053717986 -0.033067588 0.18121861
-0.15774192 0.11877621 0.00056969415 0.008858244 -0.040516626 0.09868138 0.07393652 -0.0029436958
0.14063337 0.12734284 0.031435978 -0.1288478 -0.042360693 -0.025576409 0.0095351245 -0.10821298
0.17379116 0.11377382 0.082867585 0.033938363 0.03395412 0.15142721 -0.036804304 0.046881597
0.07978189 0.0073048547 -0.15581772 0.048177514 -0.16124351 0.03637654 0.0413818 -0.05389096
-0.06170881 -0.10050034 -0.0675599 -0.056174684 0.088841006 0.013292898 -0.060217224 0.006651698
-0.11015953 0.100240715 0.07744609 0.0682982 0.19486964 0.09902879 0.024524935 0.011149924
-0.054885108 0.12935401 0.11106142 -0.09777029 0.019252395 -0.011569265 0.072324336 -0.0019294438
0.0008594232 0.12454286 -0.09005706 -0.054245185 -0.022127915 -0.05387185 0.089393035 0.01880217
0.025980756 -0.09483008 0.01900572 0.040479038 0.17294292 -0.08599306 0.03004327 -0.00046625867
-0.018161507 0.002349986 -0.0020696993 0.050264418 -0.014594999 0.10289388 0.10079685 0.030415868
0.056693625 0.23229077 0.026821712 -0.08489812 0.03724649 0.0017434013 0.035559837 -0.002413239
-0.14779681 0.15846306 -0.009544543 0.07895025 -0.04093999 0.09953198 -0.047289763 -0.075278066
-0.044892944 0.033353332 -0.11060315 -0.06023623 -0.020400984 0.05419323 0.08637185 0.22886156
-0.008119844 0.075919196 -0.1885239 -0.048125755 0.0066634924 0.07175352 -0.14920567 0.0059541976
0.08689626 0.09135106 -0.19236577 -0.077848695 -0.026144722 0.10276798 -0.0042789215 -0.102171786
0.012639658 0.0042043184 0.12500054 -0.13404067 -0.127363 0.09314995 0.0083644055 0.060991403
0.14909819 -0.022457186 -0.017220067 0.016097974 -0.16732743 0.06478099 -0.0997817 -0.039160762
-0.053460624 0.0014226944 0.0845899 -0.062052026 -0.07716796 -0.06930183 0.073775694 -0.05852208
-0.025381893 -0.12709904 0.10432468 -0.001951356 0.034585662 -0.05928082 0.060426507 0.14876041
0.03758694 -0.04355667 0.008877291 0.08230322 -0.09336369 0.06698743 0.058808412 0.005501724
-0.22679503 0.01663828 -0.009850742 0.09511427 0.026829395 0.013241631 0.06195978 0.016748419
-0.044079904 -0.07229177 -0.056849428 -0.00086840155 -0.11306447 -0.17904691 0.035016213 -0.015568931
-0.086448014 0.0846322 0.069789685 0.08201875 -0.123989426 -0.13213632 -0.032489676 0.010632702
-0.059487775 -0.10969491 -0.20682387 -0.2081916 0.04324114 0.043206234 0.020843847 0.03872127

network_body._body_endoder.seq_layers.2.bias f4 [128]
00000000: d5ca cd3a 51c6 79b8 af48 2fb9 05fd b93b
00000010: 0a9e c2ba 02fa ff37 f309 9739 e38c 083c
00000020: 5005 ea3a 6532 f53b 8058 38bb e179 03bb
00000030: d539 2eba 6e81 4abb 4c17 a13a a1d2 33b9
00000040: ccae 90bb 9fda 54ba 207f 263c 95e5 043a
00000050: 3749 533b f709 7ebb a97f d2b9 8ebc 85bb
00000060: 0208 69b7 0d5a 5bbb 233e c3ba 2cf7 723b
00000070: 4991 91ba bba6 8e3c ecad 293c 3b1b 353a
00000080: c45d 24bb fba7 8ab9 b40b 7938 421e dab9
00000090: 0b09 353b 352f 01bb fe07 c4bb a84d fe39
000000a0: 4250 1cbb 6e57 b93a 8ef8 8a3a 63cd 52ba
000000b0: 43a2 baba f786 853b cd46 beba 26a8 a63a
000000c0: 0d51 a9b7 345a 64b9 6d03 fcb8 7c49 df3b
000000d0: cb62 6bbb 0a99 c5b8 19d7 e6b8 5a5d 8aba
000000e0: 147a b6bb cecc b9ba 0ff8 06bb 6dc8 843a
000000f0: 585b 8eba 0c90 70bb ecca 6c3b 818e 51b4
00000100: 95ec 29bb 4ccf b0bb e844 f9ba 7d0d 1eb8
00000110: 7bd6 b1ba 078a 58ba 23ad 133c 3dc6 2e3a
00000120: 141b 813c a266 7cba 1b18 b43b 3b95 193b
00000130: b065 81bb 75b4 8ebb a3a3 883c 82e4 41ba
00000140: 02d5 06bb b64a 253b 3f11 aeb9 c480 3a3b
00000150: 870d e2ba 01b2 613b cc42 0bbb 1ec2 fc3b
00000160: 23f2 c5bb e545 ae3b 9690 92b9 2cc6 2cbb
00000170: b86c 2abb 47be 9b3b bd9c 093a 1266 c63b
00000180: af5c 313b 122c 18bb a0ad c0b9 646c 753c
00000190: b30c eaba daa6 90bb 6e47 a7bb 6192 ff3b
000001a0: 650a 96ba e0d7 893a 590b 12b8 e75e bf3b
000001b0: e70e 41bb 4379 98bb e327 bdbb 1e93 d336
000001c0: 1906 a338 e422 7d31 c0f5 6b39 9adc 843a
000001d0: 6f68 2dba 8c07 da39 7cf8 98b9 5484 243a
000001e0: ed3d 19bb 00b6 13ba c652 34bb 3ca1 803b
000001f0: 4a35 873c a434 8cbb 2cc0 b0ba 0436 b4ba
0.0015700707 -5.9550923e-05 -0.00016716377 0.005675914 -0.0014848125 3.0514788e-05 0.00028808377 0.008334371
0.0017854366 0.007482814 -0.0028128922 -0.002006166 -0.0006646191 -0.00308999 0.0012290268 -0.00017149236
-0.0044153687 -0.0008119735 0.010162145 0.0005069611 0.0032239684 -0.0038763264 -0.00040149436 -0.0040813154
-1.3889747e-05 -0.0033470422 -0.0014895838 0.0037073595 -0.001110592 0.017413488 0.010356408 0.00069086597
-0.0025080303 -0.00026446566 5.9377126e-05 -0.00041602744 0.0027623798 -0.0019711975 -0.005982398 0.00048504514
-0.0023851548 0.0014140436 0.001060264 -0.0008041469 -0.0014239032 0.004074927 -0.001451695 0.0012714907
-2.0184112e-05 -0.00021777378 -0.000120169345 0.00681418 -0.003591704 -9.422198e-05 -0.0001100732 -0.0010556385
-0.005568752 -0.0014175416 -0.0020594632 0.0010130532 -0.0010860963 -0.0036706952 0.0036131693 -1.9516484e-07
-0.0025928367 -0.0053958055 -0.0019017728 -3.7682697e-05 -0.0013567948 -0.0008260314 0.009013447 0.0006667113
0.015759982 -0.00096283306 0.0054960377 0.0023434896 -0.0039488897 -0.0043550082 0.01667959 -0.0007396416
-0.002057374 0.0025221533 -0.00033200716 0.0028458098 -0.0017246463 0.0034438374 -0.002124953 0.0077135703
-0.006040828 0.0053183907 -0.00027955015 -0.0026363237 -0.0026004743 0.0047529074 0.0005249491 0.006054648
0.00270633 -0.0023219627 -0.00036750454 0.014979456 -0.0017856568 -0.0044144215 -0.0051049506 0.007799432
-0.001144719 0.0010516606 -3.481968e-05 0.0058401707 -0.0029458345 -0.0046531274 -0.005772577 6.3054167e-06
7.7735815e-05 3.6836179e-09 0.00022502895 0.0010136545 -0.0006614988 0.00041585823 -0.00029176835 0.0006275822
-0.0023382858 -0.0005634725 -0.0027515157 0.0039254706 0.016504902 -0.004278736 -0.0013485006 -0.0013749008

action_model._continuous_distribution.log_sigma f4 [1, 2]
00000000: 3e45 d7bd 4cba 1ebe
-0.10511254 -0.15500754

action_model._continuous_distribution.mu.weight f4 [2, 128]
00000000: dcbd 15bc fa5c 463c e5af b3ba 4ab0 933d
00000010: 708f c83c 88bd 5b3d aa60 913c 0ed3 6fbb
00000020: 82b3 31bc 5403 213d 08a4 21bc dc5b 9d3c
00000030: a479 c63c 88ec 9a3c d0d1 9dbb 7d56 273a
00000040: aa70 3cbb 5bb4 6abc db8f 913d 2e79 e6bc
00000050: 167d f63c 4648 453c 361b 4cbc fca3 59bc
00000060: 7e87 3b3c a603 253c 1184 0f3d 22f3 883d
00000070: 5b19 073d ce77 8a3d dd7c 303d 7a17 8abc
00000080: 46cd bdbb e227 fd3b 3e8b 973c f7ea e1bc
00000090: 3945 0d3d 3718 a7bb 7b5c 9f3c 5646 43bb
000000a0: 5a63 7e3c 82ee 33bd 79bb e7bc 2f86 dcbc
000000b0: 20e8 d6bb a31c ce3c 7b66 903c 388d 43bd
000000c0: dfeb 3c3b 4a0a 483c 05e7 03bd 7230 73bd
000000d0: 3f7d cf3a 96f2 4fbc 65fb e4bc bded 20bc
000000e0: 07f1 09bb ac9c 923c edfa 9b3c 4a12 02bd
000000f0: d524 993b 4510 6cbc 2293 953c f0d2 fabb
00000100: 4dcd 5fbc db90 aa3c 5f09 0cbc a27e 823c
00000110: 3334 213c 3452 c33c 748b 383d 884f bf3b
00000120: 1b92 90bd dcaf 9cbc a099 063b 778d 5cbc
00000130: 5062 c2ba c714 1fbc c3c4 bd3d 6962 813c
00000140: 3bbe 2cbb 2bd1 d4bc 8bc5 2b3c add6 d73b
00000150: 1898 89bc 9a40 cbbd cf22 7f3c 052b 26bd
00000160: 061a c0bc 9fbf e4bc 0d1d 2ebc 589a 043c
00000170: a5c1 ec3b b4fd d1bc 0e16 863c 6521 72bd
00000180: df26 cd3c 1568 bf3c f7cc 4abc e5b4 64bd
00000190: f16f cf3a 70c7 af3c 3871 53ba 6d26 85bd
000001a0: 330f 003c f2dc 9ebc 549c fbbb 1404 3bbd
000001b0: 54a5 c339 e786 c73b f053 82bb 6d0f 1d3b
000001c0: 87be d0bc 4c9b 693c 725e 3c3c dde6 3c3d
000001d0: c9cb 97bc 27a0 98bc 62b1 623c d50c b9bc
000001e0: f281 c6bc 439c c43b 4703 403c b1c0 24bd
000001f0: 1702 5b3d 6223 6c3c a249 f43c cd5f 11bb
00000200: 0986 b3bc 7bc7 733c 57d0 80bc d22e f93a
00000210: 99fd 7a3b 7b77 f23b 80ec 113c 17f4 df3c
00000220: 83c9 aabc d243 0f3b 5bbb de3b a7ca ac3b
00000230: 1fc7 1bbc ac4d a63b d1b9 e0bc a61f 66bc
00000240: 6fae 043c 2584 043d 8526 abbb 3400 e2bb
00000250: 4d85 513c 6cda 053c d7e3 57ba fa57 d63c
00000260: 799d 29bc 31d7 103d 0da1 3a3c 76a7 40bc
00000270: c162 edb9 19b9 01bd 54f3 7bbc bb2f abbb
00000280: 8c22 053b 0568 2fbc 5737 88bc 978a 83bc
00000290: 13c0 e3bb e6d6 513c e4f4 283b 58e6 54bc
000002a0: 4397 603c 12c4 be3a 9231 7ebc 5198 b13c
000002b0: 99d1 bdba 42fc 7e3c 3898 e23b f682 1fba
000002c0: 3cc2 333c 4a32 bfbb fbf0 dd3b 64e1 fbbb
000002d0: 82fe b63c d4f2 51bb 1216 f73b 1e93 2b3b
000002e0: 776f fdb9 48f8 0bbb 2141 423c 1ec0 97bc
000002f0: 74e1 ccbc dce3 a83c 656e caba 4fa1 f0bb
00000300: f864 23bc 1dcd 4fbb 85af 013b cf03 a3bc
00000310: c7f7 28bb 5f39 06bc 0de8 c23a f043 b4bc
00000320: 7bc2 07bc 38e5 ea3c 1bef cbbc 547e ddbc
00000330: c401 633b 70eb a33c 9ec7 ccbb abc0 dd3c
00000340: 4c78 843c e636 b73c 3579 ebbb b2f2 223c
00000350: 748e de3c 8a52 283c 34ff 023c ba03 8fba
00000360: 536e 2ebb ff7e ef3b 400a 8a3b f72c 66bc
00000370: cf6d 8d3b 3231 fc3c b74b dabc c791 3fbc
00000380: fe84 913b 60e5 f2bb f593 b63b d392 723c
00000390: f557 993c 209d 82bc 7a26 cc3c a778 69bc
000003a0: df0f afbb 5ee2 acbc 3807 c3bb b498 46bb
000003b0: c3af ff3b 835e 02bc 5d28 61bc 2b8b fd3c
000003c0: d3ab c93c 5bd1 f6bc f85a 95bc e096 baba
000003d0: 13a3 2f3c d733 acbb 5e5d 873c add7 6a3b
000003e0: fd57 e5bb 92e2 033c ab94 393c 9dde a43c
000003f0: d926 0cbc fffb 043a 71c4 2737 5129 c1b9
-0.009139504 0.012107128 -0.0013709037 0.07211359 0.024482459 0.053647548 0.017746288 -0.0036594304
-0.010846021 0.039309815 -0.009865768 0.019208841 0.024227925 0.018911615 -0.0048162714 0.0006383432
-0.0028753676 -0.014325227 0.071075164 -0.028133955 0.030088942 0.012041157 -0.0124576595 -0.013283726
0.011445878 0.010071671 0.035038058 0.06686999 0.032983165 0.06761132 0.04308783 -0.016856898
-0.0057922928 0.0077257017 0.018499013 -0.02757786 0.034489844 -0.005099322 0.019453278 -0.0029796562
0.015526617 -0.04392863 -0.028287636 -0.026919452 -0.006558433 0.02516014 0.017626991 -0.0477421
0.0028827114 0.012209484 -0.03220274 -0.059372373 0.0015830173 -0.012692114 -0.027951906 -0.009822306
-0.0021048205 0.017896973 0.01904055 -0.031755723 0.00467358 -0.014408176 0.018258635 -0.0076545402
-0.013659787 0.020821026 -0.008547156 0.015929524 0.009839105 0.023842908 0.045054868 0.0058383383
-0.070591174 -0.019126825 0.0020538345 -0.013461462 -0.0014830325 -0.009709544 0.09266045 0.015793996
-0.0026358503 -0.025978645 0.01048411 0.0065868706 -0.016796157 -0.09924431 0.015572264 -0.04056837
-0.023449909 -0.027923403 -0.010627043 0.008093439 0.0072252327 -0.02563367 0.016367938 -0.05911388
0.02504295 0.02336506 -0.012377969 -0.055836577 0.0015826208 0.021457404 -0.0008065882 -0.0650147
0.007816124 -0.019392464 -0.007678548 -0.045658186 0.00037316477 0.0060890797 -0.0039772913 0.0023965493
-0.025481476 0.014258217 0.011497127 0.046118606 -0.01852979 -0.018631054 0.013836237 -0.022589127
-0.024231885 0.006000073 0.011719531 -0.040222827 0.05346879 0.014412733 0.029820267 -0.0022182346
-0.021914499 0.014879103 -0.015724344 0.0019011146 0.0038298129 0.007399497 0.008906484 0.02733807
-0.020848041 0.0021860492 0.006797237 0.0052731815 -0.009507923 0.005075177 -0.027432354 -0.0140456315
0.008098229 0.032352585 -0.0052230977 -0.006896997 0.012788129 0.008169752 -0.000823555 0.026164997
-0.010352486 0.035361473 0.011390937 -0.011758676 -0.0004527774 -0.031670664 -0.015377838 -0.005224196
0.002031478 -0.0107059525 -0.01662795 -0.016057296 -0.0069503873 0.012807583 0.0025780732 -0.012994371
0.013707939 0.0014554283 -0.015514748 0.021679075 -0.0014482021 0.015563073 0.0069151185 -0.00060848834
0.010971602 -0.0058348523 0.006773112 -0.0076867808 0.022338156 -0.0032035606 0.007540473 0.0026180218
-0.00048338968 -0.0021357704 0.011856348 -0.018524226 -0.025009848 0.020616464 -0.0015444277 -0.0073434482
-0.009972803 -0.003170795 0.0019788456 -0.019899277 -0.0025782452 -0.008192389 0.0014870182 -0.022005051
-0.008286114 0.028673753 -0.024894288 -0.027037777 0.0034638504 0.020009726 -0.006249382 0.02706941
0.016170643 0.022365045 -0.00718608 0.009945558 0.027167536 0.010273585 0.0079954155 -0.0010911145
-0.0026616051 0.0073088403 0.0042126477 -0.014048806 0.0043160687 0.030785177 -0.026647432 -0.011692471
0.0044409027 -0.0074125975 0.005571837 0.014805513 0.018718699 -0.015944064 0.02492069 -0.014249957
-0.005342468 -0.021104034 -0.0059517883 -0.003030342 0.007802935 -0.007957104 -0.0137425335 0.03095015
0.024618065 -0.030129125 -0.018231854 -0.0014235638 0.010720032 -0.005255203 0.016524013 0.003583412
-0.0069990144 0.008049624 0.011326949 0.020125682 -0.008554184 0.0005072951 9.999713e-06 -0.00036842612

action_model._continuous_distribution.mu.bias f4 [2]
00000000: 8603 30ba 0d45 c4ba
-0.0006714392 -0.0014974192
