results/ppo/Agent Behavior/Agent Behavior-6884.pt (torch, 149169 bytes, 12 tensors)

network_body._body_endoder.seq_layers.0.weight f4 [128, 6]
000000 9d 03 4b 3e c0 0b 45 bf 00 98 15 bf 8c 2d 3e 3f
       0.19825597 -0.76971054 -0.5843506 0.7428825
000010 3a 9a a2 3e 8a ef aa be 71 0b 1a be ea 9d 8d bd
       0.3175829 -0.3338588 -0.15043427 -0.06914885
000020 29 84 14 3e 5d 13 d0 be 0e a4 e7 3d 74 94 84 3f
       0.1450354 -0.40639773 0.11310588 1.0357804
000030 fc f4 8f be bd 2c 7e be cf 2a 7b 3d ea e2 e7 3e
       -0.28116596 -0.24821754 0.061320122 0.4529031
000040 41 02 13 3f b9 10 67 3e ae 59 b2 3c 21 86 f1 be
       0.57425314 0.22564973 0.021771278 -0.47172645
000050 4a 18 02 3f ce 77 40 be 1f c5 f2 3d a4 14 16 be
       0.5081831 -0.18795702 0.11854004 -0.14656311
000060 26 63 1a bf be cf f1 be 35 cf 58 3e b1 6e 7d 3d
       -0.6030754 -0.47228807 0.21172793 0.06187314
000070 74 39 f7 3e 29 0b 86 bf b3 05 68 3f 1e 8b 0b 3f
       0.4828602 -1.0472156 0.90633696 0.5450915
000080 62 f9 71 3f 61 95 a1 3d 3c 14 10 bf 60 e8 1b be
       0.9452115 0.0788982 -0.56280875 -0.15225363
000090 f4 ee 02 3e 71 2a f7 be 76 ec 6d bd 97 31 09 3f
       0.12786466 -0.48274568 -0.058086835 0.53591293
0000a0 d4 d5 e6 3e 04 c4 14 3e 80 36 db be 92 bb b8 be
       0.45085013 0.14527899 -0.42815018 -0.36080605
0000b0 25 2b 04 3f 6f ea a8 be 70 ee 64 3e 97 fd d1 be
       0.51628333 -0.3299136 0.22356582 -0.41013786
0000c0 3b fe e4 3e af 3a e3 3e 5e 3c 25 3e 97 8b a5 be
       0.44725212 0.4438071 0.1613631 -0.3233306
0000d0 05 a2 19 bf 84 e0 b8 be bb 1a 68 3e 7e 08 64 bd
       -0.6001285 -0.36108792 0.22666447 -0.05567216
0000e0 89 0e 36 bb 1f d7 16 bf ef 8a 1a 3e e3 42 f3 3d
       -0.002777966 -0.58922 0.15092061 0.11877992
0000f0 03 6b 6f be eb 2c 13 3d 2c 8b 28 3d 95 1f d4 3d
       -0.23380665 0.03593151 0.04114835 0.10357586
000100 bd 27 99 be 12 1e 4c 3f dc 24 6c 3f 1e d8 6f 3e
       -0.2991313 0.79733384 0.9224374 0.23422286
000110 7f 85 22 3d 11 25 17 bf ce 0c 1a 3e c2 9b 12 3e
       0.039678093 -0.59040934 0.15043947 0.1431723
000120 f5 df a3 3e d2 f6 5d 3e 27 66 3f 3e c8 e0 4e 3e
       0.32006803 0.21676186 0.18691312 0.20202935
000130 6f 7c 45 be 89 a0 96 bd e9 25 0b bf 81 e3 09 bf
       -0.19285749 -0.073548384 -0.5435472 -0.5386277
000140 e1 13 8c 3e da 01 25 3e b4 1e 2e bf f7 af f0 bd
       0.27358916 0.16113988 -0.680156 -0.11752313
000150 a3 8c 3b be c0 74 29 3e 28 34 6e bc 60 f8 87 3e
       -0.18315367 0.16548443 -0.014538802 0.26556683
000160 09 77 cc bd 37 99 87 3e d3 a3 24 3e b6 33 8c be
       -0.09983642 0.2648408 0.16078119 -0.27383202
000170 59 9c 8b 3d af ed 4d bf 7d eb 4d be 0d e6 3c 3e
       0.0681693 -0.804408 -0.20109363 0.18447132
000180 22 c4 cd 3d a2 bb 19 3e 32 a7 e0 3e 7f 91 e6 3e
       0.10047175 0.15012982 0.4387756 0.4503288
000190 52 3f 96 3e fb 14 3d be 46 82 a9 be 6e 5d 02 3f
       0.29345185 -0.18465035 -0.33107203 0.5092381
0001a0 37 61 69 bd fa cd 5a 3f c5 b5 a7 3e 33 ca 99 bd
       -0.056977477 0.85470545 0.32755867 -0.075092696
0001b0 05 8a 46 3f 2a 7e 94 be 73 6a 2b be 7a 2e 7f be
       0.7755435 -0.29002506 -0.16739826 -0.24920073
0001c0 7e 35 d2 3e 4c 7c 90 3e d2 bc 9e bd e8 d4 65 be
       0.41056436 0.2821983 -0.07750858 -0.22444499
0001d0 dd 8f 1f 3f 73 08 de 3e ae 3a 0b bd 3e 18 bb be
       0.6232889 0.4336582 -0.03399151 -0.36541933
0001e0 9c cc f9 be 13 89 85 3e 2f 27 5c 3f 9c 1e f5 3e
       -0.48788917 0.26081142 0.8599729 0.47874916
0001f0 a7 83 12 3e d9 0a cc be 5e fd e9 be c5 c7 93 3f
       0.14308034 -0.39852026 -0.45701116 1.154534
000200 26 58 e9 3d 76 cf c2 3b 9a 79 00 be 36 ec 68 be
       0.11393766 0.0059451414 -0.12546387 -0.22746357
000210 83 38 42 bf 13 a6 f6 3e 21 7c ed be 47 18 84 3e
       -0.7586748 0.4817358 -0.46383765 0.25799772
000220 94 c5 60 be 54 b3 9b 3e f0 cf 93 be f1 01 84 3c
       -0.2195037 0.30410254 -0.2886958 0.016114207
000230 3a 03 17 bf 0d 08 16 3f ea 4b 30 3e ea be 32 bf
       -0.589893 0.58606035 0.17216459 -0.6982256
000240 55 78 4a bd 33 59 90 be 59 b4 5e 3e 9b f7 ef bc
       -0.049431164 -0.28193054 0.21748485 -0.029292872
000250 b1 4b 8e 3d a9 ce 9f be 4d 49 1b bf 12 1a d4 bd
       0.06948031 -0.31212357 -0.60658723 -0.10356535
000260 a3 70 4d be d4 34 2b 3f 7a b4 a8 3e 2c fd 7b 3e
       -0.20062499 0.66877484 0.32950193 0.24608296
000270 f6 85 80 3e 23 52 a5 3e 28 c4 1f 3e a2 fb 27 3d
       0.25102204 0.32289228 0.15602171 0.04101146
000280 89 7d 9e be 52 c6 a0 3d 7c 8a 64 bd 6f 1c 38 3f
       -0.3095515 0.078503266 -0.05579613 0.71918386
000290 03 07 6a bb 01 37 b5 bc 7b 99 12 be 5e 61 77 3f
       -0.0035709746 -0.022120954 -0.1431636 0.96632946
0002a0 ef 64 f8 be 7d e6 c8 be d1 51 23 3f 62 a3 27 be
       -0.48514506 -0.3923835 0.63796717 -0.1637092
0002b0 68 39 cd 3d c7 10 d8 be 58 3d 0f bf 6d ea 3b bf
       0.10020715 -0.422003 -0.5595298 -0.7340458
0002c0 33 1d 49 3b 77 be 90 3d db bd 71 3f 6e 4f 08 bb
       0.003068757 0.07067578 0.9443032 -0.0020799297
0002d0 27 8e ac bb c6 c9 31 3d e2 a5 b1 3e 1a 23 09 bd
       -0.0052659693 0.043405317 0.3469687 -0.03348074
0002e0 31 84 10 3e 43 b3 61 bf 91 53 4e 3e a5 f4 5f 3e
       0.14112927 -0.88164157 0.20149066 0.21870668
0002f0 8f 92 7c bd c5 e0 f5 bc 67 52 57 be e4 94 82 be
       -0.061663207 -0.030014405 -0.21027528 -0.2550422
000300 77 b2 82 be 9b 42 49 3f b6 83 49 3e 82 bc c0 bc
       -0.25526783 0.78617257 0.1967915 -0.023527388
000310 1b 84 00 bf d2 91 01 bf 79 fe 87 3d aa 3a c6 3b
       -0.50201577 -0.5061313 0.06640334 0.006049474
000320 2c ff 94 be 6e 51 98 3e d7 e3 2d 3e 62 e8 02 3f
       -0.2910093 0.29749626 0.16981445 0.5113584
000330 82 a0 09 bf 23 38 77 be 86 96 89 be 07 d6 7e 3e
       -0.5376054 -0.24142508 -0.26872653 0.24886332
000340 59 8e d7 3e 01 c0 3e 3e 1c da f6 bd cc 48 48 be
       0.4210079 0.18627931 -0.1205332 -0.1955902
000350 78 7c 31 bf 25 46 89 be aa 10 14 3e 7e b4 ea 3d
       -0.6933055 -0.2681133 0.14459482 0.114602074
000360 fe 57 a4 3f 0d ee 1c bf b6 d1 05 be 0b 21 87 3e
       1.2839353 -0.61300737 -0.1306828 0.26392397
000370 3e cf b6 be c6 c1 03 3e 83 89 13 3e 5c ef 47 bf
       -0.35704988 0.12866887 0.14407925 -0.7809961
000380 dc bc 59 3f ca ec 05 3f dd 97 80 3e 69 9b 10 3f
       0.850538 0.52314436 0.25115862 0.5648714
000390 1d 55 a4 be bf 99 01 be 40 fb 70 bd 5d 01 06 3f
       -0.32096186 -0.12656306 -0.05883336 0.5234583
0003a0 d3 9e cd 3e 81 9e a7 bd 5a 91 42 bb 5f eb 51 bd
       0.40160236 -0.08184529 -0.0029688687 -0.051249858
0003b0 71 46 52 bd 89 c7 4c 3f ab d7 82 be 06 ea 3a bd
       -0.05133671 0.79991966 -0.25555167 -0.04563334
0003c0 49 26 de b9 f5 5e b9 be f4 a0 2c 3f b4 21 f1 3d
       -0.00042371664 -0.3620526 0.67433095 0.117740065
0003d0 b4 28 03 3e c8 84 96 be 51 be 92 bd 4e 65 11 3d
       0.12808496 -0.2939818 -0.07165206 0.035497002
0003e0 40 97 0e 3f 3f 4b 59 3f 13 4c 94 3e bd 0d 2e bd
       0.5569954 0.8488044 0.2896429 -0.04249357
0003f0 c1 eb ea 3d e2 71 52 bc 96 92 21 3f c4 77 6c 3f
       0.11470748 -0.012844535 0.631143 0.9237025

network_body._body_endoder.seq_layers.0.bias f4 [128]
000000 00 00 00 00 00 00 00 00 00 00 00 00 00 00 00 00
       0.0 0.0 0.0 0.0
000010 00 00 00 00 00 00 00 00 00 00 00 00 00 00 00 00
       0.0 0.0 0.0 0.0
000020 00 00 00 00 00 00 00 00 00 00 00 00 00 00 00 00
       0.0 0.0 0.0 0.0
000030 00 00 00 00 00 00 00 00 00 00 00 00 00 00 00 00
       0.0 0.0 0.0 0.0
000040 00 00 00 00 00 00 00 00 00 00 00 00 00 00 00 00
       0.0 0.0 0.0 0.0
000050 00 00 00 00 00 00 00 00 00 00 00 00 00 00 00 00
       0.0 0.0 0.0 0.0
000060 00 00 00 00 00 00 00 00 00 00 00 00 00 00 00 00
       0.0 0.0 0.0 0.0
000070 00 00 00 00 00 00 00 00 00 00 00 00 00 00 00 00
       0.0 0.0 0.0 0.0
000080 00 00 00 00 00 00 00 00 00 00 00 00 00 00 00 00
       0.0 0.0 0.0 0.0
000090 00 00 00 00 00 00 00 00 00 00 00 00 00 00 00 00
       0.0 0.0 0.0 0.0
0000a0 00 00 00 00 00 00 00 00 00 00 00 00 00 00 00 00
       0.0 0.0 0.0 0.0
0000b0 00 00 00 00 00 00 00 00 00 00 00 00 00 00 00 00
       0.0 0.0 0.0 0.0
0000c0 00 00 00 00 00 00 00 00 00 00 00 00 00 00 00 00
       0.0 0.0 0.0 0.0
0000d0 00 00 00 00 00 00 00 00 00 00 00 00 00 00 00 00
       0.0 0.0 0.0 0.0
0000e0 00 00 00 00 00 00 00 00 00 00 00 00 00 00 00 00
       0.0 0.0 0.0 0.0
0000f0 00 00 00 00 00 00 00 00 00 00 00 00 00 00 00 00
       0.0 0.0 0.0 0.0
000100 00 00 00 00 00 00 00 00 00 00 00 00 00 00 00 00
       0.0 0.0 0.0 0.0
000110 00 00 00 00 00 00 00 00 00 00 00 00 00 00 00 00
       0.0 0.0 0.0 0.0
000120 00 00 00 00 00 00 00 00 00 00 00 00 00 00 00 00
       0.0 0.0 0.0 0.0
000130 00 00 00 00 00 00 00 00 00 00 00 00 00 00 00 00
       0.0 0.0 0.0 0.0
000140 00 00 00 00 00 00 00 00 00 00 00 00 00 00 00 00
       0.0 0.0 0.0 0.0
000150 00 00 00 00 00 00 00 00 00 00 00 00 00 00 00 00
       0.0 0.0 0.0 0.0
000160 00 00 00 00 00 00 00 00 00 00 00 00 00 00 00 00
       0.0 0.0 0.0 0.0
000170 00 00 00 00 00 00 00 00 00 00 00 00 00 00 00 00
       0.0 0.0 0.0 0.0
000180 00 00 00 00 00 00 00 00 00 00 00 00 00 00 00 00
       0.0 0.0 0.0 0.0
000190 00 00 00 00 00 00 00 00 00 00 00 00 00 00 00 00
       0.0 0.0 0.0 0.0
0001a0 00 00 00 00 00 00 00 00 00 00 00 00 00 00 00 00
       0.0 0.0 0.0 0.0
0001b0 00 00 00 00 00 00 00 00 00 00 00 00 00 00 00 00
       0.0 0.0 0.0 0.0
0001c0 00 00 00 00 00 00 00 00 00 00 00 00 00 00 00 00
       0.0 0.0 0.0 0.0
0001d0 00 00 00 00 00 00 00 00 00 00 00 00 00 00 00 00
       0.0 0.0 0.0 0.0
0001e0 00 00 00 00 00 00 00 00 00 00 00 00 00 00 00 00
       0.0 0.0 0.0 0.0
0001f0 00 00 00 00 00 00 00 00 00 00 00 00 00 00 00 00
       0.0 0.0 0.0 0.0

network_body._body_endoder.seq_layers.2.weight f4 [128, 128]
000000 3c 8b 5f bd bd 89 19 be f9 b2 57 bd 62 aa ee bb
       -0.054576144 -0.14993949 -0.052660916 -0.007283495
000010 3d 31 09 3e 17 64 83 3c d8 ff 1e be 28 9b 81 3c
       0.13397689 0.016038937 -0.15527284 0.015821055
000020 9b 4c b2 bd c2 24 dd bc 9e d4 74 39 4a c8 d5 3d
       -0.087060176 -0.026995067 0.0002334886 0.10438593
000030 0c 4f a7 3c 2a a6 f2 bd 60 f3 02 3e 77 5c d8 bc
       0.020423435 -0.118480995 0.12788153 -0.026411278
000040 b3 a6 08 bb 26 fe f1 3d 13 90 ab 3d a2 fe 22 be
       -0.0020851314 0.11816053 0.08377089 -0.15917447
000050 63 66 b0 bc 38 89 9b bb ec 91 96 3d b4 c3 33 3e
       -0.021533197 -0.0047465824 0.07352051 0.17555124
000060 51 d9 19 bd 32 13 c4 bb 12 1f d7 3c c7 20 0f 3e
       -0.037560765 -0.0059837336 0.026259933 0.13977347
000070 61 8e 37 bc 0c d8 6d bc 67 e7 6c bd d7 fc 36 bd
       -0.011203379 -0.014516842 -0.05783787 -0.04467472
000080 b1 05 30 be 0d 3d 40 3c 27 ed 1f 3c 14 b1 44 bd
       -0.17189671 0.011733306 0.009761131 -0.048020437
000090 0c 75 98 3d cb bd 91 bd 13 bb e7 bd d2 07 c8 3d
       0.074442 -0.07116278 -0.113149785 0.097671166
0000a0 22 38 24 3e 64 e1 47 3c a7 19 59 bd 0a ad 03 3e
       0.16037038 0.012199733 -0.05300298 0.12858978
0000b0 38 5d e4 3c 43 90 bf bc 5d 1e aa 3d 0e 87 96 bd
       0.027876481 -0.023384219 0.083065726 -0.073499784
0000c0 0c 16 b5 bd 26 41 cc bb 2c 6e 04 bd 34 34 84 3c
       -0.08842096 -0.0062333522 -0.03233163 0.016138174
0000d0 25 7e c0 3b 66 a6 e6 3d c1 a4 48 3e 09 e6 ed 3c
       0.0058744126 0.11262207 0.19594099 0.029040353
0000e0 15 f6 85 3d 25 a8 52 bc 50 7b 1b be 1d a7 36 3d
       0.06541077 -0.012857472 -0.15183759 0.044592965
0000f0 c4 50 e8 bc 1d 09 81 bd 0c 0f cc 3d e5 48 3d be
       -0.028358825 -0.06300566 0.099638075 -0.18484838
000100 7d a7 af bc ff a3 50 3d f0 d8 a9 bc ab 38 35 be
       -0.02144217 0.05093765 -0.020733327 -0.17697398
000110 44 78 30 be e0 ad 71 be b0 0c 04 3e 87 34 bd bd
       -0.17233378 -0.23601484 0.12895465 -0.092385344
000120 1e 27 cb bd 9b f5 03 bd 63 e3 64 3d 28 14 03 3d
       -0.099195704 -0.03221665 0.055880915 0.032001644
000130 f4 95 7b 3d 87 00 30 be cc c5 fa bd 9c 0a 69 be
       0.061422303 -0.17187701 -0.12244758 -0.22757953
000140 eb 30 0d 3e 25 e0 34 bd 2e 01 fa 3d d2 66 7b 3c
       0.13788192 -0.044159073 0.12207256 0.0153443385
000150 ab 5c 8a be 09 20 3d 3e a5 ca 91 3d f9 96 33 3e
       -0.27023825 0.18469252 0.071187295 0.1753806
000160 94 97 f0 3a be de 2b 3d b0 9b 1b be d9 b8 de 3d
       0.0018355721 0.04196047 -0.15196109 0.10875101
000170 ef 7d 08 be c7 17 e9 bd 20 5b 9c 3c 23 00 23 bd
       -0.1332929 -0.11381488 0.01908642 -0.039795052
000180 9d 11 33 bd 3d f8 2f 3d f6 40 fe bd 55 9e ac 3d
       -0.04371797 0.042961348 -0.12414734 0.08428637
000190 e5 7c a3 3d d4 fe 5b 3d e5 0a 30 3d af 4c 88 bc
       0.07982806 0.05370982 0.04297914 -0.016638128
0001a0 d8 06 26 3c 6a d0 48 bb 6d 42 69 3d 78 7c 2c bd
       0.010133468 -0.0030641803 0.056948114 -0.04211089
0001b0 64 ff 13 bd be 9e 56 3d bb 5a 32 bd 11 36 4c bc
       -0.03613223 0.052397482 -0.04354356 -0.012464062
0001c0 da 64 d4 3c 0a 16 95 bd c3 5f 90 3d 7c d8 86 3d
       0.025926996 -0.07279594 0.07049515 0.0658426
0001d0 cf 3b a8 bd 03 22 8e 3d fb c2 84 bc 83 ac 03 bd
       -0.082145326 0.06940081 -0.016206255 -0.032146942
0001e0 d3 d3 cb 3c 1a 91 a4 bc 2f b0 d2 bc 4d 3d 1d bc
       0.02488128 -0.020088721 -0.025718777 -0.009597135
0001f0 33 2e 09 bd 8a 95 92 bd fe 78 1d be 9f fe 8c 3d
       -0.033491325 -0.071574286 -0.15378186 0.068845026
000200 4a c7 00 3e f4 eb 5c be 77 c1 46 bd 8d 28 e9 3c
       0.12576023 -0.21574384 -0.048524346 0.028461719
000210 3e c9 5e bd 4c 44 7c bc c4 1f 2a 3e 91 81 ba bd
       -0.05439114 -0.015397143 0.1661368 -0.09106744
000220 41 45 ba 3d 01 f2 45 bc 74 76 ac 3d 74 0e 03 3d
       0.090952404 -0.012081624 0.08421031 0.031996205
000230 6f 43 cb bd 36 1f 02 be 8b 4a b3 bd 85 63 da 3c
       -0.09924971 -0.12707219 -0.08754452 0.026658783
000240 c3 d4 af bd c6 4b ed 3c 5c 70 b9 3d 84 bc 9b bc
       -0.08585503 0.028966796 0.09054634 -0.01901079
000250 f9 dd d9 bc 24 6a d7 3c 02 22 19 be b7 7b d5 bc
       -0.026595103 0.026295729 -0.14954379 -0.026059968
000260 2d 24 bc 3d 5e 26 bd 3d bd af 85 3c 23 28 69 bd
       0.091865875 0.092358336 0.01631915 -0.056923043
000270 98 a9 df 3c 64 6f a3 bd 5f 25 25 3e a1 de d3 bd
       0.027302548 -0.079802305 0.16127537 -0.103451975
000280 96 4d 83 3d f8 18 85 3c c2 1c e9 3d 3f aa 0a bd
       0.06411283 0.016247258 0.11382438 -0.033853766
000290 bb 4f 17 be 5f c1 81 3d f2 92 50 bc e2 19 bf 3c
       -0.14776509 0.06335711 -0.012730347 0.023327772
0002a0 22 24 03 be 0c 16 49 3b 8a 7c b2 3d ae 27 90 3d
       -0.12806752 0.0030683307 0.0871516 0.07038818
0002b0 15 bf 00 3c 82 db be bd cd 56 dd 3d 11 94 91 3d
       0.0078580575 -0.093192115 0.108075716 0.071083196
0002c0 dd 32 73 bd 08 ec 97 bd af 43 8d ba c6 e4 bf bd
       -0.05937468 -0.07418066 -0.0010777618 -0.09369807
0002d0 ad fe 1a be a9 7f 32 3d 5c fa 6f 3e 75 c4 5a bc
       -0.15136214 0.043578777 0.23435348 -0.013352503
0002e0 8a 00 0d bc 8a 8d 6c 3d 74 0e d7 3c 5a 37 f5 bc
       -0.008606086 0.05775217 0.026252009 -0.02993362
0002f0 cc ee 5b 3d bd 9f c7 3d 89 8b 51 bc dd 72 80 3d
       0.05369453 0.097472645 -0.012789615 0.062719084
000300 dc 77 ab 3d 0c 8f 36 be e1 bc 92 bd 07 63 33 3d
       0.08372471 -0.17828006 -0.07164932 0.04379561
000310 83 6c a3 3b 26 6f 4c be c9 82 9c 3d e9 07 f3 3c
       0.004987301 -0.19964275 0.07642133 0.029666858
000320 26 1b 4f bd 88 45 bf 3d 06 1e 24 bd 72 ef f2 bb
       -0.050563 0.09339434 -0.040067695 -0.007413798
000330 c9 c4 c4 3d 4c 09 49 be 8a df 6e 3d e2 36 e2 3b
       0.09607846 -0.19632453 0.058318652 0.006903515
000340 b6 56 88 3b db a9 01 3d 51 90 fa 3d e5 ef 82 bc
       0.0041607274 0.031656127 0.122345574 -0.015983531
000350 eb 1c 2c bd 1c 03 11 3c e6 12 9d 3c d1 11 d1 3c
       -0.042019766 0.008850839 0.01917405 0.02552119
000360 95 d6 e9 3c 0b cb e9 bd 88 29 a7 bc 04 6e 4e bd
       0.028544703 -0.114156805 -0.020405546 -0.050397888
000370 24 be f9 bd e2 68 5e bc bb 64 98 3b bf a5 d7 3d
       -0.121944696 -0.013574811 0.00465068 0.105296604
000380 b9 2f 1a 3e c3 81 da bd a7 78 8c bd 70 9e cc bd
       0.15057267 -0.10669281 -0.0685895 -0.09991157
000390 3e 74 e1 3d 88 85 25 3e 7c d1 8c bd 85 db 02 bd
       0.110084996 0.1616422 -0.068758935 -0.03194763
0003a0 bd 10 ce bc ca 0f e4 bd c1 a5 fb bb f8 54 a9 3d
       -0.025154466 -0.11135824 -0.0076796715 0.0826816
0003b0 e3 a4 7e 3c aa f2 92 bc bf 2e af 3c 86 13 14 3c
       0.015542242 -0.017937977 0.021384595 0.009037858
0003c0 73 23 aa bd 28 2e ab 3d c1 ae 8e 3d 6a b6 9b 3d
       -0.08307543 0.08358413 0.069669254 0.07603152
0003d0 03 9d 94 3d 1e 90 08 be 3b 21 17 bd 26 f1 28 3e
       0.0725651 -0.13336226 -0.036896925 0.16498241
0003e0 71 83 28 3e a9 11 12 be c9 83 d4 bc 32 f0 a0 3d
       0.16456391 -0.1426455 -0.025941746 0.078583136
0003f0 cb 3c f5 3c 8a 1c 01 be 8c 15 9f 3c 02 2b cb 3d
       0.029936215 -0.12608543 0.019419454 0.099203125

network_body._body_endoder.seq_layers.2.bias f4 [128]
000000 00 00 00 00 00 00 00 00 00 00 00 00 00 00 00 00
       0.0 0.0 0.0 0.0
000010 00 00 00 00 00 00 00 00 00 00 00 00 00 00 00 00
       0.0 0.0 0.0 0.0
000020 00 00 00 00 00 00 00 00 00 00 00 00 00 00 00 00
       0.0 0.0 0.0 0.0
000030 00 00 00 00 00 00 00 00 00 00 00 00 00 00 00 00
       0.0 0.0 0.0 0.0
000040 00 00 00 00 00 00 00 00 00 00 00 00 00 00 00 00
       0.0 0.0 0.0 0.0
000050 00 00 00 00 00 00 00 00 00 00 00 00 00 00 00 00
       0.0 0.0 0.0 0.0
000060 00 00 00 00 00 00 00 00 00 00 00 00 00 00 00 00
       0.0 0.0 0.0 0.0
000070 00 00 00 00 00 00 00 00 00 00 00 00 00 00 00 00
       0.0 0.0 0.0 0.0
000080 00 00 00 00 00 00 00 00 00 00 00 00 00 00 00 00
       0.0 0.0 0.0 0.0
000090 00 00 00 00 00 00 00 00 00 00 00 00 00 00 00 00
       0.0 0.0 0.0 0.0
0000a0 00 00 00 00 00 00 00 00 00 00 00 00 00 00 00 00
       0.0 0.0 0.0 0.0
0000b0 00 00 00 00 00 00 00 00 00 00 00 00 00 00 00 00
       0.0 0.0 0.0 0.0
0000c0 00 00 00 00 00 00 00 00 00 00 00 00 00 00 00 00
       0.0 0.0 0.0 0.0
0000d0 00 00 00 00 00 00 00 00 00 00 00 00 00 00 00 00
       0.0 0.0 0.0 0.0
0000e0 00 00 00 00 00 00 00 00 00 00 00 00 00 00 00 00
       0.0 0.0 0.0 0.0
0000f0 00 00 00 00 00 00 00 00 00 00 00 00 00 00 00 00
       0.0 0.0 0.0 0.0
000100 00 00 00 00 00 00 00 00 00 00 00 00 00 00 00 00
       0.0 0.0 0.0 0.0
000110 00 00 00 00 00 00 00 00 00 00 00 00 00 00 00 00
       0.0 0.0 0.0 0.0
000120 00 00 00 00 00 00 00 00 00 00 00 00 00 00 00 00
       0.0 0.0 0.0 0.0
000130 00 00 00 00 00 00 00 00 00 00 00 00 00 00 00 00
       0.0 0.0 0.0 0.0
000140 00 00 00 00 00 00 00 00 00 00 00 00 00 00 00 00
       0.0 0.0 0.0 0.0
000150 00 00 00 00 00 00 00 00 00 00 00 00 00 00 00 00
       0.0 0.0 0.0 0.0
000160 00 00 00 00 00 00 00 00 00 00 00 00 00 00 00 00
       0.0 0.0 0.0 0.0
000170 00 00 00 00 00 00 00 00 00 00 00 00 00 00 00 00
       0.0 0.0 0.0 0.0
000180 00 00 00 00 00 00 00 00 00 00 00 00 00 00 00 00
       0.0 0.0 0.0 0.0
000190 00 00 00 00 00 00 00 00 00 00 00 00 00 00 00 00
       0.0 0.0 0.0 0.0
0001a0 00 00 00 00 00 00 00 00 00 00 00 00 00 00 00 00
       0.0 0.0 0.0 0.0
0001b0 00 00 00 00 00 00 00 00 00 00 00 00 00 00 00 00
       0.0 0.0 0.0 0.0
0001c0 00 00 00 00 00 00 00 00 00 00 00 00 00 00 00 00
       0.0 0.0 0.0 0.0
0001d0 00 00 00 00 00 00 00 00 00 00 00 00 00 00 00 00
       0.0 0.0 0.0 0.0
0001e0 00 00 00 00 00 00 00 00 00 00 00 00 00 00 00 00
       0.0 0.0 0.0 0.0
0001f0 00 00 00 00 00 00 00 00 00 00 00 00 00 00 00 00
       0.0 0.0 0.0 0.0

action_model._continuous_distribution.log_sigma f4 [1, 2]
000000 00 00 00 00 00 00 00 00
       0.0 0.0

action_model._continuous_distribution.mu.weight f4 [2, 128]
000000 f7 5f cc 38 82 36 c1 3c 0d 35 8a bb 3c 10 86 bc
       9.745353e-05 0.023585562 -0.00421775 -0.016365163
000010 38 78 be 3b c7 13 ea 3c 96 f8 3e bb 9f be 80 bb
       0.005812671 0.028573884 -0.0029139868 -0.003928974
000020 3f c8 d1 3b b4 44 36 3d b6 07 0c bc 5f 5a ac bc
       0.006402045 0.044499114 -0.00854676 -0.021039186
000030 17 16 dd bc ea cb d0 bc 44 47 c7 3c e1 b8 af 3c
       -0.026988072 -0.025487859 0.024325974 0.021450462
000040 68 ba c3 38 f7 ef 3f bb e3 a2 eb bb ea 9f 6c 3c
       9.3330455e-05 -0.0029287317 -0.0071910485 0.014442423
000050 b9 77 05 bd cb e9 55 bc 26 8a a0 bc 52 c5 a9 bc
       -0.03258488 -0.013056229 -0.019597124 -0.020723972
000060 2a a4 4a bb 58 53 63 bc fa eb 65 3c df dd 4b 3b
       -0.0030920603 -0.013874851 0.014033312 0.0031107587
000070 10 0b c7 bc f3 e6 39 3b bb 81 55 bc 3b 14 19 3b
       -0.024297267 0.0028366416 -0.013031418 0.0023358006
000080 41 99 49 bc 0f e3 e1 3c fb 4e c3 bb a7 19 58 3b
       -0.012304605 0.02757409 -0.005960343 0.0032974274
000090 9d bf 6d 3b 3f 3a 90 bc 13 9c 34 3c b5 f8 29 bb
       0.003627754 -0.017605899 0.011023539 -0.0025935594
0000a0 28 4a 04 bd a9 2a 07 bb 47 f2 c5 3c 68 8e aa bb
       -0.032297283 -0.0020624793 0.024163378 -0.0052049644
0000b0 03 3e 29 3d b0 dc 80 bb 97 b8 a4 bc ca df 81 bc
       0.041318905 -0.003932558 -0.02010755 -0.015853781
0000c0 0f 68 c5 bb 3f 60 d3 bb 45 05 65 3b 24 4a c4 bc
       -0.0060243676 -0.0064506824 0.0034945768 -0.023961134
0000d0 0b b8 55 3c 68 8d bb bb 3d 4a 9f 3c 4b 89 27 3c
       0.013044368 -0.005723644 0.01944458 0.010225604
0000e0 cb af a5 bb dc df a6 3c af cf 90 bc a7 e0 21 bc
       -0.0050563565 0.020370416 -0.017677156 -0.009880221
0000f0 af 2d 79 3b 0b d2 41 bc 2e 70 98 3c d8 5a de 3c
       0.0038021614 -0.011829863 0.018608179 0.027142927
000100 8a 9e ce 3c b3 a2 56 3b 00 b8 06 bd aa a4 5c 3b
       0.025222082 0.0032750785 -0.03289032 0.0033667483
000110 c5 56 8b bc 8b d6 4c 3b 57 3f 1a bc 52 a5 e5 3b
       -0.017009148 0.0031255807 -0.009414515 0.007008233
000120 ef 83 dd bb 72 4e d7 bc 0b 33 44 3b 87 db e8 3c
       -0.0067601125 -0.026282523 0.002993765 0.028424991
000130 bf 51 00 3c 03 e3 98 bb 18 a5 51 bc 33 75 b1 3c
       0.00783199 -0.004665734 -0.012795709 0.02166233
000140 58 46 b1 bc 7f f5 28 3c c2 ae 66 bb 2b 45 91 ba
       -0.021639988 0.010312437 -0.0035199379 -0.0011083236
000150 aa 9c 3a 3c c8 85 ee 3c dc c1 0b 3b 3f f2 3c bc
       0.011389891 0.029116526 0.0021325266 -0.011532365
000160 ca 6c ca 3c 22 5c a1 3a 60 c4 16 bd a0 b0 56 3c
       0.024710078 0.0012310783 -0.03680837 0.013103634
000170 a6 f3 81 bc d7 2e 35 bc 93 0d 02 bd ba ee 9a 3c
       -0.015863251 -0.011058531 -0.031751227 0.018912662
000180 e5 1f f2 3b c4 8e 35 bc 83 e2 d5 3c 57 3d 1a bb
       0.007389056 -0.011081401 0.026108986 -0.0023535097
000190 d4 ed 12 3c 2d 19 64 b9 d0 b9 71 3c 70 63 9d 3b
       0.008967835 -0.00021753153 0.014753774 0.0048031136
0001a0 e2 52 36 bc f9 44 2b bb 28 48 b3 bb 37 e5 d3 3c
       -0.011128159 -0.002613364 -0.005471248 0.025866134
0001b0 15 d6 ae 3a ba 2e e8 bb a8 99 cd bc 68 86 3b bc
       0.0013338948 -0.0070856484 -0.025097683 -0.011445619
0001c0 0b 7f 0d bb a2 a7 a2 bb 67 ba 27 3c c6 ea 82 3b
       -0.0021590616 -0.004963831 0.010237313 0.0039952723
0001d0 12 6f e5 bb 27 8c 1e bd 4a 46 7b bc e7 60 8a 3c
       -0.007001766 -0.03870788 -0.015336582 0.01689191
0001e0 7d de 25 bb ea 11 06 bc bb 3e 79 3c bd d8 e2 3c
       -0.0025309615 -0.008182982 0.01521271 0.02769124
0001f0 57 53 ad 3b 18 bf fb bc d7 e9 26 bc 58 e2 52 bc
       0.005289476 -0.030730769 -0.010187588 -0.012871347
000200 94 e4 84 3c 81 0a 21 bc 10 54 99 3c 1b 39 24 3a
       0.016222276 -0.0098291645 0.018716842 0.0006264613
000210 93 3f 99 3b c0 5d 6b bb a4 a1 4a 3c 35 03 89 3b
       0.004676768 -0.0035914034 0.01236764 0.0041812905
000220 2a 0d 4f ba 2b 55 63 bb 5f 6c 13 3d 78 7b 31 bc
       -0.0007898385 -0.0034688215 0.035992023 -0.01083266
000230 f9 2f 05 3c 85 00 c7 3b ae 8e 06 3d b8 09 2b b9
       0.008129113 0.00607306 0.032850914 -0.00016311451
000240 a5 b1 d7 3b ec 55 01 3c 7e d7 10 3d ba c7 5a 3c
       0.006582456 0.0078940205 0.03536176 0.013353283
000250 9f a6 5f 3c 26 e3 91 3b 17 90 fb 3a 65 70 2f 3c
       0.013650565 0.004452127 0.0019192722 0.010707949
000260 d6 05 a5 bc cb 3a be bc 0c ad 06 3d 89 fa 12 3c
       -0.020144384 -0.023221394 0.032879874 0.008970865
000270 8f 65 a8 3b c8 05 b9 3c fd d0 13 3d bf 74 fe bb
       0.00513906 0.022585765 0.03608798 -0.007765382
000280 5b 04 22 3b 53 d5 95 3b 25 21 78 bc dd fd 78 3c
       0.0024721834 0.0045725494 -0.015144621 0.0151972445
000290 98 91 d0 3b 0f 9c ba 3b 1d ed b3 bc af 4c 71 3b
       0.0063650124 0.005694873 -0.02196365 0.0036819389
0002a0 2a d4 49 3b 2d 85 34 bd 0b f9 4e 3c 22 1e 67 bc
       0.0030796626 -0.04407232 0.012632619 -0.014106305
0002b0 0f b5 17 bd df be 8d ba 22 94 1d 39 0b 41 f3 3c
       -0.037037905 -0.001081433 0.0001502787 0.0296941
0002c0 37 bb 18 3a 4b d6 77 3c be e2 35 3c c5 5e 8b b9
       0.0005826237 0.015126775 0.011101423 -0.00026582755
0002d0 aa 9b 54 39 b4 98 31 3c c2 39 d8 3c e4 f1 84 3c
       0.00020275885 0.01083963 0.026394729 0.016228624
0002e0 fd 9f 84 3c 07 4a c6 3b 63 3c 70 bc 03 ee b8 bb
       0.01618957 0.006051305 -0.014662835 -0.0056436076
0002f0 4d d0 44 bb 47 27 25 ba e4 10 be 3c 13 ce f4 3b
       -0.0030031384 -0.0006300103 0.023201413 0.007470855
000300 2b 9b ff 3a fd 20 be 3b 05 da 1a bd 57 44 a8 bc
       0.00195012 0.0058022724 -0.037805576 -0.0205404
000310 9a a7 e4 bc 8a cb cd 3b 1e df 8f bc eb 16 c2 bc
       -0.02791195 0.0062803673 -0.017562445 -0.023692569
000320 3c 88 3f bc da 50 f5 bb 70 b9 0d 3c 98 0f fe bc
       -0.011690196 -0.007486445 0.008650169 -0.031013295
000330 0b af 4b 3b 62 29 0e 3c 0a 3c 0a 3c 07 02 db bc
       0.0031079676 0.008676859 0.008437166 -0.026734365
000340 1f ca 98 bb ff b3 b7 3a 1e a4 29 3c 36 c1 42 3c
       -0.0046627666 0.0014015435 0.01035407 0.011886885
000350 10 04 4a 3b 38 79 4c 3c f8 b1 58 bc 42 46 e6 3c
       0.0030825175 0.012480073 -0.013226025 0.028109673
000360 34 9e 32 3b f7 03 42 3a 60 95 61 bc 91 33 a5 bc
       0.002725494 0.00074011035 -0.013768524 -0.02016619
000370 c7 f0 03 bc 33 49 07 3d 37 2a bf 3b 23 15 f1 3c
       -0.008053011 0.033028793 0.00583389 0.029429024
000380 f2 7c f4 3b a3 45 16 3b 94 bd 46 39 fd 8f 22 bd
       0.0074611837 0.002292969 0.00018953375 -0.0396881
000390 08 37 7c 3c b2 a9 d8 bc 8f a3 d3 bc 8d 0d 99 3b
       0.01539398 -0.026448105 -0.025834827 0.004670805
0003a0 28 04 57 3c a8 9d 79 bc 6c a1 a6 3c 81 4e 92 3c
       0.0131235495 -0.015235342 0.020340644 0.0178597
0003b0 bb 45 44 b9 e6 86 c2 bb da 00 52 bc 60 6a 7b 3b
       -0.00018717993 -0.0059364913 -0.012817586 0.0038362965
0003c0 91 01 9a 3b c2 f6 71 3b a2 fb df bc d3 66 a5 3c
       0.0046998938 0.003692076 -0.027341668 0.020190632
0003d0 c8 a2 00 bc 43 59 bb ba 0e 00 8d 3c 25 46 2a 3c
       -0.00785131 -0.001429357 0.01721194 0.0103927
0003e0 3a 21 0b bb 71 a6 8e bc ba 64 cf bc 9a a7 fe 3b
       -0.0021229521 -0.01741335 -0.025316585 0.0077714445
0003f0 22 11 18 bc 2b 77 71 3c bc 27 8c 3c fb f0 05 3c
       -0.0092814285 0.0147378845 0.01710879 0.00817513

action_model._continuous_distribution.mu.bias f4 [2]
000000 00 00 00 00 00 00 00 00
       0.0 0.0

network_body._body_endoder.seq_layers.0.weight f4 [128, 6]
000000 99 fd 50 3e 71 f6 47 3f e1 b8 c6 be fd b5 75 bc
       0.2040924 0.78110415 -0.38812926 -0.014997003
000010 79 81 a3 be e2 48 ab bd 88 ea b7 be 7b 48 49 be
       -0.31934717 -0.08363511 -0.3592112 -0.19656555
000020 1b 4e cb 3e 02 40 a9 be e8 80 0c 3f f0 2d 5f 3f
       0.39708027 -0.33056647 0.54884195 0.8717947
000030 61 39 fa 3d c6 fe d2 3e 43 4c a2 be e7 6c ff 3d
       0.122179754 0.41210002 -0.31698808 0.12471943
000040 40 85 45 3f 6f 96 7f 3e d6 d7 0b 3e 84 13 1d bf
       0.7715645 0.2495973 0.13656554 -0.61357903
000050 69 ce 09 bd ac 08 15 3f 97 b4 b1 3e b6 d4 8f be
       -0.033644114 0.5821636 0.34708092 -0.28091973
000060 97 34 65 be 2e 46 2e 3d 02 10 d8 3e 47 29 ab 3e
       -0.22383343 0.042547397 0.42199713 0.3342993
000070 79 f0 fa be 22 23 ad be cb 29 b3 3d 0f f2 56 bf
       -0.4901159 -0.33815867 0.08748206 -0.839631
000080 42 17 f8 bd 9b 63 04 be a9 98 19 3e 5f 28 c0 3e
       -0.12113811 -0.12928621 0.14999641 0.375308
000090 2d 2f ce be ea 1c 1a 3e ac 8e 19 bf 04 c7 7a 3d
       -0.40270367 0.15050092 -0.59983325 0.061224952
0000a0 01 0c b0 be d6 a3 c9 3d f2 01 05 bf e7 e4 9f be
       -0.34384158 0.09845702 -0.51956093 -0.31229326
0000b0 81 8f d0 3e 9c b5 4e be de b4 05 3f d7 11 e0 be
       0.40734485 -0.20186466 0.52229106 -0.4376361
0000c0 fc fd af 3d d8 13 a5 3d 35 82 cf be 2d bc a7 3e
       0.085933656 0.080604255 -0.40529028 0.32760754
0000d0 bd 1b 89 be cd 05 cd be 4f 95 88 3f 03 be 25 bf
       -0.26778975 -0.40043488 1.0670565 -0.6474306
0000e0 96 ee bd be e1 74 45 3f e8 9d 97 bc b1 31 b2 be
       -0.3709609 0.7713147 -0.018507913 -0.34803537
0000f0 48 26 92 be ef d8 ef 3e a6 60 99 be 98 63 df 3e
       -0.2854483 0.46845195 -0.2995655 0.43630672
000100 df 0e 76 3e 81 8f f9 be 8c 4b 6a 3f 0b cb 0d 3f
       0.2402911 -0.48742297 0.91521525 0.55387944
000110 64 fa 30 3e d4 55 9d be e2 c5 0f be 5d fd b0 3d
       0.17283016 -0.30729544 -0.1404033 0.08642075
000120 20 43 04 3e 0c bb 97 bd 9d 44 7a 3e e7 6f 99 be
       0.12916231 -0.07408723 0.24440236 -0.29968187
000130 5f 68 08 3f 4d fe ed 3e 2d 02 80 3d 14 58 e9 3c
       0.5328426 0.4648308 0.06250415 0.028484382
000140 c1 8a 03 bf ac 21 00 bd 93 20 73 3e 93 90 4f be
       -0.51383597 -0.031282112 0.23742895 -0.20269994
000150 44 41 ea 3e c0 b2 32 be d2 07 5d 3e 71 c6 89 be
       0.4575292 -0.17451 0.21585014 -0.2690921
000160 7d fd 7a be 9b 97 72 3e 9c f6 82 be 78 dc 23 be
       -0.2451076 0.23690645 -0.25578773 -0.16002071
000170 bf b6 f9 be 63 64 24 3e 04 c6 ce 3e d4 2f eb 3d
       -0.48772237 0.1605392 0.4038545 0.11483732
000180 10 e6 68 3f 98 66 6a 3e e0 66 6c 3b 2a cb 36 3f
       0.9097605 0.22890699 0.003607206 0.71403754
000190 aa b0 ba be 01 6b e0 bc 85 dd 27 3e 65 e7 b9 bd
       -0.3646291 -0.027394773 0.16393097 -0.09077338
0001a0 7b ca 44 3f b1 34 0a 3d 70 4e 65 be ff 9a dd 3e
       0.7687146 0.033741657 -0.22393203 0.43282315
0001b0 82 15 e4 be c7 f7 1c bf 25 24 a3 3e 99 34 82 3e
       -0.4454766 -0.6131558 0.31863514 0.25430754
0001c0 77 56 a8 3d 30 3c d1 3e 1a 25 8e bd d1 b5 3f 3d
       0.08219617 0.40866232 -0.0694067 0.046804253
0001d0 45 35 19 3e ad be e9 3e 90 e7 c6 be 81 aa a0 be
       0.14961727 0.45653287 -0.38848543 -0.31380084
0001e0 7e bc 2c bd 17 2c 43 3e 5c 68 3f 3c db 95 bb be
       -0.042171948 0.19059788 0.011682596 -0.36637768
0001f0 11 f9 3f 3f f0 2d f5 3e e7 0b 2a 3e 81 f6 fe be
       0.7498942 0.4788661 0.16606103 -0.49797443
000200 6d db 0e bf a4 8d 5e 3f 6e 85 a9 3f b0 2a 1d 3d
       -0.5580357 0.86934876 1.3243845 0.038370788
000210 69 bd 71 be 25 c8 22 bf 00 5a 20 be ba e2 76 3e
       -0.2360741 -0.63586646 -0.15659332 0.24109927
000220 6b f6 a9 3e 5d 5f e9 bd 0d 90 f1 3e 1d e8 7d 3c
       0.33195814 -0.11395142 0.47180215 0.015497235
000230 8d 5c 93 be 95 b1 61 be 88 08 71 bf ae c7 90 be
       -0.28781548 -0.22040398 -0.9415364 -0.28277344
000240 59 8b 61 3e fb e1 16 bd 6c c4 47 bd 2c f9 b3 3e
       0.22025813 -0.036836606 -0.048771307 0.3515104
000250 9f dc 98 be 27 57 7a 3e a2 e1 76 be 7e d1 0a 3e
       -0.2985582 0.24447308 -0.2410951 0.13556477
000260 54 4d 36 be e1 3c 6d be 86 b6 da 3e ca b8 7b 3e
       -0.17802936 -0.23167755 0.4271738 0.2458221
000270 7f 2f a4 3e c3 15 25 be e3 5b 2e be d4 b2 99 bc
       0.32067487 -0.16121583 -0.1702724 -0.01876203
000280 7c d7 5b 3f b8 3d c6 3e 28 17 56 3e ea ee a5 bc
       0.8587568 0.38718963 0.20907271 -0.020255525
000290 d5 eb 4c be 17 28 9a be b1 88 4d bf e3 88 3d 3e
       -0.20011838 -0.3010871 -0.802867 0.1850925
0002a0 c2 0d 75 3f 49 af 0e bf c3 4b ff bd f3 29 0e be
       0.9572412 -0.55736214 -0.12465622 -0.1388319
0002b0 02 0c 25 3d 98 c5 a7 3d 40 58 f7 be ec fa 5a 3e
       0.040294655 0.08191985 -0.48309517 0.21384782
0002c0 f9 e8 b8 be 1d 39 3d 3f da c4 91 be b5 95 93 be
       -0.36115244 0.7391527 -0.28470498 -0.28825155
0002d0 50 b7 0e bf 3c 07 fb 3c 6e 08 d3 bb a9 75 33 be
       -0.5574846 0.030643098 -0.006440214 -0.17525353
0002e0 ef 5c cf bd dd dc 82 be d7 73 4d 3f 77 f2 3e 3e
       -0.101251476 -0.2555913 0.8025488 0.1864718
0002f0 d8 21 05 3d ca 6a 8f 3e 0e f7 4d 3d 2a 0e a9 3e
       0.03250298 0.2801116 0.050284438 0.3301862
000300 26 89 cf be 80 8c 36 be 48 82 54 be bf 77 90 bc
       -0.40534323 -0.17827034 -0.20752823 -0.017635224
000310 d3 5f 07 bd ce f5 7f 3e 1e 26 a7 3e 54 ca a7 be
       -0.03305037 0.24996111 0.3264627 -0.32771552
000320 3c 7d 69 3f b8 93 6a be 3d e4 0b bf b3 af e4 be
       0.9120672 -0.22907913 -0.5464514 -0.44665298
000330 2b 88 cc be 3d 5a a9 3e 47 ec 87 3e 98 2a 04 3f
       -0.39947638 0.3307666 0.26547453 0.5162749
000340 25 64 d1 3c d1 6f 01 3f c0 1b 16 bf 8a b1 97 3d
       0.025560448 0.50561243 -0.58636093 0.0740691
000350 9e 50 98 3e 98 78 dd 3d 5f bb a2 3c 38 40 bd 3e
       0.29749006 0.10814017 0.019864736 0.36963058
000360 8f fd 3a bf a5 a8 84 be 7f 6f 54 3b 7c 7a 53 3e
       -0.7304315 -0.25909916 0.003241509 0.20652193
000370 9f bc 9f 3e ce a9 bb be 33 17 8b 3e a3 3a 5d 3e
       0.31198594 -0.36652988 0.27166137 0.216044
000380 67 a4 96 3e 82 e5 f5 be b0 c5 90 3e 6e b2 66 bd
       0.29422304 -0.48026663 0.28275824 -0.056322508
000390 fd ba f2 be 1b 3b c8 bd a0 f6 94 3c cc 8d f6 bd
       -0.47408286 -0.097768985 0.018184006 -0.12038764
0003a0 58 73 19 bf b0 4c b5 be ea b2 80 3b 22 0f d6 3e
       -0.59941626 -0.3541007 0.003927578 0.4180842
0003b0 bc 06 bd 3c 9b cb 8c 3e 1d 07 39 bf 5a 22 b8 be
       0.0230745 0.2749909 -0.7227648 -0.35963708
0003c0 1a 2e 32 bf b6 8f ef 3d 66 a1 c8 3c ab d0 75 be
       -0.69601595 0.116973326 0.024491023 -0.24005382
0003d0 ca 66 9f 3e fa 59 b1 3e 07 39 fd 3e 6d 71 28 3f
       0.3113311 0.3463896 0.4945757 0.65798074
0003e0 e5 2d 1f 3f c1 16 05 bd 82 44 98 3d a0 fa 7e bf
       0.62179404 -0.032492403 0.07434942 -0.99601173
0003f0 47 7c a0 be f2 50 b8 be 7b ef 6c bf b4 b6 e2 bd
       -0.31344816 -0.35999256 -0.9255292 -0.11070004

network_body._body_endoder.seq_layers.0.bias f4 [128]
000000 00 00 00 00 00 00 00 00 00 00 00 00 00 00 00 00
       0.0 0.0 0.0 0.0
000010 00 00 00 00 00 00 00 00 00 00 00 00 00 00 00 00
       0.0 0.0 0.0 0.0
000020 00 00 00 00 00 00 00 00 00 00 00 00 00 00 00 00
       0.0 0.0 0.0 0.0
000030 00 00 00 00 00 00 00 00 00 00 00 00 00 00 00 00
       0.0 0.0 0.0 0.0
000040 00 00 00 00 00 00 00 00 00 00 00 00 00 00 00 00
       0.0 0.0 0.0 0.0
000050 00 00 00 00 00 00 00 00 00 00 00 00 00 00 00 00
       0.0 0.0 0.0 0.0
000060 00 00 00 00 00 00 00 00 00 00 00 00 00 00 00 00
       0.0 0.0 0.0 0.0
000070 00 00 00 00 00 00 00 00 00 00 00 00 00 00 00 00
       0.0 0.0 0.0 0.0
000080 00 00 00 00 00 00 00 00 00 00 00 00 00 00 00 00
       0.0 0.0 0.0 0.0
000090 00 00 00 00 00 00 00 00 00 00 00 00 00 00 00 00
       0.0 0.0 0.0 0.0
0000a0 00 00 00 00 00 00 00 00 00 00 00 00 00 00 00 00
       0.0 0.0 0.0 0.0
0000b0 00 00 00 00 00 00 00 00 00 00 00 00 00 00 00 00
       0.0 0.0 0.0 0.0
0000c0 00 00 00 00 00 00 00 00 00 00 00 00 00 00 00 00
       0.0 0.0 0.0 0.0
0000d0 00 00 00 00 00 00 00 00 00 00 00 00 00 00 00 00
       0.0 0.0 0.0 0.0
0000e0 00 00 00 00 00 00 00 00 00 00 00 00 00 00 00 00
       0.0 0.0 0.0 0.0
0000f0 00 00 00 00 00 00 00 00 00 00 00 00 00 00 00 00
       0.0 0.0 0.0 0.0
000100 00 00 00 00 00 00 00 00 00 00 00 00 00 00 00 00
       0.0 0.0 0.0 0.0
000110 00 00 00 00 00 00 00 00 00 00 00 00 00 00 00 00
       0.0 0.0 0.0 0.0
000120 00 00 00 00 00 00 00 00 00 00 00 00 00 00 00 00
       0.0 0.0 0.0 0.0
000130 00 00 00 00 00 00 00 00 00 00 00 00 00 00 00 00
       0.0 0.0 0.0 0.0
000140 00 00 00 00 00 00 00 00 00 00 00 00 00 00 00 00
       0.0 0.0 0.0 0.0
000150 00 00 00 00 00 00 00 00 00 00 00 00 00 00 00 00
       0.0 0.0 0.0 0.0
000160 00 00 00 00 00 00 00 00 00 00 00 00 00 00 00 00
       0.0 0.0 0.0 0.0
000170 00 00 00 00 00 00 00 00 00 00 00 00 00 00 00 00
       0.0 0.0 0.0 0.0
000180 00 00 00 00 00 00 00 00 00 00 00 00 00 00 00 00
       0.0 0.0 0.0 0.0
000190 00 00 00 00 00 00 00 00 00 00 00 00 00 00 00 00
       0.0 0.0 0.0 0.0
0001a0 00 00 00 00 00 00 00 00 00 00 00 00 00 00 00 00
       0.0 0.0 0.0 0.0
0001b0 00 00 00 00 00 00 00 00 00 00 00 00 00 00 00 00
       0.0 0.0 0.0 0.0
0001c0 00 00 00 00 00 00 00 00 00 00 00 00 00 00 00 00
       0.0 0.0 0.0 0.0
0001d0 00 00 00 00 00 00 00 00 00 00 00 00 00 00 00 00
       0.0 0.0 0.0 0.0
0001e0 00 00 00 00 00 00 00 00 00 00 00 00 00 00 00 00
       0.0 0.0 0.0 0.0
0001f0 00 00 00 00 00 00 00 00 00 00 00 00 00 00 00 00
       0.0 0.0 0.0 0.0

network_body._body_endoder.seq_layers.2.weight f4 [128, 128]
000000 ab 8b 56 bd 09 00 54 3d 9b 65 7c bc fd 8a d7 bd
       -0.05237929 0.051757846 -0.015405084 -0.10524557
000010 09 5a 21 bd da 0d 8b bb 40 ac 2a bd 95 54 25 3e
       -0.039392505 -0.0042435946 -0.041668177 0.16145547
000020 a5 0d 38 3d 2a 9b 09 3e d6 f1 ca 3d c7 77 ba 3d
       0.044934887 0.13438097 0.09909408 0.09104877
000030 e0 49 e9 3c 4c 58 94 bc 15 85 a7 3d 0d b8 f4 bc
       0.02847761 -0.01810851 0.0817968 -0.029872919
000040 bf 95 02 3d e3 f7 a0 bd 85 ad b1 3a 31 0f f0 bd
       0.03188109 -0.07859781 0.0013555741 -0.117216475
000050 f5 5b 75 bd 29 cf 9a bd 81 06 fb bd 19 87 a8 bd
       -0.05990215 -0.07559044 -0.122571 -0.08228893
000060 53 b1 60 3c ea 6e 16 3c b9 61 48 3b 18 00 8e bd
       0.013714152 0.009181717 0.0030575825 -0.06933612
000070 65 d3 90 3d e0 be 1d 3e 49 6a be 3d 8f 72 1d 3e
       0.0707157 0.15404844 0.09297616 0.15375732
000080 b3 8c 41 be 4d 60 98 3d 03 1c 48 bd 9f 77 f3 bd
       -0.18901329 0.07440243 -0.04885484 -0.1188805
000090 bf bf 26 be c8 5e 55 3d c1 1d a1 3d 45 a2 cc bd
       -0.16284083 0.052092344 0.07867003 -0.09991888
0000a0 c2 d3 df bd eb 19 3e 3d 34 11 7a bd a4 f2 cb 3c
       -0.109290615 0.046411436 -0.061051562 0.024895974
0000b0 6b 0d d8 3c 5a 1a be bd 21 3e 12 3e b4 01 fd bc
       0.026373586 -0.0928237 0.14281513 -0.030884601
0000c0 a9 a9 c9 3d f7 49 d0 bc aa 74 68 3d 9f 9e c7 3a
       0.09846813 -0.025425894 0.056751885 0.0015229768
0000d0 77 de 34 be 5e 0f ab 3d 82 b3 93 3d fd e9 0c 3d
       -0.17662989 0.083525404 0.07211973 0.034402836
0000e0 28 f6 1f 3d 81 48 6d 3d 27 3b 82 3c 61 4f 61 bc
       0.039053112 0.057930473 0.015897347 -0.013751836
0000f0 1d 2d 0d bd 3a 35 65 3d 4e c6 39 3c f8 51 25 3e
       -0.03446685 0.055958964 0.011338783 0.1614455
000100 67 40 8d bd 7c 0a 20 bd 53 c8 b4 bc a2 f3 8f 3d
       -0.068970494 -0.0390725 -0.022068178 0.07028891
000110 0c f3 3d 3e 64 51 7d 3d 0e da 29 3e bc f2 05 3e
       0.18549746 0.0618452 0.16587088 0.13080877
000120 96 52 36 bc f2 f7 a0 bd 59 89 98 3d d7 54 ec 3d
       -0.011128088 -0.07859792 0.07448072 0.115396194
000130 d9 84 ef 3d 31 bf 28 3d 4e 4d 67 3d c6 bd be 3d
       0.116952606 0.04119796 0.056470208 0.0931354
000140 b6 87 61 3d f4 6f 16 3e 27 20 8f bd 13 e0 b8 bc
       0.055061065 0.14691144 -0.069885544 -0.022567784
000150 5e b9 0f 3c 72 e8 9b 3d 88 6c 12 be 40 e2 c1 3d
       0.008772222 0.07612695 -0.14299214 0.09466982
000160 95 87 50 bc ca 5a 00 3d 65 ca 02 bd fd 24 a5 bd
       -0.012727638 0.031336583 -0.0319313 -0.080636956
000170 67 59 c8 bd c5 45 2b be af 74 cc bd de 8d 43 be
       -0.09782677 -0.16725834 -0.09983193 -0.19097087
000180 89 f7 47 bd 13 c5 7b bd ac dd eb 3d c1 4f f6 bd
       -0.048820052 -0.06146724 0.1151689 -0.120269306
000190 4e a9 c6 3d 7f 98 83 bb 60 09 af 3d 12 0d 03 3c
       0.09700261 -0.0040159817 0.0854671 0.007998722
0001a0 08 19 4c 3d 21 3c 30 3d c3 23 14 bd 6f 50 d1 3d
       0.04982856 0.043026093 -0.036166918 0.102204196
0001b0 bc 3a 80 be 83 7f e8 3c d4 d0 57 bc 72 b8 04 bd
       -0.2504481 0.028381115 -0.013172347 -0.032402463
0001c0 9e 0a 4c 3d cb a4 46 bd af b5 61 3d 5e c0 95 3d
       0.049814813 -0.048497003 0.055104908 0.07312082
0001d0 7c bb d0 bc 22 f1 a1 bd e8 98 84 bd 93 d0 a5 bd
       -0.025480025 -0.079073206 -0.06474477 -0.08096423
0001e0 03 39 23 bd 72 87 f7 3d 58 3c bb 3d cc 80 74 bb
       -0.039849292 0.12086381 0.09142369 -0.0037308214
0001f0 d5 39 18 be a4 df df bd 61 51 b2 ba 20 03 c8 3d
       -0.14865811 -0.10931328 -0.0013604575 0.09766221
000200 83 6a e9 bd d3 e9 9c 3b 5a 8d 93 3d 43 9b 88 bd
       -0.113972686 0.004788616 0.07204695 -0.06670239
000210 9c 15 b8 3d c2 d6 0f 3e a5 33 01 bd 8c 65 ba bd
       0.08988497 0.14046767 -0.031543393 -0.091014
000220 1e e9 c8 3d c2 aa ea 3d 1b c8 ed 3d 51 c3 96 3d
       0.098100886 0.11458351 0.11610433 0.073614724
000230 ed 4b 45 bd d8 fa 96 3d b3 a8 0e 3e 10 ba a4 3d
       -0.04816811 0.073720634 0.13931541 0.08043301
000240 34 eb e6 bc 98 04 6e 3e 5d 9b 1e 3e 71 86 34 be
       -0.028188325 0.2324394 0.15488954 -0.1762941
000250 49 29 91 3d 5f bd 14 3c e9 d6 eb bd c5 2f 0d bd
       0.07087953 0.009078353 -0.115156 -0.034469385
000260 9b 32 5e bb 46 91 f5 bd 90 c3 46 be b8 c0 a4 3d
       -0.0033904675 -0.11990599 -0.19410539 0.08044571
000270 73 fd 84 bd 1a 7b 0e be 0e 3a 82 be c8 a6 5e be
       -0.06493654 -0.13914147 -0.25434917 -0.2174331
000280 a5 60 a2 3c 55 45 04 3d 15 f4 5c 3b f7 3c aa bd
       0.019821474 0.032292683 0.003371482 -0.08312409
000290 db 13 d0 bd 59 54 3d 3d d3 81 8d 3c 22 67 96 bc
       -0.10160037 0.04622302 0.01727382 -0.018359724
0002a0 88 df 7a bc cb 50 b4 3c 87 81 87 3d a0 e5 c4 bc
       -0.015312083 0.022011181 0.06616502 -0.024035275
0002b0 14 1c 8f 3d 65 00 09 3e cc b8 97 3d af 0c 07 be
       0.06987777 0.13379057 0.07408294 -0.13188432
0002c0 e6 eb 62 3d f0 07 ae bd 8a 00 fd 3d 14 f7 b9 bc
       0.05540075 -0.08497608 0.123536184 -0.022700824
0002d0 ce f9 10 3e 4d 71 88 3d 1a fd 84 3c c4 7f 02 bd
       0.14157793 0.066622354 0.01623397 -0.031860128
0002e0 95 4d 41 3d 75 9c f5 3b 36 88 a5 bd 83 58 21 bd
       0.04719313 0.007495458 -0.08082621 -0.039391052
0002f0 dc e5 af bd 7b 5a cb bc 39 cb 0d be 0d 2e 08 bd
       -0.08588764 -0.024823418 -0.13847055 -0.033247042
000300 05 09 bf bd 96 cb 32 bd 8d 43 8c bd 0c 93 02 be
       -0.09327892 -0.043651186 -0.06848822 -0.12751406
000310 dc 4a 00 be b7 3f c0 3d f9 b0 58 bd a5 b8 e7 bd
       -0.12528557 0.09387153 -0.05290315 -0.11314515
000320 e1 74 34 3d 92 7f d9 bc 3d b4 06 bd bb a3 86 3d
       0.044056777 -0.026550088 -0.032886732 0.06574198
000330 e0 ec 11 3d 98 cf af 3d aa 48 40 3e 0a 01 13 3e
       0.035626292 0.08584517 0.18777719 0.14355865
000340 6d 31 bd 3c f1 be 24 3e 2c 95 9b 3a d3 04 4e be
       0.023094857 0.16088463 0.0011870018 -0.20119028
000350 64 19 cc bb 4c 7b 9e 3d df f2 a6 3c e6 e9 2c bd
       -0.0062286127 0.07738361 0.020379482 -0.04221525
000360 00 82 42 3d d4 7f ad bd 21 0b 8f bd c8 84 3a 3c
       0.04748726 -0.08471647 -0.069845445 0.011384197
000370 5a e2 b8 3d ce 83 84 bd b8 de 7c 3d 54 b7 e0 3d
       0.09027548 -0.06470452 0.06173584 0.10972467
000380 a7 2c 64 bc 8c bd ab bd 45 61 ad bc d6 3b d5 bc
       -0.013926662 -0.083857626 -0.021164546 -0.026029509
000390 4a f8 a3 bd f4 61 79 3c cc ff 88 3d eb 31 c9 3b
       -0.08006342 0.015221108 0.066894144 0.006139984
0003a0 b8 bb db 3d 94 22 ed 3b 55 e3 b1 bd 22 b0 6a bd
       0.10729164 0.007236788 -0.08685938 -0.05729688
0003b0 4b 60 d7 3c f2 9d cd 3c 2d 76 be 3d 3e f4 45 bd
       0.026291033 0.025099728 0.09299884 -0.04832863
0003c0 33 15 44 3d 6a cc 49 3d 3c bd 16 3e 96 28 06 bc
       0.04787178 0.04926721 0.14720625 -0.008188387
0003d0 c7 ac e0 bc 49 7e a7 bd 12 cb ad bd f6 4f 0a bd
       -0.027426137 -0.08178384 -0.08485998 -0.033767663
0003e0 de a5 76 bd e9 2f ed bd 8d ef 7d 3d 1e 62 7c 3d
       -0.060216777 -0.11581404 0.06199603 0.06161701
0003f0 40 df fc 3c 00 f4 d3 bd 25 0f 3c bd c2 eb de 3d
       0.030868173 -0.10349274 -0.04591288 0.10884811

network_body._body_endoder.seq_layers.2.bias f4 [128]
000000 00 00 00 00 00 00 00 00 00 00 00 00 00 00 00 00
       0.0 0.0 0.0 0.0
000010 00 00 00 00 00 00 00 00 00 00 00 00 00 00 00 00
       0.0 0.0 0.0 0.0
000020 00 00 00 00 00 00 00 00 00 00 00 00 00 00 00 00
       0.0 0.0 0.0 0.0
000030 00 00 00 00 00 00 00 00 00 00 00 00 00 00 00 00
       0.0 0.0 0.0 0.0
000040 00 00 00 00 00 00 00 00 00 00 00 00 00 00 00 00
       0.0 0.0 0.0 0.0
000050 00 00 00 00 00 00 00 00 00 00 00 00 00 00 00 00
       0.0 0.0 0.0 0.0
000060 00 00 00 00 00 00 00 00 00 00 00 00 00 00 00 00
       0.0 0.0 0.0 0.0
000070 00 00 00 00 00 00 00 00 00 00 00 00 00 00 00 00
       0.0 0.0 0.0 0.0
000080 00 00 00 00 00 00 00 00 00 00 00 00 00 00 00 00
       0.0 0.0 0.0 0.0
000090 00 00 00 00 00 00 00 00 00 00 00 00 00 00 00 00
       0.0 0.0 0.0 0.0
0000a0 00 00 00 00 00 00 00 00 00 00 00 00 00 00 00 00
       0.0 0.0 0.0 0.0
0000b0 00 00 00 00 00 00 00 00 00 00 00 00 00 00 00 00
       0.0 0.0 0.0 0.0
0000c0 00 00 00 00 00 00 00 00 00 00 00 00 00 00 00 00
       0.0 0.0 0.0 0.0
0000d0 00 00 00 00 00 00 00 00 00 00 00 00 00 00 00 00
       0.0 0.0 0.0 0.0
0000e0 00 00 00 00 00 00 00 00 00 00 00 00 00 00 00 00
       0.0 0.0 0.0 0.0
0000f0 00 00 00 00 00 00 00 00 00 00 00 00 00 00 00 00
       0.0 0.0 0.0 0.0
000100 00 00 00 00 00 00 00 00 00 00 00 00 00 00 00 00
       0.0 0.0 0.0 0.0
000110 00 00 00 00 00 00 00 00 00 00 00 00 00 00 00 00
       0.0 0.0 0.0 0.0
000120 00 00 00 00 00 00 00 00 00 00 00 00 00 00 00 00
       0.0 0.0 0.0 0.0
000130 00 00 00 00 00 00 00 00 00 00 00 00 00 00 00 00
       0.0 0.0 0.0 0.0
000140 00 00 00 00 00 00 00 00 00 00 00 00 00 00 00 00
       0.0 0.0 0.0 0.0
000150 00 00 00 00 00 00 00 00 00 00 00 00 00 00 00 00
       0.0 0.0 0.0 0.0
000160 00 00 00 00 00 00 00 00 00 00 00 00 00 00 00 00
       0.0 0.0 0.0 0.0
000170 00 00 00 00 00 00 00 00 00 00 00 00 00 00 00 00
       0.0 0.0 0.0 0.0
000180 00 00 00 00 00 00 00 00 00 00 00 00 00 00 00 00
       0.0 0.0 0.0 0.0
000190 00 00 00 00 00 00 00 00 00 00 00 00 00 00 00 00
       0.0 0.0 0.0 0.0
0001a0 00 00 00 00 00 00 00 00 00 00 00 00 00 00 00 00
       0.0 0.0 0.0 0.0
0001b0 00 00 00 00 00 00 00 00 00 00 00 00 00 00 00 00
       0.0 0.0 0.0 0.0
0001c0 00 00 00 00 00 00 00 00 00 00 00 00 00 00 00 00
       0.0 0.0 0.0 0.0
0001d0 00 00 00 00 00 00 00 00 00 00 00 00 00 00 00 00
       0.0 0.0 0.0 0.0
0001e0 00 00 00 00 00 00 00 00 00 00 00 00 00 00 00 00
       0.0 0.0 0.0 0.0
0001f0 00 00 00 00 00 00 00 00 00 00 00 00 00 00 00 00
       0.0 0.0 0.0 0.0

value_heads.value_heads.extrinsic.weight f4 [1, 128]
000000 cc 1b ed bd 6d 18 4e be 3c eb 21 be 98 73 2d bd
       -0.115775675 -0.20126505 -0.15812391 -0.042346567
000010 10 57 9c 3c 8e b2 52 be 60 a0 df 3c c0 c6 0a 3e
       0.019084483 -0.20575926 0.027298152 0.1355238
000020 40 61 22 3d ba ac 11 be 98 51 3d 3d a8 00 2c be
       0.039643526 -0.14226046 0.046220392 -0.16797125
000030 9c 5b 7c bd 94 77 09 bd 5c 08 9f bd f6 bc ce bd
       -0.061610803 -0.033561304 -0.07765266 -0.10094635
000040 a0 1a 03 3c c4 35 42 3e a0 f3 48 be 40 75 7c 3b
       0.008001953 0.18965822 -0.19624186 0.0038522035
000050 94 b8 98 bd f8 af c4 3c 95 91 17 be 4c db df 3d
       -0.074570805 0.02400969 -0.14801629 0.109304994
000060 d5 bb 1b be 24 95 e9 3d 9e 2c 1d 3e 6c 22 ee bd
       -0.15208371 0.114053994 0.15349051 -0.11627659
000070 48 55 4f 3d 50 cb 39 3e ec 22 df 3d 18 94 34 be
       0.05061844 0.18143964 0.10895333 -0.17634618
000080 8e 00 97 bd 10 bd de 3c 3c 71 25 be e1 2d ce bd
       -0.07373153 0.027189761 -0.16156477 -0.100673445
000090 8c 26 49 bd 50 6b b0 3d 6a 42 08 3e cc 18 14 3e
       -0.049109027 0.08614218 0.13306585 0.14462584
0000a0 a0 af 56 3e c2 c7 5b be 60 62 e2 bd e9 84 cc bd
       0.20965433 -0.2146292 -0.1105392 -0.09986288
0000b0 68 e5 1d 3d f8 cb 50 3d 40 ec f7 3b 0a d5 0d be
       0.038548857 0.05097577 0.007566005 -0.13850799
0000c0 82 31 44 be a6 0d 8b bd e8 75 81 bc 46 55 13 be
       -0.1915951 -0.067897126 -0.015803292 -0.14387998
0000d0 f4 79 4a 3e f6 3a 1d 3e 50 15 5c bc 8a 9a b0 bd
       0.19773084 0.15354523 -0.013432816 -0.08623226
0000e0 af 21 48 be 24 17 f1 3d 98 26 98 3d b8 d5 15 3d
       -0.195441 0.11771992 0.07429236 0.03658077
0000f0 80 e7 38 bb 1c 02 02 3e f4 5f 25 bd b4 88 8e 3d
       -0.0028214157 0.12696117 -0.04037471 0.06959668
000100 47 fa d6 bd 72 a8 90 bd a8 72 d0 3d 7c 30 7b bd
       -0.10496955 -0.070633784 0.10178119 -0.061325535
000110 c8 50 4a bd 24 3d 23 3e e0 4f 1f 3c 98 3f 3c 3e
       -0.049393445 0.15941292 0.0097236335 0.18383634
000120 42 12 11 3e c4 9f 18 be 8e 39 4c be d4 2f 20 bd
       0.14167121 -0.14904696 -0.1994383 -0.039108112
000130 32 b2 99 bd 28 2a 88 bd 84 65 25 3e 04 8b b4 bd
       -0.07504691 -0.06648666 0.16152006 -0.088155776
000140 84 b9 11 be e7 4f 43 be e6 9b d3 bd 10 25 4c 3d
       -0.14230925 -0.19073449 -0.1033247 0.049840033
000150 4a 4f 4f be c4 01 61 bd 28 80 2e 3d 6f 5b 40 be
       -0.2024509 -0.054933324 0.042602688 -0.18784879
000160 78 f8 26 3e 82 b5 4c 3e 38 b6 b3 bc 7c 29 0a 3e
       0.16305721 0.19991115 -0.021937475 0.13492388
000170 86 fb ca bd 7c 56 18 be 92 f9 05 3e 80 9a cd bb
       -0.099112555 -0.14876741 0.13083485 -0.0062745214
000180 b0 fd 60 bd 58 ed c3 3c 4c 5b f1 3d d4 52 90 3d
       -0.054929435 0.023916885 0.117849916 0.07047048
000190 3a 9d 91 bd 2a 8d 44 3e fa d2 f0 bd a2 85 13 3e
       -0.07110067 0.19194475 -0.117589906 0.14406446
0001a0 4d 7e ca bd ff 4c 47 be 78 fe 41 3e cc 61 11 3e
       -0.09887371 -0.19462965 0.18944728 0.14197463
0001b0 7c d3 4f be e8 c0 f7 bd 20 73 c2 bd 08 c7 09 be
       -0.20295519 -0.12097341 -0.094946146 -0.1345483
0001c0 6b 86 44 be 40 84 cd bb 28 31 c6 3c 75 9c 21 be
       -0.19191901 -0.006271869 0.024193361 -0.1578234
0001d0 fc 85 37 be 90 8f 6c bd 36 a5 06 3e 9a a3 24 be
       -0.17922205 -0.0577541 0.1314896 -0.16078034
0001e0 00 8c 33 39 b0 31 07 3e 1a f8 37 3e 78 7a b9 3d
       0.00017122924 0.13202548 0.17965737 0.09056562
0001f0 b6 d6 a4 bd 20 de 29 be 90 21 a7 3d b8 db 29 3d
       -0.08048765 -0.1658864 0.081606984 0.041469306
