results/ppo/Agent Behavior/Agent Behavior-964.pt (torch, 149147 bytes, 12 tensors)

network_body._body_endoder.seq_layers.0.weight f4 [128, 6]
-0.4694276 0.15488426 -0.894272 0.7412855 -0.20611145 -0.07233874 0.18074304 0.10195519
-0.14921118 -0.4911041 0.09552368 0.0923055 0.23034663 -0.45280662 0.1555404 0.04224715
-0.6945819 0.025908329 -0.4966366 -0.0048951698 0.40889728 0.5214155 0.15204069 0.8985987
0.7740842 0.66108084 0.009825262 0.4488175 -0.0033563448 -0.039154958 0.062303 0.3288317
0.5024938 0.04034655 0.54798645 -0.22046313 -0.3926964 0.75412446 0.39474472 0.19189979
-0.6486956 -0.09560785 -0.7938286 0.26853284 -0.44218838 0.11250033 0.17110237 1.1537709
-0.8886774 -0.5887124 -0.2479078 0.54859865 0.40588772 0.33282587 -0.9682682 0.09036
-0.21143639 -0.72237027 0.6126578 0.4214445 -0.9323991 -0.50079304 0.2158265 0.2866179
-0.84752345 -0.39342096 0.33953872 0.045824964 -0.37513825 -0.14729282 0.3356906 1.0184444
0.07515394 -0.6619928 0.49167466 -0.34095615 -0.10942081 0.18940866 0.45015725 -0.41671985
-0.31952465 0.02337682 0.2706992 -0.607763 -0.045440093 0.42885274 0.14520879 -0.3507944
-0.15156476 -0.09186052 0.07694722 -0.5414563 0.93471116 0.043555498 -0.13797967 -0.50742507
-0.36605826 0.32866102 -0.6224872 -0.22792564 0.33423808 -0.87968415 -0.3718588 0.107190795
-0.14863421 -0.4239829 0.38660312 0.5724762 0.87285894 -0.29443073 -0.2674685 -0.47904807
0.048961863 0.78362846 0.067769594 0.4780745 0.5903473 0.26101094 -0.7798202 -0.31169277
-0.45268106 -0.44132638 -0.60933596 0.12053891 0.0908664 -0.5579399 0.07155406 0.515334
0.02212157 0.2712027 -0.61348534 -0.040710896 0.2782206 0.3775312 -0.49263576 -0.85851985
0.24391696 0.1549614 -0.06599253 -0.29405034 -0.6174039 0.840817 -0.04786614 -0.17675708
0.22971915 0.65169454 0.14986713 -0.32879627 -0.064382635 -0.5977827 0.2643628 -0.76445895
-0.26092976 0.35373092 0.28579322 0.6811285 0.27217913 0.57362694 0.1630716 -0.17135239
-0.77644163 0.7393165 -0.40258294 -0.52532136 -0.64390105 -0.94540477 -0.1254674 -0.2780944
0.3115454 0.045728855 -0.001094055 -0.06033062 -0.34579906 0.25085577 0.04486184 -0.1168324
-0.53793097 0.8665122 -0.7697383 0.4226279 -0.41591662 -0.26298976 0.038655564 0.36442772
0.05175172 0.38898736 0.03311081 0.41420066 -0.03322195 -0.1393054 -0.2654042 0.8241104
0.80815375 -0.08514463 0.6856139 0.4234448 -0.42264566 -0.05818105 0.554276 0.32254001
0.723281 0.10260017 -0.074342564 -0.31051692 0.20257872 -0.3148226 -0.4724493 0.22342198
0.31725565 0.37419486 0.08354584 -0.7136696 0.10250526 0.34675604 0.25154978 -0.20597117
-1.1001414 -0.44248164 -0.0024357187 0.072558954 -0.8746219 0.3330675 -0.32142904 -0.38905695
0.7986209 0.12271511 -0.13643396 0.121302195 0.020286242 -0.22307746 -0.011275415 0.017800594
-0.71966225 0.59441334 -0.4649747 -0.68378943 -0.15969461 -0.29644555 0.09641197 -0.17981157
0.4894058 -0.1463642 -0.22871594 0.070177 0.69194335 -0.63178724 0.14644013 -0.28349307
-0.47936293 -0.31980446 0.17985758 0.14802107 -0.19241618 0.729264 -0.28015935 -0.69325227
00000000: d058 f0be fb99 1e3e 03ef 64bf e3c4 3d3f
00000010: e10e 53be 5526 94bd b414 393e e2cd d03d
00000020: d1ca 18be ff71 fbbe eba1 c33d aa0a bd3d
00000030: fddf 6b3e 45d6 e7be fc45 1f3e 590b 2d3d
00000040: 1fd0 31bf b43d d43c 2747 febe a967 a0bb
00000050: fc5a d13e 7c7b 053f 8eb0 1b3e 900a 663f
00000060: 622a 463f 983c 293f 23fa 203c 68cb e53e
00000070: 1ff6 5bbb f360 20bd 6e31 7f3d a15c a83e
00000080: 6fa3 003f 6d42 253d d748 0c3f 16c1 61be
00000090: 810f c9be 4d0e 413f fb1b ca3e 6181 443e
000000a0: ea10 26bf 0cce c3bd 5a38 4bbf 237d 893e
000000b0: 8466 e2be 9366 e63d 7635 2f3e c4ae 933f
000000c0: 5d80 63bf dbb5 16bf 8bdb 7dbe f670 0c3f
000000d0: 84d0 cf3e 2768 aa3e 6de0 77bf aa0e b93d
000000e0: c882 58be 42ed 38bf 24d7 1c3f 93c7 d73e
000000f0: b5b1 6ebf f933 00bf 9f01 5d3e 95bf 923e
00000100: 4cf7 58bf 796e c9be 05d8 ad3e f5b2 3b3d
00000110: 1f12 c0be eed3 16be a3df ab3e 635c 823f
00000120: 4fea 993d 5c78 29bf c8bc fb3e ce91 aebe
00000130: 0518 e0bd 58f4 413e 037b e63e 4e5c d5be
00000140: bc98 a3be bf80 bf3c 1699 8a3e 5b96 1bbf
00000150: 641f 3abd 9692 db3e 9db1 143e 539b b3be
00000160: cb33 1bbe 5e21 bcbd 8196 9d3d e19c 0abf
00000170: 3b49 6f3f 4067 323d 8b4a 0dbe 9ce6 01bf
00000180: fd6b bbbe 4246 a83e 525b 1fbf 5765 69be
00000190: 4121 ab3e fb32 61bf 4764 bebe d986 db3d
000001a0: 9133 18be 4914 d9be d8f0 c53e cd8d 123f
000001b0: af73 5f3f a0bf 96be a2f1 88be ca45 f5be
000001c0: 3c8c 483d e09b 483f c9ca 8a3d 2ec6 f43e
000001d0: 0021 173f 3aa3 853e 4ca2 47bf 3296 9fbe
000001e0: d0c5 e7be 88f5 e1be 71fd 1bbf 1bdd f63d
000001f0: 2a18 ba3d 26d5 0ebf ef8a 923d eeec 033f
00000200: 4b38 b53c 15db 8a3e 600d 1dbf 78c0 26bd
00000210: ee72 8e3e c54b c13e c13a fcbe f5c7 5bbf
00000220: 5ec5 793e 34ae 1e3e 1727 87bd c48d 96be
00000230: 2f0e 1ebf c83f 573f 490f 44bd cfff 34be
00000240: 7f3b 6b3e 74d5 263f c576 193e fc57 a8be
00000250: 0bdb 83bd 4908 19bf 905a 873e 95b3 43bf
00000260: 9698 85be 381c b53e 7d53 923e 705e 2e3f
00000270: 105b 8b3e 37d9 123f 3efc 263e 0077 2fbe
00000280: e1c4 46bf d943 3d3f 5a1f cebe 767b 06bf
00000290: b3d6 24bf 0c06 72bf 877a 00be 6462 8ebe
000002a0: e182 9f3e 2e4e 3b3d 6566 8fba 3d1d 77bd
000002b0: 930c b1be 2b70 803e 0cc1 373d d345 efbd
000002c0: d8b5 09bf bed3 5d3f 920d 45bf af62 d83e
000002d0: 06f3 d4be 98a6 86be 4c55 1e3d 4596 ba3e
000002e0: 9df9 533d 5a29 c73e 339f 073d 1c12 d43e
000002f0: bd13 08bd 13a6 0ebe 0fe3 87be e6f8 523f
00000300: 2ae3 4e3f 4f60 aebd 6484 2f3f c2cd d83e
00000310: 0365 d8be 414f 6ebd 08e5 0d3f f723 a53e
00000320: f228 393f 0a20 d23d ea40 98bd 13fc 9ebe
00000330: cc70 4f3e 6e30 a1be e0e4 f1be bbc8 643e
00000340: 556f a23e 7896 bf3e 151a ab3d 0db3 36bf
00000350: 47ee d13d 028a b13e 22cb 803e 1bea 52be
00000360: 6fd1 8cbf f48c e2be 94a0 1fbb ca99 943d
00000370: 39e7 5fbf d387 aa3e 5992 a4be 7932 c7be
00000380: 6b72 4c3f 0f52 fb3d 58b5 0bbe 496d f83d
00000390: 552f a63c 6b6e 64be 85bc 38bc 8dd2 913c
000003a0: c93b 38bf 792b 183f 2a11 eebe d30c 2fbf
000003b0: fc86 23be b6c7 97be a473 c53d 8620 38be
000003c0: 6693 fa3e 7fe0 15be 8334 6abe f5b8 8f3d
000003d0: 3323 313f cfbc 21bf 67f4 153e 0126 91be
000003e0: 0f6f f5be 69bd a3be 962c 383e d692 173e
000003f0: bf08 45be 0cb1 3a3f 0c71 8fbe fb78 31bf

network_body._body_endoder.seq_layers.0.bias f4 [128]
0.0 0.0 0.0 0.0 0.0 0.0 0.0 0.0
0.0 0.0 0.0 0.0 0.0 0.0 0.0 0.0
0.0 0.0 0.0 0.0 0.0 0.0 0.0 0.0
0.0 0.0 0.0 0.0 0.0 0.0 0.0 0.0
0.0 0.0 0.0 0.0 0.0 0.0 0.0 0.0
0.0 0.0 0.0 0.0 0.0 0.0 0.0 0.0
0.0 0.0 0.0 0.0 0.0 0.0 0.0 0.0
0.0 0.0 0.0 0.0 0.0 0.0 0.0 0.0
0.0 0.0 0.0 0.0 0.0 0.0 0.0 0.0
0.0 0.0 0.0 0.0 0.0 0.0 0.0 0.0
0.0 0.0 0.0 0.0 0.0 0.0 0.0 0.0
0.0 0.0 0.0 0.0 0.0 0.0 0.0 0.0
0.0 0.0 0.0 0.0 0.0 0.0 0.0 0.0
0.0 0.0 0.0 0.0 0.0 0.0 0.0 0.0
0.0 0.0 0.0 0.0 0.0 0.0 0.0 0.0
0.0 0.0 0.0 0.0 0.0 0.0 0.0 0.0
00000000: 0000 0000 0000 0000 0000 0000 0000 0000
00000010: 0000 0000 0000 0000 0000 0000 0000 0000
00000020: 0000 0000 0000 0000 0000 0000 0000 0000
00000030: 0000 0000 0000 0000 0000 0000 0000 0000
00000040: 0000 0000 0000 0000 0000 0000 0000 0000
00000050: 0000 0000 0000 0000 0000 0000 0000 0000
00000060: 0000 0000 0000 0000 0000 0000 0000 0000
00000070: 0000 0000 0000 0000 0000 0000 0000 0000
00000080: 0000 0000 0000 0000 0000 0000 0000 0000
00000090: 0000 0000 0000 0000 0000 0000 0000 0000
000000a0: 0000 0000 0000 0000 0000 0000 0000 0000
000000b0: 0000 0000 0000 0000 0000 0000 0000 0000
000000c0: 0000 0000 0000 0000 0000 0000 0000 0000
000000d0: 0000 0000 0000 0000 0000 0000 0000 0000
000000e0: 0000 0000 0000 0000 0000 0000 0000 0000
000000f0: 0000 0000 0000 0000 0000 0000 0000 0000
00000100: 0000 0000 0000 0000 0000 0000 0000 0000
00000110: 0000 0000 0000 0000 0000 0000 0000 0000
00000120: 0000 0000 0000 0000 0000 0000 0000 0000
00000130: 0000 0000 0000 0000 0000 0000 0000 0000
00000140: 0000 0000 0000 0000 0000 0000 0000 0000
00000150: 0000 0000 0000 0000 0000 0000 0000 0000
00000160: 0000 0000 0000 0000 0000 0000 0000 0000
00000170: 0000 0000 0000 0000 0000 0000 0000 0000
00000180: 0000 0000 0000 0000 0000 0000 0000 0000
00000190: 0000 0000 0000 0000 0000 0000 0000 0000
000001a0: 0000 0000 0000 0000 0000 0000 0000 0000
000001b0: 0000 0000 0000 0000 0000 0000 0000 0000
000001c0: 0000 0000 0000 0000 0000 0000 0000 0000
000001d0: 0000 0000 0000 0000 0000 0000 0000 0000
000001e0: 0000 0000 0000 0000 0000 0000 0000 0000
000001f0: 0000 0000 0000 0000 0000 0000 0000 0000

network_body._body_endoder.seq_layers.2.weight f4 [128, 128]
0.005671228 -0.031869195 0.041932248 0.1555983 0.18976365 0.030789755 0.06424971 0.008758695
0.13214059 -0.07413168 -0.04442791 -0.14855365 0.15652622 -0.07247498 -0.036083903 -0.08438345
-0.06898265 0.00577046 0.08636794 -0.12999527 -0.019304922 -0.11245932 -0.22923161 0.038902737
0.058522772 0.099199615 -0.039131906 0.036345206 0.07220479 0.024462618 -0.025470251 -0.029541723
0.069858976 -0.005590477 -0.08752189 -0.08766024 -0.003988972 -0.040885948 -0.021813286 0.03360201
0.023853147 0.014982664 -0.16894925 0.15197025 -0.037652727 0.1001383 -0.13931312 0.020766394
0.014328722 0.024360707 0.011262237 0.0497089 0.056735232 0.017069995 0.053582847 -0.12397112
-0.061022636 0.038376126 0.033586595 -0.096000396 -0.037161525 -0.101829365 0.19686274 0.11038595
-0.06782983 0.014276723 -0.036656857 -0.038495675 0.13570736 0.1153604 0.03328443 0.016999794
-0.0045327954 -0.06625127 -0.026558412 -0.12631933 0.043820865 -0.1066988 -0.074368805 0.028836586
-0.032047495 0.028658852 0.041536473 0.015947523 -0.041240953 -0.039336972 -0.024585824 -0.024659935
0.056057326 0.10182682 0.12785807 0.029828545 0.057525337 -0.030349126 -0.00023498797 0.12373096
-0.06551754 0.061600875 0.01796615 -0.06354128 0.09290867 -0.0124828 0.08993309 -0.05029599
-0.01725802 0.10012783 0.15422028 -0.030753797 -0.12024167 0.08964221 0.21129349 0.0269755
-0.10229863 -0.18364361 -0.07863083 -0.073265426 0.059878565 0.023939265 -0.19422826 0.0485201
0.04860116 0.12857457 0.088703476 0.0791004 0.06030165 0.0232645 0.015303466 0.09694961
0.13320138 0.036093608 -0.0024824296 -0.009422305 -0.115308024 0.025066053 0.12237614 -0.0515468
-0.15040375 -0.038083542 0.048298538 -0.006633024 0.13688852 -0.10404338 0.005248403 0.073326185
-0.03992064 0.11173989 0.058473732 0.07747795 -0.016139152 -0.22927944 0.12389051 0.047544073
-0.059186485 0.003618258 -0.04403213 -0.11584349 -0.034031473 -0.11279067 0.056994546 -0.044418916
-0.015503578 0.00533778 0.045861155 0.22156823 -0.11530495 -0.038310427 0.045841478 0.026170569
-0.12605357 -0.056856092 -0.0074306987 0.041498795 0.17467412 -0.024324162 0.10159642 0.08324632
5.487219e-06 0.115282334 0.0828886 -0.029969394 -0.12315702 0.014833558 -0.020600896 -0.16859202
-0.02746264 0.062183205 -0.0005680386 0.038070027 -0.123986945 0.034736957 -0.013012456 -0.07477814
-0.03242414 0.037776086 -0.094297945 -0.019992998 0.040388577 -0.095305584 0.030022118 0.03020696
0.21049643 -0.060077146 -0.15512653 -0.017842874 -0.06493267 -0.05979124 0.13877636 0.121223174
0.18420388 -0.14375292 0.029344948 0.0049382797 -0.01764728 -0.037814215 -0.09573941 0.0067584044
-0.03916771 0.054124277 -0.0225506 -0.077875376 -0.034247186 0.012295208 0.02529667 0.12738174
-0.1824363 0.13065757 0.10076343 -0.0014932111 0.06873682 -0.18703239 0.073670894 0.10689183
0.026993163 -0.007412741 -0.101383835 -0.07904274 0.22960109 0.022609074 0.12904142 -0.07932075
-0.01292932 -0.032443825 -0.100482374 -0.01695894 -0.059399597 0.016180001 0.108002394 -0.09408074
-0.089019895 -0.006657876 0.054967355 0.09308112 0.06716134 0.08245815 0.031537592 -0.189119
00000000: b5d5 b93b 4689 02bd 26c1 2b3d 2955 1f3e
00000010: 6751 423e cc3a fc3c 5a95 833d a180 0f3c
00000020: dd4f 073e 5ad2 97bd 0afa 35bd 731e 18be
00000030: 6948 203e c36d 94bd b7cc 13bd 3bd1 acbd
00000040: c746 8dbd 2016 bd3b ade1 b03d 7b1d 05be
00000050: 5b25 9ebc 1251 e6bd b1bb 6abe 7a58 1f3d
00000060: 93b5 6f3d 2b29 cb3d c748 20bd b6de 143d
00000070: 1be0 933d d465 c83c fda6 d0bc 7c01 f2bc
00000080: 3912 8f3d 5230 b7bb ad3e b3bd 3687 b3bd
00000090: ecb5 82bb 0678 27bd c7b1 b2bc 43a2 093d
000000a0: ad67 c33c d979 753c 0801 2dbe 179e 1b3e
000000b0: bf39 1abd 4f15 cd3d 19a8 0ebe 491e aa3c
000000c0: 04c3 6a3c 1b90 c73c 3f85 383c 8f9b 4b3d
000000d0: 3463 683d 60d6 8b3c b079 5b3d 92e4 fdbd
000000e0: dff2 79bd 4930 1d3d 1992 093d db9b c4bd
000000f0: af36 18bd ea8b d0bd 6396 493e 0712 e23d
00000100: 5eea 8abd ebe8 693c 8025 16bd a4ad 1dbd
00000110: dff6 0a3e 1342 ec3d 4155 083d 2743 8b3c
00000120: d887 94bb bfae 87bd 0791 d9bc db59 01be
00000130: 827d 333d e784 dabd ac4e 98bd b43a ec3c
00000140: 3c44 03bd f8c5 ea3c 2622 2a3d 61a4 823c
00000150: 46ec 28bd ce1f 21bd 3668 c9bc a203 cabc
00000160: 5e9c 653d 948a d03d 3aed 023e fe5a f43c
00000170: b09f 6b3d bb9e f8bc 1a67 76b9 a866 fd3d
00000180: 0f2e 86bd 3351 7c3d bf2d 933c ee21 82bd
00000190: e746 be3d a884 4cbc d72e b83d 2b03 4ebd
000001a0: b160 8dbc d20f cd3d eceb 1d3e 63ef fbbc
000001b0: 4441 f6bd 5696 b73d 525d 583e b9fb dc3c
000001c0: f281 d1bd 120d 3cbe 3309 a1bd 2f0c 96bd
000001d0: 3a43 753d 471c c43c c6e3 46be 03bd 463d
000001e0: 0312 473d 0da9 033e 2baa b53d 64ff a13d
000001f0: ddfe 763d 3195 be3c 63bb 7a3c 848d c63d
00000200: f165 083e e4d6 133d 42b0 22bb 0360 1abc
00000210: 9d26 ecbd 5357 cd3c 57a0 fa3d bd22 53bd
00000220: 7103 1abe 7dfd 1bbd b0d4 453d d759 d9bb
00000230: 812c 0c3e b214 d5bd ccfa ab3b 0a2c 963d
00000240: d383 23bd e2d7 e43d 2782 6f3d c2ac 9e3d
00000250: 4136 84bc 3bc8 6abe 4fba fd3d 93bd 423d
00000260: 876d 72bd 4c20 6d3b 095b 34bd 5a3f edbd
00000270: 9664 0bbd cbfe e6bd 1d73 693d 9cf0 35bd
00000280: b802 7ebc 8be8 ae3b e8d8 3b3d c8e2 623e
00000290: 0025 ecbd 65eb 1cbd 46c4 3b3d a963 d63c
000002a0: 3014 01be efe1 68bd 387d f3bb a4fa 293d
000002b0: c6dd 323e 7743 c7bc c911 d03d 0c7d aa3d
000002c0: da1e b836 2519 ec3d 80c1 a93d 6082 f5bc
000002d0: bf39 fcbd 7408 733c 36c3 a8bc 63a3 2cbe
000002e0: 55f9 e0bc d1b3 7e3d 6de8 14ba 51ef 1b3d
000002f0: deec fdbd 5748 0e3d 3232 55bc 4825 99bd
00000300: 2dcf 04bd 19bb 1a3d 481f c1bd 5bc8 a3bc
00000310: 7e6e 253d 932f c3bd f2f0 f53c 9674 f73c
00000320: 608c 573e 7413 76bd 7dd9 1ebe 382b 92bc
00000330: 6bfb 84bd a9e7 74bd 641b 0e3e db43 f83d
00000340: f19f 3c3e f733 13be d164 f03c 4bd1 a13b
00000350: 0791 90bc 14e3 1abd 0613 c4bd 9b75 dd3b
00000360: 526e 20bd 6bb1 5d3d 09bc b8bc 207d 9fbd
00000370: c746 0cbd d771 493c f63a cf3c 5c70 023e
00000380: 95d0 3abe 19cb 053e 0f5d ce3d dab7 c3ba
00000390: e4c5 8c3d 6b85 3fbe c4e0 963d 1bea da3d
000003a0: c420 dd3c 94e6 f2bb 54a2 cfbd 29e1 a1bd
000003b0: 8c1c 6b3e aa36 b93c 6f23 043e eb72 a2bd
000003c0: 80d5 53bc d1e3 04bd b4c9 cdbd 7aed 8abc
000003d0: fe4c 73bd ec8b 843c 5c30 dd3d 67ad c0bd
000003e0: 1050 b6bd 502a dabb 7325 613d 50a1 be3d
000003f0: e28b 893d d2df a83d 902d 013d 69a8 41be

network_body._body_endoder.seq_layers.2.bias f4 [128]
0.0 0.0 0.0 0.0 0.0 0.0 0.0 0.0
0.0 0.0 0.0 0.0 0.0 0.0 0.0 0.0
0.0 0.0 0.0 0.0 0.0 0.0 0.0 0.0
0.0 0.0 0.0 0.0 0.0 0.0 0.0 0.0
0.0 0.0 0.0 0.0 0.0 0.0 0.0 0.0
0.0 0.0 0.0 0.0 0.0 0.0 0.0 0.0
0.0 0.0 0.0 0.0 0.0 0.0 0.0 0.0
0.0 0.0 0.0 0.0 0.0 0.0 0.0 0.0
0.0 0.0 0.0 0.0 0.0 0.0 0.0 0.0
0.0 0.0 0.0 0.0 0.0 0.0 0.0 0.0
0.0 0.0 0.0 0.0 0.0 0.0 0.0 0.0
0.0 0.0 0.0 0.0 0.0 0.0 0.0 0.0
0.0 0.0 0.0 0.0 0.0 0.0 0.0 0.0
0.0 0.0 0.0 0.0 0.0 0.0 0.0 0.0
0.0 0.0 0.0 0.0 0.0 0.0 0.0 0.0
0.0 0.0 0.0 0.0 0.0 0.0 0.0 0.0
00000000: 0000 0000 0000 0000 0000 0000 0000 0000
00000010: 0000 0000 0000 0000 0000 0000 0000 0000
00000020: 0000 0000 0000 0000 0000 0000 0000 0000
00000030: 0000 0000 0000 0000 0000 0000 0000 0000
00000040: 0000 0000 0000 0000 0000 0000 0000 0000
00000050: 0000 0000 0000 0000 0000 0000 0000 0000
00000060: 0000 0000 0000 0000 0000 0000 0000 0000
00000070: 0000 0000 0000 0000 0000 0000 0000 0000
00000080: 0000 0000 0000 0000 0000 0000 0000 0000
00000090: 0000 0000 0000 0000 0000 0000 0000 0000
000000a0: 0000 0000 0000 0000 0000 0000 0000 0000
000000b0: 0000 0000 0000 0000 0000 0000 0000 0000
000000c0: 0000 0000 0000 0000 0000 0000 0000 0000
000000d0: 0000 0000 0000 0000 0000 0000 0000 0000
000000e0: 0000 0000 0000 0000 0000 0000 0000 0000
000000f0: 0000 0000 0000 0000 0000 0000 0000 0000
00000100: 0000 0000 0000 0000 0000 0000 0000 0000
00000110: 0000 0000 0000 0000 0000 0000 0000 0000
00000120: 0000 0000 0000 0000 0000 0000 0000 0000
00000130: 0000 0000 0000 0000 0000 0000 0000 0000
00000140: 0000 0000 0000 0000 0000 0000 0000 0000
00000150: 0000 0000 0000 0000 0000 0000 0000 0000
00000160: 0000 0000 0000 0000 0000 0000 0000 0000
00000170: 0000 0000 0000 0000 0000 0000 0000 0000
00000180: 0000 0000 0000 0000 0000 0000 0000 0000
00000190: 0000 0000 0000 0000 0000 0000 0000 0000
000001a0: 0000 0000 0000 0000 0000 0000 0000 0000
000001b0: 0000 0000 0000 0000 0000 0000 0000 0000
000001c0: 0000 0000 0000 0000 0000 0000 0000 0000
000001d0: 0000 0000 0000 0000 0000 0000 0000 0000
000001e0: 0000 0000 0000 0000 0000 0000 0000 0000
000001f0: 0000 0000 0000 0000 0000 0000 0000 0000

action_model._continuous_distribution.log_sigma f4 [1, 2]
0.0 0.0
00000000: 0000 0000 0000 0000

action_model._continuous_distribution.mu.weight f4 [2, 128]
-0.014507249 0.0016610759 -0.0003835364 0.03744962 0.011979672 -0.003775712 0.014379509 0.00305611
-0.014941685 0.0189676 0.01407477 -0.003681402 0.009794869 0.006144679 0.01087302 0.008290264
-0.034067918 0.0014607253 0.029333193 -0.00022561195 -0.03285092 -0.008150511 -0.019587994 0.023281537
-0.0074750907 -0.029529093 -0.00881727 0.020613754 0.015521114 0.032892253 0.006264505 -0.013469465
0.012861739 0.005412428 0.008664475 -0.004723967 -0.008535189 -0.03322783 0.030462382 0.0066050626
-0.011977031 -0.029573305 -0.0023096625 0.036027443 -0.006779255 -0.00605547 -0.021483866 0.0006233709
-0.028114913 0.0083499355 0.009155145 0.030637449 -0.0002785106 0.020354975 -0.02753369 0.0015272938
-0.0021708158 -0.0068563246 0.049477156 0.015472049 0.03654514 0.019098205 -0.018694762 -0.021723835
-0.0019788244 -0.016595546 0.012403242 0.037810113 -0.018427355 -0.0030604017 0.035408277 0.016184123
0.011246598 -0.014349393 0.011347079 -0.010436456 -0.030769128 0.019284066 0.03160617 0.025090838
0.0011725945 0.026646227 0.034698587 0.004544536 -0.012778781 -0.015614413 0.03844012 0.028418977
0.010969473 -0.018928027 -0.007469853 -0.016207974 0.025964556 0.0035189835 0.005762419 0.017833015
0.006735778 -4.3616645e-05 -0.008361453 0.0027769848 0.0039057173 0.011524115 0.003350316 -0.0395807
-0.0056370157 0.02386964 -0.008648779 -0.020225726 0.018593285 0.006617997 -0.040559158 -0.024083955
-0.0025092417 0.0056095705 -0.010578502 0.008496518 -0.026943147 -0.013842684 -0.01061649 -0.02447818
-0.0019670788 0.0007477673 -0.036336195 -0.0032744475 -0.0036034104 -0.00033819626 -0.021470755 -0.017832566
-0.01823011 0.0034417924 0.003434011 0.04099454 0.019673046 -0.039044946 -0.0046113334 0.0022027798
-0.0073305923 -0.026378239 0.022293286 -0.0081213815 -0.002830108 0.0010780338 -0.02328385 0.0052796244
-0.0137332035 0.0073013925 -0.021218626 0.0001783304 0.0069923433 0.006809108 0.01596923 -0.009260758
-0.056803953 0.02166845 -0.018983865 0.03935359 0.0072437446 -0.018916724 -0.030451823 0.00060169183
-0.012122841 -0.0017945663 -0.052048124 -0.012202472 -0.027306078 -0.0055160862 -0.006243521 0.0076852613
-0.008627619 0.0052158087 0.041919257 0.005965227 0.013897608 0.006981162 -0.03232692 0.0077306516
-0.009840133 0.025750611 0.0034736954 -0.018386235 0.004823658 0.0007582204 -0.018247701 -0.0057744845
-0.008926245 -0.026339768 -0.02602124 -0.028012296 -0.011339116 -0.015433582 -0.026504276 -0.002312391
-0.008149751 -0.0016804191 0.015342367 0.001755792 -0.0021063655 -0.012143779 0.0138086155 0.002115424
0.0044687707 0.011478646 -0.0022081994 -0.0015801762 0.015401906 0.018424708 0.008401426 0.01769853
-0.02119937 0.023651682 -0.0059287488 0.0017871651 0.023914356 -0.019977285 -0.01963147 -0.0007762883
-0.003977852 -0.000653824 -0.03405138 -0.036964312 -0.021802895 -0.04917463 0.001299548 0.011776662
0.0021001743 0.01508607 -0.014285758 -0.004367421 0.01141332 -0.020587355 -0.015217599 -0.009376775
0.020055978 0.028796112 0.003378567 0.014561238 0.017460918 0.004401433 -0.014308137 0.00017013116
0.010040537 -0.011442244 0.035131983 0.009431728 -0.0015864702 0.0070325374 -0.027597878 0.01005265
-0.0023908047 0.0076632285 -0.028080737 -0.03510293 0.02209026 -0.0038849604 -0.01501052 0.007290624
00000000: d0af 6dbc 75b8 d93a 6215 c9b9 c664 193d
00000010: 6346 443c f071 77bb 0898 6b3c 0549 483b
00000020: f8cd 74bc f161 9b3c dd99 663c ad43 71bb
00000030: a97a 203c 4e59 c93b c024 323c e3d3 073c
00000040: cd8a 0bbd cf75 bf3a 2a4c f03c 3f92 6cb9
00000050: b08e 06bd b989 05bc 0077 a0bc ecb8 be3c
00000060: 9bf1 f4bb ffe6 f1bc 5076 10bc 2dde a83c
00000070: 454c 7e3c 07ba 063d 7a46 cd3b 08af 5cbc
00000080: 0bba 523c bd5a b13b 71f5 0d3c 82cb 9abb
00000090: 2dd7 0bbc e819 08bd 3f8c f93c 486f d83b
000000a0: 4f3b 44bc b743 f2bc b55d 17bb 8391 133d
000000b0: 8324 debb f76c c6bb effe afbc b769 233a
000000c0: 3f51 e6bc 2bce 083c 76ff 153c 63fb fa3c
000000d0: 0f05 92b9 7abf a63c 558e e1bc 7a2f c83a
000000e0: 3f44 0ebb 05ab e0bb 8fa8 4a3d 7a7e 7d3c
000000f0: 5bb0 153d d773 9c3c c225 99bc 2ff6 b1bc
00000100: 2aaf 01bb 62f3 87bc f836 4b3c c7de 1a3d
00000110: f7f4 96bc 0591 48bb 4508 113d 9194 843c
00000120: a743 383c b719 6bbc 19e9 393c abfd 2abc
00000130: 8a0f fcbc 9ef9 9d3c 7975 013d 4d8b cd3c
00000140: beb1 993a 3049 da3c 1b20 0e3d 55ea 943b
00000150: 185e 51bc 98d3 7fbc 6373 1d3d eace e83c
00000160: 4eb9 333c f30e 9bbc abc5 f4bb 96c6 84bc
00000170: 9fb3 d43c bf9e 663b add2 bc3b 8b16 923c
00000180: cdb7 dc3b 04f1 36b8 7afe 08bc 13fe 353b
00000190: 10f7 7f3b a4cf 3c3c fa90 5b3b 5f1f 22bd
000001a0: b7b6 b8bb 438a c33c 9cb3 0dbc 6cb0 a5bc
000001b0: f250 983c c8db d83b 5c21 26bd b74b c5bc
000001c0: 1772 24bb 7dd0 b73b 7451 2dbc fb34 0b3c
000001d0: e0b7 dcbc 6dcc 62bc c9f0 2dbc 7786 c8bc
000001e0: 1bea 00bb d005 443a 43d5 14bd 1d98 56bb
000001f0: 3227 6cbb ef4f b1b9 70e3 afbc 9a15 92bc
00000200: 5057 95bc b28f 613b 250d 613b e4e9 273d
00000210: 5e29 a13c 98ed 1fbd ab1a 97bb 835c 103b
00000220: 7735 f0bb 2d17 d8bc 69a0 b63c 8b0f 05bc
00000230: 5579 39bb d04c 8d3a c6bd bebc b300 ad3b
00000240: 3b01 61bc 8540 ef3b afd2 adbc 34fe 3a39
00000250: 0720 e53b f01e df3b e7d1 823c 6fba 17bc
00000260: 43ab 68bd 0982 b13c 0d84 9bbc 3b31 213d
00000270: ef5c ed3b 3ff7 9abc 1a76 f9bc dbba 1d3a
00000280: e19e 46bc a737 ebba 6a30 55bd e1ec 47bc
00000290: ffb0 dfbc 49c0 b4bb 7396 ccbb a5d4 fb3b
000002a0: db5a 0dbc 60e9 aa3b 87b3 2b3d f377 c33b
000002b0: cbb2 633c 3bc2 e43b 3c69 04bd 6851 fd3b
000002c0: 8238 21bc f2f2 d23c f0a6 633b bb9e 96bc
000002d0: c70f 9e3b 4fc3 463a 347c 95bc e337 bdbb
000002e0: 633f 12bc 7fc6 d7bc 7f2a d5bc 0b7a e5bc
000002f0: b3c7 39bc 22dd 7cbc 7f1f d9bc 7c8b 17bb
00000300: 8986 05bc 8241 dcba 8d5e 7b3c 9a22 e63a
00000310: f30a 0abb b3f6 46bc 883d 623c eda2 0a3b
00000320: c46e 923b ee10 3c3c 70b7 10bb ea1d cfba
00000330: 4758 7c3c 6aef 963c 22a6 093c 82fc 903c
00000340: 4daa adbc 2cc1 c13c f345 c2bb 4f3f ea3a
00000350: 0ae8 c33c 67a7 a3bc 2dd2 a0bc d37f 4bba
00000360: a458 82bb 6365 2bba 7679 0bbd e467 17bd
00000370: fc9b b2bc 566b 49bd 9855 aa3a e7f2 403c
00000380: 14a3 093b 902b 773c d00e 6abc 951c 8fbb
00000390: effe 3a3c d0a6 a8bc 3d53 79bc 0ba1 19bc
000003a0: 6f4c a43c d3e5 eb3c f36a 5d3b 4292 6e3c
000003b0: 330a 8f3c e539 903b ad6c 6abc 3c65 3239
000003c0: 1181 243c 4078 3bbc 8ee6 0f3d 8987 1a3c
000003d0: 1bf1 cfba 3371 e63b f214 e2bc dfb3 243c
000003e0: 0caf 1cbb d21b fb3b 9309 e6bc 17c8 0fbd
000003f0: a2f6 b43c d29a 7ebb afee 75bc 30e6 ee3b

action_model._continuous_distribution.mu.bias f4 [2]
0.0 0.0
00000000: 0000 0000 0000 0000

network_body._body_endoder.seq_layers.0.weight f4 [128, 6]
0.18094997 0.24257955 0.2451147 0.5234469 -0.5667501 -0.17073952 0.4564202 -0.0692826
0.01566154 0.04555215 0.31298074 0.537964 0.25701612 0.18037324 -0.2467157 -0.91305804
0.24619153 -0.22984128 0.29760635 -0.31042334 0.7002546 -0.2557557 0.40960371 0.060105503
0.1779555 -0.270759 -0.19601539 -0.39822355 0.6497464 0.113448426 -0.21909107 -0.09754523
-0.27101398 -0.1553308 -0.3000646 0.16606864 -0.018388884 0.2642481 0.15009896 0.5934892
0.099898234 -0.40491506 0.25605577 0.04736846 0.69838357 0.08416139 -0.5555828 -0.6398018
-0.021790644 -0.28775373 -0.4309406 -0.13804509 0.20103739 -0.20401673 -0.21739578 -0.2895647
0.07575267 -0.3314741 -0.2890799 0.036505032 -0.31227764 -0.15020125 -0.41865724 0.39594853
-0.15418395 -0.13570414 -0.22708729 0.093311995 -0.71485776 -0.036244128 -0.16104154 0.3614621
-0.59073323 0.07111298 -0.82066464 -0.016038382 -0.24748653 -0.022756778 0.06833198 0.18060346
-0.3131901 0.46054283 -0.128584 -0.028937882 -0.20269705 -0.5946523 0.16001652 0.5346949
0.5720858 -0.6914583 -0.12300819 -0.3922085 -0.4357666 0.26759025 -0.05200163 -0.25774807
0.4656353 -0.2946003 -0.023296881 -0.043881986 -0.62209517 -0.16607526 0.23701927 -0.0061963103
0.009638516 0.6536797 0.05123698 0.14547484 0.49440178 -0.6755942 -0.36412442 0.14451112
-0.2877906 0.64829427 -0.2253117 -0.9265333 0.8470933 -0.4930893 -0.46637598 -0.7550161
-0.17153133 0.2608682 -0.51124775 0.89382225 -0.4325675 -0.46816906 0.17037235 -0.3057784
0.106247984 0.68263143 0.044243306 0.28290588 -0.50433105 -0.8374322 0.039460782 0.05048834
-0.11141576 -0.15758689 0.62544996 -0.30123574 0.16985099 -0.32133815 -0.5162941 -0.53999966
0.321553 -0.3036913 -0.1385028 0.5532741 -0.5783958 -0.5084251 -0.015859768 0.05366467
-0.13214211 -0.2650996 -0.260841 -0.24462229 -0.34440073 0.1673612 -0.17022768 0.16942152
-0.027721286 0.65208757 -0.8005269 0.29884928 0.4678737 0.40104115 0.6175662 -0.4190259
-0.09966039 0.38572022 -0.03145211 -0.5413156 0.41385186 0.33271694 -0.1529975 -0.66908175
0.36894274 -0.1236418 0.763133 -0.37728605 0.44923857 -0.37024608 -0.070203036 0.25772482
0.08490403 -0.39098072 -0.4858685 0.8015439 0.4428466 0.46131757 -0.48774388 -0.12096027
-0.37028426 0.28375626 -0.2528895 -0.22608128 -0.2049285 0.1273047 0.085091114 -0.12603961
0.18925248 0.1709095 -0.51370054 0.14443088 -0.5435262 -0.04260466 -0.14833213 -0.59960306
0.71653616 -0.19430482 -0.7277294 0.047303643 0.32980195 0.50085086 -0.808692 -0.14654696
-0.43222687 0.24696364 -0.1630754 -0.973445 0.2022362 -0.991708 0.2850997 -1.1432261
0.19814815 -0.32129183 0.74231815 0.32761875 0.1288218 0.15727559 -0.16655317 -0.19946516
-0.39900693 0.7341512 -0.02045572 0.47963995 0.09246529 0.08415364 0.23434398 -0.16404194
0.22104046 0.32316327 0.14593877 -0.2678338 -0.69371074 0.1692591 0.20441347 -0.0042060297
0.10721401 0.7422161 -0.4295008 0.31776568 0.59984255 0.6628946 -1.4968845 0.68126506
00000000: f34a 393e c666 783e 59ff 7a3e 9e00 063f
00000010: 8916 11bf 57d6 2ebe e9af e93e 09e4 8dbd
00000020: a14c 803c e494 3a3d 033f a03e 02b8 093f
00000030: 9e97 833e c3b3 383e 0aa3 7cbe 2cbe 69bf
00000040: a219 7c3e 835b 6bbe dc5f 983e cfef 9ebe
00000050: e343 333f 69f2 82be 94b7 d13e 3031 763d
00000060: f739 363e eca0 8abe 42b8 48be f5e3 cbbe
00000070: c855 263f a657 e83d 6959 60be cbc5 c7bd
00000080: 58c2 8abe 0a0f 1fbe 11a2 99be e60d 2a3e
00000090: 49a4 96bc 874b 873e 8bb3 193e e9ee 173f
000000a0: 7297 cc3d 0751 cfbe be19 833e 6e05 423d
000000b0: 44c9 323f cf5c ac3d ad3a 0ebf 0dca 23bf
000000c0: 4b82 b2bc 7554 93be 3fa4 dcbe b15b 0dbe
000000d0: bfdc 4d3e c3e9 50be 009d 5ebe d341 94be
000000e0: 3724 9b3d f9b6 a9be 4802 94be 4d86 153d
000000f0: dbe2 9fbe 5bce 19be 3e5a d6be c4b9 ca3e
00000100: 66e2 1dbe 07f6 0abe 9289 68be 5c1a bf3d
00000110: eb00 37bf b974 14bd 13e8 24be 8f11 b93e
00000120: 4b3a 17bf afa3 913d 1417 52bf ed62 83bc
00000130: 1c6d 7dbe 6c6c babc a3f1 8b3d 1df0 383e
00000140: 745a a0be 45cc eb3e 86ab 03be 230f edbc
00000150: d18f 4fbe 223b 18bf 5fdb 233e c4e1 083f
00000160: 3774 123f 6903 31bf b8eb fbbd 8dcf c8be
00000170: cd1c dfbe 9701 893e a9ff 54bd 8ef7 83be
00000180: c067 ee3e dad5 96be 1ad9 bebc 99bd 33bd
00000190: a141 1fbf a20f 2abe 2eb5 723e 6b0a cbbb
000001a0: deea 1d3c 8e57 273f dedd 513d 5bf7 143e
000001b0: 3b22 fd3e bef3 2cbf 846e babe b9fa 133e
000001c0: 4a59 93be 9df6 253f 1cb8 66be 4931 6dbf
000001d0: 1bdb 583f 3376 fcbe d5c8 eebe bc48 41bf
000001e0: e9a5 2fbe 8490 853e 22e1 02bf 89d1 643f
000001f0: 7d79 ddbe dbb3 efbe 1776 2e3e fd8e 9cbe
00000200: 8b98 d93d efc0 2e3f 7838 353d 0ad9 903e
00000210: d71b 01bf f561 56bf a1a1 213d ddcc 4e3d
00000220: f22d e4bd 755e 21be 7d1d 203f 923b 9abe
00000230: 6bed 2d3e 6f86 a4be da2b 04bf 6b3d 0abf
00000240: 98a2 a43e 6d7d 9bbe aed3 0dbe 5fa3 0d3f
00000250: bf11 14bf 2628 02bf 58ec 81bc 7ccf 5b3d
00000260: 4350 07be 23bb 87be f48c 85be 447e 7abe
00000270: 4b55 b0be bc60 2b3e 2a50 2ebe d67c 2d3e
00000280: c017 e3bc 36ef 263f 55ef 4cbf c602 993e
00000290: 248d ef3e 4455 cd3e d218 1e3f 908a d6be
000002a0: bf1a ccbd 1f7d c53e edd3 00bd a993 0abf
000002b0: 64e4 d33e e059 aa3e 60ab 1cbe f148 2bbf
000002c0: 10e6 bc3e e937 fdbd af5c 433f a32b c1be
000002d0: 9902 e63e e590 bdbe 9cc6 8fbd 82f4 833e
000002e0: 2ae2 ad3d a02e c8be c2c3 f8be fb31 4d3f
000002f0: cabc e23e d131 ec3e 91b9 f9be 05ba f7bd
00000300: e695 bdbe 8048 913e bc7a 81be da81 67be
00000310: c7d8 51be 2a5c 023e 4044 ae3d 8710 01be
00000320: 67cb 413e e602 2f3e e181 03bf b0e5 133e
00000330: 8824 0bbf 3982 2ebd 61e4 17be 967f 19bf
00000340: ea6e 373f d8f7 46be 794c 3abf 77c1 413d
00000350: cddb a83e c337 003f 7006 4fbf 6810 16be
00000360: d74c ddbe 09e4 7c3e 3dfd 26be b133 79bf
00000370: 0217 4f3e 93e0 7dbf 96f8 913e 3c55 92bf
00000380: 59e7 4a3e 5d80 a4be 9008 3e3f a5bd a73e
00000390: dde9 033e da0c 213e ea8c 2abe 9840 4cbe
000003a0: a34a ccbe 55f1 3b3f c192 a7bc 5e93 f53e
000003b0: 715e bd3d be58 ac3d def7 6f3e 9cfa 27be
000003c0: 6e58 623e a875 a53e f970 153e 8321 89be
000003d0: 0797 31bf 4252 2d3e c451 513e bcd2 89bb
000003e0: 0593 db3d e001 3e3f 87e7 dbbe 2fb2 a23e
000003f0: 488f 193f 76b3 293f e999 bfbf 6367 2e3f

network_body._body_endoder.seq_layers.0.bias f4 [128]
0.0 0.0 0.0 0.0 0.0 0.0 0.0 0.0
0.0 0.0 0.0 0.0 0.0 0.0 0.0 0.0
0.0 0.0 0.0 0.0 0.0 0.0 0.0 0.0
0.0 0.0 0.0 0.0 0.0 0.0 0.0 0.0
0.0 0.0 0.0 0.0 0.0 0.0 0.0 0.0
0.0 0.0 0.0 0.0 0.0 0.0 0.0 0.0
0.0 0.0 0.0 0.0 0.0 0.0 0.0 0.0
0.0 0.0 0.0 0.0 0.0 0.0 0.0 0.0
0.0 0.0 0.0 0.0 0.0 0.0 0.0 0.0
0.0 0.0 0.0 0.0 0.0 0.0 0.0 0.0
0.0 0.0 0.0 0.0 0.0 0.0 0.0 0.0
0.0 0.0 0.0 0.0 0.0 0.0 0.0 0.0
0.0 0.0 0.0 0.0 0.0 0.0 0.0 0.0
0.0 0.0 0.0 0.0 0.0 0.0 0.0 0.0
0.0 0.0 0.0 0.0 0.0 0.0 0.0 0.0
0.0 0.0 0.0 0.0 0.0 0.0 0.0 0.0
00000000: 0000 0000 0000 0000 0000 0000 0000 0000
00000010: 0000 0000 0000 0000 0000 0000 0000 0000
00000020: 0000 0000 0000 0000 0000 0000 0000 0000
00000030: 0000 0000 0000 0000 0000 0000 0000 0000
00000040: 0000 0000 0000 0000 0000 0000 0000 0000
00000050: 0000 0000 0000 0000 0000 0000 0000 0000
00000060: 0000 0000 0000 0000 0000 0000 0000 0000
00000070: 0000 0000 0000 0000 0000 0000 0000 0000
00000080: 0000 0000 0000 0000 0000 0000 0000 0000
00000090: 0000 0000 0000 0000 0000 0000 0000 0000
000000a0: 0000 0000 0000 0000 0000 0000 0000 0000
000000b0: 0000 0000 0000 0000 0000 0000 0000 0000
000000c0: 0000 0000 0000 0000 0000 0000 0000 0000
000000d0: 0000 0000 0000 0000 0000 0000 0000 0000
000000e0: 0000 0000 0000 0000 0000 0000 0000 0000
000000f0: 0000 0000 0000 0000 0000 0000 0000 0000
00000100: 0000 0000 0000 0000 0000 0000 0000 0000
00000110: 0000 0000 0000 0000 0000 0000 0000 0000
00000120: 0000 0000 0000 0000 0000 0000 0000 0000
00000130: 0000 0000 0000 0000 0000 0000 0000 0000
00000140: 0000 0000 0000 0000 0000 0000 0000 0000
00000150: 0000 0000 0000 0000 0000 0000 0000 0000
00000160: 0000 0000 0000 0000 0000 0000 0000 0000
00000170: 0000 0000 0000 0000 0000 0000 0000 0000
00000180: 0000 0000 0000 0000 0000 0000 0000 0000
00000190: 0000 0000 0000 0000 0000 0000 0000 0000
000001a0: 0000 0000 0000 0000 0000 0000 0000 0000
000001b0: 0000 0000 0000 0000 0000 0000 0000 0000
000001c0: 0000 0000 0000 0000 0000 0000 0000 0000
000001d0: 0000 0000 0000 0000 0000 0000 0000 0000
000001e0: 0000 0000 0000 0000 0000 0000 0000 0000
000001f0: 0000 0000 0000 0000 0000 0000 0000 0000

network_body._body_endoder.seq_layers.2.weight f4 [128, 128]
0.056949183 -0.118845604 0.04334696 -0.21201454 -0.020271959 0.055427194 0.1197277 -0.12332257
0.015761111 -0.1336642 -0.15159087 0.08176932 0.02994328 -0.02492691 0.15635528 0.27967787
0.101268515 -0.05899753 0.004543242 -0.16227518 -0.038881987 -0.037353955 -0.067804664 -0.08893659
0.071202934 0.043741915 0.014216462 -0.021500772 0.0022580875 0.10216906 -0.08737963 0.083683655
-0.14395988 0.10374583 -0.0984683 -0.07017212 -0.011342577 0.13543849 -0.016342353 0.097112805
0.036823187 0.039983843 0.028875936 0.054878 0.080304846 0.069051385 -0.18615401 -0.075341485
-0.11728924 -0.028298218 -0.03431635 -0.16019793 0.045048796 -0.0022082601 -0.07622781 -0.08364471
-0.1414065 -0.03388239 -0.07526755 -0.059234295 0.13960935 -0.08632676 0.025983643 -0.07767975
0.09744621 -0.12845698 0.095902845 -0.037773762 0.022251679 -0.12515847 -0.05763424 -0.054715518
0.086154774 0.087662384 -0.012491658 0.034076776 0.2503929 0.12072854 -0.08632108 0.10866447
-5.251652e-05 0.046558585 -0.09122466 0.10153372 0.0340991 0.26841396 0.059595365 0.11267956
-0.026500396 -0.0152937975 0.03756966 0.050421722 -0.063119166 0.08760093 0.12871754 0.075590946
-0.017777598 -0.003342284 0.07811383 0.018870361 0.17506163 0.068952285 -0.12188708 0.012720997
0.14296319 -0.27594256 -0.008981203 -0.045185234 -0.075905524 0.04893512 -0.09404248 0.21866876
0.14060438 -0.053379647 -0.100444704 -0.1355625 -0.023674076 -0.04403613 -0.09703824 0.02829035
0.09211199 0.02448317 0.03411406 -0.107130736 0.08819279 -0.13744225 0.06357531 -0.07209163
-0.054753095 0.062542364 -0.0047375383 -0.06724228 0.030122362 -0.17060907 0.052676905 0.048431385
0.19853993 0.02702043 0.00973711 0.07006847 0.13486902 -0.011362876 -0.011029489 -0.053549487
-0.07331389 -0.00019290234 0.03488059 0.07560972 0.17664587 0.020007133 0.012242552 0.0020190976
0.0640062 -0.01575624 0.014431993 0.11014043 -0.104904905 0.1586453 -0.071114466 -0.16636449
-0.13323742 -0.07526116 0.18340752 -0.0049346513 -0.080897 -0.068437815 -0.024600172 0.15135168
-0.15433249 -0.00014928007 -0.1008207 0.0006578196 0.017277546 -0.02513945 0.050148617 -0.04415264
0.045218773 0.04135331 0.10049958 0.04570774 -0.094761886 0.1364241 0.060592253 0.15921645
-0.02853208 -0.1942771 0.09097727 0.040862534 0.028726984 0.023151068 0.0157218 0.0854733
-0.033668593 -0.00068048754 -0.21191485 0.10557471 -0.096268855 0.006505293 0.036385834 0.13608168
0.13390328 -0.004832318 0.08507721 0.15017502 -0.03664381 -0.1642371 0.11858298 -0.018832114
0.11027662 -0.039068405 0.015414531 0.0319109 0.0097595705 -0.090732805 -0.07787302 -0.07372843
-0.029404381 0.049015068 -0.10001129 0.126982 0.11289926 -0.050081857 -0.10014985 -0.08711265
-0.066890664 -0.052701604 -0.13157864 -0.07286763 -0.13838516 -0.055111088 -0.10905696 -0.08444986
-0.020507203 0.009439775 -0.11053716 -0.034552805 -0.07528431 -0.07086115 0.054478753 -0.0027587384
0.001004207 0.12918144 0.12660149 0.14638136 -0.10481712 0.11123377 0.09393723 -0.06130169
-0.049501263 0.096897215 0.09159772 -0.06742325 -0.013629471 0.07745536 -0.11098641 -0.03636709
00000000: 8c43 693d 5365 f3bd 958c 313d 571a 59be
00000010: 6111 a6bc a007 633d cc33 f53d 8b90 fcbd
00000020: 721d 813c 45df 08be a33a 1bbe ac76 a73d
00000030: 9c4b f53c 8533 ccbc 991b 203e f031 8f3e
00000040: de65 cf3d 65a7 71bd 7adf 943b 772b 26be
00000050: b842 1fbd 7600 19bd 2cdd 8abd 6324 b6bd
00000060: d8d2 913d b92a 333d 2aec 683c 6322 b0bc
00000070: 6cfc 133b 033e d13d 17f4 b2bd 5662 ab3d
00000080: 386a 13be b278 d43d c0a9 c9bd 67b6 8fbd
00000090: 37d6 39bc 63b0 0a3e 66e0 85bc 14e3 c63d
000000a0: e9d3 163d 19c6 233d 3a8d ec3c c1c7 603d
000000b0: de76 a43d d06a 8d3d 289f 3ebe a34c 9abd
000000c0: 5735 f0bd aad1 e7bc 4d8f 0cbd ed0a 24be
000000d0: 1685 383d 75b8 10bb 531d 9cbd eb4d abbd
000000e0: decc 10be 43c8 0abd e025 9abd a99f 72bd
000000f0: c1f5 0e3e 16cc b0bd a6db d43c 9016 9fbd
00000100: e191 c73d 3a8a 03be b668 c43d a9b8 1abd
00000110: 2749 b63c 8b29 00be e111 6cbd 611d 60bd
00000120: ea71 b03d 5688 b33d d0a9 4cbc 1794 0b3d
00000130: 8033 803e 8640 f73d 1bc9 b0bd 7a8b de3d
00000140: 2f45 5cb8 37b4 3e3d ffd3 babd e9f0 cf3d
00000150: 7fab 0b3d 8e6d 893e 451a 743d 8bc4 e63d
00000160: 5c17 d9bc d692 7abc a5e2 193d 0287 4e3d
00000170: 9f44 81bd 1e68 b33d 88ce 033e 6dcf 9a3d
00000180: 53a2 91bc 380a 5bbb 25fa 9f3d 0496 9a3c
00000190: 5b43 333e db36 8d3d ef9f f9bd bb6b 503c
000001a0: f164 123e 5848 8dbe e525 13bc 2714 39bd
000001b0: 5b74 9bbd 3170 483d 5899 c0bd b4ea 5f3e
000001c0: 98fa 0f3e 9ea4 5abd f4b5 cdbd e5d0 0abe
000001d0: 23f0 c1bc 3b5f 34bd fcbb c6bd 2ac1 e73c
000001e0: 36a5 bc3d ee90 c83c 2fbb 0b3d 5c67 dbbd
000001f0: 6c9e b43d a9bd 0cbe c633 823d c7a4 93bd
00000200: c844 60bd 3616 803d 5a3d 9bbb 52b6 89bd
00000210: 2cc3 f63c 25b4 2ebe bdc3 573d fd5f 463d
00000220: 0d4e 4b3e f359 dd3c 6688 1f3c 0f80 8f3d
00000230: 1b1b 0a3e 5b2b 3abc 08b5 34bc b556 5bbd
00000240: 9825 96bd d445 4ab9 f3de 0e3d 45d9 9a3d
00000250: a8e2 343e 00e6 a33c fc94 483c d652 043b
00000260: af15 833d 3b13 81bc 2a74 6c3c 4e91 e13d
00000270: 62d8 d6bd ea73 223e 76a4 91bd 745b 2abe
00000280: 646f 08be 8622 9abd 2ecf 3b3e dbb2 a1bb
00000290: 54ad a5bd 2029 8cbd 4d86 c9bc effb 1a3e
000002a0: 5609 1ebe 1088 1cb9 157b cebd 8771 2c3a
000002b0: a489 8d3c 3ff1 cdbc a368 4d3d 66d9 34bd
000002c0: 5237 393d 1762 293d b9d2 cd3d 0a38 3b3d
000002d0: 8512 c2bd c2b2 0b3e 952f 783d a309 233e
000002e0: 1cbc e9bc 93f0 46be 4a52 ba3d 795f 273d
000002f0: da54 eb3c 4fa7 bd3c 01cb 803c a00c af3d
00000300: 14e8 09bd bf62 32ba 3500 59be 8e37 d83d
00000310: 9b28 c5bd 5a2a d53b 5009 153d ff58 0b3e
00000320: f11d 093e 6c58 9ebb f63c ae3d 7bc7 193e
00000330: d217 16bd c52d 28be a2db f23d ce45 9abc
00000340: b5d8 e13d 3106 20bd 3b8d 7c3c 01b5 023d
00000350: 9be6 1f3c 1fd2 b9bd e47b 9fbd eefe 96bd
00000360: 75e1 f0bc 06c4 483d b8d2 ccbd 9207 023e
00000370: ba37 e73d a222 4dbd 5d1b cdbd 1e68 b2bd
00000380: f9fd 88bd a3dd 57bd 8dbc 06be a03b 95bd
00000390: d7b4 0dbe 2abc 61bd 4159 dfbd 0cf4 acbd
000003a0: b9fe a7bc 49a9 1a3c 4e61 e2bd 3e87 0dbd
000003b0: a92e 9abd a71f 91bd 1d25 5f3d f3cb 34bb
000003c0: 989f 833a 2448 043e d2a3 013e ffe4 153e
000003d0: 5caa d6bd 88ce e33d 2a62 c03d 7b17 7bbd
000003e0: d6c1 4abd 0c72 c63d 9697 bb3d 3315 8abd
000003f0: 254e 5fbc eaa0 9e3d d84c e3bd a8f5 14bd

network_body._body_endoder.seq_layers.2.bias f4 [128]
0.0 0.0 0.0 0.0 0.0 0.0 0.0 0.0
0.0 0.0 0.0 0.0 0.0 0.0 0.0 0.0
0.0 0.0 0.0 0.0 0.0 0.0 0.0 0.0
0.0 0.0 0.0 0.0 0.0 0.0 0.0 0.0
0.0 0.0 0.0 0.0 0.0 0.0 0.0 0.0
0.0 0.0 0.0 0.0 0.0 0.0 0.0 0.0
0.0 0.0 0.0 0.0 0.0 0.0 0.0 0.0
0.0 0.0 0.0 0.0 0.0 0.0 0.0 0.0
0.0 0.0 0.0 0.0 0.0 0.0 0.0 0.0
0.0 0.0 0.0 0.0 0.0 0.0 0.0 0.0
0.0 0.0 0.0 0.0 0.0 0.0 0.0 0.0
0.0 0.0 0.0 0.0 0.0 0.0 0.0 0.0
0.0 0.0 0.0 0.0 0.0 0.0 0.0 0.0
0.0 0.0 0.0 0.0 0.0 0.0 0.0 0.0
0.0 0.0 0.0 0.0 0.0 0.0 0.0 0.0
0.0 0.0 0.0 0.0 0.0 0.0 0.0 0.0
00000000: 0000 0000 0000 0000 0000 0000 0000 0000
00000010: 0000 0000 0000 0000 0000 0000 0000 0000
00000020: 0000 0000 0000 0000 0000 0000 0000 0000
00000030: 0000 0000 0000 0000 0000 0000 0000 0000
00000040: 0000 0000 0000 0000 0000 0000 0000 0000
00000050: 0000 0000 0000 0000 0000 0000 0000 0000
00000060: 0000 0000 0000 0000 0000 0000 0000 0000
00000070: 0000 0000 0000 0000 0000 0000 0000 0000
00000080: 0000 0000 0000 0000 0000 0000 0000 0000
00000090: 0000 0000 0000 0000 0000 0000 0000 0000
000000a0: 0000 0000 0000 0000 0000 0000 0000 0000
000000b0: 0000 0000 0000 0000 0000 0000 0000 0000
000000c0: 0000 0000 0000 0000 0000 0000 0000 0000
000000d0: 0000 0000 0000 0000 0000 0000 0000 0000
000000e0: 0000 0000 0000 0000 0000 0000 0000 0000
000000f0: 0000 0000 0000 0000 0000 0000 0000 0000
00000100: 0000 0000 0000 0000 0000 0000 0000 0000
00000110: 0000 0000 0000 0000 0000 0000 0000 0000
00000120: 0000 0000 0000 0000 0000 0000 0000 0000
00000130: 0000 0000 0000 0000 0000 0000 0000 0000
00000140: 0000 0000 0000 0000 0000 0000 0000 0000
00000150: 0000 0000 0000 0000 0000 0000 0000 0000
00000160: 0000 0000 0000 0000 0000 0000 0000 0000
00000170: 0000 0000 0000 0000 0000 0000 0000 0000
00000180: 0000 0000 0000 0000 0000 0000 0000 0000
00000190: 0000 0000 0000 0000 0000 0000 0000 0000
000001a0: 0000 0000 0000 0000 0000 0000 0000 0000
000001b0: 0000 0000 0000 0000 0000 0000 0000 0000
000001c0: 0000 0000 0000 0000 0000 0000 0000 0000
000001d0: 0000 0000 0000 0000 0000 0000 0000 0000
000001e0: 0000 0000 0000 0000 0000 0000 0000 0000
000001f0: 0000 0000 0000 0000 0000 0000 0000 0000

value_heads.value_heads.extrinsic.weight f4 [1, 128]
-0.14345455 -0.20061366 -0.03210132 -0.17821771 0.09597802 -0.035406366 0.20850748 0.039250582
-0.066056594 -0.14459018 -0.13258868 -0.021719247 0.087263346 0.06815231 0.026323423 -0.053221792
0.143242 0.04428783 -0.022899002 -0.04593189 -0.072337866 0.028548673 0.013021991 -0.16497123
-0.13826829 -0.06501712 -0.03461665 0.037983805 0.20149109 -0.053691357 -0.17816146 0.15184489
-0.13419099 0.14312723 0.17741856 -0.16250125 0.035074115 -0.20372587 0.08205214 0.19106388
0.16136613 0.04470092 -0.010958657 0.16319391 0.1694853 -0.11872914 0.0008608997 -0.17034377
0.10460088 0.112317264 -0.10544605 0.14735672 0.18191555 0.20579737 0.0828754 0.14281261
0.19202372 -0.20103018 -0.10301145 -0.017238468 -0.100187205 -0.02001904 -0.16935982 0.15716729
0.07297701 0.025527209 0.109879434 -0.2051211 0.16720659 0.029075325 0.09171578 -0.110755615
0.033701807 0.0031502694 0.028239116 0.06128767 0.1906079 -0.15381822 0.06428623 0.10984936
0.094009906 -0.208452 -0.03746015 0.10438919 -0.16591656 -0.119866006 0.07800561 0.11676988
0.15897617 -0.18237267 -0.08541626 -0.15809798 0.2044979 -0.0361353 -0.17903255 -0.130707
-0.16022098 -0.14686206 -0.003229946 0.17730302 0.14731437 -0.19246766 -0.1782686 -0.11224766
0.16679984 0.21519357 0.1505059 -0.009042919 0.016509175 0.059791267 -0.15005133 -0.20882489
0.078494936 -0.117836714 0.06638172 -0.15549812 -0.06880775 0.18385634 -0.027562961 0.0891383
0.12777814 0.18913335 0.1909962 0.085547686 -0.17233755 0.06978342 0.17136908 -0.11488873
00000000: c0e5 12be ab6d 4dbe ac7c 03bd b47e 36be
00000010: 2090 c43d 4406 11bd fc82 553e 38c5 203d
00000020: ae48 87bd 730f 14be 54c5 07be 90ec b1bc
00000030: 20b7 b23d 7093 8b3d 38a4 d73c 18ff 59bd
00000040: 08ae 123e 2867 353d b096 bbbc 1423 3cbd
00000050: e025 94bd e8de e93c 305a 553c 38ee 28be
00000060: 3496 0dbe b227 85bd 30ca 0dbd e894 1b3d
00000070: ae53 4e3e 78eb 5bbd f56f 36be 3a7d 1b3e
00000080: 5d69 09be f28f 123e 36ad 353e ba66 26be
00000090: e0a9 0f3d 849d 50be f40a a83d 40a6 433e
000000a0: 2a3d 253e 5018 373d f08b 33bc 4e1c 273e
000000b0: 8e8d 2d3e 4328 f3bd 00ae 613a 996e 2ebe
000000c0: fc38 d63d 9806 e63d 19f4 d7bd aee4 163e
000000d0: 1248 3a3e 8cbc 523e 94ba a93d 783d 123e
000000e0: dea1 443e dbda 4dbe abf7 d2bd b037 8dbc
000000f0: f32e cdbd f8fe a3bc a96c 2dbe 76f0 203e
00000100: f874 953d 701e d13c 7808 e13d 440b 52be
00000110: 3438 2b3e 602f ee3c 7cd5 bb3d d7d3 e2bd
00000120: e80a 0a3d c074 4e3b b855 e73c c808 7b3d
00000130: b82e 433e 8682 1dbe 80a8 833d b4f8 e03d
00000140: 4488 c03d 7174 55be d06f 19bd 00ca d53d
00000150: 08e6 29be 4f7c f5bd 68c1 9f3d 0c25 ef3d
00000160: a6ca 223e e7bf 3abe b8ee aebd 70e4 21be
00000170: e667 513e 9c02 14bd 4f54 37be 0ed8 05be
00000180: f810 24be 0263 16be 80ad 53bb ec8e 353e
00000190: 94d9 163e 3e16 45be 0b8c 36be 1ae2 e5bd
000001a0: 94cd 2a3e b45b 5c3e 381e 1a3e c028 14bc
000001b0: 403e 873c b0e7 743d 0ea7 19be 31d6 55be
000001c0: f4c1 a03d 6054 f1bd 24f3 873d e63a 1fbe
000001d0: 14eb 8cbd d644 3c3e b8cb e1bc 248e b63d
000001e0: 46d8 023e 2cac 413e 8294 433e a033 af3d
000001f0: 4179 30be 9cea 8e3d 607b 2f3e c84a ebbd
