results/big1/My Behavior/My Behavior-23379.onnx (onnx, 75061 bytes, 7 tensors)

network_body._body_endoder.seq_layers.0.weight f4 [128, 6]
00000000: 739d a43e edb2 86be 845c b3be 7c6e 0c3f
00000010: 4107 f83d 8117 95be f373 e9be 5ea5 503e
00000020: 44cc d5bd a49a 273d 4a38 f83e 0188 acbe
00000030: ad83 8e3e 0d8b 043e a041 eabe 6822 003f
00000040: d677 f5bd ee6d 63be 5793 1bbf 3f44 8d3e
00000050: 5f57 c03d 682c 9b3e 9e58 ff3d 1865 80be
00000060: 78ce 2d3e 193c 8fbe f4bb c03e 0b30 f7bd
00000070: 791a c83e 7cca 27be ac2a 85be 135c 233f
00000080: 3862 603e 1709 0dbf 6c6a 313f 1399 88be
00000090: 358e cbbe b80b e9bd c7e5 47bf cf90 aa3e
000000a0: ba74 433e 7015 823f 04c6 343f c8f9 6c3f
000000b0: 09fc 14bf b54f bc3e 1298 533f f07d 3ebf
000000c0: 4063 7dbd 5471 12be 1cc6 87bd 027e 193f
000000d0: f925 3c3d 5066 1f3f a99b 16bf 0b03 b03e
000000e0: 21c4 453e dcba 44bf a57e 11be cb0c 06be
000000f0: 42e0 753d 2bdf dcbe 94bb 6bbf 7b27 03bf
00000100: 8848 13bf 4354 c63e 922a 78bd 4629 f6be
00000110: 15e2 a7bd cf52 1a3f 5b4c 01bf ad9f e73e
00000120: a80a 86bf 6c35 693e 169d d83d cc0c f03e
00000130: 7265 003e fe1c 90bc 2282 61be dcf7 c73e
00000140: 7999 963c c11e cf3e 98e8 44be 5b2d 31bf
00000150: 5a38 c03d 85fa 0b3f 0e3d d5be d562 513d
00000160: 52fd c5bd aed7 973e fb46 08bf 67f0 e2be
00000170: 3477 363d 1955 983e 5096 323f 096b 7abe
00000180: 6028 b93e 4f19 a73d 6529 873e f9cf 38be
00000190: b40e 84bf 26de 81bf b9bc adbe 491a edbd
000001a0: 53ee 123f 3d70 a03f d423 31bb 674f acbe
000001b0: b777 eabe 5a7f 8f3d 98da 89be 4859 1a3e
000001c0: 1cdc 3abc 2927 583e b8b6 183d ef87 0bbf
000001d0: d01d dfbd 0a15 19be e9c9 b43e 5717 2ebe
000001e0: 5b01 eb3e 029a d43d 1007 7dbd 7e6d 9d3e
000001f0: 2507 1ebf 14d1 1c3e 684b 03bf 7099 5cbf
00000200: 1329 663d f5e2 3e3b 850b 923e a236 843e
00000210: c480 833f 3281 673e 0ebd 8dbe 9e34 63be
00000220: cf05 253f 17d9 88be a6d6 9d3e 62d8 683e
00000230: 5d5f 153e f797 f13e 16e8 b13e b7fd 2b3e
00000240: d12b 723f 1da2 afbd 652b fdbe 73ff 09bf
00000250: 756d 8e3e c67d fa3d 217c e8be 4777 003f
00000260: 39e5 693e de80 1bbf ee94 77be edc4 803e
00000270: 6f18 333f e800 2dbf 5004 9bbe c79b 383f
00000280: 105c f73b e4a6 4c3f 816d f5be 8d9e e03d
00000290: b6cc 4c3e 609e a8be ae38 07be 3e4c 00be
000002a0: 8e15 15be 619c bcbe 7d5e 2abf 0c7b 7d3d
000002b0: b6de 31be 5e38 aebd 158b 443b 85c9 3ebe
000002c0: 9524 70be 167d 57bd 24ab 7cbf 9b26 9d3c
000002d0: aade 253f ed40 593f 3ee3 633d ad2c 80bf
000002e0: 4ab9 06be ad1f b83d 97cb 1ebd 481f 4f3e
000002f0: 6aa8 8b3e e449 35be 5b65 bc3d 0b3d dcbd
00000300: d2d9 053e 7a2a 463c 2f9d 203f 7b3a bebe
00000310: e3ce 07bf fa89 d3be 0194 24bf 95e0 47bd
00000320: bfee a43e 2531 b0bd b763 8d3e c40e 963e
00000330: 088f 0e3f 20e5 35bf 0a37 a13d 0859 b73e
00000340: 9cb1 d5be 842d c3be 37a0 92be a7ad 523d
00000350: 987c b53e 088e 4cbd 118b 4dbe dbfc 663e
00000360: 0c30 e33e 733d 5f3e 105f 383f 276e bdbc
00000370: a764 5b3e d34e 90be 46dd b73c 8498 9dbe
00000380: 8fc9 f63d 129d bc3d d52b 9c3e 2b31 64bf
00000390: 2100 0dbd f3d7 d93d efbf 0a3e 27ae febe
000003a0: 8c24 413f 3f53 dfbe 77bd 3fbf 2d4a a63e
000003b0: db8a 6cbe b924 123f 858a c9be 273b 2bbe
000003c0: 4301 f83e cebb b03e 27aa 773e 2619 0a3f
000003d0: 6384 afbe 5344 ac3e 4374 483f f02b 833e
000003e0: ad5b 5d3e 13c0 353e de1b 87bd 098e 1f3f
000003f0: ddd7 1bbf cdad 1fbd 45fa 8f3e f3a0 e43d
0.32151374 -0.26308385 -0.3503152 0.54856086 0.121107586 -0.29119495 -0.45596275 0.20375583
-0.10439351 0.04091896 0.48480445 -0.33697513 0.27834836 0.12943669 -0.45753193 0.500525
-0.119857475 -0.22209904 -0.607717 0.2759113 0.09391665 0.30307317 0.12468074 -0.25077128
0.16973293 -0.27975538 0.37643397 -0.1206971 0.39082697 -0.16385835 -0.2600912 0.6381237
0.21912467 -0.55091995 0.6930301 -0.26679286 -0.39756933 -0.11379188 -0.7808499 0.33313605
0.19087496 1.0162792 0.7061465 0.92568636 -0.58197075 0.36779562 0.82653916 -0.74410915
-0.06186223 -0.14301044 -0.06629583 0.599579 0.04593465 0.6226549 -0.5883127 0.34377322
0.19313098 -0.76847625 -0.14208467 -0.13090818 0.060028322 -0.43139014 -0.92083097 -0.5123212
-0.5753255 0.38736162 -0.060587473 -0.48078364 -0.081974186 0.60282606 -0.50507134 0.4523901
-1.0472002 0.22774285 0.10576837 0.46884763 0.12538698 -0.01759195 -0.22022298 0.3905629
0.018383728 0.4045315 -0.19229352 -0.6920983 0.09385748 0.5467914 -0.41648144 0.051119644
-0.09667458 0.29656738 -0.5323331 -0.44324037 0.044547275 0.29752424 0.6976061 -0.24454893
0.36163616 0.08159124 0.2639877 -0.18048085 -1.0316987 -1.0145919 -0.33933046 -0.11577279
0.57394904 1.2534252 -0.0027029412 -0.3365433 -0.4579446 0.07006712 -0.26924586 0.1507312
-0.011405017 0.21108688 0.03728363 -0.54504293 -0.10894358 -0.14949432 0.35310295 -0.17001091
0.45899472 0.10380937 -0.061774313 0.30747598 -0.6172965 0.15314132 -0.51286936 -0.8617163
0.056191515 0.0029126976 0.28524414 0.25822932 1.0273671 0.22607878 -0.276833 -0.2218804
0.6446199 -0.26728126 0.30827826 0.22738793 0.1458716 0.47186252 0.3474738 0.16796003
0.9459811 -0.085758425 -0.4944717 -0.5390541 0.27817884 0.12231021 -0.45407203 0.50182
0.22841348 -0.6074351 -0.24177906 0.25150242 0.6995916 -0.6757951 -0.30276728 0.721127
0.0075488165 0.79942155 -0.47935107 0.10967741 0.19999966 -0.3293333 -0.13205215 -0.12529084
-0.14559004 -0.36838058 -0.6655043 0.061884925 -0.17370114 -0.08506845 0.0029990126 -0.18631561
-0.23451455 -0.052609526 -0.9869864 0.019183448 0.64792883 0.84864694 0.055636637 -1.0013634
-0.1315662 0.08990417 -0.038768377 0.20226777 0.27276927 -0.17703968 0.091990195 -0.107538305
0.13071373 0.012095088 0.62739843 -0.37153992 -0.5305006 -0.41316205 -0.64288336 -0.048798162
0.322134 -0.086031236 0.2761514 0.2930814 0.55687 -0.7105274 0.07871826 0.35810113
-0.41737068 -0.38120663 -0.2863786 0.05143514 0.3544662 -0.04994014 -0.20072581 0.22557394
0.44372594 0.21800785 0.72020054 -0.023123814 0.21425115 -0.28185138 0.022444379 -0.30780423
0.12050163 0.09209646 0.3050219 -0.89137524 -0.03442395 0.10636892 0.1354978 -0.49742243
0.7544639 -0.436182 -0.74898475 0.32478467 -0.23099844 0.57087284 -0.39363495 -0.16721784
0.48438463 0.34518284 0.24186002 0.53944623 -0.3428069 0.33645877 0.783024 0.2561946
0.21617003 0.17749052 -0.06597112 0.62326103 -0.60876256 -0.03898411 0.28120628 0.11163511

network_body._body_endoder.seq_layers.0.bias f4 [128]
00000000: a84f 213a 80ff 8d3a 4ba4 dfb9 6990 193b
00000010: cb91 b939 be8a 9d38 ae93 96ba 72bd 8a2b
00000020: 2542 3bba 2f2f 18b8 e5a8 0eb9 c844 3e39
00000030: 54f7 8eba a0db 18ae 7a0c 6d39 ea7d 263a
00000040: cbf4 e2b2 0d89 1e39 a11b 1cba 522b 4f3a
00000050: 7f66 eeb9 a7c9 46b9 d0b7 a2bb 5455 edb9
00000060: 2a5c e8b9 2158 503a d0d1 9fba 2700 ad3a
00000070: 62d3 c5b9 cf27 ba39 99d7 8ab9 344b a6ba
00000080: b0b3 663a beb0 3fb8 5a0e 35b9 281e 33b9
00000090: dd31 36ba b812 b1b8 e99e b237 ba46 15bb
000000a0: 97ac 7239 6e3a d9b9 dc08 a738 ffea 5d3a
000000b0: f11a 00b9 fc0e b7ba 46ab 5c3b 1cea 673a
000000c0: a0a2 29b9 48bc 32ba d97a c1ba 314f c8ba
000000d0: c68d 68b9 3bb5 a338 d62b aeb8 e79d 22b9
000000e0: 37fe 973a eb37 75ba bced 70b1 39ca 37ba
000000f0: 9191 20bb 53e2 3fbb 8b46 9d37 06d9 91b8
00000100: e64e 19ba 1e54 4dba c705 833a 8f51 11b8
00000110: d144 acb9 c11e 1ebb 4aaf e0b9 827c a639
00000120: aeec 0bba e2ab 88b9 0f8e 7bb9 daf6 9932
00000130: 0022 4aba 68e6 aeb9 80a5 beb9 e66d 49ba
00000140: f0db 35b9 d424 8639 79eb 53ba 516a 0cb4
00000150: 5ecf 5739 2831 c939 6cb9 57bb 9a3f b7ba
00000160: 26a6 baba 27bc b3b8 4f15 24ba 8af3 70b9
00000170: 3a66 06b9 ed9f 8e39 4062 b5ba 6b4f 28ba
00000180: afea 383a 2ba3 1fba 7969 4c3a 026e 8039
00000190: 612b 94ba 05b5 3bba bfb8 ccb9 9965 4aba
000001a0: 9159 00ba 5034 0eb7 dfee d0b9 3bfe 173a
000001b0: 6e56 3eba 4517 1ab9 97e6 093a 2a4a 7c2c
000001c0: a445 3bba 046b 283b 21f7 47b9 1705 a6b9
000001d0: 6878 adb8 6152 273a b925 c1ba 1d9b 803a
000001e0: d88b 4f30 ecd5 fb3a 9a19 8eb9 3402 bc39
000001f0: 1219 74ba 9dbc afba d5bb 74ba 25ea 8bba
0.00061535323 0.0010833591 -0.00042656282 0.0023432022 0.00035394574 7.512186e-05 -0.0011488104 9.858071e-13
-0.000714334 -3.6283567e-05 -0.00013605093 0.00018145435 -0.001090745 -3.4755865e-11 0.00022606729 0.000635116
-2.6421182e-08 0.0001511911 -0.0005955045 0.00079028786 -0.00045471263 -0.00018957873 -0.00496576 -0.00045267737
-0.00044319156 0.00079477025 -0.0012193266 0.0013198898 -0.0003773226 0.00035506344 -0.00026482044 -0.0012687207
0.0008800579 -4.5702553e-05 -0.00017266852 -0.00017082004 -0.0006950179 -8.443504e-05 2.1293252e-05 -0.0022777752
0.00023143213 -0.00041433 7.964831e-05 0.0008465498 -0.00012217068 -0.0013966258 0.0033671423 0.00088468357
-0.00016177678 -0.0006818217 -0.0014761343 -0.001528239 -0.00022178059 7.8062025e-05 -8.3051316e-05 -0.00015508347
0.0011596148 -0.0009354341 -3.5059733e-09 -0.00070110295 -0.0024500827 -0.0029279187 1.8748708e-05 -6.9545626e-05
-0.00058482436 -0.0007832664 0.0009996229 -3.464665e-05 -0.0003285767 -0.0024127217 -0.0004285521 0.00031754753
-0.0005337697 -0.00026068004 -0.00023990146 1.79238e-08 -0.0007710755 -0.00033359532 -0.0003636293 -0.00076839176
-0.00017343438 0.0002558591 -0.00080840994 -1.3077194e-07 0.00020581248 0.00038374332 -0.0032916917 -0.0013980747
-0.001424019 -8.570431e-05 -0.0006259279 -0.00022978909 -0.00012817318 0.00027203505 -0.0013838485 -0.00064205256
0.00070540135 -0.00060896826 0.0007797699 0.00024496025 -0.0011304432 -0.0007160458 -0.0003904756 -0.00077208277
-0.0004896159 -8.4760395e-06 -0.00039850824 0.0005798076 -0.0007260804 -0.00014695253 0.0005260496 3.5852523e-12
-0.0007143861 0.0025698552 -0.00019070182 -0.0003166578 -8.27171e-05 0.000638282 -0.0014735974 0.0009811852
7.550489e-10 0.0019213534 -0.00027103425 0.00035859796 -0.0009311597 -0.0013407652 -0.00093358505 -0.0010674639

network_body._body_endoder.seq_layers.2.weight f4 [128, 128]
00000000: db50 073d 3212 0fbd ade8 7d3d 8814 44bd
00000010: 0df2 703a 06ef 49bd e2e1 03be c7fd 80bc
00000020: bcdb 083c b139 36bc 8ba2 0abd 66c5 40bd
00000030: d6c7 b3bd 4780 b2bd 917a 8fbe 95c5 edbd
00000040: b751 823e b422 4d3d bebf d1bb 1691 eebd
00000050: 7ad9 28be c058 0c3d 67fe bfbc c0a5 13be
00000060: ac60 d03d c74a 873a 4d9c 4cbd 499c 393c
00000070: d26a 2dbd c84e d03c 73cd 513d 5cee 06bd
00000080: 7f08 9f3a 555b 66bd 2f85 1dbd 371d 20bd
00000090: 8e18 47bd 19c7 1dbe 3cbd 643d 4a74 0bbd
000000a0: 3923 0e3e 053b 3bbe 96c4 2a3d ec2d 853d
000000b0: aee7 963c 9e11 19bd 3942 803e f942 13be
000000c0: f023 1e3c a3ce 453d 24b7 4abd c8d9 8d3d
000000d0: 1afd 1ebe dc6b c6ba bdff 613d acd1 263d
000000e0: a89c b33c fb64 803c c640 2d3e 5750 31be
000000f0: ba1a d2bd 58bc 593e ba5b 78bd 26be 01bd
00000100: bb06 493d 9aed 963d ba52 9a3e 0a8c db3d
00000110: d663 2cbe 09bc 983d a40d dfbd da54 b1bd
00000120: 979a 04be 1600 c8bd f767 d6bd d06c 77bc
00000130: 0128 a53d bd6e 3e3a 796f ccbd 101e 133e
00000140: 48c7 6e3d d511 bdbd f0e3 db3c c369 263b
00000150: d61e 243e 28f2 bf3d ca76 26be f775 bbbd
00000160: da42 a63d 2e48 1abe d819 0ebd b5a7 113e
00000170: e426 be3c 0de4 fdbd 03b2 95bc fb6a c2bc
00000180: 1bf1 133d e5fe 03bd 0458 9a3d c6c5 06bb
00000190: 7460 c1bd af0c 203d 3f9c c13c 1b36 9c3d
000001a0: abb2 b8bd f913 34bd 0511 a0bc 407a 323c
000001b0: ee17 743e 42af 083e 0f2d 03be 592a 4abd
000001c0: 2c9b 64bd 92c3 a6bd 1712 243c c322 7cbd
000001d0: a300 a3bd ebff 96bc 13be 153e a609 9f3c
000001e0: aa41 413c 4890 28bd 765a b53c cb83 003e
000001f0: 582b 09be 03f7 f63c 0ae1 fb3d d250 f4bd
00000200: c1ed 053e 7e71 00bd a51b c1bd 485d 22bc
00000210: ddf6 67be 8f09 adbb f6ef bd3c 6756 3ebe
00000220: 8b81 573e ec0b cfbc ee8c 883d 48b7 233d
00000230: dbb7 d03c 445e 12be d8e0 dabd 82c7 993c
00000240: 0e66 cfbb 4b93 b43d f4c9 393d d358 21bc
00000250: d2ef 69bd c6be 8abd af60 543d 6cbf ff3c
00000260: 79c2 2b3e d60d 20bd baeb cabd 09d6 4bbe
00000270: 6944 48be c073 94bd ebae b4bd 0fd1 87bd
00000280: 9710 b13d cfe0 64bd 5053 723b 0c71 153d
00000290: 01d5 583d 86a4 a53d e6a8 a4bd 6390 ff3c
000002a0: ea86 113d 9f28 9fbd 6cad b43c 92da d3bc
000002b0: adc1 883d 9a2b da3d 2971 5ebd d6e8 07be
000002c0: a85c 143e 01e0 08be 0eb1 b8bd f7ee 04be
000002d0: 65ce 46bd dec9 303c bab5 9c3c 9d51 2ebb
000002e0: 7d1e 56bc 8acb b93d 7b38 293d 6ecb 2dbe
000002f0: 23c3 75bc dc6b f43b f5d8 073d 3d49 c13c
00000300: c630 fc3d 3897 d9bc 0420 d2bd 853d ffbd
00000310: 2ec1 c23d 7ec9 84bd 61d9 a23d 3a33 ce3c
00000320: 95d6 15bd e841 82bd d9e0 103e 2dda 86bd
00000330: ff3a 983d c8e2 c2bd 6e22 853d 24f3 493d
00000340: 6e7a ae3d 4f0f 12be 54a9 f1bd e46e 293e
00000350: ee85 033d 364b 7e3d df0a 3abe 056a 07be
00000360: 2a2a a53d 41f5 04bc 9185 8b3d b246 2b3d
00000370: 2c63 d43c 79e2 71b8 0d4a adbd 4109 9a3d
00000380: 28f7 0bbe 5e74 413c f785 913d 2638 04be
00000390: 5c64 21be bdd1 323e f498 79be 53e8 e33d
000003a0: 8860 563d 5b09 d93c 6ea8 1ebe cae7 b5bc
000003b0: 319a 1abe 90a9 11bd 3362 4d3d 1bb8 6dbd
000003c0: 3d71 02be 54df d0bd 1586 d0bd 7cf5 cf3d
000003d0: 2b51 843d e62f cfbb c0a9 74bd bb27 acbd
000003e0: fb98 4dbe 56ba 903d dd9d 393d f76f 0a3d
000003f0: 8e30 843d 81ac ec3c 5aec 70be 45a0 b33a
0.033036094 -0.03492946 0.061989475 -0.047871143 0.0009191342 -0.049300216 -0.12879136 -0.01574601
0.00835317 -0.011122153 -0.03384642 -0.047063254 -0.0877835 -0.08715873 -0.28023198 -0.116099514
0.25452968 0.050081924 -0.0064010313 -0.11648767 -0.1648921 0.034264326 -0.023436738 -0.14418697
0.10174689 0.0010321968 -0.049953748 0.011328765 -0.0423382 0.02542819 0.051221322 -0.03294216
0.0012133269 -0.056239445 -0.038457092 -0.03909036 -0.0486074 -0.15407981 0.05584453 -0.03404645
0.13880624 -0.18284233 0.041691385 0.065028995 0.01842102 -0.037370317 0.25050524 -0.14381017
0.009652123 0.048292767 -0.049491063 0.06926304 -0.15526238 -0.0015138346 0.05517553 0.040727302
0.021925285 0.015673151 0.1691924 -0.17315803 -0.10259004 0.21263254 -0.060634352 -0.03167548
0.049078684 0.07369538 0.3014124 0.1072007 -0.1683496 0.0745774 -0.108912736 -0.08658762
-0.12949596 -0.097656414 -0.104690485 -0.0151016265 0.08064271 0.0007264426 -0.09982199 0.14366937
0.05829552 -0.09231917 0.026842088 0.0025392629 0.16027388 0.093723595 -0.16256252 -0.091533594
0.0811822 -0.15066597 -0.034692615 0.14224131 0.023211904 -0.12397013 -0.01827336 -0.023732653
0.036118608 -0.03222551 0.07536319 -0.002056466 -0.09442225 0.039074596 0.023634074 0.07627507
-0.09018453 -0.04396436 -0.019539366 0.0108934045 0.23837253 0.13348106 -0.12810157 -0.049356792
-0.055812046 -0.08142771 0.010014079 -0.06155659 -0.07959106 -0.018432578 0.14623289 0.01941378
0.011795441 -0.041153222 0.022137862 0.12550275 -0.1339544 0.030147081 0.12298782 -0.11929478
0.13078977 -0.031358235 -0.09429101 -0.009909935 -0.22652765 -0.0052806805 0.023185711 -0.18587647
0.2104551 -0.02527424 0.06667505 0.039969712 0.025478294 -0.14293772 -0.10687417 0.01877189
-0.0063293045 0.088171564 0.045358613 -0.0098478375 -0.057113476 -0.067746684 0.051850017 0.031219207
0.16773404 -0.039075695 -0.099082425 -0.19905867 -0.19557346 -0.0724864 -0.088224255 -0.06631672
0.086457424 -0.055878457 0.0036975928 0.036484763 0.05293751 0.08088021 -0.08040027 0.031196779
0.035529055 -0.0777142 0.02205535 -0.025861058 0.06677566 0.106528476 -0.054307137 -0.13272414
0.1448847 -0.133667 -0.090181455 -0.12981783 -0.048536677 0.010790316 0.019129623 -0.0026598938
-0.013068792 0.09072025 0.04131363 -0.16972134 -0.0150001375 0.007459147 0.03316589 0.023594493
0.1231399 -0.026561365 -0.10260013 -0.12462906 0.09509502 -0.06483744 0.07951618 0.025170911
-0.036581594 -0.06360227 0.14148273 -0.065845825 0.074331276 -0.09515911 0.065007076 0.049304143
0.08519445 -0.14263652 -0.11799875 0.16546208 0.032110147 0.062083445 -0.1816821 -0.13224037
0.08064683 -0.008115114 0.06812585 0.041815467 0.025926195 -5.7669797e-05 -0.0846139 0.07521296
-0.13668501 0.011807529 0.0710563 -0.12912044 -0.1576094 0.17462821 -0.24374753 0.11128297
0.052338153 0.026493719 -0.15493938 -0.022205252 -0.15097882 -0.035562098 0.05014248 -0.058036905
-0.1273851 -0.101988465 -0.10181824 0.10154244 0.06460794 -0.0063228486 -0.0597322 -0.084060155
-0.20077889 0.07066791 0.045316566 0.033798184 0.064545736 0.02889085 -0.23527661 0.001370438

network_body._body_endoder.seq_layers.2.bias f4 [128]
00000000: debc 9cba 9e71 8ab8 51a8 5439 59e2 73ba
00000010: 17d8 bfb9 e63b 95ba fe7d 8739 ebfa 9eb7
00000020: 4aeb c638 c7c1 013b e876 35ba 29ba ab38
00000030: 3021 cfba 5a01 443a 68dd 5eb9 3a70 0cba
00000040: 409e ad38 2cb3 8a38 fbd4 8039 a26a 79b8
00000050: fa19 46ba b6c9 b6b9 e88d 83ba c25a 0a3a
00000060: e5cb e3b7 1f17 6aba b806 3fba 7bbc 88b9
00000070: 742c 5eb9 480f 31b9 30cf 7fb8 0cb0 9cb7
00000080: e84e 32b9 362a 3fb7 0ff8 d6b7 079d 0cba
00000090: 8440 0cba e7ca 04ba 66e7 05ba 92bd 90ba
000000a0: 9657 2132 385f 81b8 8119 4bb8 764c 36b9
000000b0: 5ed3 21ba 5c3e 35b8 df78 36b9 70e8 c4b9
000000c0: d465 5aba 68eb 8aba 78bb 2aba 6003 a1b6
000000d0: dbb6 87b8 46bc 38b8 2e6f 2cbb f4db 1eb9
000000e0: 48e7 2438 1fbe 6dba 5e07 c0b8 7506 87b9
000000f0: 5f8d 5d3a a209 14b9 34bb 9aba b4b8 6738
00000100: ac28 223a 90f9 1a37 1cb8 3a37 3c7e 1fbb
00000110: 3b29 3cbb e3db 9fb9 402a d8b4 21de fdb7
00000120: 4367 4fba 2a1e d2b9 3d5c 4bbb df05 6239
00000130: 9d2d 02ba d3c2 8139 aebe c5b9 729d 453a
00000140: dd12 8fba 4fdc b9b8 9913 e939 7657 c0b8
00000150: ae6d bdb9 43db 6aba 7d4a 0c3a 8f16 7db5
00000160: 14da 65b8 e16a a6b9 bdde 2c38 ea25 4d39
00000170: 3220 2eb9 e528 8cb8 3c75 65ba 6438 8eba
00000180: 989b d0b9 d71a 0db9 d9e1 7d3a 41a6 8f39
00000190: 36d3 19b8 efee 883a 8ccc a0ba dab6 0f3a
000001a0: 11f4 97ba 5abb 4ab9 bab4 f6b9 eccd 88ba
000001b0: b5f2 d6b9 7ad7 9bba ccf1 0fb9 d14d 1639
000001c0: 801d f0b4 c8ab acb9 549b 1d3b 32ca 28ba
000001d0: a923 8539 1089 f33a 80e6 7bb9 a365 67b8
000001e0: 3ad6 8735 e0b7 b5b9 c3d6 fcb8 2c20 e2b9
000001f0: 5d35 e1b7 5390 31bb 825d 80b9 4026 78ba
-0.0011958142 -6.6015156e-05 0.00020280598 -0.0009303443 -0.00036591358 -0.0011385649 0.00025843078 -1.895191e-05
9.485202e-05 0.0019799338 -0.00069223205 8.1885904e-05 -0.0015802737 0.0007477008 -0.0002125405 -0.0005357299
8.278759e-05 6.613726e-05 0.00024572745 -5.9465536e-05 -0.00075569714 -0.00034864031 -0.0010036798 0.0005277806
-2.7155455e-05 -0.0008929837 -0.0007287073 -0.0002608037 -0.0002118813 -0.00016885728 -6.0989696e-05 -1.8678627e-05
-0.00017004798 -1.1394315e-05 -2.56263e-05 -0.0005363975 -0.000535019 -0.0005065635 -0.00051080284 -0.0011042824
9.391348e-09 -6.168935e-05 -4.8422724e-05 -0.00017385356 -0.0006173159 -4.321184e-05 -0.000174019 -0.00037557213
-0.00083312136 -0.0010598721 -0.00065129204 -4.798567e-06 -6.471361e-05 -4.4044362e-05 -0.0026311385 -0.00015149993
3.9316044e-05 -0.0009069163 -9.156646e-05 -0.00025754017 0.0008451547 -0.00014117968 -0.0011805058 5.524671e-05
0.000618587 9.237221e-06 1.112933e-05 -0.0024336716 -0.0028711099 -0.00030490672 -4.0263876e-07 -3.0263387e-05
-0.00079118105 -0.00040076795 -0.003103032 0.00021555227 -0.00049659034 0.00024749953 -0.00037716836 0.0007538415
-0.0010915656 -8.862523e-05 0.00044455825 -9.171564e-05 -0.00036130607 -0.0008959064 0.0005351676 -9.428267e-07
-5.4800956e-05 -0.00031741618 4.1215437e-05 0.00019564448 -0.00016605927 -6.6833374e-05 -0.0008753126 -0.0010850546
-0.00039788778 -0.00013456806 0.0009684838 0.00027398954 -3.6674748e-05 0.0010447184 -0.0012267991 0.0005482264
-0.0011593123 -0.00019334015 -0.00047055428 -0.0010437346 -0.00040998092 -0.0011889779 -0.00013727619 0.00014334104
-4.4724948e-07 -0.00032934383 0.0024048882 -0.0006438821 0.00025394306 0.0018580277 -0.00024023093 -5.516935e-05
1.0120632e-06 -0.00034660008 -0.00012056299 -0.0004313005 -2.684694e-05 -0.002709408 -0.0002448373 -0.0009466149

action_model._continuous_distribution.log_sigma f4 [1, 2]
00000000: 3527 233c 62bf e0bb
0.009958078 -0.006858752

action_model._continuous_distribution.mu.weight f4 [2, 128]
00000000: 0e92 63bc b509 12b9 9714 a8bb 293f a8ba
00000010: 418e 34bc b8c1 d6bc 735d 50bc 7249 3dbc
00000020: d712 6abb 2743 413c 3d12 563b 24e6 b0bc
00000030: 0cbd bebc 99f1 b9bc 08e1 913c a6e6 b83b
00000040: 5393 863c 69da 42bc afa9 1dbc a11e 733c
00000050: 8431 1c3a f1cd 223c caae febb cdf0 2dbc
00000060: b0cb 593c 1fbc cb3b dd08 2f39 5cd6 fdbc
00000070: 9445 273b 9c41 08bc fe31 173d 062f 2ebc
00000080: 32f3 133c 32bc 35bd ddc0 99bb f9f6 473b
00000090: 574f ba3a d168 0abb bf42 6fbb 8ef0 2e3c
000000a0: 6a0a 373b e580 b1bc 9213 b7bc 7da7 5dbb
000000b0: 3394 26bd cd09 4d3d 2088 f43b 8b41 9b3c
000000c0: dcd4 60bb 5316 8a3c bb12 3b3d 936a d1bb
000000d0: b0fb 823c 3278 d6bc 11e3 bbbb 273e 3e3c
000000e0: 15e2 e23b 3ee2 55ba f96b b73c 2183 213c
000000f0: b197 2abb 4f98 c03c badf ca3c b759 1b3b
00000100: 8145 2cbc be31 043d ac40 3bbd 174c c83c
00000110: 16ee 6abc 9809 b739 4bbe e23c 88a1 29bc
00000120: beb5 76bc 3b62 ea3a 7f45 053c 75b7 5d3c
00000130: 4afe 52bc 5f6a 32bc 66a5 333c 5efe f6bc
00000140: 76a9 f0ba ea7e 31bc c5ba 093b 0d8d 423c
00000150: a547 5d3b d511 b4bb f932 913c bf20 cf3b
00000160: 7547 89bc 4911 f13c b2af de3b cf82 113c
00000170: 30b0 18bc 38d0 ffbb e310 9abc 5e4b 0bbd
00000180: 728d 92bc 5db8 a73c 51f5 edbb cb7c 943b
00000190: f234 0cbd aeb7 ecbc 42c6 823c 85d8 1a3c
000001a0: 4ef5 6bbb b36e 3a3c 3416 2fbb e55b 893c
000001b0: f706 92bb 73fa b43b 15e7 d73c 411e d4bb
000001c0: 15ce 913b 2d51 7fbc 4b34 c13c a98f bd3c
000001d0: eec1 dabb 7b20 1f3c fd34 653b 2950 35bc
000001e0: 77d0 9bbb 0ed4 a23c d4ac 943c cfd3 c63b
000001f0: 007e 1fbd 205c 593a 8f57 6bbb 7474 5d3c
00000200: a479 1e3b ef4e 023d 54c5 9e3c 39e0 693a
00000210: 3e88 7fbc 1986 573c c2e6 033d e8fc 64bc
00000220: ed01 16bd 5fc7 8bbb a591 2abc 3f1b 9d3c
00000230: 64b0 f23c 6d82 0ebb 081d f63c 39fa adbc
00000240: a1fe d63c 9ea4 1bbd 2ebd 573c ac3c dc3b
00000250: bcd7 0f3c 9b24 90bc f06d 95bc ca6e df3c
00000260: 0435 b23c 4abe 9bbc 2549 be3b ac8b 0dbd
00000270: e063 553c 5143 f93c 9757 813c bd59 ed3b
00000280: ba21 193c da59 833c bc37 d1ba 919a a13c
00000290: 1101 373b f5e8 85ba cbd0 c1ba 81fb f6ba
000002a0: 787e 1dbc 3f7c 4b3b e76c 2dbc ea45 fbbb
000002b0: 6be6 423c 637f 433c 5805 eb3b e6e0 39bc
000002c0: b887 233c f142 293c 5de5 ffbb 173f fc3b
000002d0: d90d b1bb 8626 bc3a a642 5e39 4440 e63b
000002e0: f5f8 863c 9d83 773b 4c65 483a f0ea 8d3c
000002f0: 6005 613c 465d 12bc d46c 9cbc 6b93 9dbc
00000300: 9267 2c3c 8093 893a 74e8 f23b 92a1 31bc
00000310: 4ac0 a43c c917 143c a15b 2b3c a68b fb3b
00000320: 6e7f f5bc 0278 20bb 6bda ccbb fd7d 563b
00000330: 8f70 7c3b c93f a13c c589 5a3a f39f 983c
00000340: 8383 603b 58d5 1abc 4be4 88bc f80f 42bb
00000350: 1777 cc3b 6c2c 9bbc 68f8 a8bc c686 3aba
00000360: a26a 3e3b c113 cabc 3338 243c 77d6 93bc
00000370: c523 b839 6a6a ed3b 0ff0 7c3c df1b 34bc
00000380: 28f3 eebc 496d 3a3c 7bca 863a ea2e 763c
00000390: 1955 13bc 5bb5 213d 00f6 7f3c ec8e 033c
000003a0: 6761 e33b 1d1a 193c d1e5 c63c c912 023b
000003b0: 52e7 c33c f22d 853c 6396 81bc 0646 0ebd
000003c0: c944 b6bc af6a fb3b d25a c6bb b53f 6bba
000003d0: b289 5b3c 6595 5dbc 569d 9abc f3b0 daba
000003e0: a417 09bc 7859 32bd d87c 393c 5d41 6dbc
000003f0: f40d e9ba a947 ca3b da06 c13c 3f14 843c
-0.013889803 -0.00013927261 -0.0051294076 -0.0012836206 -0.011020244 -0.02621542 -0.0127175925 -0.011553155
-0.0035716796 0.0117957955 0.003266468 -0.021594115 -0.023283504 -0.02269821 0.017807499 0.00564273
0.016427672 -0.011892893 -0.009622975 0.0148388455 0.0005958306 0.009936796 -0.0077723013 -0.010616493
0.013293192 0.006217494 0.00016692602 -0.030986004 0.002552365 -0.008316424 0.03691291 -0.010631328
0.00903015 -0.04436893 -0.0046921805 0.0030512197 0.0014214319 -0.0021119604 -0.003650829 0.01067747
0.0027929791 -0.021667907 -0.022348199 -0.0033821755 -0.040668678 0.050058175 0.0074625164 0.018952152
-0.0034306562 0.016856348 0.04567216 -0.0063908785 0.015989155 -0.02618036 -0.0057338555 0.011611498
0.0069239237 -0.0008159018 0.022390353 0.009857924 -0.0026030357 0.023510126 0.024764884 0.0023704597
-0.010514618 0.032274 -0.045715973 0.024450345 -0.014338991 0.00034911628 0.02767863 -0.010353453
-0.015057979 0.0017882058 0.008134245 0.013532509 -0.01287801 -0.010889619 0.010964727 -0.030150589
-0.001836105 -0.010833481 0.0021015864 0.011874449 0.0033764627 -0.00549529 0.017724501 0.0063210423
-0.016757706 0.029427188 0.006795847 0.008881285 -0.00931935 -0.007806804 -0.01880688 -0.034007423
-0.017889712 0.020473653 -0.00726191 0.004531478 -0.03423018 -0.028896179 0.015963677 0.009451036
-0.0036004367 0.011378932 -0.0026716115 0.016767452 -0.0044563967 0.00552302 0.026355306 -0.006473333
0.0044496157 -0.015583319 0.023584506 0.023139792 -0.0066759503 0.009712334 0.003497421 -0.011066475
-0.0047550756 0.019876506 0.018148817 0.00606773 -0.038938522 0.0008291621 -0.0035910343 0.013516534
0.002418139 0.03181356 0.019381203 0.00089216564 -0.0155964475 0.01315453 0.03220249 -0.013976313
-0.03662293 -0.0042657102 -0.010410701 0.019178031 0.029625125 -0.002174522 0.03004314 -0.02123748
0.026244463 -0.037998788 0.013167663 0.0067211 0.008779462 -0.01759558 -0.018240899 0.027274508
0.021753795 -0.019011635 0.0058070594 -0.03455703 0.0130243 0.030427607 0.015788836 0.0072433637
0.00934642 0.016034056 -0.0015962045 0.019727023 0.002792422 -0.0010216521 -0.0014786957 -0.0018843265
-0.009612672 0.0031049398 -0.010585046 -0.0076682465 0.011895756 0.011932227 0.007172268 -0.011345124
0.009981088 0.0103309015 -0.0078093247 0.0076979506 -0.005403262 0.0014354743 0.00021196398 0.007026704
0.016476134 0.0037767657 0.0007644489 0.017323941 0.013734192 -0.008933371 -0.019094862 -0.019235333
0.01052274 0.0010496229 0.0074129645 -0.010841744 0.020111222 0.009038874 0.010458858 0.0076765595
-0.02996799 -0.0024485593 -0.0062516234 0.0032728903 0.0038519239 0.019683735 0.00083365693 0.018630957
0.0034258075 -0.009450279 -0.016710421 -0.002961157 0.0062397826 -0.01894208 -0.020626262 -0.000711542
0.0029055257 -0.024667623 0.010023165 -0.0180466 0.00035121865 0.0072453516 0.015438094 -0.010992973
-0.02916868 0.011378595 0.0010283733 0.015025834 -0.008992457 0.039479595 0.015622616 0.008029681
0.0069391015 0.009344605 0.024279507 0.0019847623 0.023914013 0.01625726 -0.01581878 -0.03473475
-0.022249596 0.00767263 -0.006053307 -0.00089740317 0.013399528 -0.013524388 -0.018873852 -0.0016684815
-0.008367453 -0.043542355 0.011321269 -0.014480916 -0.0017780648 0.0061730933 0.023562837 0.016122935

action_model._continuous_distribution.mu.bias f4 [2]
00000000: fd21 c7b7 9906 21b9
-2.3738476e-05 -0.00015356614
