results/big6/My Behavior/checkpoint.pt (torch, 440939 bytes, 36 tensors)

network_body._body_endoder.seq_layers.0.weight f4 [128, 6]
00000000: 0e66 c43e 4675 063e 2166 053e 4692 323f
00000010: b9aa 713e 65cd 8f3d ce2c 0abe a5bb e0be
00000020: 2957 1dbf a6e4 2bbd 0209 02be 1812 133f
00000030: bba2 6d3f bbf3 5e3c ccb4 9fbd a8d9 b53e
00000040: 9cb6 233c 56e2 0b3e 92f4 c13d 2e0b 363e
00000050: 3164 bbbe 9032 17be 0e2d 42bf 6478 4d3e
00000060: 8b17 703e 6325 dbbe 55de 19bf 5e48 803e
00000070: ef16 b0bd b433 bc3e a692 efbe dd00 81bf
00000080: 2ca1 c73d a76f b43e e833 463c 6391 ebbd
00000090: 836c fd3e fbf1 f93e f832 e4be 7346 e33d
000000a0: 0256 4dbc 3c80 bebe 78b2 1ebf 5574 e43d
000000b0: 2d20 cc3e 04f3 e9be 88bd b13e fb61 823e
000000c0: 6e05 a1be af34 f0bd 176b ffbe ab7e 46bf
000000d0: 57b3 51be d31b 90bd 4931 e3be 6b98 d13c
000000e0: b3fc f83d 5021 873f 27fe 4cbe 9842 f2bd
000000f0: e1aa 6b3e a722 10bf 081b e1bd d9b8 f2be
00000100: 6a39 083e a160 ecbe 847b 923c 723b 19bf
00000110: 3b52 033f 7b50 803b bd22 85be f6f5 28bf
00000120: b392 dfbe 8cf1 6bbe 7a59 cebe 3d0d 8a3e
00000130: ea18 0ebf fdaf 813e e384 563e f56b 313f
00000140: 5daf 4cbf 69e7 773e d6df 783e b8ce 38bf
00000150: 08db 9a3f 2cdb ca3d c176 e33d 4c06 143f
00000160: 3188 7bbd 0d8f 25be 9c70 d2be ad34 d9be
00000170: 1b71 92bd 3b11 debe 108a 01bf 005c 243d
00000180: 5ff7 2ebf 891d 013f a277 823f a719 fcbe
00000190: f9b5 79bd f58d f0bd 8ca5 283f 3c30 e9be
000001a0: 2c2f 0cbf c63e 373f 7574 4bbe 18ec 8a3e
000001b0: 76bb 22bf 0a84 cb3c 81c4 e2be 0de4 c23e
000001c0: d954 fb3e 60fc cabe bd7c dd3e f47c 493d
000001d0: 4427 803d 267c d93e 2c73 73be 2e35 01bf
000001e0: c504 ab3e 054f 46be 8bbd e0be 75e4 a13e
000001f0: 53f2 173f f539 713f 4954 04bf 1efb bdbd
00000200: 9c22 2e3e a915 7b3e 7f5b 17be 97b8 2abf
00000210: 9b49 b6bd 39f0 7d3e c9ec 623c 457e 26bf
00000220: bab7 323f 7889 1fbf 7535 d3be 533a 93bd
00000230: 5ce4 b2be 057d 9cbe 5c94 aa3f dc41 47bf
00000240: 995a d6bd e891 59bf 6a95 fc3e 8929 07bf
00000250: 3449 bbbe f5f7 90be 11b2 01be 1218 5bbe
00000260: 182b fd3c 2e38 97be d6ea 26bf b2c4 99be
00000270: 455a d3be 126a a43e d328 9d3e 8b0a 06be
00000280: f68b 583c 2e4e 3fbe 7ea9 e73d 6b82 8b3e
00000290: 2915 c5be 451f 153d 36c6 7fbe be36 a2be
000002a0: 0bac 853d 0631 453e 00d5 793d e45c 7a3d
000002b0: 4f52 ac3d 6d2f 04bf 6f3e b93d 0c3e 103f
000002c0: 3b62 98be 9bfe b03d daf7 5fbe 2e85 01bf
000002d0: 01f1 1e3f fedf e8be 1336 113f c1ad e63e
000002e0: 6a3d 293e 0451 08be 389b dcbe 5310 1e3f
000002f0: d5ed 06bf aa0a 883e fc92 f83e e88c 1a3e
00000300: 70c2 dabe e32a b3be 260d 20bf 8833 273d
00000310: ba9c a43c 3105 9c3e 3edc ae3c 5838 2abe
00000320: 19c8 d43d f2f5 05bf 7f84 22be 9ace acbe
00000330: 6592 4d3d 15a7 e83e 0421 863e 28a8 c8be
00000340: 35fd 3cbf 9dc3 bd3e b4fa a63e 46ec 483e
00000350: 932c 18bf 4487 12bf 4780 04bf e616 913e
00000360: f167 47bf 01eb d63d 843b 14be d102 083f
00000370: 28c7 c9be 2a9c acbd 051a cd3e bd3a 22bf
00000380: 894f 3d3e 66d0 7ebd 9022 f93d e479 a43c
00000390: bd3a 183f 7ecc 1a3f 75e7 cbbd f927 47bf
000003a0: 1d00 1cbe 5593 dbbe a08a d6be 18c7 9e3c
000003b0: c498 34bf 5a20 ae3e 2392 993f d7f4 613e
000003c0: e52b 14bf ddef 093f 1683 7abe 59da 0e3e
000003d0: 2a8e 1ebe 05cc 433e 8bc9 743e 212a 903d
000003e0: a31a 31bf f55f 283e a8d4 50bf 7272 b43e
000003f0: 22c6 073e f649 8a3e 0edd 6f3e 35df 2dbf
0.38359112 0.13130674 0.1302724 0.69754446 0.23600282 0.07021598 -0.13493654 -0.4389316
-0.6146112 -0.041966103 -0.12698749 0.57449484 0.9282643 0.013607915 -0.07798156 0.3551762
0.009992268 0.13660559 0.09470476 0.17777702 -0.36599877 -0.14765382 -0.7585 0.20065457
0.23446481 -0.4280196 -0.60104877 0.25055212 -0.08598124 0.36758196 -0.4679157 -1.0078388
0.09747538 0.35241434 0.012097336 -0.1150234 0.4949685 0.4881743 -0.44570136 0.110974215
-0.012532713 -0.3720721 -0.6199107 0.11155001 0.39868298 -0.4569322 0.34714913 0.25465378
-0.31449455 -0.117287986 -0.4988639 -0.7753703 -0.20478569 -0.07036557 -0.4437354 0.025585374
0.121575736 1.0557041 -0.20018826 -0.11829108 0.23014404 -0.56302875 -0.10991484 -0.47406653
0.13303152 -0.46167472 0.017881162 -0.5985633 0.5129735 0.003915844 -0.26003066 -0.66000307
-0.4366661 -0.23041362 -0.4030264 0.26963225 -0.55506766 0.2532958 0.2094913 0.69305354
-0.79955083 0.2420937 0.24304137 -0.7219043 1.2098093 0.09905085 0.11106635 0.5782211
-0.06140918 -0.16167851 -0.4110154 -0.42423 -0.071504794 -0.4337252 -0.5060129 0.0401268
-0.6834621 0.5043569 1.0192759 -0.4923832 -0.06096456 -0.11745826 0.65877604 -0.45544612
-0.5475948 0.7158016 -0.19868644 0.2713325 -0.6356729 0.024843235 -0.44290546 0.38064614
0.4908817 -0.39645672 0.4325923 0.04919143 0.06257489 0.4247753 -0.23774403 -0.5047177
0.33402076 -0.19366081 -0.4389461 0.3161961 0.5935413 0.9422906 -0.5169111 -0.092764124
0.1700539 0.24519981 -0.14780997 -0.6668791 -0.08900758 0.24798669 0.013850399 -0.6503642
0.69811594 -0.62319136 -0.41251722 -0.07188859 -0.3493985 -0.30564132 1.3326526 -0.7783487
-0.10466499 -0.8498826 0.49332744 -0.5279775 -0.36579287 -0.28314176 -0.12665583 -0.21395901
0.030904338 -0.2953505 -0.6520208 -0.3003288 -0.41279808 0.32112175 0.3069521 -0.1308996
0.013216963 -0.18682167 0.11311625 0.2724794 -0.38492706 0.036406774 -0.24977955 -0.3168239
0.06526955 0.19256982 0.06099415 0.061123744 0.084141366 -0.51634866 0.090451114 0.56344676
-0.29762444 0.08642312 -0.21871892 -0.5059384 0.6208649 -0.45483392 0.56723136 0.4505444
0.16527334 -0.13312155 -0.43087173 0.6174366 -0.5270665 0.26570636 0.4854964 0.15092814
-0.4272647 -0.34993657 -0.6252006 0.04082063 0.020094264 0.3047271 0.021345254 -0.16623056
0.10389728 -0.5232841 -0.15870856 -0.33751374 0.05018844 0.45439973 0.26197064 -0.39190793
-0.73823863 0.37063304 0.32613146 0.19621381 -0.59443015 -0.5723765 -0.51758236 0.28337783
-0.77892977 0.10494042 -0.14475828 0.531293 -0.39409757 -0.084282234 0.40058914 -0.6337088
0.18487372 -0.062210463 0.121647954 0.020077653 0.5946463 0.6046828 -0.09956256 -0.7779537
-0.15234418 -0.42885843 -0.41902637 0.019382045 -0.705456 0.34009057 1.1997722 0.22066055
-0.5787948 0.5388163 -0.24464068 0.1395048 -0.15483919 0.19120796 0.23905008 0.070392855
-0.6918127 0.16442855 -0.8157449 0.35243565 0.13259175 0.27009553 0.2342417 -0.6791871

network_body._body_endoder.seq_layers.0.bias f4 [128]
00000000: acf3 b2b8 8a45 bab9 6d42 08bb a3f0 65bb
00000010: c374 603b 7142 993b 0323 3c3a a840 36ba
00000020: 044c 0fba 58fa a93c 3066 5936 0a08 a0bb
00000030: 4e60 673c f88c 7130 9fa6 193e b42a 893d
00000040: cccd 24bc dd02 163c ec1d bfb9 a3a1 b8ba
00000050: 881a 4fba 3d2a e6b4 ab21 69b2 4339 f82d
00000060: 4281 c73c db91 d0ba b6dd e9bb d12e 83ba
00000070: 56d3 93b7 012a 27b7 b00c 373c 40b3 8e3b
00000080: 3a83 3d3c 2df6 9eb9 f4f3 50bb 1cc5 d03c
00000090: fdcf dd3d 96c9 3c3b 7b49 2a3a f3d1 b53b
000000a0: 0de8 9f3c df45 2ebc 89bd b637 329d 153d
000000b0: cbfc aaba c08d 90ba 5654 88bb 92d4 8331
000000c0: 69d4 523c 3d5c b438 3264 00bb 70c1 433c
000000d0: 874c 4f3c 8b83 b8aa ff41 1cb9 56e5 53bb
000000e0: b6ea f9bb a4bf 38bb 41ac 7336 2fec 9d3b
000000f0: 8056 2f3c 1250 9d3c ab8b 48ba 5680 883c
00000100: 9ea6 9b3b e729 af3c 3064 abba 778b 5a3a
00000110: f834 c039 b9d9 7a3a 9f5d a7bb 0a8c 44bb
00000120: c948 2d3b 4ebd ff35 f849 27ba 86bb 9736
00000130: 0feb ae3d da00 abbb 302b 60bb 3360 07b9
00000140: be42 4bbb 4f91 58bb 4bfa 1736 401b 79bb
00000150: c944 3cbc 1801 3f9f 32f6 b6ba 3037 8ab9
00000160: 8744 b2b3 5918 18bb 2df8 823d 369b 2aaf
00000170: 436d 98bb 09a7 fe3b 6d08 88bb 7be0 25ba
00000180: 0992 923a 63c9 9839 665e 09bb fa49 973b
00000190: 3bf8 2eba 048c 303d bd7b 193c a69a 1e39
000001a0: ddf6 9aba 8ed1 053e 75ab a4ba c9a7 1d3d
000001b0: 5842 4a3c 5e95 ad3c b1a0 74ba 77c8 e2ba
000001c0: 94f8 5e3d 8d9f fdbb 9cfe c739 3645 4db8
000001d0: 9f53 70bb 1d8f 1f3d 694a a832 e988 bfba
000001e0: 6c63 78bb 89bd 86bc 8338 a32e 31ec 0b3e
000001f0: 8b96 69bb 8609 1426 6b6e 0bbb 2d2f b2ba
-8.533089e-05 -0.00035528495 -0.0020791546 -0.0035086058 0.0034249283 0.00467711 0.0007176848 -0.00069523836
-0.00054663443 0.020749256 3.2395e-06 -0.004883771 0.014122082 8.787562e-10 0.15004967 0.06697598
-0.010058831 0.009155956 -0.00036452652 -0.0014086257 -0.0007900377 -4.287157e-07 -1.357004e-08 2.8219765e-11
0.024353627 -0.0015912609 -0.0071370257 -0.0010008459 -1.7622177e-05 -9.9637555e-06 0.0111724585 0.0043548644
0.011566931 -0.00030319524 -0.0031883689 0.025484614 0.10830686 0.0028806678 0.0006495935 0.0055487095
0.01951983 -0.010636776 2.178435e-05 0.036526866 -0.0013045309 -0.0011028573 -0.0041604443 3.8367682e-09
0.012868025 8.6002496e-05 -0.001959097 0.011947975 0.012652523 -3.2776242e-13 -0.00014901905 -0.003233274
-0.0076268567 -0.0028190399 3.6310087e-06 0.004819415 0.010701776 0.01920322 -0.00076502067 0.016662758
0.004750087 0.021382285 -0.0013076123 0.0008336822 0.00036660559 0.00095691864 -0.005107596 -0.0029990696
0.0026441088 1.9054075e-06 -0.00063815666 4.5219813e-06 0.085409276 -0.0052186074 -0.003420543 -0.0001291044
-0.0031015123 -0.0033045595 2.2646443e-06 -0.0038010627 -0.011491009 -4.0446728e-20 -0.001395887 -0.0002636253
-8.301236e-08 -0.0023207872 0.06394992 -1.5516552e-10 -0.004651697 0.007771377 -0.004151395 -0.00063277007
0.0011182438 0.00029141744 -0.0020960807 0.004616973 -0.00066745625 0.04310228 0.00936788 0.00015125665
-0.0011822839 0.1306822 -0.0012563305 0.03849009 0.012344919 0.021189388 -0.0009331806 -0.0017302175
0.05443628 -0.007739967 0.00038145937 -4.8940266e-05 -0.0036670936 0.038954843 1.9591612e-08 -0.0014612946
-0.0037901057 -0.0164478 7.42242e-11 0.13664319 -0.003564271 5.136072e-16 -0.002127553 -0.0013594382

network_body._body_endoder.seq_layers.2.weight f4 [128, 128]
00000000: e837 8a3d 79d6 e63d c899 00be 835e 03be
00000010: 5d68 803d 7b32 5b3b 5b13 823b a537 aabd
00000020: 7aa0 3cbd 111e 593d dc94 563c eca7 663d
00000030: c9ca d6bc 0d50 b5bc 97d9 cc3e c4f9 053e
00000040: b1e3 633d f766 fdbd a46b 013d ff0a f33d
00000050: be52 b93d 69cf 2dbe 766b e9bd 618a f33d
00000060: c05b 91bd a6ec 1a3d 978f d0bb 2f8b b0bd
00000070: 4c55 b0bb 85c1 aabc 431b 2dbb 0f25 d0bd
00000080: 15d0 0d3d 318b b3bd eb70 333d 5fa5 dfbd
00000090: f4e4 6ebd a35d 9ebd 3ee9 90bc df3a 133e
000000a0: d8a2 613d fd96 e3bc 8023 87bd fdf2 093e
000000b0: 45fc 603c 42fc bdbc e120 fe3d 2c10 0fbe
000000c0: 02a5 f23d e70b 95bd 9099 c7bc 5b8c f43c
000000d0: 87bf afbe c9a8 ae3b abf1 b2bd 146e d03d
000000e0: 856e cabd 63ca 483d 674c dbbd 4105 a4bd
000000f0: 1c2c c5bd a6f3 ae3c 19da 473d baf1 f23c
00000100: 3ad5 31bd e2db a33d da80 fdbc 6a9b 593e
00000110: 8a8e 54bd 62f0 2ebd 9f1b 413d 04de c5bc
00000120: f6be b83d 9272 493c 7d02 023d 50c3 cdbd
00000130: 892b 81bb 38de 993c 0067 d83b 6b14 20bd
00000140: 9a32 86bb 09b2 98bd 6d7b 01bd 28f5 ff3d
00000150: 803e 09bd 9c8c 60bd 0e05 de3c 77d3 1bbd
00000160: 9764 2dbd 65ab ad3d d516 b33d d049 3ebe
00000170: c2da e23c 6a8d 9fbd a9ff ba3d 4cd5 633d
00000180: 317f c1bd 9bca c8bd d3f3 8abd e825 2d3e
00000190: 0e33 633b cdc6 b9bd 1a0c 96bd 5f21 813d
000001a0: 7b98 0b3e 6459 613e 9fe7 78be 2636 c23c
000001b0: a4e4 cc3d 44a5 9dbb cb39 07be 37cd 2bbd
000001c0: 2b30 d43d 1501 8a3d f4f2 b0bd f0b5 29bb
000001d0: df8b ae3d a37b b53c 00c3 a8bd 26c5 f93d
000001e0: c5a2 453e 6faa 3bbd 7aee 453c 51e4 71ba
000001f0: f9bb 8f3c 0b3f 07be 00a5 0e3e 6a7c 483d
00000200: abba bcbd 1e83 bf3a efe1 4c3d 0083 953d
00000210: 9147 bebd 6b5e 8b3d 3648 403d 7389 bb3c
00000220: dd2d 423e 099f f8bd 914a 4d3e 03f2 e03c
00000230: 4541 423e 59d9 30bb e918 503e 0830 19bd
00000240: d224 6fbc bfce ee3c 7b72 febd 2dac 34be
00000250: eed8 0ebe 5f67 783d a860 ac3d 753f 18bd
00000260: cf51 693d ed0c 87bd dd08 fabc fa67 89bd
00000270: b022 173d 4024 8e3c 653d b6bd 5788 2cbe
00000280: a40e b8bd 6bad 7f3d 296f 8abd 9659 7dbc
00000290: 6dfe e63d e7df 1d3b 9358 223c e6aa 1bbe
000002a0: 17a3 1a3d bb65 283e 5a13 f53c 1cea b4bc
000002b0: 2189 22bd 0417 c83d a9ba 87bd af43 a1bb
000002c0: 1307 d2bc dde0 0fbd d620 f13c c58b 88bd
000002d0: c7b5 5b3d ef7d 7a3d 0324 3abe e068 973e
000002e0: c3d6 8a3d a7d6 f8bd 2c88 993d 769a cfbc
000002f0: 4e01 81bd 639c 73be 1613 2b3c 4a7c 8f3d
00000300: 4d28 46be 0929 ed3c 2bc5 7e3d 378c fa3d
00000310: d768 7dbc 2e67 93bd 430f 903d 99b5 00be
00000320: 056f 333c b3a9 f13c fbc7 c43c f7e6 1abd
00000330: a8eb cc3c 6952 073d 7840 ec3d 8d50 d8bd
00000340: 92c8 3d3d bca7 9b3d c761 94bd ebb9 403e
00000350: b14a 36be 7744 1c3d f302 5bbd 09f5 58bd
00000360: a0cc 353b 4fd9 053e 34df 913d 7b1b acbd
00000370: d915 81bd a95a 093e 23ee aebc 2b7d c33d
00000380: d75b 53bd a2b3 003e a4b0 aa3d 5c1c 903c
00000390: 1521 173d 0c90 c3bd 1c1e d93d 8de9 7f3d
000003a0: 968c d5bd d6db 8e3c 15a2 91bd 1bb8 813d
000003b0: 4eb2 9d3d 1b17 bf3c 45c3 a4bc 44d2 c43d
000003c0: cafa bc3d 04b9 383e 852b f7bc eca3 c9bd
000003d0: 5339 9d3c 6048 533e 7827 f03d 7f07 bd3c
000003e0: 2bcc dfbd 688c 93bc a9b9 e23d 4433 0d3d
000003f0: 701e b53d 271d d0bd a988 16bd 1add cb3d
0.067489445 0.11271376 -0.12558663 -0.12829022 0.06269906 0.0033446837 0.0039695925 -0.083113946
-0.04605148 0.05300719 0.013097014 0.056312487 -0.026219742 -0.022132898 0.40009758 0.1308356
0.055637065 -0.123731546 0.031596795 0.11867332 0.09048985 -0.16973652 -0.1139745 0.11891628
-0.07097578 0.03782334 -0.0063647735 -0.08620297 -0.005381262 -0.02084423 -0.0026413954 -0.10163318
0.03462227 -0.08766783 0.04380886 -0.10920214 -0.058323815 -0.077327035 -0.017689344 0.14377926
0.05508694 -0.027781958 -0.06598568 0.13471599 0.013732021 -0.023191575 0.12408615 -0.13971013
0.11847879 -0.07277661 -0.024365216 0.029852083 -0.3432581 0.0053301794 -0.08737501 0.10177246
-0.09884361 0.049021136 -0.10707932 -0.080088146 -0.09627554 0.021356415 0.04879198 0.02965628
-0.04341624 0.08000924 -0.03094523 0.21250692 -0.05189375 -0.042709716 0.047145482 -0.024153717
0.09020798 0.012295382 0.031740654 -0.100470185 -0.0039419574 0.01878272 0.0066040754 -0.039081972
-0.0040953876 -0.074558325 -0.03161185 0.12497932 -0.03350687 -0.054821596 0.02710202 -0.038043465
-0.042332258 0.084799565 0.08744589 -0.18582845 0.027692202 -0.077906445 0.091307946 0.055623338
-0.09448088 -0.09804269 -0.06784787 0.16908991 0.0034667882 -0.09071121 -0.07326527 0.06305193
0.13632385 0.22006756 -0.24307106 0.02370746 0.10004547 -0.004810961 -0.1320564 -0.041943755
0.1036075 0.06738488 -0.0864009 -0.0025895797 0.08522772 0.022153681 -0.08240318 0.12195806
0.19300373 -0.045816835 0.012080783 -0.0009227442 0.017545687 -0.13207643 0.1393013 0.048946775
-0.092152916 0.001461122 0.050020155 0.07300377 -0.09290994 0.06805118 0.046943866 0.02289269
0.18962808 -0.121397085 0.20047976 0.02745915 0.18970211 -0.0026985018 0.20322002 -0.03739932
-0.014596181 0.029151319 -0.12424179 -0.17643805 -0.1394994 0.060645457 0.08416873 -0.037169892
0.056962784 -0.06594262 -0.030521804 -0.06709285 0.036898315 0.01735127 -0.08898429 -0.16848885
-0.089871675 0.062421244 -0.06759483 -0.0154632535 0.112789966 0.0024089755 0.009908813 -0.15201911
0.03775319 0.16445057 0.029916454 -0.022084288 -0.039681558 0.09770015 -0.066273995 -0.0049213986
-0.025638139 -0.035126556 0.029434603 -0.06667284 0.053640153 0.061155256 -0.181778 0.295722
0.06779244 -0.12150317 0.07496676 -0.025342207 -0.06299077 -0.23790126 0.010441562 0.07006128
-0.19351311 0.028950231 0.062199753 0.12233775 -0.01546689 -0.07197414 0.07034161 -0.12569274
0.010951762 0.029499864 0.02402114 -0.03781792 0.025014713 0.033037577 0.11535734 -0.10562239
0.046333857 0.07600352 -0.07245212 0.18820922 -0.1780193 0.03815123 -0.05346961 -0.05296806
0.0027740374 0.13071178 0.07122651 -0.08403679 -0.06302995 0.1341349 -0.021353787 0.09545358
-0.051601257 0.12568524 0.08334473 0.017591648 0.036896784 -0.09548959 0.10601446 0.06247859
-0.10427205 0.01743881 -0.07110993 0.063339435 0.077000245 0.023326447 -0.020112643 0.096104175
0.09227522 0.18039328 -0.030172119 -0.09845719 0.019192373 0.20633078 0.11726278 0.023074863
-0.10927614 -0.018011287 0.11070568 0.03447272 0.08843696 -0.1016181 -0.036751423 0.09954281

network_body._body_endoder.seq_layers.2.bias f4 [128]
00000000: 05d1 b5ba 68e6 f2ba 51dc 8fbb 2d24 7eba
00000010: 6a54 ae3b be88 dc3b b99d bdba 71b2 773b
00000020: 60c2 c8ba 84bc 24b9 f878 f33a 07c3 b23a
00000030: 1650 763c e32c d438 786f 46b8 3710 ebb8
00000040: a8b8 e9ba ab50 90bb 1d6e caba 1179 d23a
00000050: 13d7 1b3b 4807 453b 12f5 f538 d94d aa36
00000060: 4732 6c3a b2d4 1a3a 35ec 1bba 27be d9bb
00000070: 6df5 2cba 85d7 b038 8e35 96bb 6783 08b1
00000080: 99ed 80ba a445 2cba e1e1 adba 306c 6f3c
00000090: c2dd b439 17a2 f3ba ef57 3eba 1293 15bb
000000a0: 8819 94ba 5ce5 d3b9 a237 e83a ed1a 66bb
000000b0: 3b11 123c e579 c13a f2c0 973a e53f 4ab8
000000c0: a66a 81bb 3c11 943b 27c5 763a 80d0 4939
000000d0: faec c83a 9a73 93bb ae80 913b 9b7b 41bb
000000e0: 7215 9dba 670b 903a 1a3e 14b8 4a67 2a3a
000000f0: 9ced dfb7 7b15 153a 8235 42b8 81d2 a03a
00000100: 4bd5 3bba 229c 48b9 a69d a039 932e 8bbb
00000110: 710c 3eba bb4e 3dba a2ce a7ba a476 b33a
00000120: 681f 143c e198 4bbb 0250 acb9 343e e9ba
00000130: 2723 a737 0886 1b3c 6575 9eba aa78 67ba
00000140: 9309 bcbb abb3 aabb 0203 a83a 6660 94ba
00000150: a3cc 25ba d3ab e139 792b 8939 bcd9 c3ba
00000160: 6d7c 73bb 8937 70bb d35f 0dba d28c 8fba
00000170: 56c5 54ba d8d2 20bb 14dc a8ba 6bfd 523c
00000180: 6ef2 3c3b 2a26 38bb 633c 2339 8d47 45bb
00000190: 21c0 f7b9 9297 69ba 6ebe 5fb9 b414 27bb
000001a0: d5b2 233c 190e f5ba 1cce 8839 8272 cbba
000001b0: 4917 0b3b 44f6 ac3b 2e09 36bb e715 2f3a
000001c0: ef3e 02bb 7c22 dd3a 289e 273a 9be3 f4ba
000001d0: fff8 453c 3dec 2c37 d2ad aeb3 a5fb e9b9
000001e0: a08b c33a 2f8c e938 2ddb abba 2fd2 81bb
000001f0: a1c2 69ba de08 6fb9 2702 78bb 6d3f 143b
-0.0013871497 -0.0018531801 -0.0043902774 -0.00096947217 0.0053201215 0.006730168 -0.0014466561 0.0037795568
-0.0015316717 -0.00015710486 0.001857548 0.0013638445 0.015033742 0.000101173086 -4.7310692e-05 -0.000112086935
-0.0017831521 -0.0044041476 -0.0015444193 0.0016057809 0.0023779317 0.0030064154 0.00011728158 5.0754575e-06
0.00090101775 0.0005906328 -0.00059479784 -0.0066449824 -0.00065978506 8.4324776e-05 -0.004584021 -1.9865298e-09
-0.0009836435 -0.00065716566 -0.001326617 0.014613196 0.00034497498 -0.0018587735 -0.0007261028 -0.0022823256
-0.0011299113 -0.00040415942 0.0017716775 -0.0035111264 0.008915241 0.0014761059 0.0011577888 -4.822006e-05
-0.003949481 0.004518656 0.0009413533 0.00019246526 0.0015329414 -0.0044998648 0.0044403886 -0.0029523137
-0.0011984541 0.0010989726 -3.5343786e-05 0.00065003766 -2.6694317e-05 0.00056871 -4.6303037e-05 0.0012269766
-0.0007165267 -0.0001913165 0.00030635035 -0.0042474954 -0.0007249779 -0.00072215096 -0.001280267 0.0013691974
0.009040691 -0.0031066465 -0.00032866007 -0.0017795027 1.992432e-05 0.009492405 -0.001208943 -0.0008829931
-0.005738446 -0.0052094064 0.0012818279 -0.0011320233 -0.0006324744 0.00043043363 0.00026163066 -0.0014942209
-0.003715302 -0.0036654195 -0.0005393002 -0.0010952002 -0.00081165635 -0.0024539735 -0.0012882971 0.012877802
0.0028831023 -0.002809892 0.00015567387 -0.0030102462 -0.00047254658 -0.00089108304 -0.00021337878 -0.0025494518
0.009991367 -0.0018696218 0.00026093505 -0.0015521797 0.0021223596 0.0052783806 -0.0027776468 0.0006678984
-0.0019873937 0.0016871239 0.00063941116 -0.0018683554 0.012083291 1.0307002e-05 -8.134124e-08 -0.00044628713
0.0014918931 0.00011136417 -0.0013111584 -0.0039618234 -0.00089172466 -0.0002279612 -0.003784308 0.0022620813

action_model._continuous_distribution.log_sigma f4 [1, 2]
00000000: 5886 24be d964 9cbd
-0.16066873 -0.07636423

action_model._continuous_distribution.mu.weight f4 [2, 128]
00000000: 0fd1 833c aa4a 813b a700 023d a626 89bc
00000010: 52ac b6bc a1ad 0ebd a2ea ca3c cb68 4cbd
00000020: 3b22 083c e5bf 6bbc de74 843b 2866 43bd
00000030: 6461 a0bd 8b24 4cbc 0e9e 76bc ac55 e0bb
00000040: adc6 de3b 39ff c7bc fc14 9e3a 4089 2f3d
00000050: 8cd2 0bbd 7df2 f8bc 225b 88bc 81d1 4cbb
00000060: c2ee d4bc 3b4e e0bc 9569 7dbb 1189 52bd
00000070: 7ab5 a43b 2bbe 6fbc 0748 e7b9 8c4c 923c
00000080: 84c6 063d d8bf 6cba 8b69 6c3d 10eb ab3d
00000090: 8eb7 c0ba 12a9 d5bb 87e1 9fbc 1a03 9e3c
000000a0: 6964 9f3c c743 a6bb f9ac 573c 8c32 e53c
000000b0: 2d60 82bd 6d02 0d3d 22ab 8c3d e3b1 443d
000000c0: 69b3 8bb9 07d6 003d d741 273d 6eaa 4ebc
000000d0: 4fd8 813c e9c9 1b3a 3fc3 7fbc 1a9a 7cbc
000000e0: 3c70 bd3c b86c 553d f914 723d 98fa acbc
000000f0: c235 75bc 82bc 9dbc 47b8 22bc 8bab 1a3c
00000100: b3df 8fbc 9955 c03c 8354 9b3c 8d21 58bb
00000110: a9b8 b5bb 4b00 013d ad7e a43b 3fe1 c73c
00000120: fd7a ae3d 4667 01b8 f11a 38bc dbfb 643c
00000130: 47d9 3cbd 3360 a7bd b2fa ab3c 894d 8c3d
00000140: 4bd5 26bd 9abb 9f38 f6fd 0d3d 6d99 483d
00000150: 03bb 84bb bdb3 1bbd 3c13 01bc 1731 773c
00000160: bf01 963b c0ee 2339 3a80 5abb 3580 323b
00000170: af84 473d 0aca 793a 0b69 86bc 2b6a 47bd
00000180: 55f6 393d aa6b 21bd 53b9 12bd 236b 82bb
00000190: 03fd dcbb 35dd 8b3c bff0 27bc ef80 603c
000001a0: 2900 263d d1c5 4d3c 6a44 493d 1176 81bc
000001b0: 464d 7ebd 6f23 763d 7fde e83c d63d e63c
000001c0: b780 f53c 92f1 7a3c 04c9 853c 4884 dc3b
000001d0: 03d9 b33d dc48 2ebc e53d e83b 29c4 b737
000001e0: f7f3 03bd 9bbb 8bbb 82e4 80bc 3e74 353c
000001f0: 1f45 16bc 6cd8 4bbc 30fa 55bb 8437 81bd
00000200: 11c4 03ba 378c 59bc 8c79 9abb 6c57 dab8
00000210: ad67 8cbc f5bb 5e3c 7a6c a1bc c586 65bb
00000220: 2996 123b 77d8 9bbb adcc ca3c ca07 693b
00000230: b717 12bc 15d8 e03b 3f2e 1ebb 3cbd 0ebd
00000240: 13d5 5e3c ad55 f9bc 7781 bbbc 4e75 62bc
00000250: 6760 b0bc c243 f43b 208e 47bb d0bc 86bc
00000260: 30f7 8e3b 74fe 963c a5ed fdbb d5e1 f1bb
00000270: 0fa4 6e3c b925 0cbb d46b fb3c bae4 1d3d
00000280: 6d20 f63b 238f 9d3c 116c cbbb 81c7 ec3a
00000290: 1f7c f03c d6ef fb3c 8a9c cabc fc71 e9ba
000002a0: 4f2c 1c3b e81e e8bc f990 b13c fbe3 cfbb
000002b0: 5407 afbc 2efb 033d 36ef d13b 3de4 3abb
000002c0: ae57 a73c b58f bc3b 40e3 943c af52 253c
000002d0: 28f8 8a3c 06ff cbba 86ba 24bb 28ed 60bc
000002e0: 35e5 383b d37a 20bc e014 8ebb 3858 a43c
000002f0: 92fd 18bc 1c6a 9d3c c630 88bc 4c97 c2bc
00000300: b39f cdbb c470 6fbc c2d2 f43b 7b7d 8c3b
00000310: 1902 8abb f87d 623c 9fd5 0a3c 6b1f 44bb
00000320: 9fe4 423c d08c a73b fd9c 16bc b072 21bc
00000330: dc76 26bd 167e ea3b 7edc ae3b 858b 0f3c
00000340: 8500 ab3c 9e94 71bb c4a0 7cbc 8d37 85bc
00000350: cd21 ae3c e014 cbbb b155 5dbb a4d6 b9bc
00000360: d4b1 73b8 af3c afbc ebb0 7abc 8a6f f3bc
00000370: b72f dabc 880f d8bb c8a4 c23a bcd0 2fbc
00000380: da3f 29bb 19c7 76bc 54f7 fabb d109 c1bc
00000390: b447 3fbc 6a16 073c 4522 183b 8077 91bc
000003a0: f6a6 5ebc 826a b0bb 23ed 3b3c 2a26 37ba
000003b0: 060f e63b 263d 08b9 ebe1 ef3c b9b1 983c
000003c0: 2a71 bb3b 3423 5f3c e023 633c a6d7 50bc
000003d0: 88ec a03b 63ef 43bc 8429 3ebc a7f8 593c
000003e0: de99 f83b 3d2f 693c afd6 6abc b3b2 be3c
000003f0: faa8 bcbc 20ad 43bb 32e4 d63a ff84 d2bc
0.016090898 0.003945668 0.031738903 -0.016742062 -0.022298966 -0.034833554 0.024770085 -0.049904626
0.008308942 -0.014389013 0.004042252 -0.047704846 -0.07831076 -0.012459884 -0.015052332 -0.0068461504
0.0067985863 -0.024413692 0.0012060697 0.0428555 -0.03413634 -0.030389065 -0.016645018 -0.0031252804
-0.025992755 -0.027381053 -0.0038667668 -0.051400248 0.0050265165 -0.014632742 -0.00044113418 0.017858766
0.032904163 -0.00090312725 0.05771784 0.08394444 -0.0014703141 -0.006520399 -0.01951672 0.019288588
0.019457059 -0.0050739977 0.0131637985 0.027978204 -0.06366 0.03442614 0.068685785 0.04802121
-0.00026645817 0.031454112 0.040834274 -0.012613876 0.015850214 0.0005942868 -0.015610515 -0.0154176
0.023124807 0.052105635 0.059102032 -0.021115586 -0.01496643 -0.019254927 -0.00993163 0.009440313
-0.017562723 0.023478316 0.018961197 -0.0032978982 -0.005545695 0.03149442 0.0050199837 0.024399398
0.08519552 -3.0852178e-05 -0.011236892 0.013976063 -0.04610565 -0.081726454 0.020993564 0.06850726
-0.040730756 7.616654e-05 0.034666024 0.048974443 -0.004050614 -0.03801321 -0.007878121 0.0150873875
0.004577845 0.00015633833 -0.003334059 0.0027237062 0.04871052 0.00095287024 -0.01640751 -0.048685234
0.045400936 -0.039409317 -0.03582127 -0.003980057 -0.0067440285 0.017073253 -0.010250269 0.013702615
0.040527496 0.01255937 0.04913751 -0.015803369 -0.062085412 0.060092386 0.028426407 0.028105658
0.029968603 0.015316384 0.016331203 0.0067296363 0.08781626 -0.010637488 0.0070874565 2.1906644e-05
-0.032215085 -0.0042643077 -0.015733961 0.011075078 -0.009171753 -0.012441736 -0.0032650344 -0.06309417
-0.00050264696 -0.013278059 -0.0047141965 -0.00010411334 -0.01713928 0.013594617 -0.019705046 -0.0035022956
0.0022367334 -0.004756029 0.0247558 0.003555762 -0.008916787 0.0068616965 -0.0024136452 -0.034848437
0.013600606 -0.030436361 -0.022888882 -0.013821913 -0.021530343 0.0074543664 -0.0030449703 -0.016447455
0.004362963 0.01843188 -0.0077492767 -0.0073816576 0.014565482 -0.002138479 0.030691065 0.03854821
0.0075111897 0.019233292 -0.006207951 0.0018064828 0.02935606 0.030754011 -0.024732847 -0.0017810459
0.002383012 -0.02833505 0.021675574 -0.006344316 -0.021365799 0.032221965 0.00640669 -0.0028517388
0.020427551 0.005754436 0.018174767 0.010090514 0.016964033 -0.0015563674 -0.002513559 -0.013728417
0.002821279 -0.009794909 -0.0043359846 0.020061597 -0.0093378 0.019215636 -0.01662482 -0.023753785
-0.006275141 -0.014614288 0.0074714134 0.0042874194 -0.004211676 0.013823979 0.008473783 -0.0029925953
0.011895328 0.0051132217 -0.009192702 -0.009854004 -0.040640697 0.007156144 0.0053363433 0.008761291
0.020874271 -0.0036862264 -0.015419189 -0.01626184 0.021256352 -0.006197557 -0.0033773 -0.022685356
-5.810133e-05 -0.02139124 -0.01530097 -0.029716272 -0.02663408 -0.0065936483 0.0014850134 -0.0107309185
-0.0025825412 -0.015062117 -0.0076588783 -0.023564251 -0.01167481 0.00824509 0.0023213786 -0.017757177
-0.013589611 -0.0053837905 0.011470112 -0.0006986583 0.007020834 -0.0001299275 0.02928253 0.018639432
0.0057202773 0.013619233 0.013863534 -0.012746727 0.004911009 -0.01195893 -0.011606578 0.013303912
0.007586702 0.014232454 -0.014333411 0.02327857 -0.023029793 -0.002985783 0.0016394912 -0.025698183

action_model._continuous_distribution.mu.bias f4 [2]
00000000: 096e 49ba 02d4 323a
-0.0007683938 0.0006821753

exp_avg f4 [128, 6]
00000000: 6a3d 6eba 96f9 5738 bd7f bfba aab3 f037
00000010: db1f c938 a836 33bb 94cf 7cb8 d078 9838
00000020: 6d9c faba fe69 1d38 f987 0339 5667 6abb
00000030: c998 37ba a854 87b8 99b5 bb3a 4175 fcb7
00000040: 90f2 d2b8 6bf7 3b3b 3656 b5b8 af48 0236
00000050: 8899 bb39 9f63 8c35 989c 6a36 200d d1b8
00000060: b572 8938 5507 9e38 24c3 ddba 02cd 1d38
00000070: b5da 0339 ccfa 6abb 861e ce38 defb 32b7
00000080: 79dc e039 0b63 b8b6 a511 9ab7 c348 093a
00000090: ba3c 05ad b113 43ac 4aad 9a2b af46 552b
000000a0: 3235 322c 30cb 9eae 830b 733a d288 7838
000000b0: b3da ffba f89e f137 54e4 c938 c0e5 33bb
000000c0: dd20 d134 7f76 cf34 3153 a9b5 1f91 e733
000000d0: ca7d c134 7b69 2cb7 8d20 9438 80ed 94b6
000000e0: 3afa 5f39 86a0 1bb6 c409 02b7 32be 6739
000000f0: 5ca2 2aac 24ed 122b 460d 7cad 960f b02a
00000100: ab1c 932b d415 03ae 3ec5 b5b0 9ceb f4b0
00000110: 7ac5 9133 20ac 78b0 c0c8 4fb1 d425 b933
00000120: 6566 d139 1326 1639 1cd2 5cbb 6004 9538
00000130: 9b07 7939 5de6 ddbb 2934 25a3 bf89 c0a1
00000140: c82e a7a1 08b5 cf21 038e ad22 b1a5 1aa5
00000150: 84e8 8ab9 264b 36b8 eda8 9a3a 24e6 b3b7
00000160: a551 96b8 62f1 053b 2444 ce3a 2e85 bf39
00000170: 55dd 21bc e04f 3939 86d7 1a3a 1ef9 89bc
00000180: 8389 d339 d8e7 c837 7db9 94ba 7a35 4a37
00000190: e3f5 2838 b78d 96ba ff96 dfb9 206c 3938
000001a0: 5a47 0bba d317 ce37 be34 ac38 0f72 19bb
000001b0: 4196 30ac 2ab8 89aa a2f2 132c b0a0 0fab
000001c0: f505 f0ab e6df 552e c2e5 3d2f 5cf7 1cae
000001d0: 5675 8130 83d2 9fad 218b 85ae 69fd ed30
000001e0: 1e0f 8bb9 f393 a3b7 7cbd 183a 3ee0 0eb7
000001f0: 5dc4 eeb7 58c1 543a 1206 7d2a 10d8 402a
00000200: 8c5b deac f05f c329 0940 a32a 1c77 11ad
00000210: fde6 13a8 9062 95a4 4047 0ea7 2043 30a4
00000220: d047 13a5 203c 8327 8a3e 5520 7d20 4020
00000230: 42f8 2aa1 b849 7c1f 2ece 5220 fad6 bba2
00000240: 2af9 9eba d6ea a0b9 a0c0 b53b b106 23b9
00000250: 7038 08ba b6c2 723c 28bd 2833 565b 8bb1
00000260: 503f 1a34 ece3 14b1 53d1 f8b1 07b6 5d34
00000270: 03ba adb7 d481 c7b7 60a5 573a b2c4 49b7
00000280: ae97 28b8 c439 963a f696 e6ad 3ebe 57ad
00000290: d412 832c 30d4 b32b 9842 962c 00e4 05af
000002a0: 8bd8 142d 5cff 852b c5a5 e3ad 05ce 032b
000002b0: d843 dc2b d444 44ae 7d9c 122a c9a6 3b29
000002c0: cfed 2a28 d6bd a0a7 ce4f 86a8 f45b ef2a
000002d0: 8168 85ba dcf2 af37 d476 02ba 04a4 2f37
000002e0: a4c2 1238 b8c5 82ba 7943 c736 d603 1e37
000002f0: f4c4 b4b8 b02e 9636 21fa 7a37 95a2 dfb9
00000300: 8bf5 0db8 9c3e ab37 a99d e8b9 86cb 3837
00000310: f468 1a38 9896 89ba 5739 d1b3 c003 2a30
00000320: d0df 29b3 4071 b92f 60f3 9a30 f811 0ab3
00000330: c007 8cb9 dca3 eeb6 4884 c639 2ae6 91b6
00000340: 88d1 73b7 a841 d939 bf9d c4b9 5ce5 b838
00000350: 9eaa bcba 5563 3f38 3ceb 1f39 397f 8ebb
00000360: 6912 d236 dc33 0d37 4771 12b9 8588 7f36
00000370: 6084 5537 8d41 beb9 2c29 44ba 0ad6 71b8
00000380: 9dad b13a 931d e8b7 16f3 c1b8 04d2 2c3b
00000390: 2664 33ae 7d11 632d 0969 9aaf ecbc 002d
000003a0: f023 d72d d5b3 3fb0 0299 ad37 e1a3 e137
000003b0: 6f25 1eb9 9d84 3237 432a 1538 2bea 84ba
000003c0: 54cb 003a 16c6 5939 e5a0 9fbb 897c d738
000003d0: 120e b439 7e70 20bc 8d15 12ba d725 3838
000003e0: 0bcf e3b9 c58b d437 1e99 b138 0640 1ebb
000003f0: e756 f339 68b2 b436 5c25 2fb9 f09a fb35
-0.0009088131 5.149244e-05 -0.0014610213 2.8693892e-05 9.5903604e-05 -0.002734581 -6.0274804e-05 7.270428e-05
-0.0019120105 3.753043e-05 0.00012543787 -0.003576716 -0.0007003663 -6.45307e-05 0.0014321088 -3.0095342e-05
-0.00010058761 0.0028681408 -8.6468106e-05 1.9413817e-06 0.0003578181 1.0459806e-06 3.4959867e-06 -9.968341e-05
6.554035e-05 7.535393e-05 -0.0016919118 3.7622645e-05 0.00012574608 -0.0035855053 9.828531e-05 -1.0668269e-05
0.00042888874 -5.4951574e-06 -1.8366447e-05 0.00052369776 -7.573659e-12 -2.7722098e-12 1.0990456e-12 7.5770895e-13
2.532485e-12 -7.2211015e-11 0.000927143 5.925523e-05 -0.0019520134 2.8803464e-05 9.626956e-05 -0.0027450174
3.8953195e-07 3.8642972e-07 -1.2615693e-06 1.0783173e-07 3.6040575e-07 -1.0276558e-05 7.063253e-05 -4.4383924e-06
0.00021360154 -2.3190237e-06 -7.750878e-06 0.0002210073 -2.424858e-12 5.219872e-13 -1.4327489e-11 3.1274695e-13
1.0452935e-12 -2.980534e-11 -1.3225543e-09 -1.7820301e-09 6.7880094e-08 -9.046648e-10 -3.0236578e-09 8.621615e-08
0.00039939876 0.00014319298 -0.003369457 7.1056886e-05 0.00023749324 -0.006771846 -8.955713e-18 -1.3046887e-18
-1.1328743e-18 1.4074784e-18 4.7042105e-18 -1.3413509e-16 -0.0002649465 -4.346217e-05 0.0011799611 -2.144563e-05
-7.167765e-05 0.0020438065 0.001573686 0.00036529585 -0.00987943 0.0001767273 0.0005906749 -0.016842421
0.0004034751 2.3949819e-05 -0.0011346784 1.2052589e-05 4.028332e-05 -0.0011486326 -0.00042646375 4.4208136e-05
-0.00053130614 2.4568208e-05 8.211423e-05 -0.0023413931 -2.5094512e-12 -2.4463878e-13 2.1024645e-12 -5.1026804e-13
-1.7054679e-12 4.8629455e-11 1.7271076e-10 -3.5689993e-11 9.419334e-10 -1.8169693e-11 -6.072854e-11 1.7316043e-09
-0.0002652341 -1.9500008e-05 0.0005826575 -8.51607e-06 -2.846325e-05 0.00081159687 2.247302e-13 1.7127987e-13
-6.3197832e-12 8.676382e-14 2.899905e-13 -8.268743e-12 -8.210227e-15 -6.478542e-17 -1.9745083e-15 -3.8220774e-17
-1.2774549e-16 3.642499e-15 1.8062494e-19 1.6273782e-19 -5.7926807e-19 5.3424054e-20 1.7855911e-19 -5.0914067e-18
-0.00121287 -0.00030692545 0.0055466443 -0.00015547384 -0.0005196398 0.0148169305 3.9287585e-08 -4.055816e-09
1.43654e-07 -2.1666393e-09 -7.2415474e-09 2.064845e-07 -2.0709826e-05 -2.3783105e-05 0.0008226242 -1.202633e-05
-4.0195584e-05 0.0011461307 -2.6215013e-11 -1.2263577e-11 3.7253343e-12 1.2777609e-12 4.27065e-12 -1.2177281e-10
8.460908e-12 9.521095e-13 -2.5880529e-11 4.682646e-13 1.5650771e-12 -4.4626372e-11 1.3021698e-13 4.1667004e-14
9.488462e-15 -4.461474e-15 -1.4911598e-14 4.2518734e-13 -0.0010178239 2.0974716e-05 -0.0004976813 1.0469001e-05
3.4990386e-05 -0.0009977138 5.938517e-06 9.418427e-06 -8.619754e-05 4.4757835e-06 1.4959399e-05 -0.00042655008
-3.38457e-05 2.0413943e-05 -0.00044367954 1.1014641e-05 3.6814206e-05 -0.0010497151 -9.742751e-08 6.185097e-10
-3.9551935e-08 3.3731773e-10 1.1274146e-09 -3.214697e-08 -0.00026708655 -7.1120285e-06 0.0003786406 -4.3481314e-06
-1.4532714e-05 0.00041438383 -0.00037501563 8.816525e-05 -0.001439411 4.563046e-05 0.00015251053 -0.004348662
6.260631e-06 8.416329e-06 -0.00013965844 3.8077426e-06 1.272661e-05 -0.00036288463 -0.0007482942 -5.7658217e-05
0.0013555769 -2.7670327e-05 -9.2482354e-05 0.0026370296 -4.0788838e-11 1.2907339e-11 -2.808707e-10 7.317907e-12
2.445863e-11 -6.974095e-10 2.0694457e-05 2.6898402e-05 -0.00015082 1.0640503e-05 3.5563728e-05 -0.0010140588
0.0004913111 0.00020768525 -0.004871475 0.000102751954 0.0003434276 -0.009792445 -0.00055726693 4.390426e-05
-0.00043451073 2.5337455e-05 8.468538e-05 -0.0024147048 0.0004641332 5.3851873e-06 -0.00016703218 1.874605e-06

exp_avg_sq f4 [128, 6]
00000000: f7c6 1736 6cc6 6c35 7fe0 0b3a ffba 7734
00000010: 36f6 2c36 3354 093b 7178 a234 d7db 3034
00000020: 379e c438 d4c4 3d33 5b7e 0435 4265 d239
00000030: f7f3 0636 64a0 4035 104e ec39 bd4e 4934
00000040: cb8c 0c36 6b30 df3a 91e3 0734 a403 7533
00000050: 7b99 f837 99ca 8032 2ad7 3334 5cca 0e39
00000060: 04c0 2734 ff6e 5d33 af6e fe37 828b 6e32
00000070: 658c 2634 9a3c 0439 4cf1 6033 7bd6 a332
00000080: 5580 4237 4989 a931 46bc 6c33 c2f6 3b38
00000090: 0da8 c01e 02b3 371b a6d1 1a1e 9a9b 711c
000000a0: cbaf 281e 38ef 0523 2085 8336 ef14 d135
000000b0: 4ed3 7a3a 5c38 dc34 14c1 9936 2628 743b
000000c0: c993 ca2d 4b34 5a2c 2013 a22e 81cc 142c
000000d0: 27c7 cf2d f9f8 a432 d67d 8932 5479 d931
000000e0: 87a7 8f36 a39e e030 80d3 9c32 e608 7937
000000f0: ab8a b91a 3eeb dd19 5aa0 8e1d 2dd7 2919
00000100: f828 ed1a 0a4d bc1f d079 8628 5704 2129
00000110: 6126 ab2e 1e49 2528 8acc e629 3940 b72e
00000120: f8a4 a135 77b3 f334 6303 9739 bebd fd33
00000130: 7f28 b135 3aa9 8c3a fcf9 530b a658 aa07
00000140: fd68 960a 1ed5 1409 34d3 cf0a 8602 a50f
00000150: 3dfd 1835 6f7b 4934 b4e6 0339 ea11 5033
00000160: 7245 1135 a8af e639 5f70 2437 1997 9236
00000170: 39ee 2f3b f044 9a35 c16a 5737 a709 2b3c
00000180: cc00 2935 78a4 8834 f908 2d39 3e2e 8c33
00000190: 7cbe 4335 ea6a 1b3a b3d5 1735 3f9d 4634
000001a0: 4c98 cd38 d20a 5333 ac58 1335 44fb e939
000001b0: 6cdd 881d 40db 901b d061 bb1d 6a81 7c1b
000001c0: 9f4b 301d baf9 0b22 99cf fc1f 3b7f f91e
000001d0: 8f12 9923 f334 021e 1fd1 b51f 1e5c 9024
000001e0: 4806 9934 aaf9 d333 e590 8238 e715 e332
000001f0: 388c 9e34 c1c4 7b39 f1df 8e15 8f89 4d16
00000200: 9462 b31b f3f4 5215 7e49 1317 2be3 e91b
00000210: 7788 b411 8b96 1e11 9dd2 d515 4422 2410
00000220: 0631 e511 7bf9 b516 54e4 f805 13d3 1104
00000230: 4499 3606 831b c703 8903 8b05 d7bf 5c0a
00000240: 3271 1137 ef71 4736 458e 163b 7fb5 4c35
00000250: b0ec 0e37 b4f5 e23b bb6b 0d28 aa34 9927
00000260: 8303 332c bb88 a026 272a 6028 aafb 312d
00000270: c9b4 3431 f19b a631 c314 cc36 d4f8 aa30
00000280: 63bd 6e32 4d8e 3d37 eed0 5321 0675 341f
00000290: d5cb 9c21 749b 761f 5e2d 2c21 b3b4 0826
000002a0: 7bdd 491c 8b62 941b 8f35 3e20 8cd8 9a1a
000002b0: cd38 581c 39ad 2b21 1588 fb18 f097 a916
000002c0: 15bb 4019 3a36 d716 0742 9618 cc9a 6e1d
000002d0: b834 5036 5c65 9a35 7034 493a 8961 9e34
000002e0: 8228 5d36 7e98 2f3b 51a6 da32 698a 8d31
000002f0: 08bc 0534 6b62 f830 096b ad32 f3b0 8937
00000300: 66bd 4732 6912 8d31 5754 6635 4ed7 c330
00000310: aebb 8832 b020 5937 ed5f 9c28 9b8e e227
00000320: 6d0f ae2c 4928 e926 64c9 a228 0840 812d
00000330: 58f6 6234 f508 b233 07b9 8238 001e b832
00000340: 408c 8034 4d21 4c39 627a b234 9e2c 1134
00000350: c94f 8438 fd59 1a33 0c88 d734 f720 ab39
00000360: 2e95 8430 7292 de2f 856e ce33 9802 102f
00000370: 6b17 c930 d5a9 9f35 fbb8 1136 c90a 5d35
00000380: 9134 0c3a dd8e 6634 d7f8 2036 5c9e ff3a
00000390: 42cc 551e 4335 b51c c499 0821 95e3 361c
000003a0: 5b61 ff1d afc4 ca22 d41e f833 db27 fe32
000003b0: d55f a235 adbb 4d32 cfa3 0f34 4f18 e438
000003c0: 1c4f c635 ea89 1d35 1635 c939 5d72 2434
000003d0: dba0 e535 4852 b63a 9d7f e835 203f 3b35
000003e0: a626 b539 ab60 4834 95e6 0b36 6728 de3a
000003f0: d799 7d35 58fd ad34 6a86 4339 133d bc33
2.2616566e-06 8.8205593e-07 0.0005335882 2.3071696e-07 2.577331e-06 0.0020954728 3.0262484e-07 1.6471255e-07
9.375478e-05 4.4184006e-08 4.9357703e-07 0.00040129764 2.0109562e-06 7.175897e-07 0.0004507159 1.8748229e-07
2.0943578e-06 0.001702798 1.2655643e-07 5.704682e-08 2.9635374e-05 1.4993292e-08 1.674895e-07 0.0001361756
1.5622942e-07 5.1556523e-08 3.03307e-05 1.3885144e-08 1.551103e-07 0.00012611077 5.2373522e-08 1.9073232e-08
1.1593181e-05 4.934155e-09 5.5119266e-08 4.4814085e-05 2.0398295e-20 1.5195246e-22 8.196046e-21 7.994132e-22
8.930199e-21 7.260601e-18 3.919602e-06 1.5577806e-06 0.000956823 4.10192e-07 4.5822326e-06 0.0037255376
2.3030371e-11 3.1008692e-12 7.3703044e-11 2.1145587e-12 2.3621617e-11 1.9205332e-08 1.6006123e-08 6.3293246e-09
4.281235e-06 1.6343232e-09 1.825697e-08 1.4843628e-05 7.673824e-23 2.2945878e-23 3.7752887e-21 8.78055e-24
9.808709e-23 7.974855e-20 1.4929816e-14 3.5752946e-14 7.782997e-11 9.175195e-15 1.0249534e-13 8.333285e-11
1.2043447e-06 4.5392855e-07 0.00028803488 1.18157445e-07 1.3199314e-06 0.0010731586 4.082519e-32 2.563086e-34
1.4483967e-32 1.791506e-33 2.001282e-32 1.6271228e-29 5.699292e-07 1.8764489e-07 0.00012579077 4.8445067e-08
5.4117766e-07 0.00043999893 9.801325e-06 4.368729e-06 0.0026844873 1.1493958e-06 1.2839854e-05 0.010439313
6.2958566e-07 2.545164e-07 0.00016501908 6.5276694e-08 7.292035e-07 0.0005928712 5.6562857e-07 1.8497393e-07
9.803529e-05 4.9137107e-08 5.48908e-07 0.0004462843 3.6227845e-21 2.3964489e-22 4.9599624e-21 2.0886767e-22
2.3332501e-21 1.8970217e-18 1.0706959e-19 2.6416522e-20 1.6596153e-17 6.893092e-21 7.7002444e-20 6.26061e-17
2.850304e-07 9.870867e-08 6.225872e-05 2.6436238e-08 2.9531816e-07 0.00024010522 5.770666e-26 1.6603174e-25
2.967677e-22 4.2602393e-26 4.759102e-25 3.869342e-22 2.8483096e-28 1.2510392e-28 8.6362304e-26 3.2369694e-29
3.6160042e-28 2.9399571e-25 2.3405682e-35 1.7141589e-36 3.4342997e-35 1.1702485e-36 1.3072796e-35 1.0628696e-32
8.669029e-06 2.9719629e-06 0.0022972983 7.6260034e-07 8.518968e-06 0.0069262628 7.850433e-15 4.252313e-15
2.543938e-12 1.1139291e-15 1.2443638e-14 1.0117166e-11 2.6296212e-09 4.8489643e-09 6.0820907e-06 1.2439849e-09
1.3896485e-08 1.129841e-05 7.1766097e-19 3.8213282e-20 1.0624925e-18 5.2221114e-20 5.833591e-19 4.742937e-16
6.679158e-22 2.4548228e-22 1.6111347e-19 6.404276e-23 7.154182e-22 5.816631e-19 6.5019387e-24 2.7399309e-25
9.963948e-24 3.4769345e-25 3.884076e-24 3.1579066e-21 3.1025102e-06 1.1503394e-06 0.00076753553 2.950076e-07
3.2955145e-06 0.0026793773 2.5454172e-08 4.1193755e-09 1.2454996e-07 1.8072347e-09 2.0188525e-08 1.6414071e-05
1.1626389e-08 4.105733e-09 8.580441e-07 1.4249311e-09 1.591783e-08 1.2941819e-05 1.736108e-14 6.2882214e-15
4.94709e-12 1.6178542e-15 1.8072952e-14 1.4694038e-11 2.113751e-07 8.2904e-08 6.233347e-05 2.1434062e-08
2.3943903e-07 0.00019467362 3.324413e-07 1.3520409e-07 6.3091116e-05 3.5937763e-08 4.0145858e-07 0.00032640222
9.646663e-10 4.048562e-10 9.612726e-08 1.3097645e-10 1.4631331e-09 1.1895851e-06 2.1714357e-06 8.234461e-07
0.0005348409 2.1472393e-07 2.3986702e-06 0.0019502151 1.1318366e-20 1.1991343e-21 4.62821e-19 6.051289e-22
6.75986e-21 5.4960457e-18 1.15540075e-07 2.9587616e-08 1.2097831e-06 1.1975243e-08 1.3377506e-07 0.00010876415
1.4775173e-06 5.868775e-07 0.0003837726 1.5315295e-07 1.7108645e-06 0.001391002 1.7322487e-06 6.975479e-07
0.00034551806 1.8661619e-07 2.084683e-06 0.0016949297 9.447371e-07 3.2408093e-07 0.00018646722 8.7655415e-08

exp_avg f4 [128]
00000000: a53a 89b8 6c7d b3b8 71ee 8f38 c913 20b6
00000010: 56ee b3b8 d93e 5237 982f f3ab c9c0 89b8
00000020: 6405 84b4 d273 b136 78c0 48ab eec5 0d31
00000030: 57ea 29b9 10d6 6ca2 db20 4d38 dc4c d3b9
00000040: 2091 e6b7 eafe 6ab8 2bc5 a32b 6a3c 362e
00000050: c3e9 a237 35c6 5eaa f0fb c824 a5d5 0fa0
00000060: 9ce3 b939 52c5 a931 8a10 e637 480c 4dac
00000070: fc49 96ab c648 3728 e045 c8b7 7d3e 2bb7
00000080: fcb5 d2b7 5073 53b0 225c 2637 7a3a dab8
00000090: 4faf 11b7 7555 8438 d9ca 92ad b98d cbb7
000000a0: e6b4 75b9 905a 72b8 d071 8fb6 a529 4ab7
000000b0: 9427 5bb8 a26c 3ab8 f819 c1b6 f33e e623
000000c0: dfbb 0f35 fc9e 9036 b2fb 3a37 1404 06b9
000000d0: d2f9 ceb5 b0bc ea1d b468 e8b6 26c5 6131
000000e0: ed5f 9338 cc0b 6b37 6080 9aa6 155f 70b7
000000f0: 9fad 06b5 2336 2239 f0b7 6a36 ffec df34
00000100: 1231 6ab8 f43f 4438 a0d1 93b5 dec1 19b7
00000110: 8889 01b8 09ae 2bb8 706a 4038 cb6d 2ab5
00000120: e62e 8bb8 7b9e c4a8 8028 5a37 583b baa8
00000130: a498 16b7 98a3 0c38 6a71 adb7 4cb9 10b7
00000140: c00d 1f36 5080 6f37 c6b8 4729 1c1b ff37
00000150: c3d5 2fb8 f2ff 7311 8b59 e1b7 66f9 70b8
00000160: e520 1ea8 43bc a738 29fb 6d35 5844 2c20
00000170: c0ee ef34 e453 4fb6 1c0c 75b2 c1f7 d12c
00000180: ce6d 15b8 d0ad f036 f027 15b7 c686 0eb1
00000190: 6e11 4838 723b 7438 1b41 37b5 803c ffb5
000001a0: 7de6 b1b7 0a1a 5bb4 74a8 4838 a7ce 1bb7
000001b0: ed8f ce33 2af4 84b9 b478 77b8 e0e9 e8b6
000001c0: 80a3 5e35 0d1b 31b8 3452 cab7 2c7e 6b38
000001d0: 569b 0337 9815 3eb8 c9dd d2a4 e467 2e38
000001e0: 61f3 b238 3611 5137 3a25 eaa2 f57f 20b8
000001f0: 02d8 f336 3828 a596 4702 d737 60f7 2036
-6.5435925e-05 -8.558747e-05 6.8631845e-05 -2.3853374e-06 -8.579779e-05 1.2531608e-05 -1.7279398e-12 -6.568578e-05
-2.4590838e-07 5.2884943e-06 -7.132138e-13 2.063071e-09 -0.00016204394 -3.2097288e-18 4.8906408e-05 -0.0004030232
-2.7485716e-05 -5.6027355e-05 1.1636572e-12 4.1435667e-11 1.9420759e-05 -1.9786328e-13 8.716297e-17 -1.218326e-19
0.00035455532 4.94098e-09 2.7425838e-05 -2.913907e-12 -1.0678676e-12 1.0174321e-14 -2.3874396e-05 -1.0206943e-05
-2.5118694e-05 -7.692522e-10 9.915822e-06 -0.00010405942 -8.683491e-06 6.310168e-05 -1.668836e-11 -2.426548e-05
-0.0002343241 -5.778164e-05 -4.2749816e-06 -1.2049834e-05 -5.225053e-05 -4.4447028e-05 -5.7548714e-06 2.496331e-17
5.354504e-07 4.3100426e-06 1.1145066e-05 -0.00012780755 -1.5420903e-06 6.2134383e-21 -6.926328e-06 3.2853875e-09
7.027374e-05 1.4009838e-05 -1.0720693e-15 -1.4327253e-05 -5.017154e-07 0.00015469691 3.4975783e-06 4.1709424e-07
-5.5835648e-05 4.6789602e-05 -1.1013362e-06 -9.164649e-06 -3.0884083e-05 -4.093166e-05 4.5875495e-05 -6.3489705e-07
-6.636772e-05 -2.1829101e-14 1.3003242e-05 -2.0675885e-14 -8.976236e-06 3.353096e-05 -2.067602e-05 -8.626212e-06
2.370085e-06 1.4275385e-05 4.4347142e-14 3.0410993e-05 -4.1922332e-05 1.9248189e-28 -2.6863787e-05 -5.745273e-05
-8.777895e-15 7.998247e-05 8.8654866e-07 1.459158e-19 4.4690933e-07 -3.0894234e-06 -1.426363e-08 5.9676435e-12
-3.5626632e-05 7.172792e-06 -8.890391e-06 -2.074033e-09 4.769995e-05 5.8229496e-05 -6.8267553e-07 -1.9016588e-06
-2.1207374e-05 -2.0405437e-07 4.78406e-05 -9.286835e-06 9.6188025e-08 -0.00025358918 -5.9001803e-05 -6.9413654e-06
8.293937e-07 -4.222528e-05 -2.4118555e-05 5.6145873e-05 7.844375e-06 -4.531964e-05 -9.14487e-17 4.158159e-05
8.533034e-05 1.2461378e-05 -6.3465242e-18 -3.8266142e-05 7.267111e-06 -2.668257e-25 2.5631058e-05 2.398585e-06

exp_avg_sq f4 [128]
00000000: 1d0b a135 5cba 7634 7cdd 8235 cc72 a733
00000010: 8012 9b33 316c dc32 1410 9d1d d528 0f36
00000020: ff75 412d 0b05 1232 46d1 5c1a 30e5 5629
00000030: 6af3 2435 2681 410a d742 8734 b892 c836
00000040: 8d41 b634 7931 8934 b625 a41c e149 291f
00000050: 569f 1334 5423 8916 1566 5511 5b6f 0105
00000060: 8013 8536 d9b7 d027 114a de31 3e50 a020
00000070: 9652 c91b 76e7 0b18 35eb cd35 0378 2132
00000080: 469f fe31 d691 1728 3e61 ef33 0dae 4834
00000090: 0f3c 3b30 43e1 9535 76c8 6d1d f1bd 8533
000000a0: 2fce 5535 a142 8235 fbbc f434 eea8 b732
000000b0: 697a 2b36 ef40 0435 1085 9e33 ac0b 130f
000000c0: 38a3 8a2f aa01 e333 086f 8334 dc10 6133
000000d0: 614f 842f d0a5 5c01 99cc 7233 dc5a 0a29
000000e0: 8887 8535 df1f 9f33 d6b9 2a16 524c e931
000000f0: 2b35 922d ce03 b236 bdec ce34 987b c72e
00000100: 2a23 f833 3c62 4535 2eac 4334 a370 8c34
00000110: ab03 6135 d2c5 fd34 bc86 3633 c67b 6a2e
00000120: d7b7 4134 fbd7 e914 6bbc d633 a98d 1116
00000130: f82c 002f fa10 8733 ba56 8833 e332 7834
00000140: c129 1335 cc66 d634 f772 b318 8b05 a333
00000150: 5965 7f32 0000 0000 104b 7f33 6918 c534
00000160: bff7 0915 a853 a435 743d 2f2f 57e0 5608
00000170: 501c 3233 b036 1e31 36ff 0f2a 9545 581f
00000180: 147b 9633 88e4 7035 4f92 4835 6e83 1428
00000190: 276c ce35 ba99 2633 56ab 632e 59cc 4836
000001a0: 4841 8033 0e71 e12e f033 0d34 b9e9 af30
000001b0: c683 b52b dae2 1634 67c7 1936 e31a 9434
000001c0: f448 6f33 aa22 7a33 f2da 8533 47c5 8c34
000001d0: a5a5 1034 15ee 8535 7ad9 5d0e 3122 6d34
000001e0: a9f3 6e34 d8a4 4e32 75de 9007 5c43 c031
000001f0: 0454 7033 0500 0000 a8ca 6a34 55fb c735
1.1998669e-06 2.2978332e-07 9.750215e-07 7.797425e-08 7.221115e-08 2.566057e-08 4.157418e-21 2.1332428e-06
1.099698e-11 8.499465e-09 4.5663983e-23 4.7716334e-14 6.1448975e-07 9.316902e-33 2.5194342e-07 5.977545e-06
3.3947836e-07 2.5554235e-07 1.0862358e-21 3.5848253e-20 1.3748408e-07 2.215584e-25 1.6834194e-28 6.0860036e-36
3.965979e-06 5.7930925e-15 6.4694707e-09 2.7158154e-19 3.330603e-22 1.8082187e-24 1.5342144e-06 9.398721e-09
7.4104802e-09 8.413807e-15 1.1146993e-07 1.8689771e-07 6.811555e-10 1.1166925e-06 3.1470325e-21 6.227845e-08
7.964872e-07 9.705146e-07 4.5586043e-07 2.1380824e-08 2.5552238e-06 4.926832e-07 7.381652e-08 7.2499075e-30
2.5218028e-10 1.0570814e-07 2.4481437e-07 5.240223e-08 2.4067062e-10 4.0526583e-38 5.6531096e-08 3.0720963e-14
9.948717e-07 7.409812e-08 1.379113e-25 6.789869e-09 1.662189e-11 5.3052563e-06 3.854274e-07 9.071427e-11
1.1554796e-07 7.353117e-07 1.8223429e-07 2.6158986e-07 8.382437e-07 4.7268855e-07 4.2497717e-08 5.3315373e-11
1.8041406e-07 2.3612177e-26 9.9994246e-08 1.1757707e-25 1.1657508e-10 6.2895154e-08 6.348769e-08 2.3115312e-07
5.482253e-07 3.99354e-07 4.63865e-24 7.591287e-08 1.4865997e-08 0.0 5.9440083e-08 3.671187e-07
2.7862367e-26 1.2243299e-06 1.593799e-10 6.4661993e-34 4.1469605e-08 2.3023112e-09 1.2789495e-13 4.5797336e-20
7.007307e-08 8.9739524e-07 7.4718713e-07 8.24415e-15 1.5379673e-06 3.87897e-08 5.1766e-11 2.9921268e-06
5.972339e-08 1.0251898e-10 1.3150543e-07 1.2799354e-09 1.2897398e-12 1.4052367e-07 2.2914844e-06 2.758671e-07
5.5712874e-08 5.8239188e-08 6.233121e-08 2.622057e-07 1.3471306e-07 9.978563e-07 2.7345064e-30 2.2084784e-07
2.225412e-07 1.2028259e-08 2.179746e-34 5.5955933e-09 5.5955766e-08 7e-45 2.1866674e-07 1.4899803e-06
