results/1002/Agent Behavior/Agent Behavior-14369.pt (torch, 441549 bytes, 36 tensors)

network_body._body_endoder.seq_layers.0.weight f4 [128, 6]
0	0x3dc1a36a	0.09454997
1	0xbeb0273f	-0.34404942
2	0xbcfa2781	-0.030536415
3	0x3e1c8fdd	0.15289254
4	0x3dcc283f	0.09968614
5	0xbf1a34e8	-0.6023698
6	0x3e211f3a	0.15734568
7	0xbda4e930	-0.080522895
8	0xbd598120	-0.05310166
9	0x3f5c7ccd	0.8612793
10	0xbe789f48	-0.24279511
11	0x3ed6b732	0.41936642
12	0xbe5767a7	-0.21035634
13	0x3f52df7f	0.8237228
14	0x3f01b751	0.50670344
15	0xbf13f018	-0.5778823
16	0x3dc4a95e	0.09602617
17	0x3d1152bd	0.035479296
18	0x3eb0b7e7	0.34515306
19	0x3edccfdf	0.43127343
20	0x3f40468d	0.7510765
21	0x3dcf23be	0.10114239
22	0xbe9cf606	-0.3065645
23	0x3f1e957a	0.61946833
24	0x3e606300	0.21912766
25	0xbe451397	-0.19245754
26	0xbc8facfa	-0.017538536
27	0x3da4dd88	0.08050066
28	0x3e580ffd	0.21099849
29	0x3e4cfe4b	0.2001888
30	0x3ec762fa	0.389427
31	0x3e6afbda	0.22947636
32	0x3e4bff4c	0.19921607
33	0xbe99102a	-0.29895145
34	0x3d89b091	0.067231305
35	0x3e53604d	0.20642205
36	0x3ea78b28	0.32723355
37	0xbe7f52eb	-0.24933974
38	0x3def8fd3	0.11697354
39	0x3ebd975e	0.37029546
40	0xbf0f0ec4	-0.55881906
41	0x3ed8802f	0.42285296
42	0xbea959d1	-0.33076337
43	0xbed56534	-0.41678774
44	0xbe452301	-0.19251634
45	0x3f13cd88	0.5773549
46	0xbf8299c2	-1.0203173
47	0xbeba11f3	-0.3634182
48	0xbf939f46	-1.1532981
49	0x3df84863	0.12123182
50	0xbbce8aa5	-0.006303149
51	0xbf212c1b	-0.62957925
52	0xbecccc5c	-0.39999664
53	0x3ebd7177	0.3700063
54	0xbed462fd	-0.41481772
55	0xbf0333aa	-0.5125071
56	0x3dc13406	0.09433751
57	0x3d8071d2	0.062717095
58	0x3f608abc	0.8771169
59	0x3fa94992	1.3225577
60	0x3efc9494	0.49332106
61	0x3e8f2c73	0.279636
62	0xbf66b9a3	-0.9012701
63	0xbf2129c6	-0.62954366
64	0x3e475801	0.19467165
65	0x3d8dac33	0.0691761
66	0x3da9fe38	0.083004415
67	0xbe9f8c63	-0.31161794
68	0xbdcc3ce6	-0.09972553
69	0x3f064f94	0.52465177
70	0x3ef6a429	0.4817212
71	0xbedc5bb1	-0.43038705
72	0x3ee71635	0.4513413
73	0xbcedc607	-0.02902509
74	0xbec1368b	-0.37736925
75	0xbe9f6886	-0.31134433
76	0x3f000330	0.50004864
77	0xbcc53d53	-0.024077093
78	0xbefc468c	-0.49272573
79	0xbf3b31d0	-0.7312288
80	0xbf5adb4d	-0.85490876
81	0xbe8f9338	-0.28042006
82	0xbe669d41	-0.22520925
83	0xbf16bcd6	-0.5888189
84	0xbdb84ff0	-0.08999622
85	0x3f047283	0.5173723
86	0xbe991bb2	-0.29903942
87	0x3d20d68c	0.039267108
88	0x3ed1aeb6	0.40953606
89	0x3f0bd9fb	0.54629487
90	0xbf5d019a	-0.8633057
91	0x3d444fd1	0.04792768
92	0x3e786639	0.24257745
93	0x3c6affda	0.014343226
94	0x3c4b1962	0.012396188
95	0x3ee133e5	0.43984905
96	0x3ee733b2	0.45156628
97	0x3e37d007	0.1795045
98	0x3b9befbd	0.0047588036
99	0x3e82b69b	0.25529942
100	0xbde4fbe7	-0.11180859
101	0xbea6a957	-0.3255107
102	0x3e752ba7	0.23942433
103	0x3eca9544	0.39567006
104	0xbf229275	-0.63504726
105	0xbd9500f5	-0.07275573
106	0xbeaf55c7	-0.3424513
107	0xbefe286a	-0.49640208
108	0xbd9dff3e	-0.07714699
109	0x3e706d96	0.23479304
110	0xbe59306e	-0.2120988
111	0xbcb47e12	-0.022032771
112	0x3e196b3d	0.14982314
113	0x3f0f0494	0.5586636
114	0xbe291bbc	-0.16514486
115	0x3c6d1392	0.014469998
116	0x3e9e7b8d	0.30953637
117	0x3e58d082	0.2117329
118	0xbea2610b	-0.31714663
119	0x3e40af72	0.18816927
120	0xbec4a64c	-0.38408124
121	0x3e589748	0.21151459
122	0xbefb6a0b	-0.49104342
123	0x3f03b184	0.5144274
124	0xbefe9f7a	-0.49731046
125	0xbf2975e2	-0.661955
126	0x3e761cad	0.24034376
127	0x3f3f58a8	0.74744654
128	0x3ea6164a	0.3243888
129	0x3e7c7cb7	0.2465695
130	0x3e564bba	0.20927325
131	0xbd6ff7c5	-0.0585859
132	0xbeb3d8e9	-0.35126427
133	0x3da85c0c	0.082206815
134	0x3f5d2a95	0.863931
135	0xbf3dec15	-0.7418836
136	0x3ef5e1de	0.48023885
137	0x3e607fdd	0.21923776
138	0x3c957485	0.018244037
139	0xbeb904bd	-0.36136428
140	0xbf089947	-0.5335888
141	0x3e420dff	0.18950652
142	0xbebf1542	-0.37320906
143	0xbd5b3cc6	-0.053524755
144	0xbea7d8b9	-0.32782534
145	0x3dc3b7fd	0.09556577
146	0x3b2f6f54	0.0026769238
147	0x3dfa4cc3	0.122216724
148	0x3dded42f	0.108803146
149	0xbdcaee55	-0.099087395
150	0x3ef9351c	0.48673332
151	0xbf5c2426	-0.8599266
152	0xbcb2f5ad	-0.021845663
153	0x3e96baf7	0.29439518
154	0xbedec675	-0.43510786
155	0x3ee40853	0.445376
156	0x3f415165	0.75514823
157	0x3ece9581	0.40348437
158	0x3f110783	0.56652087
159	0xbde53eb9	-0.11193604
160	0x3cf7fc1a	0.030271579
161	0xbd4bbbf9	-0.04973981
162	0xbf44ef21	-0.7692738
163	0x3edbcbb7	0.4292886
164	0x3f014dd0	0.5050936
165	0xbe4d4cc5	-0.20048817
166	0xbd8ab031	-0.06771887
167	0xbf2a8c47	-0.66620296
168	0x3e8d33ab	0.27578482
169	0x3f0f32b2	0.5593673
170	0x3e3d6d73	0.18498783
171	0x3dfb29d8	0.122638404
172	0xbde8fc3d	-0.11376236
173	0xbeef0639	-0.46684435
174	0x3dd48bbc	0.10378215
175	0x3e4b0f17	0.19829975
176	0x3e540bae	0.2070758
177	0xbec24e66	-0.37950438
178	0x3e570c2b	0.21000735
179	0xbf6b9e1a	-0.9203812
180	0x3e194114	0.14966232
181	0xbec2e4bf	-0.38065144
182	0x3edc2cdd	0.43002978
183	0x3d25f2fb	0.040514927
184	0x3efbcc86	0.49179476
185	0x3db3a40b	0.08771523
186	0xbdee4c65	-0.11635665
187	0x3ee22a4e	0.441729
188	0x3e222c7c	0.15837282
189	0x3f27194f	0.6527299
190	0x3ed601bc	0.41798198
191	0x3e720e2c	0.23638219
192	0x3cc2deb3	0.023787832
193	0x3c108845	0.008821552
194	0xbefb0fa9	-0.49035385
195	0x3efc2ea7	0.49254343
196	0xbebd48fa	-0.3696974
197	0x3e8682b0	0.26271582
198	0xbeb8d3e5	-0.36099163
199	0xbdf08c0c	-0.11745462
200	0xbebcfa94	-0.36909926
201	0xbe02212c	-0.12707967
202	0x3ce34c8e	0.027746465
203	0xbf2932e1	-0.6609326
204	0x3e5ba5ca	0.21449962
205	0xbf0888d5	-0.5333379
206	0x3f29b227	0.66287464
207	0x3e45cf5a	0.1931738
208	0x3ec2a233	0.38014373
209	0x3f06f44d	0.52716523
210	0xbedb92bf	-0.42885396
211	0xbe467ce2	-0.19383577
212	0x3db48405	0.08814243
213	0x3ea442de	0.32082266
214	0x3f126251	0.5718127
215	0xbf378427	-0.71686023
216	0x3e1e0c20	0.15434313
217	0x3df4b0aa	0.119477585
218	0xbf055619	-0.520845
219	0xbe999b4d	-0.30001298
220	0xbe8a6058	-0.2702663
221	0x3b5d216e	0.003374185
222	0xbf3e88b6	-0.74427354
223	0xbf857e9b	-1.0429262
224	0xbd82e66b	-0.06391605
225	0x3ef5ad00	0.4798355
226	0x3f262bea	0.6491076
227	0xbe93c69d	-0.28862467
228	0x3f0d2dcc	0.55148005
229	0xbf1840e8	-0.5947404
230	0xb96822d7	-0.00022138223
231	0x3ced602b	0.02897652
232	0x3ef8bba0	0.48580647
233	0xbf1d57cf	-0.6146211
234	0xbecc3ada	-0.3988865
235	0xbc8b976f	-0.017039983
236	0x3f244a5f	0.6417598
237	0xbc958d00	-0.01825571
238	0xbe48d94c	-0.19614142
239	0xbb4f0587	-0.0031588988
240	0xbf15be29	-0.58493286
241	0xbf60e15d	-0.8784388
242	0xbe938dbf	-0.2881908
243	0x3f69cb0a	0.9132544
244	0xbdc2073a	-0.094740346
245	0xb9f4e591	-0.00046710347
246	0x3e0eaa83	0.13932233
247	0xbec8d480	-0.39224625
248	0xbcca85b3	-0.024721956
249	0x3f270343	0.6523935
250	0x3e14534e	0.14484903
251	0x3ce91ecf	0.028457073
252	0x3f376e6a	0.71652853
253	0xbf00feb0	-0.5038862
254	0x3da685f4	0.08131018
255	0xbe83565a	-0.2565182

network_body._body_endoder.seq_layers.0.bias f4 [128]
0	0x38ff9148	0.00012186408
1	0xb8b8bbb9	-8.80877e-05
2	0x3aa87541	0.0012852327
3	0x38b7bffd	8.7618806e-05
4	0xbabc8582	-0.001438305
5	0xb59966c8	-1.1429302e-06
6	0xb9753ca2	-0.00023387608
7	0xb8fed8dc	-0.00012152057
8	0xbaa03a03	-0.001222432
9	0xbb24c0ec	-0.0025139404
10	0xb9fcad6f	-0.00048194404
11	0xb9418d64	-0.00018458586
12	0xba0c3085	-0.0005347806
13	0xbaccdb42	-0.0015629309
14	0xb9aab0ab	-0.00032556555
15	0xba59cd1d	-0.00083084573
16	0xb864d42c	-5.4557036e-05
17	0xb942ba03	-0.00018570577
18	0x39673b22	0.00022051905
19	0x3a871fbb	0.0010309139
20	0xb8414414	-4.607819e-05
21	0xba865a62	-0.0010250325
22	0xb9839404	-0.00025096547
23	0xba105e42	-0.00055072096
24	0xb9ca3b10	-0.00038572447
25	0xb8e02960	-0.00010688859
26	0x37f95e91	2.9727149e-05
27	0xb97201db	-0.0002307961
28	0xb9730188	-0.00023174856
29	0x3a2c8363	0.00065808574
30	0xba144205	-0.00056555896
31	0xba895b26	-0.0010479435
32	0xb8b8458e	-8.786759e-05
33	0xb9543f34	-0.0002024144
34	0x398e1cd8	0.0002710584
35	0x38939040	7.036375e-05
36	0x3987816d	0.00025845636
37	0xbb23952c	-0.002496074
38	0xb981661b	-0.00024680872
39	0xb9fa833a	-0.00047781487
40	0xba4e3ce7	-0.00078673515
41	0xb85e55b0	-5.3008727e-05
42	0xba299064	-0.0006468354
43	0xb9a48392	-0.00031378545
44	0x3918bb69	0.00014565665
45	0x39a7cc2f	0.0003200485
46	0xba1a24c0	-0.000588011
47	0x374d25b6	1.2227732e-05
48	0x39c017be	0.00036638783
49	0xb99fe72a	-0.00030499074
50	0xba19d5de	-0.00058683555
51	0xb9aef7c2	-0.0003337246
52	0x39855c5a	0.00025436544
53	0x37c2e8f7	2.3235085e-05
54	0xb93f0e3b	-0.0001822048
55	0xba75829c	-0.00093654706
56	0xb9ee7c88	-0.0004548768
57	0x38d71d7e	0.00010257492
58	0x37b83680	2.1959888e-05
59	0x38826f74	6.219643e-05
60	0xba469bd4	-0.0007576321
61	0x381e6b64	3.777015e-05
62	0xb8f503f8	-0.000116832496
63	0xb90cbb54	-0.00013421226
64	0x3a90e0ea	0.0011053358
65	0x39550010	0.00020313286
66	0xb9906552	-0.0002754131
67	0x39ab9506	0.00032726693
68	0x37b18850	2.116352e-05
69	0xb9fb338c	-0.00047912856
70	0x398c7ce6	0.00026795937
71	0xb9454be3	-0.00018815654
72	0xbaabe05f	-0.0013113132
73	0xba4d140a	-0.00078231154
74	0xb9913cfa	-0.00027701986
75	0xb7962075	-1.7896507e-05
76	0xbab0f653	-0.0013501145
77	0xb9c6f3c0	-0.0003794711
78	0xb82e78ba	-4.1597268e-05
79	0xb8b2ed67	-8.531921e-05
80	0xb937c49c	-0.00017525483
81	0x3a62bc01	0.00086492306
82	0x36df718c	6.6591365e-06
83	0x38992eb8	7.3043106e-05
84	0x390d6bbe	0.00013486945
85	0xbab46fb5	-0.0013766201
86	0xba42aa2e	-0.00074258714
87	0xba3a75bf	-0.00071128824
88	0xb8be0734	-9.061248e-05
89	0xb97f0f51	-0.00024324401
90	0xbaba3df6	-0.001420914
91	0xbb038143	-0.002006606
92	0x39053888	0.00012704928
93	0xbb0a3d7c	-0.0021093776
94	0xbac4736c	-0.0014988012
95	0x38b83da0	8.785282e-05
96	0x3a21a0df	0.0006165634
97	0xba0eeb2a	-0.00054519123
98	0x37c67813	2.3659353e-05
99	0xba1ffb28	-0.0006102794
100	0xbb1fba86	-0.0024372651
101	0x388bc12b	6.664017e-05
102	0xb9e1849c	-0.00043014146
103	0xbb0ae28d	-0.0021192164
104	0x38673113	5.5120396e-05
105	0x3a5767f4	0.00082170893
106	0x3a3c3575	0.00071795966
107	0x394fb3da	0.00019808058
108	0x39e5cbfc	0.00043830264
109	0xba072da3	-0.0005156642
110	0xb9f13748	-0.0004600829
111	0xb964b536	-0.00021811281
112	0xba5996ad	-0.00083003455
113	0xb9c4b860	-0.00037521403
114	0xba3e0571	-0.00072487356
115	0x39c5cf32	0.0003772914
116	0x3afa895b	0.0019114421
117	0xb9ecf0b6	-0.0004519277
118	0xb9d2ca63	-0.0004020511
119	0xb63332b4	-2.6702592e-06
120	0xb8c96190	-9.602599e-05
121	0x39e275b8	0.00043193786
122	0x3917d010	0.00014477991
123	0x366dfda0	3.5463381e-06
124	0x3915911e	0.00014263808
125	0xbafb1c06	-0.0019158132
126	0x3a0ac4ed	0.00052936265
127	0xb98b48c0	-0.0002656635

network_body._body_endoder.seq_layers.2.weight f4 [128, 128]
0	0x3c9340ad	0.017975176
1	0xbde03c8a	-0.10949047
2	0x3cbe62ea	0.023240525
3	0xbd838a35	-0.06422845
4	0x3cdf233a	0.027238477
5	0xbafee4ce	-0.0019446851
6	0xbc1ff75e	-0.009763567
7	0x3defee63	0.117153905
8	0x3d39a399	0.045322035
9	0x3c06584f	0.008199765
10	0x3c687366	0.014187669
11	0xbcd38988	-0.025822416
12	0x3d4bebf4	0.04978557
13	0xbd721bd5	-0.059108574
14	0xbe0cd71c	-0.13753933
15	0xbbae7257	-0.005323689
16	0xbd8ab5c7	-0.067729525
17	0x3c5b2f2a	0.013377944
18	0xbcc55424	-0.024087973
19	0xbe385a8c	-0.18003291
20	0xbdeb0789	-0.114760466
21	0x3bac7510	0.0052629784
22	0x3dd3555a	0.10319014
23	0xbd1fe491	-0.039036337
24	0x3da93a4e	0.08263074
25	0xbc8a152f	-0.016855804
26	0x3a96a8a6	0.0011494353
27	0xbcb4037b	-0.021974316
28	0x3ca18df2	0.019721005
29	0xbe3dcfbb	-0.18536274
30	0x3e1d1c73	0.15342884
31	0x3d06ce99	0.03291187
32	0xbd391b1b	-0.045191865
33	0xbd9f0696	-0.07764928
34	0x3c3f464c	0.011674475
35	0x3d509e38	0.05093214
36	0xbdb1d71b	-0.08683606
37	0x3e27a800	0.1637268
38	0xbd64cca5	-0.055859227
39	0x3e86ae7b	0.26304993
40	0x3d2206ae	0.03955715
41	0x3e54064c	0.20705527
42	0xbd944f91	-0.072417386
43	0xbc186938	-0.00930243
44	0x3c477e5f	0.012176125
45	0x3cea7c00	0.028623581
46	0xbdaa0c92	-0.08303179
47	0x3e283f3b	0.1643037
48	0x3db037bb	0.0860438
49	0xbbb26dd6	-0.0054452224
50	0xbd23ff6e	-0.04003852
51	0xbd76f5f7	-0.060293164
52	0xbc5eea17	-0.013605616
53	0xbc3f2b6d	-0.011668068
54	0x3d7ed00e	0.062210135
55	0xbded6975	-0.1159238
56	0x3da842a7	0.08215838
57	0xbc33a373	-0.010964262
58	0x3ddba383	0.10724547
59	0x3e09ed43	0.13469414
60	0x3d705aad	0.058680225
61	0xbc74b7a2	-0.01493636
62	0x3e1a0172	0.15039614
63	0x38f0a12e	0.00011474114
64	0x3d1eb50f	0.03874689
65	0xbe54f1f3	-0.20795421
66	0xbda48761	-0.08033634
67	0xbdd44f94	-0.10366741
68	0xbddeac84	-0.108727485
69	0x3dab7239	0.083713956
70	0x3d535140	0.051591158
71	0x3d1b20cd	0.03787308
72	0xbd273c63	-0.040829074
73	0x3db6c748	0.08924729
74	0xbd892093	-0.06695666
75	0x3c2ee727	0.010675228
76	0x3d14b76b	0.036307734
77	0x3cf01501	0.02930689
78	0xbd4b97c2	-0.049705274
79	0xbcbf8529	-0.023378925
80	0x3d854c76	0.065087244
81	0x3d8240e4	0.06360033
82	0xbd2ad5e9	-0.041707907
83	0x3b4c6d50	0.0031193085
84	0x3d9efc2e	0.07762943
85	0xbd38bafd	-0.0451002
86	0x3e16a050	0.14709592
87	0x3cd0aedb	0.025474003
88	0xbda60006	-0.08105473
89	0xbce33ef5	-0.027739981
90	0xbce09cd6	-0.027418535
91	0x39f6929c	0.0004703001
92	0x3d9b1854	0.075729996
93	0x3dfa9403	0.12235262
94	0xbcaf6793	-0.021411693
95	0x3d55bc02	0.05218125
96	0xbda60869	-0.08107073
97	0xbdbe18ba	-0.0928206
98	0xbdc6f911	-0.097154744
99	0x3d96a81d	0.07356284
100	0xbd8e9f66	-0.069639966
101	0x3d90c86a	0.07069476
102	0xbdb1a9b8	-0.086749494
103	0xbdc88230	-0.09790456
104	0xbe4bbfb2	-0.19897345
105	0x3c83f3fd	0.016107554
106	0x3d0b4601	0.034002308
107	0x3cfc322d	0.030785644
108	0xbe0c87f8	-0.13723743
109	0x3c7673f1	0.015042291
110	0x3d0ac160	0.033875823
111	0x3de2deb2	0.11077632
112	0x3e2406fe	0.16018292
113	0x3dea5535	0.11442033
114	0xbc0d5b08	-0.008627661
115	0xbd067d65	-0.03283443
116	0x3d265037	0.040603843
117	0xbd45bd34	-0.04827614
118	0xbcaacd08	-0.02084972
119	0x3d9fd8d2	0.07805027
120	0xbd14069e	-0.036139123
121	0x3c3360ce	0.010948373
122	0xbd9c5a4a	-0.07634409
123	0xbb44bb78	-0.0030018967
124	0x3d1195ad	0.035543133
125	0x3bb8d431	0.0056405296
126	0xbd94ee5b	-0.07272025
127	0x3cf43387	0.029809726
128	0x3cad7c08	0.021177307
129	0xbe08a3b9	-0.13343705
130	0x3d9501e2	0.0727575
131	0x3e47a6cd	0.19497223
132	0xbdea42e8	-0.114385426
133	0x3d70f463	0.058826815
134	0x3d8cf745	0.068831004
135	0xbbdd8b85	-0.006761017
136	0xbdad1674	-0.08451548
137	0xbd15c2a3	-0.036562573
138	0x3ba79e80	0.00511533
139	0xbd95a818	-0.07307452
140	0x3d94c005	0.07263187
141	0x3d961b28	0.073293984
142	0x3e318198	0.17334592
143	0xbd29f965	-0.041497607
144	0xbd926a6d	-0.07149205
145	0xbda2d8e9	-0.079515286
146	0xbd59ac43	-0.053142797
147	0x3e037807	0.12838756
148	0x3c2ae5f3	0.010430801
149	0x3daee5ba	0.085399106
150	0xbe0f437b	-0.13990586
151	0xbd5ae6e2	-0.053442843
152	0x3e02c3d2	0.12770012
153	0x3cfff022	0.031242434
154	0xbd5c91c1	-0.05384994
155	0x3d48dbaa	0.049037613
156	0xbd418bae	-0.04725235
157	0x3da54bac	0.08071074
158	0xbdf0de30	-0.11761129
159	0x3de34753	0.110975884
160	0xbda53ada	-0.08067866
161	0x3e0b220f	0.13587211
162	0x3dde798d	0.10863028
163	0x3dd144d8	0.10218209
164	0xbd1d93e6	-0.038471125
165	0x3e0714ed	0.13191576
166	0x3c5b6566	0.0133908745
167	0x3d0add0b	0.03390221
168	0xbda0615a	-0.07831068
169	0x3e1dc230	0.15406108
170	0x3d8542b5	0.06506864
171	0xbc90ffff	-0.017700193
172	0xbdb47094	-0.08810535
173	0xbe229d7f	-0.15880392
174	0x3e055edb	0.13024466
175	0xbd528d1a	-0.051404096
176	0xbdd925df	-0.106029265
177	0xbc43c353	-0.011948424
178	0xbcd2922f	-0.025704471
179	0x3da4e0a5	0.0805066
180	0x3d97d68b	0.07413968
181	0x3d859427	0.065223984
182	0x3e123e9d	0.14281698
183	0xbe088eaa	-0.13335672
184	0x3da89f88	0.08233553
185	0x3dbe1b84	0.09282592
186	0x3d966357	0.07343166
187	0xbcfbee07	-0.030753149
188	0xbe33758a	-0.17525306
189	0xbdd51bef	-0.104057185
190	0xbd0c6add	-0.0342816
191	0xbd83a3a6	-0.06427698
192	0x3cd5441e	0.026033457
193	0x3c26b44c	0.010174822
194	0xbcd93c68	-0.026518062
195	0xbc0ec384	-0.008713607
196	0xbd01fa8d	-0.031733084
197	0x3c2764b8	0.010216884
198	0xbd4b98b2	-0.04970617
199	0xbd6deb8e	-0.05808597
200	0x3d78ef86	0.060775302
201	0x3d24f43b	0.04027198
202	0x3d7decaa	0.06199328
203	0xbb7a0d6e	-0.0038154977
204	0x3d40ca5c	0.047067985
205	0x3de17e09	0.110103674
206	0xbd91c3ea	-0.07117446
207	0xbdad8af8	-0.08473772
208	0x3cd9755b	0.026545217
209	0x3c8cb81f	0.01717764
210	0xbd36b739	-0.04460833
211	0x3bae5fac	0.0053214636
212	0xbe02a015	-0.12756379
213	0x3ba7e081	0.0051231985
214	0xbdb2cee5	-0.08730868
215	0xbd2ea9fc	-0.04264258
216	0xbc550e2a	-0.013003865
217	0x3d0f08b8	0.034920424
218	0x3d4ddb44	0.050257936
219	0x3d974458	0.073860824
220	0xbd5187cc	-0.051154897
221	0xbdcaf8e2	-0.09910752
222	0xbe1d2666	-0.15346679
223	0x3d1e2042	0.038604982
224	0xbe1a9ca0	-0.1509881
225	0xbcb60587	-0.022219433
226	0xbd8e411f	-0.069460146
227	0x3d9ce723	0.07661273
228	0xbd078949	-0.03308991
229	0x3c53e764	0.012933586
230	0x3db1f5dd	0.08689473
231	0x3ddf9624	0.10917309
232	0xbd497c4a	-0.049190797
233	0x3d8982f1	0.06714428
234	0x3d5c9005	0.053848285
235	0xbb2ffeab	-0.0026854675
236	0xbe1b5666	-0.15169677
237	0x3c960d81	0.018316986
238	0xbe09f990	-0.13474107
239	0x3e64ead6	0.22355208
240	0x3d9517e5	0.07279948
241	0x3d9bebc9	0.07613332
242	0x3d1bfe6d	0.038084436
243	0xbc1e193c	-0.009649571
244	0x3e4eff6c	0.20214623
245	0x3dcb5bc5	0.09929613
246	0xbd8be7e0	-0.06831336
247	0x3c45c95c	0.012071934
248	0x3cd016a2	0.025401417
249	0xbd0f2064	-0.034943
250	0xbc823c2a	-0.01589783
251	0x3c3f7ce0	0.011687487
252	0xbe0366eb	-0.12832229
253	0xbe10eaeb	-0.14152114
254	0x3e2959dc	0.16538185
255	0xbc8e1bc8	-0.017347232

network_body._body_endoder.seq_layers.2.bias f4 [128]
0	0xb94620b5	-0.00018894936
1	0xba409105	-0.00073458283
2	0x3987dbf8	0.00025913096
3	0x3b798e06	0.0038079037
4	0xba3dc87b	-0.0007239652
5	0xb8cf69b4	-9.890218e-05
6	0xb79a674f	-1.8406337e-05
7	0xba9a1cb4	-0.0011757822
8	0x37a512ff	1.9678379e-05
9	0xb9763599	-0.00023480355
10	0x39aefba5	0.00033375356
11	0xba4b20b4	-0.00077487086
12	0xba4f9ffb	-0.0007920262
13	0xb9229212	-0.0001550394
14	0xb9f15f51	-0.00046038118
15	0xb941154a	-0.00018413845
16	0xb8e2a1f9	-0.000108066895
17	0x39802dfd	0.00024448326
18	0xb78d015e	-1.6809146e-05
19	0xb8f8e6ae	-0.00011868529
20	0x3796bbb8	1.7968807e-05
21	0xba2585aa	-0.0006314168
22	0xb8db4fce	-0.000104575985
23	0xbb207d23	-0.002448865
24	0xb8da3519	-0.0001040494
25	0x37b03c14	2.1008811e-05
26	0xba91bc56	-0.001111875
27	0x3a22a1a0	0.00062038936
28	0xba5fac93	-0.00085324905
29	0xba160d30	-0.0005724011
30	0x39ec1af2	0.00045033504
31	0xb8895b1d	-6.54964e-05
32	0xb9f0aa9a	-0.00045903475
33	0xb948a368	-0.0001913436
34	0x3944386b	0.00018713034
35	0x3938ca97	0.00017623078
36	0xb877c330	-5.907117e-05
37	0xb95d754a	-0.00021119896
38	0x395e3120	0.0002118987
39	0xb8f3d88b	-0.00011627477
40	0xba30a3a4	-0.00067382515
41	0xb8a0650e	-7.6482174e-05
42	0xba943f83	-0.0011310432
43	0xb9c2067f	-0.00037007403
44	0x39029fd1	0.00012457302
45	0xb9150f56	-0.0001421546
46	0x3a5422bf	0.0008092336
47	0x39ac9af7	0.00032921854
48	0xb80e7171	-3.396109e-05
49	0x392cba5d	0.00016472624
50	0xb6661310	-3.4283767e-06
51	0x3923a09c	0.00015604723
52	0xb991a4d0	-0.0002777935
53	0xb97fe9d4	-0.00024405803
54	0xb96c2198	-0.00022519229
55	0xba1aabe5	-0.0005900248
56	0xbad35b5c	-0.001612525
57	0x37c5bed2	2.3573088e-05
58	0x389eb84d	7.568356e-05
59	0xb8b56536	-8.6496046e-05
60	0xb9330b64	-0.00017075014
61	0x3a1a49ec	0.0005885649
62	0xb9f32704	-0.0004637764
63	0x38239368	3.899951e-05
64	0x39cbd4f2	0.00038877834
65	0xba51d1cd	-0.000800398
66	0x3870beb8	5.739808e-05
67	0xb9f8b1e9	-0.000474348
68	0xb9d73a91	-0.0004105163
69	0xb986c4cb	-0.00025705094
70	0xb929aceb	-0.00016181513
71	0x398ba8b8	0.0002663785
72	0xb960f233	-0.00021452531
73	0xb97ca6e7	-0.00024094769
74	0x380f4b26	3.4163844e-05
75	0xb98a7842	-0.0002641101
76	0xba5a2961	-0.0008322206
77	0xba1a7c89	-0.0005893191
78	0xb97b1df3	-0.00023948382
79	0xb89ecf50	-7.572642e-05
80	0x3a00d030	0.0004913835
81	0x37e32328	2.707688e-05
82	0xb7832f8f	-1.5638563e-05
83	0x38e7bfbd	0.000110506524
84	0xb7fe92ec	-3.0347575e-05
85	0xb98cf479	-0.00026885027
86	0xb8a821d6	-8.017167e-05
87	0xb9abfcf2	-0.0003280412
88	0xb9175cd6	-0.00014435066
89	0xb93acccd	-0.00017814637
90	0x391c1680	0.00014885701
91	0xb895c500	-7.141568e-05
92	0xba031f61	-0.0005001929
93	0xb902974e	-0.00012454132
94	0xba12461e	-0.0005579906
95	0xb9c55eef	-0.000376455
96	0xba306776	-0.0006729284
97	0x383be840	4.4800574e-05
98	0xb768c296	-1.3873583e-05
99	0xb9768deb	-0.00023513257
100	0xba8fbd1e	-0.0010966395
101	0xbac6cbc3	-0.0015166927
102	0xb99ea498	-0.0003025874
103	0xb8b8cc49	-8.811855e-05
104	0xb97554ec	-0.00023396657
105	0xb8f0170d	-0.00011448385
106	0xb9e6b766	-0.0004400566
107	0xb7626ff1	-1.3496713e-05
108	0x3a7163de	0.0009208302
109	0xb9ac7bc1	-0.000328986
110	0x394569de	0.00018826823
111	0xb9135cb1	-0.00014053543
112	0xba035f59	-0.00050114613
113	0xb8ea2bf0	-0.000111661735
114	0xb92c5f91	-0.000164388
115	0xb7f434de	-2.9111685e-05
116	0xb8bc769c	-8.986631e-05
117	0xba715f6c	-0.00092076394
118	0x392e0ca4	0.00016598642
119	0xb9d465d0	-0.00040511647
120	0xb9c8ba93	-0.0003828598
121	0xbb099400	-0.0020992756
122	0x39dce034	0.00042128714
123	0xb836c09f	-4.3571574e-05
124	0x3a0c15de	0.00053438346
125	0xb9c9929a	-0.00038446934
126	0x39f4ad64	0.00046668493
127	0xb975ef1a	-0.00023454093

action_model._continuous_distribution.log_sigma f4 [1, 2]
0	0x3b14c96c	0.0022703065
1	0xbaaaf600	-0.0013043284

action_model._continuous_distribution.mu.weight f4 [2, 128]
0	0xbcfa9f2c	-0.030593477
1	0x3c44523e	0.011982499
2	0x3c7e0b43	0.015505615
3	0x3cc3c288	0.02389647
4	0xbd204b65	-0.0391344
5	0xbba8ec3b	-0.005155114
6	0x3d278905	0.040902156
7	0x3acb0625	0.0015489502
8	0x3d165a0b	0.036706965
9	0x3c9cee32	0.01915655
10	0x3be8c266	0.007103252
11	0xb99c1535	-0.0002977044
12	0x3cfc8d1d	0.030829007
13	0xbc35aa9a	-0.011088038
14	0x3b34c791	0.002758477
15	0xbbb9de8c	-0.0056722816
16	0xbc148215	-0.009064217
17	0xbcd11d56	-0.025526684
18	0x3d071ea4	0.032988206
19	0xbc50ceeb	-0.012744646
20	0xbc11f5c9	-0.008908697
21	0xbb3dae0d	-0.0028942854
22	0xbd249482	-0.04018069
23	0x3610dec8	2.1587348e-06
24	0xbc4eecac	-0.012629669
25	0xbd0c6657	-0.034277286
26	0xbc36895d	-0.011141148
27	0x3cd2fb53	0.025754606
28	0x3c058aeb	0.008150796
29	0xbbbad315	-0.0057014325
30	0x3ca2a2f9	0.019853102
31	0xbc404c91	-0.011737005
32	0x3a7dadf0	0.0009677103
33	0xbbbbf96a	-0.0057365196
34	0x3c3aaf83	0.011394384
35	0xbc464c47	-0.012103147
36	0xbc945a9a	-0.018109608
37	0xbcfa7038	-0.030571088
38	0xbc193af6	-0.009352436
39	0x3c6dde5f	0.014518349
40	0xbce5a313	-0.028031861
41	0xbcd61d36	-0.026136976
42	0x3c44cbc0	0.012011468
43	0x3b9534c2	0.0045534084
44	0xbcb877db	-0.022518089
45	0xbbdf12ac	-0.006807646
46	0xbbab8b30	-0.0052350983
47	0x3aaf3c6d	0.0013369449
48	0x3c53249d	0.012887147
49	0x3b296bac	0.002585153
50	0x3c1bedae	0.0095171165
51	0x3cf4f16a	0.029900271
52	0xbbdbe6be	-0.006710856
53	0xbd07d89a	-0.03316555
54	0xbb223eac	-0.0024756594
55	0x3b600f9d	0.0034188994
56	0x3d005419	0.0313302
57	0xba05bffe	-0.00051021564
58	0x3d2a2051	0.041534726
59	0xbca6eaa2	-0.020375554
60	0xbcaa91c3	-0.020821458
61	0x3b7057bd	0.003667339
62	0xbc7391ca	-0.014866302
63	0x3d1827b8	0.037147254
64	0x3c1676ce	0.009183599
65	0xbb2adeb4	-0.0026072683
66	0x3b005b47	0.0019585656
67	0x3aad9832	0.001324421
68	0x3d124513	0.035710406
69	0xbc83a9be	-0.01607215
70	0x3bf40b92	0.0074476684
71	0xbd049b7a	-0.032374837
72	0xbc654761	-0.013994069
73	0x3c4acfc7	0.01237864
74	0xbcbc5381	-0.022989037
75	0x3c6ecdf4	0.01457547
76	0xbad00c0e	-0.0015872733
77	0xbc49bf0d	-0.012313616
78	0x3c572e05	0.0131335305
79	0x3c3d9619	0.011571431
80	0x3c8a1a30	0.01685819
81	0x3ccfc3c7	0.025361909
82	0xbb4c4bf1	-0.0031173194
83	0xbc0a60fd	-0.008445975
84	0xbd1aa080	-0.03775072
85	0xbb0dee2c	-0.0021656854
86	0xbc8f62d4	-0.01750318
87	0x3ca879f3	0.020565962
88	0xbb0ed20d	-0.002179268
89	0xbced47fe	-0.028964993
90	0xbb0119d8	-0.0019699242
91	0xbc59adbb	-0.0132860495
92	0xbb471a13	-0.0030380532
93	0xba806fb4	-0.0009798915
94	0x3a91f788	0.0011136392
95	0xbc933de5	-0.01797385
96	0xbc8c1c4b	-0.017103335
97	0xbbfa8f38	-0.0076464675
98	0xbcd58b2c	-0.026067339
99	0xb9c5df9b	-0.00037741367
100	0xbc98a413	-0.018632924
101	0xbd050619	-0.03247652
102	0x3d008277	0.03137442
103	0x3cc161f2	0.023606274
104	0x3ba1356d	0.004919699
105	0xbc7a166d	-0.015264136
106	0x3b73018d	0.0037079782
107	0xbc8db32f	-0.017297355
108	0xbc4ef05d	-0.012630549
109	0xb9cd7ce6	-0.00039193704
110	0xbc9beb2a	-0.019033033
111	0x3cd4724e	0.025933411
112	0x3c9b32b1	0.01894507
113	0xbc8082df	-0.015687404
114	0x3cac2199	0.021012114
115	0x3cc6ec0e	0.024282482
116	0xbc7a8995	-0.015291591
117	0x3b1e5c82	0.0024164026
118	0xbcf185e8	-0.029482797
119	0xbb5f6549	-0.003408747
120	0xbca17232	-0.019707773
121	0xbc556a8f	-0.013025894
122	0xbd1578b2	-0.036492057
123	0x3c764e74	0.015033353
124	0xbc54a8bd	-0.0129796835
125	0x3b8fd40e	0.0043892926
126	0x3a44485f	0.0007487591
127	0x3c3f2cd2	0.011668401
128	0xbcd0b376	-0.025476199
129	0x3d0b86bd	0.034064043
130	0xbc200bc2	-0.009768428
131	0x3d1926b1	0.037390415
132	0x3c951ef3	0.018203234
133	0x3c8c7262	0.017144386
134	0xb9256088	-0.00015771587
135	0x3c595bf8	0.013266556
136	0x3c484826	0.012224233
137	0x3cd64fa8	0.02616103
138	0x3b6b2626	0.0035880893
139	0x3c3a89b4	0.01138537
140	0x3c36428b	0.0111242635
141	0xbd321669	-0.043478403
142	0xbaab9aee	-0.0013092437
143	0xbc04f666	-0.008115387
144	0xbbf5d6be	-0.007502406
145	0x3cd8d8fe	0.026470657
146	0x3b2e0dff	0.0026558635
147	0xb9892338	-0.00026156916
148	0xbcc52c73	-0.024069047
149	0x3c39eb11	0.011347548
150	0x3bc97a20	0.0061485916
151	0xbccbac1c	-0.024862342
152	0xbbbb1210	-0.0057089403
153	0x3c09468d	0.008378637
154	0xbb85d826	-0.004084605
155	0x3c474317	0.012161992
156	0x3d4db6e7	0.050223257
157	0x3c22904c	0.009922098
158	0xbce43c77	-0.027860863
159	0x3c9b897f	0.018986462
160	0xbcb400dd	-0.021973068
161	0x3c247cf0	0.010039553
162	0x3ce9b608	0.028529182
163	0x3cea78bb	0.028622022
164	0x3ab4cbad	0.001379361
165	0x3cc13011	0.02358249
166	0xbd423756	-0.047416054
167	0xbb9a42b2	-0.0047076577
168	0x3d272736	0.04080888
169	0x3c9c9221	0.019112648
170	0x3cc97776	0.024593096
171	0x3d28e2f1	0.041232053
172	0x3c531b98	0.012884997
173	0xbc82224a	-0.01588549
174	0xbc8868d0	-0.016651541
175	0xbc9c926b	-0.019112786
176	0x3c2dd3aa	0.010609547
177	0xbb0cc53c	-0.0021479866
178	0x3ba076a6	0.0048969565
179	0x3cdfa1a7	0.027298762
180	0x3b81beff	0.003959536
181	0xbcc02d51	-0.023459109
182	0x3b3263ab	0.0027220051
183	0xbcafbfa1	-0.02145368
184	0x3cfbb16a	0.030724246
185	0x3ca681a9	0.020325499
186	0xbce103c9	-0.027467625
187	0xbbb6fc36	-0.005584265
188	0xbceb8596	-0.028750222
189	0xbc8a8112	-0.016907249
190	0x3c8962a9	0.016770678
191	0x3b5e0b86	0.003388138
192	0xbc99ad8d	-0.018759513
193	0xbb28bf83	-0.0025748916
194	0xbc5634a8	-0.013074078
195	0xbaf330e4	-0.0018553999
196	0xbd41b78d	-0.04729419
197	0xbc8844f4	-0.016634442
198	0x3c3dc25c	0.011581983
199	0x3c350c5a	0.011050308
200	0x3af06ba4	0.0018342626
201	0x3c22adfc	0.009929176
202	0x3c76c471	0.015061484
203	0x3b8f289a	0.0043688538
204	0x3a1824b6	0.000580381
205	0xbc93e5be	-0.018053886
206	0x3d108e5e	0.035292022
207	0xbd0fb9dc	-0.03508936
208	0x3bf7f554	0.007567087
209	0x3c72c2f2	0.014816986
210	0xbb8eaf12	-0.004354366
211	0xbcd7e233	-0.026352977
212	0x3c026881	0.007959486
213	0xbb9daa5b	-0.0048115677
214	0x3bfa0df0	0.007631056
215	0x3d0402d6	0.032229267
216	0xbbceaeaa	-0.0063074427
217	0xbcccabcf	-0.024984268
218	0xbc8a4a47	-0.016881121
219	0x3bd87d39	0.0066067246
220	0x3c8a8cc9	0.016912835
221	0x3cabc485	0.020967731
222	0xbaefead0	-0.0018304233
223	0xbcabefb6	-0.020988327
224	0x3cb46b48	0.022023812
225	0x3c63c3af	0.013901635
226	0xbc7b96c1	-0.015355767
227	0x3c82f011	0.015983613
228	0x3adee279	0.001700475
229	0xbd0c07f2	-0.034187265
230	0xbcb11163	-0.021614736
231	0x3b851e42	0.004062445
232	0xbd0069fa	-0.031351067
233	0x3b623155	0.0034514267
234	0xbd3505d2	-0.044195004
235	0xbb780c99	-0.0037849306
236	0xbc76e3f7	-0.0150689995
237	0xbb8afa3f	-0.0042412574
238	0xbcaea24b	-0.021317622
239	0xbc48c36d	-0.012253624
240	0x3c4b1e55	0.012397368
241	0x3c8a2dd3	0.016867554
242	0xbb80e706	-0.00393379
243	0xbc8873d0	-0.016656786
244	0x3cc4e67c	0.024035685
245	0x3c9bf8e1	0.019039573
246	0xbd4bd6ed	-0.049765516
247	0x390771f5	0.00012917056
248	0x3c8029f8	0.015645012
249	0xbca6ed8a	-0.02037694
250	0xbcca6a95	-0.024709025
251	0xbca22743	-0.019794112
252	0xbc195e3f	-0.009360849
253	0x3bf17aa3	0.0073693558
254	0x3ba95b93	0.005168387
255	0x3aeabf0e	0.0017909722

action_model._continuous_distribution.mu.bias f4 [2]
0	0x379dda11	1.8817404e-05
1	0xb9564885	-0.00020435646

exp_avg f4 [128, 6]
0	0x3a0b6726	0.00053177995
1	0x38a84e7f	8.025485e-05
2	0xb84f0f80	-4.936708e-05
3	0x3a445858	0.0007489971
4	0x37f26b88	2.8898721e-05
5	0xba039ef4	-0.0005020939
6	0xba16a078	-0.00057459576
7	0x382a37e0	4.0583196e-05
8	0xb8046ce0	-3.157265e-05
9	0x38f5a6a0	0.00011713547
10	0x36ce6390	6.150869e-06
11	0xba6ae825	-0.0008960984
12	0xb9630ac8	-0.00021652423
13	0xb95e809a	-0.00021219478
14	0x39a550e8	0.00031531532
15	0x39900662	0.00027470576
16	0xb8a0b686	-7.663392e-05
17	0x39d7559b	0.00041071777
18	0xb9f10b0c	-0.00045975333
19	0x38cd836b	9.79964e-05
20	0x391cbad7	0.00014946923
21	0xb9090920	-0.00013068737
22	0xb7b4f746	-2.1572818e-05
23	0x37963010	1.7903774e-05
24	0x38f988b8	0.00011898711
25	0x396ea282	0.00022757988
26	0xb9bc2abf	-0.00035890003
27	0x3922e8bc	0.00015536224
28	0x37e1ec21	2.6932046e-05
29	0x393676b0	0.00017401087
30	0xbad12b6d	-0.0015958376
31	0x3727d520	1.0003598e-05
32	0xb5848c00	-9.875512e-07
33	0xba4ee583	-0.0007892476
34	0xb8032070	-3.1263044e-05
35	0xb90ea81e	-0.00013604804
36	0xbaffc727	-0.0019514308
37	0xb991a95a	-0.00027782732
38	0x3a412afb	0.00073687703
39	0xbaaf4d70	-0.0013374519
40	0xb88cdc0e	-6.7167086e-05
41	0xb8988e54	-7.2744355e-05
42	0x393af02b	0.00017827812
43	0xb97a363c	-0.00023862062
44	0x39b7ca74	0.0003505532
45	0xb8c7eb1e	-9.5328534e-05
46	0xb75e98f0	-1.326784e-05
47	0x38659c58	5.474346e-05
48	0x375a4970	1.3010911e-05
49	0x396871ce	0.0002216764
50	0xb9c6771e	-0.00037854252
51	0xb9a86391	-0.0003211764
52	0x385491de	5.0680588e-05
53	0xb7cfa6ea	-2.4754048e-05
54	0xb918a569	-0.0001455747
55	0x394de532	0.00019635705
56	0x385cacae	5.2612908e-05
57	0xb9203772	-0.00015279444
58	0x377214d2	1.4429172e-05
59	0x389d0973	7.4881034e-05
60	0xb700bdac	-7.673556e-06
61	0x3987bf4e	0.0002589174
62	0x38b1b7b4	8.474235e-05
63	0x397bf71c	0.00024029281
64	0x37a43b60	1.9577972e-05
65	0x39765c8e	0.00023494867
66	0x3a133944	0.0005616138
67	0x39a13db4	0.00030754285
68	0xb78dc540	-1.6900362e-05
69	0x3a5e5d0e	0.0008482494
70	0x377b88e8	1.4992642e-05
71	0x39e9b24e	0.0004457407
72	0x3b4c9041	0.0031213912
73	0x398c71e5	0.0002678774
74	0xba8b08c0	-0.0010607466
75	0x3afc2b5b	0.0019238995
76	0x38f84382	0.00011838136
77	0x39489bca	0.00019131522
78	0x39b14f7b	0.00033819288
79	0x38bb216f	8.923082e-05
80	0xba7353f5	-0.0009282225
81	0x38e065d4	0.00010700119
82	0x3800791c	3.063037e-05
83	0xba425870	-0.0007413691
84	0x3a9a1a8c	0.0011757179
85	0xb799c012	-1.8328461e-05
86	0xb8b26f04	-8.50838e-05
87	0x39e1c2c8	0.00043060468
88	0x385bb390	5.23809e-05
89	0x3a1584be	0.0005703679
90	0xb8d746e2	-0.00010265202
91	0x3889c118	6.5686356e-05
92	0xb78a9048	-1.6518068e-05
93	0xb8942d07	-7.065577e-05
94	0x36e0954e	6.6931016e-06
95	0x38b82ee0	8.782535e-05
96	0x3a8aac02	0.0010579827
97	0xb908b7d0	-0.00013038446
98	0xb9463f40	-0.00018906314
99	0x39b3e164	0.0003430947
100	0xb7abba98	-2.0471678e-05
101	0x3aced90c	0.0015781238
102	0xbab90dfc	-0.0014118548
103	0xb93e5749	-0.00018152328
104	0x39a38920	0.0003119195
105	0xba8af588	-0.0010601738
106	0xb8855385	-6.357491e-05
107	0xba10c7a4	-0.0005522913
108	0x3a2fdb25	0.00067083753
109	0x39455d5e	0.00018822166
110	0xb95df2d0	-0.00021166657
111	0x3a532688	0.0008054753
112	0x37f9f764	2.9798313e-05
113	0x38d89c1e	0.00010328762
114	0xb9e26334	-0.0004317999
115	0x399329e5	0.0002806924
116	0x39aa9a3a	0.00032539835
117	0xb92ee6d2	-0.0001667992
118	0x3783f406	1.573005e-05
119	0xb7a177b2	-1.9248433e-05
120	0xba0822a1	-0.00051931484
121	0xb8a6dcc8	-7.9566205e-05
122	0x3a1538c3	0.0005692357
123	0xb984da2e	-0.00025339558
124	0xb7efd978	-2.8592287e-05
125	0x3a2816de	0.0006412099
126	0xb9001dd9	-0.0001221815
127	0x3905aa8b	0.000127474
128	0x39464dc9	0.00018911729
129	0xb7ea4d39	-2.7930933e-05
130	0x370852b8	8.125491e-06
131	0xb970d8df	-0.00022968974
132	0x39a8e7d9	0.00032216197
133	0x375c6ce0	1.3138371e-05
134	0xb9800676	-0.00024418876
135	0xb86b2fbf	-5.6072833e-05
136	0xb641db1e	-2.8886784e-06
137	0xb7884861	-1.6246167e-05
138	0x37a55ac0	1.9711792e-05
139	0x3963fa00	0.00021741539
140	0xb8c43180	-9.3552284e-05
141	0xb92237b4	-0.00015470275
142	0x38148b71	3.5415815e-05
143	0x3a20e156	0.00061370933
144	0xb9f583b8	-0.0004682818
145	0x39112712	0.00013842832
146	0x39b5208e	0.00034547265
147	0x381f4b54	3.797871e-05
148	0x37d6a0a0	2.5585585e-05
149	0xb9869494	-0.0002566917
150	0xba28270a	-0.00064145087
151	0xb88f62ed	-6.837198e-05
152	0x39c60dc4	0.0003777576
153	0xb8d9de2c	-0.00010388749
154	0xb81cd6d4	-3.7393373e-05
155	0xb8a48570	-7.844984e-05
156	0xba78d8a1	-0.00094927294
157	0xb8203e2a	-3.8204867e-05
158	0x39973776	0.00028842286
159	0xba0c787d	-0.00053585303
160	0xb8379ffe	-4.3779604e-05
161	0x398c0d43	0.00026712762
162	0xb940ba3c	-0.00018379925
163	0xb6ff24c0	-7.6038705e-06
164	0xb83004e0	-4.196621e-05
165	0x3920095c	0.00015262276
166	0x37db619f	2.6152293e-05
167	0xba582123	-0.0008244684
168	0x3afee974	0.0019448237
169	0x39be9c54	0.00036356098
170	0xb90f72cc	-0.00013680308
171	0x3aa2c229	0.0012417483
172	0x384e0587	4.9119375e-05
173	0x3a10ccae	0.0005523664
174	0x39413bde	0.00018428217
175	0x390df214	0.00013536989
176	0x38e0ac4e	0.000107132466
177	0x38f74d7c	0.000117923104
178	0x371cea36	9.352856e-06
179	0xb9098058	-0.0001311315
180	0xba6083ad	-0.0008564543
181	0xb891286a	-6.9216665e-05
182	0xb88881f4	-6.509191e-05
183	0xba43ab12	-0.0007464151
184	0xb8084f56	-3.2498814e-05
185	0xb8f085ff	-0.000114690505
186	0x3a98242a	0.0011607457
187	0x39adbc6e	0.00033137522
188	0xb992a38a	-0.00027969136
189	0x3a86b504	0.0010277336
190	0x388f7dc8	6.8422e-05
191	0xb8c335f0	-9.308371e-05
192	0x3aa0eecf	0.0012278202
193	0x393d8e1c	0.00018077384
194	0xb9a43db6	-0.00031326496
195	0x3a737fac	0.0009288739
196	0x3823f4b3	3.9090122e-05
197	0x38f176a8	0.00011513877
198	0xb8d62d80	-0.0001021279
199	0x37d7a958	2.5708854e-05
200	0xb94bd500	-0.00019438937
201	0xb8666e80	-5.4939184e-05
202	0x364d0d60	3.0555166e-06
203	0x38ad9df0	8.278701e-05
204	0x398180bd	0.00024700715
205	0xb7cdd6a2	-2.453785e-05
206	0x393c1df7	0.0001794024
207	0x3a099b16	0.0005249245
208	0xb65a3354	-3.2514408e-06
209	0xb97f566c	-0.0002435089
210	0x391bd754	0.00014862168
211	0xb8ab7b58	-8.17689e-05
212	0x3a31ea96	0.000678697
213	0x3966e238	0.00022018782
214	0xb786427b	-1.6005002e-05
215	0x3985102c	0.00025379786
216	0x37bba580	2.2369204e-05
217	0xb8edabb2	-0.000113330214
218	0x396560d8	0.00021875219
219	0x38f382c5	0.00011611501
220	0xb7df4c64	-2.6619244e-05
221	0x38fd8054	0.00012087883
222	0x398fb17b	0.0002740732
223	0xb78803be	-1.6214206e-05
224	0xb8580bd2	-5.150942e-05
225	0x39609fd2	0.00021421842
226	0x36c7bfe2	5.9530003e-06
227	0x3917aad7	0.00014464125
228	0xb903d123	-0.00012571043
229	0x38d40fd9	0.000101118996
230	0x3a2254c5	0.0006192441
231	0x38fd0134	0.00012064204
232	0x36fcc850	7.5335047e-06
233	0xb9c5c402	-0.00037720805
234	0x398663f8	0.00025632954
235	0xb90043ef	-0.00012232338
236	0xb6b1bc20	-5.2969117e-06
237	0x391c145a	0.00014884901
238	0x370506e1	7.929019e-06
239	0xb9a1e1a3	-0.00030876425
240	0x3b0f236e	0.0021841186
241	0x38bc621e	8.982814e-05
242	0xba8fe946	-0.0010979555
243	0x3ab37b98	0.001369345
244	0x38935a0d	7.0262795e-05
245	0xb9a8ceda	-0.00032197573
246	0xba83490e	-0.0010016279
247	0xb87b851c	-5.996703e-05
248	0xb9efd8b8	-0.000457471
249	0xb9d16e0c	-0.00039945578
250	0xb7cd3ee4	-2.446719e-05
251	0xba6f616a	-0.00091316423
252	0x3b99740f	0.0046830247
253	0x3958be8b	0.00020670348
254	0xbafefc82	-0.0019453915
255	0x3b262682	0.0025352542

exp_avg_sq f4 [128, 6]
0	0x379adfe8	1.8462495e-05
1	0x339665a6	7.003409e-08
2	0x36fc3b73	7.517106e-06
3	0x36c99e35	6.0086845e-06
4	0x32e8f8ed	2.7121553e-08
5	0x3630968f	2.631368e-06
6	0x374454fc	1.1702297e-05
7	0x33b9e6d8	8.656724e-08
8	0x3662349a	3.3707242e-06
9	0x36a53b0b	4.9242567e-06
10	0x326caddc	1.3776539e-08
11	0x352a65f1	6.347828e-07
12	0x34314548	1.6509614e-07
13	0x3436b0df	1.7014416e-07
14	0x33f488f9	1.13870506e-07
15	0x33e1d2dd	1.0515735e-07
16	0x31994e9d	4.4618234e-09
17	0x3457f2bc	2.0111742e-07
18	0x374c5947	1.2180134e-05
19	0x34861dc4	2.4981102e-07
20	0x33dd239b	1.0297591e-07
21	0x369e703e	4.7218336e-06
22	0x32a569f7	1.9256715e-08
23	0x34eb1a6f	4.3791394e-07
24	0x357477b5	9.107128e-07
25	0x325c5375	1.2824661e-08
26	0x34b605be	3.390432e-07
27	0x34f8b840	4.632766e-07
28	0x3096008e	1.0914094e-09
29	0x33ee8658	1.11071756e-07
30	0x370c76f9	8.372351e-06
31	0x33be3219	8.856677e-08
32	0x33942ddf	6.900131e-08
33	0x363cc7ac	2.8130407e-06
34	0x32618dda	1.3128977e-08
35	0x351adf91	5.76948e-07
36	0x367b01c5	3.7402945e-06
37	0x3301b71c	3.020169e-08
38	0x35e35d34	1.6939944e-06
39	0x35c7ae59	1.4877397e-06
40	0x319a9307	4.498705e-09
41	0x353f4024	7.124638e-07
42	0x33e5a97a	1.0694471e-07
43	0x32a5f757	1.9321005e-08
44	0x34a37b44	3.0450803e-07
45	0x334bd6ad	4.7459867e-08
46	0x30495eee	7.3258277e-10
47	0x3487bdc0	2.528377e-07
48	0x345b1af8	2.0405776e-07
49	0x33fd29d6	1.17888405e-07
50	0x339ad92c	7.210687e-08
51	0x336c9788	5.508585e-08
52	0x30eb3ce9	1.7115812e-09
53	0x3367212a	5.381404e-08
54	0x31e92282	6.7851156e-09
55	0x31b5b5bd	5.2884546e-09
56	0x3176800c	3.5870498e-09
57	0x318a418a	4.0237795e-09
58	0x2ef3d247	1.10877134e-10
59	0x3140d181	2.8058766e-09
60	0x350b8b16	5.198393e-07
61	0x32c8d7d3	2.338121e-08
62	0x361d6951	2.3456125e-06
63	0x341d34da	1.4640992e-07
64	0x312f8ea2	2.554693e-09
65	0x35862f9f	9.997638e-07
66	0x36d5d41d	6.372588e-06
67	0x33c5ebc6	9.216414e-08
68	0x3723ec3c	9.77056e-06
69	0x35f145ad	1.7976178e-06
70	0x3278d808	1.448462e-08
71	0x3658c290	3.2299758e-06
72	0x36f07d2f	7.1671307e-06
73	0x32e475a3	2.6596188e-08
74	0x35e77fe8	1.7248067e-06
75	0x3662bb9b	3.3785825e-06
76	0x31f02264	6.988829e-09
77	0x35c733df	1.4841752e-06
78	0x35043bf9	4.9261104e-07
79	0x317462b0	3.556277e-09
80	0x35a3655a	1.2173944e-06
81	0x3468a03f	2.1664981e-07
82	0x30a6715c	1.2110308e-09
83	0x3504e604	4.950855e-07
84	0x35b9ecc0	1.3852477e-06
85	0x32d31dc8	2.4577176e-08
86	0x33f40145	1.1362366e-07
87	0x351d227e	5.853725e-07
88	0x31a96cef	4.9309317e-09
89	0x345f0626	2.077073e-07
90	0x333a088a	4.3314266e-08
91	0x327c214f	1.4675904e-08
92	0x320d08df	8.209297e-09
93	0x318796f1	3.946177e-09
94	0x2efc0c4b	1.1461817e-10
95	0x31e4a9bf	6.6549712e-09
96	0x38025cf3	3.108098e-05
97	0x34c038a8	3.580401e-07
98	0x37a43e3a	1.95793e-05
99	0x3725ae62	9.875368e-06
100	0x336b099e	5.4723948e-08
101	0x36a8819a	5.0218778e-06
102	0x37022e9c	7.759456e-06
103	0x331530a2	3.4735997e-08
104	0x36b39922	5.3524427e-06
105	0x362e05de	2.5931436e-06
106	0x3234b05d	1.0517479e-08
107	0x3609dea6	2.054419e-06
108	0x354beab5	7.5964937e-07
109	0x34447a03	1.829831e-07
110	0x33e0337b	1.0440177e-07
111	0x34ac6147	3.2108275e-07
112	0x310ec3ec	2.0775088e-09
113	0x3360ffea	5.2386817e-08
114	0x339d7ecc	7.3339464e-08
115	0x3331e505	4.1419316e-08
116	0x330503e3	3.097001e-08
117	0x32cb0109	2.3632781e-08
118	0x2f574af5	1.9580766e-10
119	0x32a3990b	1.9045293e-08
120	0x3610ca0f	2.1575286e-06
121	0x333140a0	4.12698e-08
122	0x369c3573	4.6553846e-06
123	0x35186479	5.677062e-07
124	0x31c969eb	5.8619114e-09
125	0x3624472b	2.447933e-06
126	0x34297cef	1.5784802e-07
127	0x328911bd	1.5956966e-08
128	0x3431a88a	1.6545724e-07
129	0x335af1cf	5.0977004e-08
130	0x2fb2af02	3.2502362e-10
131	0x33543cb4	4.9415306e-08
132	0x3462fc58	2.1139692e-07
133	0x3356eb1b	5.0039585e-08
134	0x339ad9b4	7.210784e-08
135	0x32ecf60c	2.7585905e-08
136	0x304f4e71	7.5417633e-10
137	0x33867c27	6.2624444e-08
138	0x36da4115	6.504483e-06
139	0x3316e87d	3.5136043e-08
140	0x35f2a68e	1.8078879e-06
141	0x360ae4c7	2.0696768e-06
142	0x32312867	1.0311942e-08
143	0x34ceb2b5	3.8500517e-07
144	0x34b54372	3.376295e-07
145	0x339708e1	7.0331005e-08
146	0x349bb85b	2.9005136e-07
147	0x32feb808	2.965318e-08
148	0x300b769a	5.073645e-10
149	0x341f2c04	1.4824042e-07
150	0x35da9fee	1.6288811e-06
151	0x3344dcca	4.5835613e-08
152	0x358a8c49	1.032263e-06
153	0x35497385	7.504644e-07
154	0x31859604	3.8878643e-09
155	0x354f886c	7.731203e-07
156	0x362953ea	2.5231807e-06
157	0x326f1940	1.3917372e-08
158	0x3512324d	5.4462436e-07
159	0x358153fe	9.635694e-07
160	0x315d3a23	3.219278e-09
161	0x3478a818	2.3157952e-07
162	0x357b0841	9.35168e-07
163	0x347bcc66	2.3450556e-07
164	0x346fc0e1	2.2328778e-07
165	0x33995bd6	7.1413226e-08
166	0x30a72dd5	1.2163875e-09
167	0x349a8d9f	2.8787778e-07
168	0x36d28bb8	6.274753e-06
169	0x344cb081	1.9063192e-07
170	0x36f4a6a5	7.2911666e-06
171	0x362919c1	2.5197953e-06
172	0x327dd64a	1.4775262e-08
173	0x366151bf	3.3575195e-06
174	0x3459de4d	2.0290572e-07
175	0x32c8b829	2.336681e-08
176	0x34c65b96	3.6947011e-07
177	0x33c6ae60	9.251812e-08
178	0x30037bee	4.7833637e-10
179	0x344fe0e5	1.9360193e-07
180	0x36424bc8	2.8952363e-06
181	0x31da10f7	6.3465637e-09
182	0x330e4c44	3.3131315e-08
183	0x359261ea	1.0906344e-06
184	0x31484238	2.9141471e-09
185	0x33a4a4a1	7.666791e-08
186	0x364d0334	3.0549245e-06
187	0x3316da58	3.512318e-08
188	0x3554c80b	7.9267255e-07
189	0x358d0ca0	1.0508993e-06
190	0x314344a4	2.8415252e-09
191	0x3457379b	2.0043665e-07
192	0x365778c2	3.2107787e-06
193	0x32cc16b4	2.375905e-08
194	0x35d23d24	1.5664014e-06
195	0x35a2e95f	1.213786e-06
196	0x31999599	4.4698933e-09
197	0x34f6817f	4.5915291e-07
198	0x36dd1f18	6.589933e-06
199	0x34010d31	1.201886e-07
200	0x37963caa	1.7909642e-05
201	0x35dc800e	1.6428546e-06
202	0x32b33d21	2.086614e-08
203	0x370f8262	8.553821e-06
204	0x362f328f	2.610646e-06
205	0x32dafd72	2.5493794e-08
206	0x338584b4	6.217434e-08
207	0x358fdf77	1.0719367e-06
208	0x3186f017	3.9272083e-09
209	0x33ba8870	8.686118e-08
210	0x363bb592	2.797086e-06
211	0x33ba1185	8.664487e-08
212	0x37625f71	1.3492871e-05
213	0x353cb8d4	7.030442e-07
214	0x32875af8	1.5757436e-08
215	0x36d71501	6.4099445e-06
216	0x3546ef26	7.4108755e-07
217	0x32871c90	1.5729057e-08
218	0x36030106	1.9521117e-06
219	0x344e1632	1.919332e-07
220	0x31554319	3.103372e-09
221	0x35775440	9.213727e-07
222	0x3434dbf3	1.6843823e-07
223	0x3292eb97	1.710377e-08
224	0x3376f44f	5.7498536e-08
225	0x323917a8	1.0773796e-08
226	0x2f0bfbb0	1.2731394e-10
227	0x32c2aa6d	2.2662073e-08
228	0x35a4786f	1.2254003e-06
229	0x328dc146	1.6502451e-08
230	0x3687d089	4.04759e-06
231	0x34f5e522	4.5801522e-07
232	0x31aca2c8	5.024365e-09
233	0x35ea44e7	1.7454412e-06
234	0x3482c3f4	2.4356962e-07
235	0x34236e70	1.5220735e-07
236	0x33eef93a	1.1128073e-07
237	0x32dedf84	2.5945845e-08
238	0x3008f814	4.982905e-10
239	0x3342cc30	4.5354852e-08
240	0x36604248	3.3417182e-06
241	0x328cf72a	1.6410542e-08
242	0x363e466f	2.8353204e-06
243	0x35af1558	1.3044728e-06
244	0x3182a724	3.8024996e-09
245	0x35a07254	1.1954203e-06
246	0x37234b82	9.733138e-06
247	0x3346b81c	4.6267914e-08
248	0x368b87f6	4.1583507e-06
249	0x367b1dbf	3.741923e-06
250	0x3228c96f	9.824688e-09
251	0x35a119c1	1.200293e-06
252	0x3817e453	3.621385e-05
253	0x3415b4bc	1.3942457e-07
254	0x36b4fe4e	5.394023e-06
255	0x37564ea4	1.2773704e-05

exp_avg f4 [128]
0	0x37f26b68	2.8898663e-05
1	0x36ce63b0	6.1508836e-06
2	0xb8a0b686	-7.663392e-05
3	0xb7b4f74c	-2.1572829e-05
4	0x37e1ec21	2.6932046e-05
5	0xb8032072	-3.126305e-05
6	0xb88cdc0e	-6.7167086e-05
7	0xb75e98f2	-1.32678415e-05
8	0x385491e1	5.06806e-05
9	0x377214d2	1.4429172e-05
10	0x37a43b64	1.957798e-05
11	0x377b88e8	1.4992642e-05
12	0x38f84381	0.00011838135
13	0x3800791a	3.0630363e-05
14	0x385bb394	5.2380914e-05
15	0x36e0954d	6.693101e-06
16	0xb7abbaa8	-2.0471707e-05
17	0xb8855383	-6.3574895e-05
18	0x37f9f75e	2.9798302e-05
19	0x3783f406	1.573005e-05
20	0xb7efd975	-2.8592282e-05
21	0x370852b6	8.125489e-06
22	0xb641db2e	-2.888682e-06
23	0x38148b6d	3.54158e-05
24	0x37d6a0a4	2.5585592e-05
25	0xb81cd6d6	-3.739338e-05
26	0xb8379ffc	-4.3779597e-05
27	0x37db61a3	2.61523e-05
28	0x384e058a	4.9119386e-05
29	0x371cea33	9.352853e-06
30	0xb8084f56	-3.2498814e-05
31	0x388f7dc8	6.8422e-05
32	0x3823f4b1	3.9090115e-05
33	0x364d0db0	3.0555348e-06
34	0xb65a334c	-3.251439e-06
35	0xb7864278	-1.6004997e-05
36	0xb7df4c63	-2.6619242e-05
37	0x36c7bfde	5.9529984e-06
38	0x36fcc860	7.533512e-06
39	0x370506e0	7.9290185e-06
40	0x38935a0c	7.026279e-05
41	0xb7cd3eec	-2.4467205e-05
42	0x3951c2ce	0.00020004364
43	0x3765eb80	1.3704295e-05
44	0x370b9380	8.319388e-06
45	0x375517d0	1.2701334e-05
46	0x375f183b	1.3297477e-05
47	0x37686c08	1.3853431e-05
48	0xb7f1b05f	-2.8811568e-05
49	0x3780660c	1.5306308e-05
50	0xb7a62dde	-1.98101e-05
51	0x3797c2ee	1.8091374e-05
52	0x38985879	7.264404e-05
53	0xb74dd08a	-1.22675065e-05
54	0x3847c3dc	4.7627705e-05
55	0xb76928b4	-1.3897359e-05
56	0xb5cfdc00	-1.548673e-06
57	0xb8615512	-5.372341e-05
58	0x38d4676c	0.000101282116
59	0xb7a28662	-1.9374482e-05
60	0x342df6c0	1.6201648e-07
61	0x3912ffe2	0.00014018969
62	0x3822c956	3.881132e-05
63	0x3809bb93	3.2838037e-05
64	0xb89b0fbb	-7.393906e-05
65	0x369aaa18	4.609359e-06
66	0xb71ccdb4	-9.346219e-06
67	0xb876e865	-5.8867405e-05
68	0x37e566a6	2.7346727e-05
69	0x3784d507	1.5834825e-05
70	0x37757006	1.46292205e-05
71	0x38460e8a	4.722042e-05
72	0x37fdc0f2	3.0249797e-05
73	0x3781a991	1.5456959e-05
74	0xb62dd840	-2.5904883e-06
75	0xb8ba1074	-8.872236e-05
76	0x37d27cc5	2.5092051e-05
77	0xb6224a0a	-2.4182978e-06
78	0x36c86cab	5.973115e-06
79	0x3718e1ba	9.112462e-06
80	0x37995c58	1.8282022e-05
81	0xb8a19e40	-7.7065546e-05
82	0x389522e6	7.111374e-05
83	0x382abe5e	4.070845e-05
84	0x38ac34e8	8.211454e-05
85	0x3845d460	4.716625e-05
86	0xb74302cc	-1.1623557e-05
87	0x37178f6d	9.033695e-06
88	0xb7f7952c	-2.9514158e-05
89	0x35e44f00	1.7010316e-06
90	0xb5ab723c	-1.2773739e-06
91	0x38070c90	3.2198208e-05
92	0xb82f8f7e	-4.185689e-05
93	0x379f969a	1.9024406e-05
94	0x382b6fb0	4.0873594e-05
95	0xb8131b04	-3.507269e-05
96	0x37b0cfae	2.1077543e-05
97	0x37f8d796	2.9664294e-05
98	0x3882dc7e	6.239953e-05
99	0x3759592c	1.295497e-05
100	0x370aaa88	8.265146e-06
101	0x37423a81	1.1576923e-05
102	0x383f0834	4.554559e-05
103	0x37283992	1.00269845e-05
104	0x37b22170	2.1234824e-05
105	0xb80483b8	-3.1593925e-05
106	0xb81c05f1	-3.719883e-05
107	0xb6dca35c	-6.5755285e-06
108	0xb794d25f	-1.7740937e-05
109	0xb6dc0d88	-6.558086e-06
110	0x377047d3	1.4321838e-05
111	0xb7e0da81	-2.680463e-05
112	0xb6c0a6ef	-5.7414795e-06
113	0x387847a1	5.9194517e-05
114	0x371cd458	9.347765e-06
115	0x37d3d3b6	2.5251746e-05
116	0xb790c01b	-1.7255594e-05
117	0x38aa6d96	8.126644e-05
118	0x36889500	4.0704617e-06
119	0x378fb7c0	1.7132494e-05
120	0xb8abe1f7	-8.196005e-05
121	0xb8d37b4a	-0.000100842284
122	0x36997f70	4.574591e-06
123	0x373407f4	1.0730688e-05
124	0xb7964a1c	-1.7915903e-05
125	0x37a8c0b4	2.0116895e-05
126	0xb805dcf6	-3.1915457e-05
127	0x3702fa3d	7.806867e-06

exp_avg_sq f4 [128]
0	0x32e8f8ed	2.7121553e-08
1	0x326cadda	1.3776537e-08
2	0x31994e9c	4.461823e-09
3	0x32a569f7	1.9256715e-08
4	0x3096008c	1.0914092e-09
5	0x32618ddb	1.3128978e-08
6	0x319a9307	4.498705e-09
7	0x30495eec	7.3258266e-10
8	0x30eb3cea	1.7115813e-09
9	0x2ef3d246	1.1087713e-10
10	0x312f8ea4	2.5546933e-09
11	0x3278d808	1.448462e-08
12	0x31f02261	6.9888277e-09
13	0x30a6715a	1.2110306e-09
14	0x31a96cf0	4.930932e-09
15	0x2efc0c4a	1.1461816e-10
16	0x336b099e	5.4723948e-08
17	0x3234b05c	1.0517478e-08
18	0x310ec3ec	2.0775088e-09
19	0x2f574af4	1.9580765e-10
20	0x31c969ea	5.861911e-09
21	0x2fb2af02	3.2502362e-10
22	0x304f4e72	7.541764e-10
23	0x32312868	1.0311943e-08
24	0x300b769a	5.073645e-10
25	0x31859603	3.887864e-09
26	0x315d3a21	3.2192775e-09
27	0x30a72dd5	1.2163875e-09
28	0x327dd64a	1.4775262e-08
29	0x30037bed	4.783363e-10
30	0x31484238	2.9141471e-09
31	0x314344a3	2.841525e-09
32	0x3199959a	4.469894e-09
33	0x32b33d21	2.086614e-08
34	0x3186f016	3.927208e-09
35	0x32875af9	1.5757438e-08
36	0x3155431a	3.1033722e-09
37	0x2f0bfbb1	1.2731395e-10
38	0x31aca2c5	5.0243636e-09
39	0x3008f814	4.982905e-10
40	0x3182a724	3.8024996e-09
41	0x3228c972	9.82469e-09
42	0x335506c6	4.9599088e-08
43	0x32ef665b	2.7869808e-08
44	0x33352c85	4.2182837e-08
45	0x32787b8c	1.4463591e-08
46	0x304d8e6a	7.478095e-10
47	0x30e037cd	1.6314005e-09
48	0x31b22c56	5.1855222e-09
49	0x329e88a9	1.8455767e-08
50	0x31294f55	2.4637832e-09
51	0x320a4366	8.047982e-09
52	0x31939483	4.295147e-09
53	0x313bdab0	2.733639e-09
54	0x330c39ce	3.2648863e-08
55	0x2ffbc3cb	4.5795753e-10
56	0x3245fdd2	1.1524621e-08
57	0x325b9f84	1.2783747e-08
58	0x3379c1f0	5.8151215e-08
59	0x2fdd046e	4.0202813e-10
60	0x3186a31f	3.918458e-09
61	0x320df13d	8.262131e-09
62	0x30ac1cd8	1.2522845e-09
63	0x317d778c	3.68843e-09
64	0x3291edcb	1.6988357e-08
65	0x30ebe245	1.716281e-09
66	0x31db5a40	6.383999e-09
67	0x31a208b3	4.7158095e-09
68	0x32035637	7.644807e-09
69	0x3084d469	9.664635e-10
70	0x31d070f4	6.066438e-09
71	0x32af7de3	2.0429928e-08
72	0x3090945e	1.0519547e-09
73	0x30c3999c	1.4231776e-09
74	0x32e32382	2.6442425e-08
75	0x33d008a6	9.687328e-08
76	0x2f8e83b1	2.5923222e-10
77	0x2fe7b4ac	4.214703e-10
78	0x2f8f1c25	2.6031546e-10
79	0x32c5ff42	2.3049896e-08
80	0x2fbceab8	3.4363778e-10
81	0x3163689c	3.3092311e-09
82	0x337c0fa4	5.8687547e-08
83	0x32df4cd1	2.5995549e-08
84	0x31c2fee6	5.6751217e-09
85	0x314bfb18	2.9683118e-09
86	0x314f12b6	3.01331e-09
87	0x2f1e262f	1.4383582e-10
88	0x31dede0c	6.486294e-09
89	0x31e8fa63	6.7805543e-09
90	0x2e687748	5.2856636e-11
91	0x310b9a56	2.0314892e-09
92	0x32011651	7.513862e-09
93	0x2fbedc4a	3.4717323e-10
94	0x320e5b45	8.28624e-09
95	0x32e99e91	2.7196878e-08
96	0x31105e90	2.100851e-09
97	0x3107bd57	1.9752713e-09
98	0x325b5ee7	1.2769056e-08
99	0x3134bd52	2.6301064e-09
100	0x2f2f7e67	1.5961064e-10
101	0x2fd2d8b8	3.8352765e-10
102	0x31704dab	3.4968746e-09
103	0x30721753	8.8072233e-10
104	0x322cd959	1.0061137e-08
105	0x3312432e	3.4054374e-08
106	0x3106072f	1.950365e-09
107	0x306287c1	8.241124e-10
108	0x3112c0c3	2.1355369e-09
109	0x30f63876	1.7914903e-09
110	0x2f4fd089	1.8900627e-10
111	0x319acf72	4.5055737e-09
112	0x2ef91ed6	1.13286866e-10
113	0x31753a99	3.5685501e-09
114	0x30e315b5	1.6522593e-09
115	0x318c39ae	4.0810937e-09
116	0x2f9dbfa1	2.8694294e-10
117	0x327e9f50	1.4820969e-08
118	0x320ba5ec	8.128591e-09
119	0x316867dd	3.3819483e-09
120	0x31bc9f20	5.4896105e-09
121	0x31d01e3a	6.057033e-09
122	0x327863a7	1.4458158e-08
123	0x2e7b48d3	5.7135473e-11
124	0x328ee066	1.663302e-08
125	0x2f61ad8c	2.0525287e-10
126	0x317b7c39	3.659592e-09
127	0x2fac783b	3.1372047e-10
