results/big8/My Behavior/My Behavior-132775.pt (torch, 441427 bytes, 36 tensors)

network_body._body_endoder.seq_layers.0.weight f4 [128, 6]
-0.026981968 0.30101222 0.21672465 -0.11751375 -0.5286781 0.2921728 -0.38407066 0.5247103
0.9087124 -0.42527348 0.301962 0.31489393 -0.31533492 0.062534355 -0.054570492 0.036018435
-0.27931696 0.31357795 -0.7741035 0.13568382 0.029076029 0.96237665 0.22136393 -0.17123635
-0.44052124 -0.08861943 0.13716526 0.052734546 0.2530631 0.27414894 -0.31238857 0.22117774
0.38058156 0.36074045 -0.20919444 0.2790343 0.46396202 -0.09760905 0.635479 0.19267295
0.88160986 -0.6296796 -0.0021779414 -0.5753844 0.5074685 -0.59757024 0.27327034 -0.8062788
-0.82948303 -0.0033073812 -0.2539814 -0.06890633 -0.022010807 0.89387655 -0.28904048 -0.026449103
0.6434492 -0.10518096 0.055423044 -0.11397817 0.51540947 0.047580693 0.30374965 -0.15637821
-0.013947858 0.19552198 -0.49551192 -0.19674242 0.46994516 -0.21660791 -0.014779495 0.30714756
-0.28041667 0.3385709 -0.1737153 0.35860428 0.789424 -0.18628089 0.4754819 -0.7600626
0.018933076 -0.24428569 0.61258537 -0.580594 -0.07023702 0.049135752 -0.24019004 -0.28961068
-0.5843851 0.20055091 0.054562457 0.41388354 0.6292669 -0.060465146 0.5946212 -0.33319804
0.41563722 0.26853183 -0.36023706 -0.26647222 0.48638883 0.6073507 -0.7067532 -0.036996912
-0.13578652 0.46459132 0.63920504 0.687363 0.29102823 0.21031941 0.24276115 0.8713031
1.0007778 0.40456775 0.40824303 0.42236656 -0.5562599 -0.76463974 0.6586846 -0.0278378
0.59129304 -0.45650268 0.075070225 -0.4876187 0.04420871 0.83152246 -0.12061464 -0.19029772
-0.59984076 -0.77062625 0.10007711 0.46481574 -0.0036400217 0.5755599 -0.081790514 0.018003691
-0.48592296 0.17815396 -0.5862732 -0.51094383 -0.2592514 -0.037644118 0.17204072 -0.27044895
0.18790258 0.036345124 0.46762204 -0.27481732 0.5932354 -0.33521506 -0.7124834 -0.28421283
0.5873892 -0.8489956 0.1792517 0.81339025 -0.046218574 -0.3322981 0.21984892 -0.035806973
0.4767059 0.19982494 -0.03459581 0.797816 -0.47443599 0.1456737 -0.43083054 0.58381194
-0.62293243 0.6123201 0.3355221 -0.27029693 -0.15990219 -0.16732794 0.10384225 -0.73994493
0.13896595 -0.28863218 -0.41794407 -0.3288091 0.03559661 0.10410249 0.13398373 0.09827434
0.3070963 0.4001707 -0.5518897 -0.22460513 -0.016208118 0.60362524 0.9428028 -0.022052296
-0.13196696 0.2819267 0.31287172 0.22923455 0.24271612 -0.25422838 -0.68708 0.23686565
-0.15946676 -0.37286046 -0.18727458 -0.08629968 0.49964115 0.17968014 -0.3269875 0.1612531
0.7274522 -0.1948736 -0.254895 -0.27374804 0.21018669 -0.075737946 0.555384 -0.17144938
0.03051509 0.42237723 0.7279402 -0.24802768 0.4350342 -0.12042138 -0.13257526 -0.24829331
0.58205634 -0.6601259 -0.32748577 0.0053121764 -0.045604695 0.48363027 -0.020139894 0.043032095
0.8022085 0.338406 0.05362278 0.2993035 -0.3005013 0.31734174 -0.33186036 -0.0068882946
-0.2260325 0.24613735 0.3886536 -0.39421293 0.42996448 -0.17459686 0.016445618 -0.25797155
-0.60770214 0.41757488 -0.08945259 -0.13210031 -0.59845036 0.392496 0.03810335 0.24011064
00000000: 4a09 ddbc 461e 9a3e 11ed 5d3e 0dab f0bd
00000010: 7357 07bf ac97 953e e9a4 c4be 6a53 063f
00000020: 60a1 683f 72bd d9be c39a 9a3e c739 a13e
00000030: 9473 a1be 0312 803d 4f85 5fbd 1188 133d
00000040: a202 8fbe 4a8d a03e a62b 46bf b3f0 0a3e
00000050: da30 ee3c 515e 763f 3aad 623e 9558 2fbe
00000060: 008c e1be 1b7e b5bd 0d75 0c3e 2e00 583d
00000070: 7d91 813e 405d 8c3e 65f1 9fbe 6b7c 623e
00000080: 96db c23e f9b2 b83e 1137 56be 95dd 8e3e
00000090: 6e8c ed3e 41e7 c7bd c0ae 223f 0f4c 453e
000000a0: 2fb1 613f af32 21bf cbbb 0ebb 644c 13bf
000000b0: 75e9 013f 5dfa 18bf 17ea 8b3e 4a68 4ebf
000000c0: 0059 54bf a6c0 58bb da09 82be c31e 8dbd
000000d0: 0250 b4bc 18d5 643f 1dfd 93be caab d8bc
000000e0: 16b9 243f 1d69 d7bd 4603 633d 636d e9bd
000000f0: e0f1 033f f9e3 423d 1385 9b3e 9c21 20be
00000100: 8e85 64bc ea36 483e bdb3 fdbe d876 49be
00000110: a79c f03e 77ce 5dbe b225 72bc 7242 9d3e
00000120: c692 8fbe 2a59 ad3e 6ce2 31be fb9a b73e
00000130: b117 4a3f 6bc0 3ebe 5d72 f33e 7693 42bf
00000140: 8a19 9b3c 0726 7abe 65d2 1c3f cfa1 14bf
00000150: 6dd8 8fbd 9242 493d 61f4 75be da47 94be
00000160: 439a 15bf 385d 4d3e e27c 5f3d 8be8 d33e
00000170: a317 213f 4daa 77bd 1839 183f ef98 aabe
00000180: 67ce d43e 017d 893e fe70 b8be 0c6f 88be
00000190: f507 f93e 567b 1b3f c7ed 34bf 138a 17bd
000001a0: 9f0b 0bbe eade ed3e f1a2 233f 06f7 2f3f
000001b0: a701 953e f95d 573e 6196 783e b80d 5f3f
000001c0: 7d19 803f 8123 cf3e 3b05 d13e 6e40 d83e
000001d0: 0c67 0ebf 6ebf 43bf 8e9f 283f 190c e4bc
000001e0: fb5e 173f b8ba e9be 6bbe 993d 29a9 f9be
000001f0: 3114 353d a8de 543f cf04 f7bd 68dd 42be
00000200: 2a8f 19bf c347 45bf 3af5 cc3d 54fc ed3e
00000210: 6e8d 6ebb e557 133f c981 a7bd 7a7c 933c
00000220: e5ca f8be fe6d 363e 0016 16bf 37cd 02bf
00000230: 99bc 84be b830 1abd 712b 303e 4978 8abe
00000240: 8969 403e a0de 143d 286c ef3e dbb4 8cbe
00000250: 46de 173f 4fa1 abbe 5065 36bf 5884 91be
00000260: 235f 163f c757 59bf c28d 373e 583a 503f
00000270: b04f 3dbd fa22 aabe 1320 613e 55aa 12bd
00000280: cc12 f43e e99e 4c3e 56b4 0dbd ab3d 4c3f
00000290: 46e9 f2be 7d2b 153e d295 dcbe b374 153f
000002a0: 8078 1fbf 03c1 1c3f 8dc9 ab3e 5c64 8abe
000002b0: 66bd 23be 0458 2bbe 3fab d43d 086d 3dbf
000002c0: 174d 0e3e 99c7 93be c4fc d5be ab59 a8be
000002d0: c0cd 113d b033 d53d 0833 093e 0f44 c93d
000002e0: ba3b 9d3e 2de3 cc3e a548 0dbf e3fe 65be
000002f0: e3c6 84bc 2f87 1a3f 865b 713f 04a7 b4bc
00000300: 5922 07be b258 903e b930 a03e 76bc 6a3e
00000310: 938a 783e 392a 82be 7ae4 2fbf e98c 723e
00000320: 414b 23be 91e7 bebe e8c4 3fbe e3bd b0bd
00000330: f7d0 ff3e 12fe 373e e86a a7be 881f 253e
00000340: 4f3a 3a3f f28c 47be 9981 82be b428 8cbe
00000350: 2e3b 573e 7f1c 9bbd a52d 0e3f 6d90 2fbe
00000360: c8fa f93c d441 d83e 4a5a 3a3f f8fa 7dbe
00000370: cdbc de3e 7c9f f6bd cfc1 07be 9a40 7ebe
00000380: a501 153f 03fe 28bf 37ac a7be c411 ae3b
00000390: fdcb 3abd 639e f73e 6bfc a4bc 6c42 303d
000003a0: 895d 4d3f 8d43 ad3e 8fa3 5b3d 4f3e 993e
000003b0: 4edb 99be 9e7a a23e 9ae9 a9be 34b7 e1bb
000003c0: 1075 67be 6e0b 7c3e 9bfd c63e 47d6 c9be
000003d0: 4e24 dc3e 85c9 32be f6b8 863c d914 84be
000003e0: 5e92 1bbf 60cc d53e eb32 b7bd 4e45 07be
000003f0: 0b34 19bf 3cf5 c83e 4212 1c3d 90df 753e

network_body._body_endoder.seq_layers.0.bias f4 [128]
0.0009904614 0.00030957483 -0.0019204863 0.041639157 0.00013714822 -0.002370938 -0.0021558467 -0.001513957
-0.0056725335 0.0038585626 0.003742099 -0.0012142564 0.013269969 -0.006487648 0.0011151833 0.011292633
-0.005143101 -0.00307511 -0.0012104671 -0.016835444 -0.0037827305 0.0039422554 -0.0010617606 -0.0005021683
0.0009003999 -0.003959302 -0.0011220921 0.00047292118 0.019822866 -0.006955912 -0.0009995402 0.0020143779
-0.0031170778 0.02802413 -0.0026282454 -0.0030471692 0.011162151 -0.0024354868 -0.0065570734 -0.0010443574
0.005736224 0.0010829886 0.045730583 0.0023392357 0.012812003 -0.00053752685 3.0844192e-11 -0.0023564731
-0.0026417538 0.0012268077 -0.004474648 -0.0018161522 -0.008791055 -0.0036527303 -0.02179971 -0.006690258
0.017638452 0.01726924 0.003373964 -0.00037923272 0.0015123894 -0.004785938 -0.0040897117 -0.0048286524
0.0037015344 -0.006899978 0.015165746 0.009782612 0.0032740757 -1.0517948e-05 0.0016666959 0.009985875
-0.0028588222 -8.934748e-08 -0.0056915022 -0.003924494 -0.00043944584 -1.2940077e-06 -9.239154e-05 0.010409115
0.056597598 -0.00026056706 0.0017159331 -0.0039129495 -0.0012081288 -0.002654485 -0.0042470624 0.0074669197
0.0027019382 0.004255612 -0.0040691993 0.009288759 -0.0016951727 -0.0036470208 3.9971777e-08 0.0006690436
0.02112933 -0.0005702535 0.0031355033 1.8167298e-21 -0.0008441859 1.7195136e-10 0.0009755561 0.0017554514
0.0013223329 -0.0015295233 -0.00021308077 -0.003976838 -0.00086033094 -0.0012679376 0.0012373279 0.0037338694
8.14224e-08 -0.0028744868 -0.012511944 0.00022724987 -0.006171925 0.0006116611 -0.006412975 0.00025459594
0.0036247447 0.0018153181 0.0010300349 0.0010893047 0.016900733 -0.002287465 -0.006094052 0.00019476499
00000000: 5fd2 813a 6e4e a239 d4b8 fbba d28d 2a3d
00000010: 72cf 0f39 bd61 1bbb 1b49 0dbb f86f c6ba
00000020: a9e0 b9bb f0df 7c3b 013e 753b af27 9fba
00000030: 496a 593c 5696 d4bb 582b 923a bc04 393c
00000040: 7587 a8bb c987 49bb 89a8 9eba 7cea 89bc
00000050: b0e7 77bb 092e 813b c62a 8bba f2a3 03ba
00000060: d008 6c3a 08bd 81bb 2a13 93ba 68f2 f739
00000070: 9063 a23c 6bee e3bb 0103 83ba a703 043b
00000080: e347 4cbb dc92 e53c a43e 2cbb 04b3 47bb
00000090: 74e1 363c b09c 1fbb b8dc d6bb d2e2 88ba
000000a0: eff6 bb3b 11f3 8d3a fe4f 3b3d dd4d 193b
000000b0: 6fe9 513c d1e8 0cba 79a7 072e 0f6f 1abb
000000c0: 4621 2dbb d6cc a03a 11a0 92bb f50b eeba
000000d0: 5b08 10bc a562 6fbb 4e95 b2bc f439 dbbb
000000e0: 847e 903c 3978 8d3c b91d 5d3b c1d3 c6b9
000000f0: 5e3b c63a 5cd3 9cbb fd02 86bb ac39 9ebb
00000100: 7195 723b 3619 e2bb c079 783c 4047 203c
00000110: e091 563b 3e76 30b7 0975 da3a cc9b 233c
00000120: 145b 3bbb 4cdf bfb3 c87f babb 0b99 80bb
00000130: 6c65 e6b9 c4ad adb5 55c2 c1b8 fe8a 2a3c
00000140: e2d2 673d b89c 88b9 29e9 e03a 3338 80bb
00000150: 135a 9eba def6 2dbb f12a 8bbb 10ad f43b
00000160: 0013 313b a972 8b3b eb56 85bb e12f 183c
00000170: 8f30 deba db02 6fbb 6fad 2b33 c262 2f3a
00000180: 6b17 ad3c 117d 15ba 047d 4d3b aa44 091d
00000190: 5b4c 5dba 0110 3d2f 76bc 7f3a 2d17 e63a
000001a0: 2152 ad3a 497a c8ba 6f6e 5fb9 2350 82bb
000001b0: d587 61ba ed30 a6ba d62d a23a efb3 743b
000001c0: 70da ae33 e361 3cbb e6fe 4cbc ec49 6e39
000001d0: dc3d cabb e257 203a ef23 d2bb 4a7b 8539
000001e0: 208d 6d3b f8ef ed3a 3c02 873a 00c7 8e3a
000001f0: 6873 8a3c 4be9 15bb 9db0 c7bb d439 4c39

network_body._body_endoder.seq_layers.2.weight f4 [128, 128]
0.03365303 0.0017832324 0.120064 0.05484443 0.045421034 -0.04801901 -0.12535235 0.051344667
0.0022338252 0.1474369 0.07901472 0.03908647 0.0213439 0.030047031 0.007887379 0.025715448
0.051792026 0.028620394 -0.015886849 -0.026990399 0.09546743 -0.049841743 0.007551656 0.05227164
-0.057686895 0.097562954 0.039409835 -0.12715924 -0.12552671 0.041683555 0.011982316 -0.09169946
-0.020428404 0.17428777 -0.036970045 -0.04715902 -0.07507502 -0.04750903 0.13629636 0.093250126
-0.002289308 0.018227756 -0.025341813 -0.015897935 0.13211867 -0.0035084363 0.022452118 -0.23006529
-0.12346836 -0.03146387 -0.14106457 -0.10368321 0.070585504 0.014699641 0.041360635 0.0602971
-0.106511354 0.26173562 -0.069980875 -0.046971727 -0.03727244 0.0050755846 -0.1333479 -0.091443494
-0.0437828 0.04985032 -0.24003819 0.25632575 -0.07207571 -0.101877905 0.048639778 0.0046563074
0.008900005 0.06647029 0.06193524 0.003866056 0.026542954 -0.06612764 -0.056735557 0.076955885
-0.024580397 -0.08404998 0.002845127 -0.09124804 0.107179716 0.092022 -0.031468827 0.0127904285
-0.10482354 0.203388 -0.026218038 -0.008325863 -0.054024596 0.0649127 -0.17532615 0.116725154
-0.24020152 0.11167577 -0.1485381 0.16028966 0.02514487 0.021074057 0.08269067 -0.017719802
0.06983073 0.030100405 -0.018464291 -0.10006439 0.03407646 0.07227017 0.033582658 0.045528363
-0.037625007 0.013842707 0.003717355 0.030556625 0.056586016 -0.10939905 0.10175878 0.052767668
0.068907894 -0.026657058 0.09987236 0.1433717 0.082019836 -7.4832606e-05 -0.1999589 -0.10616516
-0.06504614 -0.06645096 0.17700653 0.156563 -0.06456638 0.0025896654 -0.06954242 -0.20484683
0.10783025 0.022428926 0.029147668 0.020199016 -0.07344797 -0.022231068 0.057363816 -0.032682884
-0.046169367 0.09218125 -0.055657655 -0.14098898 -0.1150058 -0.061109133 0.0580329 -0.20903996
-0.015547866 -0.024375144 0.08243139 -0.020360447 0.03844448 0.10273566 -0.11441075 -0.087800644
0.047858205 -0.131881 0.027959106 -0.04253058 0.15481737 -0.16402273 -0.07977481 -0.06375359
-0.06718079 0.11428154 -0.13840073 0.0058508134 0.059251312 -0.045079526 0.10860832 0.08165296
-0.024835523 -0.089255854 0.11100228 0.040421862 0.092505984 0.09311173 0.023831474 -0.14133394
-0.025013894 0.005533102 -0.032531712 0.17677312 -0.02627921 0.021822922 0.13676414 0.053342484
-0.030286405 -0.083449125 -0.012453925 0.0051338114 0.13692534 0.094316155 0.012796138 0.09224754
0.06301873 0.19051035 -0.024316208 -0.08577674 0.036418524 0.12020425 -0.006930941 -0.24271895
-0.08597766 0.09900261 -0.06110136 0.115364335 0.114874214 0.13629329 -0.10239481 0.015894858
-0.005492559 0.06642771 0.03010553 -0.19906619 -0.08555213 0.009174463 -0.037024464 -0.09250553
0.012645305 0.11695602 -0.06589084 -0.04196759 -0.012197693 -0.0020285374 0.22242162 0.09522437
0.03281936 -0.0035757588 0.09552937 0.052851122 0.040157437 -0.1577318 -0.12408174 -0.17582159
-0.16895793 0.10011034 0.109257266 -0.002804586 -0.13041896 0.0625467 0.0108984485 -0.033570852
-0.0005059629 0.04392058 0.021358298 0.069586836 0.022429418 -0.094619416 0.078900844 0.021564405
00000000: c2d7 093d 5abb e93a 1de4 f53d 8ea4 603d
00000010: 680b 3a3d 95af 44bd 5e5c 00be c94e 523d
00000020: 5e65 123b b3f9 163e 78d2 a13d 2219 203d
00000030: 67d9 ae3c 3125 f63c 113a 013c 34a9 d23c
00000040: e023 543d 5175 ea3c 2325 82bc f81a ddbc
00000050: 6e84 c33d db26 4cbd e273 f73b ca1a 563d
00000060: 1849 6cbd 16cf c73d 356c 213d 0836 02be
00000070: 138a 00be 60bc 2a3d 7a51 443c edcc bbbd
00000080: 7859 a7bc 7e78 323e e76d 17bd d129 41bd
00000090: efc0 99bd d498 42bd 4691 0b3e ecf9 be3d
000000a0: 3708 16bb 6052 953c a299 cfbc 633c 82bc
000000b0: 1e4a 073e cbed 65bb 81ed b73c 3c96 6bbe
000000c0: fbdc fcbd 42e0 00bd 3b73 10be dd57 d4bd
000000d0: 228f 903d c3d6 703c c569 293d 18fa 763d
000000e0: a022 dabd 3602 863e 2252 8fbd 6d65 40bd
000000f0: fcaa 18bd 1751 a63b 5a8c 08be ba46 bbbd
00000100: 9855 33bd d92f 4c3d 92cc 75be 213d 833e
00000110: 6e9c 93bd 5da5 d0bd 813a 473d f093 983b
00000120: 54d1 113c 9321 883d ceaf 7d3d a85d 7d3b
00000130: 9c70 d93c ee6d 87bd 8b63 68bd 0c9b 9d3d
00000140: d45c c9bc 6522 acbd 4f75 3a3b 41e0 babd
00000150: 0a81 db3d 0876 bc3d 75e5 00bd f28e 513c
00000160: b9ad d6bd f244 503e 36c7 d6bc 3369 08bc
00000170: e548 5dbd f3f0 843d b388 33be 990d ef3d
00000180: 63f7 75be 44b6 e43d 5f1a 18be f922 243e
00000190: 9dfc cd3c 80a3 ac3c ba59 a93d 1e29 91bc
000001a0: 6a03 8f3d 2095 f63c 6d42 97bc 8fee ccbd
000001b0: c293 0b3d 6202 943d f88d 093d f37b 3a3d
000001c0: ae1c 1abd 85cc 623c de9e 733b e351 fa3c
000001d0: bdc6 673d 9c0c e0bd e866 d03d e922 583d
000001e0: 951f 8d3d e75f dabc e189 cc3d 08d0 123e
000001f0: 04fa a73d 73ef 9cb8 07c2 4cbe 1f6d d9bd
00000200: e936 85bd 7117 88bd 3341 353e 0d52 203e
00000210: 613b 84bd 60b7 293b 426c 8ebd 5ec3 51be
00000220: 1bd6 dc3d debc b73c 17c7 ee3c 6878 a53c
00000230: e46b 96bd ee1d b6bc 52f6 6a3d 7dde 05bd
00000240: 171c 3dbd 86c9 bc3d 48f9 63bd 6a5f 10be
00000250: 2988 ebbd 924d 7abd e8b3 6d3d 920e 56be
00000260: 7abc 7ebc 62ae c7bc cad1 a83d f4ca a6bc
00000270: f677 1d3d 1367 d23d 2f50 eabd d3d0 b3bd
00000280: f706 443d d00b 07be 7f0a e53c 8c34 2ebd
00000290: 7288 1e3e 93f5 27be fa60 a3bd 3e91 82bd
000002a0: 1596 89bd 710c ea3d ecb8 0dbe 2eb8 bf3b
000002b0: 81b1 723d 4fa5 38bd 0a6e de3d ab39 a73d
000002c0: de73 cbbc c6cb b6bd 2a55 e33d 6591 253d
000002d0: c773 bd3d 5db1 be3d 393a c33c d8b9 10be
000002e0: f0e9 ccbc 064f b53b f93f 05bd 0304 353e
000002f0: 7f47 d7bc fcc5 b23c e60b 0c3e a67d 5a3d
00000300: 321b f8bc 60e7 aabd 8c0b 4cbc 8839 a83b
00000310: 2836 0c3e d428 c13d e5a6 513c 47ec bc3d
00000320: f70f 813d 2515 433e c932 c7bc b7ab afbd
00000330: 972b 153d a52d f63d f21c e3bb 518b 78be
00000340: 0e15 b0bd e1c1 ca3d 6b45 7abd 2344 ec3d
00000350: 2c43 eb3d 7890 0b3e 5fb4 d1bd ef35 823c
00000360: edfa b3bb 400b 883d df9f f63c 02d8 4bbe
00000370: f535 afbd 7d50 163c f7a6 17bd 8a73 bdbd
00000380: 412e 4f3c a386 ef3d c7f1 86bd 35e6 2bbd
00000390: d5d8 47bc 36f1 04bb 7ec2 633e ff04 c33d
000003a0: 986d 063d 4757 6abb e7a4 c33d 6b7a 583d
000003b0: 207c 243d 7284 21be 911e febd 930a 34be
000003c0: 4f03 2dbe a606 cd3d 46c2 df3d 25cd 37bb
000003d0: 8c8c 05be 7c18 803d 688f 323c 9781 09bd
000003e0: 98a2 04ba 11e6 333d 99f7 ae3c 8b83 8e3d
000003f0: e6bd b73c d3c7 c1bd c496 a13d d6a7 b03c

network_body._body_endoder.seq_layers.2.bias f4 [128]
0.0006429998 -0.0059889555 -0.0012770882 -0.005409878 0.0028399746 1.7822963e-06 0.0022753063 0.002496134
6.118995e-05 -0.0018243036 -0.005565295 -0.0020559717 0.0011857839 -0.0006534259 -0.002285961 0.0008764249
-0.0035082875 0.0014509569 0.0011099747 0.0037353034 -0.005742584 -0.0018715675 -5.967224e-05 0.0030808991
-0.0036710212 -0.003818192 0.000110963374 0.00049635244 0.002432966 0.0035561055 0.0011297376 -0.010262584
-0.004682913 0.0021742338 -0.0037989353 0.00023974407 0.003605512 0.0022369605 -0.0045583867 0.003016411
0.0025327061 -0.0010686715 -0.0036591254 0.0019980122 -0.0038024152 -0.00034203008 -0.004728218 0.0006470422
0.003655026 -0.0025291622 -0.0025681364 0.0024294814 -0.0019473891 -0.0040458133 -0.0026619607 -0.0033222071
-0.00064340397 0.0030261918 0.0014013618 -0.0028783737 -8.855035e-05 -0.0033924994 -2.2271793e-08 -0.0020010422
-0.00185684 -0.0039863354 -0.0006012775 -0.0022979754 0.0003549241 -0.005523373 -0.0013503749 -0.0018612198
-0.0031265381 -0.0005613345 -0.0011217807 -0.0018336017 -0.001873187 0.0016122865 -0.0003691945 -8.846054e-05
0.0026161568 -0.004024293 -0.003867427 0.00207261 -0.00392073 -0.007843932 -0.0020610825 -0.0027838368
-0.0026385542 0.0035590695 -0.0034993296 0.00071396254 0.0034124774 -0.0037652801 -0.0007139449 -0.002449179
0.0027062038 -0.0050302916 -0.0063880933 0.00027756995 -0.002622467 0.00018231712 -0.0023688192 0.007820573
0.002732825 0.0005566817 -0.0040730136 0.008739817 -0.00055222964 -0.0027198442 -0.0045232773 -0.002810921
-0.003769372 0.0029767149 -0.004407704 -0.0026457938 0.00070738734 -0.0045602405 0.0023220074 -0.0027894562
-0.0011229223 -0.002491635 -0.007042321 -0.003027711 -0.007134145 -0.00583531 0.0020998484 0.0024277484
00000000: fc8e 283a 003f c4bb f863 a7ba 5945 b1bb
00000010: de1e 3a3b 3c37 ef35 4e1d 153b 2e96 233b
00000020: 1b53 8038 791d efba 145d b6bb 7bbd 06bb
00000030: 4e6c 9b3a ab4a 2bba 10d0 15bb e1bf 653a
00000040: 4ceb 65bb 092e be3a 927c 913a fecb 743b
00000050: 492c bcbb 624f f5ba 9448 7ab8 e9e8 493b
00000060: 8495 70bb a23a 7abb 02b5 e838 a61d 023a
00000070: 6572 1f3b 8d0d 693b b413 943a 6624 28bc
00000080: 1f73 99bb 977d 0e3b 8ff7 78bb cf63 7b39
00000090: 744a 6c3b f899 123b 855e 95bb fbae 453b
000000a0: c2fb 253b aa12 8cba f0cd 6fbb 15f1 023b
000000b0: f131 79bb 8052 b3b9 2bef 9abb 449e 293a
000000c0: 2989 6f3b 4dc0 25bb 2e4e 28bb ef37 1f3b
000000d0: 893f ffba be92 84bb 4a74 2ebb 63b9 59bb
000000e0: 1caa 28ba 1353 463b e6ad b73a 19a3 3cbb
000000f0: 1bb4 b9b8 b254 5ebb 3150 bfb2 eb23 03bb
00000100: 3661 f3ba ce9f 82bb 0d9f 1dba a199 16bb
00000110: 1b15 ba39 69fd b4bb 10ff b0ba 2cf4 f3ba
00000120: 9be6 4cbb 8526 13ba b708 93ba 7755 f0ba
00000130: ba85 f5ba 5c53 d33a 7290 c1b9 e483 b9b8
00000140: d473 2b3b 37de 83bb a874 7dbb a0d4 073b
00000150: 7879 80bb d683 00bc 3a13 07bb 0871 36bb
00000160: 98eb 2cbb 473f 693b 0255 65bb 3729 3b3a
00000170: dfa3 5f3b ebc2 76bb 0828 3bba 6882 20bb
00000180: 915a 313b 25d5 a4bb 3653 d1bb cf86 9139
00000190: b2dd 2bbb 612c 3f39 313e 1bbb dc21 003c
000001a0: 3219 333b 47ee 113a ea76 85bb 7331 0f3c
000001b0: 81c3 10ba 6a3f 32bb 0038 94bb 6e37 38bb
000001c0: 9107 77bb fd14 433b 806e 90bb 0e65 2dbb
000001d0: f66f 393a 126e 95bb d22c 183b 4fcf 36bb
000001e0: 052f 93ba b34a 23bb 45c3 e6bb 906c 46bb
000001f0: 8cc5 e9bb 2136 bfbb 9c9d 093b dc1a 1f3b

action_model._continuous_distribution.log_sigma f4 [1, 2]
0.06908028 0.0036778536
00000000: f679 8d3d 2508 713b

action_model._continuous_distribution.mu.weight f4 [2, 128]
-0.016477427 0.009472293 0.02255872 -0.0392473 -0.021819802 -0.011530295 -0.027977359 -0.026933823
-0.012257665 0.013251411 -0.002464861 0.015686005 -0.011788022 0.014802097 0.013841596 0.035460155
-0.00025892202 -0.02601828 -0.003383199 0.010003539 0.01478924 -0.0020182033 -0.015863532 -0.025010442
0.010211149 -0.021652883 -0.0140563855 -0.012995462 -0.010797737 -0.016540108 0.002289628 -0.0020633799
-0.018925581 -0.015497938 0.018148584 0.0018404 -0.02019999 -0.027318869 0.009698954 -0.033869192
-0.0181714 -0.017098343 0.00027299815 -0.0069913208 0.004878468 -0.007814216 0.003134381 -0.0036111793
-0.010646227 0.011213331 0.00263548 -0.003604703 0.0151746515 0.03757322 -0.018081456 -0.005707064
-0.018910794 -0.0232462 0.006540516 0.024291404 0.037639268 0.012685504 -0.0012791642 0.016044186
0.009961769 -0.00334567 0.013078735 0.016099151 0.007598535 -0.02348721 -0.009603595 -0.0068083275
-0.006292883 0.010721764 0.02620968 0.005071897 0.030853149 0.0134212775 -0.004980451 0.0030385028
-0.0030509538 0.018577041 0.025489593 -0.00054493034 0.015829794 0.0007149227 0.016898822 0.013002827
0.026402477 -0.039779734 0.025699867 -0.0010611989 -0.007618928 0.006384544 -0.008668156 -0.015836561
0.017195472 -0.0028231167 0.038453247 -0.011777843 0.013527099 -0.00035377755 0.000352446 -0.03740867
0.026785286 -0.025214119 0.014927916 -0.029497052 -0.006140061 0.004117981 0.023421677 0.031902786
0.028639665 -0.043512814 0.007050488 0.0057982528 0.013622719 0.028835364 -0.027692167 -0.008225268
-0.012211903 0.020982986 -0.0009920018 -0.0068304595 -0.025588244 0.003330256 -0.020363186 -0.007830003
0.012560289 0.0069301696 -0.021002801 0.008816403 -0.007762986 0.0012276864 -0.008164216 -0.021605259
0.007299243 0.025620643 0.0033973854 -0.011392187 -0.008043102 0.0076910825 -0.022751184 0.0014506762
0.0032870767 0.0334596 -0.0055052326 0.008530848 -0.0032620213 -0.013327756 0.021002823 0.004352073
0.008601966 -0.016072216 0.03007301 0.018176854 0.003749746 -0.030127633 -0.02078768 -0.0009350286
-0.019648358 0.0020723718 0.025928041 -0.0066917907 -0.0036552649 0.0020061806 0.013054424 -0.006763844
-0.024581328 -0.015506045 0.0005490861 0.0030868335 -0.004785855 -0.022779306 0.00509243 -0.0030415494
-0.028625859 0.0038229155 0.02446876 -0.037414543 0.014838478 0.0046421005 -0.013756775 0.019355984
0.00868489 -0.0019252875 -0.03032966 -0.007632418 0.0059059784 0.012111078 0.009053831 -0.0128307305
-0.009468781 0.0144687155 -0.026186056 -0.010815745 -0.031201566 0.0018855988 0.032030363 -5.5760804e-05
0.0039167264 0.0040396424 -0.03785083 -0.004190497 0.008688301 0.004135762 0.01591406 0.0024201802
-0.0018009702 0.032839414 0.0038997452 -0.024880016 0.031107754 0.0021690072 -0.013443907 0.0056342892
-0.021075793 -0.012518922 0.0015982015 -0.024780389 8.8923975e-05 -0.006477615 0.001979254 0.006076842
-0.0034002948 0.009721747 0.029893246 0.019565744 -0.00010950299 -0.020130044 0.024814082 -0.022015497
0.0029041623 -0.03224216 0.0035283489 -0.00670512 0.023145929 0.031323217 0.018586501 -0.008757159
-0.0097201 -0.007355375 -0.019285895 -0.0048063104 0.0017776015 -0.0074472902 0.011390715 -0.0075110765
0.021856653 -0.022948064 0.012338153 -0.0025127565 -0.03070689 -0.0025677364 -0.017629687 -0.054264802
00000000: abfb 86bc ad31 1b3c 11cd b83c c7c1 20bd
00000010: 71bf b2bc 90e9 3cbc c630 e5bc 52a4 dcbc
00000020: 60d4 48bc 721c 593c 8189 21bb f07f 803c
00000030: 8c22 41bc 7f84 723c ddc7 623c ab3e 113d
00000040: edbf 87b9 4a24 d5bc a9b8 5dbb e2e5 233c
00000050: 924e 723c d543 04bb 3df4 81bc b3e2 ccbc
00000060: aa4c 273c 6361 b1bc c14c 66bc ebea 54bc
00000070: fee8 30bc 1f7f 87bc 950d 163b c539 07bb
00000080: d209 9bbc 10eb 7dbc 57ac 943c 9439 f13a
00000090: 737a a5bc d2cb dfbc 5de8 1e3c 6cba 0abd
000000a0: 30dc 94bc d311 8cbc 3121 8f39 7317 e5bb
000000b0: 8edb 9f3b 3307 00bc 306a 4d3b 89a9 6cbb
000000c0: 836d 2ebc 1eb8 373c 04b8 2c3b e13c 6cbb
000000d0: 1a9f 783c 60e6 193d 901f 94bc 5302 bbbb
000000e0: cfea 9abc d16e bebc d351 d63b c4fe c63c
000000f0: a22b 1a3d dcd6 4f3c a1a9 a7ba 196f 833c
00000100: b036 233c 0743 5bbb 3148 563c 5ee2 833c
00000110: 22fd f83b 4068 c0bc 6658 1dbc 6418 dfbb
00000120: 8734 cebb 56aa 2f3c afb5 d63c 2832 a63b
00000130: bebf fc3c ebe4 5b3c 0d33 a3bb 9e21 473b
00000140: 83f2 47bb e12e 983c 8dcf d03c a8d9 0eba
00000150: 7cad 813c a669 3b3a 666f 8a3c cf09 553c
00000160: 024a d83c 13f0 22bd 8788 d23c ed17 8bba
00000170: 33a8 f9bb 7035 d13b e204 0ebc adbb 81bc
00000180: 85dd 8c3c 0a04 39bb 2781 1d3d dbf7 40bc
00000190: c4a0 5d3c 387b b9b9 80c8 b839 d539 19bd
000001a0: d16c db3c d78d cebc 3894 743c cda3 f1bc
000001b0: 9132 c9bb 21f0 863b d1de bf3c 7fac 023d
000001c0: bb9d ea3c 7e3a 32bd c807 e73b 45ff bd3b
000001d0: d331 5f3c 2438 ec3c afda e2bc 46c3 06bc
000001e0: 6f14 48bc 83e4 ab3c 0f06 82ba 0cd2 dfbb
000001f0: 709e d1bc 6d40 5a3b b2d0 a6bc 6a49 00bc
00000200: acc9 4d3c 7a16 e33b 110e acbc ad72 103c
00000210: a560 febb 52ea a03a 34c3 05bc 83fd b0bc
00000220: 7d2e ef3b 62e2 d13c aba6 5e3b 4ca6 3abc
00000230: 37c7 03bc 7a05 fc3b b160 babc 9e24 be3a
00000240: ff6b 573b ef0c 093d 3d65 b4bb f8c4 0b3c
00000250: a3c7 55bb a95c 5abc 1d0e ac3c d69b 8e3b
00000260: 43ef 0c3c e1a9 83bc ac5b f63c a0e7 943c
00000270: 4cbe 753b 3ace f6bc ed4a aabc b51c 75ba
00000280: 98f5 a0bc a1d0 073b 0b67 d43c cf46 dbbb
00000290: 2b8d 6fbb 207a 033b 39e2 553c 3ca3 ddbb
000002a0: c85e c9bc 110d 7ebc 8bf0 0f3a 794c 4a3b
000002b0: a9d2 9cbb ab9b babc 66de a63b bb54 47bb
000002c0: c780 eabc e189 7a3b b572 c83c fe3f 19bd
000002d0: 161d 733c c31c 983b 1964 61bc 7190 9e3c
000002e0: 124b 0e3c ee59 fcba e875 f8bc 5d19 fabb
000002f0: f086 c13b 8b6d 463c 8556 143c fc37 52bc
00000300: f222 1bbc 310e 6d3c 2484 d6bc 8634 31bc
00000310: 6d9a ffbc 3226 f73a 4532 033d b5e0 69b8
00000320: e257 803b fa5e 843b 7909 1bbd 7050 89bb
00000330: 6059 0e3c 4985 873b 345e 823c e39b 1e3b
00000340: 880e ecba 9f82 063d de92 7f3b 2dd1 cbbc
00000350: b0d5 fe3c e725 0e3b d543 5cbc d89f b83b
00000360: 24a7 acbc 2a1c 4dbc be7a d13a 3e00 cbbc
00000370: b27c ba38 2c42 d4bb 5fb6 013b 3f20 c73b
00000380: 7bd7 5ebb f647 1f3c aee2 f43c 5748 a03c
00000390: f8a4 e5b8 c3e7 a4bc e746 cb3c d859 b4bc
000003a0: c253 3e3b 5b10 04bd df3b 673b a0b6 dbbb
000003b0: 889c bd3c c64c 003d b842 983c 307a 0fbc
000003c0: 0e41 1fbc 5c05 f1bb 74fd 9dbc 417e 9dbb
000003d0: 69fe e83a 6608 f4bb 1fa0 3a3c 7a1f f6bb
000003e0: b90c b33c 94fd bbbc f725 4a3c 0fad 24bb
000003f0: 048d fbbc 7847 28bb 226c 90bc c544 5ebd

action_model._continuous_distribution.mu.bias f4 [2]
-0.0034864536 -0.0021795612
00000000: fc7c 64bb f8d6 0ebb

exp_avg f4 [128, 6]
-0.0002654607 -0.00045689254 0.00033958122 -1.8905255e-05 -6.318696e-05 0.0018017048 -0.0005201355 -0.00033742766
0.00030601196 -2.4915016e-05 -8.327343e-05 0.002374445 0.00021482701 0.00071540225 -0.00018482767 4.2363226e-06
1.4159043e-05 -0.0004037288 3.5403755e-06 1.5367195e-06 -6.253578e-06 1.0698411e-06 3.5757273e-06 -0.000101957754
0.0002001371 -0.0020530266 1.9447354e-05 -4.813821e-06 -1.608918e-05 0.00045876577 -0.00036107504 3.4813744e-05
0.00015349391 -3.2256197e-05 -0.0001078098 0.0030740728 2.1296615e-05 -0.00065321976 2.8793314e-05 -1.3512987e-07
-4.5164435e-07 1.2878116e-05 7.127155e-05 -0.0020417718 9.931788e-05 -8.3318497e-07 -2.784752e-06 7.9404e-05
0.00017811822 0.00070670916 -0.000112590846 1.3242078e-05 4.4258974e-05 -0.0012619938 0.00020013248 -0.0056487946
0.00023926125 2.2989339e-06 7.683726e-06 -0.00021909273 -0.0006328067 -0.001168922 0.0002777599 -4.2324427e-05
-0.00014146084 0.004033593 0.0010816858 -0.008721321 -6.82252e-06 2.9862294e-05 9.980872e-05 -0.002845928
3.907681e-07 9.345821e-08 -3.7290846e-07 6.693311e-08 2.2371039e-07 -6.378844e-06 -0.000121819096 0.0041221497
-0.0001572609 -3.231832e-06 -1.0801744e-05 0.0003079993 -0.0004552174 -0.00037762945 0.00014171455 -3.7290538e-05
-0.00012463603 0.003553854 4.5600572e-08 -8.505268e-09 3.5842788e-07 -4.505928e-09 -1.5060152e-08 4.2942247e-07
-0.00011015873 -0.00039360355 0.00019605376 -1.1768335e-05 -3.9333245e-05 0.0011215432 0.00041088794 0.0003014136
-0.00031495505 3.9113533e-05 0.00013072907 -0.0037275893 -0.00044117402 -0.0006707535 0.00035039338 -4.066081e-05
-0.00013590051 0.003875046 3.218304e-05 1.1258803e-06 3.4645473e-07 3.6309495e-07 1.2135715e-06 -3.460361e-05
0.00050373306 -0.002592013 1.4504301e-05 1.1280517e-05 3.7702855e-05 -0.0010750539 -0.0003251959 -0.0030433144
0.0002638828 -4.4152137e-05 -0.00014756963 0.004207779 -0.00018371899 -6.0508504e-05 5.177001e-05 -3.791898e-06
-1.2673649e-05 0.0003613741 7.8363795e-05 -0.0017954201 0.000114419556 -1.1733714e-06 -3.9217553e-06 0.000111824345
6.7868123e-06 -0.00016106176 5.1035495e-06 7.1179116e-08 2.3790176e-07 -6.7834962e-06 0.00037066647 0.00030562392
-0.00015954212 2.4782505e-05 8.283051e-05 -0.0023618166 -0.00033279552 0.0031431732 -2.2854016e-05 3.2203025e-07
1.076347e-06 -3.069034e-05 -0.00023018493 -0.0001222727 0.00011819365 -1.0212399e-05 -3.4132863e-05 0.00097326015
7.933348e-06 2.841262e-06 -1.0604996e-05 1.9003437e-06 6.351514e-06 -0.00018110612 7.1023824e-05 -0.00047042203
0.00012610985 -3.805746e-06 -1.2719937e-05 0.00036269435 0.00016628622 0.00050972874 -0.00016111553 1.2304054e-05
4.1123792e-05 -0.0011725978 0.00021128819 -0.007013984 0.00028424372 3.3031129e-06 1.1039989e-05 -0.00031479256
-1.2132993e-08 4.7736997e-09 -9.7106295e-08 5.7753446e-10 1.930303e-09 -5.5040232e-08 4.082989e-05 1.6646376e-05
-6.4520274e-05 9.579635e-06 3.201799e-05 -0.0009129561 -3.3666032e-07 -7.235e-09 -1.6992787e-07 4.998325e-08
1.6705886e-07 -4.7634912e-06 4.8453672e-05 -0.0024707748 5.7551966e-05 4.985754e-06 1.6663871e-05 -0.00047515114
-4.5127035e-06 -1.3589775e-05 7.243643e-05 -4.934314e-06 -1.6491951e-05 0.00047024884 0.0001709956 -0.0026678448
5.2668634e-05 -7.315066e-08 -2.4449037e-07 6.9712987e-06 -8.015892e-05 -9.082373e-06 4.8387577e-05 -5.199603e-06
-1.7378627e-05 0.00049553165 -4.859703e-05 4.234594e-06 -1.4906871e-05 5.690387e-06 1.9018966e-05 -0.00054230395
1.5365742e-06 8.092504e-07 -8.289686e-06 2.9490928e-07 9.856751e-07 -2.8105394e-05 -0.000116138704 0.0031227435
-0.00017289874 -2.4056087e-06 -8.040259e-06 0.00022925873 0.0011663876 0.00032415232 -0.0013788972 0.00019027255
00000000: 882d 8bb9 148b efb9 d209 b239 ba96 9eb7
00000010: 3e83 84b8 2e27 ec3a b459 08ba c6e8 b0b9
00000020: 3b70 a039 9700 d1b7 15a3 aeb8 949c 1b3b
00000030: 3043 6139 d589 3b3a 4dce 41b9 bc25 8e36
00000040: a08c 6d37 90ab d3b9 3097 6d36 4841 ce35
00000050: d3d5 d1b6 7697 8f35 87f6 6f36 27d2 d5b8
00000060: e5db 5139 128c 06bb e022 a337 6886 a1b6
00000070: 40f7 86b7 8086 f039 ac4e bdb9 f904 1238
00000080: 35f3 2039 d44a 07b8 f217 e2b8 6276 493b
00000090: 22a6 b237 d63c 2bba 2c89 f137 3718 11b4
000000a0: 8779 f2b4 160f 5837 9f77 9538 3fcf 05bb
000000b0: e148 d038 09a8 5fb5 ade1 3ab6 b385 a638
000000c0: 3fc5 3a39 7342 393a c01e ecb8 4b2a 5e37
000000d0: b6a2 3938 7c69 a5ba a7da 5139 8619 b9bb
000000e0: 34e2 7a39 6247 1a36 5ae9 0037 42bc 65b9
000000f0: f0e2 25ba 8436 99ba 4da0 9139 8285 31b8
00000100: 1b55 14b9 3b2c 843b 5ac7 8d3a dfe3 0ebc
00000110: 00ed e4b6 ca80 fa37 6650 d138 c082 3abb
00000120: c2ca d134 32b3 c833 2634 c8b4 debc 8f33
00000130: 0b35 7034 da09 d6b6 2179 ffb8 1913 873b
00000140: 67e6 24b9 73e2 58b6 2339 35b7 f77a a139
00000150: 3faa eeb9 91fc c5b9 3699 1439 6968 1cb8
00000160: bbb0 02b9 c7e7 683b 5cda 4333 901e 12b2
00000170: f46d c034 90d2 9ab1 a05d 81b2 608b e634
00000180: 0505 e7b8 935c ceb9 c893 4d39 9d70 45b7
00000190: c0f9 24b8 bf00 933a 726c d739 0c07 9e39
000001a0: 8d20 a5b9 d60d 2438 5114 0939 924a 74bb
000001b0: 604d e7b9 81d5 2fba 01b5 b739 368b 2ab8
000001c0: 8480 0eb9 7cf4 7d3b 47fc 0638 f41c 9735
000001d0: 6000 ba34 64ef c234 00e2 a235 5823 11b8
000001e0: f40c 043a c3de 29bb 8057 7337 7441 3d37
000001f0: 2223 1e38 d3e8 8cba 0e7f aab9 5872 47bb
00000200: c059 8a39 ff2f 39b8 ecbc 1ab9 69e1 893b
00000210: b1a4 40b9 83ca 7db8 a023 5938 5078 7eb6
00000220: e8a0 54b7 d076 bd39 3e57 a438 4d54 ebba
00000230: 88f4 ef38 bc7c 9db5 9f97 83b6 3d83 ea38
00000240: 46ba e336 b0e2 28b9 283f ab36 22db 9833
00000250: f071 7f34 ca9d e3b6 0356 c239 263c a039
00000260: c34a 27b9 06e4 cf37 4bb5 ad38 b5c8 1abb
00000270: 0f7b aeb9 b2fd 4d3b a0b6 bfb7 80e3 ac34
00000280: 0077 9035 80b9 00b8 cc5d 71b9 5436 00b9
00000290: bcde f738 eb55 2bb7 e229 0fb8 6222 7f3a
000002a0: 7819 0537 82ac 3e36 1cec 31b7 500f ff35
000002b0: 171f d536 4ee7 3db9 a0f2 9438 faa2 f6b9
000002c0: 5b3c 0439 3866 7fb6 b767 55b7 0328 be39
000002d0: 1e5d 2e39 519f 053a 1ff1 28b9 826d 4e37
000002e0: 567c 2c38 dab1 99ba 3e8d 5d39 90d5 e5bb
000002f0: 8c06 9539 0cab 5d36 6438 3937 be0a a5b9
00000300: 7871 50b2 e805 a431 c088 d0b3 60c0 1e30
00000310: 40a6 0431 6065 6cb3 c340 2b38 d2a3 8b37
00000320: 0f4f 87b8 38b8 2037 0e4b 0638 7253 6fba
00000330: 3ebe b4b4 bc97 f8b1 6b75 36b4 2aad 5633
00000340: ca60 3334 14d6 9fb6 bc3a 4b38 b9ec 21bb
00000350: f463 7138 4d4b a736 64c9 8b37 b51d f9b9
00000360: d46b 97b6 a4ff 63b7 03e9 9738 6f91 a5b6
00000370: 3258 8ab7 bb8b f639 484d 3339 02d7 2ebb
00000380: 84e8 5c38 0017 9db3 8042 83b4 00eb e936
00000390: fe1a a8b8 7f60 18b7 c4f3 4a38 4078 aeb6
000003a0: 51c8 91b7 91e6 013a aad4 4bb8 e316 8e36
000003b0: 8618 7ab7 0df0 be36 eb8a 9f37 6729 0eba
000003c0: 4a3c ce35 443b 5935 ee13 0bb7 0654 9e34
000003d0: 8a4b 8435 e0c3 ebb7 7e8f f3b8 f1a6 4c3b
000003e0: 274c 35b9 0b70 21b6 a6e4 06b7 2c65 7039
000003f0: 79e1 983a fdf2 a939 1dbc b4ba e683 4739

exp_avg_sq f4 [128, 6]
6.7506795e-07 1.4697094e-06 1.4738813e-06 3.1010007e-08 3.4641138e-07 0.00028164632 2.4966982e-07 1.854684e-07
1.521604e-06 3.864058e-08 4.3165204e-07 0.00035095043 4.44001e-07 1.543748e-06 8.671521e-07 1.7126613e-08
1.913206e-07 0.00015555123 1.2744542e-12 2.2468148e-13 4.701076e-12 1.5771667e-13 1.7618452e-12 1.4324502e-09
1.4444038e-05 0.0026678962 2.7467711e-05 2.3372179e-08 2.6108944e-07 0.00021227599 9.1804026e-08 4.7975867e-08
5.3478266e-07 1.2533117e-08 1.4000693e-07 0.00011383114 4.7831027e-06 0.0009784268 8.7790695e-06 1.9566293e-10
2.185742e-09 1.777094e-06 1.9256688e-05 0.0041449047 3.3916855e-05 8.038138e-10 8.979371e-09 7.3005785e-06
1.1911767e-06 0.0005729087 3.7168602e-06 2.2471621e-08 2.510292e-07 0.0002040968 1.5864274e-05 0.0052114446
3.1572894e-05 5.612298e-10 6.269468e-09 5.097327e-06 0.00019024617 0.016534308 0.00025400045 6.692668e-08
7.4763557e-07 0.00060785725 0.00010468502 0.023576025 0.00018586952 1.7793562e-07 1.98771e-06 0.0016160862
5.0975974e-14 1.14219725e-14 2.2873153e-13 1.0278381e-14 1.1481927e-13 9.335264e-11 4.2663654e-05 0.0064893784
7.2278766e-05 2.753842e-09 3.0763026e-08 2.5011586e-05 1.2315096e-06 3.6682584e-06 2.1892322e-06 4.3821878e-08
4.8953166e-07 0.00039800906 4.3778637e-14 8.432298e-15 2.4117214e-12 2.1650922e-15 2.418614e-14 1.966429e-11
4.800684e-07 3.2279497e-06 6.9249046e-07 9.624049e-09 1.0750978e-07 8.7409724e-05 2.1753192e-06 0.002159452
1.5179477e-05 2.1593186e-08 2.4121638e-07 0.00019611845 6.211937e-07 4.45958e-06 1.0832686e-06 1.6454125e-08
1.8380834e-07 0.00014944348 2.0852273e-09 3.422914e-10 4.4217576e-09 1.639504e-10 1.8314816e-09 1.4890674e-06
1.2813103e-05 0.0027311882 2.1808497e-05 3.039006e-08 3.3948598e-07 0.00027601558 0.00025525587 0.035445847
0.0004510158 1.2238412e-07 1.367148e-06 0.0011115449 4.9101427e-08 2.066233e-08 2.8183143e-07 7.0334307e-09
7.857014e-08 6.388067e-05 3.9444967e-05 0.006439291 7.4595446e-05 1.9058006e-09 2.1289592e-08 1.7309294e-05
6.14407e-05 0.0036922104 8.5155785e-05 3.0489917e-09 3.4060175e-08 2.769227e-05 1.5642889e-05 0.0020027526
2.7989528e-05 2.0664181e-08 2.308385e-07 0.00018768094 4.1164287e-05 0.005774881 6.706825e-05 4.501116e-08
5.0281744e-07 0.00040881065 5.54622e-08 4.025213e-08 3.425099e-07 7.644675e-09 8.5398284e-08 6.943225e-05
1.0701989e-11 3.234442e-12 1.5217541e-10 1.5683664e-12 1.7520145e-11 1.4244573e-08 1.4618888e-05 0.0020890012
2.2140446e-05 1.0096929e-09 1.127924e-08 9.1704715e-06 2.7666551e-06 2.7481565e-05 2.1185513e-06 7.0258936e-09
7.8485876e-08 6.3812164e-05 9.012514e-05 0.015077596 0.00014127833 3.851406e-09 4.302389e-08 3.4980127e-05
4.416546e-15 1.1426383e-15 1.1769817e-13 3.7676385e-16 4.2088097e-15 3.421929e-12 2.2266818e-10 6.49836e-11
1.2575772e-09 4.400582e-11 4.91587e-10 3.996798e-07 5.233392e-12 5.2131025e-12 1.5513455e-12 2.4068057e-14
2.6886357e-13 2.1859656e-10 3.714907e-05 0.0059141815 6.57849e-05 2.1352775e-09 2.3853103e-08 1.9393525e-05
6.5459055e-10 1.4617807e-10 1.6492216e-08 4.5233935e-11 5.0530613e-10 4.1083393e-07 1.3336706e-05 0.0033702797
2.5396275e-05 1.0959718e-08 1.2243035e-07 9.9540805e-05 3.82176e-08 4.1140833e-08 1.4499733e-07 3.5065963e-09
3.917201e-08 3.18484e-05 3.0027754e-09 4.4840193e-10 8.684921e-09 9.342396e-10 1.0436355e-08 8.485173e-06
6.9706597e-12 3.4802636e-12 1.8437607e-10 1.2265634e-12 1.3701882e-11 1.1140175e-08 5.340232e-05 0.00905731
0.000104271545 2.5941933e-09 2.8979617e-08 2.3561583e-05 1.19206085e-07 4.6637716e-08 1.2625492e-06 2.2033392e-08
00000000: 5136 3535 d542 c535 2dd2 c535 dd2f 0533
00000010: 6bfa b934 eea9 9339 5c0a 8634 2a25 4734
00000020: ea39 cc35 c4f5 2533 cebd e734 c5ff b739
00000030: 085f ee34 c732 cf35 3dc6 6835 d21d 9332
00000040: ce6d 4d34 771b 2339 0d5d b32b 07f8 7c2a
00000050: 8767 a52c bc92 312a 2af5 f72b dcdf c430
00000060: ac54 7237 dfd7 2e3b 766a e637 f7c3 c832
00000070: dc2b 8c34 6796 5e39 cc25 c533 060e 4e33
00000080: fc8d 0f35 3b51 5732 d054 1634 a1b8 ee38
00000090: 8a7e a036 8e3e 803a d149 1337 3822 572f
000000a0: fb33 1631 7c84 ee35 6c89 a137 fbd1 873b
000000b0: f241 0e38 5ef3 5c30 b143 1a32 7ef7 f436
000000c0: 85e0 9f35 412f 163a 2c6f 7936 9e07 c132
000000d0: 31c5 8634 d102 5639 4514 8537 c4c4 aa3b
000000e0: 236d 0438 0945 1a30 d36a d731 b509 ab36
000000f0: d17c 4739 f572 873c 5d2b 8539 55b9 8f33
00000100: 20b1 4835 9c58 1f3a 588a db38 8222 c13c
00000110: f8e5 4239 920e 3f34 9964 0536 dbd2 d33a
00000120: 4c93 6529 8dc2 4d28 b0c3 802a aa28 3928
00000130: 6746 012a dd48 cd2e c0f1 3238 daa4 d43b
00000140: 5e94 9738 1a3e 3d31 4e20 0433 f9cf d137
00000150: 594a a535 332c 7636 b9ea 1236 aa36 3c33
00000160: 5c68 0335 dfab d039 5529 4529 1ce7 1728
00000170: b6b5 292c e702 1c27 71d9 d928 0bf8 ac2d
00000180: 0dde 0035 c19f 5836 95e3 3935 0457 2532
00000190: 20e0 e633 bd4f b738 b3fb 1136 9885 0d3b
000001a0: 5bab 7e37 eb7b b932 8780 8134 25a5 4d39
000001b0: 1bc0 2635 80a3 9536 d364 9135 0157 8d32
000001c0: da5c 4534 eeb3 1c39 b54b 0f31 3b2d bc2f
000001d0: 31ee 9731 ef43 342f 88b7 fb30 f7db c735
000001e0: dcf7 5637 bcfd 323b 64f1 b637 3986 0233
000001f0: 9942 b634 2fb6 9039 ddd3 8539 aa2f 113d
00000200: 5176 ec39 b168 0334 d97e b735 42b1 913a
00000210: 97e3 5233 f27c b132 9e4e 9734 b6aa f131
00000220: 64ba a833 acf7 8538 b671 2538 b000 d33b
00000230: 2070 9c38 33f7 0231 4fe0 b632 6d33 9137
00000240: bad9 8038 03f9 713b aa95 b238 6e86 5131
00000250: 8f49 1233 b24c e837 d938 8337 9d40 033b
00000260: 0ecb ea37 0481 b132 67dc 7734 38cc 4439
00000270: d1a7 2c38 373b bd3b fea6 8c38 4b52 4133
00000280: 5af9 0635 a355 d639 5535 6e33 afe1 2c33
00000290: 34e2 b734 a355 0332 3464 b733 289c 9138
000002a0: 7945 3c2d 879a 632c 9251 272f 5bba dc2b
000002b0: dc1b 9a2d 4bb8 7432 a543 7537 a0e7 083b
000002c0: 3fba b937 69c5 8a30 9fc6 4132 e0da 1937
000002d0: c6aa 3936 3688 e637 6f2c 0e36 6a68 f131
000002e0: 118c a833 e5d2 8538 9101 bd38 0508 773c
000002f0: 1d24 1439 5355 8431 44c9 3833 a0b7 1238
00000300: 721f 9f27 eaab a426 3084 042a 8830 d925
00000310: 6ba3 9727 fecb 702c 85d3 742f 84e6 8e2e
00000320: 10d7 ac30 268a 412e 5c20 0730 9393 d634
00000330: 3422 b82c 746b b72c 1d55 da2b 29c9 d828
00000340: 535b 972a 7659 702f 83d0 1b38 c0cb c13b
00000350: 00f6 8938 33bc 1231 87e5 cc32 47af a237
00000360: b7ee 3330 78b9 202f c4aa 8d32 e2f0 462e
00000370: c2e5 0a30 9690 dc34 b7c0 5f37 e9df 5c3b
00000380: 160a d537 5949 3c32 6675 0334 90c0 d038
00000390: b224 2433 d3b2 3033 90b0 1b34 b2f8 7031
000003a0: 153e 2833 f694 0538 6259 4e31 f682 f62f
000003b0: b034 1532 a266 8030 934b 3332 8a5b 0e37
000003c0: 1f42 f52c dbe6 742c 40b9 4a2f 9b9f ac2b
000003d0: ca0b 712d 0263 3f32 4efc 5f38 1d65 143c
000003e0: 5cac da38 8845 3231 daee f832 1da6 c537
000003f0: 3dfe ff33 b64e 4833 dc74 a935 f143 bd32

exp_avg f4 [128]
4.3113097e-05 5.6818266e-05 -9.660867e-06 -2.4397536e-06 1.0977827e-05 7.355967e-05 3.0816133e-07 1.9000636e-06
-3.0198331e-05 -5.2426817e-06 9.652011e-05 -6.8100446e-05 -1.5263977e-07 7.3701353e-06 8.504039e-05 1.0275691e-08
2.6837468e-05 -8.9197725e-05 9.272623e-05 -8.2803285e-07 -2.5725014e-05 0.000100688194 8.647348e-06 2.6758523e-06
-1.6232266e-07 -5.651605e-05 -7.343988e-07 2.3289194e-05 -4.3337e-06 8.678936e-06 -2.8059176e-05 -7.532689e-06
-1.3170585e-09 -2.1846186e-05 -1.1398589e-07 -1.1369924e-05 1.1252619e-05 1.6682498e-07 1.18576145e-05 -1.2976827e-05
-6.725354e-07 5.4859465e-06 -0.00043391326 3.245033e-05 6.8336503e-06 7.033254e-06 -1.3383305e-18 -6.1997503e-06
2.204999e-06 1.1308471e-05 -2.0243955e-05 -9.7527845e-06 -4.9983777e-05 -0.00013581387 2.0951772e-07 9.883421e-06
-0.00014831455 -0.00023868984 6.200024e-05 1.674519e-05 1.7818593e-05 -2.8030765e-05 1.3391131e-05 -0.00016506558
-3.2880043e-06 3.2616015e-05 -0.0005265158 -3.4489287e-09 1.8692248e-07 -3.1120614e-12 1.441016e-05 1.7774335e-05
-5.9223435e-06 -1.0220428e-14 6.2492127e-06 -4.1031744e-05 9.333436e-05 4.8484816e-13 2.3114162e-06 1.5305917e-05
-8.855935e-06 4.1085138e-07 -1.8528292e-05 -1.4876879e-06 9.562844e-06 1.6672886e-05 -4.227608e-06 -6.0763094e-05
-2.0718864e-05 5.0753293e-05 -2.8221213e-05 -1.9007055e-08 4.9853268e-05 -1.6777201e-05 -6.6533164e-14 5.820396e-05
-0.00024994824 5.025253e-06 3.478764e-05 -1.622556e-28 1.9668773e-06 1.3568874e-16 9.604978e-07 9.792715e-07
5.001518e-05 0.000100225254 1.1369691e-07 -7.298964e-05 -5.4962547e-06 2.1322838e-05 6.636864e-05 7.340788e-05
-6.043194e-14 -6.008768e-05 -5.3437966e-06 4.0207196e-05 -9.930032e-06 1.8063947e-06 -1.9783496e-05 8.694364e-08
1.1394669e-06 -5.936893e-07 4.0388995e-06 -4.6949214e-07 5.76756e-05 1.1769509e-05 1.1734589e-06 -4.77581e-07
00000000: 56d4 3438 2650 6e38 1c15 22b7 a6ba 23b6
00000010: 682d 3837 0c44 9a38 5f71 a534 b005 ff35
00000020: 6c52 fdb7 4bea afb6 d76a ca38 26d1 8eb8
00000030: 4de5 23b4 fb4c f736 b657 b238 f888 3032
00000040: 0621 e137 aa0f bbb8 0476 c238 fc45 5eb5
00000050: 0ccc d7b7 9028 d338 1414 1137 cb92 3336
00000060: ea4a 2eb4 a60b 6db8 8023 45b5 2a5d c337
00000070: 336a 91b6 bf9b 1137 9f60 ebb7 4ec1 fcb6
00000080: e003 b5b0 5442 b7b7 68c8 f4b3 74c1 3eb7
00000090: a1c9 3c37 8020 3334 11f0 4637 0cb7 59b7
000000a0: 4888 34b5 ec13 b836 da7e e3b9 471b 0838
000000b0: 9c4c e536 31ff eb36 b280 c5a1 7307 d0b6
000000c0: 98f9 1336 83b9 3d37 90d1 a9b7 e49f 23b7
000000d0: aca5 51b8 4269 0eb9 cbf7 6034 f8d0 2537
000000e0: e284 1bb9 d148 7ab9 2006 8238 0678 8c37
000000f0: 2379 9537 9c23 ebb7 78aa 6037 7415 2db9
00000100: 7ca7 5cb6 2ecd 0838 e105 0aba 3202 6db1
00000110: dcb4 4834 eafd 5aac 2ac3 7137 181a 9537
00000120: 8bb8 c6b6 681d 38a8 54b0 d136 8019 2cb8
00000130: 81bc c338 fe78 082b d41d 1b36 3565 8037
00000140: f493 14b7 fc92 dc34 346d 9bb7 91ac c7b5
00000150: 1a70 2037 c0dc 8b37 e0da 8db6 e0db 7eb8
00000160: 6ccd adb7 efdf 5438 98bc ecb7 f544 a3b2
00000170: 8a19 5138 c4bc 8cb7 c2d1 95a9 0720 7438
00000180: 7c0b 83b9 989e a836 f2e8 1138 f4ae 4d91
00000190: b2fe 0336 3f70 1c25 74ea 8035 836f 8335
000001a0: 64c7 5138 0630 d238 8a29 f433 0412 99b8
000001b0: 786c b8b6 72de b237 642f 8b38 8ef2 9938
000001c0: a414 88a9 a806 7cb8 dd4e b3b6 26a4 2838
000001d0: 2a99 26b7 4073 f235 bcf4 a5b7 c6b5 ba33
000001e0: c9ef 9835 055e 1fb5 e285 8736 820e fcb4
000001f0: b4e8 7138 a875 4537 be7f 9d35 1e33 00b5

exp_avg_sq f4 [128]
1.612706e-07 2.0095422e-07 8.9068614e-08 8.202212e-13 1.2154929e-07 6.517974e-08 1.0175647e-09 4.1803156e-09
1.1686582e-07 2.918729e-09 3.4805922e-07 9.2537124e-07 5.345369e-14 1.4321626e-08 2.2789993e-07 1.1259776e-14
5.005083e-08 1.1229743e-07 8.5571315e-08 8.5264085e-10 1.5804649e-07 6.364708e-07 3.6578054e-08 9.911286e-09
1.5856584e-08 1.074661e-07 2.3408515e-07 3.9756895e-08 8.156444e-12 5.2510116e-09 3.6538857e-08 2.0029622e-08
1.9593977e-15 2.2885661e-10 1.2516844e-13 1.1104735e-08 2.352435e-10 5.6997045e-08 1.82364e-08 4.8586086e-09
6.378863e-12 1.349136e-08 1.1458686e-07 9.631576e-08 8.5420906e-11 1.2125075e-08 5.8587414e-33 1.19771535e-08
5.5407934e-10 1.6485364e-08 1.4807456e-07 3.1812306e-08 2.6305602e-07 4.377027e-07 1.4336335e-12 2.9022281e-08
6.34876e-08 2.5192614e-08 2.1448277e-07 2.3172728e-08 1.9513594e-08 3.7034664e-07 9.52429e-08 2.184753e-07
7.28391e-08 1.872893e-08 3.828502e-07 8.120286e-18 9.595014e-13 1.0548262e-21 2.9597267e-08 1.937519e-07
3.4476905e-08 2.699285e-27 8.934733e-09 7.133693e-08 6.988072e-08 4.7344106e-23 3.1587602e-10 4.3246218e-10
2.501356e-11 2.1411246e-09 1.025276e-07 5.035637e-10 2.0530047e-08 1.7511281e-08 1.4142509e-07 3.5823106e-08
2.8566483e-08 2.1896243e-07 2.106847e-08 7.578517e-16 7.8389675e-08 3.7717335e-08 2.4882257e-26 2.497672e-09
8.3733546e-08 4.8977974e-08 1.0933426e-07 0.0 2.5317493e-09 2.5302996e-31 7.8513274e-10 5.669185e-09
2.9127972e-07 3.0212524e-07 7.039609e-13 1.472378e-07 5.9432043e-08 4.021593e-08 8.70452e-08 1.09605594e-07
6.5763547e-25 1.09363434e-07 7.096958e-11 6.1876115e-08 1.29949465e-08 7.2122436e-10 5.904196e-08 6.418962e-10
3.6430554e-09 1.1112081e-08 5.416291e-09 1.0347166e-09 3.5194427e-07 7.607449e-08 3.27205e-09 1.0425003e-11
00000000: ba29 2d34 e0c5 5734 fd45 bf33 2bdf 662b
00000010: 3783 0234 f1f8 8b33 60da 8b30 72a2 8f31
00000020: aaf7 fa33 d392 4831 e5dc ba34 0767 7835
00000030: e9bb 7029 2d0b 7632 a8b4 7434 8dd6 4a28
00000040: 78f7 5633 2a28 f133 54c3 b733 445f 6a30
00000050: 7db3 2934 f1d9 2a35 ff19 1d33 4c46 2a32
00000060: ff34 8832 1dc8 e633 d658 7b34 2bc1 2a33
00000070: 5c7d 0f2d 636c b431 e6ee 1c33 9b0d ac32
00000080: 8230 0d27 69a1 7b2f 59ed 0c2a 24c7 3e32
00000090: 9453 812f eacc 7433 45a6 9c32 c6f0 a631
000000a0: b16f e02c a1c7 6732 cb12 f633 26d6 ce33
000000b0: b2d7 bb2e a54e 5032 d35c f309 14c4 4d32
000000c0: de4d 1830 b39b 8d32 6dfe 1e34 00a2 0833
000000d0: 253a 8d34 67fd ea34 17c4 c92b ac4c f932
000000e0: ad56 8833 2567 d832 934c 6634 5e0d c732
000000f0: d99e a732 0ed4 c634 5788 cc33 0896 6a34
00000100: b86b 9c33 5ae1 a032 888a cd34 f7ca 1523
00000110: ae09 872b 9d66 9f1c 143d fe32 1e0a 5034
00000120: c213 1433 01dc 5513 5f7f 1932 e431 9933
00000130: 5511 9633 2af1 641a 99a7 ad2f a4bf ed2f
00000140: 8805 dc2d 1023 1331 252d dc33 256b 0a30
00000150: 0d5a b032 b76b 9632 a2da 1734 ecdb 1933
00000160: 5c62 f532 ef1b 6b34 0efa b432 966f 5a26
00000170: 2e57 a833 a6fe 2133 046c f614 83a3 2b31
00000180: 01d1 b333 da5b 5233 25cb ea33 0000 0000
00000190: 01fb 2d31 d039 a40c ced0 5730 aeca c231
000001a0: 2e61 9c34 c733 a234 bb25 462b 6b18 1e34
000001b0: 3942 7f33 e2b9 2c33 9bed ba33 5060 eb33
000001c0: 4087 4b17 2fdb ea33 5210 9c2e c1e0 8433
000001d0: 6140 5f32 a73f 4630 5295 7d33 6e71 3030
000001e0: 4f59 7a31 73e7 3e32 331a ba31 db35 8e30
000001f0: daf2 bc34 655e a333 83da 6031 0a66 372d
