results/big9/My Behavior.onnx (onnx, 75061 bytes, 7 tensors)

network_body._body_endoder.seq_layers.0.weight f4 [128, 6]
00000000: d5ef 1c3f 1b55 cabe bd20 fbbe 4cea a93e
00000010: 4c56 863c cfc6 80be 60f8 32bf e336 b13e
00000020: b557 303f 9ce0 98bc adf0 1cbf 0fe7 0fbe
00000030: 9898 133e 0595 dd3e 33f2 e83e 9045 2fbf
00000040: 53fb a43b 4fac 923d a0e3 06be be42 f4be
00000050: 997a 94bc 93e8 e0be b381 063f e946 babd
00000060: fea0 3d3e c1cd 0abf 423e 633d 3825 d9be
00000070: ac76 8e3e ed80 053f 99bd a43e feb5 043f
00000080: befa 4a3f 3474 f7bd a7e8 23be 057c 563d
00000090: a79c bebb 67d0 0b3e 4c7b 95bd 5e01 3c3e
000000a0: 5dae d13c c0e5 b53d 1778 373f 3fe4 9b3e
000000b0: d65a 83be 4b17 8fbd 4fb7 093f 34fe 243f
000000c0: 484d debe fe17 aabe ec6a 2f3f f6c5 783e
000000d0: de64 353e 2a9a 67be 62f8 12be a845 223f
000000e0: 33e9 423f 778d 7bbf a32f a23c 6a94 adbe
000000f0: 91d3 15be a9a9 2dbf 9eee dfbd 5ae3 b2be
00000100: ebbc 25be c9aa 003f 3472 4b3e 4f2a 12bf
00000110: 469e a0be 950d 6cbe 6769 9d3e 56d7 e93e
00000120: a3a5 8abf 8a70 593d c67f d4be 0acf 743f
00000130: 0021 20be 04a5 c43d 7b6a a3bd 506d 0abf
00000140: 7bd6 f53e 0280 043f 822b adbe 5141 0a3e
00000150: 9eda 5f3f 4faf ac3d 800a b23e 64ad 2fbe
00000160: 500b dfbe ad37 9bbe d439 1cbf 8c3b 433e
00000170: b4c0 fdbe 39d5 143f 7bd8 1b3e 7e10 5a3f
00000180: e965 6ebe a45c 3ebe 5fdb 83be 594b 813f
00000190: 5832 bcbd 010f b7bc 9f2c aebe 5240 d0be
000001a0: 783f 84bf 8e9d 9fbe f160 d13d f263 303e
000001b0: a4e9 94be af97 7b3e 1cf4 373e f08f 8c3e
000001c0: a72c 673e bfed b33d f201 fe3e ed11 dd3c
000001d0: bafa 103d 74e3 d1be bc1f 183e 3023 533f
000001e0: 5cc8 f0bd 2a22 9b3d 45a5 c13d db0f 233c
000001f0: f7dc 97be 90e6 dabc 5031 1abd 65c6 3abf
00000200: 96e6 143e 6a33 e6be 49a9 a63e b035 c83e
00000210: c080 ebbe 8336 003f 7311 d1be 2a92 213f
00000220: ef48 203f a871 81bf fe71 f53e 03c5 a1be
00000230: 9513 f0be e8c9 393f df0a d33e 9f3e 343f
00000240: 19a8 3cbf 3d17 b4be 4535 143f 1214 033f
00000250: d682 833e af47 753e 3476 6a3d 9f0c e8bd
00000260: 5b91 793f ea4e 0f3f da96 7d3e 93fa d13c
00000270: 4aa8 ccbd 546f cabe 8886 363d 6c66 c43d
00000280: 46a6 cbbc 84bd 8f3d 4c18 fdbe 05f3 923e
00000290: 3ec7 fbbd 9933 3bbe fa25 0e3e a77e e03e
000002a0: 3abf c73e 9743 14bf 93dc a5be effc 823e
000002b0: 4a47 273e bcfd d0be 184d 0ebf ae5e f3be
000002c0: 61fd c3be f2de 62bf 4ab5 c03e aa3b 8e3e
000002d0: 40db aabe d4a5 253f d5ef 4dbe 0b08 763e
000002e0: a515 ec3d c1a6 a63d 1530 2e3f caf9 b33d
000002f0: f202 3b3d 1677 43bf 357d a73c 3a57 f7bd
00000300: cf9d 63be a560 0fbf ec83 0b3e 98df 893e
00000310: d092 963e 989f f9bd 4283 2a3f e2bf fbbe
00000320: 941e 983c 303b fc3e 7faf bbbd f244 463c
00000330: 0c26 a23f 1ab0 1abf f33c 903d abda b4bd
00000340: 397c c03d 19b6 3abe c434 123c 5c13 b73e
00000350: ca50 9f3e f6b4 e5be 76e6 b63e 936c 2bbf
00000360: df09 2dbf e7db 1cbf f54d 0f3f 94a4 fc3d
00000370: 571c 6e3e d6dd 18be 3580 ce3e 9cad 003f
00000380: c6c7 913e 681d c1bd f164 21bf 3351 0bbe
00000390: be69 283f 8de7 0bbe 7ef7 7fbe 3657 cfbe
000003a0: eee6 a0be ca09 273e cb3b 40be cbe0 47bf
000003b0: d764 ae3d c7d2 cb3e 0f1c dcbe 19c2 193d
000003c0: b132 6c3f 9a50 84be f64c 7c3d d844 253d
000003d0: 43ef e83e 675a 0bbe 68ff cdbe a248 613f
000003e0: d67e 7cbd 98e8 f1be 5492 953e 0d19 25bf
000003f0: 41db afbd 3ecd 0f3d 4f43 e83e 0034 db3c
0.61303455 -0.39518055 -0.49048415 0.33186567 0.016398571 -0.2515168 -0.6991024 0.34612188
0.6888383 -0.01866179 -0.6130474 -0.14052986 0.14413679 0.43277755 0.45497283 -0.6846552
0.005034843 0.071617715 -0.1317277 -0.4770717 -0.018124865 -0.4392744 0.52541655 -0.09095556
0.18518445 -0.54220206 0.055479296 -0.42411208 0.27824914 0.5214985 0.32175902 0.518402
0.7928885 -0.12082711 -0.16006719 0.052364368 -0.0058170143 0.13653718 -0.07298908 0.18359897
0.025595838 0.08881712 0.7166762 0.30447575 -0.2565524 -0.06986865 0.5379533 0.64450383
-0.43418336 -0.3322143 0.68522525 0.24294266 0.17714259 -0.22617403 -0.14352563 0.63387537
0.76137084 -0.98262733 0.019798106 -0.33902293 -0.14631487 -0.67837006 -0.109341845 -0.3493908
-0.16185348 0.502606 0.19867784 -0.5709581 -0.31370753 -0.23052056 0.30744478 0.456721
-1.0831798 0.05308584 -0.41503733 0.95628417 -0.15637589 0.09601787 -0.07979294 -0.5407305
0.48015198 0.51757824 -0.33822256 0.13501479 0.8744296 0.08431875 0.34773636 -0.17155987
-0.43563318 -0.30315915 -0.6102574 0.19065684 -0.49561083 0.5813785 0.152193 0.85181415
-0.23281063 -0.18590027 -0.25753304 1.0101119 -0.0918929 -0.022346022 -0.34018418 -0.40674073
-1.0331869 -0.31174892 0.10223568 0.17225626 -0.29084504 0.24569581 0.17964214 0.27453566
0.22575627 0.08785581 0.4961086 0.026986087 0.03539536 -0.40993845 0.14855856 0.82475567
-0.117569655 0.07574876 0.09455351 0.009952511 -0.2966077 -0.026721269 -0.037644684 -0.72958976
0.14541087 -0.449611 0.3255103 0.3910346 -0.45996666 0.5008318 -0.40833625 0.63113654
0.6261129 -1.011281 0.47938532 -0.3159562 -0.4688994 0.7257371 0.4121923 0.7040805
-0.73693997 -0.3517398 0.5789378 0.512025 0.25685757 0.23953126 0.057241634 -0.11330532
0.9748742 0.5597979 0.24764577 0.025632178 -0.09993036 -0.39538062 0.044561893 0.09589848
-0.024859559 0.07018569 -0.494326 0.28701034 -0.12293862 -0.18281402 0.13881674 0.43846628
0.39013082 -0.57915634 -0.32394847 0.25583598 0.16335788 -0.40818584 -0.55586386 -0.47533172
-0.3827925 -0.8862144 0.37638313 0.27779895 -0.333704 0.6470616 -0.2011102 0.24026506
0.11527566 0.081372745 0.6804212 0.08787878 0.045657106 -0.76353586 0.020445446 -0.12077184
-0.22228168 -0.5600684 0.13624543 0.269284 0.29408884 -0.12188643 0.66606534 -0.49169832
0.018569268 0.49263906 -0.091643326 0.012101399 1.2667861 -0.6042496 0.07042875 -0.0883077
0.093986936 -0.18233527 0.008923713 0.35756958 0.31116325 -0.44864625 0.35722703 -0.66962546
-0.6759319 -0.61273044 0.5597833 0.12336078 0.23252998 -0.14928374 0.4033219 0.50264907
0.28472728 -0.09429437 -0.6304465 -0.13605194 0.6578635 -0.13662548 -0.24996755 -0.40496224
-0.31426185 0.16312328 -0.18772809 -0.7807738 0.085153274 0.39809248 -0.42990157 0.03753862
0.9226485 -0.25842744 0.061596833 0.040348858 0.45495042 -0.13608705 -0.40233922 0.88001454
-0.061644398 -0.47247767 0.29213202 -0.6449135 -0.08586741 0.035107844 0.45363852 0.026758194

network_body._body_endoder.seq_layers.0.bias f4 [128]
00000000: 7595 7d3c ed39 1abc f458 23bc 4202 d13b
00000010: 6c2a 02bb 62b1 0ebc 2f8b 51bb 8f7e e439
00000020: b58a 443c bacf 823b 89fd 4fbb dced 64bc
00000030: 7132 473c 3dee 09bc ce22 f53d 5b29 dcbb
00000040: e951 65bc c32c 0eba a1ae 2abc 540c 1abc
00000050: 72d9 a7ba c74a 05bc 644b 01a7 9572 efbb
00000060: 6f30 92ba aad7 5dbc c8fe 91bc 419e 21bb
00000070: 0c49 d6b9 f236 c33c f680 343c 9425 04bd
00000080: 1d31 063d e5d5 13bc 1890 103e e1a5 ffbb
00000090: e396 1d3b 7714 b43a 9d46 0a3b 494c 3ebb
000000a0: 89fc 0e3e 2b19 0832 e0e5 e2bb 76ee 8dbc
000000b0: a20f 8c39 2911 0a34 d953 cebb 7eb5 243b
000000c0: 4e70 d1bb c52b 94bb 7fa7 a3bc df30 62b5
000000d0: 87d0 35b4 e4c1 e431 a328 253c eba2 0134
000000e0: b90d 71bc 8cf2 e13d 3e92 0bbc 6e2a 003e
000000f0: 0116 673a 4ead 623c 6aa0 42bb 03ec 35bc
00000100: 4aad 06b2 3c52 9f3b 374b 8c3c e820 34bc
00000110: 7f2c 81bb 5005 97bc 2c7e 173d e21f a9ba
00000120: f94e fb38 4ba6 7c3c 5d0f e93c 5372 cfab
00000130: 0102 e73c 975b 293b c315 363d e807 d0bb
00000140: 379d babb 960e 34bc 9235 8f3c d86d 87bb
00000150: ed4e 1f3a 5811 b6bb 23b0 a2bb 6c33 8b3d
00000160: dbdd 1d3d 9cda 523c 6f4a 42ba ef98 0ebc
00000170: 7c63 123d 3ab1 48ad 3c86 773c e330 a53d
00000180: 2543 5c3c bbd8 f0bc 960a a73d 5418 52bb
00000190: 8401 a6bb 603b 27bb 0dba 27b8 d974 15bb
000001a0: 7c1b f2bb d8bd b1bb ff1e 98ba e832 ce3c
000001b0: f2d4 f6bb ec3a 0b3d 618c a3bb 599f 093c
000001c0: e8ca 123a 4c7c 562e 9f78 51bb 3148 0537
000001d0: 344f 8b3a 266e cbbc 2735 20bb 291e cc3b
000001e0: 992e be3b b286 3fbb fef0 c83b f6e6 c13c
000001f0: 7057 82bc 68fc f2ba 1b68 94bc 1e5b c33b
0.015477528 -0.009413225 -0.009969939 0.006378443 -0.0019861711 -0.008709284 -0.003197383 0.00043581842
0.011995961 0.003992048 -0.0031736812 -0.013972726 0.012158022 -0.008418617 0.11969529 -0.006718797
-0.01399658 -0.000542354 -0.010417611 -0.009402353 -0.0012805893 -0.008135504 -1.7943216e-15 -0.0073073604
-0.001115335 -0.013540188 -0.017821684 -0.0024660977 -0.00040871685 0.02382991 0.011017075 -0.0322624
0.03276168 -0.009023164 0.14117467 -0.0078017567 0.0024046234 0.0013739009 0.0021099218 -0.0029037169
0.13963522 7.921964e-09 -0.006924376 -0.017325621 0.00026714528 1.2858494e-07 -0.0062966165 0.0025132592
-0.0063915616 -0.0045218193 -0.01997733 -8.426268e-07 -1.69328e-07 6.657716e-09 0.010080489 1.207333e-07
-0.014712744 0.1103259 -0.008518754 0.12516186 0.00088152295 0.013835264 -0.0029697665 -0.011103633
-7.839228e-09 0.004862098 0.017125709 -0.010994174 -0.003942072 -0.01843515 0.03698556 -0.0012903179
0.000119833225 0.015420507 0.028449709 -1.4739966e-12 0.028199198 0.0025841945 0.044454347 -0.0063485987
-0.005695011 -0.010989806 0.017481599 -0.0041329674 0.00060771295 -0.0055562668 -0.004964845 0.06796917
0.038541656 0.012869503 -0.0007411604 -0.008703454 0.035739407 -1.1408036e-11 0.015107688 0.08065965
0.013443743 -0.02940022 0.08156316 -0.0032057958 -0.0050660986 -0.0025517568 -3.9989176e-05 -0.0022805242
-0.0073885303 -0.0054242425 -0.0011605917 0.025170758 -0.0075327093 0.03399174 -0.0049910997 0.008399808
0.00055996934 4.8768364e-11 -0.0031962765 7.944226e-06 0.0010628463 -0.024832796 -0.0024445744 0.0062291813
0.0058038947 -0.0029224572 0.006132244 0.023669701 -0.015910834 -0.0018538358 -0.018116048 0.0059617897

network_body._body_endoder.seq_layers.2.weight f4 [128, 128]
00000000: 28a9 3cbe d1bc a2bb a430 d03d db9f f1b9
00000010: 55d7 a73d d7ef ad3d cf5c 63bd 0ded e6ba
00000020: dbc0 9bbd f26e e43d 59e7 8a3d f5b1 07be
00000030: fb9b dc3d 9058 723c cd91 82be 7a73 88bd
00000040: 3aa1 343d 87a5 87bc f56e e83b c966 f53d
00000050: 5235 13bd 06a7 d5bd 10d2 51bd e5a0 f5bc
00000060: 7cb2 96bd efb3 30be 595d 043d 9ffc 9bbd
00000070: d7fc 0cbd 2f16 babe 52bd 673d 1e51 0ebe
00000080: 3950 92bc 04d3 2b3e ede9 f9bd 31d9 4cbc
00000090: daf2 fd3d c106 593e 38b6 babe d6fa 4fbd
000000a0: 92b7 ad3d ebc3 a6bd 66a8 b9bc dc61 2fbe
000000b0: 22d6 bdbd d736 2fbd 6819 7e3d 76e5 b2bd
000000c0: 6779 b3bd 4b48 8bbb b8d7 033e e59c 98bd
000000d0: 3921 6abd 1108 a23d 1664 783d bdcf 0bbd
000000e0: d8f5 d03c d3f4 543e 1bea c6bd 4508 803e
000000f0: e1b6 0a3e 243c 153e d210 a2bd 3597 b2bc
00000100: d590 25bd 8e69 353e d78e aebb 9274 c53d
00000110: 3520 0cbd 6ef1 213d 0dd2 853d 54fa 5c3c
00000120: a799 fe3d bb13 d3bd 3007 e9bc bcfe ad3d
00000130: 1fb8 2e3c 16c2 ab3d 4563 3cbd 51d3 08be
00000140: 6529 a5bd 6b53 3b3d 27d4 3d3e 7860 8d3d
00000150: a98b 77bd 88be 07be cc77 afbc 72d5 cebd
00000160: 502e 493d 5bc8 cebb 31e4 0fbd c22a c63d
00000170: 708c acbe 024e 8fbd 3834 bf3d c2d5 85be
00000180: 1bca 2e3e 4ff6 f9bd bfbd e13c e56d 1e3e
00000190: 7b88 fc3d 08cb 1c3d bb13 c63d c556 38be
000001a0: f313 fc3d b4a4 dc3b 83ae 2bbe 6f9f 9fbd
000001b0: cc27 c83c c3d8 e6bc 2d27 953d 5643 ac3d
000001c0: d057 53be 3608 143d 02c7 d1bd a016 383d
000001d0: 2eaa ae3d 0495 ffbc 109c 19bd d10f a83c
000001e0: ad92 c73d f140 573d 584f 333e cf60 b33d
000001f0: 87fc 503e 7b13 ff3a bb6a 663e 53ff 9b3d
00000200: 8572 0abe 9b0b 9bbc c029 dc3d b199 1e3e
00000210: 7f6f 083d a696 5f3c c4c9 d1bc 6fdd 793e
00000220: 858b cd3d e1ee 1f3d 7b87 01be 5712 053d
00000230: 722b 5bbd eacf 72bc 2b1e 70bb 9439 82bd
00000240: d05f 50bd 1b42 9fbb 1f1e b4bd db98 983d
00000250: 0beb bebd fe2f aa3d 9e81 b9bd a50b 36bd
00000260: d24b ec3c 5374 263d 04a1 ce3d f231 0cbe
00000270: 1daf d83d 4a35 053e e753 93bd 88ab 2d3e
00000280: d2fa 05be f08d 8bbd f335 363e 8627 f2bc
00000290: 2659 7e3c abb2 bfbd 2e91 293d fd58 373e
000002a0: 3466 733e 0c50 bc3d 8ca3 bd3d 08c7 cfbc
000002b0: f9f0 a8bd 2833 eb3b b0f5 a4bd 7275 c03c
000002c0: 8cc6 e83c af44 babd ad18 b8bc b150 b43d
000002d0: 5d61 893c 30a9 38be 48d1 6bbc c573 4ebd
000002e0: 13c8 b03d 8bb2 4c3d 81e5 a1bd 0bba 4bbe
000002f0: 615d bfbd bbf1 09bd 8a60 14bd ff29 cbbd
00000300: 67c4 48bd 22af c1bb 4960 453d c3cf 283e
00000310: e453 65bd 79db 173e fcf0 493e e092 d43c
00000320: 1599 fdbd a2ce 2e3e 305b 38be 300d cbbc
00000330: 576e 5f3c 593f e83d ee25 60bd a7ca 02bc
00000340: 3574 bebd 5b0a 57be ba37 c4bc 706e b2bc
00000350: 51f9 dd3c aa98 4c3e 94db d3bb 6542 0a3e
00000360: 2eee 85bd 8253 9a3c 3baf 2fbc bb47 e5bd
00000370: 8541 5e3e b1d6 4bbd 39a6 093e ceb1 493e
00000380: 36a7 c4bd 7e3a 7e3d 4bcd cb3d 5fcc bcbd
00000390: cfe5 1cbe 49a8 11be 8e0a 393c 6679 afbc
000003a0: bf51 c8bd 1e59 08bc 2ec5 203d 8510 ee3c
000003b0: b55e b53c 068f 46bd 9dd9 5f3e 3c31 4d3d
000003c0: 818f 963c 706f 03be 8f04 5fbe a0dd e0bd
000003d0: 2aae db3c ac18 c7bc 9b03 693b 8388 b13d
000003e0: 71e1 45bc 720a 7b3d 894a e3bd cbf3 bb3d
000003f0: fc77 f2bc 98c2 dabd ae9d 42bd 634f 9cbc
-0.18423903 -0.0049663563 0.101655275 -0.00046086204 0.08195368 0.084930114 -0.05550843 -0.0017618254
-0.07605144 0.11153974 0.06782407 -0.13251479 0.107719384 0.014791623 -0.25501862 -0.066626504
0.04409907 -0.016558422 0.0070933052 0.11982495 -0.035939522 -0.10432248 -0.05122572 -0.029983947
-0.07358262 -0.17256139 0.032315586 -0.07616543 -0.034420814 -0.3634505 0.056577034 -0.13898131
-0.017860519 0.16779715 -0.12202821 -0.012502954 0.12399836 0.21193983 -0.36467147 -0.050776325
0.08482279 -0.08142837 -0.022663306 -0.17127174 -0.09269358 -0.04277691 0.062035948 -0.087351725
-0.0876339 -0.0042505614 0.12875259 -0.074518 -0.05716059 0.07911695 0.060642324 -0.03413366
0.025507852 0.20796518 -0.09712621 0.2500631 0.13546325 0.14573723 -0.079133645 -0.021800617
-0.040421326 0.17716047 -0.0053270864 0.09641375 -0.034210403 0.039536886 0.06534205 0.013487417
0.124316506 -0.10306498 -0.02844581 0.08495852 0.010664015 0.08386628 -0.04599311 -0.13361861
-0.08064536 0.04573385 0.18537961 0.069031656 -0.060435925 -0.13256276 -0.021419428 -0.10099305
0.049116433 -0.0063105053 -0.03512973 0.09676124 -0.33700895 -0.06997301 0.09336132 -0.26139647
0.17069285 -0.12205183 0.027556298 0.15471609 0.12330719 0.038279563 0.09671732 -0.1800185
0.123084925 0.0067335013 -0.1676579 -0.077940814 0.02443304 -0.028179532 0.07282863 0.08411281
-0.20638967 0.036140643 -0.10243036 0.044943452 0.08528553 -0.031198986 -0.03750235 0.020515354
0.09744773 0.052552167 0.17510736 0.08758699 0.20408832 0.0019460762 0.22501652 0.076170586
-0.13520248 -0.018926432 0.10750151 0.15488316 0.033309456 0.013646757 -0.025608905 0.24400876
0.10036377 0.039046172 -0.12649338 0.032488193 -0.05350823 -0.014820078 -0.0036639075 -0.063586384
-0.050872624 -0.0048601753 -0.08794808 0.0745103 -0.09322175 0.08309935 -0.09057926 -0.0444447
0.028844748 0.04063828 0.10089305 -0.13690928 0.10580275 0.1300861 -0.071937375 0.16959965
-0.13083962 -0.06814182 0.17794017 -0.029559862 0.015524184 -0.0936025 0.04139822 0.1790504
0.23769456 0.09194955 0.0925971 -0.02536346 -0.08249087 0.007177729 -0.08054674 0.023493502
0.028414987 -0.090951316 -0.022472704 0.08804453 0.01677006 -0.1803329 -0.014393158 -0.050403375
0.08631911 0.04997496 -0.079051025 -0.19895189 -0.093439825 -0.033677798 -0.03622488 -0.099201195
-0.04901543 -0.00591077 0.048187528 0.16485505 -0.055988207 0.14829816 0.19720834 0.025948942
-0.12382714 0.17071012 -0.18003535 -0.024786562 0.013637147 0.113402076 -0.054723673 -0.007982886
-0.092995085 -0.21000044 -0.023952354 -0.021781176 0.027096422 0.19980112 -0.0064653847 0.1350189
-0.0653957 0.018838648 -0.010722931 -0.11195322 0.21704681 -0.049765293 0.13442315 0.19696733
-0.096022055 0.0620675 0.09951266 -0.09218668 -0.1532204 -0.14224352 0.01129402 -0.021420192
-0.09781217 -0.008322028 0.039250545 0.029060612 0.022139886 -0.04847624 0.21860357 0.05009578
0.018378975 -0.12835479 -0.21779083 -0.109797716 0.026816446 -0.024303757 0.0035555128 0.08668616
-0.012077675 0.06128926 -0.11098201 0.09177359 -0.029598229 -0.10681647 -0.047513656 -0.019080823

network_body._body_endoder.seq_layers.2.bias f4 [128]
00000000: 2ba4 493b f30f 603b dcf7 68bb 4665 45bb
00000010: fbee 9ebb a75b 1b3b 32b4 91ba 50cd c1ba
00000020: 9052 2f3c 4289 bb3b c52c 653b 07d1 9dbb
00000030: 5588 1c3b ca42 d2ba 56a5 2fbb 7258 143b
00000040: 1e3c ec39 4c04 d6ba a127 073b 87be b5bb
00000050: 590a 4ebb b357 8a3c 518b d5bb 9d25 56ba
00000060: 97fe e23a cf1c 09bb fb4c 01bc 9b92 1fbb
00000070: adc3 19bb 79a3 d9bb 8359 013b c7d1 3dba
00000080: be12 303c 30fc 86ba 1b81 9abb e8f8 a5bb
00000090: f104 9cbb 6890 daba ab50 a73b 429c 373a
000000a0: 7a42 2d3b 2cca c83b e19d efbb b351 91bb
000000b0: c6c5 cfbb b964 6b3c 7144 c6bb 1267 8cbb
000000c0: 5232 43bb edeb 2c3a 664c f2bb f863 d4bb
000000d0: 63eb b4bb ff11 b3bb ac39 f5bb 3391 b7ba
000000e0: 11de 15bb 4df7 ae3b 35bd 8fbb 3b8d e7ba
000000f0: 40a8 7838 7c8c 183c 3084 91ba 957b 84bb
00000100: 297b 3ebb 69cc bb3b 4926 923b bacc 65bb
00000110: a890 8a3b 484d d0b6 1eb0 333c 8027 433a
00000120: de33 3bbb 532d 77ba 940f 96bb d932 3a3c
00000130: 2603 14bb 22d3 46bc f1e4 ebbb 8b7c 8ebb
00000140: a7b5 08bb ae07 bebb 3f4e c6ba fd1b aeba
00000150: c697 ebbb fb09 8dbb 3133 fd3b baa7 c8ba
00000160: 80db 1abc 1a86 59bb 020f 3d3b 982f 8fba
00000170: f5b5 133c d621 46bb 195d 19bb f47c 84bb
00000180: d614 8e3b e0ce 0ebc 9e87 80bb 6bec cb3a
00000190: 52d0 9437 5dba ea3b 1262 463b f1b2 8abb
000001a0: cf84 83ba 4f49 9e3a cec4 7a3c 096d 16bb
000001b0: b213 0439 617b a9ba 5966 8cbb 941f 43bb
000001c0: b246 a9ba d1c7 513b fad5 80bb 12e6 78bb
000001d0: 5c0f c33b 9e7e 2cbb 8994 1e3c cdc6 ba3b
000001e0: 1989 ebbb ca52 06bc 6c8a 85bb 50a3 ed39
000001f0: f354 c6ba 02f7 e2b9 99eb 753c bb13 60bb
0.0030768018 0.0034189194 -0.0035548126 -0.0030120178 -0.004850266 0.0023705752 -0.0011116324 -0.0014785919
0.010700837 0.0057231495 0.0034969312 -0.0048161778 0.002388497 -0.0016041633 -0.0026801429 0.0022635725
0.00045058219 -0.0016328185 0.0020622986 -0.0055463943 -0.0031439273 0.016887521 -0.006516852 -0.0008169057
0.0017318305 -0.0020921712 -0.007891889 -0.0024348858 -0.002346258 -0.006641802 0.001973719 -0.0007241037
0.010746656 -0.0010298546 -0.0047150976 -0.0050650723 -0.0047613312 -0.0016675116 0.005106052 0.000700418
0.0026437328 0.0061276164 -0.007312522 -0.004434788 -0.006340715 0.014367276 -0.0060506393 -0.004284748
-0.0029784632 0.0006596435 -0.0073943613 -0.0064816438 -0.0055212243 -0.005464792 -0.0074836817 -0.0014005065
-0.0022867958 0.005339539 -0.004386569 -0.0017665991 5.9284503e-05 0.009310838 -0.0011102017 -0.0040430524
-0.0029065108 0.0057311547 0.0044601304 -0.0035064653 0.00422867 -6.20788e-06 0.010967283 0.00074445456
-0.002856485 -0.0009429056 -0.004579494 0.011364662 -0.0022584884 -0.012135299 -0.007198923 -0.004348343
-0.0020860226 -0.0057992553 -0.001512952 -0.0013283488 -0.0071897237 -0.0043041683 0.0077270498 -0.0015308775
-0.009451747 -0.0033191503 0.0028848057 -0.0010924218 0.00901555 -0.003023257 -0.0023401438 -0.004043216
0.00433598 -0.008716315 -0.003922417 0.0015558129 1.7739982e-05 0.0071633295 0.0030270857 -0.0042327573
-0.0010034087 0.0012076291 0.015305711 -0.0022953174 0.00012595838 -0.0012930447 -0.0042846617 -0.002977346
-0.0012914746 0.003200997 -0.003931758 -0.003797893 0.0059527587 -0.0026320587 0.009678968 0.0056999684
-0.007187974 -0.008198449 -0.004075339 0.0004532584 -0.0015131518 -0.00043290114 0.015009784 -0.0034191448

action_model._continuous_distribution.log_sigma f4 [1, 2]
00000000: 1935 11bf a6e9 9ebe
-0.56721646 -0.31037635

action_model._continuous_distribution.mu.weight f4 [2, 128]
00000000: 7dc2 083e 201c b03c f22c 1b3b b661 84bc
00000010: faf1 1fbc b561 8abc e3b9 eebc 2dd2 24bd
00000020: 28ec b83d 69e0 bfbd 436e 123d 1772 913c
00000030: 12f0 90bd 3c23 0d3d b2db 3b3c 9e55 3fbd
00000040: 7a18 a1bd 3d60 bd3c 66d1 5c3d c522 fa3c
00000050: ccae c8bc 20ef fabd 76c7 e9ba 3ef3 cabc
00000060: f0e9 633c dfd6 eb3c d87a d1bb 376c 0ebd
00000070: 3671 bc3d 533b 7538 dae9 e63c de78 adbb
00000080: 92dc b2bd f0ac f13b dd79 e93b db23 633b
00000090: e527 60bb e690 a93c fba4 ea3c 492d a8bd
000000a0: 5a43 2dbd 48b2 0d3c 54de be3b f28e 2d3d
000000b0: 3dfd 223c 9aa2 8cbd b4ea 1e3d 2be6 41bc
000000c0: 3dcd c4bc d6bb b83c 25c4 983b f261 e93b
000000d0: 4c9a 79bb 3b8b 80bc 69be 353d 7d3e 2a3c
000000e0: 91a9 113d 80bd 4cbc cf8d b0bc 055b f63c
000000f0: 1c1c 043d 4a51 8f3d 0948 47bd 9be7 313a
00000100: ac26 25bd b214 9fbd 19e2 00be dea0 21bb
00000110: e68b b9bc 4a1e d33a b66d 633d be46 cc3c
00000120: 7265 9e3c a169 00bd c15a 1fbc 3a37 5abd
00000130: e0e1 8abc 26da b2bc e42e a23d 536b 4bbc
00000140: a10f ec3c 7712 77bc 25cc ba3a 9f01 a13b
00000150: 7f8d 4f3b 7654 d0bc 5b95 fa3d bd46 0bbd
00000160: 3a22 443b ec51 3abc 9242 a53d 0ba9 b53c
00000170: 8473 75bd a608 af3c def4 8dbc aee8 2fbd
00000180: 8265 51bc 8a23 d33d 5d60 443d 493a 2b3c
00000190: 4846 5bbc 197b 333d c207 91bc 3200 1a3b
000001a0: 26cc 31bd 0822 f0bc a814 613d 22e5 023d
000001b0: 8e83 583c b1ff c53c 4e6b 0ebc 163b 52bd
000001c0: d777 d8bc 9494 2d3d 68c2 0cbc f7ef 38be
000001d0: d21d b33d 9b10 b73c 2951 c53d b724 66bd
000001e0: 718d b9ba 0352 78bc 82a3 7abc abcc 1b3d
000001f0: 3d0d 0f3d 2d6b 7f3c fc22 b3bd 6dcd 613c
00000200: 45de 8b3a 6bdd b43b 1e22 24bc 81f0 d53c
00000210: 3997 81bb 2199 c0ba 83b5 65bc 3d5e 03bc
00000220: 4a03 553b d910 57bc dc0d 19bb 862a 13bb
00000230: b83a c83b 6556 013c 8db4 80bc 7d48 24bd
00000240: ccf1 8d3b b771 c5bb bbb1 923c 801a 603c
00000250: baa6 f7ba 722b 0e3d daf8 fd3a 653e 1fbc
00000260: a4b5 f3bb fc1a 1e3c 35c9 953c 5717 fc3b
00000270: d49b 02bc 5987 c43b 414b c13b 1439 803c
00000280: 666a 883c 251d 8ab9 ea00 983a cb86 3f3a
00000290: 2d9c e73c 14df 1ebb 4f62 afbb 8eda a63c
000002a0: 24f0 693c 2767 dfbc 80d2 1eba 962c d43c
000002b0: 20c6 9abc 3e53 eb3c c847 6fbc fe1f 653c
000002c0: 9224 6d3b 215b 053d a500 183c 5f48 0ebb
000002d0: 23f2 dc3a a154 bc3a be30 0d3c fe95 7bbc
000002e0: 8ec5 b93c 2aae 0ebd 419d 103c 2568 383c
000002f0: ddfc 9dbc b202 9bbb 2f10 51bc 706a cb3c
00000300: aae3 c6bb 809a 30bc 5a5c 663c 8489 4bbc
00000310: 2b9e 7dbb 8df2 c33c e7cd f4ba 5a65 92bb
00000320: b860 223c 1d93 7abc be1b d73c 6260 ac3b
00000330: 8137 823b 52ec 9f3c f318 27bd e7a3 5a3c
00000340: e43a 67b9 6365 5f3c 1e0e 433c 87d7 83bb
00000350: 2739 f93a 5e2a 803c 79fd 7b3b 5d82 2ebb
00000360: b783 a5bb aeef 00bc 1096 49bc cfc0 383a
00000370: 1852 ebbb 1758 0a3d 8015 4bbc 03f8 f03b
00000380: 142e 11bc 1241 d33b d0ec 773c 6cf8 cdbb
00000390: 0031 c43b 132f 32bb 6764 afba 919b adba
000003a0: 9ca1 e6ba b35f 9cbb 1fae 0a3d b611 543c
000003b0: 90ce abbc 05c7 4cbc ec10 10bc ee03 053d
000003c0: 008c 1dbc 3237 633c 4d27 943c 51c0 d13b
000003d0: b524 8b3b 9776 613c 95aa dd3b 7f35 843c
000003e0: d658 2bbb 4290 38bb 3fbe dd3a 37a4 863c
000003f0: 9f8f 2f3c 4dd0 e6bc 2bac 69bb 2fbd 52bc
0.13355441 0.021497786 0.0023677913 -0.016159873 -0.009762282 -0.016892293 -0.029141372 -0.0402395
0.09029418 -0.09368975 0.035749685 0.017754598 -0.0707704 0.03445743 0.011465954 -0.04671251
-0.07865997 0.023117179 0.053910635 0.030534158 -0.024497412 -0.12252641 -0.0017835933 -0.02477419
0.0139107555 0.028788982 -0.006392818 -0.03477117 0.09201281 5.8467802e-05 0.028187681 -0.0052939495
-0.08733477 0.007375352 0.007125123 0.0034658823 -0.0034203466 0.020698976 0.028643122 -0.082117625
-0.04230056 0.008648463 0.0058248434 0.04237265 0.009948072 -0.06866951 0.03879805 -0.0118346615
-0.024023646 0.022550505 0.004662054 0.0071222717 -0.0038086353 -0.01569139 0.044371042 0.010390875
0.0355621 -0.012496352 -0.021551995 0.030072698 0.03225337 0.069979265 -0.048652682 0.0006786526
-0.040320083 -0.07767619 -0.1258625 -0.0024662535 -0.022649717 0.0016107049 0.05552455 0.024936076
0.019335482 -0.031350736 -0.009726227 -0.053275324 -0.016953409 -0.021832537 0.079191 -0.012415725
0.028816046 -0.015080086 0.0014251514 0.0049135233 0.0031670032 -0.0254309 0.122355185 -0.03400301
0.0029927627 -0.011372071 0.08069338 0.022175333 -0.059924617 0.021366429 -0.017328676 -0.04294651
-0.012780549 0.10309513 0.04794346 0.010450908 -0.013383456 0.043818567 -0.017703895 0.0023498652
-0.04340758 -0.029313102 0.05495134 0.0319568 0.013214959 0.024169775 -0.008692576 -0.05132588
-0.026424332 0.042378023 -0.008591272 -0.1806029 0.08745922 0.022346785 0.09634621 -0.056187358
-0.0014156533 -0.015156272 -0.015297772 0.038036983 0.034924734 0.015589518 -0.08746907 0.0137818875
0.00106711 0.005519559 -0.0100179 0.026115658 -0.0039547947 -0.0014694073 -0.014020327 -0.008018074
0.003250318 -0.013126575 -0.0023354208 -0.0022455766 0.0061105154 0.007894133 -0.015711093 -0.040108193
0.004331803 -0.0060255188 0.017907014 0.013678193 -0.0018894293 0.0347094 0.0019376532 -0.009719466
-0.0074374247 0.009649988 0.01828442 0.007693212 -0.007971723 0.00599758 0.0058988635 0.015652217
0.016652297 -0.00026343126 0.0011596952 0.00073061575 0.028272713 -0.0024241852 -0.0053522955 0.020367887
0.014278445 -0.027270867 -0.00060585886 0.025900166 -0.018893301 0.028726216 -0.014604516 0.013984678
0.0036185128 0.03255761 0.009277497 -0.0021710617 0.001685683 0.0014368483 0.008617578 -0.015355585
0.02267721 -0.034834065 0.008826555 0.011255299 -0.019285614 -0.004730546 -0.012760206 0.024831027
-0.00606962 -0.010779023 0.014060104 -0.012422923 -0.0038699012 0.023919368 -0.0018677086 -0.0044676485
0.009910755 -0.015293864 0.026258346 0.005260513 0.0039739017 0.019521866 -0.040795278 0.013344741
-0.00022051815 0.013635012 0.011905221 -0.0040234956 0.0019014225 0.015645202 0.0038450642 -0.0026627996
-0.005051102 -0.007869644 -0.012303844 0.00070477737 -0.007181417 0.033775415 -0.012395263 0.007353784
-0.008861084 0.006446966 0.015132144 -0.0062857177 0.0059872866 -0.0027188703 -0.0013381363 -0.0013245215
-0.0017595771 -0.0047721504 0.03385746 0.012943676 -0.02097252 -0.012498622 -0.008793097 0.03247445
-0.009615898 0.01386814 0.018085146 0.0064010997 0.004246319 0.013761184 0.0067647197 0.01613879
-0.002614548 -0.0028162156 0.001691766 0.016435726 0.010715394 -0.028175497 -0.0035655599 -0.012862488

action_model._continuous_distribution.mu.bias f4 [2]
00000000: 7a1a 7739 d1a5 11bb
0.00023565619 -0.0022224078
