results/1006/Agent Behavior/Agent Behavior-7652.pt (torch, 149169 bytes, 12 tensors)

network_body._body_endoder.seq_layers.0.weight f4 [128, 6]
0	0x3e814a39	0.2525194
1	0x3c10a44a	0.008828232
2	0xbb83d5d4	-0.004023293
3	0x3da44ad4	0.08022085
4	0xbed7205f	-0.42016885
5	0x3f0751ee	0.5285939
6	0xbd40d12e	-0.04707449
7	0x3ebc2ab3	0.36751327
8	0xbe7e820b	-0.24854295
9	0xbf48a715	-0.78379947
10	0xbe2f47eb	-0.17117278
11	0x3d6d778c	0.057975337
12	0xbf10d418	-0.5657363
13	0xbed3fa7c	-0.41402042
14	0x3de87ceb	0.11351951
15	0x3f09d606	0.538422
16	0xbeaf2fb5	-0.34216085
17	0x3f119c9b	0.56879586
18	0x3ee055f6	0.43815583
19	0xbe80c08e	-0.25146908
20	0x3eededc4	0.46470463
21	0x3e45c843	0.19314675
22	0xbe68e8ec	-0.22745103
23	0x3f1a52a3	0.60282344
24	0xbd41fe71	-0.047361795
25	0xbe7f8d07	-0.24956141
26	0x3e8319b0	0.25605536
27	0xbe8ef871	-0.2792392
28	0x3e987c5d	0.29782382
29	0xbe8be821	-0.27325538
30	0x3ea90765	0.33013454
31	0xbf260bdb	-0.6486184
32	0xbdf9bcd8	-0.12194222
33	0xbee6c8c5	-0.4507505
34	0xbf09754b	-0.536946
35	0xbe813518	-0.2523582
36	0xbe84dc9a	-0.25949556
37	0xbda6f29a	-0.08151741
38	0x3f2da234	0.6782563
39	0x3d5f87b1	0.054572765
40	0xbec90333	-0.39260253
41	0xbed251fd	-0.41078177
42	0x3df47f09	0.119382925
43	0x3f094536	0.5362123
44	0xbee331f6	-0.44374055
45	0x3f03611d	0.5132006
46	0xbeb578ac	-0.35443628
47	0xbe96dd96	-0.29465932
48	0xbf240650	-0.6407213
49	0x3e9bbe27	0.30418512
50	0xbe6afb9c	-0.22947544
51	0xbca100e6	-0.019653749
52	0x3e90daa3	0.28291807
53	0x3ed9abdc	0.4251393
54	0xbe324aae	-0.174113
55	0x3e5b714d	0.2142994
56	0xbdf9b8bb	-0.12193438
57	0x3e17e23b	0.14832394
58	0xbd2a846b	-0.04163019
59	0x3e951ba7	0.2912266
60	0xbde9ee00	-0.11422348
61	0xbdb0bc5d	-0.086296774
62	0xbe142766	-0.14468154
63	0x3ed3e06e	0.41382164
64	0x3e93fb5d	0.28902712
65	0x3f4e5721	0.806017
66	0xbdcee483	-0.10102179
67	0x3f4944b7	0.78620476
68	0xbf2dee10	-0.6794138
69	0xbe75b693	-0.23995428
70	0xbec3cd0c	-0.38242376
71	0x3edfa992	0.4368406
72	0xbf230948	-0.6368604
73	0x3a7f3234	0.0009734959
74	0x3f26f006	0.65209997
75	0x3dc740d9	0.097291656
76	0xbec065f0	-0.37577772
77	0x3e7dad1e	0.2477307
78	0x3e208e9c	0.15679401
79	0x3dde7199	0.10861511
80	0xbf0d3c34	-0.5516999
81	0x3eb4bae5	0.3529884
82	0xbdcfdde7	-0.101497464
83	0xbeb58c11	-0.35458425
84	0xbe41313a	-0.18866435
85	0x3e812e8e	0.2523083
86	0xbd91c694	-0.07117954
87	0xbe5d7004	-0.21624762
88	0xbeef932b	-0.46791968
89	0xbf147e3a	-0.58005106
90	0xbf532962	-0.8248502
91	0xbdcf1130	-0.101107
92	0x3df3aea8	0.118985474
93	0x3f0c45f8	0.54794264
94	0x3b51833f	0.0031969098
95	0xbe8b0a82	-0.27156454
96	0x3f5074b8	0.814281
97	0xbedaa60a	-0.42704803
98	0x3d25fd45	0.04052474
99	0xbe86b977	-0.26313373
100	0x3de8ec19	0.11373157
101	0xbe5a3088	-0.21307576
102	0x3ee94344	0.45559132
103	0xbe301dcb	-0.17198865
104	0x3e91b8bb	0.2846125
105	0x3f5aa806	0.85412633
106	0xbeaa36e4	-0.33245003
107	0x3f83f6de	1.0309713
108	0x3cf4cd68	0.029883102
109	0x3eafd4f8	0.3434217
110	0xbd7116c1	-0.05885959
111	0x3eb625bc	0.35575664
112	0xbd3cd268	-0.046099097
113	0xbe033517	-0.12813221
114	0xbef2aca8	-0.4739735
115	0x3e09433d	0.13404556
116	0x3e82380e	0.2543339
117	0xbe100375	-0.14063819
118	0x3d83be44	0.06432775
119	0x3e501d4c	0.20323676
120	0xbede7e0d	-0.43455544
121	0x3f0354bb	0.51301163
122	0x3ef97d06	0.48728198
123	0xbecd79e3	-0.40132055
124	0x3eb522cc	0.3537811
125	0x3d869a77	0.065724306
126	0x3b04cd62	0.002026402
127	0x3e753a4b	0.23948018
128	0xbe53e683	-0.20693402
129	0x3e0d48bc	0.13797277
130	0xbeace8e4	-0.3377143
131	0x3ecf84b9	0.40530947
132	0xbd77a584	-0.060460582
133	0xbf08b6a7	-0.53403705
134	0xbf0868ff	-0.5328521
135	0xbf3c3b6b	-0.73528165
136	0xbe0f4a12	-0.139931
137	0xbda33f2c	-0.079710335
138	0x3e64dd16	0.22349963
139	0xbf318358	-0.6934104
140	0xbe8dd3e8	-0.27700734
141	0xbdc6ecef	-0.0971316
142	0x3e83ac29	0.25717285
143	0xbf194ee1	-0.59885985
144	0x3d89dbd7	0.06731384
145	0xbe6cb5da	-0.23116246
146	0xbf323aab	-0.6962077
147	0x3ebfacd2	0.3743654
148	0xbef7a07e	-0.48364633
149	0xbe929ec0	-0.28636742
150	0x3d8f32d8	0.069921196
151	0xbf501cc7	-0.8129391
152	0xbf0eeb7f	-0.5582809
153	0x3e4fde8b	0.20299737
154	0xbe02356b	-0.1271569
155	0x3d8df567	0.069315724
156	0x3df69e2e	0.12041889
157	0x3ec712c0	0.38881493
158	0x3c8c304b	0.017112872
159	0xbd858395	-0.06519238
160	0xbe287e17	-0.1645435
161	0xbe955333	-0.29165038
162	0x3e3c04de	0.18361232
163	0x3ef94013	0.48681697
164	0xbc2ac058	-0.010421835
165	0x3edfafd4	0.43688834
166	0xbd8aa3c5	-0.06769518
167	0x3d617503	0.05504323
168	0x3f063ba7	0.5243477
169	0xbe931e53	-0.28734073
170	0x3e81df5a	0.25365716
171	0xbf66b024	-0.9011252
172	0x3d02b408	0.031909972
173	0x3efe118c	0.49622762
174	0xbf47665b	-0.7789056
175	0xbda54b81	-0.08071042
176	0xbedc2ad2	-0.4300142
177	0x3f624929	0.88392884
178	0xbba0e071	-0.004909568
179	0xbe1a9873	-0.15097217
180	0xbe9d975d	-0.30779544
181	0xbe9a8a6b	-0.3018373
182	0x3f21894a	0.6310011
183	0xbf45a095	-0.77198154
184	0xbc6ced49	-0.01446087
185	0xbe5ce826	-0.21572933
186	0xbdce0d04	-0.10061076
187	0xbe51d107	-0.20489894
188	0x3e8a5210	0.27015734
189	0x3e9f56b1	0.31120828
190	0xbf08c1f7	-0.53420967
191	0x3e537af3	0.2065237
192	0x3c306833	0.0107670305
193	0xbefc6046	-0.492922
194	0xbe6a8e1c	-0.22905773
195	0xbe4c9a83	-0.19980817
196	0x3ceb72bb	0.028741231
197	0x3cf6be13	0.030119931
198	0x3f2bbd4a	0.6708571
199	0x3d91a233	0.07111015
200	0x3f1ac7ed	0.6046131
201	0xbe7da0c4	-0.24768358
202	0x3e119275	0.14216025
203	0xbd30953e	-0.04311108
204	0xbccb5274	-0.02481959
205	0x3e2ab997	0.1667236
206	0x3f3ff9ce	0.74990547
207	0xbf115c51	-0.5678149
208	0xbf816c22	-1.0111125
209	0xbf11acce	-0.56904304
210	0xbe281a1a	-0.16416207
211	0x3ec8e2a2	0.39235407
212	0x3d9ad1c2	0.075595394
213	0x3e436334	0.19080812
214	0x3e0b7711	0.13619639
215	0x3ee98a22	0.456132
216	0x3f15fb2f	0.585864
217	0xbf3f4e1c	-0.7472856
218	0xbf03fdc9	-0.5155912
219	0x3ccf769b	0.02532511
220	0xbe9bafc1	-0.30407527
221	0x3ea373b1	0.31924203
222	0x3e9b8bd0	0.30380106
223	0x3d04fa11	0.032465044
224	0xbe97c71d	-0.296441
225	0x3eb15ef8	0.34642768
226	0x3da21c2f	0.07915532
227	0xbcc1fe4d	-0.02368083
228	0xbe7474ca	-0.23872676
229	0xbf0e4fa5	-0.5559028
230	0xbe3c46c8	-0.18386376
231	0x3e8882b5	0.26662222
232	0xbecaa1a7	-0.39576456
233	0xbe348a68	-0.17630923
234	0x3d7699df	0.060205337
235	0xbf0bcc6e	-0.5460881
236	0xbe1a5c3a	-0.15074244
237	0xbf427b0b	-0.75969
238	0xbed7a7e6	-0.42120284
239	0x3ea0298f	0.31281707
240	0x3f6415a8	0.89095545
241	0x3e0d0779	0.13772382
242	0xbe819e51	-0.25316098
243	0xbdfa6a93	-0.12227359
244	0xbeb2ebb7	-0.3494546
245	0xbef66f10	-0.4813161
246	0xbe8d43bc	-0.2759074
247	0xbed54d20	-0.41660404
248	0x3e6f08e0	0.2334323
249	0xbebefbdb	-0.37301525
250	0x3e6ce73b	0.23135082
251	0x3ee21a25	0.44160572
252	0x3d4563d4	0.048190907
253	0x3e0aa0f0	0.13537955
254	0xbf391505	-0.722977
255	0x3f3d474c	0.73936915

network_body._body_endoder.seq_layers.0.bias f4 [128]
0	0x00000000	0.0
1	0x00000000	0.0
2	0x00000000	0.0
3	0x00000000	0.0
4	0x00000000	0.0
5	0x00000000	0.0
6	0x00000000	0.0
7	0x00000000	0.0
8	0x00000000	0.0
9	0x00000000	0.0
10	0x00000000	0.0
11	0x00000000	0.0
12	0x00000000	0.0
13	0x00000000	0.0
14	0x00000000	0.0
15	0x00000000	0.0
16	0x00000000	0.0
17	0x00000000	0.0
18	0x00000000	0.0
19	0x00000000	0.0
20	0x00000000	0.0
21	0x00000000	0.0
22	0x00000000	0.0
23	0x00000000	0.0
24	0x00000000	0.0
25	0x00000000	0.0
26	0x00000000	0.0
27	0x00000000	0.0
28	0x00000000	0.0
29	0x00000000	0.0
30	0x00000000	0.0
31	0x00000000	0.0
32	0x00000000	0.0
33	0x00000000	0.0
34	0x00000000	0.0
35	0x00000000	0.0
36	0x00000000	0.0
37	0x00000000	0.0
38	0x00000000	0.0
39	0x00000000	0.0
40	0x00000000	0.0
41	0x00000000	0.0
42	0x00000000	0.0
43	0x00000000	0.0
44	0x00000000	0.0
45	0x00000000	0.0
46	0x00000000	0.0
47	0x00000000	0.0
48	0x00000000	0.0
49	0x00000000	0.0
50	0x00000000	0.0
51	0x00000000	0.0
52	0x00000000	0.0
53	0x00000000	0.0
54	0x00000000	0.0
55	0x00000000	0.0
56	0x00000000	0.0
57	0x00000000	0.0
58	0x00000000	0.0
59	0x00000000	0.0
60	0x00000000	0.0
61	0x00000000	0.0
62	0x00000000	0.0
63	0x00000000	0.0
64	0x00000000	0.0
65	0x00000000	0.0
66	0x00000000	0.0
67	0x00000000	0.0
68	0x00000000	0.0
69	0x00000000	0.0
70	0x00000000	0.0
71	0x00000000	0.0
72	0x00000000	0.0
73	0x00000000	0.0
74	0x00000000	0.0
75	0x00000000	0.0
76	0x00000000	0.0
77	0x00000000	0.0
78	0x00000000	0.0
79	0x00000000	0.0
80	0x00000000	0.0
81	0x00000000	0.0
82	0x00000000	0.0
83	0x00000000	0.0
84	0x00000000	0.0
85	0x00000000	0.0
86	0x00000000	0.0
87	0x00000000	0.0
88	0x00000000	0.0
89	0x00000000	0.0
90	0x00000000	0.0
91	0x00000000	0.0
92	0x00000000	0.0
93	0x00000000	0.0
94	0x00000000	0.0
95	0x00000000	0.0
96	0x00000000	0.0
97	0x00000000	0.0
98	0x00000000	0.0
99	0x00000000	0.0
100	0x00000000	0.0
101	0x00000000	0.0
102	0x00000000	0.0
103	0x00000000	0.0
104	0x00000000	0.0
105	0x00000000	0.0
106	0x00000000	0.0
107	0x00000000	0.0
108	0x00000000	0.0
109	0x00000000	0.0
110	0x00000000	0.0
111	0x00000000	0.0
112	0x00000000	0.0
113	0x00000000	0.0
114	0x00000000	0.0
115	0x00000000	0.0
116	0x00000000	0.0
117	0x00000000	0.0
118	0x00000000	0.0
119	0x00000000	0.0
120	0x00000000	0.0
121	0x00000000	0.0
122	0x00000000	0.0
123	0x00000000	0.0
124	0x00000000	0.0
125	0x00000000	0.0
126	0x00000000	0.0
127	0x00000000	0.0

network_body._body_endoder.seq_layers.2.weight f4 [128, 128]
0	0x3ced7169	0.028984742
1	0xbddd8ca0	-0.10817838
2	0x3e11d814	0.14242584
3	0x3c1557f6	0.00911521
4	0x3d7aebce	0.061260037
5	0xbc81bad4	-0.015836157
6	0xbdc4ed14	-0.096155316
7	0xbd611683	-0.05495311
8	0x3ddbcaeb	0.10732063
9	0xbd83dde9	-0.064388104
10	0xbe1161c8	-0.14197457
11	0x3d6e7d24	0.058224812
12	0xbd8a4bb5	-0.06752721
13	0xbd5f12b0	-0.05446118
14	0xbe475bcd	-0.19468613
15	0xbdb801fa	-0.08984752
16	0xbdaafd9b	-0.08349153
17	0x3e84f2d8	0.25966525
18	0x3dbb5ee0	0.09148955
19	0x3d1a0e1b	0.03761111
20	0xbd025951	-0.03182346
21	0x3cb52b4b	0.02211537
22	0xbcd1213c	-0.025528543
23	0xbdd5fe71	-0.104489215
24	0x3d93cf68	0.07217294
25	0x3d8a2f32	0.06747283
26	0x3dcf8610	0.10132992
27	0x3cf92702	0.030414108
28	0xbd9ac1c7	-0.07556491
29	0x3c994c76	0.018713217
30	0xbdf75079	-0.12075896
31	0xbd08cd43	-0.033398878
32	0xbe4bd7c7	-0.19906531
33	0xbe0f292f	-0.13980554
34	0x3c870ed1	0.016486557
35	0xbd52b9e8	-0.051446825
36	0x3bfab120	0.0076505095
37	0x3e6c153d	0.23054977
38	0xbdedfa66	-0.11620025
39	0x3c357eb3	0.011077571
40	0xbe72b8c5	-0.23703296
41	0xbd28544c	-0.041096017
42	0xbdc084d5	-0.09400336
43	0x3d0cae1e	0.03434574
44	0xbd14c31b	-0.03631888
45	0x3d5f5d8e	0.05453258
46	0xbe6aa54d	-0.2291462
47	0xbc1556ed	-0.009114963
48	0xbd0b163b	-0.033956748
49	0x3de4f41e	0.11179374
50	0x3d82013d	0.063478924
51	0x3d48bb43	0.04900671
52	0x3d06a265	0.032869715
53	0xbe3db293	-0.18525152
54	0xbc348e93	-0.0110203205
55	0xbc82bba7	-0.01595862
56	0xbe5fc066	-0.21850738
57	0xbb4cf858	-0.0031275954
58	0x3cd3b0b2	0.02584109
59	0xbd227cf3	-0.039669942
60	0x3e137811	0.1440127
61	0x3b82defa	0.003993866
62	0xbd07878a	-0.033088244
63	0x3d9d149b	0.07669946
64	0xbde8ac37	-0.113609724
65	0x3c6b54db	0.014363493
66	0x3ca7375c	0.02041214
67	0x3d4e22af	0.050326046
68	0xbd010967	-0.031503107
69	0xbd3cedad	-0.046125103
70	0xbc803d04	-0.015654095
71	0x3d10b1d4	0.03532584
72	0xbdc67b31	-0.09691466
73	0x3c0a8e86	0.008456832
74	0xbd708069	-0.05871621
75	0x3c986007	0.018600477
76	0xbd59a7c2	-0.053138502
77	0x3e23f613	0.16011839
78	0xbdb1d0e7	-0.08682423
79	0xbd5874d8	-0.052845806
80	0xbd5877f7	-0.052848782
81	0x3df844fe	0.12122534
82	0xbe2d777a	-0.16940108
83	0xbdd4a7a4	-0.103835374
84	0xbc4ca238	-0.012489848
85	0xbe3062c6	-0.17225179
86	0x3e24fcfd	0.16112132
87	0x3c01e956	0.007929167
88	0x3dcfd07b	0.10147186
89	0x3d4751f8	0.048662156
90	0x3c81c31a	0.015840102
91	0xbc635a01	-0.013876439
92	0xbd240eb0	-0.04005307
93	0xbe0a6114	-0.13513595
94	0xbdec34e6	-0.11533527
95	0x3d17b650	0.0370391
96	0x3d1b16bd	0.03786348
97	0x3e0d0fa3	0.13775496
98	0xbe12c53d	-0.14333053
99	0xbdcc6871	-0.09980858
100	0x3e19de48	0.150262
101	0xbd2a8c21	-0.041637544
102	0xbc41b5ca	-0.011823127
103	0x3db793dd	0.089637496
104	0xbd8f929d	-0.07010386
105	0x3dc1c8df	0.09462141
106	0xbd459622	-0.04823888
107	0xbcd1fa64	-0.02563209
108	0xbdd99d37	-0.106256895
109	0x3e0cc656	0.13747534
110	0x3c8042ee	0.015656915
111	0x3aeb9b60	0.0017975383
112	0xbd982f42	-0.07430889
113	0x3e0aa565	0.13539656
114	0x3aafad9c	0.001340318
115	0xbd993bc7	-0.07482105
116	0xbcc2b504	-0.023767956
117	0x3cb28c45	0.021795401
118	0xbe02d394	-0.12776023
119	0xbe4bb9e6	-0.19895133
120	0xbe0cd510	-0.13753152
121	0xbd469111	-0.04847819
122	0xbd749a9a	-0.059717752
123	0x3da5c105	0.08093456
124	0x3c43c46f	0.011948689
125	0x3dfd4a4e	0.12367688
126	0xbd0fff82	-0.03515578
127	0xbdd86eb3	-0.10567989
128	0x3d389fd0	0.045074284
129	0x3d9f7d40	0.077875614
130	0xbe0c4162	-0.13696817
131	0x3d965004	0.073394805
132	0x3e517752	0.20455673
133	0xbcdc0852	-0.026859436
134	0x3d76a60b	0.060216945
135	0xbdce6944	-0.100786716
136	0x3d4c792d	0.04992025
137	0xbd89e6cb	-0.067334734
138	0xbca203d7	-0.019777222
139	0x3cc62e38	0.02419196
140	0xbd2d236b	-0.042270105
141	0x3dd12065	0.10211257
142	0x3db971dc	0.0905492
143	0xbd159512	-0.036519118
144	0x3dffcb16	0.124899074
145	0xbe19efe7	-0.15032922
146	0xbd75eb98	-0.060039133
147	0x3e3a06d0	0.18166661
148	0xbd4525cd	-0.048131753
149	0x3d426cb0	0.047466934
150	0x3c40f461	0.0117770145
151	0x3dd87be4	0.10570505
152	0xbd4f3c11	-0.050594393
153	0x3d6214c6	0.055195592
154	0xbd427500	-0.04747486
155	0x3c8bbc73	0.017057633
156	0xbe391bc0	-0.18076992
157	0x3e1f8f9a	0.15582123
158	0xbd9d1583	-0.07670119
159	0x3dbc4275	0.09192363
160	0xbb7db8fc	-0.0038714996
161	0xbe10efad	-0.14153929
162	0xbc6b1aa0	-0.01434961
163	0xbd8ecb92	-0.06972422
164	0x3c141fd3	0.009040791
165	0x3e5e74c3	0.21724229
166	0xbd736fc9	-0.05943278
167	0x3de390f4	0.11111632
168	0x3dc195f1	0.09452427
169	0x3d61a382	0.055087574
170	0x3d33352d	0.043751884
171	0xbdc6b45b	-0.09702369
172	0xbe03ffa6	-0.12890491
173	0xbd635ea7	-0.05551019
174	0x3d18905e	0.037247054
175	0xbc6814c3	-0.014165106
176	0x3cac7118	0.021050021
177	0x3d59e3a4	0.05319561
178	0x3d04628b	0.03232054
179	0xbd1f4beb	-0.03889076
180	0xbe18e51a	-0.14931145
181	0x3b89e9cb	0.0042087785
182	0x3c3a2b0c	0.011362802
183	0xbd8a04b3	-0.067391776
184	0xbca193af	-0.019723741
185	0x3dae3282	0.08505727
186	0x3d6a5adc	0.057215557
187	0xbd97e79b	-0.07417222
188	0x3d93c9ac	0.072162
189	0xbdedaac7	-0.11604839
190	0x3dacb284	0.08432487
191	0xbdf7f847	-0.12107902
192	0x3e36f869	0.17868198
193	0xbd483d8c	-0.04888682
194	0xbd9509e8	-0.0727728
195	0x3d06e9ed	0.032937933
196	0xbd81bb68	-0.06334573
197	0xbd66d49c	-0.056355104
198	0x3b32db2f	0.0027291288
199	0xbae4f7fe	-0.0017468927
200	0xbda02e9c	-0.0782139
201	0xbc9c27ba	-0.019061912
202	0xbd90a061	-0.0706184
203	0x3c8ffa7a	0.017575491
204	0x3dde1139	0.10843129
205	0x3cd94ec2	0.026526812
206	0x3d50f23c	0.051012263
207	0x3d00d68e	0.031454615
208	0x3d0514f9	0.032490704
209	0x3cf333ec	0.029687844
210	0xbc9b8a79	-0.018986927
211	0xbd70b08e	-0.058762126
212	0x3ddd7fe3	0.10815408
213	0x3e308165	0.1723686
214	0x3dc4ac9c	0.09603235
215	0xbd1b3e96	-0.037901483
216	0xbd4a7ffa	-0.049438454
217	0x3e2c00a0	0.16797113
218	0x3d8cb11f	0.06869721
219	0xbcac4dd6	-0.021033209
220	0x3d54750c	0.051869437
221	0x3d58deee	0.052946977
222	0xbddd1e6f	-0.1079682
223	0xbd90b476	-0.0706567
224	0x3d2d0d0b	0.042248767
225	0xbdb4af73	-0.08822527
226	0xbe64a6b8	-0.22329223
227	0x3da26020	0.07928491
228	0x3d7367b8	0.059425086
229	0xbbb3582e	-0.0054731583
230	0xbd069544	-0.032857195
231	0x3d9a8197	0.075442486
232	0xbd9c7fcd	-0.076415636
233	0xbe7ed520	-0.24885988
234	0xbbcd2832	-0.006260895
235	0x3d62075c	0.0551828
236	0xbe1d28d4	-0.15347606
237	0x3d948726	0.0725234
238	0xbda5160d	-0.080608465
239	0x3e434928	0.19070876
240	0xbd89d611	-0.06730283
241	0xbda97ec6	-0.08276133
242	0x3d5fff22	0.054686673
243	0x3dbe8096	0.093018696
244	0xbd49d29a	-0.04927311
245	0x3db929a4	0.090411454
246	0x3d9bfbb5	0.07616369
247	0x3d7b7af9	0.061396573
248	0x3c523ea1	0.012832315
249	0xbdd6d5af	-0.10489976
250	0x3d67a27d	0.056551445
251	0x3dcc038f	0.09961616
252	0xbca89147	-0.020577086
253	0x3de63eb1	0.11242426
254	0xbd403409	-0.046924625
255	0xbe07f04c	-0.1327526

network_body._body_endoder.seq_layers.2.bias f4 [128]
0	0x00000000	0.0
1	0x00000000	0.0
2	0x00000000	0.0
3	0x00000000	0.0
4	0x00000000	0.0
5	0x00000000	0.0
6	0x00000000	0.0
7	0x00000000	0.0
8	0x00000000	0.0
9	0x00000000	0.0
10	0x00000000	0.0
11	0x00000000	0.0
12	0x00000000	0.0
13	0x00000000	0.0
14	0x00000000	0.0
15	0x00000000	0.0
16	0x00000000	0.0
17	0x00000000	0.0
18	0x00000000	0.0
19	0x00000000	0.0
20	0x00000000	0.0
21	0x00000000	0.0
22	0x00000000	0.0
23	0x00000000	0.0
24	0x00000000	0.0
25	0x00000000	0.0
26	0x00000000	0.0
27	0x00000000	0.0
28	0x00000000	0.0
29	0x00000000	0.0
30	0x00000000	0.0
31	0x00000000	0.0
32	0x00000000	0.0
33	0x00000000	0.0
34	0x00000000	0.0
35	0x00000000	0.0
36	0x00000000	0.0
37	0x00000000	0.0
38	0x00000000	0.0
39	0x00000000	0.0
40	0x00000000	0.0
41	0x00000000	0.0
42	0x00000000	0.0
43	0x00000000	0.0
44	0x00000000	0.0
45	0x00000000	0.0
46	0x00000000	0.0
47	0x00000000	0.0
48	0x00000000	0.0
49	0x00000000	0.0
50	0x00000000	0.0
51	0x00000000	0.0
52	0x00000000	0.0
53	0x00000000	0.0
54	0x00000000	0.0
55	0x00000000	0.0
56	0x00000000	0.0
57	0x00000000	0.0
58	0x00000000	0.0
59	0x00000000	0.0
60	0x00000000	0.0
61	0x00000000	0.0
62	0x00000000	0.0
63	0x00000000	0.0
64	0x00000000	0.0
65	0x00000000	0.0
66	0x00000000	0.0
67	0x00000000	0.0
68	0x00000000	0.0
69	0x00000000	0.0
70	0x00000000	0.0
71	0x00000000	0.0
72	0x00000000	0.0
73	0x00000000	0.0
74	0x00000000	0.0
75	0x00000000	0.0
76	0x00000000	0.0
77	0x00000000	0.0
78	0x00000000	0.0
79	0x00000000	0.0
80	0x00000000	0.0
81	0x00000000	0.0
82	0x00000000	0.0
83	0x00000000	0.0
84	0x00000000	0.0
85	0x00000000	0.0
86	0x00000000	0.0
87	0x00000000	0.0
88	0x00000000	0.0
89	0x00000000	0.0
90	0x00000000	0.0
91	0x00000000	0.0
92	0x00000000	0.0
93	0x00000000	0.0
94	0x00000000	0.0
95	0x00000000	0.0
96	0x00000000	0.0
97	0x00000000	0.0
98	0x00000000	0.0
99	0x00000000	0.0
100	0x00000000	0.0
101	0x00000000	0.0
102	0x00000000	0.0
103	0x00000000	0.0
104	0x00000000	0.0
105	0x00000000	0.0
106	0x00000000	0.0
107	0x00000000	0.0
108	0x00000000	0.0
109	0x00000000	0.0
110	0x00000000	0.0
111	0x00000000	0.0
112	0x00000000	0.0
113	0x00000000	0.0
114	0x00000000	0.0
115	0x00000000	0.0
116	0x00000000	0.0
117	0x00000000	0.0
118	0x00000000	0.0
119	0x00000000	0.0
120	0x00000000	0.0
121	0x00000000	0.0
122	0x00000000	0.0
123	0x00000000	0.0
124	0x00000000	0.0
125	0x00000000	0.0
126	0x00000000	0.0
127	0x00000000	0.0

action_model._continuous_distribution.log_sigma f4 [1, 2]
0	0x00000000	0.0
1	0x00000000	0.0

action_model._continuous_distribution.mu.weight f4 [2, 128]
0	0xbce7a342	-0.02827609
1	0x3c6ab5b5	0.014325549
2	0xbc92bcb2	-0.017912243
3	0xbc722b13	-0.0147807775
4	0xbc1fda52	-0.009756641
5	0x3992a683	0.0002797135
6	0x3d01294e	0.03153353
7	0x3ce8e5f3	0.02842996
8	0x3cbdf0e2	0.023186151
9	0xbcca3df8	-0.024687752
10	0xbc44e7bd	-0.012018141
11	0xbc927783	-0.017879253
12	0xbcbc2ec7	-0.022971524
13	0x3c2a759c	0.010404017
14	0x3bf142f8	0.0073627196
15	0x3c7bb57d	0.015363094
16	0x3c1c7b47	0.009550876
17	0x3d0770ff	0.033066746
18	0xbd0f4c63	-0.034984957
19	0xbbc32f02	-0.0059565315
20	0xbc08799b	-0.008329774
21	0xbc6f6dfa	-0.014613623
22	0xbcabd50b	-0.02097561
23	0x3bff980d	0.0078001083
24	0xbb8c5a84	-0.0042832512
25	0xbbfedf77	-0.007778104
26	0x3c1bd95d	0.009512273
27	0x3c3542d3	0.011063295
28	0x3c6ea458	0.01456555
29	0xbc5c86da	-0.0134598855
30	0x3c7a1be0	0.015265435
31	0xbb186fb3	-0.0023259937
32	0xba90d0a8	-0.0011048513
33	0xbb052566	-0.002031648
34	0x3c8d9147	0.017281188
35	0x3c735360	0.014851421
36	0x3be24af5	0.006905908
37	0xbcbe1bc2	-0.023206595
38	0x3ce34707	0.02774383
39	0x3c97bb16	0.018521827
40	0xba7e9c03	-0.00097125786
41	0xbd087bbb	-0.033321124
42	0xbb45ceed	-0.0030183152
43	0x3bf2fa1a	0.0074150683
44	0xbc2c69ee	-0.0105233025
45	0x3c60c15f	0.013717978
46	0x3c8ae4e5	0.016954849
47	0x3d2ac713	0.04169376
48	0xbcb5425f	-0.022126375
49	0x3c9aa71e	0.018878516
50	0xbb81b656	-0.0039585037
51	0xbb890402	-0.004181386
52	0x3c77bf43	0.015121284
53	0x3ca3ca0e	0.019993808
54	0xbc83ecca	-0.01610412
55	0x3c1f230f	0.009712948
56	0x3d23f88f	0.040031966
57	0x3b8bd9dc	0.004267914
58	0x3c422a07	0.01185084
59	0xbc6d966a	-0.014501194
60	0xbcab7c0b	-0.020933172
61	0x3af8580f	0.0018947142
62	0xbb456358	-0.0030119028
63	0x3c35fe16	0.011107942
64	0xbcc106bc	-0.023562782
65	0x3c7837a2	0.015149983
66	0xba389254	-0.00070408476
67	0x3baf264b	0.005345141
68	0xbcd3cdef	-0.025855033
69	0xbc804f1b	-0.01566272
70	0x3c93b193	0.01802901
71	0xbd01c688	-0.031683475
72	0xbb86d990	-0.004115291
73	0x3c5b5c10	0.013388649
74	0x3c9990f7	0.018745882
75	0xbca98471	-0.020693036
76	0x3c18b881	0.009321333
77	0x3b76caca	0.0037657493
78	0xbc2f555b	-0.010701503
79	0x3c67dd2a	0.014151851
80	0x3c1184bb	0.008881743
81	0xbc3e2efb	-0.011607881
82	0xba10479b	-0.0005503834
83	0xbce6f610	-0.028193504
84	0xbbe0ceb5	-0.006860579
85	0xbd0487cf	-0.03235608
86	0xbc50202b	-0.012702982
87	0x3c9b7be2	0.01897997
88	0xbca4ecbf	-0.02013242
89	0xbb86dcd7	-0.0041156816
90	0x3c629e72	0.013831722
91	0xbc166a1f	-0.009180575
92	0xbc2b896c	-0.010469776
93	0x39ea1e22	0.0004465441
94	0xbcb32bfa	-0.021871556
95	0xbc3edd03	-0.011649373
96	0xbc15bad2	-0.00913878
97	0xbc7d10f2	-0.015445935
98	0x3c808a09	0.01569082
99	0xbb6b8462	-0.003593706
100	0xbb2aa4c3	-0.0026038147
101	0xbbab188d	-0.0052214325
102	0x3aecb9ea	0.0018060778
103	0xbc080b3c	-0.00830346
104	0xb6b64a67	-5.4326842e-06
105	0x3cfbd02f	0.030738918
106	0xbbd58c5b	-0.006516976
107	0x3c6d4f35	0.014484216
108	0xbc35a41c	-0.01108649
109	0x3b984bea	0.0046477215
110	0x3c32dd97	0.010917089
111	0xbcd7d6a2	-0.026347462
112	0x3bd29263	0.006426142
113	0xbb093db1	-0.0020941312
114	0x3ceec497	0.029146476
115	0xbcbff677	-0.023432953
116	0xbb224034	-0.0024757506
117	0x3c9f8fec	0.019477807
118	0xbc386e2e	-0.011256738
119	0xbc6c33ad	-0.014416617
120	0x3d0fd82a	0.03511826
121	0xbc11042f	-0.008851095
122	0x3c582d7a	0.013194436
123	0x3c845dd9	0.016158031
124	0xbc2a78d0	-0.0104047805
125	0x3c7c0e15	0.015384217
126	0x3c8b56f3	0.017009234
127	0x3c9d2137	0.019180877
128	0x3cb330f9	0.021873938
129	0xbbf745cd	-0.0075461627
130	0xbbf95cb3	-0.0076099276
131	0xbc65ee70	-0.014033899
132	0xbbd1339d	-0.0063843266
133	0xbb04073a	-0.002014591
134	0xbcc7fc4f	-0.024412302
135	0x3cde316a	0.027123172
136	0x3b8ad78e	0.004237122
137	0xbc2dbda8	-0.0106043
138	0x3ce1a870	0.027546138
139	0x3ba812bc	0.0051291864
140	0xbce75a7b	-0.028241387
141	0x3d059089	0.032608543
142	0xbc0fe003	-0.008781436
143	0x3c988cee	0.018621888
144	0x3c5c5c97	0.0134498095
145	0x3c49eb2b	0.012324135
146	0xbb8a9aaa	-0.004229863
147	0x3b61b430	0.0034439676
148	0x3cddf67b	0.02709507
149	0xbac54d58	-0.0015052957
150	0x3bf902e3	0.007599221
151	0x3cbe9e35	0.023268798
152	0x3ca25453	0.0198156
153	0x3c3567ab	0.01107208
154	0xbb04a931	-0.0020242447
155	0x3c8e5e0b	0.017378828
156	0x3ba9f035	0.0051861056
157	0x3c5a52af	0.013325377
158	0xbaf8f938	-0.0018995171
159	0xbcc4518f	-0.023964671
160	0x3cd171aa	0.025566895
161	0x3c3effc3	0.011657658
162	0x3ba804cf	0.0051275264
163	0x3c012e8b	0.007884632
164	0x3b5f61e3	0.0034085445
165	0xbc98b69d	-0.018641764
166	0x3c414959	0.011797273
167	0x3c82d8b7	0.015972478
168	0x3c1dc946	0.009630507
169	0x3d336d4c	0.043805405
170	0x3cf0ea65	0.029408643
171	0x3c620e23	0.013797316
172	0x3cbf0d1e	0.023321684
173	0x3c7c36d8	0.015393935
174	0xbb597e1b	-0.0033186737
175	0x3ca4fa82	0.020138983
176	0xbc89095b	-0.016728094
177	0xbc4e1a12	-0.012579458
178	0xbabb8089	-0.0014305274
179	0x3d0cb1f7	0.034349408
180	0x3c699290	0.014256135
181	0x3cf01a80	0.029309511
182	0x3c7776ed	0.015104038
183	0xbcc14d67	-0.023596479
184	0xba18079b	-0.0005799473
185	0x3c25457b	0.010087366
186	0xbb255bbf	-0.0025231687
187	0x3c3e7ea4	0.011626873
188	0x3bf08267	0.007339764
189	0x3bac3658	0.0052555017
190	0xbaa967db	-0.0012924628
191	0x3c6f74ed	0.01461528
192	0xba8545a0	-0.0010167845
193	0xbc29ae20	-0.010356456
194	0xbca5a1a7	-0.020218683
195	0x3c64932d	0.013951105
196	0xba2b2db8	-0.0006529945
197	0xbcc5396f	-0.024075238
198	0xbc887bed	-0.016660655
199	0x3cfac205	0.030610094
200	0x3af8fd02	0.0018996301
201	0xbb93996d	-0.0045043738
202	0x3c69fbf3	0.014281261
203	0x3c348079	0.011016958
204	0xbd03b562	-0.032155402
205	0x3bf778f3	0.00755226
206	0xbb4b9c41	-0.0031068476
207	0x3c12ccd1	0.008959965
208	0x3d2bae3b	0.041914206
209	0x3c203fab	0.009780805
210	0x3bb7f805	0.005614283
211	0xbb979592	-0.0046259845
212	0xbb3dae64	-0.0028943056
213	0x3c0555d0	0.008138135
214	0x3cab7fd5	0.020934979
215	0xbc299337	-0.01035004
216	0x3c1e854d	0.009675336
217	0xbb8c7e5d	-0.0042875246
218	0x3cb9e725	0.022693226
219	0xbc4a7c2f	-0.012358709
220	0xbc95b36e	-0.018274035
221	0xbc7357ef	-0.014852508
222	0xbca9e0d4	-0.02073709
223	0xbcc01978	-0.023449644
224	0x3beda742	0.0072526047
225	0xbb976e56	-0.0046213074
226	0xbc5a8d25	-0.013339316
227	0xbd790eba	-0.06080506
228	0x3c03b6a1	0.008039148
229	0x3c0ffe54	0.008788664
230	0x3c48e596	0.012261769
231	0x3d657dc8	0.056028157
232	0x3c74a467	0.014931775
233	0x3c5012cf	0.012699797
234	0x3ccf1faf	0.025283663
235	0xbcb823d3	-0.02247802
236	0x3b157538	0.0022805464
237	0x3ca5560f	0.020182637
238	0xbbd7e2ea	-0.0065883296
239	0xbc89c001	-0.016815187
240	0xbc566f2a	-0.013088027
241	0x3d02056f	0.031743463
242	0xbbdcbb2d	-0.0067361803
243	0x3bed80a2	0.0072480002
244	0xbb9ea488	-0.004841391
245	0xbbe0ded7	-0.006862502
246	0xbc124e93	-0.008929866
247	0xbac3d33d	-0.0014940273
248	0xbc066e17	-0.008204958
249	0xbc45af2a	-0.012065688
250	0xbc06f1e0	-0.008236378
251	0xbca15456	-0.019693535
252	0xbbfb59fa	-0.007670638
253	0x3cd3f58a	0.025873918
254	0xbc80e3a2	-0.015733544
255	0xbc8378b7	-0.016048772

action_model._continuous_distribution.mu.bias f4 [2]
0	0x00000000	0.0
1	0x00000000	0.0

network_body._body_endoder.seq_layers.0.weight f4 [128, 6]
0	0xbd8312e7	-0.0640009
1	0x3e84d4d8	0.25943637
2	0xbe657fc9	-0.22412027
3	0xbe9e4eab	-0.30919394
4	0xbde87ae7	-0.11351567
5	0xbd72d973	-0.059289407
6	0xbf25d1a5	-0.6477302
7	0xbe55bb92	-0.20872334
8	0x3f0a0ac0	0.53922653
9	0xbef77591	-0.48331884
10	0xbee68f97	-0.45031425
11	0xbe8b02a7	-0.2715046
12	0xbbeb3837	-0.007178332
13	0x3ddcf1ec	0.107883304
14	0x3f66a17a	0.90090144
15	0x3f0b58b2	0.54432213
16	0x3eeeff40	0.46679115
17	0xbf195a3b	-0.59903306
18	0x3e750b77	0.23930155
19	0xbe05852f	-0.13039087
20	0x3e6813a6	0.22663745
21	0x3e3b0734	0.18264467
22	0xbf22b89f	-0.6356296
23	0x3e346fac	0.17620724
24	0xbe3d8f5f	-0.18511723
25	0xbd9451d3	-0.07242169
26	0xbede3060	-0.43396282
27	0xbebad354	-0.36489356
28	0x3eb7e6bb	0.3591822
29	0x3db9c9d6	0.090717
30	0xbd56bec3	-0.05242802
31	0xbe2f78fc	-0.17135996
32	0x3d2f567d	0.04280709
33	0xbef7577c	-0.48308933
34	0x3d8330ca	0.0640579
35	0xbd51ba87	-0.051203277
36	0x3ea920d3	0.33032855
37	0xbeee1d54	-0.4650675
38	0xbf0bad82	-0.54561627
39	0x3e9ef818	0.31048656
40	0x3f047a14	0.51748776
41	0x3e85821e	0.26075834
42	0x3f12548c	0.5716026
43	0xbcbf9840	-0.023388028
44	0xbf1e733d	-0.6189459
45	0xbc3a2c78	-0.011363141
46	0x3e2a20c1	0.16614057
47	0xbead8c31	-0.3389602
48	0xbe85d59c	-0.26139534
49	0x3cfcc9b6	0.030857902
50	0xbf4edbe7	-0.80804294
51	0x3e03d150	0.12872815
52	0xbeb4a305	-0.35280624
53	0xbf076f6a	-0.5290438
54	0xbf0309dc	-0.5118692
55	0xbe47b180	-0.19501305
56	0x3e9ba71b	0.3040093
57	0x3ec8f0ed	0.39246312
58	0x3f046380	0.51714325
59	0x3de44a4d	0.11146984
60	0x3eb2bf05	0.3491136
61	0x3cd404bf	0.02588117
62	0x3db84d29	0.08999092
63	0x3cf128ac	0.02943834
64	0x3dfc9993	0.123339795
65	0xbde81dd9	-0.11333818
66	0x3f6d4687	0.9268574
67	0x3e9eeca8	0.3103993
68	0x3f4ca69f	0.79941744
69	0x3f36354a	0.7117506
70	0x3e916e3e	0.2840442
71	0x3d910919	0.07081813
72	0xbe5d5375	-0.21613868
73	0x3f638cce	0.88886726
74	0x3e02d3cc	0.12776107
75	0x3f171166	0.5901092
76	0xbea8196e	-0.328319
77	0xbd98a8de	-0.07454084
78	0x3e4972ad	0.19672652
79	0x3ee6ffb3	0.45116958
80	0x3e1fa12c	0.15588826
81	0xbd5395d9	-0.051656578
82	0xbd8c713b	-0.068575345
83	0xbee7b101	-0.4525223
84	0x3dcef8ea	0.1010607
85	0x3ee6d449	0.45083836
86	0x3dbe9f94	0.09307781
87	0xbeb54ccd	-0.35410157
88	0x3f76f4dc	0.96467376
89	0x3f0d5da7	0.5522103
90	0xbe319eac	-0.17345685
91	0xbecbae76	-0.3978154
92	0xbf213c44	-0.62982583
93	0x3f1cf0da	0.6130501
94	0x3e8958f8	0.2682569
95	0xbea9d286	-0.3316843
96	0x3f51a016	0.81884897
97	0x3e5cbce3	0.2155643
98	0x3f29a098	0.6626067
99	0xbe651744	-0.22372156
100	0xbf93b7ad	-1.1540428
101	0x3e360f77	0.17779337
102	0xbec81420	-0.39077854
103	0x3dba947f	0.09110355
104	0xbe88e2cc	-0.26735532
105	0x3fa29017	1.2700223
106	0x3e45891d	0.19290586
107	0xbe9b22ff	-0.30300137
108	0x3f0dc83c	0.5538366
109	0xbcd91504	-0.026499279
110	0xbd6e5a91	-0.05819184
111	0xbf763239	-0.96170384
112	0xbe02326b	-0.12714545
113	0xbe8f1a7d	-0.27949896
114	0x3ec8f7c0	0.39251518
115	0x3e806a19	0.25080946
116	0x3e6ae5c8	0.22939217
117	0xbe814cb7	-0.2525384
118	0xbedc11ca	-0.42982322
119	0xbed4be8a	-0.4155162
120	0xbe5ee847	-0.21768294
121	0xbe2ce5e1	-0.16884567
122	0x3f1d8e0c	0.6154487
123	0x3d4c3db2	0.049863525
124	0x3e5fb471	0.21846177
125	0x3e5acdfc	0.2136764
126	0x3f7518c9	0.95740944
127	0xbef2a706	-0.47393054
128	0x3f174c1d	0.59100515
129	0xbe3c4f18	-0.18389547
130	0x3d9b022b	0.07568773
131	0x3f2a3eb6	0.6650194
132	0x3ecf458e	0.40482754
133	0x3ebf7c80	0.37399673
134	0xbe0459f9	-0.12924947
135	0x3ec00346	0.37502497
136	0xbe29c762	-0.16579965
137	0x3e3d2efa	0.18474951
138	0xbee95b46	-0.4557745
139	0xbcc9fb67	-0.02465601
140	0x3f6cc533	0.924884
141	0x3ecee4a5	0.40408817
142	0xbe1c20b4	-0.1524685
143	0x3eba1a45	0.36348167
144	0xbe8f71ec	-0.28016603
145	0x3e9f6784	0.31133664
146	0x3ecac898	0.39606166
147	0x3ec43fc8	0.3832991
148	0xbe6d0367	-0.23145829
149	0xbddc42e0	-0.10754943
150	0xbf551569	-0.83235794
151	0x3d3da957	0.046304073
152	0xbf065564	-0.52474046
153	0xbf55aeb9	-0.8346973
154	0x3f8bd0c6	1.0923088
155	0x3e9b7cce	0.30368656
156	0xbf011009	-0.5041509
157	0xbe4107a1	-0.18850566
158	0xbdf7dda2	-0.1210282
159	0xbe8dd733	-0.27703246
160	0xbe2afc58	-0.16697824
161	0x3dce930a	0.10086639
162	0xbe9e2205	-0.3088533
163	0xbe333439	-0.1750039
164	0x3e894d5d	0.26816836
165	0x3ef5c775	0.48003736
166	0xbe9bf211	-0.3045812
167	0xbcf8facd	-0.030393029
168	0xbdd5841e	-0.1042559
169	0xbc4e49c1	-0.0125908265
170	0xbda9d3b4	-0.08292332
171	0x3db73f71	0.08947647
172	0x3daedff3	0.08538809
173	0xbe63b783	-0.22237973
174	0x3ef3fe20	0.4765482
175	0xbed553c9	-0.41665486
176	0x3d8c3bd6	0.0684735
177	0x3f9c1d70	1.2196484
178	0x3eccc8e9	0.39997032
179	0xbf1e315c	-0.61794066
180	0xbd4ce201	-0.05002022
181	0xbef1a795	-0.47198167
182	0x3e738a42	0.2378321
183	0x3efca6a7	0.49345896
184	0xbdffee91	-0.12496675
185	0xbf018404	-0.50592065
186	0x3ec7329f	0.38905808
187	0x3eff300a	0.49841338
188	0x3ea0eb8c	0.31429708
189	0xbf1a68a4	-0.6031592
190	0xbdb45f61	-0.088072546
191	0xbe3d0a7c	-0.1846103
192	0xbed8c9ef	-0.42341563
193	0x3f916bb7	1.1360997
194	0xbed1f542	-0.4100743
195	0x3f1f7160	0.6228237
196	0xbf38bfa9	-0.7216745
197	0xbf30a8b9	-0.6900745
198	0x3e6b2e3d	0.22966857
199	0x3eeb8a34	0.46003878
200	0xbefd9960	-0.49531078
201	0xbe027d8f	-0.1274321
202	0x3f2356ea	0.63804495
203	0xbf13dffd	-0.57763654
204	0xbe471bca	-0.19444194
205	0x3ed752eb	0.4205545
206	0xbf12990c	-0.5726478
207	0xbf401f5c	-0.7504785
208	0x3e648cf4	0.22319394
209	0x3ba01e51	0.0048864265
210	0x3f05e400	0.52301025
211	0xbf361125	-0.7111991
212	0x3e69306a	0.22772375
213	0x3f00932e	0.5022458
214	0xbd6dfa4a	-0.058100022
215	0xbdab766e	-0.08372198
216	0x3d64e1ac	0.05587928
217	0xbc931c77	-0.017957909
218	0xbe8bddd1	-0.2731767
219	0x3f0a4e92	0.5402614
220	0xbe261faf	-0.16223024
221	0x3e3cc8c2	0.18435958
222	0x3d0adce8	0.03390208
223	0xbe322d65	-0.17400129
224	0x3f2542cc	0.6455505
225	0xbd255429	-0.040363465
226	0x3e84de62	0.25950915
227	0x3dce10bf	0.10061788
228	0x3e0f4489	0.13990988
229	0x3ee521d6	0.44752377
230	0x3ea93467	0.33047792
231	0x3e39d047	0.18145858
232	0xbf047375	-0.51738673
233	0x3eb4dc79	0.35324457
234	0x3e19aa3b	0.15006344
235	0xbe316095	-0.17322
236	0xbeb9d204	-0.36293042
237	0xbf01ab5f	-0.50652117
238	0x3db3fb27	0.08788138
239	0xbe22be1a	-0.1589283
240	0x3f3b299d	0.7311037
241	0xbedb286f	-0.42804286
242	0x3e262116	0.16223559
243	0x3ec8168d	0.39079705
244	0x3e78ed40	0.24309254
245	0x3eb7381a	0.3578499
246	0x3f3c935a	0.7366234
247	0xbdd171d5	-0.1022679
248	0xbe114412	-0.14186123
249	0x3f05fd2b	0.5233943
250	0x3e9af9aa	0.30268604
251	0x3e848c77	0.25888416
252	0x3ead4652	0.33842713
253	0x3eb87541	0.36026958
254	0xbeb46ef0	-0.3524089
255	0xbe3c9c3b	-0.18418972

network_body._body_endoder.seq_layers.0.bias f4 [128]
0	0x00000000	0.0
1	0x00000000	0.0
2	0x00000000	0.0
3	0x00000000	0.0
4	0x00000000	0.0
5	0x00000000	0.0
6	0x00000000	0.0
7	0x00000000	0.0
8	0x00000000	0.0
9	0x00000000	0.0
10	0x00000000	0.0
11	0x00000000	0.0
12	0x00000000	0.0
13	0x00000000	0.0
14	0x00000000	0.0
15	0x00000000	0.0
16	0x00000000	0.0
17	0x00000000	0.0
18	0x00000000	0.0
19	0x00000000	0.0
20	0x00000000	0.0
21	0x00000000	0.0
22	0x00000000	0.0
23	0x00000000	0.0
24	0x00000000	0.0
25	0x00000000	0.0
26	0x00000000	0.0
27	0x00000000	0.0
28	0x00000000	0.0
29	0x00000000	0.0
30	0x00000000	0.0
31	0x00000000	0.0
32	0x00000000	0.0
33	0x00000000	0.0
34	0x00000000	0.0
35	0x00000000	0.0
36	0x00000000	0.0
37	0x00000000	0.0
38	0x00000000	0.0
39	0x00000000	0.0
40	0x00000000	0.0
41	0x00000000	0.0
42	0x00000000	0.0
43	0x00000000	0.0
44	0x00000000	0.0
45	0x00000000	0.0
46	0x00000000	0.0
47	0x00000000	0.0
48	0x00000000	0.0
49	0x00000000	0.0
50	0x00000000	0.0
51	0x00000000	0.0
52	0x00000000	0.0
53	0x00000000	0.0
54	0x00000000	0.0
55	0x00000000	0.0
56	0x00000000	0.0
57	0x00000000	0.0
58	0x00000000	0.0
59	0x00000000	0.0
60	0x00000000	0.0
61	0x00000000	0.0
62	0x00000000	0.0
63	0x00000000	0.0
64	0x00000000	0.0
65	0x00000000	0.0
66	0x00000000	0.0
67	0x00000000	0.0
68	0x00000000	0.0
69	0x00000000	0.0
70	0x00000000	0.0
71	0x00000000	0.0
72	0x00000000	0.0
73	0x00000000	0.0
74	0x00000000	0.0
75	0x00000000	0.0
76	0x00000000	0.0
77	0x00000000	0.0
78	0x00000000	0.0
79	0x00000000	0.0
80	0x00000000	0.0
81	0x00000000	0.0
82	0x00000000	0.0
83	0x00000000	0.0
84	0x00000000	0.0
85	0x00000000	0.0
86	0x00000000	0.0
87	0x00000000	0.0
88	0x00000000	0.0
89	0x00000000	0.0
90	0x00000000	0.0
91	0x00000000	0.0
92	0x00000000	0.0
93	0x00000000	0.0
94	0x00000000	0.0
95	0x00000000	0.0
96	0x00000000	0.0
97	0x00000000	0.0
98	0x00000000	0.0
99	0x00000000	0.0
100	0x00000000	0.0
101	0x00000000	0.0
102	0x00000000	0.0
103	0x00000000	0.0
104	0x00000000	0.0
105	0x00000000	0.0
106	0x00000000	0.0
107	0x00000000	0.0
108	0x00000000	0.0
109	0x00000000	0.0
110	0x00000000	0.0
111	0x00000000	0.0
112	0x00000000	0.0
113	0x00000000	0.0
114	0x00000000	0.0
115	0x00000000	0.0
116	0x00000000	0.0
117	0x00000000	0.0
118	0x00000000	0.0
119	0x00000000	0.0
120	0x00000000	0.0
121	0x00000000	0.0
122	0x00000000	0.0
123	0x00000000	0.0
124	0x00000000	0.0
125	0x00000000	0.0
126	0x00000000	0.0
127	0x00000000	0.0

network_body._body_endoder.seq_layers.2.weight f4 [128, 128]
0	0xbd162018	-0.0366517
1	0x3dc849dc	0.097797126
2	0x3bdb5089	0.00669295
3	0xbde37a19	-0.11107273
4	0xbd722218	-0.059114546
5	0xbbc64927	-0.006051201
6	0xbcb7e431	-0.022447677
7	0x3c95d338	0.018289194
8	0xbc996885	-0.018726597
9	0xbcfa60f1	-0.030563803
10	0xbc5e0fc1	-0.013553561
11	0x3e5b0dca	0.21391979
12	0xbd519aa9	-0.051172886
13	0xbd20036c	-0.039065763
14	0xbc8441f5	-0.016144732
15	0x3daccd4d	0.084375955
16	0x3d66eadc	0.056376323
17	0x3d68ecb5	0.056866366
18	0x3d090bf6	0.033458672
19	0xbe221ff0	-0.15832496
20	0x3deab94b	0.11461123
21	0x3d23d6bd	0.039999712
22	0xbd4cdbc1	-0.05001426
23	0x3d253232	0.040331073
24	0xbdae5896	-0.0851299
25	0x3c805a6e	0.01566812
26	0x3d4f98aa	0.0506827
27	0xbe8b7660	-0.2723875
28	0xbd980d98	-0.07424468
29	0x3df0c6ab	0.11756643
30	0x3ddd4bb0	0.10805452
31	0xbe4d0633	-0.20021896
32	0xbd932511	-0.07184804
33	0xbd51af8f	-0.051192816
34	0x3cda91fa	0.026680935
35	0xbd7199bc	-0.058984503
36	0x3d8326ba	0.06403871
37	0x3db2a59c	0.08722994
38	0x3cfcdcf8	0.030867085
39	0xbdcb0c3f	-0.09914445
40	0x3d2eed56	0.04270681
41	0x3c89b385	0.016809234
42	0x3c19e0d4	0.009391982
43	0xbd89a108	-0.067201674
44	0x3d86880a	0.06568916
45	0xbd1a727b	-0.037706833
46	0x3c718363	0.014740798
47	0xbcb68731	-0.022281261
48	0xbd5e6ea1	-0.054304723
49	0x3bd670b8	0.006544199
50	0x3dae5577	0.08512395
51	0xbb5e65b4	-0.0033935132
52	0xbb10e642	-0.00221099
53	0x3dcfd348	0.101477206
54	0xbd031cf5	-0.032010037
55	0xbd7235e2	-0.059133418
56	0x3e76816a	0.24072805
57	0xbdc87ace	-0.09789048
58	0x3ded5e3d	0.1159024
59	0x3d28a953	0.041177105
60	0x3e1eafa2	0.15496686
61	0xbde05e15	-0.10955445
62	0xbb53bd96	-0.0032309047
63	0xba2cdecb	-0.0006594478
64	0xbc846b17	-0.016164346
65	0x3c2fb532	0.010724353
66	0xbd658d3f	-0.056042906
67	0xbd61bb7c	-0.05511044
68	0xbd377420	-0.04478848
69	0xbd8c5187	-0.068514876
70	0x3d16eaba	0.036844946
71	0x3c2974b1	0.010342763
72	0x3ab7a71f	0.0014011598
73	0x3de4549a	0.11148949
74	0x3e2b746c	0.1674363
75	0xbdf1ac62	-0.118004575
76	0xbd7ab9cd	-0.06121235
77	0x3cb80f2c	0.022468172
78	0xbdbb5d4a	-0.09148653
79	0x3d99597e	0.074877724
80	0x3e4869ce	0.19571611
81	0x3d855929	0.065111466
82	0x3dd89723	0.10575702
83	0xbda50b92	-0.080588475
84	0x3c907849	0.017635481
85	0xbd4916ad	-0.04909389
86	0x3cbc0e7f	0.022956131
87	0xbc6aee5d	-0.014339057
88	0x3cc05027	0.02347572
89	0x3de54456	0.11194675
90	0xbd4a0f2b	-0.04933087
91	0xbd88e243	-0.06683781
92	0xbde79bc2	-0.11309005
93	0x3c6fbd07	0.01463247
94	0x3abbedfd	0.0014337894
95	0x3d7d536e	0.061847143
96	0x3b82a2ff	0.003986716
97	0x3d7d3b3f	0.06182408
98	0xbda8c36e	-0.082404
99	0x3d727198	0.059190363
100	0x3c4c2340	0.012459576
101	0xbd078880	-0.03308916
102	0x3e1a1eb4	0.15050775
103	0xbd5f8c57	-0.054577198
104	0x3bf604ca	0.007507895
105	0xbc93991e	-0.018017348
106	0xbe101230	-0.14069438
107	0xbc9f2d99	-0.019430922
108	0xbdaad98e	-0.083422765
109	0xbdc5d384	-0.09659484
110	0x3d354eaa	0.044264473
111	0x3b8ed23f	0.0043585594
112	0xbdb756e3	-0.08952119
113	0xbe1ab8c5	-0.15109546
114	0x3dfa4023	0.12219264
115	0x3d5cd695	0.05391558
116	0x3d30192f	0.042992767
117	0x3e0acc4e	0.13554499
118	0xbe50b3b8	-0.20381057
119	0xbddbbf7f	-0.10729884
120	0xbc294139	-0.010330492
121	0x3d8afda2	0.06786658
122	0xbc80b069	-0.015709119
123	0xbdb512b2	-0.088414565
124	0xbd4ca075	-0.04995771
125	0xbd2ec679	-0.042669747
126	0x3cef9b2e	0.0292488
127	0x3c9b478c	0.018955015
128	0x3d13be06	0.036069892
129	0x3d16e72c	0.036841556
130	0x3e3d2a57	0.18473183
131	0xbda158a0	-0.07878232
132	0xbcc65a07	-0.02421285
133	0xbe126d39	-0.14299478
134	0x3e55cd47	0.20879088
135	0xbe59b667	-0.21260987
136	0x3d852368	0.06500894
137	0xbd8034d0	-0.06260073
138	0x3e84b6e2	0.2592078
139	0xbdd30a2b	-0.10304674
140	0x3cd6fb97	0.026243014
141	0xbc6cd3e3	-0.014454815
142	0x3d6106ce	0.05493813
143	0xbdc7144e	-0.0972067
144	0xbb1cd0c5	-0.0023928147
145	0xbcf81b3a	-0.03028642
146	0xbb710178	-0.0036774557
147	0xbd164bf3	-0.036693525
148	0x3ce19806	0.02753831
149	0xbd47466c	-0.048651144
150	0xbd5768ec	-0.052590296
151	0xbda87f0f	-0.082273595
152	0x3c7d987a	0.015478248
153	0xbda6d2ad	-0.08145652
154	0xbda017c9	-0.07817037
155	0x3c9bc368	0.019014075
156	0x3e499617	0.19686161
157	0xbdd26bbe	-0.102744564
158	0xbc89f207	-0.01683904
159	0xbd3fbaf2	-0.046809144
160	0x3d0cc746	0.03436973
161	0x3d02276d	0.03177588
162	0x3c060cc6	0.008181756
163	0xbca6b595	-0.020350257
164	0xbdc339fe	-0.095325455
165	0xbdf6f442	-0.12058307
166	0xbd7b2141	-0.06131101
167	0xbc7ca65f	-0.015420525
168	0xbd919ad2	-0.07109608
169	0x3d4254e2	0.04744423
170	0x3e48e37f	0.19618033
171	0xbdbd5627	-0.09244948
172	0x3d797a3b	0.060907584
173	0x3bb89429	0.0056328964
174	0x3e222045	0.15832622
175	0xbdc2dcd6	-0.09514777
176	0x3c700f57	0.014652095
177	0xbc2ef38b	-0.010678182
178	0x3bd39b94	0.0064577553
179	0xbe07fe4a	-0.13280597
180	0xbdcf319a	-0.101168826
181	0xbd54f9ca	-0.05199603
182	0xbd20f92b	-0.039300125
183	0xbd8f85ce	-0.07007943
184	0xbdfc0cd0	-0.12307131
185	0xbd0367e3	-0.032081496
186	0x3d374441	0.044742826
187	0x3cc74673	0.024325585
188	0xbd224923	-0.03962053
189	0xbcbfd214	-0.023415603
190	0x3cd660d6	0.026169222
191	0xbdd4afa8	-0.10385066
192	0xbd1db000	-0.038497925
193	0xbd46126c	-0.048357412
194	0xbcfd58e3	-0.030926174
195	0x3dcd6e7a	0.10030837
196	0xbd0619ee	-0.032739572
197	0x3d23d2a1	0.039995793
198	0xbdc684ee	-0.09693323
199	0xbcbe43ee	-0.02322575
200	0x3bc3566a	0.005961229
201	0xbb24aa8b	-0.0025126066
202	0x3d9c9f4d	0.07647572
203	0x3da21c7b	0.079155885
204	0xbded7efb	-0.11596485
205	0x3ca36676	0.019946318
206	0x3e255787	0.1614667
207	0xbd216d49	-0.039410863
208	0x3d1f4bc0	0.0388906
209	0xbd39c142	-0.04535032
210	0x3d7786ed	0.06043141
211	0xbe03c55c	-0.12868255
212	0x3acc66e7	0.0015594632
213	0xbcd1ed23	-0.02562577
214	0x3d29b7b0	0.041434944
215	0xbda87525	-0.082254685
216	0x3d949797	0.07255476
217	0xbd030d15	-0.031994898
218	0xbd1485c0	-0.036260366
219	0x3d304aa4	0.043039933
220	0x3da81946	0.082079455
221	0x3c7d0406	0.015442854
222	0xbdad7ed0	-0.08471453
223	0x3c416cbd	0.01180571
224	0x3daa8f5b	0.08328124
225	0x3c260fc7	0.010135598
226	0xbd12f853	-0.03588135
227	0xbd84f2cd	-0.06491623
228	0xbd686cb4	-0.056744292
229	0xbe91685e	-0.28399938
230	0x3dcc7ac6	0.09984355
231	0x3b959047	0.0045643183
232	0xbc7a3911	-0.015272395
233	0xbd65aeda	-0.056074955
234	0xbdcbd80c	-0.09953317
235	0x3c4d4c46	0.012530392
236	0xbc3567ae	-0.011072082
237	0xbd9c63c3	-0.076362155
238	0xbd93f534	-0.07224503
239	0x3c2de295	0.010613103
240	0xbdc0c6d8	-0.094129264
241	0xbdddd79a	-0.10832138
242	0x3da281a0	0.0793488
243	0xbd2eec10	-0.042705595
244	0x3db21029	0.086944886
245	0xbd174384	-0.036929622
246	0x3dceb6c1	0.10093451
247	0xbd3e3ffd	-0.046447743
248	0x3d107067	0.035263445
249	0xbe4c3b92	-0.199446
250	0x3d67d02c	0.056595013
251	0xbce76e35	-0.028250793
252	0xbbe2f5b0	-0.006926261
253	0xbd267f26	-0.040648602
254	0x3d8f1b15	0.06987587
255	0xbe21a15a	-0.15784207

network_body._body_endoder.seq_layers.2.bias f4 [128]
0	0x00000000	0.0
1	0x00000000	0.0
2	0x00000000	0.0
3	0x00000000	0.0
4	0x00000000	0.0
5	0x00000000	0.0
6	0x00000000	0.0
7	0x00000000	0.0
8	0x00000000	0.0
9	0x00000000	0.0
10	0x00000000	0.0
11	0x00000000	0.0
12	0x00000000	0.0
13	0x00000000	0.0
14	0x00000000	0.0
15	0x00000000	0.0
16	0x00000000	0.0
17	0x00000000	0.0
18	0x00000000	0.0
19	0x00000000	0.0
20	0x00000000	0.0
21	0x00000000	0.0
22	0x00000000	0.0
23	0x00000000	0.0
24	0x00000000	0.0
25	0x00000000	0.0
26	0x00000000	0.0
27	0x00000000	0.0
28	0x00000000	0.0
29	0x00000000	0.0
30	0x00000000	0.0
31	0x00000000	0.0
32	0x00000000	0.0
33	0x00000000	0.0
34	0x00000000	0.0
35	0x00000000	0.0
36	0x00000000	0.0
37	0x00000000	0.0
38	0x00000000	0.0
39	0x00000000	0.0
40	0x00000000	0.0
41	0x00000000	0.0
42	0x00000000	0.0
43	0x00000000	0.0
44	0x00000000	0.0
45	0x00000000	0.0
46	0x00000000	0.0
47	0x00000000	0.0
48	0x00000000	0.0
49	0x00000000	0.0
50	0x00000000	0.0
51	0x00000000	0.0
52	0x00000000	0.0
53	0x00000000	0.0
54	0x00000000	0.0
55	0x00000000	0.0
56	0x00000000	0.0
57	0x00000000	0.0
58	0x00000000	0.0
59	0x00000000	0.0
60	0x00000000	0.0
61	0x00000000	0.0
62	0x00000000	0.0
63	0x00000000	0.0
64	0x00000000	0.0
65	0x00000000	0.0
66	0x00000000	0.0
67	0x00000000	0.0
68	0x00000000	0.0
69	0x00000000	0.0
70	0x00000000	0.0
71	0x00000000	0.0
72	0x00000000	0.0
73	0x00000000	0.0
74	0x00000000	0.0
75	0x00000000	0.0
76	0x00000000	0.0
77	0x00000000	0.0
78	0x00000000	0.0
79	0x00000000	0.0
80	0x00000000	0.0
81	0x00000000	0.0
82	0x00000000	0.0
83	0x00000000	0.0
84	0x00000000	0.0
85	0x00000000	0.0
86	0x00000000	0.0
87	0x00000000	0.0
88	0x00000000	0.0
89	0x00000000	0.0
90	0x00000000	0.0
91	0x00000000	0.0
92	0x00000000	0.0
93	0x00000000	0.0
94	0x00000000	0.0
95	0x00000000	0.0
96	0x00000000	0.0
97	0x00000000	0.0
98	0x00000000	0.0
99	0x00000000	0.0
100	0x00000000	0.0
101	0x00000000	0.0
102	0x00000000	0.0
103	0x00000000	0.0
104	0x00000000	0.0
105	0x00000000	0.0
106	0x00000000	0.0
107	0x00000000	0.0
108	0x00000000	0.0
109	0x00000000	0.0
110	0x00000000	0.0
111	0x00000000	0.0
112	0x00000000	0.0
113	0x00000000	0.0
114	0x00000000	0.0
115	0x00000000	0.0
116	0x00000000	0.0
117	0x00000000	0.0
118	0x00000000	0.0
119	0x00000000	0.0
120	0x00000000	0.0
121	0x00000000	0.0
122	0x00000000	0.0
123	0x00000000	0.0
124	0x00000000	0.0
125	0x00000000	0.0
126	0x00000000	0.0
127	0x00000000	0.0

value_heads.value_heads.extrinsic.weight f4 [1, 128]
0	0xbcf18a48	-0.029484883
1	0x3d56ac80	0.052410603
2	0xbde154b3	-0.11002483
3	0xbddb9f22	-0.107237116
4	0x3d6d0078	0.057861775
5	0x3e3b89a2	0.18314222
6	0xbdda9538	-0.106729925
7	0xbe497197	-0.19672237
8	0x3deab5e4	0.11460474
9	0xbda1c210	-0.078983426
10	0x3e48681a	0.19570962
11	0xbc90a530	-0.017656893
12	0xbe5411c2	-0.20709899
13	0xbe0e5fec	-0.13903779
14	0x3dd16028	0.102234185
15	0xbc82c260	-0.015961826
16	0x3e02d216	0.12775454
17	0x3e428fdc	0.1900019
18	0x3c736a30	0.01485686
19	0xbe4df7ac	-0.2011401
20	0x3c9c68c8	0.019092932
21	0x3da10af0	0.07863414
22	0xbcb9fa88	-0.02270247
23	0xbb7f6f00	-0.0038976073
24	0xbe2dfd0e	-0.16991064
25	0x3dd15728	0.10221702
26	0xbe4d2282	-0.20032695
27	0x3e381b34	0.17979127
28	0x3d005c28	0.031337887
29	0x3e29eecc	0.16595
30	0x3e59e094	0.21277076
31	0xbe1038dc	-0.1408419
32	0x3d558538	0.052129
33	0xbe3b9bdd	-0.18321176
34	0x3da3a6a4	0.079907686
35	0xbcbbc2c8	-0.022920027
36	0xbdd2e16a	-0.102969006
37	0xbe1c4546	-0.152608
38	0xbd6952dc	-0.056963786
39	0x3dc4c67c	0.096081704
40	0xbddc4c0b	-0.107566915
41	0xbd91bc98	-0.071160495
42	0xbe19a58e	-0.1500456
43	0x3d201f00	0.039092064
44	0xbd9f5106	-0.07779126
45	0xbe427da7	-0.18993245
46	0x3e427b16	0.18992266
47	0xbdc97294	-0.09836307
48	0x3e446bd2	0.19181755
49	0xbdd1ee25	-0.102505006
50	0x3c176780	0.009240985
51	0x3e521068	0.20514071
52	0xbdfceeed	-0.12350259
53	0x3c914a00	0.017735481
54	0xbc28ce70	-0.010303125
55	0x3c70d9f0	0.014700398
56	0xbdae5552	-0.08512367
57	0xbe2183b9	-0.15772904
58	0x3e3b002e	0.18261787
59	0x3d932904	0.071855575
60	0x3d514558	0.051091522
61	0xbd0075a8	-0.031362206
62	0xbe01ec72	-0.12687853
63	0xbe158760	-0.14602423
64	0x3bf7a420	0.007557407
65	0xbc8c9108	-0.017159
66	0x3e323fc0	0.17407131
67	0xbd996d52	-0.07491554
68	0x3e435c88	0.19078267
69	0xbcb8b738	-0.022548303
70	0x3cba1ba8	0.022718266
71	0x3e4afbd0	0.19822621
72	0xbd4271e8	-0.04747191
73	0x3e0301f0	0.12793708
74	0xbd3b9144	-0.045792833
75	0xbda5e638	-0.08100551
76	0xbdd2104d	-0.102570154
77	0xbe38ee1b	-0.1805958
78	0x3bf7ec60	0.00756602
79	0xbe3a2148	-0.18176758
80	0xbe488799	-0.19582976
81	0x3e509b02	0.20371631
82	0x3e517a4a	0.20456806
83	0xbdb2b1c6	-0.08725314
84	0xbd63cf78	-0.05561778
85	0x3daf3ef0	0.08556926
86	0xbe29e0cc	-0.1658966
87	0x3e570f74	0.21001989
88	0x3e3eb51a	0.18623772
89	0xbe5808b8	-0.21097076
90	0x3dad1188	0.084506094
91	0x3e59e11c	0.21277279
92	0xbe3245f3	-0.17409496
93	0xbe3df905	-0.18552025
94	0x3d32da08	0.043664962
95	0x3dfe5a80	0.12419605
96	0x3e038202	0.12842563
97	0xbe0ba666	-0.13637695
98	0x3e1ccd30	0.15312648
99	0x3d85ff60	0.065428495
100	0xbe3c3c53	-0.18382387
101	0xbbad1fc0	-0.005283326
102	0x3e275c32	0.16343763
103	0xbc57edb0	-0.013179228
104	0xbd8951c2	-0.06705047
105	0x3dbd48dc	0.092424124
106	0xbddd1159	-0.107943244
107	0x3da5789c	0.08079645
108	0x3d36fd10	0.044674933
109	0x3e0c6cb6	0.13713345
110	0x3d973280	0.07382679
111	0x3db27ed0	0.08715594
112	0xbdc73405	-0.09726719
113	0xbddb1423	-0.106972
114	0x3de83068	0.11337358
115	0x3db71dc0	0.08941221
116	0x3c7a06d0	0.015260413
117	0x3df63d5c	0.12023422
118	0xbd6a8fb4	-0.057265952
119	0xbcdef4d0	-0.027216345
120	0xbe047e59	-0.12938823
121	0x3da62a78	0.08113569
122	0xbc98a870	-0.018635005
123	0xbda720e4	-0.0816057
124	0xbd6cc8cc	-0.057808682
125	0xbd68bf00	-0.056822777
126	0x3e3afe2c	0.18261021
127	0x3e077ebc	0.13231939
