results/1006/Agent Behavior/Agent Behavior-7652.onnx (onnx, 74608 bytes, 6 tensors)

network_body._body_endoder.seq_layers.0.weight f4 [128, 6]
00000000: 394a 813e 4aa4 103c d4d5 83bb d44a a43d
00000010: 5f20 d7be ee51 073f 2ed1 40bd b32a bc3e
00000020: 0b82 7ebe 15a7 48bf eb47 2fbe 8c77 6d3d
00000030: 18d4 10bf 7cfa d3be eb7c e83d 06d6 093f
00000040: b52f afbe 9b9c 113f f655 e03e 8ec0 80be
00000050: c4ed ed3e 43c8 453e ece8 68be a352 1a3f
00000060: 71fe 41bd 078d 7fbe b019 833e 71f8 8ebe
00000070: 5d7c 983e 21e8 8bbe 6507 a93e db0b 26bf
00000080: d8bc f9bd c5c8 e6be 4b75 09bf 1835 81be
00000090: 9adc 84be 9af2 a6bd 34a2 2d3f b187 5f3d
000000a0: 3303 c9be fd51 d2be 097f f43d 3645 093f
000000b0: f631 e3be 1d61 033f ac78 b5be 96dd 96be
000000c0: 5006 24bf 27be 9b3e 9cfb 6abe e600 a1bc
000000d0: a3da 903e dcab d93e ae4a 32be 4d71 5b3e
000000e0: bbb8 f9bd 3be2 173e 6b84 2abd a71b 953e
000000f0: 00ee e9bd 5dbc b0bd 6627 14be 6ee0 d33e
00000100: 5dfb 933e 2157 4e3f 83e4 cebd b744 493f
00000110: 10ee 2dbf 93b6 75be 0ccd c3be 92a9 df3e
00000120: 4809 23bf 3432 7f3a 06f0 263f d940 c73d
00000130: f065 c0be 1ead 7d3e 9c8e 203e 9971 de3d
00000140: 343c 0dbf e5ba b43e e7dd cfbd 118c b5be
00000150: 3a31 41be 8e2e 813e 94c6 91bd 0470 5dbe
00000160: 2b93 efbe 3a7e 14bf 6229 53bf 3011 cfbd
00000170: a8ae f33d f845 0c3f 3f83 513b 820a 8bbe
00000180: b874 503f 0aa6 dabe 45fd 253d 77b9 86be
00000190: 19ec e83d 8830 5abe 4443 e93e cb1d 30be
000001a0: bbb8 913e 06a8 5a3f e436 aabe def6 833f
000001b0: 68cd f43c f8d4 af3e c116 71bd bc25 b63e
000001c0: 68d2 3cbd 1735 03be a8ac f2be 3d43 093e
000001d0: 0e38 823e 7503 10be 44be 833d 4c1d 503e
000001e0: 0d7e debe bb54 033f 067d f93e e379 cdbe
000001f0: cc22 b53e 779a 863d 62cd 043b 4b3a 753e
00000200: 83e6 53be bc48 0d3e e4e8 acbe b984 cf3e
00000210: 84a5 77bd a7b6 08bf ff68 08bf 6b3b 3cbf
00000220: 124a 0fbe 2c3f a3bd 16dd 643e 5883 31bf
00000230: e8d3 8dbe efec c6bd 29ac 833e e14e 19bf
00000240: d7db 893d dab5 6cbe ab3a 32bf d2ac bf3e
00000250: 7ea0 f7be c09e 92be d832 8f3d c71c 50bf
00000260: 7feb 0ebf 8bde 4f3e 6b35 02be 67f5 8d3d
00000270: 2e9e f63d c012 c73e 4b30 8c3c 9583 85bd
00000280: 177e 28be 3353 95be de04 3c3e 1340 f93e
00000290: 58c0 2abc d4af df3e c5a3 8abd 0375 613d
000002a0: a73b 063f 531e 93be 5adf 813e 24b0 66bf
000002b0: 08b4 023d 8c11 fe3e 5b66 47bf 814b a5bd
000002c0: d22a dcbe 2949 623f 71e0 a0bb 7398 1abe
000002d0: 5d97 9dbe 6b8a 9abe 4a89 213f 95a0 45bf
000002e0: 49ed 6cbc 26e8 5cbe 040d cebd 07d1 51be
000002f0: 1052 8a3e b156 9f3e f7c1 08bf f37a 533e
00000300: 3368 303c 4660 fcbe 1c8e 6abe 839a 4cbe
00000310: bb72 eb3c 13be f63c 4abd 2b3f 33a2 913d
00000320: edc7 1a3f c4a0 7dbe 7592 113e 3e95 30bd
00000330: 7452 cbbc 97b9 2a3e cef9 3f3f 515c 11bf
00000340: 226c 81bf ceac 11bf 1a1a 28be a2e2 c83e
00000350: c2d1 9a3d 3463 433e 1177 0b3e 228a e93e
00000360: 2ffb 153f 1c4e 3fbf c9fd 03bf 9b76 cf3c
00000370: c1af 9bbe b173 a33e d08b 9b3e 11fa 043d
00000380: 1dc7 97be f85e b13e 2f1c a23d 4dfe c1bc
00000390: ca74 74be a54f 0ebf c846 3cbe b582 883e
000003a0: a7a1 cabe 688a 34be df99 763d 6ecc 0bbf
000003b0: 3a5c 1abe 0b7b 42bf e6a7 d7be 8f29 a03e
000003c0: a815 643f 7907 0d3e 519e 81be 936a fabd
000003d0: b7eb b2be 106f f6be bc43 8dbe 204d d5be
000003e0: e008 6f3e dbfb bebe 3be7 6c3e 251a e23e
000003f0: d463 453d f0a0 0a3e 0515 39bf 4c47 3d3f
0.2525194 0.008828232 -0.004023293 0.08022085 -0.42016885 0.5285939 -0.04707449 0.36751327
-0.24854295 -0.78379947 -0.17117278 0.057975337 -0.5657363 -0.41402042 0.11351951 0.538422
-0.34216085 0.56879586 0.43815583 -0.25146908 0.46470463 0.19314675 -0.22745103 0.60282344
-0.047361795 -0.24956141 0.25605536 -0.2792392 0.29782382 -0.27325538 0.33013454 -0.6486184
-0.12194222 -0.4507505 -0.536946 -0.2523582 -0.25949556 -0.08151741 0.6782563 0.054572765
-0.39260253 -0.41078177 0.119382925 0.5362123 -0.44374055 0.5132006 -0.35443628 -0.29465932
-0.6407213 0.30418512 -0.22947544 -0.019653749 0.28291807 0.4251393 -0.174113 0.2142994
-0.12193438 0.14832394 -0.04163019 0.2912266 -0.11422348 -0.086296774 -0.14468154 0.41382164
0.28902712 0.806017 -0.10102179 0.78620476 -0.6794138 -0.23995428 -0.38242376 0.4368406
-0.6368604 0.0009734959 0.65209997 0.097291656 -0.37577772 0.2477307 0.15679401 0.10861511
-0.5516999 0.3529884 -0.101497464 -0.35458425 -0.18866435 0.2523083 -0.07117954 -0.21624762
-0.46791968 -0.58005106 -0.8248502 -0.101107 0.118985474 0.54794264 0.0031969098 -0.27156454
0.814281 -0.42704803 0.04052474 -0.26313373 0.11373157 -0.21307576 0.45559132 -0.17198865
0.2846125 0.85412633 -0.33245003 1.0309713 0.029883102 0.3434217 -0.05885959 0.35575664
-0.046099097 -0.12813221 -0.4739735 0.13404556 0.2543339 -0.14063819 0.06432775 0.20323676
-0.43455544 0.51301163 0.48728198 -0.40132055 0.3537811 0.065724306 0.002026402 0.23948018
-0.20693402 0.13797277 -0.3377143 0.40530947 -0.060460582 -0.53403705 -0.5328521 -0.73528165
-0.139931 -0.079710335 0.22349963 -0.6934104 -0.27700734 -0.0971316 0.25717285 -0.59885985
0.06731384 -0.23116246 -0.6962077 0.3743654 -0.48364633 -0.28636742 0.069921196 -0.8129391
-0.5582809 0.20299737 -0.1271569 0.069315724 0.12041889 0.38881493 0.017112872 -0.06519238
-0.1645435 -0.29165038 0.18361232 0.48681697 -0.010421835 0.43688834 -0.06769518 0.05504323
0.5243477 -0.28734073 0.25365716 -0.9011252 0.031909972 0.49622762 -0.7789056 -0.08071042
-0.4300142 0.88392884 -0.004909568 -0.15097217 -0.30779544 -0.3018373 0.6310011 -0.77198154
-0.01446087 -0.21572933 -0.10061076 -0.20489894 0.27015734 0.31120828 -0.53420967 0.2065237
0.0107670305 -0.492922 -0.22905773 -0.19980817 0.028741231 0.030119931 0.6708571 0.07111015
0.6046131 -0.24768358 0.14216025 -0.04311108 -0.02481959 0.1667236 0.74990547 -0.5678149
-1.0111125 -0.56904304 -0.16416207 0.39235407 0.075595394 0.19080812 0.13619639 0.456132
0.585864 -0.7472856 -0.5155912 0.02532511 -0.30407527 0.31924203 0.30380106 0.032465044
-0.296441 0.34642768 0.07915532 -0.02368083 -0.23872676 -0.5559028 -0.18386376 0.26662222
-0.39576456 -0.17630923 0.060205337 -0.5460881 -0.15074244 -0.75969 -0.42120284 0.31281707
0.89095545 0.13772382 -0.25316098 -0.12227359 -0.3494546 -0.4813161 -0.2759074 -0.41660404
0.2334323 -0.37301525 0.23135082 0.44160572 0.048190907 0.13537955 -0.722977 0.73936915

network_body._body_endoder.seq_layers.0.bias f4 [128]
00000000: 0000 0000 0000 0000 0000 0000 0000 0000
00000010: 0000 0000 0000 0000 0000 0000 0000 0000
00000020: 0000 0000 0000 0000 0000 0000 0000 0000
00000030: 0000 0000 0000 0000 0000 0000 0000 0000
00000040: 0000 0000 0000 0000 0000 0000 0000 0000
00000050: 0000 0000 0000 0000 0000 0000 0000 0000
00000060: 0000 0000 0000 0000 0000 0000 0000 0000
00000070: 0000 0000 0000 0000 0000 0000 0000 0000
00000080: 0000 0000 0000 0000 0000 0000 0000 0000
00000090: 0000 0000 0000 0000 0000 0000 0000 0000
000000a0: 0000 0000 0000 0000 0000 0000 0000 0000
000000b0: 0000 0000 0000 0000 0000 0000 0000 0000
000000c0: 0000 0000 0000 0000 0000 0000 0000 0000
000000d0: 0000 0000 0000 0000 0000 0000 0000 0000
000000e0: 0000 0000 0000 0000 0000 0000 0000 0000
000000f0: 0000 0000 0000 0000 0000 0000 0000 0000
00000100: 0000 0000 0000 0000 0000 0000 0000 0000
00000110: 0000 0000 0000 0000 0000 0000 0000 0000
00000120: 0000 0000 0000 0000 0000 0000 0000 0000
00000130: 0000 0000 0000 0000 0000 0000 0000 0000
00000140: 0000 0000 0000 0000 0000 0000 0000 0000
00000150: 0000 0000 0000 0000 0000 0000 0000 0000
00000160: 0000 0000 0000 0000 0000 0000 0000 0000
00000170: 0000 0000 0000 0000 0000 0000 0000 0000
00000180: 0000 0000 0000 0000 0000 0000 0000 0000
00000190: 0000 0000 0000 0000 0000 0000 0000 0000
000001a0: 0000 0000 0000 0000 0000 0000 0000 0000
000001b0: 0000 0000 0000 0000 0000 0000 0000 0000
000001c0: 0000 0000 0000 0000 0000 0000 0000 0000
000001d0: 0000 0000 0000 0000 0000 0000 0000 0000
000001e0: 0000 0000 0000 0000 0000 0000 0000 0000
000001f0: 0000 0000 0000 0000 0000 0000 0000 0000
0.0 0.0 0.0 0.0 0.0 0.0 0.0 0.0
0.0 0.0 0.0 0.0 0.0 0.0 0.0 0.0
0.0 0.0 0.0 0.0 0.0 0.0 0.0 0.0
0.0 0.0 0.0 0.0 0.0 0.0 0.0 0.0
0.0 0.0 0.0 0.0 0.0 0.0 0.0 0.0
0.0 0.0 0.0 0.0 0.0 0.0 0.0 0.0
0.0 0.0 0.0 0.0 0.0 0.0 0.0 0.0
0.0 0.0 0.0 0.0 0.0 0.0 0.0 0.0
0.0 0.0 0.0 0.0 0.0 0.0 0.0 0.0
0.0 0.0 0.0 0.0 0.0 0.0 0.0 0.0
0.0 0.0 0.0 0.0 0.0 0.0 0.0 0.0
0.0 0.0 0.0 0.0 0.0 0.0 0.0 0.0
0.0 0.0 0.0 0.0 0.0 0.0 0.0 0.0
0.0 0.0 0.0 0.0 0.0 0.0 0.0 0.0
0.0 0.0 0.0 0.0 0.0 0.0 0.0 0.0
0.0 0.0 0.0 0.0 0.0 0.0 0.0 0.0

network_body._body_endoder.seq_layers.2.weight f4 [128, 128]
00000000: 6971 ed3c a08c ddbd 14d8 113e f657 153c
00000010: ceeb 7a3d d4ba 81bc 14ed c4bd 8316 61bd
00000020: ebca db3d e9dd 83bd c861 11be 247d 6e3d
00000030: b54b 8abd b012 5fbd cd5b 47be fa01 b8bd
00000040: 9bfd aabd d8f2 843e e05e bb3d 1b0e 1a3d
00000050: 5159 02bd 4b2b b53c 3c21 d1bc 71fe d5bd
00000060: 68cf 933d 322f 8a3d 1086 cf3d 0227 f93c
00000070: c7c1 9abd 764c 993c 7950 f7bd 43cd 08bd
00000080: c7d7 4bbe 2f29 0fbe d10e 873c e8b9 52bd
00000090: 20b1 fa3b 3d15 6c3e 66fa edbd b37e 353c
000000a0: c5b8 72be 4c54 28bd d584 c0bd 1eae 0c3d
000000b0: 1bc3 14bd 8e5d 5f3d 4da5 6abe ed56 15bc
000000c0: 3b16 0bbd 1ef4 e43d 3d01 823d 43bb 483d
000000d0: 65a2 063d 93b2 3dbe 938e 34bc a7bb 82bc
000000e0: 66c0 5fbe 58f8 4cbb b2b0 d33c f37c 22bd
000000f0: 1178 133e fade 823b 8a87 07bd 9b14 9d3d
00000100: 37ac e8bd db54 6b3c 5c37 a73c af22 4e3d
00000110: 6709 01bd aded 3cbd 043d 80bc d4b1 103d
00000120: 317b c6bd 868e 0a3c 6980 70bd 0760 983c
00000130: c2a7 59bd 13f6 233e e7d0 b1bd d874 58bd
00000140: f777 58bd fe44 f83d 7a77 2dbe a4a7 d4bd
00000150: 38a2 4cbc c662 30be fdfc 243e 56e9 013c
00000160: 7bd0 cf3d f851 473d 1ac3 813c 015a 63bc
00000170: b00e 24bd 1461 0abe e634 ecbd 50b6 173d
00000180: bd16 1b3d a30f 0d3e 3dc5 12be 7168 ccbd
00000190: 48de 193e 218c 2abd cab5 41bc dd93 b73d
000001a0: 9d92 8fbd dfc8 c13d 2296 45bd 64fa d1bc
000001b0: 379d d9bd 56c6 0c3e ee42 803c 609b eb3a
000001c0: 422f 98bd 65a5 0a3e 9cad af3a c73b 99bd
000001d0: 04b5 c2bc 458c b23c 94d3 02be e6b9 4bbe
000001e0: 10d5 0cbe 1191 46bd 9a9a 74bd 05c1 a53d
000001f0: 6fc4 433c 4e4a fd3d 82ff 0fbd b36e d8bd
00000200: d09f 383d 407d 9f3d 6241 0cbe 0450 963d
00000210: 5277 513e 5208 dcbc 0ba6 763d 4469 cebd
00000220: 2d79 4c3d cbe6 89bd d703 a2bc 382e c63c
00000230: 6b23 2dbd 6520 d13d dc71 b93d 1295 15bd
00000240: 16cb ff3d e7ef 19be 98eb 75bd d006 3a3e
00000250: cd25 45bd b06c 423d 61f4 403c e47b d83d
00000260: 113c 4fbd c614 623d 0075 42bd 73bc 8b3c
00000270: c01b 39be 9a8f 1f3e 8315 9dbd 7542 bc3d
00000280: fcb8 7dbb adef 10be a01a 6bbc 92cb 8ebd
00000290: d31f 143c c374 5e3e c96f 73bd f490 e33d
000002a0: f195 c13d 82a3 613d 2d35 333d 5bb4 c6bd
000002b0: a6ff 03be a75e 63bd 5e90 183d c314 68bc
000002c0: 1871 ac3c a4e3 593d 8b62 043d eb4b 1fbd
000002d0: 1ae5 18be cbe9 893b 0c2b 3a3c b304 8abd
000002e0: af93 a1bc 8232 ae3d dc5a 6a3d 9be7 97bd
000002f0: acc9 933d c7aa edbd 84b2 ac3d 47f8 f7bd
00000300: 69f8 363e 8c3d 48bd e809 95bd ede9 063d
00000310: 68bb 81bd 9cd4 66bd 2fdb 323b fef7 e4ba
00000320: 9c2e a0bd ba27 9cbc 61a0 90bd 7afa 8f3c
00000330: 3911 de3d c24e d93c 3cf2 503d 8ed6 003d
00000340: f914 053d ec33 f33c 798a 9bbc 8eb0 70bd
00000350: e37f dd3d 6581 303e 9cac c43d 963e 1bbd
00000360: fa7f 4abd a000 2c3e 1fb1 8c3d d64d acbc
00000370: 0c75 543d eede 583d 6f1e ddbd 76b4 90bd
00000380: 0b0d 2d3d 73af b4bd b8a6 64be 2060 a23d
00000390: b867 733d 2e58 b3bb 4495 06bd 9781 9a3d
000003a0: cd7f 9cbd 20d5 7ebe 3228 cdbb 5c07 623d
000003b0: d428 1dbe 2687 943d 0d16 a5bd 2849 433e
000003c0: 11d6 89bd c67e a9bd 22ff 5f3d 9680 be3d
000003d0: 9ad2 49bd a429 b93d b5fb 9b3d f97a 7b3d
000003e0: a13e 523c afd5 d6bd 7da2 673d 8f03 cc3d
000003f0: 4791 a8bc b13e e63d 0934 40bd 4cf0 07be
0.028984742 -0.10817838 0.14242584 0.00911521 0.061260037 -0.015836157 -0.096155316 -0.05495311
0.10732063 -0.064388104 -0.14197457 0.058224812 -0.06752721 -0.05446118 -0.19468613 -0.08984752
-0.08349153 0.25966525 0.09148955 0.03761111 -0.03182346 0.02211537 -0.025528543 -0.104489215
0.07217294 0.06747283 0.10132992 0.030414108 -0.07556491 0.018713217 -0.12075896 -0.033398878
-0.19906531 -0.13980554 0.016486557 -0.051446825 0.0076505095 0.23054977 -0.11620025 0.011077571
-0.23703296 -0.041096017 -0.09400336 0.03434574 -0.03631888 0.05453258 -0.2291462 -0.009114963
-0.033956748 0.11179374 0.063478924 0.04900671 0.032869715 -0.18525152 -0.0110203205 -0.01595862
-0.21850738 -0.0031275954 0.02584109 -0.039669942 0.1440127 0.003993866 -0.033088244 0.07669946
-0.113609724 0.014363493 0.02041214 0.050326046 -0.031503107 -0.046125103 -0.015654095 0.03532584
-0.09691466 0.008456832 -0.05871621 0.018600477 -0.053138502 0.16011839 -0.08682423 -0.052845806
-0.052848782 0.12122534 -0.16940108 -0.103835374 -0.012489848 -0.17225179 0.16112132 0.007929167
0.10147186 0.048662156 0.015840102 -0.013876439 -0.04005307 -0.13513595 -0.11533527 0.0370391
0.03786348 0.13775496 -0.14333053 -0.09980858 0.150262 -0.041637544 -0.011823127 0.089637496
-0.07010386 0.09462141 -0.04823888 -0.02563209 -0.106256895 0.13747534 0.015656915 0.0017975383
-0.07430889 0.13539656 0.001340318 -0.07482105 -0.023767956 0.021795401 -0.12776023 -0.19895133
-0.13753152 -0.04847819 -0.059717752 0.08093456 0.011948689 0.12367688 -0.03515578 -0.10567989
0.045074284 0.077875614 -0.13696817 0.073394805 0.20455673 -0.026859436 0.060216945 -0.100786716
0.04992025 -0.067334734 -0.019777222 0.02419196 -0.042270105 0.10211257 0.0905492 -0.036519118
0.124899074 -0.15032922 -0.060039133 0.18166661 -0.048131753 0.047466934 0.0117770145 0.10570505
-0.050594393 0.055195592 -0.04747486 0.017057633 -0.18076992 0.15582123 -0.07670119 0.09192363
-0.0038714996 -0.14153929 -0.01434961 -0.06972422 0.009040791 0.21724229 -0.05943278 0.11111632
0.09452427 0.055087574 0.043751884 -0.09702369 -0.12890491 -0.05551019 0.037247054 -0.014165106
0.021050021 0.05319561 0.03232054 -0.03889076 -0.14931145 0.0042087785 0.011362802 -0.067391776
-0.019723741 0.08505727 0.057215557 -0.07417222 0.072162 -0.11604839 0.08432487 -0.12107902
0.17868198 -0.04888682 -0.0727728 0.032937933 -0.06334573 -0.056355104 0.0027291288 -0.0017468927
-0.0782139 -0.019061912 -0.0706184 0.017575491 0.10843129 0.026526812 0.051012263 0.031454615
0.032490704 0.029687844 -0.018986927 -0.058762126 0.10815408 0.1723686 0.09603235 -0.037901483
-0.049438454 0.16797113 0.06869721 -0.021033209 0.051869437 0.052946977 -0.1079682 -0.0706567
0.042248767 -0.08822527 -0.22329223 0.07928491 0.059425086 -0.0054731583 -0.032857195 0.075442486
-0.076415636 -0.24885988 -0.006260895 0.0551828 -0.15347606 0.0725234 -0.080608465 0.19070876
-0.06730283 -0.08276133 0.054686673 0.093018696 -0.04927311 0.090411454 0.07616369 0.061396573
0.012832315 -0.10489976 0.056551445 0.09961616 -0.020577086 0.11242426 -0.046924625 -0.1327526

action_model._continuous_distribution.log_sigma f4 [1, 2]
00000000: 0000 0000 0000 0000
0.0 0.0

action_model._continuous_distribution.mu.weight f4 [2, 128]
00000000: 42a3 e7bc b5b5 6a3c b2bc 92bc 132b 72bc
00000010: 52da 1fbc 83a6 9239 4e29 013d f3e5 e83c
00000020: e2f0 bd3c f83d cabc bde7 44bc 8377 92bc
00000030: c72e bcbc 9c75 2a3c f842 f13b 7db5 7b3c
00000040: 477b 1c3c ff70 073d 634c 0fbd 022f c3bb
00000050: 9b79 08bc fa6d 6fbc 0bd5 abbc 0d98 ff3b
00000060: 845a 8cbb 77df febb 5dd9 1b3c d342 353c
00000070: 58a4 6e3c da86 5cbc e01b 7a3c b36f 18bb
00000080: a8d0 90ba 6625 05bb 4791 8d3c 6053 733c
00000090: f54a e23b c21b bebc 0747 e33c 16bb 973c
000000a0: 039c 7eba bb7b 08bd edce 45bb 1afa f23b
000000b0: ee69 2cbc 5fc1 603c e5e4 8a3c 13c7 2a3d
000000c0: 5f42 b5bc 1ea7 9a3c 56b6 81bb 0204 89bb
000000d0: 43bf 773c 0eca a33c caec 83bc 0f23 1f3c
000000e0: 8ff8 233d dcd9 8b3b 072a 423c 6a96 6dbc
000000f0: 0b7c abbc 0f58 f83a 5863 45bb 16fe 353c
00000100: bc06 c1bc a237 783c 5492 38ba 4b26 af3b
00000110: efcd d3bc 1b4f 80bc 93b1 933c 88c6 01bd
00000120: 90d9 86bb 105c 5b3c f790 993c 7184 a9bc
00000130: 81b8 183c caca 763b 5b55 2fbc 2add 673c
00000140: bb84 113c fb2e 3ebc 9b47 10ba 10f6 e6bc
00000150: b5ce e0bb cf87 04bd 2b20 50bc e27b 9b3c
00000160: bfec a4bc d7dc 86bb 729e 623c 1f6a 16bc
00000170: 6c89 2bbc 221e ea39 fa2b b3bc 03dd 3ebc
00000180: d2ba 15bc f210 7dbc 098a 803c 6284 6bbb
00000190: c3a4 2abb 8d18 abbb eab9 ec3a 3c0b 08bc
000001a0: 674a b6b6 2fd0 fb3c 5b8c d5bb 354f 6d3c
000001b0: 1ca4 35bc ea4b 983b 97dd 323c a2d6 d7bc
000001c0: 6392 d23b b13d 09bb 97c4 ee3c 77f6 bfbc
000001d0: 3440 22bb ec8f 9f3c 2e6e 38bc ad33 6cbc
000001e0: 2ad8 0f3d 2f04 11bc 7a2d 583c d95d 843c
000001f0: d078 2abc 150e 7c3c f356 8b3c 3721 9d3c
00000200: f930 b33c cd45 f7bb b35c f9bb 70ee 65bc
00000210: 9d33 d1bb 3a07 04bb 4ffc c7bc 6a31 de3c
00000220: 8ed7 8a3b a8bd 2dbc 70a8 e13c bc12 a83b
00000230: 7b5a e7bc 8990 053d 03e0 0fbc ee8c 983c
00000240: 975c 5c3c 2beb 493c aa9a 8abb 30b4 613b
00000250: 7bf6 dd3c 584d c5ba e302 f93b 359e be3c
00000260: 5354 a23c ab67 353c 31a9 04bb 0b5e 8e3c
00000270: 35f0 a93b af52 5a3c 38f9 f8ba 8f51 c4bc
00000280: aa71 d13c c3ff 3e3c cf04 a83b 8b2e 013c
00000290: e361 5f3b 9db6 98bc 5949 413c b7d8 823c
000002a0: 46c9 1d3c 4c6d 333d 65ea f03c 230e 623c
000002b0: 1e0d bf3c d836 7c3c 1b7e 59bb 82fa a43c
000002c0: 5b09 89bc 121a 4ebc 8980 bbba f7b1 0c3d
000002d0: 9092 693c 801a f03c ed76 773c 674d c1bc
000002e0: 9b07 18ba 7b45 253c bf5b 25bb a47e 3e3c
000002f0: 6782 f03b 5836 ac3b db67 a9ba ed74 6f3c
00000300: a045 85ba 20ae 29bc a7a1 a5bc 2d93 643c
00000310: b82d 2bba 6f39 c5bc ed7b 88bc 05c2 fa3c
00000320: 02fd f83a 6d99 93bb f3fb 693c 7980 343c
00000330: 62b5 03bd f378 f73b 419c 4bbb d1cc 123c
00000340: 3bae 2b3d ab3f 203c 05f8 b73b 9295 97bb
00000350: 64ae 3dbb d055 053c d57f ab3c 3793 29bc
00000360: 4d85 1e3c 5d7e 8cbb 25e7 b93c 2f7c 4abc
00000370: 6eb3 95bc ef57 73bc d4e0 a9bc 7819 c0bc
00000380: 42a7 ed3b 566e 97bb 258d 5abc ba0e 79bd
00000390: a1b6 033c 54fe 0f3c 96e5 483c c87d 653d
000003a0: 67a4 743c cf12 503c af1f cf3c d323 b8bc
000003b0: 3875 153b 0f56 a53c eae2 d7bb 01c0 89bc
000003c0: 2a6f 56bc 6f05 023d 2dbb dcbb a280 ed3b
000003d0: 88a4 9ebb d7de e0bb 934e 12bc 3dd3 c3ba
000003e0: 176e 06bc 2aaf 45bc e0f1 06bc 5654 a1bc
000003f0: fa59 fbbb 8af5 d33c a2e3 80bc b778 83bc
-0.02827609 0.014325549 -0.017912243 -0.0147807775 -0.009756641 0.0002797135 0.03153353 0.02842996
0.023186151 -0.024687752 -0.012018141 -0.017879253 -0.022971524 0.010404017 0.0073627196 0.015363094
0.009550876 0.033066746 -0.034984957 -0.0059565315 -0.008329774 -0.014613623 -0.02097561 0.0078001083
-0.0042832512 -0.007778104 0.009512273 0.011063295 0.01456555 -0.0134598855 0.015265435 -0.0023259937
-0.0011048513 -0.002031648 0.017281188 0.014851421 0.006905908 -0.023206595 0.02774383 0.018521827
-0.00097125786 -0.033321124 -0.0030183152 0.0074150683 -0.0105233025 0.013717978 0.016954849 0.04169376
-0.022126375 0.018878516 -0.0039585037 -0.004181386 0.015121284 0.019993808 -0.01610412 0.009712948
0.040031966 0.004267914 0.01185084 -0.014501194 -0.020933172 0.0018947142 -0.0030119028 0.011107942
-0.023562782 0.015149983 -0.00070408476 0.005345141 -0.025855033 -0.01566272 0.01802901 -0.031683475
-0.004115291 0.013388649 0.018745882 -0.020693036 0.009321333 0.0037657493 -0.010701503 0.014151851
0.008881743 -0.011607881 -0.0005503834 -0.028193504 -0.006860579 -0.03235608 -0.012702982 0.01897997
-0.02013242 -0.0041156816 0.013831722 -0.009180575 -0.010469776 0.0004465441 -0.021871556 -0.011649373
-0.00913878 -0.015445935 0.01569082 -0.003593706 -0.0026038147 -0.0052214325 0.0018060778 -0.00830346
-5.4326842e-06 0.030738918 -0.006516976 0.014484216 -0.01108649 0.0046477215 0.010917089 -0.026347462
0.006426142 -0.0020941312 0.029146476 -0.023432953 -0.0024757506 0.019477807 -0.011256738 -0.014416617
0.03511826 -0.008851095 0.013194436 0.016158031 -0.0104047805 0.015384217 0.017009234 0.019180877
0.021873938 -0.0075461627 -0.0076099276 -0.014033899 -0.0063843266 -0.002014591 -0.024412302 0.027123172
0.004237122 -0.0106043 0.027546138 0.0051291864 -0.028241387 0.032608543 -0.008781436 0.018621888
0.0134498095 0.012324135 -0.004229863 0.0034439676 0.02709507 -0.0015052957 0.007599221 0.023268798
0.0198156 0.01107208 -0.0020242447 0.017378828 0.0051861056 0.013325377 -0.0018995171 -0.023964671
0.025566895 0.011657658 0.0051275264 0.007884632 0.0034085445 -0.018641764 0.011797273 0.015972478
0.009630507 0.043805405 0.029408643 0.013797316 0.023321684 0.015393935 -0.0033186737 0.020138983
-0.016728094 -0.012579458 -0.0014305274 0.034349408 0.014256135 0.029309511 0.015104038 -0.023596479
-0.0005799473 0.010087366 -0.0025231687 0.011626873 0.007339764 0.0052555017 -0.0012924628 0.01461528
-0.0010167845 -0.010356456 -0.020218683 0.013951105 -0.0006529945 -0.024075238 -0.016660655 0.030610094
0.0018996301 -0.0045043738 0.014281261 0.011016958 -0.032155402 0.00755226 -0.0031068476 0.008959965
0.041914206 0.009780805 0.005614283 -0.0046259845 -0.0028943056 0.008138135 0.020934979 -0.01035004
0.009675336 -0.0042875246 0.022693226 -0.012358709 -0.018274035 -0.014852508 -0.02073709 -0.023449644
0.0072526047 -0.0046213074 -0.013339316 -0.06080506 0.008039148 0.008788664 0.012261769 0.056028157
0.014931775 0.012699797 0.025283663 -0.02247802 0.0022805464 0.020182637 -0.0065883296 -0.016815187
-0.013088027 0.031743463 -0.0067361803 0.0072480002 -0.004841391 -0.006862502 -0.008929866 -0.0014940273
-0.008204958 -0.012065688 -0.008236378 -0.019693535 -0.007670638 0.025873918 -0.015733544 -0.016048772

action_model._continuous_distribution.mu.bias f4 [2]
00000000: 0000 0000 0000 0000
0.0 0.0
