results/big2/My Behavior/My Behavior-499996.pt (torch, 441427 bytes, 36 tensors)

network_body._body_endoder.seq_layers.0.weight f4 [128, 6]
000000 0d 10 3d 3d 2b 7b 2b be 87 b9 3e 3e ff 49 50 be
       0.046157885 -0.16746204 0.1862546 -0.20340727
000010 bb 9e 63 bf 3c 30 19 bf e9 6d 95 3d 7c bd 85 3e
       -0.8891408 -0.59839225 0.07296354 0.26121128
000020 5a 37 fc 3e cb dd 2d be 53 7d 35 3e 12 f6 6e 3f
       0.4926098 -0.16979139 0.17723589 0.93344223
000030 7d e6 1e 3e 38 7d 80 3f e4 3b cf 3d f6 10 2b 3e
       0.15517612 1.0038214 0.10118845 0.16705689
000040 f3 c7 b7 3e a1 15 5c bc 6d 2a bc 3e 43 19 1b bf
       0.35894737 -0.013432891 0.36751118 -0.6058542
000050 33 c8 c2 3e 98 ab c5 bc 86 80 09 bf f3 3d ba bd
       0.38043365 -0.024129674 -0.53711736 -0.09093847
000060 f9 9a 1d be 09 90 50 bf b9 6c e8 3e c1 18 7f 3d
       -0.15391149 -0.8146978 0.4539545 0.062279467
000070 7d 08 24 3d 91 4d 31 be 03 7a 5a be f1 c5 14 3e
       0.040047158 -0.17314745 -0.21335606 0.14528634
000080 f9 14 4f 3f 17 e2 39 3f 4d fe 10 3e b1 8d ef 3e
       0.80891377 0.7261061 0.14159508 0.4678779
000090 f1 ce 81 3e d0 d9 a9 be bb 54 01 3f 22 81 05 3f
       0.25353196 -0.3317399 0.50519913 0.52150166
0000a0 df 0a bd 3a a4 41 ae 3e 9c 79 3f 3f 98 53 55 bf
       0.0014422796 0.34034455 0.74794936 -0.8333068
0000b0 12 dc c6 be 88 d6 0d 3e 31 13 88 be 48 3b 98 be
       -0.38839775 0.13851368 -0.26577142 -0.29732728
0000c0 ab 1e 88 be d9 17 09 bf 06 d8 1d 3e bc 00 f7 3d
       -0.26585898 -0.53552014 0.15414438 0.12060687
0000d0 54 38 b7 3e c9 ba 83 3d b5 7c 80 be d8 27 16 bd
       0.35785162 0.06432111 -0.25095144 -0.03665909
0000e0 88 69 74 be 78 ac 9d be c1 b1 11 3f 2c 6c 02 bf
       -0.23868382 -0.30795646 0.56911856 -0.5094631
0000f0 8a 93 39 3e 15 ba 3a 3f 22 61 51 3e 2b ac 56 3c
       0.18122688 0.7294019 0.2044721 0.0131025715
000100 b0 01 7c be 14 18 41 bf c0 a1 3d bf 41 46 8e 3d
       -0.24610019 -0.75427365 -0.74074936 0.069469936
000110 62 9d d8 be 74 f5 b8 bd 3a ea 5e 3e 3b 2d df bd
       -0.42307574 -0.090311915 0.21769038 -0.10897299
000120 51 43 80 3e 41 79 b7 be c1 b6 f2 bd a1 d7 be be
       0.25051358 -0.35834697 -0.11851264 -0.37273887
000130 ea 0a a4 3e e9 ac 05 3e 15 99 1e 3e 68 b3 6c 3e
       0.32039577 0.13054241 0.15488084 0.23115313
000140 71 2f d4 be 81 a8 10 be a5 0d cb be ef f2 ae 3d
       -0.41442445 -0.14126779 -0.39658847 0.0854243
000150 68 e2 8c be 33 cc 9f 3e fb 71 25 3e 68 19 fc 3e
       -0.27516484 0.3121048 0.16156761 0.49238133
000160 4e 76 30 3f 11 8c e1 be 9a fd 44 3e a9 af d8 3e
       0.6893052 -0.44052175 0.19237366 0.42321518
000170 1f 77 9f 3d aa 5f 02 3e b9 de f0 bd 1a b5 15 3c
       0.077863924 0.12731805 -0.11761231 0.009137416
000180 81 20 99 3f 8e 2a bd 3d 8f 31 1d 3d 99 7a 13 bf
       1.1963044 0.09236632 0.03837734 -0.57608944
000190 2f b7 15 3e 52 c4 e7 3c 49 00 b0 3d 30 31 fe be
       0.1462066 0.028291855 0.085938044 -0.49646902
0001a0 eb 7b fc 3e 3b 6e eb be 01 e1 f2 be e2 33 93 3e
       0.49313292 -0.45982537 -0.4743729 0.2875052
0001b0 a5 54 5c bd 66 ab 7a bd 76 70 17 3e 87 0c d2 3d
       -0.05379166 -0.061198615 0.14788994 0.10256296
0001c0 54 a6 2b 3c 38 7f 3b bf 7d 4c 87 3e 78 b0 d3 bd
       0.010476667 -0.73240995 0.26425543 -0.10336393
0001d0 d6 20 d6 3e df 2c 73 3f 30 d0 d6 be e3 c8 c7 3e
       0.41821927 0.9499034 -0.4195571 0.39020452
0001e0 e6 26 ac 3d 49 da e0 bd 18 6c e2 3e 93 95 ed 3e
       0.08405857 -0.109791346 0.44223094 0.4640318
0001f0 16 77 53 bf 30 7b 77 be 23 c6 88 3f 27 87 b9 bc
       -0.82603586 -0.24168086 1.0685467 -0.022647453
000200 1f f1 d2 3d 0d a0 e8 be 39 1f 34 3f fa a3 1a be
       0.102998964 -0.4543461 0.7036014 -0.15101615
000210 ff 19 57 3f 99 08 1c bf 64 8e 7b be 54 ac 18 bf
       0.8402404 -0.6095062 -0.24566036 -0.5963795
000220 62 a2 ba 3c 44 8a 9f be 50 83 04 bf 15 f9 40 be
       0.022782508 -0.31160176 -0.51762867 -0.18845017
000230 e0 fe 15 3e de c9 be be 2a 21 0c 3f 16 2f a4 3e
       0.14648008 -0.37263387 0.54738104 0.32067174
000240 1a 9a 8c 3d fd 49 80 3e e5 23 45 bd 03 16 c7 3e
       0.0686533 0.2505645 -0.048129935 0.3888398
000250 59 f3 31 be e2 44 2a bd 0e bc 8c 3d b7 49 33 be
       -0.17377986 -0.041569598 0.06871806 -0.17508589
000260 9a 6a c8 be 09 8a b3 be 68 fe 72 be 7c 54 aa 3d
       -0.3914383 -0.3506625 -0.23729861 0.08316895
000270 0b 2d 90 be c7 9b a2 3d 1f e5 f3 3d 27 3e 95 bd
       -0.28159365 0.079398684 0.11908936 -0.07287245
000280 8a c1 0f be 3a be cf 3d cb e7 9b be bd 3c 16 bf
       -0.14038673 0.10143705 -0.30450282 -0.5868643
000290 77 8f b9 3e d8 71 16 bf fe 9b 85 bc b5 8e f6 be
       0.36242267 -0.5876746 -0.016309734 -0.48155752
0002a0 84 38 a2 3e e0 4c 86 be a9 c7 c4 3e f6 85 9d bd
       0.31683743 -0.26230526 0.3843358 -0.07691567
0002b0 6a 18 68 bf 81 20 ab 3e 26 3f 09 bf bb 51 12 bd
       -0.9066225 0.33423236 -0.5361198 -0.035722475
0002c0 21 47 0f 3f 2c 33 aa 3e 13 45 a7 3d 89 e2 9a be
       0.5596791 0.33242166 0.08167472 -0.30250958
0002d0 42 44 83 bf f0 10 97 bf 74 0e 94 bd eb f2 ac be
       -1.0255206 -1.1802044 -0.07229319 -0.33779082
0002e0 11 60 75 be 56 44 e7 bd 58 45 d9 be e7 0e 43 be
       -0.23962428 -0.11292331 -0.42435718 -0.19048654
0002f0 f9 ab 04 3f de 8d 10 be d1 63 d2 be 01 f4 1d bf
       0.5182491 -0.14116618 -0.4109178 -0.61700445
000300 0c ca 2f 3f 64 e9 05 be 8c f6 94 bc ae ef bd 3d
       0.68667674 -0.13077313 -0.018183969 0.09274231
000310 a6 5b 22 bf 39 aa 62 3e e8 36 4f bf 9f f5 0d 3e
       -0.63421094 0.22135247 -0.80943155 0.13863228
000320 39 2b f9 be ba 95 3b 3e 61 d8 7a be 71 84 2e bf
       -0.4866579 0.18318835 -0.24496605 -0.6817084
000330 17 6f 73 3c bd 30 01 bf f5 8a 32 bf 5a 92 fd bd
       0.014858029 -0.50464994 -0.6974328 -0.1238143
000340 78 2c 14 3e 93 b5 45 3f f8 ca b0 be c7 fc 3d bf
       0.14470088 0.77230185 -0.34529853 -0.7421383
000350 a4 e7 f9 3e 14 a9 4b 3e 22 95 04 3f 99 88 c4 be
       0.4880954 0.19888717 0.5179006 -0.38385466
000360 ed 38 f1 3e a4 c5 2b be e3 7a 4f bd ce 0a b2 be
       0.47113743 -0.16774613 -0.050654303 -0.34773868
000370 3a 02 d2 bd 79 da ea bd 74 d8 99 be 24 b3 08 3e
       -0.10254331 -0.114674516 -0.30047953 0.13349587
000380 27 69 d1 be cd 1a 93 3c c3 19 87 bf a4 dc 6c 3e
       -0.40900537 0.017957116 -1.0554737 0.23131043
000390 21 3a cb 3e 8b 75 da 3d 4b a5 84 3e 52 1c c8 3e
       0.39692786 0.10666951 0.2590736 0.39084107
0003a0 92 29 4b 3e a5 a9 e9 bd 60 bf 15 bd 4b a5 c1 be
       0.19840077 -0.1140931 -0.036559463 -0.3782142
0003b0 b6 e4 09 bf 52 4d 1a bf f4 fc 57 be 40 60 05 bf
       -0.5386461 -0.6027423 -0.21092588 -0.5209999
0003c0 a9 c9 84 be fc 54 a5 3d 16 95 22 3e 54 16 3d be
       -0.25935104 0.0807285 0.15877184 -0.18465549
0003d0 3d 48 a9 be 88 74 6d 3d 03 7d 48 3f 05 02 26 3e
       -0.33062926 0.05797246 0.7831575 0.16211708
0003e0 0c ad 2f 3e 01 7c 90 3d b5 ce cd bd 3e 65 be 3d
       0.17155856 0.07054902 -0.10049192 0.09296654
0003f0 4f 5d 13 be 5d fe ae 3e 00 88 1e 3f 68 3b c9 be
       -0.14391063 0.3417844 0.6192627 -0.39303136

network_body._body_endoder.seq_layers.0.bias f4 [128]
000000 63 95 16 bb f8 56 80 bc 5e 95 88 bb 28 95 04 bc
       -0.0022977225 -0.01566647 -0.0041681966 -0.008092202
000010 96 08 ec 3c e5 f3 0a bb bd 60 18 39 1b d0 e2 bb
       0.028812688 -0.0021202501 0.00014531887 -0.0069217808
000020 a5 db 69 ba 70 78 a5 b6 c0 e9 40 b2 a4 ab 1d 3d
       -0.0008920974 -4.931404e-06 -1.12290195e-08 0.038493767
000030 e7 c5 c5 3a 7b 86 cd 3a 98 69 05 39 e9 4f b9 ba
       0.0015088887 0.0015680337 0.00012723205 -0.0014138195
000040 8d 34 17 bc 10 ff 15 ba 98 06 b3 b9 82 21 1f 3b
       -0.009228838 -0.0005721906 -0.00034146453 0.0024281447
000050 d0 84 26 bc b9 b8 a4 3c be 3d 42 ba d7 0c 09 3b
       -0.010163501 0.020107614 -0.0007409713 0.0020912194
000060 d9 f6 0f 39 b5 ee 98 bb 52 67 1b bb f9 21 8d 3a
       0.000137295 -0.004667128 -0.0023712707 0.0010767571
000070 f4 9a 9f b9 41 08 60 3d cf ba 4e 3b f1 62 98 38
       -0.00030442292 0.05469537 0.0031544452 7.266354e-05
000080 ed b6 1a bb fa fd cb 32 d1 cd f7 ba 0e 5a 86 ba
       -0.0023607567 2.3747805e-08 -0.0018905943 -0.0010250227
000090 6e ed db 3c 08 19 81 3b 87 df bb bb c5 6e bc 39
       0.026846614 0.0039397515 -0.0057334336 0.00035940684
0000a0 f3 b9 75 b9 fb 19 5c 3a 79 ea 90 3c f6 fe 01 ba
       -0.00023434292 0.00083962054 0.01768993 -0.00049589516
0000b0 50 5b d7 39 cd 31 0e 3b 9e ea 67 3d 8c dc 67 bc
       0.0004107603 0.0021697164 0.056620233 -0.014151704
0000c0 59 99 a8 bc 9e 82 a8 ba 1b b6 c7 3a 7b ab 7b 3a
       -0.020580934 -0.001285631 0.0015236767 0.0009600443
0000d0 cc 78 75 3b c3 e5 29 bb aa 91 79 3a ee e9 e8 3a
       0.0037456034 -0.0025924302 0.0009520302 0.0017769912
0000e0 30 df 5b 3a 02 3a 46 39 ba e3 14 3c 46 48 4e ba
       0.00083874445 0.00018904361 0.009087497 -0.0007869046
0000f0 36 ae 2b 3a 33 d2 78 3b da b9 10 bc a8 7e 4b 3c
       0.0006549092 0.0037967085 -0.008833373 0.012420334
000100 88 6b 28 37 0f d0 1c 3b d7 e3 3f bb 1e 54 36 bc
       1.0038617e-05 0.0023927724 -0.002928009 -0.011128454
000110 e3 f9 d8 3a ed 2d 26 bb 08 cc 4f bb ae b5 83 bb
       0.0016553964 -0.0025356964 -0.0031707305 -0.0040194606
000120 27 ea 1d 3b e9 2d 7b bb 08 45 b2 3b 8e bd 0c bb
       0.0024095865 -0.0038326925 0.005440358 -0.0021475288
000130 b2 3f 0b 3d cc ee d5 bb 49 0a c3 3b a3 3c ef 3b
       0.03399629 -0.006528711 0.005952154 0.0073009296
000140 f9 70 42 bc b7 c6 91 2b 5f 6f 80 3b 21 0e 8a bb
       -0.011867755 1.0358024e-12 0.0039195265 -0.00421311
000150 a6 84 dc bc 3a ed 95 3b 0a 1d 6d 3a dc ac ed bb
       -0.02691872 0.0045753988 0.00090451597 -0.0072532725
000160 09 ca 8c bc ef 3c 22 bb dd 5f 0a 3a 37 db f8 3a
       -0.017186182 -0.0024755558 0.0005278567 0.001898623
000170 2f b2 d4 3a ff 96 c2 b9 4c 6e 2b 3b 97 fa 52 bb
       0.0016227419 -0.00037115064 0.0026158271 -0.003219282
000180 26 1e e4 3b 48 d0 14 bb f8 5e d7 3c c3 40 01 3a
       0.006961602 -0.0022707153 0.026290402 0.000493061
000190 de 96 4d ba 57 0f 52 38 71 86 a9 3a bf ce 36 bb
       -0.00078426104 5.0082188e-05 0.0012933743 -0.0027894226
0001a0 11 d1 99 bb df ef a1 bc ea b1 14 3b 02 89 6f 3b
       -0.004694112 -0.0197677 0.0022689053 0.003655017
0001b0 1f 00 ce b2 cd b2 e2 3a 4d b5 fc bb 65 b1 9a 3c
       -2.3981611e-08 0.0017295718 -0.0077120424 0.018883416
0001c0 de f6 81 3c 2a 24 c2 bb 38 0c fe 3c ec f5 9d b8
       0.015864786 -0.0059247212 0.031011686 -7.53215e-05
0001d0 e5 63 a5 3c ce 60 e0 3c 83 ce 22 bb e8 e6 d6 3a
       0.020189235 0.02738991 -0.002484233 0.001639572
0001e0 96 2d 09 3d 9f d8 bc ba 4f 68 da 3b 5e 70 07 3a
       0.03349074 -0.001440782 0.0066652666 0.00051665853
0001f0 83 fe de 3c 69 70 8f bb 44 ee 19 2e fc a6 0e bc
       0.02722097 -0.004377414 3.4999795e-11 -0.008706804

network_body._body_endoder.seq_layers.2.weight f4 [128, 128]
000000 e6 05 04 3c 9b f7 96 3d 04 64 5a be f1 13 8b bd
       0.008058047 0.07371446 -0.21327215 -0.06790913
000010 c5 d8 87 bd cc f7 0c bd a4 a5 1a ba 61 2d 9e bc
       -0.066331424 -0.034416005 -0.0005899316 -0.019308748
000020 e1 f3 59 bd 5a 2f c7 bd 38 40 ce 3b 2f 83 c1 bb
       -0.053211097 -0.097258285 0.0062942766 -0.005905531
000030 7c aa 88 bd 93 02 49 3d 44 70 93 3d 59 60 06 3d
       -0.06673142 0.04907472 0.07199147 0.032806728
000040 63 c7 99 bc 7f 5a 0b bc d8 70 cf bc fb 27 92 3b
       -0.018771833 -0.008505463 -0.025322363 0.0044603324
000050 37 ab f8 bc 00 2a e5 bd fb bd bd 3d 6d 34 f0 3c
       -0.03035508 -0.111896515 0.092647515 0.029321874
000060 21 87 54 bd 13 5f 30 bd 0c 5e 26 bd d0 1c c0 3d
       -0.05188668 -0.04305942 -0.040617034 0.093804955
000070 ea 42 31 bd 1f fc 24 3c 8f 05 73 3d 30 93 bc bd
       -0.043276705 0.010069876 0.059331473 -0.09207761
000080 40 c5 43 bd 1a f7 0b 3e d6 c1 60 3d 30 7e 00 3e
       -0.047795534 0.1366848 0.054872356 0.12548137
000090 c7 2d 1f 3e 7b 4f 1d bd e0 2b 78 bc 37 16 72 3b
       0.15544806 -0.038405877 -0.015147179 0.003693951
0000a0 46 f1 44 3d 5a 5e 2d be 5c 9a b7 bc 80 c7 1e bc
       0.04808166 -0.16930524 -0.022412471 -0.009691119
0000b0 45 77 6b be 99 94 d8 3c f0 cb b9 3c 55 37 47 3e
       -0.22994716 0.026438044 0.022680253 0.19454701
0000c0 ba 7f 17 3d 1d ac d8 3c da 51 95 3c 5e 30 08 3e
       0.036987044 0.026449258 0.018227506 0.132997
0000d0 62 ee 26 bd 9b f8 2a bd 19 c4 37 3d 8d 73 dd bc
       -0.040754683 -0.041740995 0.044864748 -0.027032638
0000e0 f3 2a 03 3d dd 97 21 bd 5a 07 b2 3c 69 57 1f bd
       0.03202338 -0.03945147 0.021732021 -0.03890172
0000f0 74 f2 09 be 83 b5 c9 3d 6f 7f 2e 3d a6 e7 5f 3d
       -0.13471395 0.09849074 0.042602 0.054664277
000100 e5 cb b1 3c af 18 99 bd 12 9c 19 3e c2 42 78 be
       0.02170367 -0.07475411 0.15000942 -0.24244216
000110 7e 6b 8e bb 17 41 99 bd a1 66 6c 3d 18 f5 8e 3c
       -0.00434631 -0.07483118 0.057715062 0.017450854
000120 3c 26 37 bd 21 81 ea 3d 06 ef c8 3d a0 ee 9e 3d
       -0.044714198 0.11450411 0.09811215 0.07760358
000130 ad bb cb 3c 9e 13 88 3b 55 c6 31 3d 9e 23 a6 3d
       0.024869764 0.004152729 0.043402035 0.08112262
000140 9b 00 de 3d 9e d2 ce bd 07 7e ae 3d 20 0c 54 3e
       0.10839959 -0.10098766 0.085201316 0.2070775
000150 38 7f 09 3d 4a be d8 3d b4 e3 db 3c 95 40 85 bd
       0.03356859 0.1058317 0.026841976 -0.06506459
000160 f0 98 3d be 65 bc c0 3d c5 f1 b0 3d df 39 1f 3e
       -0.18515372 0.094109334 0.08639864 0.1554942
000170 38 3e 7a 3d f6 45 42 3d b1 1b e9 3d 09 4f 93 3d
       0.061094493 0.04743 0.11382235 0.07192809
000180 10 1f f6 bc 42 05 90 bb 0c 6a a1 be c2 04 ab bd
       -0.030044109 -0.004395158 -0.3152622 -0.08350517
000190 04 50 18 3d 22 d9 5b bd d9 92 1e be cd bc f3 bd
       0.037185684 -0.05367387 -0.15485705 -0.11901245
0001a0 f8 e6 95 bd 6a 24 7f bd 92 29 38 be 6c d1 0f be
       -0.073194444 -0.062290587 -0.17984608 -0.14044732
0001b0 3a 53 a0 bd 95 6d 24 3e 9e f2 3a bd e5 1b 41 3e
       -0.07828374 0.16057427 -0.045641534 0.18858297
0001c0 6a ab b8 3d 73 6a 1e 3d 36 06 a2 3d 4f b0 2e 3e
       0.0901707 0.038675737 0.07911341 0.17059444
0001d0 a7 42 98 bc 66 09 a2 bd 6f cd 08 be cf d0 51 3b
       -0.01858647 -0.07911949 -0.13359617 0.0032015329
0001e0 96 15 04 be 6c 9a 5c 3d 5f 26 68 be 58 47 36 be
       -0.1289886 0.053858206 -0.22670887 -0.17800653
0001f0 e2 64 ef bd 98 dc 06 3e 26 73 8c be b9 b8 d3 bd
       -0.11689164 0.13170087 -0.274316 -0.103379674
000200 5b 0a 6e 3d 15 3b df bc 3b e2 08 bd bb 8e 3d be
       0.058115344 -0.027249852 -0.033418875 -0.18511479
000210 dd be ed 3c d7 bc aa bc f1 8d 89 3c 5c 97 40 3b
       0.029021675 -0.020841999 0.016791316 0.0029387092
000220 cd 77 38 bd 1d 0d f1 3c 00 6b 65 3b d8 5f 3d 3d
       -0.045036126 0.029425198 0.0035006404 0.04623398
000230 e7 ae a0 3d ad 79 81 3d 92 4b 0d 3d 50 08 84 3d
       0.0784586 0.06322036 0.034495898 0.06446898
000240 81 15 32 3d 65 5f 48 3b 7a f9 24 be 7c c1 0a 3d
       0.04347754 0.0030574438 -0.16110793 0.033875927
000250 a4 b5 28 bd b8 8e 09 be 29 a7 e1 3b dd b1 88 bd
       -0.04118885 -0.13433349 0.006886382 -0.0667455
000260 47 c9 96 3e f7 14 3c be d8 90 aa bb 7a 0d 93 bd
       0.29450437 -0.18367372 -0.005205255 -0.07180305
000270 c2 9b 08 3e da ca 63 bd 14 89 0b be 29 20 1e bd
       0.13340667 -0.055613376 -0.1362651 -0.03860489
000280 ec df 89 bd b9 2c d7 3d 6d 6b e4 bd 26 e4 04 3d
       -0.06732163 0.10506577 -0.11153302 0.03244414
000290 fb e6 0f be e8 d0 fc bd 96 2b 10 3e 33 27 07 3d
       -0.14052956 -0.12344533 0.14079127 0.032996368
0002a0 cc dd 89 bd eb 6e e1 bb 03 c8 09 be d2 7a d7 3d
       -0.067317575 -0.0068796775 -0.13455205 0.10521473
0002b0 8f 24 5c 3d e5 45 07 bd 22 60 b4 3c 55 8f 31 3e
       0.053745802 -0.03302564 0.022018496 0.17339833
0002c0 d2 92 9a 3d 32 ea d0 3d ce 77 08 bd 48 d7 dc 3c
       0.07547535 0.10200919 -0.03331738 0.026958123
0002d0 b1 08 49 3e f1 63 77 bd 9e 36 0b bc a1 86 7c 3c
       0.19632222 -0.060398046 -0.0084969085 0.015412957
0002e0 ba 75 07 3d ca e9 b9 3d 56 45 2d bd c2 18 d9 bc
       0.033071257 0.09077795 -0.042302452 -0.026501063
0002f0 6a 6b 02 3e 77 a3 58 3d ce 74 b4 bc eb 66 3d bd
       0.12736288 0.052890267 -0.022028353 -0.04624073
000300 75 d5 34 bd b4 65 6d 3e 81 b5 ee bd 6b 19 52 3d
       -0.04414888 0.23183328 -0.11655713 0.05129377
000310 33 bc 95 bd ce 2a 94 bd 12 64 ad bd dc 48 92 bd
       -0.07311287 -0.07234727 -0.084663525 -0.07142803
000320 c6 85 83 bc 08 68 0e 3e af 0d 6a bd 34 8f d6 bd
       -0.016055 0.13906872 -0.057141956 -0.104765326
000330 76 2f 2a bc 2c 1f 2e be 29 80 9b 3d ea a4 99 3d
       -0.010387292 -0.17004079 0.07592804 0.07502158
000340 93 0e de ba 5f 75 fd bd b6 2b 9a bc 57 74 89 bd
       -0.0016941599 -0.123759024 -0.018819671 -0.06711643
000350 9c ec 11 3e 4a 56 aa bd 0e e0 cd 3c 72 1e 61 bc
       0.14250416 -0.083172396 0.025131252 -0.013740169
000360 52 4d 15 be 3e 33 b6 3c aa f7 dc bd 73 3d e4 37
       -0.14580277 0.022241231 -0.10789426 2.7208333e-05
000370 8d af cb 3d f0 8f 9f 3d 47 59 5f 3e 18 85 e7 bc
       0.09945593 0.07791126 0.218114 -0.028261706
000380 45 f0 74 bb b3 98 10 3e e4 b8 b4 bd 16 af b3 bd
       -0.0037374657 0.1412075 -0.088243276 -0.08773629
000390 de 60 be 3c fa 31 8e bd 16 72 51 be b6 c0 fd 3c
       0.02323955 -0.06943126 -0.20453677 0.03097568
0003a0 76 d1 26 bd f8 75 93 bd d9 fc e1 bd 13 ef 3d bc
       -0.0407271 -0.07200235 -0.11034555 -0.011592644
0003b0 a4 77 1b 3e 6b 58 16 bd 44 77 63 bc e0 82 e7 bc
       0.15182358 -0.036705416 -0.013883416 -0.028260648
0003c0 95 a3 f4 3a 23 e0 fe 3d 87 e3 2c bd 1a 4f 0c bb
       0.0018664474 0.124450944 -0.042209174 -0.0021409453
0003d0 7a 17 b6 bd 87 35 8f 3d d8 96 39 3c 85 ec 32 be
       -0.088911965 0.069926314 0.011327468 -0.17473038
0003e0 fd cb 23 3d 03 49 39 be 60 67 50 3e 87 97 22 3d
       0.03998946 -0.18094258 0.20351934 0.03969529
0003f0 33 40 4f 3d c8 38 38 3c 12 42 fa 3d a9 85 66 bd
       0.050598335 0.011244006 0.12219633 -0.056279812

network_body._body_endoder.seq_layers.2.bias f4 [128]
000000 4c 45 79 bb 90 60 7f 37 d7 93 64 3b 06 7c 34 bb
       -0.003803569 1.5221667e-05 0.0034878158 -0.0027539744
000010 96 3a 83 ba 56 de 96 bb e4 0a 03 bb 75 d5 19 b8
       -0.0010011967 -0.004604141 -0.0019995505 -3.667684e-05
000020 de 54 e6 ba 81 ab f2 ba 97 bd 19 bb 87 62 13 ba
       -0.00175729 -0.0018514247 -0.0023458952 -0.00056222867
000030 ee 1c 62 b9 0b a4 3c b9 62 8e cb b3 7e 4b 31 3c
       -0.00021563817 -0.00017990188 -9.4788234e-08 0.010821221
000040 d2 77 4f bb b4 cc 23 3b c6 66 92 ba da c1 a8 ba
       -0.0031657112 0.0024993839 -0.0011169545 -0.0012875155
000050 3c fd 0e 3b 63 e9 f2 b8 3a 21 27 3b 82 30 e2 3a
       0.002181842 -0.00011582931 0.0025501982 0.0017256888
000060 c5 e2 ef bb 78 b1 cc bb 1e 50 e9 ba 1c fc ad ba
       -0.007320734 -0.006246742 -0.0017800366 -0.0013273987
000070 db ed d8 ba 02 b0 10 bb 9c 27 09 bb 23 8d ca ba
       -0.0016550379 -0.0022077565 -0.002092815 -0.0015453439
000080 3d fd b4 38 05 14 d3 ba 1e 14 28 3c 7b 6c bb 3a
       8.630238e-05 -0.0016103989 0.010258703 0.0014299297
000090 88 d7 11 bc 57 cb c1 3a c0 41 61 b9 11 1f 74 bb
       -0.008901484 0.0014785331 -0.00021482166 -0.0037249962
0000a0 5c cb 3e 3b 23 df 41 b1 1e 39 19 ba 0d b8 1c 3c
       0.002911291 -2.8212035e-09 -0.0005844998 0.0095653655
0000b0 09 9a de b5 87 e4 87 bb ab 67 82 3b 3a bd 32 3b
       -1.6585119e-06 -0.0041471156 0.0039796433 0.0027273432
0000c0 ff 29 25 3a c5 fe 64 bb d2 27 15 ba 6c bb 78 ba
       0.00063005084 -0.0034941894 -0.00056898326 -0.0009488377
0000d0 0c 11 4a bb 62 bc e8 39 b4 f9 25 3b 60 9e 7d 3b
       -0.0030832915 0.00044390844 0.0025325837 0.0038699135
0000e0 56 42 5e bb a7 2a 46 bb 3b e3 17 b9 72 4d 27 3b
       -0.003391405 -0.0030237825 -0.00014485132 0.0025528339
0000f0 a6 7b 20 3b d6 10 d0 3a f3 bc 00 3c 27 b8 2c bb
       0.0024487763 0.0015874158 0.007857549 -0.002635488
000100 fd 9d ec ba 10 92 f4 ba 68 50 84 bb d3 34 2d 38
       -0.0018052455 -0.0018659253 -0.0040379055 4.129561e-05
000110 b0 d5 05 3b 0a 9e 60 bb 14 90 d8 3b 43 5e a2 ba
       0.0020421557 -0.0034273886 0.0066089723 -0.0012387711
000120 87 95 b8 3b 60 9a 01 3b e9 5c 28 3a e3 da 0a 3b
       0.0056330594 0.0019775853 0.0006422536 0.0021187596
000130 f1 b6 58 bb ba 91 90 3a c2 34 88 3a 3d 6f 41 bb
       -0.0033068026 0.0011029758 0.00103917 -0.0029515766
000140 2a 2d 47 bb cc eb 0c 3b 16 e8 85 3a 7f d3 d7 3a
       -0.003039191 0.002150285 0.0010216262 0.0016466229
000150 0e d5 0c 3b 16 31 bc 3b d4 49 8b bb c1 aa fc ba
       0.0021489295 0.005743156 -0.0042507444 -0.0019276963
000160 e8 72 fe ba 6c 1f 86 bb 3f 68 52 bb 65 18 92 bb
       -0.0019412907 -0.0040931012 -0.0032105593 -0.0044584745
000170 2d d3 4f 39 10 32 42 3b b8 35 10 ba df 68 53 b9
       0.00019819727 0.002963189 -0.0005501169 -0.00020161596
000180 02 c7 36 bb 0e b8 2a b6 cd f9 7a bb ed 61 0b b7
       -0.0027889614 -2.5439108e-06 -0.0038295866 -8.307846e-06
000190 86 0f 93 ba 37 71 15 bb 5d d4 1b ba 3e ac 0c bb
       -0.0011219836 -0.0022803077 -0.00059444254 -0.002146497
0001a0 51 d6 5b bb fe dc b3 39 68 d2 22 bb a1 b6 bb 3b
       -0.003354449 0.00034306193 -0.002484465 0.005728558
0001b0 f5 15 cf ba 00 05 39 bb fe 6c d9 ba 50 a9 aa 3a
       -0.001579939 -0.002823174 -0.0016588268 0.001302043
0001c0 07 f5 ed 3a b1 72 ee 3a c4 4e 54 ba b3 f1 32 bb
       0.0018154689 0.001819214 -0.0008098895 -0.0027304708
0001d0 88 12 0e bb 00 e1 a7 bb e3 5e 25 bb 8c ec 47 bb
       -0.0021678526 -0.0051232576 -0.002523356 -0.0030505983
0001e0 e5 1d 79 bb 64 cd 72 bb 61 85 e4 3a a3 5d 1f bb
       -0.0038012203 -0.0037048692 0.001743477 -0.0024317286
0001f0 9f fa f8 3a 8f 8d 04 bb 46 80 1b 36 55 86 71 b9
       0.0018995589 -0.0020225977 2.3171465e-06 -0.00023033594

action_model._continuous_distribution.log_sigma f4 [1, 2]
000000 05 c6 c6 bd 9c 8f 1a be
       -0.09705738 -0.15093845

action_model._continuous_distribution.mu.weight f4 [2, 128]
000000 27 59 be 3c 7c 57 ee 3b ba f2 f8 3c 47 e5 88 3c
       0.02323587 0.0072736125 0.030389179 0.01671089
000010 54 fc eb bc 79 42 56 3c e6 29 03 3c c0 44 ed ba
       -0.028806843 0.013077372 0.008005595 -0.0018102154
000020 d7 20 9e b9 3e aa e9 3c b0 bc 8b 3b d4 e2 4f 3c
       -0.00030160576 0.02852356 0.0042644367 0.012688357
000030 e7 d4 88 bb ef 41 0f 3c dc 4d 03 3c 5b e2 6b bd
       -0.0041757706 0.008743747 0.008014169 -0.057588916
000040 e6 b0 ab 3c 52 d6 2e 3c 0a 8e bb bc 60 3e cb bc
       0.020958375 0.010671215 -0.022894878 -0.024810016
000050 c8 22 d1 bc 01 d5 13 bc 3d 15 19 bd e8 f1 36 3c
       -0.02552928 -0.009022952 -0.03737377 0.011166073
000060 a3 e1 a2 bc ff a1 ca 3b 74 33 a0 bc f1 bf 09 3d
       -0.019882983 0.006183862 -0.019555785 0.033630315
000070 21 01 53 3d ab 82 a0 3c 5d 24 e2 bc f7 15 a1 3a
       0.05151475 0.019593557 -0.02760523 0.0012289871
000080 90 fd 1c 3b 88 19 e2 3c 52 93 85 3d 19 93 27 3c
       0.0023954846 0.027600065 0.0652224 0.010227942
000090 6f 75 58 3c 22 d2 de bb 49 e9 b6 3b 80 e0 58 bc
       0.013211592 -0.006799952 0.005582009 -0.013237119
0000a0 72 a3 0f 3d ed cd 8d 3c 10 76 36 3d 6f ec 42 bd
       0.035067983 0.017310107 0.044546187 -0.047588762
0000b0 11 20 38 3c a6 9b a7 ba ea e9 8c 3c e5 a8 3b bc
       0.011238114 -0.0012787476 0.017201383 -0.011453842
0000c0 06 28 d9 bc c8 bf 5b 3c c6 c7 17 3c e7 9f f8 bb
       -0.026508342 0.013412423 0.009263938 -0.007587421
0000d0 4f 72 f7 3c 59 05 c4 bc a7 74 d0 bc 7b 98 b2 3d
       0.030205874 -0.023928331 -0.02544625 0.087204896
0000e0 76 37 dd 3c 7d 59 af 3b 59 34 e7 ba f5 75 8c bc
       0.027003985 0.005351244 -0.0017639502 -0.01714609
0000f0 0f 91 e7 bc 05 0b 18 bc 15 66 6f 3d 61 27 8d 3c
       -0.028267412 -0.009279971 0.058446962 0.017230691
000100 02 d1 23 3b eb be b1 37 b8 bb 52 bc 6a 2d 50 3d
       0.0024996405 2.1188947e-05 -0.012862138 0.05082456
000110 78 5d c4 bc 80 bc 44 bc 7a 34 4e bd 8d 1f b4 bb
       -0.02397035 -0.0120078325 -0.050343014 -0.005496925
000120 99 1e bb 3c 08 b6 cf bb 71 59 16 bc 29 82 5f 3d
       0.022841739 -0.0063388385 -0.009176598 0.05456749
000130 bf 44 a9 3b f2 2c 54 bc 2e 85 d6 3b 6d 8d b1 3b
       0.005165666 -0.012950169 0.006546638 0.0054184706
000140 18 b7 bd 3c 65 94 87 3d 2b 11 22 bc 09 2d 3b bc
       0.023158595 0.06620101 -0.0098917885 -0.011424311
000150 fa d3 49 3b af 23 8a 3d ca f1 fe bc 50 9d 0c bc
       0.0030796514 0.06745087 -0.031121153 -0.008582428
000160 fe 42 85 bc 92 a5 84 3c d7 58 d9 3c 57 6f b4 bc
       -0.016267296 0.016192231 0.02653162 -0.022025747
000170 04 54 6b bb 21 5a e6 bc 91 39 b1 3c 3f e5 e6 ba
       -0.0035908232 -0.028119149 0.021633895 -0.0017615928
000180 51 a0 69 3d 6f c1 89 bc b0 cb c3 3b 6a 2d 01 bd
       0.057037655 -0.01681587 0.005975209 -0.03153745
000190 4f 09 09 bc ff 35 60 3c a3 1e 7d 3c 11 f8 84 3c
       -0.008364036 0.013684749 0.015449199 0.016231569
0001a0 65 b1 ec b9 56 5a df bb a1 fc 6a 3c 8a 23 44 3d
       -0.00045145597 -0.006816189 0.014342458 0.047885455
0001b0 db 26 7f bc fa 4f 91 3a 17 72 5d bc f6 a1 b9 bc
       -0.015573229 0.0011086457 -0.013515971 -0.022660237
0001c0 65 05 a1 3c 85 3e 44 bc a7 d7 da 3b 5d 9c 75 3c
       0.019655893 -0.011977796 0.00667854 0.014990893
0001d0 78 fd 96 bb a3 57 82 3c d2 c6 ae 3c 6e 59 7d 3c
       -0.0046078525 0.01591093 0.02133504 0.015463216
0001e0 ae 22 9c bc ec 5b 1a 3c ad 08 94 3c 41 8e 6e 3c
       -0.019059505 0.00942133 0.018070543 0.014560283
0001f0 60 de e2 bc e3 56 19 3d 8c 6c ce 3a 7c 8b a0 ba
       -0.027693927 0.037436377 0.0015748902 -0.0012248601
000200 8d c8 c9 bc cc c0 af bb 82 5d 0d 3c 24 57 7d bc
       -0.024631763 -0.0053635594 0.008628251 -0.0154626705
000210 cf bb 84 bd 50 f7 c4 bb 71 3d 68 3a 7d 63 2f bc
       -0.06481134 -0.0060109273 0.0008859253 -0.010704872
000220 ee ad e4 3b 34 bf 0f bc 77 27 eb bc fc 3c b0 3c
       0.006978742 -0.008773614 -0.028705342 0.021513455
000230 d2 6f 04 3d 3c e6 2c bc 2d 55 64 3c 13 e5 c6 3a
       0.032333203 -0.010552939 0.013936323 0.0015174471
000240 89 44 e7 bc cc 2a 33 3c b0 9e ef ba 00 73 5f bc
       -0.028230922 0.010935497 -0.0018281545 -0.013638258
000250 82 7b b1 3c b1 7a 15 bc 6b f4 60 bc 17 99 7e bc
       0.021665338 -0.00912349 -0.013730149 -0.015539429
000260 cc 26 12 bd 0a 35 18 3c d3 41 95 3c 84 ac 81 bc
       -0.03568153 0.009289989 0.018219864 -0.015829332
000270 1a f9 07 3b 64 05 86 bc fd 80 f0 bc 74 fc 8d 3c
       0.0020747841 -0.016359992 -0.029358381 0.017332293
000280 ec 5c 0e 3b fa 14 1c 3c 82 9f 77 3c cd 1f 84 bc
       0.0021722866 0.009526486 0.015113713 -0.016128445
000290 32 0e d7 bc e3 7f 42 3c d6 9a 00 3d 8b 09 44 bd
       -0.026251886 0.011871311 0.031397663 -0.047860663
0002a0 b3 40 89 3b 88 0a 48 39 7e 45 92 3c a6 d9 2d bb
       0.004188621 0.0001907741 0.017855402 -0.0026527434
0002b0 d1 9d 7f bb 18 c6 02 bc b6 1e 3b 3c 1a cf be 3b
       -0.0039003978 -0.0079818 0.011420896 0.0058230283
0002c0 88 cf 61 3c f6 7f cb bc bb 4b c7 3c d1 83 3f bc
       0.013782389 -0.02484129 0.024328103 -0.011689142
0002d0 c0 c8 c5 3c b4 0b 65 3c 9b 2a ac 3b d6 8c 6a bb
       0.024143577 0.013979841 0.0052541024 -0.0035789511
0002e0 19 28 ed bb 92 74 b1 bc 22 2a cb 3c 09 52 82 39
       -0.007237446 -0.02166203 0.024800364 0.00024856653
0002f0 4c a6 51 3c d6 10 a9 ba a8 90 3f bc 77 e1 cb 3b
       0.012795996 -0.0012898694 -0.011692204 0.006221946
000300 97 34 06 3d e6 a0 76 3c 32 59 ee 3c a3 36 87 bc
       0.032764997 0.01505301 0.029095266 -0.016505545
000310 29 fe 03 bc 3d 0e cc bc 79 d5 9c ba 8a a2 94 3c
       -0.008056202 -0.024909133 -0.0011965475 0.01814391
000320 b6 4c 14 3c 84 f5 cf 3b d2 78 44 bb 4c 12 de 3b
       0.009051492 0.0063464064 -0.002997924 0.0067770835
000330 3f 6e b5 bc 71 f2 61 bc 23 91 82 bc a6 e4 0a 3b
       -0.022147296 -0.013790713 -0.015938347 0.0021193414
000340 56 c3 27 3c 19 7d 22 3c c5 7b 35 3c 2c 2a 70 3c
       0.010239443 0.009917521 0.011076872 0.014658492
000350 ea ab 40 bc 09 aa 32 bb 46 92 93 3b ba f1 01 3d
       -0.0117597375 -0.0027261993 0.004503521 0.03172467
000360 8f 36 38 bc 83 ce e9 3b ce b7 b1 3c 77 94 6a 3c
       -0.0112434765 0.007135214 0.02169409 0.014317623
000370 72 e3 de bc 7c d9 f9 bb d5 c5 ab b9 a5 b2 2d bc
       -0.027208064 -0.007624803 -0.00032763058 -0.010601674
000380 3c e5 4a ba 1a a9 0a bc d6 b6 12 3b d6 ef 4d bc
       -0.0007739847 -0.0084631685 0.002238681 -0.012569388
000390 16 66 16 3c 94 7a aa bc 66 cf 09 3c 99 72 13 bc
       0.009179613 -0.020810403 0.008411264 -0.00899949
0003a0 f1 b9 04 3c a1 43 18 bd 88 da d0 3c b2 db c0 bb
       0.0081009725 -0.03717387 0.025494829 -0.0058855647
0003b0 fe 12 18 bd d2 bd cf bc 95 58 5b 3c b6 45 15 bb
       -0.037127487 -0.025359068 0.013387819 -0.0022777147
0003c0 3a f9 ae bc 27 f4 f3 3b f1 25 83 bc 95 99 44 bc
       -0.021359075 0.0074448767 -0.016009303 -0.011999507
0003d0 a1 da 6e bc 8f 3a 30 3c d8 34 c1 bb 1d 46 89 3c
       -0.014578492 0.010756149 -0.005896192 0.016757065
0003e0 4e de e5 ba 9d f1 6c bd db cd ae bc ca c9 86 bb
       -0.0017537565 -0.057847608 -0.021338394 -0.0041134106
0003f0 1f c6 dd 3b 03 4e ec bb ac 4a 36 3d 91 7e c4 bc
       0.0067680026 -0.007211448 0.044504806 -0.023986133

action_model._continuous_distribution.mu.bias f4 [2]
000000 48 3a 3d bb 88 ff be b9
       -0.002887385 -0.0003643001

exp_avg f4 [128, 6]
000000 ea f6 36 ad 68 14 88 ac a5 24 ae 2e c7 8f 09 ac
       -1.0400328e-11 -3.867618e-12 7.919113e-11 -1.9548683e-12
000010 cc e2 e5 ac 75 d7 4c 2f 37 56 de 38 90 aa 85 b8
       -6.533751e-12 1.8630238e-10 0.00010601844 -6.373704e-05
000020 10 7b 22 3b c4 30 01 b8 87 e5 d7 b8 58 60 40 3b
       0.002479259 -3.0801413e-05 -0.00010294752 0.00293543
000030 af ac f8 b8 ce e2 54 b8 6a 7d 92 3a 1f f5 d4 b7
       -0.00011857726 -5.0755967e-05 0.0011176292 -2.5386513e-05
000040 20 f1 b1 b8 77 8e 1e 3b a8 26 00 b7 1c be ae 38
       -8.484931e-05 0.0024193802 -7.638395e-06 8.332377e-05
000050 09 28 18 bb e8 4b 32 38 e3 fa 14 39 f3 bf 84 bb
       -0.0023217222 4.25092e-05 0.00014207842 -0.0040512024
000060 f4 42 c9 36 c6 42 aa 39 95 88 01 bc 95 7d 2c 39
       5.998061e-06 0.00032474677 -0.007906099 0.00016449981
000070 f4 20 10 3a 51 6d 80 bc f6 7e c6 b9 2d 11 bf 38
       0.00054980745 -0.015677126 -0.00037860096 9.110789e-05
000080 0f 0d 9a bb d5 da 30 38 7d c6 13 39 26 ad 83 bb
       -0.0047012637 4.2165473e-05 0.00014092955 -0.0040184436
000090 c7 ad 40 b9 b5 74 8b 38 aa 17 55 bb dc e2 f6 37
       -0.00018375284 6.649775e-05 -0.0032515326 2.9431125e-05
0000a0 b4 4a ce 38 65 d1 37 bb 5d e7 54 2f 18 50 42 b0
       9.83676e-05 -0.0028048393 1.9363484e-10 -7.069061e-10
0000b0 f1 60 a5 31 54 ff 55 b0 8e cf 32 b1 a8 54 9f 33
       4.813153e-09 -7.785179e-10 -2.602039e-09 7.419413e-08
0000c0 60 c1 35 39 f6 f8 81 38 01 4a 49 ba 12 05 fb 37
       0.00017333543 6.197572e-05 -0.0007678569 2.9923893e-05
0000d0 e2 be d1 38 3f e5 3a bb 82 eb 13 2b 13 35 97 2a
       0.00010001451 -0.002851799 5.2551724e-13 2.6859816e-13
0000e0 a8 d3 07 ac 5f da 38 2a 5b 75 1a 2b a4 a1 89 ad
       -1.9302147e-12 1.6418246e-13 5.4874654e-13 -1.564688e-11
0000f0 98 f4 f7 27 ac 71 0a 25 18 f4 05 28 64 48 8b 24
       6.882146e-15 1.2008106e-16 7.4359125e-15 6.0404275e-17
000100 7c c3 68 25 b1 67 cf a7 4c f1 88 b6 e0 41 05 b6
       2.0189025e-16 -5.7566464e-15 -4.0812065e-06 -1.9856889e-06
000110 ed d4 6d 37 50 73 a5 b5 05 3f 8a b6 e2 5e f6 38
       1.41758765e-05 -1.2327018e-06 -4.120057e-06 0.000117478674
000120 5e 38 43 38 b4 9b 7e b8 df 61 1d 3b 9a 54 ef b7
       4.654412e-05 -6.070333e-05 0.0024014635 -2.8530416e-05
000130 7f fa c7 b8 41 31 32 3b 5e d1 2f 38 e9 e2 05 38
       -9.535718e-05 0.0027190002 4.191824e-05 3.1920998e-05
000140 b3 7f 9a b9 0a 55 9f 37 47 22 85 38 8f 42 ed ba
       -0.00029468312 1.8993876e-05 6.348319e-05 -0.0018101501
000150 6a 39 09 ad cd 0c 5f 2e f2 a1 b6 b0 5c cf e0 2d
       -7.800297e-12 5.07157e-11 -1.328827e-09 2.5557938e-11
000160 76 d8 bb 2e 94 61 27 b1 fa 69 38 39 78 80 c9 b8
       8.5422266e-11 -2.4357165e-09 0.00017587087 -9.608356e-05
000170 3d bd 6b 3b fc 3a 45 b8 fb cc 24 b9 d1 d8 92 3b
       0.003597095 -4.7023394e-05 -0.0001571662 0.004481413
000180 68 7f d4 36 95 c3 fe b9 77 b4 56 3c 80 32 78 b9
       6.3329244e-06 -0.00048592375 0.01310455 -0.00023669936
000190 26 63 4f ba 48 cb b8 3c 06 61 f9 39 f8 66 0d b9
       -0.00079111976 0.02255787 0.0004756527 -0.00013485167
0001a0 25 d6 ee 3b 32 60 78 b8 58 89 4f b9 4c ed b8 3b
       0.0072887116 -5.9217396e-05 -0.00019792223 0.0056435224
0001b0 48 e6 4e 25 82 82 66 27 57 db bd a9 04 62 e8 26
       1.7945674e-16 3.198966e-15 -8.4313355e-14 1.6124801e-15
0001c0 54 2c c2 27 fe 04 2d aa 8a 48 00 b8 5c d0 68 b8
       5.3893877e-15 -1.5367219e-13 -3.0585135e-05 -5.550716e-05
0001d0 3a a2 df 3a 5c 9c ce b7 7d a3 ac b8 be d4 19 3b
       0.0017061897 -2.4629924e-05 -8.232051e-05 0.0023472751
0001e0 32 78 fd b8 e6 0b 5d b8 ec 05 93 3a 50 e8 df b7
       -0.00012086368 -5.2701587e-05 0.0011216975 -2.669185e-05
0001f0 64 17 bb b8 91 b5 26 3b 67 8b f8 b7 45 16 89 b6
       -8.921212e-05 0.0025437812 -2.9628818e-05 -4.0855107e-06
000200 d4 e0 8d 38 61 1e 06 b6 de 21 e0 b6 00 b7 47 39
       6.7652814e-05 -1.9985239e-06 -6.679663e-06 0.00019046292
000210 aa 8c ed ae 65 ba 73 af 23 2b 00 31 f3 14 1f af
       -1.0802499e-10 -2.2166942e-10 1.8650972e-09 -1.4468408e-10
000220 b8 ec 04 b0 1e e3 6c 32 7a 59 05 b9 16 23 aa 38
       -4.835772e-10 1.37886484e-08 -0.00012717201 8.112767e-05
000230 f3 bd 5e bb d8 8e 1d 38 c5 a6 03 39 3a 9e 6a bb
       -0.003398773 3.756475e-05 0.0001255526 -0.0035799877
000240 8a ca 94 37 47 88 45 b5 fe 20 2b 39 7a 5d 0d b4
       1.773729e-05 -7.358653e-07 0.00016320121 -1.3165655e-07
000250 04 3e ec b4 62 81 52 37 ff fb de b5 a2 df 3a 36
       -4.4003548e-07 1.25471e-05 -1.661363e-06 2.7846331e-06
000260 69 7d ab b7 b8 33 2a 36 68 37 0e 37 31 72 7d b9
       -2.0443187e-05 2.5362078e-06 8.47676e-06 -0.000241705
000270 51 39 0e 38 47 bf 2d 38 64 ac b8 ba 8c b3 9e 37
       3.390882e-05 4.1424555e-05 -0.0014089462 1.8918676e-05
000280 56 9b 84 38 16 52 ec ba 12 89 37 32 20 3d a7 31
       6.323184e-05 -0.0018029835 1.0683168e-08 4.867289e-09
000290 b4 f1 db b3 f6 5b 29 31 22 83 0d 32 f2 30 7c b4
       -1.0241948e-07 2.464501e-09 8.237096e-09 -2.3487135e-07
0002a0 40 e9 cd 38 95 35 fd b7 2a c1 d8 3a be 48 70 b7
       9.818608e-05 -3.0184901e-05 0.001653706 -1.4322051e-05
0002b0 7a c6 48 b8 0b e7 b2 3a bc a5 47 b9 08 d0 06 38
       -4.786856e-05 0.0013649178 -0.0001903986 3.2141834e-05
0002c0 ec 11 8d ba 82 9f 88 37 4c 51 64 38 b2 71 cb ba
       -0.0010762787 1.628674e-05 5.443515e-05 -0.0015521555
0002d0 01 61 17 b8 42 7c 2a b7 23 a6 bc 37 47 c7 b6 b6
       -3.6091547e-05 -1.0161721e-05 2.248871e-05 -5.4472216e-06
0002e0 9a b9 98 b7 37 16 08 3a 20 65 56 30 ba e3 c1 2e
       -1.820624e-05 0.00051912986 7.7996454e-10 8.817076e-11
0002f0 88 b8 b8 b0 be 4b 44 2e 12 05 24 2f ae 26 92 b1
       -1.3440209e-09 4.4632513e-11 1.4917514e-10 -4.2535566e-09
000300 6c 08 ee 38 49 30 8b b8 14 2c 26 3b 01 c8 fc b7
       0.00011350293 -6.63703e-05 0.0025355862 -3.0133875e-05
000310 b0 37 d3 b8 fe 34 3c 3b 62 b5 ac a5 fb a9 13 a5
       -0.00010071637 0.002871811 -2.9960154e-16 -1.2807809e-16
000320 b8 5e 81 26 20 7a d0 a4 b6 32 ae a5 78 38 1b 28
       8.976847e-16 -9.041251e-17 -3.0218552e-16 8.616473e-15
000330 ef d9 77 38 a6 d4 08 b8 30 84 fa 39 90 d0 99 b7
       5.9092356e-05 -3.262297e-05 0.00047782203 -1.833614e-05
000340 0b 86 80 b8 3c 0b e5 3a d3 97 ca 35 0e 9e b5 35
       -6.128483e-05 0.0017474662 1.509436e-06 1.3531551e-06
000350 b8 1b fe b7 b0 f2 37 35 c9 b3 19 36 25 f5 88 b8
       -3.0292067e-05 6.852597e-07 2.2903425e-06 -6.530647e-05
000360 ba b3 f6 b6 fb e1 c9 b5 68 55 b2 38 ce 1a d2 b4
       -7.3522942e-06 -1.5041436e-06 8.5036096e-05 -3.913505e-07
000370 ee 8e af b5 c8 6e 1c 38 60 53 3f b9 77 ec 94 38
       -1.3080114e-06 3.729647e-05 -0.00018246239 7.101235e-05
000380 9c c2 41 bb b4 8c 0d 38 f5 8c ec 38 b8 c7 52 bb
       -0.002956546 3.374806e-05 0.00011279612 -0.0032162499
000390 9f a6 f9 b9 4e 3d 90 b9 d7 43 b9 3b ef 62 12 b9
       -0.00047617123 -0.00027511496 0.005653839 -0.000139605
0003a0 30 a2 f4 b9 8f fb 59 3c 09 d0 a4 a9 52 d3 1f a9
       -0.00046660146 0.013304605 -7.3191514e-14 -3.5488383e-14
0003b0 6c d1 2b 2a a5 1a bd a8 b2 02 9e a9 e8 cb 0c 2c
       1.5260509e-13 -2.099477e-14 -7.017077e-14 2.0008387e-12
0003c0 fa d6 33 39 48 c0 c8 b7 04 df 06 3b 8c b9 33 b7
       0.00017150855 -2.3931396e-05 0.0020579705 -1.0712432e-05
0003d0 59 2c 16 b8 24 d0 85 3a fe c0 ae 38 fa 1f c4 b8
       -3.580409e-05 0.0010209125 8.332914e-05 -9.3519644e-05
0003e0 b5 cd 52 3b 2b 10 37 b8 7a f6 18 b9 7b 4c 88 3b
       0.0032166068 -4.3645658e-05 -0.0001458767 0.004159508
0003f0 c5 67 b3 b9 e5 82 0d 39 51 f4 b3 bb d8 e6 8f 38
       -0.00034218855 0.0001349557 -0.0054917713 6.861769e-05

exp_avg_sq f4 [128, 6]
000000 ea 9b b1 33 0b 01 e9 35 76 8c 93 33 0d c7 8c 2c
       8.2705654e-08 1.7360156e-06 6.8707706e-08 4.0011384e-12
000010 c7 93 44 2e 4d 14 1c 33 99 32 2c 34 66 fa 6b 35
       4.4696493e-11 3.6340044e-08 1.6037156e-07 8.79087e-07
000020 60 71 ea 37 d0 88 7e 32 36 b6 31 34 b1 19 0d 39
       2.7947768e-05 1.4815853e-08 1.6550698e-07 0.00013456379
000030 87 18 a9 33 c6 bd 06 33 28 67 9e 37 aa 6f 0a 32
       7.874137e-08 3.1371904e-08 1.8883104e-05 8.058047e-09
000040 ca 4e c1 33 b3 7b 99 38 2e 17 a4 34 3e 91 92 36
       9.0015945e-08 7.318649e-05 3.0564246e-07 4.3680475e-06
000050 34 61 c8 37 f0 76 47 32 5d 43 0b 34 39 25 dd 38
       2.3887122e-05 1.1610368e-08 1.296989e-07 0.000105450345
000060 95 51 e9 34 54 33 33 35 f2 41 f8 38 43 20 5e 33
       4.345899e-07 6.675739e-07 0.00011837845 5.1717745e-08
000070 c1 15 1b 35 1a 45 f6 39 33 22 e3 34 15 73 91 34
       5.7773656e-07 0.0004697226 4.2306928e-07 2.7092088e-07
000080 60 ba e5 38 ac 8b 88 33 f9 aa 3e 35 27 63 17 3a
       0.00010954286 6.3584e-08 7.1029314e-07 0.0005774968
000090 36 66 0d 35 a0 d7 ca 36 9c 73 55 38 61 d0 fd 32
       5.267533e-07 6.045171e-06 5.0890827e-05 2.9547836e-08
0000a0 7e 35 b1 34 88 b3 8c 39 7b 46 b7 32 1a 36 d6 34
       3.300774e-07 0.00026836642 2.1336055e-08 3.989997e-07
0000b0 c2 30 94 32 6c d3 04 2c 53 79 b9 2d 6c 43 93 32
       1.725164e-08 1.887569e-12 2.1085944e-11 1.7143712e-08
0000c0 10 15 1d 35 bf 91 f7 36 93 44 58 38 7c fe 17 33
       5.851771e-07 7.3781407e-06 5.1562278e-05 3.538888e-08
0000d0 89 3d d4 34 04 84 a8 39 74 3f af 18 b8 90 4c 17
       3.953285e-07 0.00032141816 4.530051e-24 6.6098616e-25
0000e0 fe 6a 8b 19 b7 74 d2 16 f7 ef 92 18 b7 54 69 1d
       1.4415477e-23 3.4000987e-25 3.7982418e-24 3.088109e-21
0000f0 b0 01 2e 11 64 dc 40 10 64 60 fd 14 a6 f7 45 0f
       1.37267e-28 3.8035106e-29 2.5584491e-26 9.760545e-30
000100 c0 37 0a 11 44 7c db 15 99 fe 38 30 9d f5 77 2e
       1.090346e-28 8.864945e-26 6.7300615e-10 5.6379446e-11
000110 88 85 5e 30 61 3f b1 2d cb 80 77 2f 6c 83 44 34
       8.095289e-10 2.0150716e-11 2.2510276e-10 1.8301733e-07
000120 ad a2 f0 34 61 e4 c2 36 a4 6e 27 38 fa f7 be 32
       4.4821846e-07 5.8082373e-06 3.9918945e-05 2.2231678e-08
000130 d4 54 85 34 dc b9 53 39 44 4a ec 32 05 34 e1 31
       2.48349e-07 0.00020191766 2.7507788e-08 6.554276e-09
000140 f3 a4 8b 34 68 e9 27 31 59 77 ea 32 9f 29 ba 37
       2.6010784e-07 2.4434375e-09 2.7295458e-08 2.219231e-05
000150 f9 70 05 1f 1c 9c b2 1e 65 52 45 23 69 7c b7 1d
       2.8257294e-20 1.8911048e-20 1.0696839e-17 4.8568334e-21
000160 62 1b 80 1f 10 6e 4b 24 33 2b 7d 34 a4 39 0b 34
       5.425541e-20 4.4111835e-17 2.3578177e-07 1.2966353e-07
000170 6f a4 8f 38 8b 0b 14 33 b6 b9 ce 34 0c 23 a4 39
       6.8493995e-05 3.4469434e-08 3.8505613e-07 0.0003130663
000180 ca db df 35 05 57 04 37 cf 5b cb 39 0f ef 4c 34
       1.6678762e-06 7.888074e-06 0.0003878758 1.908595e-07
000190 da 14 0f 36 77 35 e3 3a 12 fd ea 35 42 0f 24 37
       2.1320798e-06 0.0017334659 1.7508012e-06 9.778714e-06
0001a0 7d 80 9c 39 92 49 45 34 34 be 09 36 49 bb da 3a
       0.0002985037 1.837382e-07 2.0525304e-06 0.0016687895
0001b0 2c ae 05 33 8a 4d 72 35 ca 27 e8 32 23 1e 6d 2b
       3.1124884e-08 9.026486e-07 2.7026449e-08 8.4241137e-13
0001c0 51 8d 25 2d 25 72 03 32 25 9b c6 34 17 ef 53 36
       9.410543e-12 7.651157e-09 3.6993256e-07 3.1580619e-06
0001d0 84 cb 14 38 52 75 07 33 6c 26 bd 34 9c 2e 96 39
       3.547549e-05 3.153884e-08 3.523195e-07 0.00028644956
0001e0 76 33 26 35 61 55 2d 37 5a 0b 8d 37 e7 ae e2 31
       6.1914704e-07 1.0331482e-05 1.6813796e-05 6.5973498e-09
0001f0 59 44 9e 33 9c 52 7b 38 bd 08 30 34 70 4c 47 36
       7.369881e-08 5.992e-05 1.6394456e-07 2.9697803e-06
000200 2b ec d4 34 6c 3c 06 2f 75 71 bb 30 ae d3 94 35
       3.9659912e-07 1.2208695e-10 1.3638287e-09 1.1088466e-06
000210 bb 25 04 35 2c 08 22 37 27 14 d5 34 0b f0 18 2e
       4.9228737e-07 9.657855e-06 3.9689004e-07 3.4774e-11
000220 b1 8e d5 2f b7 8f a9 34 91 3f 27 35 7f 75 0d 37
       3.8845863e-10 3.158327e-07 6.230485e-07 8.431612e-06
000230 65 90 75 38 5e 7a 0e 33 c0 f3 c6 34 fc f6 9d 39
       5.854703e-05 3.3173244e-08 3.7057725e-07 0.0003012939
000240 7f f9 ac 30 65 1f 2d 30 30 1b 7f 34 3d 49 40 2f
       1.2585558e-09 6.298165e-10 2.3758616e-07 1.7488318e-10
000250 41 40 06 31 ba 2f d5 35 fa 5b e5 33 6a 69 e0 35
       1.953609e-09 1.5883627e-06 1.0680374e-07 1.671998e-06
000260 eb ae 99 34 01 d0 2c 31 53 4f f1 32 a2 98 bf 37
       2.862574e-07 2.514753e-09 2.8092165e-08 2.284005e-05
000270 8e d0 81 33 29 5a 0d 33 cc 22 75 37 ab 65 0d 32
       6.0449665e-08 3.291112e-08 1.461124e-05 8.230397e-09
000280 44 71 c5 33 25 c4 9c 38 cc 74 77 34 9e 9e 90 36
       9.19413e-08 7.4751944e-05 2.3046158e-07 4.31e-06
000290 43 4b 48 34 d2 50 8a 2d d7 23 41 2f 85 59 19 34
       1.8653832e-07 1.5724675e-11 1.756598e-10 1.4281802e-07
0002a0 bf cf dc 34 95 12 92 36 31 8a 5c 38 2b 0d fc 32
       4.1129348e-07 4.3533023e-06 5.2580788e-05 2.934265e-08
0002b0 6f fa af 34 5d b9 8b 39 de 49 23 33 1a 02 47 32
       3.2778505e-07 0.00026650252 3.8018577e-08 1.1583802e-08
0002c0 d8 12 0c 37 b8 42 4c 31 87 9c 0e 33 6f 76 e2 37
       8.349038e-06 2.9723832e-09 3.3204312e-08 2.699645e-05
0002d0 55 94 56 34 16 d1 7a 36 59 85 a1 34 86 7f ae 2f
       1.9984266e-07 3.7374607e-06 3.008561e-07 3.1741026e-10
0002e0 fd a9 73 31 26 77 41 36 d8 aa 28 34 e5 ca 61 36
       3.5457781e-09 2.8828595e-06 1.5708372e-07 3.3645713e-06
0002f0 27 17 0c 34 73 94 fe 2c 59 be b1 2e 26 20 8d 33
       1.3046939e-07 7.2355954e-12 8.0828406e-11 6.571672e-08
000300 b8 c3 6a 34 3b 7e 57 35 87 d2 20 38 61 8f e6 32
       2.186415e-07 8.027743e-07 3.834304e-05 2.6840725e-08
000310 25 f9 a0 34 e9 9e 7f 39 cc 79 f3 0f 61 4e d8 0d
       2.99836e-07 0.00024377894 2.4008564e-29 1.3330897e-30
000320 7a 42 c0 0f d2 22 aa 0d 83 92 6d 0f 12 a1 3c 14
       1.8958268e-29 1.0485442e-30 1.1713219e-29 9.52334e-27
000330 30 72 ad 34 d6 43 89 36 5f 8f c4 37 58 27 8c 32
       3.2306843e-07 4.0908153e-06 2.3431783e-05 1.6316037e-08
000340 d2 b4 43 34 4e 63 1b 39 b5 38 80 34 05 a8 a9 36
       1.8226572e-07 0.00014818946 2.3883118e-07 5.0561525e-06
000350 9f 86 54 34 90 97 8b 2d 18 ec 42 2f d5 c3 1a 34
       1.9793013e-07 1.5869778e-11 1.7728075e-10 1.4413611e-07
000360 dd c0 8f 34 3c 6f b9 36 55 52 c6 34 49 34 e5 2e
       2.6776152e-07 5.526379e-06 3.6940278e-07 1.0423002e-10
000370 d9 06 a0 30 25 1e 7e 35 fa 4a 33 34 65 ff c9 33
       1.1643478e-09 9.466624e-07 1.669795e-07 9.406248e-08
000380 54 87 38 38 ea 5b d9 32 b4 c1 97 34 1f fc 70 39
       4.3995053e-05 2.5303923e-08 2.826688e-07 0.00022982106
000390 7d 1f 3a 35 d9 2d b1 34 fa db 04 39 b8 47 5c 33
       6.933622e-07 3.3002178e-07 0.00012670449 5.128797e-08
0003a0 dd cb 19 35 43 39 f4 39 1a 4e 16 34 0a aa 41 36
       5.72936e-07 0.0004658197 1.3998252e-07 2.8858217e-06
0003b0 48 c1 f7 33 ed d2 fd 2c 48 37 b1 2e c3 b4 8c 33
       1.15369915e-07 7.21411e-12 8.058848e-11 6.5521384e-08
0003c0 e9 17 5a 34 8f 41 d4 33 75 5f 37 38 ec 86 ea 32
       2.031153e-07 9.883944e-08 4.37195e-05 2.730254e-08
0003d0 3f be a3 34 6e 02 82 39 fd fe 49 35 64 6c 4c 37
       3.0499538e-07 0.00024797342 7.524939e-07 1.2184584e-05
0003e0 3c 63 3c 38 dd f9 dd 32 f5 fa 9a 34 98 1a 76 39
       4.4915112e-05 2.584141e-08 2.886733e-07 0.00023470295
0003f0 5b d4 c0 34 a0 a5 58 34 14 1d d5 38 24 32 5e 33
       3.5917296e-07 2.0176822e-07 0.00010162048 5.1734006e-08

exp_avg f4 [128]
000000 76 da 9c 2c f0 4e 93 38 ae d2 72 38 11 4d cb b8
       4.4580407e-12 7.0242095e-05 5.7893507e-05 -9.694149e-05
000010 4e ae c4 b9 38 a8 c9 b8 41 c1 8c b8 36 02 f4 30
       -0.000375139 -9.61576e-05 -6.7117166e-05 1.7753965e-09
000020 8d 1c 8f b8 e8 c6 d2 aa f2 d0 1e a5 46 a7 3c 36
       -6.824089e-05 -3.7441513e-13 -1.3775109e-16 2.811155e-06
000030 80 72 88 38 57 ad 35 b8 37 2b 80 ae ea e3 e0 38
       6.506313e-05 -4.3315198e-05 -5.8284426e-11 0.00010723605
000040 9d 80 0d 3a aa 9a 0d 39 7b 7c 84 a7 0c 96 6b 38
       0.0005397888 0.00013504425 -3.677232e-15 5.6168108e-05
000050 fc 4e 7f 38 78 ed 98 36 43 64 b5 2f 74 a7 b3 b8
       6.0870298e-05 4.557598e-06 3.2994948e-10 -8.566576e-05
000060 b6 30 a1 34 46 12 c2 b6 32 f5 34 b8 40 1c c1 b1
       3.002403e-07 -5.783778e-06 -4.31437e-05 -5.620251e-09
000070 b3 fd 08 38 88 c8 1b b8 56 69 50 37 16 d3 df ae
       3.2661203e-05 -3.714164e-05 1.2422292e-05 -1.0178362e-10
000080 a1 1d 90 38 d3 b6 6d 25 c7 62 2f 38 be be d1 b5
       6.871974e-05 2.0618416e-16 4.1815245e-05 -1.5627227e-06
000090 d5 91 6f 35 95 66 a1 b8 76 ea a6 39 cc 9f 57 29
       8.924665e-07 -7.696186e-05 0.00031836674 4.7878192e-14
0000a0 f2 ed cc 37 6f bc d0 38 28 15 24 b9 11 ea 9c 38
       2.4429497e-05 9.9533114e-05 -0.0001564814 7.482258e-05
0000b0 06 c6 94 2f 44 65 3e b2 9e 25 16 b8 01 b7 91 b7
       2.7061747e-10 -1.1082481e-08 -3.579782e-05 -1.7370565e-05
0000c0 6f d8 6e 37 e6 c7 c0 b7 20 db 28 b9 42 70 a3 32
       1.4236298e-05 -2.2981269e-05 -0.00016103359 1.9026746e-08
0000d0 85 d9 a1 b8 42 d2 07 b8 e4 3b fc b0 d5 bc f2 37
       -7.7175944e-05 -3.2382326e-05 -1.8352435e-09 2.893658e-05
0000e0 74 c5 56 af b0 45 18 9c 66 16 40 b9 48 c8 4d ab
       -1.9533336e-10 -5.038265e-22 -0.00018318891 -7.3108576e-13
0000f0 f7 b2 28 38 0a b9 02 b8 63 b2 11 b9 89 e7 0a b8
       4.0220995e-05 -3.1166746e-05 -0.00013894732 -3.3117398e-05
000100 ac 89 43 2b 10 b3 4a b8 50 53 13 b9 29 ed 37 b0
       6.9468975e-13 -4.8327318e-05 -0.00014050049 -6.6912037e-10
000110 5a 7d 75 38 b8 4c 3b b6 86 61 03 b9 a4 df dd b8
       5.8529295e-05 -2.7909828e-06 -0.00012529464 -0.000105797575
000120 c0 25 26 b8 a2 49 93 38 20 e7 80 b7 40 3d 32 b8
       -3.961264e-05 7.0232214e-05 -1.5366415e-05 -4.249555e-05
000130 d2 74 0a ba 0e 94 65 39 45 71 54 39 6c 74 82 b8
       -0.000528169 0.00021894297 0.00020260092 -6.220568e-05
000140 bf 72 a8 2e 83 ae 52 a2 2a 4c 1e 34 0c 9f 8f 38
       7.6601385e-11 -2.8552693e-18 1.4742605e-07 6.848396e-05
000150 2b 11 3a 39 85 b2 7c b4 81 7f 72 b9 24 d8 83 b9
       0.00017744738 -2.3534274e-07 -0.00023126417 -0.00025147304
000160 2a 56 f2 b7 c2 b1 7e b8 ee 76 33 39 0c 82 5c 38
       -2.8888771e-05 -6.072387e-05 0.00017115075 5.2573203e-05
000170 ff 88 1a 38 f8 c1 9f 30 bc da 2f 36 70 e6 8b 38
       3.684405e-05 1.1623902e-09 2.6204352e-06 6.670959e-05
000180 ba a1 dc 36 73 6e 13 2f 46 4d 52 b7 2e db cf b7
       6.5753384e-06 1.3408812e-10 -1.2534967e-05 -2.4778386e-05
000190 f0 bc 21 39 4e cc 20 b8 59 8b aa 38 92 a4 a3 b8
       0.00015424541 -3.8337246e-05 8.132187e-05 -7.803099e-05
0001a0 a0 2c 54 38 a0 dc d4 38 cb bf 9b b7 4f 87 9a b7
       5.05863e-05 0.00010150042 -1.856675e-05 -1.8421239e-05
0001b0 40 78 08 28 e0 29 15 b8 92 0d 37 b8 c9 61 ef 35
       7.575592e-15 -3.5563367e-05 -4.364324e-05 1.7835347e-06
0001c0 a1 95 ad b8 98 dc cb 35 ce b1 5c 39 46 db 3e 31
       -8.2771534e-05 1.518888e-06 0.00021047072 2.7773281e-09
0001d0 f8 8d 36 b7 b0 8b 22 3a 6b 6e 58 37 bc 6c bd 38
       -1.08811e-05 0.00062006246 1.2900312e-05 9.032476e-05
0001e0 a4 2b dc b9 0b ab 98 b7 d6 3e 75 b7 ab 9f 2b 9d
       -0.00041994185 -1.819946e-05 -1.4617768e-05 -2.2714208e-21
0001f0 ca 05 da b9 a2 d2 65 b8 c4 2d 00 a5 a1 4c 99 38
       -0.00041584513 -5.479402e-05 -1.1117736e-16 7.309882e-05
