results/1005/Agent Behavior/checkpoint.pt (torch, 440939 bytes, 36 tensors)

network_body._body_endoder.seq_layers.0.weight f4 [128, 6]
0	0xbf03d5da	-0.51498187
1	0xbe1e6333	-0.15467529
2	0x3e831c06	0.25607318
3	0xbe82c655	-0.2554194
4	0x3e82e56d	0.25565663
5	0x3d90f5a3	0.070781015
6	0xbd0e721b	-0.03477679
7	0x3eac66b9	0.3367212
8	0xbe832423	-0.25613508
9	0x3e1a3635	0.15059741
10	0x3e8d8cc8	0.2764647
11	0xbf431f56	-0.7621969
12	0x3e83429f	0.25636765
13	0x3e656ba7	0.22404347
14	0x3caf4002	0.021392826
15	0xbd9593b5	-0.073035635
16	0xbf0bf680	-0.54673004
17	0xbd4c380e	-0.049858145
18	0x3efb8394	0.49123824
19	0x3abce2f4	0.0014410899
20	0xbe705651	-0.23470427
21	0xbe9f367e	-0.31096262
22	0x3fcb4efa	1.5883477
23	0xbe2fd0ed	-0.17169543
24	0xbe19b7fd	-0.15011592
25	0xbd2783a0	-0.04089701
26	0x3f8237a0	1.0173225
27	0xbe0b3078	-0.13592708
28	0x3ca8494c	0.020542763
29	0xbec083d7	-0.37600586
30	0xbe07f239	-0.13275994
31	0xbe068aab	-0.13138835
32	0xbe88c854	-0.26715338
33	0x3ea83c73	0.3285862
34	0x3e9db5df	0.3080282
35	0x3ec3f254	0.3827082
36	0x3c958844	0.018253453
37	0xbcd13cb1	-0.025541635
38	0xbe5b92b3	-0.2144268
39	0x3f46f41f	0.7771625
40	0x3cf024da	0.029314447
41	0x3e058ec5	0.13042744
42	0x3f34522c	0.70437884
43	0x3f271103	0.6526033
44	0x3f07d252	0.530553
45	0x3f87eee0	1.0619774
46	0xbf4d5120	-0.8020191
47	0x3d0fb4e2	0.035084613
48	0x3e84b68e	0.25920528
49	0x3ee1c35e	0.44094366
50	0xbdee553c	-0.11637351
51	0xbe8d42f1	-0.27590135
52	0xbe2a717a	-0.1664485
53	0xbe851801	-0.25994876
54	0x3e879ce4	0.26486886
55	0x3e69b6e0	0.22823668
56	0xbec5a5c0	-0.3860302
57	0x3f1481d4	0.580106
58	0x3ee40a0a	0.4453891
59	0xbe923b33	-0.2856079
60	0xbc9679f7	-0.018368704
61	0xbe68a6f2	-0.22719935
62	0x3e5be233	0.21473007
63	0x3f2435b6	0.64144456
64	0x3c712058	0.014717184
65	0xbf03bf95	-0.51464206
66	0x3f10872a	0.56456244
67	0x3ed916e1	0.42400268
68	0x3cca25f3	0.024676299
69	0x3e16d447	0.14729415
70	0x3f6b92fb	0.9202115
71	0xbe3c3163	-0.18378215
72	0xbef14921	-0.47126105
73	0x3f1d8ee3	0.6154615
74	0xbda622ea	-0.08112128
75	0xbeb68166	-0.35645598
76	0xbe933afd	-0.28755942
77	0xbf9f5970	-1.2449169
78	0xbecdafbc	-0.40173137
79	0xbee7b491	-0.4525495
80	0x3f8540ce	1.0410402
81	0x3e501df6	0.20323929
82	0x3f3f73ae	0.7478589
83	0x3ed31971	0.41230348
84	0xbc85c3b3	-0.016328668
85	0x3e07bd30	0.13255763
86	0x3ec78166	0.3896591
87	0x3f77b0c3	0.9675409
88	0xbe30b836	-0.17257771
89	0xbe192cc4	-0.14958483
90	0xbd428db8	-0.047498435
91	0x3e5b39ab	0.21408717
92	0xbbc6f594	-0.0060717557
93	0x3d3ca758	0.04605803
94	0xbe44ca65	-0.19217832
95	0xbe02cdab	-0.12773769
96	0xbf23efd0	-0.640378
97	0xbe800550	-0.25004053
98	0x3e2e0792	0.16995075
99	0xbe2528bd	-0.16128822
100	0x3deea06f	0.11651694
101	0xbe9d8cbb	-0.3077143
102	0xbd6ff56f	-0.058583673
103	0xbe16ff04	-0.14745718
104	0x3e52df0a	0.20592895
105	0xbf0653db	-0.52471703
106	0x3eff2e49	0.4984
107	0x3e3e0e73	0.185602
108	0x3e77df59	0.24206294
109	0x3f518c39	0.8185459
110	0xbf479db7	-0.7797503
111	0xbe6432a1	-0.22284938
112	0xbece74e5	-0.40323558
113	0x3eaad61f	0.33366486
114	0x3ecc1d80	0.39866257
115	0x3e491c95	0.1963981
116	0xbe82119e	-0.25404066
117	0x3e825611	0.25456288
118	0x3e5927b2	0.21206549
119	0xbe2e42c1	-0.17017652
120	0xbefb0095	-0.49023882
121	0xbf0ac5ae	-0.54207885
122	0xbdbbea16	-0.09175508
123	0x3ed80fdc	0.421996
124	0xbd9700ba	-0.073731855
125	0xbe1734da	-0.14766255
126	0xbdeda837	-0.1160435
127	0x3d80575e	0.06266664
128	0xbf71e7fe	-0.94494617
129	0xbe45ad8d	-0.19304486
130	0x3f928b6e	1.14488
131	0xbeabab55	-0.33529153
132	0x3f1fa5e7	0.6236252
133	0xbe4e309e	-0.20135733
134	0xbb4d9c45	-0.0031373661
135	0xbf28c4d4	-0.65925336
136	0x3e81bd3b	0.25339684
137	0xbf2facc5	-0.68623
138	0xbefd8c0b	-0.49520907
139	0x3ee371c9	0.4442275
140	0x3e94ff5a	0.29101068
141	0xbe126f4f	-0.14300273
142	0xbd89e4e4	-0.067331105
143	0xbf16287e	-0.58655536
144	0xbeb76092	-0.35815865
145	0xbdc3756d	-0.095438816
146	0xbed077ee	-0.407165
147	0x3eaa42d8	0.33254123
148	0x3e825ff5	0.25463834
149	0xbe13f613	-0.14449339
150	0x3f181145	0.5940135
151	0xbf4cae50	-0.7995348
152	0x3e734316	0.2375606
153	0xbcb03e26	-0.02151401
154	0xbec1c68d	-0.37846795
155	0x3ed706b6	0.41997308
156	0xbef06eac	-0.46959436
157	0x3bd1b8ad	0.006400189
158	0xbe4a3a02	-0.1974869
159	0xbe4fadc6	-0.20281133
160	0xbcf3ba31	-0.029751869
161	0x3ec4c484	0.3843118
162	0xbef0a475	-0.4700047
163	0xbf344734	-0.7042115
164	0xbec058d1	-0.37567762
165	0x3f0046d7	0.50108093
166	0xbe62d182	-0.22150233
167	0xbd049b3b	-0.0323746
168	0xbf1063ed	-0.56402475
169	0xbf0a1a4a	-0.53946364
170	0xbedc3e1b	-0.43016133
171	0x3f067daf	0.5253553
172	0xbf2cdd5f	-0.67525285
173	0xbefc35a8	-0.49259686
174	0xbe81cd9e	-0.25352186
175	0x3e5d920e	0.21637747
176	0xbf06cae6	-0.5265335
177	0xbda83017	-0.082122974
178	0x3ea82920	0.32843876
179	0x3e4eb0f5	0.20184691
180	0xbea7b08c	-0.32751882
181	0xbf5634ed	-0.8367451
182	0xbf3ece22	-0.74533284
183	0x3f8935c4	1.0719533
184	0x3e678ccf	0.22612308
185	0xbe689222	-0.22711995
186	0x3f6f59ea	0.9349657
187	0xbdf2b783	-0.11851408
188	0xbf64d00d	-0.8937996
189	0xbcd8e848	-0.026477948
190	0x3dcbc1b2	0.09949054
191	0xbeae2b9f	-0.34017655
192	0x3f45140a	0.769837
193	0x3f1d1fb2	0.6137649
194	0xbdfafa16	-0.12254731
195	0x3e2b865f	0.16750477
196	0xbe8094e8	-0.25113606
197	0xbea8b73e	-0.32952303
198	0xbe84e962	-0.25959307
199	0xbe914925	-0.28376117
200	0xbf96e53d	-1.1788708
201	0xbda46bcc	-0.08028373
202	0x3e48b892	0.19601658
203	0xbdc7d14a	-0.097567156
204	0x3e90282b	0.28155646
205	0x3e8057e6	0.2506706
206	0x3f32bec6	0.6982235
207	0x3ceaac87	0.02864672
208	0x3ea7db2a	0.32784396
209	0x3f1a8bc9	0.60369545
210	0xbf11a568	-0.56893015
211	0xbe4314c1	-0.19050886
212	0xbf34e6b7	-0.7066454
213	0x3e93f837	0.2890031
214	0x3d031bfe	0.032009117
215	0x3ea9e606	0.33183306
216	0x3f228380	0.63481903
217	0xbe555a69	-0.2083527
218	0xbea0a059	-0.31372336
219	0xbcaffcc2	-0.021482829
220	0x3f4d237e	0.8013228
221	0xbea84857	-0.3286769
222	0xbf96ffa1	-1.1796762
223	0xbf0b90a4	-0.5451758
224	0xbeff2201	-0.4983063
225	0x3c98e43f	0.018663524
226	0xbe3f1ed9	-0.18664111
227	0xbf855c96	-1.041888
228	0x3e88d877	0.2672765
229	0xbe886a34	-0.26643527
230	0xbe92b265	-0.2865173
231	0xbf81704a	-1.0112393
232	0xbe0695d6	-0.13143095
233	0x3eb50297	0.35353538
234	0x3d78ecc1	0.06077266
235	0xbdf2e5c2	-0.11860229
236	0x3c59859b	0.013276483
237	0xbe449652	-0.19197968
238	0x3f19f7db	0.6014382
239	0xbf1f9775	-0.6234048
240	0xbeb4a6e6	-0.35283583
241	0x3e5e7886	0.21725664
242	0x3db08ec7	0.086209826
243	0x3e99069c	0.29887855
244	0x3e34a39e	0.1764054
245	0xbea3375a	-0.31878167
246	0x3f42700b	0.75952214
247	0xbe00eb34	-0.12589723
248	0x3ee6afb8	0.45055938
249	0xbe2c1212	-0.16803768
250	0x3dfe7f69	0.12426645
251	0x3e84383c	0.25824153
252	0xbe5ed97e	-0.21762654
253	0x3f1bfc25	0.6093162
254	0xbe85943c	-0.26089656
255	0xbe0770ac	-0.13226575

network_body._body_endoder.seq_layers.0.bias f4 [128]
0	0xb945f878	-0.00018879946
1	0xb7ba12c0	-2.2181659e-05
2	0x3a5aba4d	0.0008343801
3	0x39a73e19	0.00031898989
4	0xba2c8616	-0.00065812597
5	0xbac62be2	-0.0015119279
6	0x386e74a6	5.685226e-05
7	0xbaaf095a	-0.0013354227
8	0x39816a92	0.00024684198
9	0xb92e5196	-0.00016624326
10	0x3a4b608b	0.00077582215
11	0x38efa277	0.000114266695
12	0xbb4be04d	-0.0031109035
13	0x3ac80e3e	0.0015263034
14	0xb9daa88e	-0.00041705783
15	0x37afa2c6	2.0937423e-05
16	0xbb6087b7	-0.003426058
17	0xba741e43	-0.00093123707
18	0xbaa6d25a	-0.0012727485
19	0x3b772e8e	0.0037716958
20	0xba493d0b	-0.00076766376
21	0xba907fd2	-0.0011024422
22	0xbab3d03e	-0.0013718677
23	0x3ae82a3a	0.001771278
24	0xbb3e4667	-0.0029033662
25	0xbad4c223	-0.0016232174
26	0x390286dd	0.00012448007
27	0x3b51658f	0.0031951403
28	0x3926a1e6	0.00015891306
29	0x3a4ee92f	0.00078930234
30	0xba2d96d6	-0.00066219026
31	0x3914bfd7	0.00014185846
32	0xbae5bd9c	-0.0017527821
33	0xbacc79df	-0.0015600285
34	0x3add4577	0.0016881664
35	0x3b0292c9	0.0019923917
36	0xbadbc855	-0.0016768078
37	0x3ace35a7	0.0015732542
38	0xba8a0795	-0.0010530824
39	0xbb19a503	-0.0023444302
40	0xb963a5be	-0.00021710151
41	0x3996aa98	0.00028737332
42	0xbb444e81	-0.0029954019
43	0xb979f394	-0.0002383723
44	0x3b425849	0.0029654673
45	0xbb025850	-0.0019889064
46	0x39e723aa	0.00044086325
47	0x384f585f	4.9434948e-05
48	0x39df33a9	0.00042572364
49	0xb9d4a864	-0.00040561252
50	0xba85f0b8	-0.0010218835
51	0xba0dbb5f	-0.00054066436
52	0x3abe3b4a	0.0014513519
53	0xb9b66998	-0.0003479242
54	0xba1d31a3	-0.0005996471
55	0x3a6f690c	0.00091327797
56	0xba9553f3	-0.0011392817
57	0xb7e0c059	-2.679245e-05
58	0xb9f9aafc	-0.00047620374
59	0xbaf5b3eb	-0.0018745636
60	0xbb3c7a79	-0.0028759523
61	0x3a5fba68	0.00085345516
62	0x396eb39e	0.00022764361
63	0xb80d8757	-3.3743065e-05
64	0xba3d989d	-0.0007232519
65	0x394d5cc8	0.00019584887
66	0xbab9ac71	-0.0014165771
67	0xb9ef075b	-0.00045591113
68	0x38f42eea	0.00011643565
69	0xbb8233c2	-0.003973455
70	0x3b11a9ba	0.002222641
71	0x39f6a620	0.0004704455
72	0xb9d917e4	-0.00041407265
73	0xba8365fa	-0.0010024898
74	0x3a46e92f	0.00075878476
75	0xba6a4cc7	-0.00089378323
76	0xba0a1b58	-0.0005268357
77	0xbae15915	-0.0017192686
78	0x3a3d67ea	0.0007225262
79	0xb9131f00	-0.00014030561
80	0xb948fd01	-0.00019167738
81	0xb9c906a1	-0.00038342646
82	0x3b63d82a	0.0034766295
83	0xbab137e6	-0.0013520687
84	0xbaef9451	-0.0018278455
85	0xbb224f72	-0.0024766591
86	0x39b51c0d	0.0003454391
87	0x3b035d45	0.0020044607
88	0xbb2ca33a	-0.0026342408
89	0x3a7cffd1	0.0009651157
90	0xb94b057a	-0.00019361629
91	0xba83c1fb	-0.0010052318
92	0x39e67854	0.0004395867
93	0x3a1a1a03	0.000587851
94	0xbaa50456	-0.0012589793
95	0x398f4497	0.0002732619
96	0x38429ad9	4.6397417e-05
97	0x3a96d84e	0.0011508556
98	0x3a7f4175	0.0009737232
99	0xb9e362b3	-0.0004337035
100	0xba36b0dd	-0.00069691037
101	0xbad210fd	-0.0016026791
102	0xba334788	-0.0006838967
103	0xbb17e068	-0.0023174528
104	0xba990fa1	-0.0011677631
105	0x3a35f5c8	0.00069412263
106	0xbb057df9	-0.0020369275
107	0x3a2adbc1	0.0006517731
108	0x3abe6c9d	0.0014528219
109	0x3a114d84	0.0005542862
110	0xbb0334e1	-0.0020020532
111	0x39e0021a	0.00042726175
112	0x38ab45d5	8.1669226e-05
113	0xbb3b6332	-0.002859306
114	0xb832d2e5	-4.2634918e-05
115	0xbb276813	-0.002554421
116	0xb95efd92	-0.00021266032
117	0x3a0d2d25	0.000538545
118	0xba4f0bdb	-0.000789819
119	0xbb01d261	-0.0019809233
120	0x3a175e19	0.00057742145
121	0x390fe768	0.00013723748
122	0xb8641f5f	-5.4388653e-05
123	0x3ae985c1	0.0017816351
124	0x3a864116	0.0010242786
125	0xbab0eff5	-0.0013499247
126	0x39b1efee	0.00033938832
127	0xbb860a10	-0.004090555

network_body._body_endoder.seq_layers.2.weight f4 [128, 128]
0	0xbd9df15a	-0.0771205
1	0x3b4a0075	0.0030823026
2	0xbd9a5137	-0.07535022
3	0xbdef34ac	-0.11679968
4	0xbe290c3c	-0.16508573
5	0xbc072f06	-0.008250957
6	0x3d3f6447	0.04672649
7	0xbcb5b0ec	-0.02217909
8	0xbd1ec09c	-0.038757905
9	0xbc479291	-0.01218094
10	0xbdc3a514	-0.095529705
11	0xbc5bddd5	-0.013419588
12	0xbd81c675	-0.06336681
13	0xbd01b6dc	-0.03166853
14	0xbe456b81	-0.1927929
15	0xbd22fa90	-0.039789736
16	0xbdfb3330	-0.122656226
17	0xbd867302	-0.06564905
18	0xbd2088ab	-0.039192837
19	0xbd80aadd	-0.062825896
20	0xbde07b22	-0.10960986
21	0x3bdd9271	0.006761842
22	0xbdd5703a	-0.10421796
23	0xbd29cbeb	-0.041454237
24	0xbe26fd9f	-0.16307686
25	0x3d7173ed	0.058948446
26	0x3ce44e85	0.027869472
27	0xbdde258d	-0.10847006
28	0xbe457298	-0.19281995
29	0x3e0b00c2	0.13574508
30	0x3cf13733	0.029445266
31	0x3c4866e1	0.0122315595
32	0x3ca5e51b	0.020250848
33	0xbde3711b	-0.111055575
34	0xbc5e73e3	-0.013577434
35	0xbd810e61	-0.06301571
36	0x3b9ae066	0.0047264574
37	0xbdc8a892	-0.09797777
38	0xbd380966	-0.044930838
39	0xbd1ffe01	-0.039060596
40	0xbe25c534	-0.16188508
41	0xbd25ffd7	-0.04052719
42	0xbd7d5095	-0.061844427
43	0xbe192d0b	-0.14958589
44	0xbe24c354	-0.16090137
45	0xbd201441	-0.039081816
46	0xbd866704	-0.065626174
47	0xbe5c9180	-0.21539879
48	0xbd7753de	-0.060382716
49	0x3da7d600	0.08195114
50	0xbd85a9a4	-0.06526497
51	0x3d3e6a96	0.046488367
52	0xbd0063b5	-0.031345088
53	0xbcb99b77	-0.02265714
54	0xbc2810b9	-0.010257893
55	0x3c8ad104	0.01694537
56	0xbd8f6121	-0.07000948
57	0x3cd47373	0.025933957
58	0x3dd15cc4	0.10222772
59	0xbc23a753	-0.009988624
60	0xbd2c9c68	-0.042141348
61	0xbcd99ddc	-0.026564531
62	0xbd0ed6e0	-0.03487289
63	0xbe2e5246	-0.17023572
64	0xbce4eb3b	-0.027944198
65	0x3e37c65b	0.1794676
66	0x3dd97d3f	0.10619592
67	0xbd4a750d	-0.049428035
68	0x3d027651	0.031851117
69	0xbd7c9c9b	-0.061672788
70	0xbde2f2f7	-0.11081498
71	0x3d9cac18	0.07650012
72	0xbda02f89	-0.078215666
73	0xbcb14845	-0.021640906
74	0x3d980d89	0.074244566
75	0x3cd4b28a	0.02596404
76	0xbcc5399c	-0.024075322
77	0xbe184504	-0.14870077
78	0xbe529a86	-0.20566759
79	0x3d012545	0.031529684
80	0xbd082fe3	-0.033248793
81	0x3da574e1	0.080789335
82	0x3c07f222	0.008297475
83	0xbddf5ece	-0.109067544
84	0x3d8c66bb	0.06855532
85	0xbdabb8d6	-0.08384864
86	0x3d74195b	0.059594493
87	0xbdddaa45	-0.10823492
88	0xbd0fe0f3	-0.035126638
89	0xbdc53e8c	-0.096310705
90	0xbd2c5992	-0.04207761
91	0x3c180f92	0.009281056
92	0x3da7db69	0.08196146
93	0x3c8ff70c	0.017573856
94	0xbdf8cde2	-0.12148644
95	0x3d9bd20a	0.07608421
96	0xbe056d46	-0.13029966
97	0xbd958548	-0.07300812
98	0xbce21306	-0.027596962
99	0xbe2222c0	-0.15833569
100	0x3e228307	0.15870295
101	0xbd63401a	-0.055481054
102	0xbe146e1b	-0.14495127
103	0x3c11cc8b	0.0088988645
104	0x3ceb7957	0.028744383
105	0xbbdd8642	-0.0067603895
106	0x3d90df66	0.0707386
107	0x3da238af	0.07920968
108	0xbdf43f2f	-0.11926114
109	0xbdd08bea	-0.101829365
110	0x3d1db9bd	0.038507212
111	0xbc87b083	-0.01656366
112	0xbd79a420	-0.060947537
113	0xbdc7a933	-0.09749069
114	0x3d126f18	0.03575048
115	0x3c407bc7	0.011748261
116	0xbd7ea645	-0.062170286
117	0x3c84197a	0.01612543
118	0x3e2e8849	0.17044176
119	0xbcf8b249	-0.03035845
120	0xbdab3934	-0.0836052
121	0x3d3d49b7	0.046212878
122	0xbded1ee4	-0.115781575
123	0xbc39a6c3	-0.011331263
124	0x3d82bc8b	0.06383618
125	0xbd8fef7b	-0.07028099
126	0xbd84b737	-0.06480258
127	0xbd04aadc	-0.032389507
128	0xbce93adb	-0.028470447
129	0x3ddee6f1	0.10883892
130	0x3e4a3894	0.19748145
131	0xbd4f3e4a	-0.050596513
132	0x3dcb0e9d	0.09914897
133	0xbd4d3233	-0.0500967
134	0xbb9a4a8d	-0.004708594
135	0x3d35e6ab	0.044409435
136	0xbd5532b2	-0.0520503
137	0x3d524fe9	0.05134574
138	0xbbc0f432	-0.0058884853
139	0x3d1e2abf	0.038614985
140	0x3c454153	0.0120395
141	0x3b606346	0.003423886
142	0x3c02bfc2	0.007980289
143	0x3d1767d8	0.036964267
144	0xbe29c27c	-0.16578096
145	0xbd6883a2	-0.05676616
146	0xbdda21ab	-0.10650953
147	0x3d8833bb	0.06650492
148	0x3df63a88	0.12022883
149	0xbdd3b1fd	-0.10336683
150	0xbb4ef787	-0.0031580643
151	0x3d8c2591	0.06843103
152	0x3d9daf32	0.076994315
153	0xbd419607	-0.047262218
154	0x3c9ef9aa	0.019406158
155	0xbe01dc15	-0.12681611
156	0xbdb7fbd7	-0.089835815
157	0x3ae507b3	0.0017473608
158	0x3d84842e	0.06470524
159	0x3d239487	0.03993657
160	0xbd221af3	-0.039576482
161	0xbd97219b	-0.073794566
162	0xbd121ae7	-0.035670187
163	0x3d11d80d	0.035606433
164	0xbe1f5ede	-0.15563533
165	0xbe122235	-0.14270861
166	0x3d6a359f	0.057180043
167	0x3ca6a487	0.020342125
168	0x3ca3211d	0.01991325
169	0x3dfe1739	0.12406773
170	0x3dac942d	0.084267
171	0x3e811f40	0.25219154
172	0xbd7d79e7	-0.061883833
173	0x3c137f55	0.009002526
174	0xbd0bca3a	-0.034128405
175	0x3e023717	0.12716328
176	0x3c78ec22	0.015193017
177	0x3bc9c758	0.006157797
178	0x3dab0e25	0.08352307
179	0x3d307ab5	0.043085773
180	0x3df920af	0.12164437
181	0xbd5f1a37	-0.05446836
182	0xbd51b845	-0.051201124
183	0xbdedc957	-0.11610668
184	0x3c665286	0.014057761
185	0xbd2bb5c7	-0.041921403
186	0xbc3c02e7	-0.011475301
187	0xbd188e00	-0.037244797
188	0x3d85e9ca	0.06538732
189	0xbdd2ee15	-0.10299317
190	0x3c3c484f	0.011491849
191	0x3d489578	0.04897067
192	0xbd5bdccd	-0.05367737
193	0xbdb0ca64	-0.08632353
194	0x3cc85ce2	0.024458352
195	0x3b9b6b34	0.004743004
196	0x3e0ccb40	0.13749409
197	0xbdb12f46	-0.08651595
198	0xbd413ad1	-0.047175232
199	0xbe38ac0b	-0.18034379
200	0x3d5543e3	0.052066695
201	0xbd5ede6d	-0.05441134
202	0x3c0425e7	0.008065677
203	0x3ba53584	0.00504178
204	0xbd7f58ae	-0.06234043
205	0x3cb238e9	0.021755653
206	0x3d9e0a80	0.077168465
207	0xbd954dc0	-0.0729022
208	0x3bf93726	0.007605451
209	0x3d56e17b	0.05246113
210	0xbe794568	-0.24342883
211	0xbde634c0	-0.1124053
212	0xbcb8aeeb	-0.022544345
213	0x3b56da9b	0.0032784108
214	0xbc9321c3	-0.017960435
215	0xbe213c3b	-0.15745632
216	0x3de3c97e	0.11122416
217	0x3d08a0cd	0.033356477
218	0x3e42a91d	0.19009824
219	0xbd9dd1bd	-0.0770602
220	0xbe0a2158	-0.13489282
221	0xbe52e8e9	-0.2059666
222	0xbdcc95d1	-0.09989513
223	0xbd89ad25	-0.06722478
224	0x3c8068bf	0.015674947
225	0xbdc30e8d	-0.0952426
226	0xbd800c3b	-0.06252333
227	0xbd3dd3bf	-0.046344515
228	0xbd179419	-0.03700647
229	0x3d8dd874	0.06926051
230	0x3ca774a8	0.020441368
231	0x3d219ea0	0.039457917
232	0xbcbb9260	-0.022896945
233	0x3d84a828	0.06477386
234	0x3cc8e68f	0.024524001
235	0x3dcd0775	0.10011188
236	0xbdc288a5	-0.09498719
237	0xbda908ef	-0.08253657
238	0x3ddc18cd	0.10746918
239	0x3d225d00	0.039639473
240	0xbe0824cf	-0.13295291
241	0xbdb61e07	-0.08892446
242	0xbdc1a117	-0.094545536
243	0x3d4f9ec5	0.050688524
244	0xbc9be214	-0.0190287
245	0x3d8f84cf	0.07007753
246	0xbd061278	-0.032732457
247	0x3ce2aa0d	0.027668977
248	0xba083002	-0.0005195142
249	0xbe0ecb1e	-0.1394467
250	0x3da2c8da	0.07948466
251	0x3e25374b	0.16134374
252	0xbc499717	-0.012304089
253	0xbd9f12d1	-0.07767261
254	0x3c99496f	0.018711774
255	0x3d554b2e	0.05207365

network_body._body_endoder.seq_layers.2.bias f4 [128]
0	0x3ab95405	0.001413942
1	0xba93b270	-0.0011268388
2	0xbabcae63	-0.0014395233
3	0xba8d4c0f	-0.0010780114
4	0x3b0196e3	0.0019773773
5	0xba7660cb	-0.00093985785
6	0xba898402	-0.0010491612
7	0xbac7c716	-0.0015241827
8	0x3af59ce5	0.0018738775
9	0xba558440	-0.0008145012
10	0xb8d01bec	-9.923414e-05
11	0xb933bd62	-0.00017141321
12	0xbb5015b6	-0.0031751222
13	0xba8f9396	-0.0010954018
14	0xbae28411	-0.001728179
15	0xb94000d2	-0.00018310852
16	0xba7304f5	-0.0009270453
17	0xbb842214	-0.0040323827
18	0xba59556d	-0.00082906225
19	0xb9a1859a	-0.00030807854
20	0x3a22c548	0.0006209207
21	0x3795414e	1.7792594e-05
22	0xba8636a0	-0.0010239668
23	0x3a785792	0.0009473498
24	0xba533cc6	-0.0008058067
25	0xba2c0e1d	-0.00065633823
26	0xb991b1f2	-0.00027789135
27	0xb9fbde3f	-0.00048040037
28	0xbab74d3b	-0.0013984808
29	0x393ff0fe	0.00018304956
30	0xba4dce95	-0.00078509125
31	0xba84ae57	-0.0010122758
32	0x39ca6d11	0.00038609703
33	0x39ae864f	0.00033287934
34	0x3a6c87ef	0.0009022941
35	0xbb2223fd	-0.002474069
36	0xbab30a66	-0.0013659715
37	0xba6f3320	-0.00091247447
38	0xba41f489	-0.00073988043
39	0xba62bca8	-0.0008649328
40	0xba88f3e6	-0.0010448664
41	0x39c77174	0.00038040767
42	0xbac66231	-0.0015135464
43	0xba4f6573	-0.00079115405
44	0xb82fe234	-4.193392e-05
45	0xba678aa7	-0.00088326115
46	0x3a6b18fd	0.0008968262
47	0xba877493	-0.0010334424
48	0xba1ba949	-0.0005938006
49	0xbaaef700	-0.0013348758
50	0x3aedb70d	0.0018136218
51	0x3977675f	0.00023594264
52	0x3b6d4073	0.0036201745
53	0xba3f2477	-0.00072915055
54	0x38a58007	7.89166e-05
55	0xba518782	-0.00079929095
56	0xba62ffa7	-0.0008659311
57	0xbab229fe	-0.0013592837
58	0x3a2b9c60	0.0006546434
59	0xbaaff24a	-0.0013423648
60	0x39f83980	0.00047345087
61	0x3901a7d1	0.00012364915
62	0xba9820cd	-0.0011606455
63	0x3a4e41c2	0.0007868075
64	0x39bb88ef	0.00035769443
65	0x39a90618	0.00032238732
66	0xb9cb0507	-0.00038722923
67	0xb9eefb1b	-0.00045581986
68	0x3b2c905d	0.0026331164
69	0xba5afbf9	-0.0008353587
70	0xb9cbfbc8	-0.0003890677
71	0x39d7da2c	0.00041170546
72	0xbaa96e56	-0.001292656
73	0x397c050c	0.00024034473
74	0xba0911cb	-0.00052287866
75	0xbaa548ec	-0.0012610233
76	0x398a67ee	0.00026398845
77	0x39e5e902	0.00043851888
78	0x39ea2ee4	0.00044666894
79	0xbb044c8f	-0.0020187234
80	0xb92e0fa6	-0.00016599763
81	0xba7096d7	-0.00091777503
82	0x3b079104	0.0020685801
83	0x38d2d7d5	0.00010053782
84	0xbac19d5c	-0.0014771628
85	0x3a1dfab8	0.0006026435
86	0xbad34945	-0.0016119858
87	0xba3daa45	-0.000723515
88	0xba2257ef	-0.00061929127
89	0xb848273f	-4.7720267e-05
90	0x3b564887	0.0032697038
91	0x3b07f4f3	0.0020745366
92	0xb9bdb16a	-0.00036181073
93	0xbb3119bf	-0.0027023403
94	0xbafd8d0a	-0.0019344401
95	0x39f9da77	0.0004765575
96	0xbaa4a6e5	-0.0012561945
97	0xb9f9a719	-0.00047617478
98	0x39d08eca	0.00039779238
99	0x396cefaa	0.00022595996
100	0xbaaef5d4	-0.0013348409
101	0x3a119610	0.0005553672
102	0x3b50f2da	0.0031883032
103	0xba4ae315	-0.00077395263
104	0x3a4981c7	0.000768688
105	0xba19d287	-0.0005867858
106	0xbaf0fa20	-0.001838509
107	0xbac0b956	-0.0014703672
108	0x3725a5c8	9.873365e-06
109	0xbb15bf93	-0.0022849783
110	0xbb4fc622	-0.003170379
111	0x3afaaf3c	0.001912571
112	0x3a165bb4	0.0005735711
113	0xba84784a	-0.001010665
114	0xba50d4d0	-0.0007966282
115	0x39a4a0e0	0.0003140038
116	0xb986b255	-0.0002569134
117	0x3b861795	0.0040921667
118	0xbaa2cff7	-0.0012421597
119	0x38fe2718	0.000121189456
120	0xbaf2d821	-0.0018527546
121	0xba756435	-0.00093609403
122	0x39fd28da	0.00048286357
123	0xbaebc5f2	-0.001798807
124	0xbb0c4f9f	-0.0021409763
125	0x39316665	0.0001691818
126	0xba48261e	-0.00076350744
127	0x3a82aa59	0.000996898

action_model._continuous_distribution.log_sigma f4 [1, 2]
0	0x3b8270cd	0.003980732
1	0xbc3053b1	-0.010762141

action_model._continuous_distribution.mu.weight f4 [2, 128]
0	0x3cb34b56	0.021886509
1	0x3d14d1aa	0.036332764
2	0x3c8c4ebb	0.017127385
3	0x3c32a0e0	0.010902613
4	0x3c5b5b23	0.013388428
5	0xbca390fb	-0.019966593
6	0xbba674e3	-0.005079852
7	0x3c03dd94	0.008048434
8	0xbcdc2144	-0.026871331
9	0x3c08b6ce	0.008344365
10	0xbba79c6b	-0.005115082
11	0xbbe54096	-0.0069962246
12	0xb95366e9	-0.00020160865
13	0xbc1f83d6	-0.009736022
14	0x3bb55f6f	0.005535058
15	0xbaf60f63	-0.0018772896
16	0x3c22fddb	0.009948219
17	0xbd3c1fb4	-0.045928672
18	0x3c8d2a73	0.017232155
19	0xbc23c8f1	-0.009996639
20	0xbc613f51	-0.013748006
21	0xbca4e906	-0.020130645
22	0x3cb02c19	0.021505402
23	0x3c65e90f	0.014032616
24	0xbbb3aed3	-0.005483487
25	0x3d1fa83c	0.0389788
26	0x3b0ee6b2	0.0021804986
27	0xbccd078e	-0.025028016
28	0xbb8003ff	-0.0039067264
29	0xbab4815b	-0.0013771461
30	0x3cb640cc	0.022247694
31	0x3c721b1a	0.014776969
32	0xbc54c453	-0.0129862605
33	0xbcb84599	-0.022494124
34	0x3bec4d52	0.0072113657
35	0x3c957b2c	0.01824721
36	0x3c439502	0.011937382
37	0xbc819088	-0.015815988
38	0x3cf401a9	0.029785948
39	0x3c13f5e9	0.0090307975
40	0xbceb20d1	-0.028702172
41	0xbd0db024	-0.03459181
42	0xbbca32d9	-0.0061706123
43	0xbcb5a5ae	-0.022173729
44	0xbbd29b1c	-0.006427182
45	0xb969dbbe	-0.00022302472
46	0x3c4c974e	0.012487246
47	0x3d6e1397	0.05812415
48	0xbced2816	-0.028949779
49	0xbcadf3cf	-0.021234421
50	0x3b0843f9	0.0020792468
51	0xbc0715ef	-0.0082449755
52	0x3c546b45	0.012965028
53	0x3cda44d4	0.026644148
54	0x3c076dd4	0.008265931
55	0x3cdb25c8	0.026751414
56	0x3c57bbd5	0.013167341
57	0x3d13641e	0.03598415
58	0xbcc7a1ef	-0.024369208
59	0x3c8ea0c2	0.01741064
60	0xbba39a25	-0.0049927407
61	0xbc11a272	-0.008888828
62	0xbcedb7a0	-0.029018223
63	0xbc1611cc	-0.009159517
64	0xbbdc98ca	-0.006732081
65	0x3c95ec7a	0.018301237
66	0xbad387ca	-0.0016138491
67	0x3c9ec0bd	0.019379014
68	0x3c2aea3d	0.010431823
69	0x3b4c0e39	0.0031136407
70	0xbcb12d2c	-0.021627985
71	0x3a490e3b	0.0007669662
72	0xbd04b847	-0.032402303
73	0xbb80ad1b	-0.003926886
74	0x3c860a6a	0.016362388
75	0x3d6b5a7a	0.057459332
76	0xbc5b9273	-0.013401615
77	0xbb9ece41	-0.0048463647
78	0xbd245138	-0.04011652
79	0x3b30ea66	0.002699518
80	0xbc855590	-0.016276151
81	0x3bd06bfa	0.006360528
82	0x3c85d262	0.01633567
83	0xbcb94a2f	-0.022618381
84	0x3c81aa3a	0.01582824
85	0xbb9da868	-0.0048113354
86	0xbbbfe9a0	-0.0058567077
87	0xbc8e8edd	-0.017402107
88	0x3c4a1e2f	0.012336298
89	0xbccbbc34	-0.024870016
90	0xbcef5cac	-0.029218994
91	0xb9893ede	-0.00026177516
92	0xbbfee831	-0.007779144
93	0xbaad7b02	-0.0013235512
94	0xbc2ed483	-0.010670784
95	0xbce05447	-0.027383937
96	0xbc7015fe	-0.014653681
97	0x3d0517ca	0.03249339
98	0x3c69f786	0.014280206
99	0x3bb2e0c6	0.005458924
100	0x3c0968df	0.00838682
101	0xbccb9fac	-0.02485641
102	0xbc17d25e	-0.009266464
103	0x3aade2f4	0.001326649
104	0x3cd7f945	0.026363978
105	0xbc87d0ba	-0.01657902
106	0x3ac0ef0a	0.0014719677
107	0xba717532	-0.0009210884
108	0x3a814940	0.0009863749
109	0xbb008080	-0.0019607842
110	0xbb96e283	-0.004604639
111	0x3c6f27b1	0.0145968655
112	0xbbf4bdef	-0.007468931
113	0x3c8e6808	0.01738359
114	0xbc8b304b	-0.016990801
115	0xbd0df0a5	-0.034653325
116	0xbc4422fe	-0.011971233
117	0xbc5c8aeb	-0.013460855
118	0xbb69e41c	-0.0035688942
119	0x3c28d7bc	0.010305341
120	0xbbf0de61	-0.0073507284
121	0xbc991448	-0.018686429
122	0x3a50d2ec	0.0007966
123	0xbaf10895	-0.0018389398
124	0x3c051345	0.00812227
125	0xbc5c9bd5	-0.013464888
126	0xbc7ff9c4	-0.015623514
127	0x3cd54d1e	0.026037749
128	0x3d134f97	0.035964575
129	0xbb4cf566	-0.0031274199
130	0xbc10a84f	-0.00882919
131	0xbc0b0e30	-0.008487269
132	0xbbec6b19	-0.0072149155
133	0x3c1ba6bf	0.009500205
134	0xbc5eb603	-0.0135932
135	0xbbe2dc89	-0.0069232625
136	0xbd191773	-0.03737588
137	0x3d013fe2	0.031555064
138	0x3b33e0b1	0.002744716
139	0xbc722419	-0.014779114
140	0xbac08ea6	-0.001469095
141	0xbcef6fb2	-0.029228065
142	0x3ce878e8	0.028377965
143	0x3bb1b868	0.0054235943
144	0xbb871635	-0.0041225203
145	0x3ba24b13	0.004952797
146	0xbcb78e91	-0.022406848
147	0xbc6954ad	-0.01424138
148	0x3ce39fbe	0.027786132
149	0x3cf29132	0.02961025
150	0xbcadcf91	-0.02121714
151	0x3b284756	0.0025677285
152	0xbb5bef00	-0.0033559203
153	0xbcaa3a81	-0.02077985
154	0x3bffa84b	0.0078020445
155	0x3c361d30	0.011115357
156	0x3acf9356	0.0015836756
157	0x3bfe39f3	0.007758373
158	0xbc6258b3	-0.013815093
159	0x3a10de68	0.0005526305
160	0x3bfff79b	0.0078114993
161	0xbb1a2e35	-0.0023526077
162	0x3bbb0318	0.005707156
163	0x3cf33e88	0.029692903
164	0xbc5fbcf1	-0.013655887
165	0xbb3da21a	-0.0028935731
166	0xbcc7cd5b	-0.024389913
167	0xbcecf173	-0.028923726
168	0x3b91dea2	0.0044515887
169	0x3a8dca68	0.0010817768
170	0xbc25ed10	-0.010127321
171	0xbc9ce3a4	-0.019151516
172	0xbc25e00e	-0.01012422
173	0x3c8812c8	0.016610518
174	0x3cb2791e	0.021786269
175	0x3be3d21b	0.0069525368
176	0xbc4a0cf5	-0.012332191
177	0x3ca0ab10	0.019612819
178	0x3d163e30	0.0366804
179	0x3af9f4fd	0.0019070205
180	0x3d011c9d	0.03152143
181	0x3aeae35a	0.0017920539
182	0x3c88913e	0.01667082
183	0xbd578a54	-0.052622154
184	0xbba2b704	-0.004965665
185	0xbc2f1f9b	-0.010688688
186	0x3d1120ab	0.035431545
187	0xbc5f18e2	-0.013616772
188	0x3a0ffff6	0.0005493158
189	0x3ca1dba2	0.01975805
190	0x3ca6d4a5	0.020365069
191	0x3c68c1b8	0.014206342
192	0xbc282575	-0.010262837
193	0xbc16cd77	-0.00920426
194	0x3ba024be	0.0048871925
195	0x3c854018	0.016265914
196	0x3bca0083	0.006164612
197	0xbca5b39b	-0.020227244
198	0x3afa9372	0.0019117428
199	0x3ca89dee	0.02058312
200	0xbbe421ec	-0.0069620516
201	0x3cda0abe	0.02661645
202	0x3cb5138a	0.022104044
203	0x3c8ae306	0.016953956
204	0x3b93c4ef	0.0045095603
205	0x3c52a347	0.012856311
206	0xbbbe226e	-0.005802444
207	0x3c6f98c5	0.014623825
208	0xbc692ff7	-0.014232627
209	0x3b2a689c	0.0026002293
210	0xbc0ef6a6	-0.008725798
211	0x3bb5ca5e	0.0055478057
212	0xba829235	-0.0009961786
213	0x3cffca62	0.031224433
214	0x3c592b04	0.013254885
215	0xbd0d1e7d	-0.034452904
216	0x3c8b5706	0.01700927
217	0xbc606e95	-0.01369824
218	0xbc893cfe	-0.016752716
219	0xbc1e8695	-0.009675642
220	0xbb4b9af5	-0.0031067703
221	0x39a4c615	0.000314281
222	0x3bb80602	0.0056159506
223	0x39b8ac14	0.00035223423
224	0x3cad74cd	0.021173859
225	0x3c61d849	0.013784477
226	0x3c2b8bb4	0.01047032
227	0x3ca5caf3	0.020238375
228	0x3c356053	0.011070329
229	0x3c749698	0.0149284825
230	0xbc52b300	-0.01286006
231	0xbc84ddc5	-0.01621903
232	0x3b234e49	0.0024918488
233	0x3a1475fe	0.0005663334
234	0xba9ba228	-0.0011873888
235	0x3c8c1461	0.017099561
236	0x3c3bed65	0.0114701735
237	0xbbe9acb5	-0.007131184
238	0xbbd5290f	-0.0065051387
239	0x3c8b6c6b	0.017019471
240	0xbce3f79e	-0.027828034
241	0x3c51cb8d	0.012804878
242	0xbd11c3c4	-0.035587087
243	0xbbc1c681	-0.005913556
244	0xbc3f5a04	-0.011679176
245	0xbccdf5ee	-0.025141682
246	0xbd0f3234	-0.034959987
247	0xbcc57461	-0.024103345
248	0x3cfe0c0b	0.031011602
249	0x3b39b622	0.002833732
250	0xbcb6ac33	-0.022298908
251	0x3c2cd5df	0.010549038
252	0x3caf02c7	0.021363629
253	0x39ee6e5c	0.00045477122
254	0xbc82b2f7	-0.015954478
255	0x3bc6365b	0.00604896

action_model._continuous_distribution.mu.bias f4 [2]
0	0xba049aeb	-0.0005058485
1	0x3a36c655	0.0006972303

exp_avg f4 [128, 6]
0	0xb6d844cb	-6.44531e-06
1	0xb643e2e7	-2.918934e-06
2	0x36f41038	7.273655e-06
3	0x37233d14	9.729778e-06
4	0xb6029742	-1.9459553e-06
5	0xb7233d14	-9.729778e-06
6	0x388bcc84	6.6661305e-05
7	0x374e104e	1.2282353e-05
8	0xb87b9c26	-5.9988488e-05
9	0xb82bb83e	-4.0941166e-05
10	0x37096035	8.188236e-06
11	0x382bb83e	4.0941166e-05
12	0xb9d800ee	-0.00041199423
13	0xb8d320e4	-0.000100673904
14	0x39e0d55b	0.00042883572
15	0x39aff0be	0.00033557968
16	0xb88cc09a	-6.711595e-05
17	0xb9aff0be	-0.00033557968
18	0x39912cb6	0.00027689867
19	0x37bcffe0	2.2530498e-05
20	0xb930b7c4	-0.00016853126
21	0xb89d7ffc	-7.510182e-05
22	0x377bffd8	1.5020334e-05
23	0x389d7ffc	7.510182e-05
24	0x369cc79e	4.672401e-06
25	0x35c3d94a	1.4591872e-06
26	0xb5d1cf4c	-1.5632045e-06
27	0xb6a33514	-4.8639577e-06
28	0x358290dd	9.727916e-07
29	0x36a33514	4.8639577e-06
30	0xb9fef96e	-0.00048632495
31	0xb8d27c73	-0.00010036761
32	0x39e3ab50	0.00043424452
33	0x39af67b9	0.0003345588
34	0xb88c52f7	-6.6911736e-05
35	0xb9af67b9	-0.0003345588
36	0x37bd7941	2.2587019e-05
37	0x36694a82	3.4763075e-06
38	0xb714f460	-8.878385e-06
39	0xb74268c6	-1.1587696e-05
40	0x361b870d	2.317541e-06
41	0x374268c6	1.1587696e-05
42	0xb7907435	-1.722025e-05
43	0xb6d4d9f5	-6.343466e-06
44	0x381b3fe6	3.701439e-05
45	0x37b16042	2.1144868e-05
46	0xb68de69e	-4.228975e-06
47	0xb7b16042	-2.1144868e-05
48	0xba1182e6	-0.00055508164
49	0xb917d808	-0.0001448096
50	0x3a10ac97	0.0005518882
51	0x39fd12b9	0.0004826987
52	0xb8ca7562	-9.653975e-05
53	0xb9fd12b9	-0.0004826987
54	0x38ef57f0	0.00011412788
55	0x37eb5a68	2.8056282e-05
56	0xb91ab484	-0.00014753832
57	0xb8c420aa	-9.3520925e-05
58	0x379ce6ed	1.8704182e-05
59	0x38c420aa	9.3520925e-05
60	0x3643d5c4	2.9181692e-06
61	0x34ee9cda	4.444508e-07
62	0xb59a7412	-1.1507675e-06
63	0xb5c6d809	-1.4815024e-06
64	0x349f133f	2.963006e-07
65	0x35c6d809	1.4815024e-06
66	0xba981c26	-0.0011605069
67	0xb98150e7	-0.00024665074
68	0x3a9302f3	0.0011216089
69	0x3a5786d6	0.0008221691
70	0xb92c6be0	-0.00016443385
71	0xba5786d6	-0.0008221691
72	0xb6953232	-4.4463895e-06
73	0xb59aec1f	-1.1542614e-06
74	0x36a6bdda	4.969287e-06
75	0x36811a1a	3.847538e-06
76	0xb54e902a	-7.6950766e-07
77	0xb6811a1a	-3.847538e-06
78	0x371deb9d	9.412787e-06
79	0x3632e480	2.6657071e-06
80	0xb67e1988	-3.786381e-06
81	0xb71513bf	-8.88569e-06
82	0x35ee85ff	1.777138e-06
83	0x371513bf	8.88569e-06
84	0x361dc747	2.3510818e-06
85	0x3521dee9	6.030155e-07
86	0xb60eed4b	-2.1297772e-06
87	0xb606e46d	-2.0100517e-06
88	0x34d7d3e4	4.0201041e-07
89	0x3606e46d	2.0100517e-06
90	0xb84e0af7	-4.912444e-05
91	0xb77b5391	-1.4980223e-05
92	0x384f3bd1	4.9408354e-05
93	0x38517051	4.9934086e-05
94	0xb7278d0f	-9.986818e-06
95	0xb8517051	-4.9934086e-05
96	0xb51216b9	-5.4422304e-07
97	0xb4013570	-1.2033502e-07
98	0x35c00718	1.4307179e-06
99	0x34d75906	4.0111644e-07
100	0xb3ac4736	-8.022327e-08
101	0xb4d75906	-4.0111644e-07
102	0x39ff17e6	0.00048655196
103	0x391b4246	0.0001480664
104	0xba210636	-0.0006142588
105	0xba0161ea	-0.000493555
106	0x38cf030c	9.871097e-05
107	0x3a0161ea	0.000493555
108	0x380e18f3	3.3878674e-05
109	0x36a829eb	5.01167e-06
110	0xb88358c4	-6.263101e-05
111	0xb78c22f1	-1.6705571e-05
112	0x366037cf	3.3411086e-06
113	0x378c22f1	1.6705571e-05
114	0xb9b7bba1	-0.00035044274
115	0xb8bda1aa	-9.0423346e-05
116	0x39ddb9cb	0.0004229083
117	0x399e06b8	0.00030141114
118	0xb87cd78c	-6.0282226e-05
119	0xb99e06b8	-0.00030141114
120	0xb6783c4e	-3.6989982e-06
121	0xb5a5821b	-1.2331324e-06
122	0x3699c402	4.5825736e-06
123	0x3689ec6c	4.1104413e-06
124	0xb55cad7c	-8.220884e-07
125	0xb689ec6c	-4.1104413e-06
126	0xba87a813	-0.0010349773
127	0xb947defe	-0.0001906119
128	0x3a6fe123	0.00091506745
129	0x3a268f27	0.0006353729
130	0xb9053f57	-0.00012707464
131	0xba268f27	-0.0006353729
132	0x3a359ce5	0.0006927981
133	0x3925de34	0.00015818403
134	0xba357348	-0.00069217803
135	0xba0a392c	-0.00052728015
136	0x38dd2848	0.00010545604
137	0x3a0a392c	0.00052728015
138	0x36dd54d4	6.5961885e-06
139	0x36050093	1.9818879e-06
140	0xb6e87a30	-6.9283633e-06
141	0xb6ddab9d	-6.6062917e-06
142	0x35b15619	1.3212585e-06
143	0x36ddab9d	6.6062917e-06
144	0x38730e6d	5.794915e-05
145	0x37733602	1.4496503e-05
146	0xb8938449	-7.034146e-05
147	0xb84aad00	-4.832167e-05
148	0x37222400	9.664334e-06
149	0x384aad00	4.832167e-05
150	0xb95e15c2	-0.00021179675
151	0xb86b0cce	-5.604029e-05
152	0x3941cb64	0.00018481683
153	0x3943e002	0.00018680099
154	0xb81cb336	-3.73602e-05
155	0xb943e002	-0.00018680099
156	0x3997b39c	0.00028934784
157	0x38a3b604	7.806349e-05
158	0xb98f8d9b	-0.0002738059
159	0xb9886d06	-0.0002602117
160	0x385a4809	5.204234e-05
161	0x39886d06	0.0002602117
162	0x37f91f69	2.969774e-05
163	0x36e3e9ae	6.792331e-06
164	0xb7f3f4ab	-2.908179e-05
165	0xb7bded66	-2.2641103e-05
166	0x3697f11f	4.528221e-06
167	0x37bded66	2.2641103e-05
168	0x3688fbe0	4.082438e-06
169	0x356fa025	8.926748e-07
170	0xb6a02115	-4.772223e-06
171	0xb647b01e	-2.9755824e-06
172	0x351fc019	5.9511655e-07
173	0x3647b01e	2.9755824e-06
174	0x3a92ce49	0.0011200394
175	0x39655be2	0.00021873371
176	0xba80f99f	-0.0009840018
177	0xba3f21e5	-0.00072911225
178	0x3918e7ec	0.00014582247
179	0x3a3f21e5	0.00072911225
180	0xb7b16847	-2.1148602e-05
181	0xb69d943d	-4.696222e-06
182	0x37c5fc39	2.360168e-05
183	0x378350dd	1.5654072e-05
184	0xb6521afc	-3.1308145e-06
185	0xb78350dd	-1.5654072e-05
186	0xb8ebc51c	-0.00011242388
187	0xb81e6a22	-3.776898e-05
188	0x398cf3a0	0.00026884396
189	0x39040326	0.00012589674
190	0xb7d33850	-2.5179383e-05
191	0xb9040326	-0.00012589674
192	0x38eb8efd	0.00011232307
193	0x382c8f10	4.1141233e-05
194	0xb9092354	-0.00013078499
195	0xb90fcc8b	-0.00013713741
196	0x37e61414	2.7427486e-05
197	0x390fcc8b	0.00013713741
198	0x38423f11	4.631194e-05
199	0x36b2a6ea	5.3242447e-06
200	0xb88525ca	-6.348973e-05
201	0xb794e04e	-1.7747425e-05
202	0x366e33c0	3.5494886e-06
203	0x3794e04e	1.7747425e-05
204	0xbaa5132d	-0.0012594216
205	0xb98d50ea	-0.000269539
206	0x3a9e782a	0.0012090255
207	0x3a6b86dc	0.0008984634
208	0xb93c6be1	-0.00017969265
209	0xba6b86dc	-0.0008984634
210	0x3a06131c	0.0005114542
211	0x38d74608	0.00010265043
212	0xba0c4205	-0.0005350414
213	0xb9b36509	-0.00034216818
214	0x388f8409	6.843365e-05
215	0x39b36509	0.00034216818
216	0x3aee0ad8	0.0018161191
217	0x39d22e60	0.00040088873
218	0xbae9cb56	-0.0017837088
219	0xbaaf26a6	-0.0013362959
220	0x398c1eeb	0.00026725917
221	0x3aaf26a6	0.0013362959
222	0x340e2fb6	1.3242138e-07
223	0x3353354f	4.917575e-08
224	0xb40be48e	-1.3028531e-07
225	0xb43001c2	-1.6391917e-07
226	0x330cce35	3.2783834e-08
227	0x343001c2	1.6391917e-07
228	0xb9adfe7c	-0.00033186737
229	0xb7f7a780	-2.9522693e-05
230	0x38f6caf8	0.00011768
231	0x38ce60e8	9.840896e-05
232	0xb7a51a50	-1.9681785e-05
233	0xb8ce60e8	-9.840896e-05
234	0xb77ca7b4	-1.5059417e-05
235	0xb69dd94b	-4.704261e-06
236	0x379347b2	1.7557151e-05
237	0x37838a6a	1.5680871e-05
238	0xb652770e	-3.1361737e-06
239	0xb7838a6a	-1.5680871e-05
240	0xb59433c4	-1.1041925e-06
241	0xb52c3eb4	-6.416624e-07
242	0x36ac3251	5.131857e-06
243	0x360f898a	2.1388719e-06
244	0xb4e5a8d2	-4.2777407e-07
245	0xb60f898a	-2.1388719e-06
246	0xba8a8b62	-0.0010570104
247	0xb97d0ae2	-0.00024132014
248	0x3a893c53	0.0010470249
249	0x3a52de66	0.0008044004
250	0xb928b1ec	-0.0001608801
251	0xba52de66	-0.0008044004
252	0xb715c17e	-8.926143e-06
253	0xb6975d5b	-4.5110187e-06
254	0xb79b766d	-1.8532586e-05
255	0x377c464c	1.5036738e-05

exp_avg_sq f4 [128, 6]
0	0x2f97e744	2.7631064e-10
1	0x2d96e4fd	1.7154717e-11
2	0x2fa5b6e9	3.014329e-10
3	0x2f519360	1.9060797e-10
4	0x2d0620e1	7.624319e-12
5	0x2f519360	1.9060797e-10
6	0x328654e0	1.563825e-08
7	0x3042ac81	7.082193e-10
8	0x32573d9d	1.2528656e-08
9	0x320730ad	7.869102e-09
10	0x2fad0b1b	3.1476408e-10
11	0x320730ad	7.869102e-09
12	0x359b271f	1.1559786e-06
13	0x33560fc1	4.9840086e-08
14	0x35452fff	7.345806e-07
15	0x3514a761	5.5377865e-07
16	0x32be46e2	2.2151145e-08
17	0x3514a761	5.5377865e-07
18	0x36b87740	5.49751e-06
19	0x3484d4a9	2.4741647e-07
20	0x3688470c	4.061387e-06
21	0x36387cae	2.749071e-06
22	0x33ec24be	1.099629e-07
23	0x36387cae	2.749071e-06
24	0x2d377567	1.0428414e-11
25	0x2b3c7562	6.695392e-13
26	0x2c892da2	3.8988405e-12
27	0x2d02dfbf	7.439326e-12
28	0x2aa784cc	2.9757306e-13
29	0x2d02dfbf	7.439326e-12
30	0x354828e9	7.456534e-07
31	0x330f17b3	3.3316336e-08
32	0x35145e18	5.527122e-07
33	0x34c6bd5a	3.7018145e-07
34	0x327e630a	1.4807265e-08
35	0x34c6bd5a	3.7018145e-07
36	0x318bac81	4.065044e-09
37	0x2f504639	1.8942438e-10
38	0x311097a7	2.1040962e-09
39	0x3110a289	2.1047148e-09
40	0x2eb921f9	8.418861e-11
41	0x3110a289	2.1047148e-09
42	0x3241ff67	1.129215e-08
43	0x30033255	4.772905e-10
44	0x32055d6a	7.762859e-09
45	0x31b637ae	5.303227e-09
46	0x2f693d0a	2.1212912e-10
47	0x31b637ae	5.303227e-09
48	0x36163360	2.2381646e-06
49	0x33d55459	9.933928e-08
50	0x35e67157	1.7169322e-06
51	0x3594253a	1.1037694e-06
52	0x333da04e	4.4150788e-08
53	0x3594253a	1.1037694e-06
54	0x33a97326	7.890621e-08
55	0x31589779	3.151824e-09
56	0x339e0318	7.358011e-08
57	0x3316692f	3.502026e-08
58	0x30c086a2	1.4008104e-09
59	0x3316692f	3.502026e-08
60	0x2efee276	1.159081e-10
61	0x2cc205b6	5.5144457e-12
62	0x2eae01df	7.912936e-11
63	0x2e86bcdb	6.127162e-11
64	0x2c2c76d9	2.4508644e-12
65	0x2e86bcdb	6.127162e-11
66	0x353e39ca	7.086461e-07
67	0x32ff78a8	2.9740775e-08
68	0x34f5bb73	4.5771193e-07
69	0x34b16918	3.3045285e-07
70	0x326315e6	1.3218118e-08
71	0x34b16918	3.3045285e-07
72	0x2d3227f4	1.0127e-11
73	0x2b48958c	7.126181e-13
74	0x2d68de10	1.3236981e-11
75	0x2d0b4b70	7.917986e-12
76	0x2ab24c0c	3.167192e-13
77	0x2d0b4b70	7.917986e-12
78	0x2e0cad2b	3.198612e-11
79	0x2bfad90f	1.7823814e-12
80	0x2d02f24f	7.443448e-12
81	0x2dae3330	1.9804242e-11
82	0x2b5ef9d7	7.9216966e-13
83	0x2dae3330	1.9804242e-11
84	0x2d3740b8	1.0416716e-11
85	0x2b09674a	4.881552e-13
86	0x2c977f63	4.305821e-12
87	0x2cbed693	5.4239473e-12
88	0x2a7445db	2.169579e-13
89	0x2cbed693	5.4239473e-12
90	0x31e0332c	6.5250756e-09
91	0x2fba0842	3.383907e-10
92	0x31b55cda	5.2783493e-09
93	0x31813066	3.7598964e-09
94	0x2f255cad	1.5039588e-10
95	0x31813066	3.7598964e-09
96	0x2cac64fd	4.899746e-12
97	0x2ac0d1f3	3.4251733e-13
98	0x2ce6132d	6.539122e-12
99	0x2c85e71d	3.805746e-12
100	0x2a2b6543	1.5222983e-13
101	0x2c85e71d	3.805746e-12
102	0x37434c44	1.1640663e-05
103	0x350b3b83	5.1868136e-07
104	0x37050a19	7.929769e-06
105	0x36c160de	5.763125e-06
106	0x3477863c	2.3052502e-07
107	0x36c160de	5.763125e-06
108	0x33cd6e42	9.566112e-08
109	0x316f7c38	3.4849688e-09
110	0x333b80fa	4.3656634e-08
111	0x33264f29	3.8721883e-08
112	0x30d4e02e	1.5488746e-09
113	0x33264f29	3.8721883e-08
114	0x34258f3a	1.5418928e-07
115	0x31f531a4	7.136082e-09
116	0x33a5fbda	7.729223e-08
117	0x33aa460b	7.9289826e-08
118	0x3159f33e	3.1715923e-09
119	0x33aa460b	7.9289826e-08
120	0x2ec4d054	8.9500546e-11
121	0x2cbec623	5.4221224e-12
122	0x2ebd0b62	8.596747e-11
123	0x2e847b61	6.0245815e-11
124	0x2c2993ad	2.409832e-12
125	0x2e847b61	6.0245815e-11
126	0x362c028d	2.5631482e-06
127	0x33fe5148	1.1842582e-07
128	0x3605ba57	1.9927008e-06
129	0x35b09c05	1.315843e-06
130	0x33620f60	5.263371e-08
131	0x35b09c05	1.315843e-06
132	0x3607f866	2.0261155e-06
133	0x33bdd73b	8.8401485e-08
134	0x35acbf8f	1.287075e-06
135	0x3583d576	9.822386e-07
136	0x3328bf4c	3.928953e-08
137	0x3583d576	9.822386e-07
138	0x2e6f48c8	5.440695e-11
139	0x2c6f39b9	3.3995985e-12
140	0x2e09f5a2	3.136836e-11
141	0x2e2620fb	3.7773323e-11
142	0x2bd4a512	1.5109322e-12
143	0x2e2620fb	3.7773323e-11
144	0x32155d43	8.694147e-09
145	0x2fd09ae9	3.794505e-10
146	0x31b5f424	5.295549e-09
147	0x3190dd5d	4.2161177e-09
148	0x2f396d41	1.6864467e-10
149	0x3190dd5d	4.2161177e-09
150	0x33645ef2	5.317174e-08
151	0x311328a6	2.1414421e-09
152	0x3347ed4e	4.6549125e-08
153	0x32cc631a	2.3793792e-08
154	0x3082cec9	9.517517e-10
155	0x32cc631a	2.3793792e-08
156	0x350238e8	4.8511583e-07
157	0x32d56cc7	2.484593e-08
158	0x34f82ada	4.6224778e-07
159	0x34943632	2.760658e-07
160	0x323db602	1.1042632e-08
161	0x34943632	2.760658e-07
162	0x2f994d14	2.7885305e-10
163	0x2d69eeb4	1.3297519e-11
164	0x2fa04c81	2.915819e-10
165	0x2f2273fb	1.4775019e-10
166	0x2ccff09e	5.9100077e-12
167	0x2f2273fb	1.4775019e-10
168	0x2d9a057c	1.7510209e-11
169	0x2b9f79bf	1.1331421e-12
170	0x2de766d9	2.6307333e-11
171	0x2d5d7e6c	1.2590467e-11
172	0x2b0dc18d	5.036187e-13
173	0x2d5d7e6c	1.2590467e-11
174	0x366c3a22	3.5200578e-06
175	0x341fc184	1.487843e-07
176	0x36288cc1	2.511588e-06
177	0x35dde218	1.6531585e-06
178	0x338e015a	6.612636e-08
179	0x35dde218	1.6531585e-06
180	0x2edfeb16	1.01826256e-10
181	0x2cc272f3	5.5265736e-12
182	0x2f179757	1.3787137e-10
183	0x2e8708b7	6.140637e-11
184	0x2c2cd7f1	2.4562542e-12
185	0x2e8708b7	6.140637e-11
186	0x360415fc	1.968233e-06
187	0x33b72a46	8.529291e-08
188	0x35999f42	1.1445738e-06
189	0x357e6563	9.476991e-07
190	0x3322d03f	3.7907963e-08
191	0x357e6563	9.476991e-07
192	0x32fa19a2	2.9115487e-08
193	0x30d91bf4	1.5796773e-09
194	0x3273c630	1.4189524e-08
195	0x3296c52f	1.7551967e-08
196	0x3040fc65	7.020787e-10
197	0x3296c52f	1.7551967e-08
198	0x32c6f344	2.3160858e-08
199	0x307b200c	9.135881e-10
200	0x324d18c0	1.1938198e-08
201	0x322e6478	1.0150977e-08
202	0x2fdf38ed	4.0603912e-10
203	0x322e6478	1.0150977e-08
204	0x35cc1d8e	1.5207786e-06
205	0x3387118b	6.2896184e-08
206	0x35691588	8.6830596e-07
207	0x353b985c	6.988464e-07
208	0x32f01f31	2.7953861e-08
209	0x353b985c	6.988464e-07
210	0x345329b7	1.9666082e-07
211	0x32327ace	1.0388886e-08
212	0x347a0cc1	2.3287704e-07
213	0x33f7e375	1.1543208e-07
214	0x319ea60e	4.6172834e-09
215	0x33f7e375	1.1543208e-07
216	0x360f4851	2.1350754e-06
217	0x33c685d9	9.24444e-08
218	0x35a1f170	1.2065702e-06
219	0x3589dcf7	1.0271605e-06
220	0x333076fd	4.1086412e-08
221	0x3589dcf7	1.0271605e-06
222	0x2a00771d	1.141001e-13
223	0x28893346	1.5232292e-14
224	0x2ad6c763	3.815239e-13
225	0x2a3e8e4c	1.6924759e-13
226	0x27f3e963	6.7699087e-15
227	0x2a3e8e4c	1.6924759e-13
228	0x3703229d	7.8162675e-06
229	0x34b28cc2	3.3257498e-07
230	0x36adc999	5.179271e-06
231	0x3677fc66	3.6952783e-06
232	0x341eb601	1.478111e-07
233	0x3677fc66	3.6952783e-06
234	0x30017f4b	4.711082e-10
235	0x2df7720a	2.8131292e-11
236	0x30003577	4.6642107e-10
237	0x2fabd64f	3.1256994e-10
238	0x2d5bf39a	1.2502799e-11
239	0x2fabd64f	3.1256994e-10
240	0x3001c340	4.7207394e-10
241	0x2dd50d3a	2.422117e-11
242	0x2fb289b2	3.247585e-10
243	0x2f93f3da	2.691241e-10
244	0x2d3d611c	1.0764969e-11
245	0x2f93f3da	2.691241e-10
246	0x3551a444	7.8097605e-07
247	0x33154f1a	3.476371e-08
248	0x34f60533	4.5824854e-07
249	0x34cf5fa4	3.8626342e-07
250	0x3284b815	1.5450533e-08
251	0x34cf5fa4	3.8626342e-07
252	0x3263881d	1.3244088e-08
253	0x30633355	8.2655066e-10
254	0x32bbda5e	2.1868967e-08
255	0x321dc732	9.1838945e-09

exp_avg f4 [128]
0	0xb6029744	-1.9459558e-06
1	0x37096036	8.188237e-06
2	0xb88cc09a	-6.711595e-05
3	0x377bffe8	1.5020349e-05
4	0x358290dd	9.727916e-07
5	0xb88c52f7	-6.6911736e-05
6	0x361b86fe	2.3175376e-06
7	0xb68de6a3	-4.228977e-06
8	0xb8ca755f	-9.653973e-05
9	0x379ce6ee	1.8704184e-05
10	0x349f1338	2.963004e-07
11	0xb92c6be0	-0.00016443385
12	0xb54e9028	-7.6950755e-07
13	0x35ee8600	1.7771381e-06
14	0x34d7d3e4	4.0201041e-07
15	0xb7278d0e	-9.9868175e-06
16	0xb3ac4736	-8.022327e-08
17	0x38cf030e	9.871098e-05
18	0x366037dc	3.3411116e-06
19	0xb87cd78c	-6.0282226e-05
20	0xb55cad7c	-8.220884e-07
21	0xb9053f55	-0.00012707461
22	0x38dd2846	0.00010545603
23	0x35b15619	1.3212585e-06
24	0x37222402	9.664336e-06
25	0xb81cb336	-3.73602e-05
26	0x385a4806	5.2042327e-05
27	0x3697f11e	4.5282204e-06
28	0x351fc018	5.951165e-07
29	0x3918e7ed	0.00014582249
30	0xb6521afc	-3.1308145e-06
31	0xb7d33846	-2.5179364e-05
32	0x37e61413	2.7427484e-05
33	0x366e33b6	3.5494863e-06
34	0xb93c6be2	-0.00017969267
35	0x388f8408	6.843364e-05
36	0x398c1eea	0.00026725914
37	0x330cce34	3.278383e-08
38	0xb7a51a60	-1.9681815e-05
39	0xb652770f	-3.136174e-06
40	0xb4e5a8f0	-4.2777492e-07
41	0xb928b1ee	-0.00016088012
42	0xb649d1cc	-3.0073452e-06
43	0xb71b23f9	-9.2470955e-06
44	0xb690471d	-4.299813e-06
45	0x37505afa	1.2418948e-05
46	0xb7a5b2ee	-1.9752853e-05
47	0x341e89b7	1.4764997e-07
48	0xb8febf12	-0.000121472534
49	0x3709df0e	8.21777e-06
50	0x394153b6	0.00018437099
51	0xb73b1338	-1.1150543e-05
52	0xb8218140	-3.8505765e-05
53	0xb8ee658a	-0.000113676375
54	0x3545e490	7.372082e-07
55	0xb98f540e	-0.0002733771
56	0xb8f8bf68	-0.00011861214
57	0x35c8faf4	1.4974198e-06
58	0x38740fb3	5.8188754e-05
59	0x39353be6	0.00017283819
60	0x363e4040	2.8349605e-06
61	0x3625fe78	2.4735036e-06
62	0x389fc3e7	7.6182005e-05
63	0xb60764a8	-2.0175157e-06
64	0x39279c5a	0.00015984607
65	0xb6c77c6f	-5.945148e-06
66	0xb5a1a820	-1.2044366e-06
67	0x391e6f67	0.00015109555
68	0xb625f67e	-2.4730393e-06
69	0xb757d551	-1.2864665e-05
70	0xb9158868	-0.00014260563
71	0xb8af1716	-8.34895e-05
72	0x385d99b7	5.2833664e-05
73	0xb486ec05	-2.5131172e-07
74	0x37f40930	2.9091345e-05
75	0xb69b9a64	-4.6373334e-06
76	0x36719866	3.6000506e-06
77	0xb807129e	-3.2203847e-05
78	0x36f6c2bd	7.354042e-06
79	0x39234ea5	0.00015574189
80	0xb617e18b	-2.2632037e-06
81	0x3890efeb	6.911143e-05
82	0xb7dcfea7	-2.6344625e-05
83	0xb9520ee2	-0.00020032705
84	0x3885712c	6.363014e-05
85	0xb6c342e0	-5.819238e-06
86	0xb8c12544	-9.2098984e-05
87	0x38401aff	4.580151e-05
88	0xb56b5500	-8.7668013e-07
89	0x38d872f5	0.00010321095
90	0x36903073	4.2971747e-06
91	0x3708c882	8.152916e-06
92	0x383877c5	4.3980563e-05
93	0xb8544653	-5.0610233e-05
94	0x34ec4e56	4.4015422e-07
95	0x37236eac	9.741325e-06
96	0x38ea284e	0.00011165497
97	0xb787396d	-1.6119995e-05
98	0xb9310ffb	-0.00016885989
99	0xb926dbf7	-0.00015912937
100	0x38e07298	0.00010702497
101	0x369cca4d	4.672713e-06
102	0x309f6c00	1.1599468e-09
103	0x38126f6f	3.4912893e-05
104	0x384025b7	4.5811492e-05
105	0x357a6c80	9.3290146e-07
106	0x37d8eb16	2.5858677e-05
107	0xb8b8833e	-8.7982495e-05
108	0xb6e57b51	-6.8390877e-06
109	0x38e3c42f	0.000108607455
110	0x385b03aa	5.221708e-05
111	0x3855132d	5.0801016e-05
112	0xb816d1fb	-3.5958346e-05
113	0x37a02356	1.908994e-05
114	0xb571be9b	-9.0056864e-07
115	0xb6181868	-2.2663971e-06
116	0xb92e34d4	-0.00016613613
117	0x36952596	4.4449216e-06
118	0x38aacb38	8.144084e-05
119	0xb6650e47	-3.413197e-06
120	0x36773032	3.6833922e-06
121	0xb7923f4b	-1.743403e-05
122	0x3903f5b3	0.00012584664
123	0xb752761e	-1.2544477e-05
124	0xb50051c0	-4.780268e-07
125	0x37aaa884	2.034405e-05
126	0x388de76a	6.766508e-05
127	0x38c02ffd	9.164212e-05

exp_avg_sq f4 [128]
0	0x2d0620df	7.624317e-12
1	0x2fad0b1b	3.1476408e-10
2	0x32be46e1	2.2151143e-08
3	0x33ec24be	1.099629e-07
4	0x2aa784cc	2.9757306e-13
5	0x327e630b	1.4807266e-08
6	0x2eb921f9	8.418861e-11
7	0x2f693d0c	2.1212915e-10
8	0x333da04d	4.4150784e-08
9	0x30c086a2	1.4008104e-09
10	0x2c2c76d9	2.4508644e-12
11	0x326315e7	1.3218119e-08
12	0x2ab24c0c	3.167192e-13
13	0x2b5ef9d6	7.921696e-13
14	0x2a7445da	2.1695788e-13
15	0x2f255cad	1.5039588e-10
16	0x2a2b6544	1.5222985e-13
17	0x3477863b	2.30525e-07
18	0x30d4e031	1.5488749e-09
19	0x3159f33f	3.1715925e-09
20	0x2c2993ad	2.409832e-12
21	0x33620f61	5.2633712e-08
22	0x3328bf4c	3.928953e-08
23	0x2bd4a512	1.5109322e-12
24	0x2f396d3f	1.6864464e-10
25	0x3082cec9	9.517517e-10
26	0x323db601	1.1042631e-08
27	0x2ccff09e	5.9100077e-12
28	0x2b0dc18c	5.0361863e-13
29	0x338e015a	6.612636e-08
30	0x2c2cd7f2	2.4562544e-12
31	0x3322d03f	3.7907963e-08
32	0x3040fc64	7.020786e-10
33	0x2fdf38ee	4.0603915e-10
34	0x32f01f31	2.7953861e-08
35	0x319ea60b	4.617282e-09
36	0x333076fb	4.1086405e-08
37	0x27f3e962	6.7699083e-15
38	0x341eb600	1.4781108e-07
39	0x2d5bf399	1.2502798e-11
40	0x2d3d611b	1.0764968e-11
41	0x3284b817	1.5450537e-08
42	0x2fc9f4bc	3.673558e-10
43	0x2eb1e390	8.089451e-11
44	0x2d7b643a	1.4289953e-11
45	0x2f6a0d99	2.1287007e-10
46	0x30357896	6.601878e-10
47	0x29c57ee6	8.770571e-14
48	0x341da04b	1.4680079e-07
49	0x2e7d1582	5.7544643e-11
50	0x327d95a9	1.4760567e-08
51	0x2e820f7b	5.9144654e-11
52	0x309723f7	1.0996918e-09
53	0x315688fd	3.1218967e-09
54	0x2ecc48c5	9.2897724e-11
55	0x32cabeaa	2.3602599e-08
56	0x3208e4a2	7.968227e-09
57	0x2fba857f	3.3928058e-10
58	0x31bcfe49	5.500429e-09
59	0x32cd02f7	2.386649e-08
60	0x2ff63423	4.4784185e-10
61	0x2f2443e5	1.4939834e-10
62	0x32fe2203	2.9584958e-08
63	0x2e338b50	4.0823622e-11
64	0x31e73ab9	6.729661e-09
65	0x2dbecab9	2.1690526e-11
66	0x2d9fc53c	1.8163797e-11
67	0x330dc1d9	3.3005424e-08
68	0x2e81cf17	5.9030274e-11
69	0x2f90d20f	2.6342703e-10
70	0x3222e589	9.481831e-09
71	0x34077cb3	1.261822e-07
72	0x31da2e9b	6.3499335e-09
73	0x2ae94350	4.1435822e-13
74	0x33e43676	1.0626984e-07
75	0x2e088b6e	3.104666e-11
76	0x2e5b315f	4.9838685e-11
77	0x32d5ce83	2.4890374e-08
78	0x2e75927a	5.5836648e-11
79	0x3281145b	1.5026833e-08
80	0x30004b5a	4.667321e-10
81	0x325d5ba3	1.2884729e-08
82	0x312a4a3c	2.4780453e-09
83	0x32c6e181	2.3152781e-08
84	0x3224563d	9.565665e-09
85	0x2fc1157b	3.5121758e-10
86	0x3267fd30	1.3503538e-08
87	0x30456d26	7.182329e-10
88	0x2ed65511	9.746704e-11
89	0x319c9a62	4.557749e-09
90	0x2e6f5f55	5.442698e-11
91	0x320127e4	7.517858e-09
92	0x3300d169	2.999278e-08
93	0x33a1a2a1	7.526729e-08
94	0x2d37acfa	1.0440754e-11
95	0x2e4c0336	4.638708e-11
96	0x33c9a167	9.389151e-08
97	0x32a3c8c5	1.9066997e-08
98	0x32b385ba	2.0899154e-08
99	0x32c86b56	2.3331875e-08
100	0x33db4ee5	1.0212333e-07
101	0x2d1f3615	9.050112e-12
102	0x29a2240b	7.2004977e-14
103	0x31e74578	6.7308825e-09
104	0x33b97cbf	8.637425e-08
105	0x33522fc1	4.8937867e-08
106	0x3081616b	9.413673e-10
107	0x3436bf45	1.7019654e-07
108	0x2fa2c601	2.9608319e-10
109	0x31d20712	6.112608e-09
110	0x31c4e18e	5.7299934e-09
111	0x30fb9f88	1.8307995e-09
112	0x326d96fa	1.3829544e-08
113	0x31c3b6b1	5.6960165e-09
114	0x2e436587	4.442804e-11
115	0x2c07569e	1.9232736e-12
116	0x32939797	1.7181987e-08
117	0x2eae92b3	7.938663e-11
118	0x327278a4	1.4113684e-08
119	0x2e80a0d4	5.849335e-11
120	0x2ea48724	7.4818624e-11
121	0x32a0e745	1.873162e-08
122	0x3376b358	5.743945e-08
123	0x3239ba53	1.08107825e-08
124	0x2f9e6c0c	2.8816804e-10
125	0x31dbff45	6.4027597e-09
126	0x3139dcfe	2.7046663e-09
127	0x312e7281	2.538542e-09
