results/1004/Agent Behavior.onnx (onnx, 75061 bytes, 7 tensors)

network_body._body_endoder.seq_layers.0.weight f4 [128, 6]
00000000: f63b d3bd d1de 21be 817c 45bf 4f74 acbc
00000010: c9dc 7dbe 4a72 793e e55a 803e 742d 823f
00000020: a68f 1bbe c87d d8be 27fa 37bf 78f8 e03b
00000030: 5e83 9f3b 02cf 42bd 1f5d 8c3e 001e 963d
00000040: 7324 63bf dcf5 e43e be73 2f3e 1995 68be
00000050: fc90 50bd 1ae5 8cbe 37d7 1d3c 9419 23be
00000060: c507 e13e eac5 e13d 2c1c 46be 27e5 993d
00000070: b598 163e 6c46 e63b a93e c5be 02f6 f8be
00000080: 9fa4 533e 01a3 6a3e d10b 133f 07e4 b13e
00000090: 295c 69bf 1aa6 19bf eb5a aabe fe4e f33d
000000a0: 9c84 9fbe 6c99 193f 7846 f6bd 0dac bdbe
000000b0: fabf d73e 7fd8 2b3f 9d9b 80be 2668 6ebf
000000c0: 1553 5c3d 4524 16bf 1fdb ab3e f9a2 d4be
000000d0: 17b3 3fbe c6de 94be 9229 ebbd 1d9e 993d
000000e0: 190b e2bd 1f5f 66bb 15a5 d7be a935 ae3d
000000f0: 48b0 193e 606d ee3d a12f 1e3f dfa4 623e
00000100: d303 58bc 6b90 403f b08b 3c3f 7dbf 823e
00000110: cc01 7c3e 40b8 5ebe 3bb2 cd3e 3329 3cbf
00000120: da89 a43e cd12 6a3e fa84 febd b4f7 3e3e
00000130: dfc5 103d 85c0 45be d138 e0be 57ca 65be
00000140: c95e d53e bc00 1cbd eba0 ee3c abe2 86b7
00000150: 59c2 043e eea7 79be 58dc 2bbe 655c 163e
00000160: 5819 0cbe 78b1 89bd e54f 023e f0f0 1dbf
00000170: 5e6e dbbe a7b6 9dbe f180 6e3e df61 4fbd
00000180: 67d6 203e 8f24 1bbc d943 c8be 06f2 eebe
00000190: ce03 97be 68e9 a3bd 68a6 2b3e 2cdf a9bd
000001a0: 0750 00be 3909 a93f 07ea 46be 5b22 303e
000001b0: 587a 10bf 1198 e93e 38ed 4ebf 94c2 10bc
000001c0: fe14 0dbe f50a f2be 66c2 a23e 0a34 26be
000001d0: 0754 d3be dfc3 9cbe c9e1 673e b7a3 febe
000001e0: f16a 8a3e 1cf9 933d 9b6d 043e 2b52 333e
000001f0: 3568 10bf 87d5 1fbe 0630 f6be bbad e4be
00000200: 1e0e b9be 897d d43e 7ec0 debe cd7f 0f3d
00000210: 9b70 9e3d 9ee2 4e3d 7631 093e e1ce 9c3e
00000220: cc11 93be 4e56 f43e fc5b 6ebd e58c b4be
00000230: f60d 083e e4ef fe3e 0532 073e 7e1f 953e
00000240: 8af7 1b3f c854 fa3e b401 2d3d 56a9 84bd
00000250: 9b3f a13e 7242 9bbe 1f00 573e dce0 793f
00000260: caca b73e 1d8f 003f ae36 85bd 8b39 a63e
00000270: 7a56 d6be d0ed 213e a2bc f6be c466 9b3e
00000280: 3767 cfbe b54e ccbe 4954 593e 7404 a6bd
00000290: bba3 f43e 59c6 0a3f d063 c13e f5a0 583e
000002a0: 4c62 f1bd 66eb 4a3e b79f a7be 9d28 fabe
000002b0: ed4e b53e 1cdf c83d 4451 e63c ddf8 113e
000002c0: e80b 473f 46fe 0e3f 0e5f c9be b310 e53d
000002d0: cec7 223f 2e87 f53c dba5 e9be 5590 5fb9
000002e0: 9219 a4bc f1f1 be3d f059 153f 66fa c5be
000002f0: 6241 16be ffc9 f83d 327b e73e 0b7f 4ebc
00000300: 5719 4abd 4b60 593f c93c f5be 0c06 54be
00000310: a4ea cf3e 7515 313f 0d0d 033f 9ce8 a4bd
00000320: d9df 1abf c743 053f f365 9bbe 8a12 32be
00000330: 9ebc 09bf 6d7f 40be aa35 c53f 56b7 e0be
00000340: 5058 073f 5859 1d3f f026 e73e ce67 d6bd
00000350: f1be 49be 6725 f13e 9512 06bf b56f 393d
00000360: 6af3 763f 72dc 123e 98df 9bbe 7126 86be
00000370: 3c33 d0be e41a 13bf 29fb 573b 9966 043f
00000380: afd0 d33e 70c1 9bbe db01 103c 6e60 52be
00000390: fcbf 9a3d 737d 063e d7ee b2be dbae 023f
000003a0: 66bb a7be 3433 d3be 0534 ecbe a498 6d3e
000003b0: e29f 19bd eab6 70be 42a5 053f 8671 cd3d
000003c0: f607 a23e 97bc 25bf 51ec e2be 08ce 1e3f
000003d0: 01b7 cf3c fc6a 893e f71e abbd faa3 b13e
000003e0: 9171 9fbe 3478 27bf 1a48 4b3f eb6f d7bd
000003f0: e605 803d b069 04be 5d1d 8e3e 6e56 a53e
-0.10314171 -0.15807654 -0.771431 -0.021051554 -0.24791254 0.24360004 0.25069347 1.0170121
-0.15191516 -0.42283463 -0.7186608 0.0068655573 0.004867955 -0.0475607 0.27414796 0.07329941
-0.8872749 0.44718826 0.17133996 -0.22713126 -0.050919518 -0.2751854 0.009633831 -0.15927726
0.4395124 0.11024077 -0.19346684 0.075144105 0.1470669 0.007027438 -0.38524368 -0.4862519
0.20668267 0.22913744 0.57439905 0.34744284 -0.9115625 -0.60019076 -0.3327249 0.11880301
-0.3115586 0.5999973 -0.120251596 -0.37045327 0.42138654 0.6712722 -0.25118724 -0.9312767
0.05379017 -0.5864909 0.33565614 -0.41530588 -0.18720661 -0.29076213 -0.11482538 0.07500861
-0.11037273 -0.0035151911 -0.42118135 0.085063286 0.15008652 0.116419554 0.61791426 0.22133206
-0.0131845055 0.75220364 0.73650646 0.2553672 0.2461006 -0.21749973 0.40175042 -0.73500365
0.32136422 0.22858734 -0.12427707 0.18649179 0.035344955 -0.19311722 -0.43793347 -0.22440468
0.41673878 -0.038086638 0.029129466 -1.6079595e-05 0.12964763 -0.24380466 -0.16783273 0.14683683
-0.13681543 -0.067233026 0.1272579 -0.61695766 -0.4285764 -0.30803415 0.23291375 -0.050630447
0.15706788 -0.0094691655 -0.39114264 -0.46669024 -0.2949509 -0.08003503 0.16762698 -0.0829452
-0.12530528 1.320594 -0.19425212 0.17200606 -0.5643668 0.4562383 -0.8083072 -0.008835454
-0.13777539 -0.47273985 0.3178894 -0.16230789 -0.41275045 -0.30618188 0.22644724 -0.4973428
0.27034715 0.07225248 0.12932436 0.17511813 -0.5640901 -0.15608798 -0.48083514 -0.44663796
-0.36143583 0.41502026 -0.43506235 0.03503399 0.077363215 0.050509088 0.13397774 0.30626586
-0.28724515 0.47722095 -0.058193192 -0.35263744 0.13286576 0.49792397 0.13202675 0.2912559
0.6092459 0.48892808 0.042237952 -0.06477611 0.3149384 -0.3032413 0.2099614 0.97608733
0.35896903 0.50218374 -0.0650457 0.32465777 -0.4186285 0.15813375 -0.4819079 0.3035184
-0.40508434 -0.399038 0.21223558 -0.08106318 0.47781166 0.54208905 0.37771463 0.2115515
-0.11786327 0.1981636 -0.3273904 -0.4885911 0.35411778 0.0980818 0.028114922 0.1425509
0.7775254 0.5585674 -0.39330333 0.11184826 0.6358613 0.029971685 -0.4563435 -0.00021320705
-0.020031724 0.093234904 0.5834036 -0.386676 -0.14673379 0.12147903 0.45211178 -0.012603532
-0.049340572 0.84912556 -0.47897938 -0.20705432 0.40608704 0.69173366 0.5119179 -0.08052179
-0.60497814 0.52056545 -0.3035122 -0.17389885 -0.5380343 -0.18798609 1.5407002 -0.43889874
0.5286913 0.6146445 0.45146894 -0.10469018 -0.19701745 0.47098848 -0.52372104 0.045272548
0.9646517 0.14341906 -0.30444026 -0.26201203 -0.4066409 -0.57462907 0.00329561 0.5171905
0.4137015 -0.3042102 0.008789505 -0.20544598 0.07556149 0.13133793 -0.34947845 0.5104806
-0.3276016 -0.41250002 -0.46133438 0.23202759 -0.03750599 -0.23507276 0.5220529 0.100314185
0.316467 -0.6474089 -0.4432092 0.6203313 0.025355818 0.26839435 -0.083555155 0.34695417
-0.31141332 -0.6541779 0.79406893 -0.105193935 0.06251125 -0.12930942 0.27756777 0.32292503

network_body._body_endoder.seq_layers.0.bias f4 [128]
00000000: 2dd2 81bb 3ee5 84bb 724f bebb 7e11 74bb
00000010: 7d3d 1ebc abae 16bb 806f 12bc ae6f 9d3b
00000020: 40a7 ceba e1fc 0abb be2d f0ba abe6 a839
00000030: f443 0fbc 3b8f f3ba 2071 f8ba 1401 68bb
00000040: 9396 303b 30e2 bd3b 97e9 353c c94e 2c3c
00000050: ce9a 76bb 1cdf ab3b 29f0 513b b44c 85bb
00000060: c266 8fbb ccf1 2dbc 96d8 ae3a c844 68bb
00000070: ce09 c9bb f1d1 3bbb 73cb c8bb 4234 8bba
00000080: 4d96 b03b 5f82 04bc 580b 7dbb 0381 923c
00000090: 5a35 013c 7a1b f63a c524 75ba 1309 143b
000000a0: 4397 1fbc 7e43 19ba caa8 903a 5df1 463b
000000b0: 64ac ccba d6a9 a1ba d186 e93b d624 d63a
000000c0: 69da 1bbc a7f3 e63a c424 b83b 228d 843b
000000d0: fbc5 07bc 8d33 99bb 04d6 a5ba a2fc feb8
000000e0: ced3 963b ce3d cfbb 70be 90bb 86ab bbbb
000000f0: 2e29 65bb 820b 213b 39fe b13b 5203 1ebb
00000100: cd9a e1bb 9ce6 85bc fdab 3abc 739e 963a
00000110: eeaa faba 75e6 ddba 392c 023b d9e3 083c
00000120: 734f 8eba 7ad8 593b 6505 023a efaa 0c3b
00000130: d95f 83bb bcb9 87ba 48e9 ccbb a293 893b
00000140: a960 a9ba bc9e 9aba 3118 7dbb de02 d2ba
00000150: c3a2 d13a 545a f13a 1062 273b 206b 4ebb
00000160: 0ffa 9cba 4d3c f43b 131a 8cbb efe0 5a3a
00000170: 6932 313b 5663 8b3a 11ab 82bc 1e0e 8fbb
00000180: 0cac 9a3b 297c 463a 084f 48bb 0546 96ba
00000190: 0447 b63b 123f 3e3c 4617 003c bbc8 313c
000001a0: 14a6 43ba 4669 c23c 3b19 e8ba 0cf6 70bb
000001b0: dd65 7f3a 8e00 1cbc e3d7 593b b4c9 3f3b
000001c0: 32a9 1b3c 4ea1 04bb 7820 00bc ea70 76ba
000001d0: b1be cabb adc2 fa3a fc76 c43a 1d81 1ebb
000001e0: 08d9 843b a8ae 4fbb 0cbf 04bb ba60 9139
000001f0: 0a3d f439 a246 1a3b da20 17bb 891d 3ebb
-0.0039618225 -0.004055648 -0.0058078105 -0.0037241871 -0.009658215 -0.0022992294 -0.0089377165 0.004804573
-0.0015766397 -0.0021207856 -0.0018324179 0.00032215318 -0.008744229 -0.0018582115 -0.0018954612 -0.0035401033
0.0026945218 0.005794786 0.011103055 0.010516831 -0.0037628892 0.0052451026 0.0032034016 -0.0040679816
-0.0043762634 -0.010616731 0.0013339694 -0.0035441387 -0.006135202 -0.002865907 -0.0061277687 -0.0010620432
0.005389011 -0.0080877235 -0.0038611498 0.017883783 0.007886255 0.0018776499 -0.00093514874 0.0022588416
-0.009740653 -0.0005846544 0.0011036631 0.0030356266 -0.0015615341 -0.001233394 0.007126667 0.0016337882
-0.009512522 0.0017620221 0.005619617 0.0040451447 -0.008286948 -0.004675335 -0.0012652283 -0.0001215872
0.004602886 -0.0063245064 -0.004417233 -0.0057272343 -0.0034967172 0.002457351 0.005431917 -0.0024110866
-0.006884909 -0.016345315 -0.011393544 0.0011491313 -0.0019124427 -0.0016929643 0.0019862785 0.008355104
-0.0010857418 0.0033240602 0.00049599103 0.002146419 -0.0040092287 -0.0010355036 -0.006253395 0.0041985074
-0.0012922484 -0.0011796574 -0.0038619156 -0.0016022583 0.0015993941 0.0018413761 0.0025540628 -0.0031496957
-0.0011976379 0.0074534775 -0.004275569 0.0008349558 0.0027038103 0.0010634463 -0.015950711 -0.0043656966
0.0047202166 0.0007571602 -0.0030564684 -0.0011464959 0.005562665 0.011611717 0.007818049 0.0108510805
-0.0007463407 0.023731839 -0.0017707715 -0.003676775 0.0009742657 -0.009521617 0.003324025 0.0029264512
0.0095007885 -0.0020237747 -0.007820241 -0.0009400981 -0.006187283 0.0019131504 0.0014989073 -0.0024185844
0.0040541925 -0.0031689797 -0.0020255474 0.00027728622 0.00046584784 0.0023540636 -0.0023060353 -0.0029009304

network_body._body_endoder.seq_layers.2.weight f4 [128, 128]
00000000: ab7d 003e b712 41be 3c42 8f3b 590a 0abe
00000010: 6aea be3d ac04 583d 1396 363d 84d4 f73d
00000020: 90b0 133e 78cf 1a3d c882 473d 46d4 5f3d
00000030: a901 e23c 66ab d33d 0e30 7e3d ee85 883c
00000040: 41c9 433d 08f3 40be bfe6 7b3d 67ba c03b
00000050: 6524 23bd e244 f6bc 43d0 b8bd ca24 15be
00000060: 3796 39bc d92d b9bd ec89 c5bd de6f 09bc
00000070: 9f9d 84bd 648d 16bd f347 a5bd e357 723c
00000080: 3018 3cbd c8f0 e53d d023 8e3b 6673 643d
00000090: da6f 0d3d d4e3 e13d 4964 763d b053 d1bd
000000a0: a878 1bbc 7bf2 d1bd 3ecb 2f3d d9af 273b
000000b0: 74d1 973c 135a 163e e7bc 143e a8ed 963d
000000c0: 21be 31bd 19a9 3bbe 4b5e 0a3e 2ff8 b1bd
000000d0: 40ac d3bc 7eeb 383d de74 1d3d 0db3 17bd
000000e0: 3dfc b5bd df9d 04be eec1 583d 909a 143e
000000f0: 0cc6 8a3d 6796 1e3e d6f4 463d 2449 ba3d
00000100: ce73 863a 3de9 0bbe 96c3 033d ac08 c23d
00000110: a43b 1ebd 302c 98bd 8d7f 153c 55cd c53d
00000120: 620a 613d babe e43d 1431 493d fdfb 8a3d
00000130: 4a23 173e 514f 8dbd 3d52 4dbd 30e9 2a3d
00000140: 677d aebd 92e5 db3d 2acf a7bc b1b7 94bd
00000150: 8ca2 973d 4d50 a7bc 32cb 5b3c b503 c1bd
00000160: c8fa 243e bc94 723d da17 d4bd bc76 253d
00000170: 5ea5 da3d 48b1 84bc 0daa 35bd 8f3f 233e
00000180: 3157 14be bc38 29be f8e7 053e 4ddf 84bd
00000190: a796 8a3d 839b e83d 8bb8 8a3d cf30 413e
000001a0: ff02 ad3d 524f 24bd 3cf6 b83c 4cf2 2b3d
000001b0: de21 b1bd 6313 bbbd f8d2 e4bd 0720 ef3d
000001c0: 71b0 913c 24b0 243c 2b32 f1bd 4e6c 843e
000001d0: 6a1e 153d 6278 bc3d 3c26 343d 156e 3e3d
000001e0: 4a2e 333d 50cb 493d 2fc9 acbd 55db c83d
000001f0: 2cf4 dbbc 1f1f 903d 8f8f 32be d745 85bd
00000200: e236 d9ba e6e9 7dbd 4ca9 323d 56ac 80bc
00000210: 8954 793d 7b06 703d 4611 b4bd 0a58 a63d
00000220: df34 8b3d 7593 81bd a1d2 753e 5eb0 fbbc
00000230: 7138 8c3d 491b 9b3d d37c f23d 3ba0 4f3d
00000240: b22d 42bd d133 1dbd 83c5 593c 74a5 13bd
00000250: a97a 8abc 1134 513d 3936 043e 012a 853c
00000260: bb43 e1bd aea1 073a a9ee 8abd 8ad3 d4bd
00000270: f9fd 083d fa8f 2a3e b8c2 893d b6cd 00be
00000280: 9d1e d3bd d7a3 8bbd 3a4d b43d 21f8 82bd
00000290: 3532 6ebc a710 b1ba 198b 74bd aefd 91bd
000002a0: 5dec 043e eaf4 f83d 352c e43d e01f 15be
000002b0: 3c07 09bd d75f 6cbd 96f6 a93c e6f5 06bb
000002c0: 2388 e13c 5a78 dbbd 5899 a43c 3a79 0d3c
000002d0: 6061 813d 6a46 973d b8c3 f33b 0ae5 0cbc
000002e0: 42c8 62bc 58a9 2dbe b4d1 51bd 69bb 513d
000002f0: 2bcf 16bd d315 a7bd feee f3bc a40b e2bc
00000300: 3ddc d6bd 6f42 2a3e 43ef ce3d 6825 33bd
00000310: 7e94 6bbe 9efb 9b3c 3f27 273e e42e 1d3c
00000320: f91b 873d 3233 d03d 1ff2 d43c 1af3 993c
00000330: 5294 5abd 8622 9cbd f328 0f3d fea7 8cbe
00000340: ddbd 0dbb 86b3 41bd cac3 ca3d 5495 05bd
00000350: a78b 2d3e c6c3 003e d3c2 88be e35b 4b3d
00000360: 8087 a63c f401 ccbd 782b d13b b282 09ba
00000370: e196 c9bb 380c 5fbb 9750 2ebd ea53 cabd
00000380: a534 103e e99d 26be 6933 41bd 3381 d43c
00000390: c7b7 82bc 8523 623d 608a a7bd 24ce 533d
000003a0: 865f ddbd e07b f53c a2b3 223e 8cf8 ac3d
000003b0: b3b5 363d 96dc 823d 4ad2 3fbc cc86 9ebd
000003c0: 3f78 44be 7718 88bd 9245 8cbb 020b dbbc
000003d0: c7f3 2a3d 4766 2c3e 8d60 62bd cc5f e8bd
000003e0: d2c8 31be f78f f3bd 1352 fa3c 2b67 41bd
000003f0: c548 59bd 17a7 32be 5e61 c23c eb4f 1f3e
0.12547939 -0.18854795 0.0043719094 -0.1348051 0.09322055 0.05273883 0.044576716 0.12101081
0.14422822 0.037795514 0.048708707 0.0546458 0.027588682 0.10335426 0.062057547 0.016665425
0.047799353 -0.18842709 0.061499353 0.005881596 -0.03982963 -0.030062143 -0.09024098 -0.14564815
-0.011327318 -0.09041948 -0.09645447 -0.008388488 -0.06475376 -0.036755934 -0.08070364 0.014791462
-0.045921504 0.11227566 0.0043377653 0.055774115 0.034530498 0.11029783 0.060154233 -0.1022104
-0.009489216 -0.102513276 0.042918436 0.002558699 0.018532492 0.14682798 0.14525186 0.07369548
-0.04339421 -0.18326224 0.13512532 -0.086899154 -0.025838971 0.045146458 0.03844153 -0.03703599
-0.08886001 -0.12950848 0.05291932 0.14512086 0.06776056 0.15487061 0.048573337 0.09095982
0.0010257901 -0.13663192 0.032168947 0.0947431 -0.038631096 -0.07430303 0.009124649 0.096583046
0.054941542 0.11169191 0.04911907 0.06786344 0.14759555 -0.06899894 -0.050127257 0.04172629
-0.08520012 0.107371464 -0.020484526 -0.07261599 0.0740405 -0.020424033 0.013415145 -0.09424535
0.1611129 0.059223875 -0.10356112 0.040396437 0.106760725 -0.016197816 -0.044351626 0.15942214
-0.14486386 -0.16525549 0.1307677 -0.06487904 0.06767016 0.113577865 0.0677348 0.18866275
0.08447837 -0.04011471 0.022578351 0.04197912 -0.08649038 -0.09134557 -0.111730516 0.116760306
0.01778433 0.010051761 -0.11777147 0.2586388 0.03640596 0.09202649 0.043981776 0.0464917
0.043745317 0.04926616 -0.0843681 0.09807459 -0.026849829 0.07037186 -0.17437576 -0.065074615
-0.0016572142 -0.06199064 0.043618485 -0.015707176 0.060871635 0.05859993 -0.08792357 0.08122261
0.06797194 -0.06326953 0.2400613 -0.030723747 0.06846703 0.075735636 0.118402146 0.050689917
-0.04740686 -0.038379494 0.013291719 -0.03604646 -0.016904192 0.051075045 0.1291131 0.01625538
-0.10999247 0.00051739335 -0.06783802 -0.103919104 0.033445332 0.16656485 0.06726593 -0.12578472
-0.103085734 -0.06818359 0.08803792 -0.06394983 -0.0145383375 -0.0013508991 -0.059702966 -0.07128464
0.1298079 0.12156089 0.11141244 -0.1456294 -0.033454165 -0.057708587 0.020747464 -0.0020593344
0.027530735 -0.107163146 0.020092651 0.00863486 0.06317401 0.07386477 0.007439103 -0.008599529
-0.0138416905 -0.16959131 -0.05122538 0.05120412 -0.036818665 -0.081584595 -0.029777046 -0.027593441
-0.10491226 0.16626905 0.10104229 -0.043736845 -0.23005864 0.019040879 0.16323565 0.009593699
0.06597132 0.10166015 0.025994359 0.018792678 -0.053364106 -0.07623772 0.03495116 -0.27471918
-0.002162806 -0.047290348 0.09900625 -0.032613114 0.16947804 0.12574682 -0.2671114 0.049648177
0.020328283 -0.0996131 0.0063833557 -0.00052456104 -0.0061520194 -0.0034034383 -0.042557325 -0.098792866
0.14082582 -0.16271175 -0.04716817 0.025940513 -0.015956772 0.055209655 -0.0818069 0.051710263
-0.10809235 0.029966295 0.15888837 0.08445844 0.044606876 0.0638973 -0.011707852 -0.07740554
-0.19186495 -0.06645291 -0.0042807544 -0.026738647 0.04173639 0.1683589 -0.05526786 -0.11346397
-0.17361763 -0.118926935 0.030556714 -0.04721753 -0.053047914 -0.17446552 0.023728069 0.1555783

network_body._body_endoder.seq_layers.2.bias f4 [128]
00000000: a136 8d3b 5724 22bc c949 c8ba 5710 833b
00000010: dc21 1bbc 60ab f4bb 184b 203b 5579 1dbc
00000020: 61ad 5c3c b429 8dbb a84c f7bb 2a22 e1bb
00000030: 7935 bcbc 2e1d 34bc aa1c edbb a624 03bb
00000040: d6ab 7dbb 6f6e 0c3b 956d 823b 579d c23a
00000050: 2464 1d3b b6ca 4739 91a3 653b 4ecf 6fbc
00000060: 1935 983a 2c5b 44bc 9787 98ba 3de7 dbba
00000070: 5c0e bb3c 1da0 153b 58e5 753c 3ea8 4dbb
00000080: 86ae 33bb 9004 00bc bbf1 173c da2b 5537
00000090: cdd6 7e3c 8c30 c3ba ff2d f9bb 1135 ca3b
000000a0: b299 0cba 7d52 aeba 114e e2bb 0826 00bb
000000b0: 7a2d 8f3b 562a dd3a 5c20 703c d848 b3bb
000000c0: b978 e1bb da3c a1bb 8709 dfb9 ac6b 8cbb
000000d0: 2378 e639 705d 923b 371a fb3a 3fd7 8a3b
000000e0: 6cf4 bd3a 4746 b9ba b48e 22ba 6542 923c
000000f0: 1336 12bc 1e9a 3b3b 74e8 163c e8b6 b3bb
00000100: a46b d239 63ad 0bbb d18c 10b8 6192 12bb
00000110: 4223 c43b ece6 06bb f5cb c6bb 7186 cdb9
00000120: f3fd 373b 9400 6bbb 41cc c0ba 9c00 6bbb
00000130: 318e dcbb 3a3d cc3b a368 123d f8e4 613b
00000140: c693 4fbc 8dc2 223b 74c8 f0bb 7bb4 2e3b
00000150: 5885 c9b8 8b6d 973a b290 87bb f3a3 beba
00000160: 5099 e6bb 2091 81bb 5dee 923a bc5e af3b
00000170: ceeb 56bb 944f 7e3c ebf1 aabb cedf 003c
00000180: af2d 9c3b 407a f33b be26 92ba 39bb ac39
00000190: a2fa d6b8 8005 2e3c 1f47 303a f299 123b
000001a0: 3efa 783a 974c 8f39 5323 093b c478 c33b
000001b0: 3367 e7bb e536 adbb c4df a1bb 974e 943a
000001c0: 4648 15bb f725 4bbb 692d 27bc 24eb 21bb
000001d0: b8fa 033b 6a52 ce3a 5dea 7cba 426c 013b
000001e0: da8e e73b 5fc8 0f3b c49f 393d c043 b73a
000001f0: 8e97 efba 78c8 7f3b ff90 4a3b 2995 74bb
0.004309491 -0.009896359 -0.0015280779 0.0039997506 -0.009468522 -0.0074667186 0.0024458822 -0.009611447
0.013469071 -0.00430795 -0.00754698 -0.0068705278 -0.022974716 -0.010993285 -0.007236083 -0.0020010858
-0.0038707159 0.0021428128 0.0039803484 0.0014847916 0.0024015987 0.00019053635 0.003504012 -0.014636828
0.0011612504 -0.011984628 -0.0011637089 -0.0016777288 0.022833996 0.002283103 0.015008293 -0.0031380798
-0.0027417256 -0.007813588 0.009273942 1.2705999e-05 0.015554142 -0.0014891787 -0.00760436 0.006170877
-0.00053634786 -0.001329973 -0.006906279 -0.0019553918 0.004369435 0.0016873579 0.014656153 -0.00547133
-0.0068808463 -0.004920584 -0.00042540973 -0.0042852964 0.00043958527 0.004466705 0.0019157593 0.004237085
0.0014492399 -0.0014135324 -0.0006201074 0.017853925 -0.008924025 0.0028625797 0.009210695 -0.0054844506
0.0004013452 -0.0021313063 -3.446342e-05 -0.002236508 0.0059856484 -0.0020584418 -0.006066794 -0.00039200814
0.002807495 -0.00358585 -0.001470931 -0.0035858518 -0.0067308177 0.0062328847 0.03574432 0.0034468751
-0.012669509 0.00248352 -0.0073481146 0.0026657868 -9.609264e-05 0.0011553032 -0.004137122 -0.001454471
-0.0070373192 -0.003954068 0.0011209954 0.0053518694 -0.003279436 0.015521903 -0.005216827 0.007865859
0.004766188 0.007430345 -0.0011150462 0.00032945888 -0.00010250999 0.0106214285 0.0006724465 0.002236959
0.0009497738 0.0002733215 0.0020925596 0.005965324 -0.007061863 -0.005286085 -0.004940005 0.0011314926
-0.0022778674 -0.003099797 -0.010203698 -0.0024706805 0.0020138454 0.0015741114 -0.000964796 0.0019748365
0.00706659 0.00219395 0.04531838 0.0013981983 -0.001827942 0.00390294 0.0030909178 -0.0037320352

action_model._continuous_distribution.log_sigma f4 [1, 2]
00000000: 51c2 19bd c106 bcbc
-0.03753883 -0.02295244

action_model._continuous_distribution.mu.weight f4 [2, 128]
00000000: cd1b c03c ad77 38bc c669 0dbc b8db 4a3c
00000010: 7008 10bd eb50 32bc df9b ff3b da32 0ebb
00000020: 352e 21bd b684 3ebc 4396 fabb 37dc 71bc
00000030: 6c22 5d3c a1cc ccb8 4e91 8ebb 315a 733c
00000040: 0daf 84bc 66db 893c c139 0c3a 2cd8 b83b
00000050: 0708 943b 3897 b4bc be72 883c c970 61bb
00000060: 9884 183b 9289 b3bc 5f8d 6fbc f433 10bb
00000070: 9fb3 b63b d2e5 a5bc f0c6 f63c c211 7b3a
00000080: ddb0 0c3b 3f53 9ebc c313 963c b80a ea3b
00000090: d642 453c 9d6b 25bd 0c4c c5bc a90b 7ebc
000000a0: 7495 893b 4390 9ebc ba9e 81bd 9cd0 0cbc
000000b0: 1f11 953c 7560 a7bc 929c 01bd 77c0 48bc
000000c0: b524 a2bb 8739 45bc 1927 48bc 9262 cabb
000000d0: e8fe 87bb 9657 f63b 5b61 d53c 76da 153b
000000e0: 5052 143c d753 ac3c 3a72 b93b 78c7 a53c
000000f0: d952 623b cf91 8d3c 11cf 063c a41f 6cbc
00000100: bdaf 68bc eeb1 0abc 5008 4bbc 35b0 15bb
00000110: aebd 783c b21e c13c 3fe6 bcbb 2ab2 9abc
00000120: f7a8 233c fd27 71bc 3dea c0bc 7a44 d4bc
00000130: 2f5d 49bc bb36 453c af01 243d e582 1f3c
00000140: 782c ab3a f2b8 893c c0ab bdbc 33f5 a43c
00000150: d27b 553c 183c 973c d667 44bc b6f3 913b
00000160: c954 ecbc ab17 01bc 4809 0e3c fc18 febc
00000170: 29cc 9abb 9746 6d3c 02cf 04bd 79e6 bfbc
00000180: 24dd 403c c60d b73c f2ab 9dbc e332 4bbc
00000190: c5f8 313b fa26 4a3c 2a9c 3cbb 67ed 103c
000001a0: 8549 043c a634 7f3d 7f26 373c 888d 4a3b
000001b0: 8deb 8bbb 9546 8bbb 7b8b 00bd e3b6 533c
000001c0: ec47 70bb a549 fbbc f0e4 83bb 01b1 febb
000001d0: d5ea 2ebc 293e e83c f5b6 3ebb ec1e ff3b
000001e0: 55cd 173d d666 99bb 59e6 9bbd de95 103b
000001f0: fe4f 5739 7d37 353c 6b31 83bc c026 983c
00000200: 0ade 06bd e0af da3b 60ea c2bc 5555 2abd
00000210: d056 98bb 8467 173a d55f 88bc 0d4b 16bb
00000220: c9f7 6fbd a9e5 f83a b050 7c3a b2a1 9ebb
00000230: 0b79 28bc bd3c 01ba 67b8 fc3b 7c1f c03c
00000240: 580b 1e3d d912 c2bc 96a2 33bd d692 a7bc
00000250: 9dbf 563b e5d7 a13c 1061 63bc b232 28b9
00000260: ed4e adbb 1bff f33b a60e c53c a8e7 2c3d
00000270: 4714 9bbd 0151 163d fed7 b5bc dc11 a2bb
00000280: 1e63 a73c faf8 b6bc 9307 0c3c e527 bdbb
00000290: c567 783b f5c1 1f3d a327 89b9 8b7d b03c
000002a0: 1391 9e3c 8312 2ebc a8fe 6f3c ac24 053b
000002b0: 9eaf 763c 3a29 1ebd f2ea c13c bdce b6bb
000002c0: 9227 9dbb 4dd8 9ebb 5498 c0bc 73b2 423c
000002d0: ea46 23bc 572c 003c e133 0ebc 38c1 463d
000002e0: 409b 90bc 942e 2cbd ed05 0cbb 4005 66b9
000002f0: a130 f63b 1731 8e3c c8d6 2b39 a9f5 303a
00000300: 9964 9b3b f705 2fbd 66ec b63a 5e7c 253c
00000310: 72aa b03c 47da d0ba e613 a5bb b352 0a3b
00000320: 23b4 8c3b 58f1 e33c 0b8c b9bc d8f9 c23b
00000330: 9922 353c 18c2 d2bb 2ff1 ac3b 2fd0 853c
00000340: 0c25 53ba b38e 893c 7b09 80bb de49 b13c
00000350: 40ec 1a3c 705c c6bc 3ab5 953b 90ee b8bc
00000360: 3e9d 3cbc 9214 22bc 976a b6bc 2ba4 2bbb
00000370: a1fb d03c 6fcf b5bb e5a4 ba3b 0676 1e3c
00000380: 17ff 5dbc 771c 0bba 6aca 18bd 2d37 cfbc
00000390: 5e8c 56bc 6da6 32bb 77fd aebb ce47 a6bc
000003a0: d815 c9bc 253f a23a 7a43 e53a 640c e63c
000003b0: 00bd 8a3a 0141 4c3c c7a3 a83c 23dc 84bc
000003c0: b77e a83c 194e 303c 283b 503c 9dfd b0bc
000003d0: abf8 483c 0616 10bb ea5f d6bc d1bb 8ebc
000003e0: e830 453c 1ee6 c3bc 6290 543d 404a e239
000003f0: 5c34 bd3c 8aa8 4b3c b111 9b3b 2b6b d63c
0.023450756 -0.011259002 -0.008631175 0.012381487 -0.035164297 -0.01088355 0.0078005637 -0.002169779
-0.039350707 -0.01162832 -0.007647307 -0.014761976 0.013496976 -9.765593e-05 -0.0043508178 0.014853046
-0.016196752 0.01682825 0.0005349182 0.005641004 0.0045175585 -0.022044763 0.016656276 -0.00343995
0.0023272391 -0.021916185 -0.014621108 -0.0022003623 0.0055756117 -0.020251188 0.030124158 0.0009577536
0.0021467723 -0.019326804 0.01831997 0.007142391 0.012039861 -0.04038583 -0.024084114 -0.01550571
0.0041987244 -0.019355899 -0.06329103 -0.008594658 0.01819664 -0.020431736 -0.031643458 -0.012252918
-0.0049482235 -0.012037641 -0.012216353 -0.0061763013 -0.0041502602 0.0075177653 0.0260474 0.0022865809
0.009052828 0.021036072 0.005659369 0.020236716 0.0034534244 0.017281441 0.008228079 -0.014411841
-0.0142020555 -0.008465273 -0.012392119 -0.0022840623 0.015181942 0.023574207 -0.005764752 -0.018883783
0.009989015 -0.014719007 -0.023549194 -0.025911558 -0.012290283 0.012036975 0.040040668 0.0097357975
0.0013059517 0.016811822 -0.023153186 0.020136451 0.013030009 0.018461272 -0.011987647 0.0044541014
-0.028849022 -0.007879178 0.008669205 -0.031017773 -0.004724045 0.014482162 -0.03242398 -0.023425328
0.011771474 0.022345435 -0.019247029 -0.012402269 0.0027156335 0.012338394 -0.0028779604 0.008845664
0.008074169 0.06230607 0.011178612 0.0030907113 -0.004270023 -0.0042503574 -0.03138302 0.012922022
-0.0036663963 -0.030674765 -0.004025094 -0.0077725654 -0.0106761055 0.028349953 -0.002910075 0.0077856686
0.037061054 -0.0046814485 -0.07612295 0.0022061984 0.00020533797 0.011060593 -0.016014775 0.018573165
-0.032926597 0.006673798 -0.0237934 -0.041585285 -0.0046490207 0.0005775618 -0.016647259 -0.0022932917
-0.058585916 0.0018989342 0.00096250605 -0.004841053 -0.010282765 -0.000493001 0.007712412 0.023452513
0.038585037 -0.023690628 -0.043856226 -0.020455759 0.003276802 0.019756267 -0.013878122 -0.00016040614
-0.0052889497 0.0074461824 0.024054836 0.042213112 -0.07572227 0.036698345 -0.02219772 -0.0049459767
0.020433005 -0.022335518 0.008546728 -0.005772578 0.0037903648 0.03900333 -0.00026160208 0.021544239
0.019356286 -0.010624531 0.014648117 0.0020316048 0.015056519 -0.038613535 0.023671601 -0.0055788443
-0.004795977 -0.0048475624 -0.023510136 0.011883366 -0.009965638 0.007823071 -0.008679361 0.04852411
-0.017652154 -0.042036608 -0.0021365837 -0.00021936465 0.0075131212 0.017357392 0.00016387843 0.00067504734
0.004742217 -0.042730298 0.001395595 0.010100452 0.02156565 -0.0015934192 -0.0050377725 0.0021106421
0.004293935 0.027825043 -0.022649786 0.005950194 0.011055612 -0.006431829 0.0052777748 0.016334621
-0.00080545316 0.016791677 -0.00390738 0.021641668 0.00945574 -0.024214 0.004568723 -0.022574693
-0.011512099 -0.0098926 -0.022267623 -0.002619038 0.025510611 -0.0055484097 0.0056959265 0.009671694
-0.013549588 -0.0005306671 -0.037302412 -0.025294865 -0.01309499 -0.0027259842 -0.005340274 -0.020297911
-0.024546549 0.0012378438 0.0017491423 0.02808208 0.0010584891 0.01246667 0.020585908 -0.01621825
0.020568235 0.010760807 0.012709416 -0.021605307 0.012266318 -0.0021985783 -0.026168782 -0.017423542
0.012035586 -0.02391344 0.051895507 0.000431614 0.023096256 0.01243032 0.0047323336 0.026174149

action_model._continuous_distribution.mu.bias f4 [2]
00000000: 1f96 c53b 5f4e 1aba
0.0060298587 -0.0005886312
