results/1003/Agent Behavior/Agent Behavior-6591.pt (torch, 149169 bytes, 12 tensors)

network_body._body_endoder.seq_layers.0.weight f4 [128, 6]
000000 5b 5d c5 3d 15 83 8a 3e 86 e9 8b be cd 06 eb be
       0.09636947 0.27053133 -0.27326602 -0.45903626
000010 ea e9 9f be 59 da 01 3f 97 ca b8 3d 72 0f 1f 3c
       -0.3123315 0.507238 0.09023016 0.009708272
000020 37 42 87 bd 66 76 05 bf f3 74 3a bb eb 1d f4 3e
       -0.06604426 -0.52133787 -0.0028451055 0.47679076
000030 6f 94 02 bf 51 d4 75 3e a2 9e 2b 3e b9 dd 05 be
       -0.5100774 0.24006774 0.16759732 -0.13072862
000040 24 95 c5 3e d7 18 0d be 1d b8 80 3e 8e e2 47 be
       0.38590348 -0.13779007 0.25140467 -0.19520018
000050 14 7c 75 3f c3 b3 03 bf ba 07 49 be 8f ea 97 be
       0.95892453 -0.5144617 -0.19631854 -0.29671142
000060 64 60 03 be e9 f6 77 3e 77 9b c6 bd 50 e8 02 bf
       -0.12829739 0.24215282 -0.09697621 -0.5113573
000070 a6 a2 8d 3d dd 75 49 3e 80 f1 a3 be 2a 46 35 3e
       0.06915788 0.19673868 -0.32020187 0.17702547
000080 1e 3d 5a 3f 28 f9 d9 3e 03 ef 96 3e 61 76 94 3f
       0.8524951 0.42572904 0.29479226 1.1598626
000090 d5 69 a7 3e b8 f5 c2 3d c5 fa 57 bf 7e a0 c2 3e
       0.3269793 0.095195234 -0.8436702 0.3801307
0000a0 19 03 a9 be d4 bc df 3e 95 fa 0c 3e 87 15 45 bf
       -0.33010176 0.43698752 0.13767464 -0.76985973
0000b0 15 a6 1f 3f db c8 2a 3f c6 fc 49 3e 1f 25 02 3e
       0.62362796 0.6671273 0.19725332 0.12709473
0000c0 a2 6d 24 bd 01 a2 09 3f 11 6e 49 bf f2 39 ab be
       -0.040143616 0.53762823 -0.78683573 -0.33442646
0000d0 d5 2a 93 be d4 7c 15 3f 44 0b 5b 3e e9 d0 b3 bd
       -0.28743616 0.583936 0.21391016 -0.08780081
0000e0 eb a5 61 be d1 4a a1 3d 7a a1 06 3e ee 89 4b 3e
       -0.22035949 0.07875598 0.13147536 0.19876835
0000f0 c1 4b c3 bd 5c a0 c8 be 63 86 35 3e f1 06 09 be
       -0.09535933 -0.39184844 0.17727046 -0.13381554
000100 2f bd 24 3f 4f 08 40 bf bd 82 0f bc f5 b0 04 bf
       0.6435117 -0.7501268 -0.008759198 -0.51832515
000110 c3 65 c2 3e 3d fe bf 3e 5f b7 72 be 75 dd 0f bf
       0.37968263 0.37498656 -0.23702763 -0.5619729
000120 64 ab df 3e bc 1a 3e 3e 9a 6d e9 bd 0f 57 b8 bd
       0.43685448 0.18564886 -0.11397858 -0.0900098
000130 87 a5 43 be 16 33 a9 3e cb de 40 bf 6b 2d d9 3e
       -0.19106112 0.33046788 -0.75339955 0.42417464
000140 07 77 21 be 8d 75 8d bd 66 c4 8c 3d d0 03 ca be
       -0.15768062 -0.06907187 0.068733975 -0.39456034
000150 b7 65 cd 3e 3f 53 54 bd 98 c0 01 3f a1 ed 10 bf
       0.40116665 -0.051837202 0.506845 -0.5661259
000160 ee 21 21 3e d8 8b f7 3e 6a f5 33 3f 84 3e c0 3e
       0.157356 0.4834888 0.7029635 0.37547696
000170 79 61 0b 3e ef 56 b6 3e 64 af 58 3e 00 bd e2 3d
       0.13611402 0.356132 0.21160656 0.11071205
000180 2a 82 37 be 42 a8 bd bd d0 7f ed bd b7 e5 98 bd
       -0.17920747 -0.09260608 -0.11596644 -0.0746569
000190 3e 2b 3e be a2 b4 21 3e c9 d5 e5 3e 3f 83 13 3f
       -0.18571183 0.15791562 0.44889668 0.5762214
0001a0 48 f6 14 bf a0 34 32 3f 88 2c e0 bc de 10 7f 3e
       -0.58188295 0.6961155 -0.027364984 0.24908778
0001b0 c5 2a 2e bf 1e 74 4e 3e 46 75 a9 3e 4b 40 8b be
       -0.6803401 0.20161483 0.33097285 -0.2719749
0001c0 ca 73 cc bd 72 71 25 be 66 6f fe bd 7c 8e ad be
       -0.099830225 -0.16156557 -0.12423591 -0.3389777
0001d0 78 6b 04 bf c9 a2 c6 bc 6b 72 c4 bd 67 bc dd be
       -0.51726484 -0.024247544 -0.09592136 -0.43307802
0001e0 30 d8 f4 bd d6 46 03 bf 43 d1 76 3e 9e 5a 6e bc
       -0.11955297 -0.5127996 0.24103265 -0.014547972
0001f0 fe fe 05 3d ef 0c 28 3e 10 24 9c be af 6e 24 be
       0.032713883 0.16411184 -0.30496264 -0.16057847
000200 e9 41 20 bd a9 21 91 bf c3 2e 87 3e 30 eb a3 be
       -0.039125357 -1.1338397 0.26402864 -0.3201537
000210 af 2f 1c bf 70 d9 4c 3c cc a5 cb be c4 a1 63 3d
       -0.6101026 0.012503013 -0.3977493 0.055574194
000220 40 31 83 3f 49 28 ce bd 7d c2 6c 3f 15 c9 09 bf
       1.0249405 -0.100662775 0.92484266 -0.5382245
000230 7e cb 12 bf 33 dc 58 be 74 6b a8 3e 63 e7 e6 be
       -0.57341754 -0.2117775 0.3289448 -0.4509841
000240 8f a4 9f 3e 14 cd 99 3e d3 a4 d2 bd a9 fb 98 bc
       0.31180236 0.30039275 -0.10285344 -0.018674688
000250 08 40 58 3e 18 d1 10 3f a2 f0 1c 3f f6 9a d4 3e
       0.21118176 0.5656905 0.61304677 0.41524476
000260 43 c4 13 3f 31 cc 1f 3f 08 2b eb bd 64 88 7c be
       0.57721347 0.62420946 -0.11482817 -0.24661404
000270 e1 96 77 3d c4 2b 9b be e4 74 61 3e ac 08 21 bf
       0.060446624 -0.30306828 0.22017246 -0.6290386
000280 74 9c 54 bd f0 cc e0 be da 27 b0 be 0a cd 65 bb
       -0.051907018 -0.43906355 -0.34405404 -0.003506484
000290 d5 4d 8c 3e 08 23 f7 3e 08 e8 1a 3e 15 98 b1 3d
       0.2740313 0.48268914 0.15127575 0.086715855
0002a0 48 ec 7d be 24 fa 80 3b 11 08 17 3f 29 b1 07 3f
       -0.24797165 0.003936069 0.58996683 0.530047
0002b0 52 2d 2b bd ce c1 cc bd 1b 4e aa be b6 3a 2e be
       -0.041791268 -0.09997903 -0.33262715 -0.17014584
0002c0 23 f4 6a 3f 6a 5d 0a 3e 80 bf d2 bd 2b ce c4 3e
       0.91778773 0.13512197 -0.10290432 0.38438544
0002d0 e3 57 23 be 46 2d 6a bd 09 78 29 bf f8 df 79 bd
       -0.15951495 -0.057172082 -0.66198784 -0.06100461
0002e0 8e c6 bd 3e 16 65 e4 3b 1e 36 16 bf be 5d d7 bd
       0.37065548 0.006970058 -0.58676326 -0.10515927
0002f0 65 98 cd bb eb d7 04 be 24 87 24 bc ec e5 be be
       -0.0062742704 -0.12972991 -0.010041986 -0.3728479
000300 03 be 0c bf 9b 7f 6f bd 9c 92 ea 3e b6 06 18 3e
       -0.54977435 -0.058471303 0.4581498 0.1484631
000310 82 13 b9 3e f8 79 b0 be 70 f3 52 be c2 8d 37 3f
       0.36147696 -0.34468055 -0.20600677 0.7170068
000320 75 c6 d7 3e c7 02 66 3f 86 1f 72 3f 36 33 6a 3f
       0.42143598 0.8984799 0.9457935 0.9148439
000330 57 49 ca 3d dd eb 81 3e 79 5d fc 3d 78 3c 11 3f
       0.0987727 0.25375262 0.12322516 0.56732893
000340 64 fa 86 3d ad e2 c4 be d0 3a 1a bf a2 24 45 bf
       0.06590727 -0.3845419 -0.6024599 -0.7700902
000350 f7 76 54 be df b4 5a 3e 2f 8e 88 be 0d b0 79 be
       -0.20748506 0.2135806 -0.26670977 -0.24383564
000360 c2 20 34 3e 17 57 6b bd 06 b2 9f 3e 05 7e 65 bc
       0.17590621 -0.057456102 0.3119051 -0.014007096
000370 75 35 80 3d 1b 02 ed 3d 20 8f 9d bd 80 25 83 be
       0.06260196 0.11572667 -0.076933146 -0.25614548
000380 c0 14 e4 3e 23 b8 10 3f 6a 8c dc be af 64 0e bf
       0.4454708 0.5653097 -0.43075877 -0.5562238
000390 a5 bb d5 bd fa ee b1 3e 08 97 c8 3e c6 29 da 3e
       -0.10436181 0.34752637 0.39177728 0.42609996
0003a0 b0 f0 04 be 1d 19 fb 3e a2 39 9e be 50 f8 dd 3d
       -0.1298244 0.49042597 -0.30903345 0.108383775
0003b0 f4 d3 da bc 5e 48 f5 be ae 13 e4 be 66 db 2f 3e
       -0.026712395 -0.47906774 -0.44546264 0.17173538
0003c0 70 b7 04 bf 40 cd 5c bf 43 63 41 bf fb 13 a3 3d
       -0.51842403 -0.86250687 -0.75542086 0.07962795
0003d0 2f 2b bc bd d0 99 00 3f 20 2f aa 3d 9f 38 33 be
       -0.09187924 0.502347 0.0830977 -0.17502068
0003e0 57 4e 06 3d 36 6a c3 bd fc ba 01 bf 6a 07 a4 3e
       0.032789554 -0.095417425 -0.5067594 0.32036906
0003f0 90 40 41 bf 05 5e 92 bf 76 b6 97 3b bd ec e0 3e
       -0.7548914 -1.1434942 0.0046299053 0.43930617

network_body._body_endoder.seq_layers.0.bias f4 [128]
000000 00 00 00 00 00 00 00 00 00 00 00 00 00 00 00 00
       0.0 0.0 0.0 0.0
000010 00 00 00 00 00 00 00 00 00 00 00 00 00 00 00 00
       0.0 0.0 0.0 0.0
000020 00 00 00 00 00 00 00 00 00 00 00 00 00 00 00 00
       0.0 0.0 0.0 0.0
000030 00 00 00 00 00 00 00 00 00 00 00 00 00 00 00 00
       0.0 0.0 0.0 0.0
000040 00 00 00 00 00 00 00 00 00 00 00 00 00 00 00 00
       0.0 0.0 0.0 0.0
000050 00 00 00 00 00 00 00 00 00 00 00 00 00 00 00 00
       0.0 0.0 0.0 0.0
000060 00 00 00 00 00 00 00 00 00 00 00 00 00 00 00 00
       0.0 0.0 0.0 0.0
000070 00 00 00 00 00 00 00 00 00 00 00 00 00 00 00 00
       0.0 0.0 0.0 0.0
000080 00 00 00 00 00 00 00 00 00 00 00 00 00 00 00 00
       0.0 0.0 0.0 0.0
000090 00 00 00 00 00 00 00 00 00 00 00 00 00 00 00 00
       0.0 0.0 0.0 0.0
0000a0 00 00 00 00 00 00 00 00 00 00 00 00 00 00 00 00
       0.0 0.0 0.0 0.0
0000b0 00 00 00 00 00 00 00 00 00 00 00 00 00 00 00 00
       0.0 0.0 0.0 0.0
0000c0 00 00 00 00 00 00 00 00 00 00 00 00 00 00 00 00
       0.0 0.0 0.0 0.0
0000d0 00 00 00 00 00 00 00 00 00 00 00 00 00 00 00 00
       0.0 0.0 0.0 0.0
0000e0 00 00 00 00 00 00 00 00 00 00 00 00 00 00 00 00
       0.0 0.0 0.0 0.0
0000f0 00 00 00 00 00 00 00 00 00 00 00 00 00 00 00 00
       0.0 0.0 0.0 0.0
000100 00 00 00 00 00 00 00 00 00 00 00 00 00 00 00 00
       0.0 0.0 0.0 0.0
000110 00 00 00 00 00 00 00 00 00 00 00 00 00 00 00 00
       0.0 0.0 0.0 0.0
000120 00 00 00 00 00 00 00 00 00 00 00 00 00 00 00 00
       0.0 0.0 0.0 0.0
000130 00 00 00 00 00 00 00 00 00 00 00 00 00 00 00 00
       0.0 0.0 0.0 0.0
000140 00 00 00 00 00 00 00 00 00 00 00 00 00 00 00 00
       0.0 0.0 0.0 0.0
000150 00 00 00 00 00 00 00 00 00 00 00 00 00 00 00 00
       0.0 0.0 0.0 0.0
000160 00 00 00 00 00 00 00 00 00 00 00 00 00 00 00 00
       0.0 0.0 0.0 0.0
000170 00 00 00 00 00 00 00 00 00 00 00 00 00 00 00 00
       0.0 0.0 0.0 0.0
000180 00 00 00 00 00 00 00 00 00 00 00 00 00 00 00 00
       0.0 0.0 0.0 0.0
000190 00 00 00 00 00 00 00 00 00 00 00 00 00 00 00 00
       0.0 0.0 0.0 0.0
0001a0 00 00 00 00 00 00 00 00 00 00 00 00 00 00 00 00
       0.0 0.0 0.0 0.0
0001b0 00 00 00 00 00 00 00 00 00 00 00 00 00 00 00 00
       0.0 0.0 0.0 0.0
0001c0 00 00 00 00 00 00 00 00 00 00 00 00 00 00 00 00
       0.0 0.0 0.0 0.0
0001d0 00 00 00 00 00 00 00 00 00 00 00 00 00 00 00 00
       0.0 0.0 0.0 0.0
0001e0 00 00 00 00 00 00 00 00 00 00 00 00 00 00 00 00
       0.0 0.0 0.0 0.0
0001f0 00 00 00 00 00 00 00 00 00 00 00 00 00 00 00 00
       0.0 0.0 0.0 0.0

network_body._body_endoder.seq_layers.2.weight f4 [128, 128]
000000 4c 6c 5d 3d 27 23 1a bd 9e 8c 34 bd 59 1f 6e bd
       0.054058358 -0.03763118 -0.044079416 -0.058135364
000010 b2 a3 91 bd e8 64 21 3c dc 16 65 3c d7 be 35 3d
       -0.071113005 0.009850718 0.013982501 0.044371452
000020 dd a2 2e bd b6 0a c9 bd 59 95 03 be 26 ef 15 3d
       -0.042635787 -0.09816496 -0.1284994 0.036605023
000030 60 48 7b bd d7 62 76 bd 9d 7c 93 bc f2 ca ae 3d
       -0.06134832 -0.060152855 -0.018003756 0.085348025
000040 f4 29 90 bd 33 0f e5 bb 9e 98 7b 3d 94 7c 72 bc
       -0.07039252 -0.0069903373 0.061424844 -0.01480021
000050 d7 d0 3e bc 80 20 81 3d 8f d7 8f bd 7e a0 a2 bb
       -0.011646471 0.06305027 -0.070235364 -0.00496298
000060 6e 49 4e bc c9 e7 8a 3d 96 ec c3 bd 88 60 98 bd
       -0.012590749 0.06782491 -0.095666096 -0.07440287
000070 b6 44 82 bb 3e 8b a8 bd 22 c0 99 3c 5c ba 93 3d
       -0.003975476 -0.08229683 0.018768374 0.072132796
000080 08 74 90 3d 7b 5e 4e 3e 02 96 05 3e c5 60 8a bc
       0.07053381 0.20153229 0.13045505 -0.016891846
000090 1f 1d 7a bd c0 05 9d bd 0b 21 92 3d 32 83 71 3b
       -0.06106293 -0.07667112 0.07135209 0.003685188
0000a0 18 40 56 be 4a a3 12 bd 79 f9 16 3d c7 1c 2e 3e
       -0.20922887 -0.035800256 0.03685901 0.17003165
0000b0 f8 ed 9d 3d db c7 98 3d 4b 21 f2 bb 0c e9 96 3c
       0.077114046 0.074599944 -0.0073892227 0.018421672
0000c0 99 97 74 3e 74 ab 4e ba da af 0a bc 08 ea f4 bc
       0.23885955 -0.0007883825 -0.008464778 -0.029896751
0000d0 ab 96 f6 3d 31 bc 4e be 8b 6a 9a bd a5 59 d1 bd
       0.120404564 -0.20188977 -0.07539853 -0.102221765
0000e0 1b 13 d8 3d e2 c6 02 3e d7 f0 35 be c9 75 90 3d
       0.10550519 0.1277118 -0.17767654 0.07053716
0000f0 c2 1d 97 3c 0d 5e a5 bd 8e 9e 0d 3d 1d fb 99 3d
       0.018446807 -0.080745794 0.034575038 0.07518599
000100 cc ca 8d 3d 44 f3 b1 bd ad 73 c8 3c 30 77 07 3d
       0.06923446 -0.08688977 0.024469221 0.03307265
000110 92 67 8c bb f7 85 d4 bd fa b4 0f be 45 52 01 3e
       -0.0042848075 -0.10377114 -0.14033881 0.1262904
000120 31 c2 04 3d d7 63 c3 3d 9f ec 09 be 27 49 ae bd
       0.032411758 0.09540527 -0.1346917 -0.085100465
000130 ef 3d 64 bd 9c ec 37 3d 7c 3e cc bd ab aa 8e 3d
       -0.055723127 0.044903383 -0.099728554 0.06966146
000140 a3 d4 4d 3c 67 61 03 3d 5d 94 0d be af ea fd 3d
       0.012562904 0.032075312 -0.13826127 0.12398278
000150 d9 f4 f9 3c a5 1c 68 3a 1c 65 02 be 2b 24 c9 bd
       0.03051226 0.0008854366 -0.12733883 -0.098213516
000160 79 e9 0b be ec 76 ba 3c c7 27 ed bd c9 f4 84 3c
       -0.13663282 0.022761784 -0.115798526 0.016230004
000170 2a 7e f0 3c 9c bc 38 3a 42 68 09 bd 05 ea bb bd
       0.029357035 0.0007047148 -0.033546694 -0.09175495
000180 85 a2 e9 3d 13 83 35 bd ab 9f 2a 3d 4e 62 0f be
       0.11407951 -0.044314455 0.041656177 -0.14002344
000190 d4 43 f3 bd 30 93 af bd 20 3d 11 bd 88 6e 05 be
       -0.118781716 -0.08572996 -0.035458684 -0.13030446
0001a0 bf 2f ae bc c5 8d be 3b bb da 51 3e 17 49 c4 bd
       -0.021263001 0.00581524 0.20493595 -0.09584253
0001b0 1c c7 be 3c 04 b2 21 3e 2d 56 70 3d 56 3e ed bd
       0.023288302 0.15790564 0.058675934 -0.11584155
0001c0 09 c6 b7 3d a1 19 9b bd 5a 0c 2c 3e 3f 53 18 bd
       0.08973319 -0.07573248 0.16801587 -0.037188765
0001d0 a7 6a 49 bd 51 49 33 be 64 79 4d bd 37 50 bf 3d
       -0.049173977 -0.17508437 -0.050164595 0.09341472
0001e0 44 8a 81 bd b2 fa 17 3e a8 19 d5 3c a8 a8 66 bd
       -0.063252 0.14841726 0.02601321 -0.056313187
0001f0 51 8a 76 bc cd c2 8f bc fb 2e 90 3c 0d 9d 0f 3d
       -0.015047626 -0.017548943 0.017600527 0.035061885
000200 18 20 ec 3d a2 06 94 3d b0 b4 8f 3c ed 68 47 3d
       0.11529559 0.072278276 0.017542213 0.04868405
000210 a4 35 df ba cf d9 f2 bb e6 fd 44 3e dd 0f 79 3c
       -0.0017029536 -0.0074112187 0.1923748 0.015201536
000220 7c 97 03 bd 89 fd e8 3d ad 9a 14 be 72 f1 3e be
       -0.03212689 0.11376483 -0.14512129 -0.18646792
000230 ee 93 f3 3d 2d ff 55 ba e4 31 1a be fd 44 21 3d
       0.1189345 -0.00081633293 -0.15058094 0.039372433
000240 c8 9f 05 ba cb 73 2e be ae 89 d8 3d 1a eb b0 bd
       -0.00050973566 -0.17036359 0.10573135 -0.08638592
000250 17 cf b7 bb 55 14 92 3d b2 58 a7 3d 10 a6 40 3c
       -0.005609404 0.07132784 0.08171214 0.011758342
000260 a4 58 47 bd c4 8b 19 be f9 7c af 3d 39 09 0f 3d
       -0.04866852 -0.14994723 0.085687585 0.034920905
000270 94 98 48 bd 88 09 15 3e d3 8e cf 3c 71 ac 4b 3e
       -0.048973635 0.14554417 0.025336659 0.1989
000280 26 5a 82 bd 46 dd 19 be ef 81 70 bd 00 c4 4d bd
       -0.06364851 -0.15025815 -0.058717664 -0.05023575
000290 28 d6 ba bd d5 41 d7 bd 7b 20 c3 bd c1 33 50 be
       -0.09122878 -0.10510603 -0.095276795 -0.20332243
0002a0 e6 13 06 be e8 49 22 bc cc c2 e3 bd f9 06 af 3d
       -0.13093528 -0.009905316 -0.11121139 0.08546252
0002b0 e7 5d 17 3d 05 09 f5 bc d4 72 72 be d4 83 2a bd
       0.036954787 -0.029911527 -0.23676616 -0.041629627
0002c0 58 0b cf bd 4f 36 8c bd 06 91 28 3e 5e 4f 83 3d
       -0.101095855 -0.06846296 0.16461572 0.064116225
0002d0 73 0c 89 3d 14 c6 26 3d 8c 0b 54 bd 23 00 13 bd
       0.066918276 0.040716246 -0.051768824 -0.035888802
0002e0 1d 36 19 3e fc e8 d8 3b 99 da 82 bc 12 55 15 bd
       0.14962049 0.006619571 -0.015973376 -0.036458082
0002f0 c6 0c a2 3d 3b 93 5c bc 28 59 d0 bd 47 fa cd 3d
       0.079125926 -0.013462837 -0.10173255 0.10057502
000300 70 8b 8a 3d ab 7b fc bd a7 26 da 3c 5f e1 c3 bd
       0.06764877 -0.12328275 0.026629759 -0.095644705
000310 70 8e 63 3d 3a 4e e9 3c 34 fe ac 3c a3 9c 05 be
       0.05555576 0.028479684 0.021117307 -0.13048033
000320 22 be f0 3d 8e d9 a4 bc 19 29 c2 bd 59 72 dc bd
       0.11755015 -0.02012327 -0.09480495 -0.107639976
000330 68 fa 2e bd 02 7e a5 bd 88 c4 b2 3d 72 9e 2c bd
       -0.042719275 -0.08080675 0.087288916 -0.042143293
000340 4d 2b 92 bd 7f a5 27 3d 6c 68 07 be b4 19 c0 3c
       -0.07137165 0.040929314 -0.13223428 0.023449756
000350 d7 5d a3 bd 9f 58 aa bd 8c 5d 41 bd e7 c8 b9 3d
       -0.07976883 -0.083176844 -0.047208354 0.09071522
000360 25 87 10 bc 9b d5 ec bd 54 5a f6 3d bd b1 29 3d
       -0.0088212835 -0.115641795 0.120289475 0.04142927
000370 68 7c 19 be 44 cc 82 3d fa fb 14 be 39 d4 62 3d
       -0.14988863 0.06386617 -0.14549246 0.055378173
000380 20 e6 ac 3d e2 d7 f8 3d 4a 44 82 bc 3d 55 ec 3d
       0.0844233 0.121505514 -0.015901703 0.115396954
000390 85 75 b8 bd ef 18 05 be bf 7d b4 3c 3e 42 a6 bc
       -0.0900679 -0.12997793 0.022032617 -0.020295259
0003a0 47 4f a2 3d fb 50 46 bd fa 75 c6 bd 4c 91 5c 3d
       0.07925277 -0.048417073 -0.09690471 0.053849503
0003b0 94 d2 bf bd 11 bc d4 bd f9 3e 4c 3d f5 58 51 3e
       -0.093663365 -0.10387433 0.049864743 0.2044409
0003c0 33 93 b7 bd 6a e3 af 3d c9 2b 4f 3c ae 88 5b bd
       -0.08963623 0.08588298 0.012644717 -0.053597145
0003d0 ae 36 54 3d af 64 b0 bd 3d 6a bd 3d e5 4c 50 3d
       0.05180996 -0.08612954 0.09248779 0.050854582
0003e0 cf a5 48 3d 5b 1f 30 be 64 39 c9 3d 56 d2 74 bd
       0.048986252 -0.17199461 0.098253995 -0.059770904
0003f0 c6 2a 77 3e 08 c2 03 be c4 14 4e 3b 1e c7 61 3d
       0.2413741 -0.12866986 0.0031445483 0.055121534

network_body._body_endoder.seq_layers.2.bias f4 [128]
000000 00 00 00 00 00 00 00 00 00 00 00 00 00 00 00 00
       0.0 0.0 0.0 0.0
000010 00 00 00 00 00 00 00 00 00 00 00 00 00 00 00 00
       0.0 0.0 0.0 0.0
000020 00 00 00 00 00 00 00 00 00 00 00 00 00 00 00 00
       0.0 0.0 0.0 0.0
000030 00 00 00 00 00 00 00 00 00 00 00 00 00 00 00 00
       0.0 0.0 0.0 0.0
000040 00 00 00 00 00 00 00 00 00 00 00 00 00 00 00 00
       0.0 0.0 0.0 0.0
000050 00 00 00 00 00 00 00 00 00 00 00 00 00 00 00 00
       0.0 0.0 0.0 0.0
000060 00 00 00 00 00 00 00 00 00 00 00 00 00 00 00 00
       0.0 0.0 0.0 0.0
000070 00 00 00 00 00 00 00 00 00 00 00 00 00 00 00 00
       0.0 0.0 0.0 0.0
000080 00 00 00 00 00 00 00 00 00 00 00 00 00 00 00 00
       0.0 0.0 0.0 0.0
000090 00 00 00 00 00 00 00 00 00 00 00 00 00 00 00 00
       0.0 0.0 0.0 0.0
0000a0 00 00 00 00 00 00 00 00 00 00 00 00 00 00 00 00
       0.0 0.0 0.0 0.0
0000b0 00 00 00 00 00 00 00 00 00 00 00 00 00 00 00 00
       0.0 0.0 0.0 0.0
0000c0 00 00 00 00 00 00 00 00 00 00 00 00 00 00 00 00
       0.0 0.0 0.0 0.0
0000d0 00 00 00 00 00 00 00 00 00 00 00 00 00 00 00 00
       0.0 0.0 0.0 0.0
0000e0 00 00 00 00 00 00 00 00 00 00 00 00 00 00 00 00
       0.0 0.0 0.0 0.0
0000f0 00 00 00 00 00 00 00 00 00 00 00 00 00 00 00 00
       0.0 0.0 0.0 0.0
000100 00 00 00 00 00 00 00 00 00 00 00 00 00 00 00 00
       0.0 0.0 0.0 0.0
000110 00 00 00 00 00 00 00 00 00 00 00 00 00 00 00 00
       0.0 0.0 0.0 0.0
000120 00 00 00 00 00 00 00 00 00 00 00 00 00 00 00 00
       0.0 0.0 0.0 0.0
000130 00 00 00 00 00 00 00 00 00 00 00 00 00 00 00 00
       0.0 0.0 0.0 0.0
000140 00 00 00 00 00 00 00 00 00 00 00 00 00 00 00 00
       0.0 0.0 0.0 0.0
000150 00 00 00 00 00 00 00 00 00 00 00 00 00 00 00 00
       0.0 0.0 0.0 0.0
000160 00 00 00 00 00 00 00 00 00 00 00 00 00 00 00 00
       0.0 0.0 0.0 0.0
000170 00 00 00 00 00 00 00 00 00 00 00 00 00 00 00 00
       0.0 0.0 0.0 0.0
000180 00 00 00 00 00 00 00 00 00 00 00 00 00 00 00 00
       0.0 0.0 0.0 0.0
000190 00 00 00 00 00 00 00 00 00 00 00 00 00 00 00 00
       0.0 0.0 0.0 0.0
0001a0 00 00 00 00 00 00 00 00 00 00 00 00 00 00 00 00
       0.0 0.0 0.0 0.0
0001b0 00 00 00 00 00 00 00 00 00 00 00 00 00 00 00 00
       0.0 0.0 0.0 0.0
0001c0 00 00 00 00 00 00 00 00 00 00 00 00 00 00 00 00
       0.0 0.0 0.0 0.0
0001d0 00 00 00 00 00 00 00 00 00 00 00 00 00 00 00 00
       0.0 0.0 0.0 0.0
0001e0 00 00 00 00 00 00 00 00 00 00 00 00 00 00 00 00
       0.0 0.0 0.0 0.0
0001f0 00 00 00 00 00 00 00 00 00 00 00 00 00 00 00 00
       0.0 0.0 0.0 0.0

action_model._continuous_distribution.log_sigma f4 [1, 2]
000000 00 00 00 00 00 00 00 00
       0.0 0.0

action_model._continuous_distribution.mu.weight f4 [2, 128]
000000 d5 3a 15 3b 12 3d fd 3c bb 6e 97 bb e9 6f 00 3c
       0.0022770662 0.03091291 -0.0046213544 0.007839181
000010 d1 1b 25 ba 5f f4 df 3b d4 9c a8 bc c0 46 56 3b
       -0.00062983955 0.006834551 -0.020582594 0.003269598
000020 9b a3 0f bc 9b 43 c4 ba 9b 83 98 b9 a8 b0 f7 bc
       -0.008767034 -0.0014973761 -0.00029089753 -0.030235603
000030 c8 30 68 3c 68 0a 22 bd eb a3 81 3b 2b 70 6f 3c
       0.014171787 -0.039560705 0.003956308 0.014614145
000040 24 b4 43 bc 72 bf 71 bb 84 db 8f 3c bf d8 e4 bc
       -0.011944804 -0.0036887792 0.017560728 -0.027935384
000050 42 16 a5 3b 88 1b bd 3a 03 0a e3 3b 59 6c 80 bc
       0.0050380537 0.0014427761 0.0069286837 -0.015676664
000060 c0 90 ec 3c 22 b9 4f bc a3 d7 2b bc 42 b4 eb 3c
       0.028877616 -0.012678416 -0.0104884235 0.028772477
000070 c7 cc ef bc 03 18 5a b9 53 98 4c bb b6 a6 ba bc
       -0.02927245 -0.00020799045 -0.0031218722 -0.022784572
000080 d8 e7 8b 3b 54 e8 90 3c 31 76 03 3c 5f b8 2a 39
       0.0042695813 0.017688908 0.0080237845 0.00016281147
000090 f0 1d e2 ba fb fa 53 3c 17 8f f6 bb ef 67 56 bb
       -0.0017251354 0.012938256 -0.007524382 -0.0032715758
0000a0 0a 01 87 bb f9 8c 3e 3b 3e 20 a4 bc a3 6f c6 3c
       -0.004119997 0.0029075725 -0.020034906 0.024223154
0000b0 33 c7 02 3c f1 3b 0f bc 6f c2 91 3c 5d 32 9c ba
       0.007982063 -0.0087423185 0.017792908 -0.0011916865
0000c0 c9 48 b7 3b 2f a3 0d bd 9d f9 a4 bb cf c0 13 3c
       0.0055933935 -0.034579452 -0.005034639 0.009018137
0000d0 07 36 07 bd 70 4e 2e bc c8 59 0b 3b 4d 31 98 bc
       -0.03301051 -0.010638818 0.002126323 -0.018578196
0000e0 4a 04 3f bc 3b 2c ab 3b 7e cb 10 3c 08 96 04 bb
       -0.011658737 0.0052237785 0.008837579 -0.0020231027
0000f0 68 b7 9e 3c 7b 4b e9 bc 3a df 29 3c 2d e2 64 bc
       0.019374564 -0.028478375 0.010368163 -0.01396994
000100 ef ab b3 3b 30 49 e6 3a 4f 5b d1 bc d4 40 3f bc
       0.0054831426 0.0017569419 -0.025556235 -0.011673171
000110 8b c8 a4 bc 90 cc 60 3c d5 62 2a 3c 97 ae c7 3c
       -0.020115158 0.0137206465 0.01039954 0.024375243
000120 38 f5 d5 bb 32 ca 02 bc 9e d0 21 bc 07 b4 90 bc
       -0.0065294765 -0.007982777 -0.009876398 -0.017663969
000130 26 bc 4b bb 66 8d b1 bb 30 27 9a bd 6d 7f 21 bc
       -0.0031087487 -0.0054184673 -0.07527006 -0.009857041
000140 6d 78 e7 3c 43 94 d6 bc fb 22 64 3c 97 6c 43 3c
       0.028255666 -0.026193744 0.013924356 0.011927745
000150 5d 17 b2 bc 2b 71 38 bc 91 9f 40 3c 7d 5f 89 3c
       -0.021739656 -0.01125745 0.011756794 0.016769165
000160 88 c0 f7 b9 33 53 ed ba 7c 0d 81 3b a0 1e 26 bc
       -0.00047254958 -0.001810646 0.003938375 -0.0101391375
000170 d7 16 14 bc 6d 33 05 3d 57 ba cb bb 65 ec 37 3c
       -0.009038649 0.032519747 -0.006217282 0.011225794
000180 20 e0 c6 3b ab 6b 52 bb 1e 4e 10 bc 3c cf 1f 3a
       0.0060691983 -0.0032107632 -0.008807687 0.0006096249
000190 38 30 ce bb 38 66 12 bc 4d 18 ad 3b 73 a5 7c bb
       -0.006292369 -0.008935504 0.005282438 -0.0038550764
0001a0 18 09 cb bc b2 81 24 3c 98 49 4c 3c 3f c6 6a 3c
       -0.02478461 0.010040687 0.012468718 0.014329492
0001b0 06 5f 8d 3b 43 15 8a 3b 53 2e 8e 3c b3 0f 8f bc
       0.004314306 0.0042139604 0.017356073 -0.01746354
0001c0 ba 21 14 3c b5 20 0a bc 5a 11 d3 3b 1c 17 1b bb
       0.009041244 -0.0084306495 0.0064412775 -0.0023664897
0001d0 46 69 3f bc 8f 87 ca bc 25 e7 a4 3a 9a 8a 3c bb
       -0.011682814 -0.024722842 0.0012581093 -0.0028769136
0001e0 38 38 5e bc c3 80 ff ba 78 fc 2e bc d2 61 d0 3b
       -0.013563208 -0.001949333 -0.01068031 0.0063593173
0001f0 4c c6 2e bc 3b 26 cf 3c b7 e2 70 3c 9b 46 85 bc
       -0.010667395 0.025286784 0.0147024905 -0.016269019
000200 32 a7 ad 3b fb 56 05 bb 97 8c 02 3c f0 88 8c 3c
       0.0052994723 -0.0020346034 0.00796809 0.01715514
000210 f2 7c 6a bb e7 c7 2e bc 70 8b 35 bd c2 a7 fd bb
       -0.003578004 -0.010667778 -0.04432243 -0.0077409456
000220 6d be e9 bc 24 30 39 bc 20 3e ac bc fd be ac bc
       -0.028533185 -0.0113029815 -0.021025717 -0.021087164
000230 75 6d d6 bb ff d3 28 3c 5d 60 18 ba 91 59 bd 3b
       -0.00654381 0.01030445 -0.0005812699 0.0057784994
000240 06 9e 8d 3c c8 1e 09 bb 4f 95 b4 bb 6d 7e e9 3b
       0.017287266 -0.0020922888 -0.005510963 0.007125667
000250 d6 84 b0 3c 09 7e 97 b9 b4 37 03 bb 7e 46 bc 3b
       0.021547716 -0.00028894868 -0.0020022215 0.005745708
000260 62 15 5d bc cb c4 cd ba 48 c1 54 3c 25 34 60 bc
       -0.013493868 -0.0015698908 0.012985535 -0.013684307
000270 ed 6c fc 3b dc 94 03 3c ac d5 8e bc c2 ba 98 bc
       0.0077034147 0.008031096 -0.017435871 -0.01864374
000280 50 5e 8c bb 9a fb 27 bc 46 c4 04 3d 2b 48 29 bc
       -0.004283704 -0.010252858 0.032413743 -0.010332148
000290 6e 26 18 bc 79 2c 40 bc 78 6f 36 bb 31 e5 30 bb
       -0.009286506 -0.011729353 -0.0027837437 -0.0026992077
0002a0 ab 13 43 bc 4f 56 dd 3c 60 d1 6b 3a 86 28 8b 3c
       -0.011906545 0.027018694 0.0008995738 0.016987097
0002b0 e8 a1 c4 3c 91 2c b9 3a f0 19 4d bc 4b 2e 80 3c
       0.024002984 0.0014127662 -0.012518391 0.015647074
0002c0 6d 95 8a 3c 43 23 52 bc 88 74 b5 3c 60 74 7e bb
       0.016916955 -0.01282579 0.022150293 -0.003882669
0002d0 dd aa 05 3c c4 c1 0b bc ac e6 b3 3a e9 1e 83 bb
       0.008158413 -0.008530084 0.0013725362 -0.0040014875
0002e0 68 d2 4f 3c 4f be f4 3b 87 41 1d 3c bf 7c 9c 3c
       0.012684442 0.0074689756 0.0095981425 0.019102452
0002f0 4f a0 10 3c 6b 95 52 3b 38 51 ce bc 37 b4 11 bd
       0.008827283 0.0032132517 -0.025185212 -0.035572257
000300 37 ca d4 bc ca 63 97 ba bb 64 05 bd 48 54 bd 3b
       -0.02597533 -0.0011550125 -0.032566767 0.0057778694
000310 8e 75 23 3c 12 5a 7f 3c a7 c5 87 bc 62 0a 72 3c
       0.009976758 0.015585439 -0.01657374 0.014772983
000320 b1 b1 17 bc 2c 4d a1 3c e7 f7 b7 bc 37 74 c2 3c
       -0.0092586735 0.019690119 -0.022457076 0.023737056
000330 70 81 5e bb 4b 1d 9d ba 0b 47 b2 ba 33 3b 4e 3c
       -0.0033951662 -0.0011986879 -0.0013601495 0.012587356
000340 3b 5a a5 bb e8 00 c3 3c de 5d 13 bd 70 66 fb bc
       -0.0050461567 0.023804143 -0.03597819 -0.030688494
000350 68 56 73 bc d0 f2 2f 3a 55 ee 05 bd ac b0 b8 bc
       -0.014852144 0.0006711902 -0.032697994 -0.022545181
000360 3f 36 7d bb 96 88 89 bc ea 2b 4e 3c 3a 33 dc 3a
       -0.003863707 -0.016788762 0.012583712 0.0016799935
000370 20 13 09 bc 70 f3 3c 3c 9b 9d 33 3c 1f 96 04 3c
       -0.008366376 0.011532649 0.010962869 0.008092432
000380 ff db b1 ba d6 29 44 bb f3 38 b8 3c e0 00 89 3b
       -0.0013569592 -0.0029932163 0.022488093 0.0041810125
000390 82 8a 61 bc b3 83 c0 bc 07 e7 2c bc a7 38 96 bc
       -0.013765933 -0.0235003 -0.010553128 -0.01833756
0003a0 73 fc 68 3c 7d 25 0a 3c 00 07 88 bb 44 3b ac 3c
       0.014220345 0.008431789 -0.004151225 0.021024354
0003b0 2d 74 19 3b 66 5b c0 bc ab 6f 8b bc 4b 4c 1f 3c
       0.0023415193 -0.023481082 -0.01702102 0.0097227795
0003c0 f3 20 b9 3c 08 c5 eb bb 82 26 cd 3c b5 36 ff 3b
       0.02259872 -0.007195119 0.025042776 0.007788504
0003d0 eb 85 23 bd 53 b6 17 ba bd 94 8e 3c 9f 48 27 bc
       -0.039922636 -0.00057873613 0.017404908 -0.010210185
0003e0 67 09 ab 39 1f bd 47 bc 51 0c 95 bb bf 04 38 3b
       0.00032622667 -0.012191086 -0.0045485874 0.0028079
0003f0 e3 55 b8 bc 43 3c 0a bb 6f 5f 35 3c 13 26 2c 3c
       -0.022501891 -0.0021093048 0.011070116 0.0105071245

action_model._continuous_distribution.mu.bias f4 [2]
000000 00 00 00 00 00 00 00 00
       0.0 0.0

network_body._body_endoder.seq_layers.0.weight f4 [128, 6]
000000 a8 3e 26 bf 89 5e 76 bd 10 7a 4d 3d 29 56 5d 3e
       -0.64939356 -0.06014875 0.050165236 0.21614899
000010 79 55 a3 3f 51 9c cd 3e 53 ed 37 3e 67 9c 9a be
       1.2760459 0.40158322 0.17961626 -0.3019745
000020 73 3b da bd ee 0b 58 bf 84 79 e0 be dc 1c 64 3d
       -0.1065587 -0.84393203 -0.4384271 0.055691585
000030 49 e9 53 bd 43 5f a6 3e 25 14 be 3a 33 5e 14 be
       -0.05173615 0.32494554 0.0014501853 -0.14489059
000040 59 cc 04 be e0 d1 2f bf 12 47 22 be ac 03 23 3d
       -0.12968577 -0.6867962 -0.15847424 0.039798424
000050 05 42 29 3e a8 7b 2f 3f 24 98 c2 3c 15 0f 5c bf
       0.1652909 0.6854806 0.023754187 -0.85960513
000060 e7 d1 a8 be 12 2f 94 3d ab 69 a5 be bc 0e 67 bd
       -0.32972643 0.072355404 -0.3230718 -0.056410536
000070 64 2b fd 3e 19 b9 f1 be 5d 3a 21 bd ee fc 2d be
       0.49447167 -0.4721153 -0.0393623 -0.16991016
000080 e0 c3 e2 be 76 49 54 be cf af 8c 3f 5f aa d1 3e
       -0.44290066 -0.20731148 1.0991153 0.40950295
000090 c8 18 76 be 71 af 55 3e 4d 83 77 be 7e d9 6b be
       -0.24032891 0.20867707 -0.24171181 -0.23032185
0000a0 b3 87 68 3f 5f da 53 be 73 24 0a bf e4 6f 3b bd
       0.9083206 -0.2068877 -0.5396187 -0.045761004
0000b0 b8 fe 51 3d 7c c2 00 be bc 08 8a bd 0a da 8a ba
       0.05126831 -0.1257419 -0.06739947 -0.0010593545
0000c0 b5 fd bc be 17 97 0e 3e 01 a6 c7 be f5 e9 a4 3e
       -0.36912313 0.13924824 -0.38993838 0.32209745
0000d0 32 bd 7e 3e 1e b9 a4 3e a9 d6 b6 3e 5d d8 4c be
       0.2487686 0.32172483 0.35710648 -0.20004411
0000e0 31 6c 24 be 84 c9 95 be 17 6c 60 be c6 c9 f1 3e
       -0.16056897 -0.29255307 -0.21916233 0.47224253
0000f0 97 3d d1 3e cf c2 52 3f ba e3 6f be 95 1c 63 be
       0.40867302 0.82328504 -0.23426715 -0.22178872
000100 23 81 a0 3e d4 a0 c4 3a e5 4a 87 3e 62 6a 04 bf
       0.31348523 0.0015001544 0.26424327 -0.5172483
000110 ed fd 4d 3d 86 af ca be 28 0e a3 be 03 e7 cd 3d
       0.05029099 -0.3958704 -0.31846738 0.100538276
000120 ea 4e b6 3e 85 f5 ce bd 6b bb 04 3f 45 4e 03 3f
       0.35607082 -0.10105423 0.5184848 0.51291305
000130 1c d6 ac 3e d5 0f a6 bd 4d ec 9e be 46 b0 d7 bd
       0.33757102 -0.081084885 -0.31039658 -0.10531668
000140 b7 e2 86 3e ca 55 f2 3c a9 9f 1a 3e c2 8a 85 be
       0.26344845 0.029581923 0.15099968 -0.26082426
000150 e3 b9 cf be b5 f1 09 3f cd 6a 42 3f 5e 6a 02 bd
       -0.40571508 0.5388444 0.75944215 -0.03183972
000160 cf 37 05 bf ff a6 11 3f f8 af 04 3f 50 07 6e bd
       -0.5203828 0.5689544 0.51831007 -0.058112442
000170 fc 23 a3 3d 34 14 e6 3e 41 ba 30 bf cf f4 3e bc
       0.07965848 0.4493729 -0.690342 -0.011655047
000180 bf 07 2a 3f a9 3f 9a 3e 75 98 3d be b3 5c 92 3d
       0.6641807 0.30126694 -0.18515189 0.07146587
000190 cd 8c 9d 3e 03 d9 45 be d9 59 f2 be 1a ff d1 bd
       0.30771485 -0.19321065 -0.47334173 -0.10253735
0001a0 97 b7 f4 be aa 43 c5 bd 09 56 44 3e 38 75 a4 3d
       -0.47796318 -0.096320465 0.19173445 0.0803017
0001b0 4f 5f 44 3e a6 20 53 be 94 df d3 3e 30 60 b0 3e
       0.19176982 -0.20617923 0.41381514 0.34448385
0001c0 ff ff 67 3d 61 3a fb be 85 7a eb be 9e aa 33 bf
       0.05664062 -0.49067977 -0.45991912 -0.70182216
0001d0 87 92 4a 3e e4 7c 1b 3f fb ad c9 be 2b d9 9e bf
       0.19782458 0.6073744 -0.3939055 -1.2410024
0001e0 88 2e 02 3f a9 8e 61 be 47 d7 67 3e b6 8d ac bd
       0.5085225 -0.22027077 0.22640716 -0.08425467
0001f0 4f 59 9c 3e 8c 7a b5 bd 11 9a 1d 3f b5 ba 49 3f
       0.30536887 -0.088612646 0.6156321 0.7880052
000200 f8 f7 04 3e 3a 21 8b bd 48 67 03 3f bb f0 09 bf
       0.12985218 -0.06793447 0.5132947 -0.5388295
000210 c9 ea 44 be b7 11 1d 3f 90 0c 1e 3d aa 4c 98 bc
       -0.19230188 0.61355156 0.0385862 -0.018591244
000220 03 5e f4 bd 06 6a ca be 39 fe c8 3e a9 75 24 bf
       -0.11931994 -0.39534014 0.39256456 -0.64242035
000230 17 1a 68 3f a2 30 d8 bd fe 88 15 be 10 93 00 be
       0.9066481 -0.10556151 -0.1460304 -0.125561
000240 5f a1 18 be 86 50 9d be 17 72 a5 3d d5 e5 da bd
       -0.14905308 -0.30725497 0.080784015 -0.10688368
000250 bb 37 67 be be 12 c3 3e e3 48 12 3e d1 62 6b 3e
       -0.22579853 0.38100237 0.14285617 0.22986914
000260 9c 72 ae be 80 a8 1b 3e 3c c9 e0 3d 39 e3 1f bf
       -0.34071815 0.15200996 0.109758824 -0.6245609
000270 16 31 dd 3d 38 ae de 3c ae 26 4d 3c 24 ff 74 3e
       0.10800378 0.027182683 0.012521429 0.23925453
000280 3d 92 bd 3e 13 92 81 be 7f 15 dd be 01 c6 cc 3d
       0.37025633 -0.25306758 -0.43180463 0.09998704
000290 7e 66 6a be 38 34 1f 3e 06 88 c0 3d 3e f2 a6 3e
       -0.2289066 0.15547264 0.094009444 0.3260669
0002a0 26 ef 11 bf d9 63 cd be ca c7 31 3f 60 04 f4 3d
       -0.57005537 -0.4011524 0.6944548 0.11914897
0002b0 a7 0c 11 3f 06 37 1c 3e 3a 14 1c 3e 74 e2 21 bf
       0.5665993 0.15255365 0.15242091 -0.63236165
0002c0 a3 76 97 3e 44 fa aa 3c ea b8 d1 3d d5 c6 ce be
       0.295827 0.02087129 0.10240348 -0.40386072
0002d0 2d 65 24 be 8e 07 a6 3e d7 04 38 3e 7b 45 45 3e
       -0.1605422 0.3242764 0.17970596 0.19264786
0002e0 25 13 df 3e e4 99 c2 be 05 cc cd 3c d1 3e f7 be
       0.43569294 -0.38008034 0.025121698 -0.48290113
0002f0 31 23 93 3d 66 40 9f 3e 06 fd fb 3e 43 d0 fe be
       0.071844466 0.3110382 0.4921648 -0.49768266
000300 9b 80 64 bf e9 fb f8 be bb 6c 22 be 24 11 eb 3e
       -0.89258736 -0.48629692 -0.1586179 0.45911515
000310 c3 80 0d bf 1f 67 62 3f 36 ca 1f bf 26 19 26 3f
       -0.552746 0.884386 -0.62417924 0.64882123
000320 2d 5a da be f0 9f b2 3e 00 d2 95 be d0 01 98 3e
       -0.42646924 0.34887648 -0.2926178 0.29688883
000330 83 25 3d 3e c5 4c 07 bf a9 9c bb 3e e1 00 e2 3e
       0.18471341 -0.52851516 0.3664296 0.44141296
000340 f8 64 6a bd 85 8d 99 3f b4 c5 4e be 17 5d 36 be
       -0.057225198 1.1996313 -0.20192605 -0.17808948
000350 1d e3 0e 3e 74 fa 8d be 52 56 a4 bf 41 35 28 be
       0.13953824 -0.27730143 -1.2838843 -0.16426565
000360 8a 3b 99 be 14 a7 65 3e 08 cc 02 3f b7 1c f5 3e
       -0.29928237 0.22427016 0.51092577 0.4787347
000370 6c e4 71 3e 82 7c 29 3e a9 76 b7 be 2b ed ab bc
       0.23622292 0.16551402 -0.35832718 -0.020987114
000380 6d d9 44 3d 65 08 4a 3e 07 94 02 3f c9 5c 1a bf
       0.048058916 0.19729765 0.5100712 -0.6029783
000390 d1 6c 08 bf e6 44 1c 3f ef 7a 94 be 7d 55 69 3e
       -0.5329104 0.6104263 -0.2900004 0.22786517
0003a0 b1 b8 c9 bd c4 82 82 be 66 38 b1 be 4d a5 0a be
       -0.0984968 -0.2549039 -0.3461334 -0.1353962
0003b0 9d 8c da 3c 69 15 1d 3e c7 d4 33 be eb 6d 67 3e
       0.026678378 0.15340199 -0.17561637 0.22600524
0003c0 7b a8 d3 3e 65 b7 20 bf f0 8a ed 3e f6 3d a5 be
       0.41339478 -0.6277984 0.46395063 -0.32273835
0003d0 b4 02 86 bb ca 36 0e bf 07 3c 5c be 49 60 a4 bd
       -0.0040896777 -0.5555235 -0.21507274 -0.080261774
0003e0 d6 ae d9 3d a2 30 1d 3f f1 32 f0 bc d6 ef 55 3e
       0.106290504 0.6140233 -0.029321166 0.20892271
0003f0 f0 b2 40 bf 69 fb fd bd b3 3f 05 3d de e0 06 3f
       -0.75273037 -0.12401468 0.03253145 0.5268687

network_body._body_endoder.seq_layers.0.bias f4 [128]
000000 00 00 00 00 00 00 00 00 00 00 00 00 00 00 00 00
       0.0 0.0 0.0 0.0
000010 00 00 00 00 00 00 00 00 00 00 00 00 00 00 00 00
       0.0 0.0 0.0 0.0
000020 00 00 00 00 00 00 00 00 00 00 00 00 00 00 00 00
       0.0 0.0 0.0 0.0
000030 00 00 00 00 00 00 00 00 00 00 00 00 00 00 00 00
       0.0 0.0 0.0 0.0
000040 00 00 00 00 00 00 00 00 00 00 00 00 00 00 00 00
       0.0 0.0 0.0 0.0
000050 00 00 00 00 00 00 00 00 00 00 00 00 00 00 00 00
       0.0 0.0 0.0 0.0
000060 00 00 00 00 00 00 00 00 00 00 00 00 00 00 00 00
       0.0 0.0 0.0 0.0
000070 00 00 00 00 00 00 00 00 00 00 00 00 00 00 00 00
       0.0 0.0 0.0 0.0
000080 00 00 00 00 00 00 00 00 00 00 00 00 00 00 00 00
       0.0 0.0 0.0 0.0
000090 00 00 00 00 00 00 00 00 00 00 00 00 00 00 00 00
       0.0 0.0 0.0 0.0
0000a0 00 00 00 00 00 00 00 00 00 00 00 00 00 00 00 00
       0.0 0.0 0.0 0.0
0000b0 00 00 00 00 00 00 00 00 00 00 00 00 00 00 00 00
       0.0 0.0 0.0 0.0
0000c0 00 00 00 00 00 00 00 00 00 00 00 00 00 00 00 00
       0.0 0.0 0.0 0.0
0000d0 00 00 00 00 00 00 00 00 00 00 00 00 00 00 00 00
       0.0 0.0 0.0 0.0
0000e0 00 00 00 00 00 00 00 00 00 00 00 00 00 00 00 00
       0.0 0.0 0.0 0.0
0000f0 00 00 00 00 00 00 00 00 00 00 00 00 00 00 00 00
       0.0 0.0 0.0 0.0
000100 00 00 00 00 00 00 00 00 00 00 00 00 00 00 00 00
       0.0 0.0 0.0 0.0
000110 00 00 00 00 00 00 00 00 00 00 00 00 00 00 00 00
       0.0 0.0 0.0 0.0
000120 00 00 00 00 00 00 00 00 00 00 00 00 00 00 00 00
       0.0 0.0 0.0 0.0
000130 00 00 00 00 00 00 00 00 00 00 00 00 00 00 00 00
       0.0 0.0 0.0 0.0
000140 00 00 00 00 00 00 00 00 00 00 00 00 00 00 00 00
       0.0 0.0 0.0 0.0
000150 00 00 00 00 00 00 00 00 00 00 00 00 00 00 00 00
       0.0 0.0 0.0 0.0
000160 00 00 00 00 00 00 00 00 00 00 00 00 00 00 00 00
       0.0 0.0 0.0 0.0
000170 00 00 00 00 00 00 00 00 00 00 00 00 00 00 00 00
       0.0 0.0 0.0 0.0
000180 00 00 00 00 00 00 00 00 00 00 00 00 00 00 00 00
       0.0 0.0 0.0 0.0
000190 00 00 00 00 00 00 00 00 00 00 00 00 00 00 00 00
       0.0 0.0 0.0 0.0
0001a0 00 00 00 00 00 00 00 00 00 00 00 00 00 00 00 00
       0.0 0.0 0.0 0.0
0001b0 00 00 00 00 00 00 00 00 00 00 00 00 00 00 00 00
       0.0 0.0 0.0 0.0
0001c0 00 00 00 00 00 00 00 00 00 00 00 00 00 00 00 00
       0.0 0.0 0.0 0.0
0001d0 00 00 00 00 00 00 00 00 00 00 00 00 00 00 00 00
       0.0 0.0 0.0 0.0
0001e0 00 00 00 00 00 00 00 00 00 00 00 00 00 00 00 00
       0.0 0.0 0.0 0.0
0001f0 00 00 00 00 00 00 00 00 00 00 00 00 00 00 00 00
       0.0 0.0 0.0 0.0

network_body._body_endoder.seq_layers.2.weight f4 [128, 128]
000000 7d db 5a bd ee 15 d9 bc fc 99 9f 3d 2a 31 0a 3e
       -0.053431977 -0.026499715 0.07793042 0.13495317
000010 6d e9 19 3e b0 fe a7 bd 0a 19 05 3e 32 c4 76 bd
       0.15030451 -0.08202875 0.12997833 -0.0602457
000020 0f 9e c7 bc 55 ed 03 be 64 bc 78 3d e9 2e fc bd
       -0.02436736 -0.12883504 0.06072654 -0.12313635
000030 90 86 8d bd 3a 3d 4c 3e 8f 04 97 3d 86 c0 19 be
       -0.069104314 0.19945231 0.07373916 -0.15014848
000040 2a 82 85 bd 34 4d 88 bc f9 e9 b4 3d 63 aa c2 bd
       -0.065189674 -0.016638376 0.08833689 -0.09505155
000050 3e 08 9f 3c 43 ae 93 3c df 74 d9 bd 6d ad 9e bd
       0.01941311 0.01802743 -0.106179945 -0.07747922
000060 15 95 9c 3c 47 16 18 bc da a6 ad bd e3 b3 64 3c
       0.019114057 -0.009282655 -0.0847909 0.013958904
000070 e1 00 20 3d 7a 12 07 3d 10 3a 03 3e 69 00 40 bd
       0.03906334 0.032976605 0.12815118 -0.04687539
000080 89 16 a6 3d 28 e8 89 3d d9 43 2f 3d bb 83 de 3b
       0.08109767 0.067337334 0.042789314 0.006790606
000090 07 4f 1e 3e a6 ac 55 bc dc 1f 8d bd 06 7f 98 3d
       0.15459834 -0.013041651 -0.06890842 0.07446103
0000a0 ef 2b 07 3e ae 7c f7 3c 52 a7 bc 3d 49 d5 05 be
       0.13200353 0.03021082 0.09211601 -0.13069643
0000b0 54 6d d4 bd 45 5e 0d bc a2 3a 21 be ad 2f 91 bd
       -0.10372415 -0.008628433 -0.15745023 -0.070891716
0000c0 bb ba 91 bd 91 fb 85 bc 2c eb c8 bd c6 d2 35 bd
       -0.07115694 -0.016355308 -0.098104805 -0.044390462
0000d0 b5 07 cf bd 59 89 57 bd fb 33 85 3d 6b 53 a1 3c
       -0.10108892 -0.05262122 0.06504055 0.019693097
0000e0 48 1d bc 3d b7 f3 1c bb ae bf a1 bc 25 1d c0 3d
       0.091852725 -0.0023948976 -0.01974472 0.09380559
0000f0 59 8d 52 bd 19 4f 3b 3c e1 8f 84 3c 4a f6 29 3e
       -0.05140433 0.011432433 0.016181888 0.16597858
000100 e0 61 bf 3d 4d 15 6f 3d a3 55 9c bd 3c 94 97 3b
       0.0934484 0.058369923 -0.076335214 0.004625825
000110 fb a2 0c 3e f8 01 e2 bc 80 c6 fa 3c a4 c6 c1 bb
       0.13734047 -0.02758883 0.03061223 -0.0059135724
000120 6c cb e3 3d de e9 9e bd d2 47 0a 3d 04 77 dd bd
       0.11122784 -0.077594504 0.0337599 -0.10813716
000130 95 d0 2d 3d 3e f6 a2 3c b6 4c f5 bd ff 3e 2a bd
       0.042435247 0.019892808 -0.11977522 -0.041563984
000140 54 23 8a bd 79 c1 eb bd 00 e4 c5 3c 3b 8a 3e 3e
       -0.067450196 -0.11511511 0.02415657 0.18607418
000150 d9 6e 01 bb 67 ec bf bb c7 cf 0e bd dd d5 b4 bd
       -0.0019749908 -0.005857039 -0.03486612 -0.08829854
000160 e2 0c 27 3c bb 46 87 bd c5 1a 9f bd 9b 66 b2 bd
       0.010195943 -0.06605288 -0.07768778 -0.08710977
000170 02 6c 53 bb 4d d6 29 bb a1 ff 0d be b2 d4 37 bc
       -0.0032260423 -0.0025915087 -0.13867046 -0.011220144
000180 9f d7 a9 bd 6f f8 7e 3d bb 07 7b 3d 8b 37 cd 3c
       -0.082930796 0.062248643 0.06128667 0.025050899
000190 30 35 77 bd 6e 22 b2 bd 01 3a 8f 3c e7 e6 c0 bb
       -0.060353458 -0.08697973 0.017483713 -0.0058869007
0001a0 8e 23 c9 3c c2 c6 26 bc ad 9c e2 bc 14 f1 6c bd
       0.024553087 -0.0101792235 -0.0276626 -0.057847098
0001b0 74 0c 3a 3e b2 06 1c bd 82 3c 34 bd af b5 c0 bd
       0.18168813 -0.038092323 -0.044003017 -0.094096534
0001c0 fe a5 c8 bc a1 09 0a 3e 6c ab 5d 3d 9f 27 89 bd
       -0.024493214 0.13480236 0.05411856 -0.0669701
0001d0 8e 0c cb bd 2f 5d f0 3d 74 55 21 bd d5 f9 29 3d
       -0.09914504 0.11736523 -0.039388135 0.041498024
0001e0 22 ef 13 bd 62 6f d5 bc f4 cf a1 3b bb ab 28 3d
       -0.036116727 -0.026054088 0.00493812 0.0411794
0001f0 c8 ad ed bc ce 6b ea bc 92 e4 d2 3c a2 0c 1b be
       -0.02901353 -0.028615858 0.025743756 -0.15141538
000200 39 e8 6b bd 27 d1 93 bd ec b7 55 3e 34 c4 5d 3b
       -0.05759451 -0.07217627 0.20870942 0.003383887
000210 f1 93 17 3e d0 1f 0e be fb a9 c2 bd 9a e4 06 bd
       0.14802529 -0.13879323 -0.095050775 -0.032932855
000220 14 3d d4 bd 62 dc 7c 3d 40 f6 d9 3c 61 6b fd bd
       -0.10363212 0.06173361 0.026606679 -0.123739965
000230 95 11 96 bd 61 cc 01 bd 86 b8 90 3c 2f 3b 06 3e
       -0.07327572 -0.03168905 0.017666113 0.13108514
000240 ac 5b 2d 3e 3b 42 3d be c4 1d 16 3d cf 9f f6 3d
       0.16929501 -0.18482296 0.03664948 0.120422
000250 f3 9f 47 bd bc 15 a2 3d af 75 d0 3b d7 5c ba bd
       -0.048736524 0.07914302 0.006361685 -0.09099739
000260 09 71 ef 3d 4f eb ef 3d 0d 87 99 3d 5f d9 1b 3d
       0.116914816 0.117148034 0.07496462 0.038049098
000270 2c 5f a2 39 d8 85 9d bd e2 62 8c bd 2e f8 10 bd
       0.00030969956 -0.07691544 -0.06854798 -0.035392933
000280 8f ce bf bc 2b ff 67 bd 74 a6 26 3e e6 81 b7 3d
       -0.023413925 -0.05663983 0.16274434 0.08960323
000290 8e 39 a9 3c a3 a0 ce 3c 94 0d 5e bd 90 4c 87 3d
       0.020657327 0.025223082 -0.054212168 0.066064
0002a0 83 c7 97 bc 52 67 e0 bc 4a 50 5f 3c 01 2b a6 bd
       -0.018527752 -0.027393017 0.013629982 -0.08113671
0002b0 6f e3 c2 3d b7 37 0b 3e b8 3b 83 3c 46 fe 92 3d
       0.09516036 0.13595472 0.016019687 0.07177405
0002c0 f4 3d 07 3d 2b a8 20 3e 8c 54 ac 3d ac c5 d5 bd
       0.033018067 0.15689151 0.084145635 -0.104380935
0002d0 4d af dc bd b1 22 31 be 61 ba d4 3d 55 a9 9e 3d
       -0.107756235 -0.1729839 0.103871115 0.07747141
0002e0 2f 29 df 3d f9 a6 77 bd bb 63 cf 3c 04 24 89 bd
       0.10896527 -0.060461972 0.02531611 -0.066963226
0002f0 f4 5c 07 3e 61 ff e3 3d db ac dd 3c 53 d2 08 3c
       0.13219053 0.11132694 0.027059963 0.008350926
000300 d2 ce bb 3d a1 c7 16 3e 30 36 5a bd 90 4c e1 3d
       0.09170307 0.1472459 -0.053274333 0.11000931
000310 b8 4c c7 3c 74 e0 2f be da ba a1 3d 40 2f 8c 3c
       0.024328575 -0.17175466 0.07896967 0.017112374
000320 db 5e d5 3d 0c 59 7f 38 aa cc 9e bd ec dc 04 be
       0.10418483 6.087967e-05 -0.0775388 -0.129749
000330 10 c9 4a bc 05 06 27 3d 9d 19 1d 3e ff ff 57 bd
       -0.012377039 0.040777225 0.15341802 -0.05273437
000340 80 26 df bc 80 a5 05 be b1 c5 98 bd 53 bb 19 bd
       -0.027240038 -0.13051414 -0.07459582 -0.037532162
000350 51 68 1f bc 16 4c 09 3e a1 4b 06 be 57 e6 71 3d
       -0.009729461 0.1340793 -0.13114788 0.05905756
000360 0c 85 f3 3b 2a 0a 01 bd b7 16 d7 bd a7 b5 ea 3b
       0.007431632 -0.031503834 -0.105023794 0.007162768
000370 5b 0c c6 bd 67 d3 9c 3c 20 92 3c 3c ca 5b 09 3e
       -0.09670325 0.019143773 0.011509448 0.13413921
000380 8e 42 5a be 9b f6 a3 bd cc 7d 8e 3d 05 fa 79 3c
       -0.21314451 -0.08006021 0.069575876 0.015257363
000390 2f 6b b3 bc 01 d6 2b 3d 0b 8a 68 bd 00 f7 ea 3c
       -0.021901695 0.041952137 -0.056772273 0.028682232
0003a0 c8 2a 1f bb 27 b6 b0 3d d3 20 ad 3c 69 51 da 3d
       -0.0024286974 0.08628493 0.021133816 0.10660059
0003b0 a0 72 f9 bd 48 64 99 3d c1 c5 60 bd 3b 45 37 3d
       -0.12180066 0.0748983 -0.054876093 0.044743758
0003c0 ff 8c f1 bb 97 cc 23 bc 51 c6 c7 3c 73 75 3c bd
       -0.0073715444 -0.0099975085 0.024386557 -0.046010446
0003d0 99 cf 10 be f9 05 ad bc 16 78 90 3d 60 11 3b be
       -0.14141692 -0.021121012 0.070541546 -0.18268347
0003e0 85 1e 3f 3d e2 90 fd 3d db 56 dd 3d cb 3d d6 bd
       0.046659965 0.1238115 0.10807582 -0.10461005
0003f0 b1 d4 08 be b5 ff d0 3d 7b eb ea 3d f9 f0 4b be
       -0.13362385 0.10205022 0.114706956 -0.19916143

network_body._body_endoder.seq_layers.2.bias f4 [128]
000000 00 00 00 00 00 00 00 00 00 00 00 00 00 00 00 00
       0.0 0.0 0.0 0.0
000010 00 00 00 00 00 00 00 00 00 00 00 00 00 00 00 00
       0.0 0.0 0.0 0.0
000020 00 00 00 00 00 00 00 00 00 00 00 00 00 00 00 00
       0.0 0.0 0.0 0.0
000030 00 00 00 00 00 00 00 00 00 00 00 00 00 00 00 00
       0.0 0.0 0.0 0.0
000040 00 00 00 00 00 00 00 00 00 00 00 00 00 00 00 00
       0.0 0.0 0.0 0.0
000050 00 00 00 00 00 00 00 00 00 00 00 00 00 00 00 00
       0.0 0.0 0.0 0.0
000060 00 00 00 00 00 00 00 00 00 00 00 00 00 00 00 00
       0.0 0.0 0.0 0.0
000070 00 00 00 00 00 00 00 00 00 00 00 00 00 00 00 00
       0.0 0.0 0.0 0.0
000080 00 00 00 00 00 00 00 00 00 00 00 00 00 00 00 00
       0.0 0.0 0.0 0.0
000090 00 00 00 00 00 00 00 00 00 00 00 00 00 00 00 00
       0.0 0.0 0.0 0.0
0000a0 00 00 00 00 00 00 00 00 00 00 00 00 00 00 00 00
       0.0 0.0 0.0 0.0
0000b0 00 00 00 00 00 00 00 00 00 00 00 00 00 00 00 00
       0.0 0.0 0.0 0.0
0000c0 00 00 00 00 00 00 00 00 00 00 00 00 00 00 00 00
       0.0 0.0 0.0 0.0
0000d0 00 00 00 00 00 00 00 00 00 00 00 00 00 00 00 00
       0.0 0.0 0.0 0.0
0000e0 00 00 00 00 00 00 00 00 00 00 00 00 00 00 00 00
       0.0 0.0 0.0 0.0
0000f0 00 00 00 00 00 00 00 00 00 00 00 00 00 00 00 00
       0.0 0.0 0.0 0.0
000100 00 00 00 00 00 00 00 00 00 00 00 00 00 00 00 00
       0.0 0.0 0.0 0.0
000110 00 00 00 00 00 00 00 00 00 00 00 00 00 00 00 00
       0.0 0.0 0.0 0.0
000120 00 00 00 00 00 00 00 00 00 00 00 00 00 00 00 00
       0.0 0.0 0.0 0.0
000130 00 00 00 00 00 00 00 00 00 00 00 00 00 00 00 00
       0.0 0.0 0.0 0.0
000140 00 00 00 00 00 00 00 00 00 00 00 00 00 00 00 00
       0.0 0.0 0.0 0.0
000150 00 00 00 00 00 00 00 00 00 00 00 00 00 00 00 00
       0.0 0.0 0.0 0.0
000160 00 00 00 00 00 00 00 00 00 00 00 00 00 00 00 00
       0.0 0.0 0.0 0.0
000170 00 00 00 00 00 00 00 00 00 00 00 00 00 00 00 00
       0.0 0.0 0.0 0.0
000180 00 00 00 00 00 00 00 00 00 00 00 00 00 00 00 00
       0.0 0.0 0.0 0.0
000190 00 00 00 00 00 00 00 00 00 00 00 00 00 00 00 00
       0.0 0.0 0.0 0.0
0001a0 00 00 00 00 00 00 00 00 00 00 00 00 00 00 00 00
       0.0 0.0 0.0 0.0
0001b0 00 00 00 00 00 00 00 00 00 00 00 00 00 00 00 00
       0.0 0.0 0.0 0.0
0001c0 00 00 00 00 00 00 00 00 00 00 00 00 00 00 00 00
       0.0 0.0 0.0 0.0
0001d0 00 00 00 00 00 00 00 00 00 00 00 00 00 00 00 00
       0.0 0.0 0.0 0.0
0001e0 00 00 00 00 00 00 00 00 00 00 00 00 00 00 00 00
       0.0 0.0 0.0 0.0
0001f0 00 00 00 00 00 00 00 00 00 00 00 00 00 00 00 00
       0.0 0.0 0.0 0.0

value_heads.value_heads.extrinsic.weight f4 [1, 128]
000000 3c 16 39 3e d3 1e 53 be 76 87 0c be 18 1e ab bd
       0.18074888 -0.20617227 -0.13723549 -0.08355349
000010 18 d3 1a bd b0 1b 59 bd 74 dd 3d be 08 21 49 3d
       -0.03779897 -0.05300492 -0.18541509 0.049103767
000020 1c 25 39 be d4 83 3b 3e dc da ac 3d f0 9b 15 bc
       -0.18080562 0.18312007 0.084401816 -0.009131417
000030 68 fc e1 3d 74 4b 33 3e 22 3c 1b be f8 d7 3b 3e
       0.11034471 0.17509252 -0.15159658 0.18344104
000040 98 fe b2 bd 00 63 cb 3b 20 6f 1d 3e 22 87 49 3e
       -0.08739966 0.00620687 0.15374422 0.19680455
000050 30 9e 15 3c 68 91 cc bd 50 16 54 3d 98 70 09 bd
       0.009131953 -0.099886715 0.05177909 -0.033554643
000060 80 86 b4 3a d0 d5 f2 3d 7c 51 4c 3e 34 b6 c9 bd
       0.0013772994 0.11857188 0.19952959 -0.098492056
000070 c0 67 07 be d9 15 2d be ab 69 16 be 80 0f 8f 3a
       -0.13223171 -0.16902865 -0.14688747 0.0010914654
000080 24 3a 1a be d2 6f 1d be c0 cf ea bb 68 28 1d bd
       -0.15061241 -0.15374687 -0.007165879 -0.038368613
000090 48 df fe 3d 24 0d 16 3e 8c 8f 94 3d 7a 63 56 3e
       0.12444931 0.1465345 0.07253942 0.20936385
0000a0 a0 66 94 3d dc 22 4d be 54 02 4c bd 5e 1b 29 3e
       0.07246137 -0.20032829 -0.049806908 0.16514346
0000b0 32 93 46 3e a0 04 7a bd b5 4d 0f be 10 97 6a bd
       0.19392088 -0.061039567 -0.13994487 -0.05727297
0000c0 2e 77 1d 3e f4 07 0e be 22 f3 0a 3e 88 f5 e2 3d
       0.15377495 -0.13870221 0.1356931 0.110819876
0000d0 a4 19 15 bd 90 a8 58 be 1c 6d 02 3e 18 97 f9 3d
       -0.036401406 -0.21158051 0.12736934 0.12187022
0000e0 a2 7c 1e be 98 6a ba bc d2 5f 53 3e 96 5f ff bd
       -0.15477231 -0.022755906 0.20642021 -0.124694034
0000f0 90 f5 63 3c ce f0 97 bd a1 df 19 be f1 f2 27 be
       0.013913527 -0.07418977 -0.15026714 -0.16401269
000100 82 58 83 bd 24 fb 11 bd ac 67 9d 3d 10 64 9c 3d
       -0.06413366 -0.035639897 0.076857895 0.07636273
000110 ae 4f 48 be 18 b7 96 bc c0 fb 00 bd d7 7a 48 be
       -0.19561645 -0.018397853 -0.031490088 -0.1957811
000120 f0 c3 3f 3d 38 77 a0 bc cd 05 5a be 2c cc 41 3e
       0.04681772 -0.019588098 -0.21291275 0.18925542
000130 b6 54 48 3e 80 6f 4c 3b 52 a9 42 be b8 ce dd bd
       0.19563565 0.003119439 -0.19009903 -0.10830444
000140 6e b8 ec bd f3 5b 41 be 83 07 44 be 90 ce 64 3d
       -0.11558615 -0.18882732 -0.1914349 0.055861056
000150 5e 43 15 3e e8 2f 98 3d 52 15 d9 bd e6 eb 8f bd
       0.1457648 0.074310124 -0.1059977 -0.07027416
000160 10 b0 b3 bd 90 aa 71 3d 18 ef d5 bd c0 ee 32 be
       -0.08773816 0.05900055 -0.10445994 -0.17473888
000170 88 f3 4b 3d 28 18 17 3d f4 11 95 3d 18 a9 9d 3c
       0.049792796 0.03688827 0.07278815 0.01924567
000180 f0 df d6 3d f2 03 21 3e 40 70 9b 3c d8 2e 30 3d
       0.104919314 0.15724161 0.018974423 0.043013424
000190 64 86 50 3e ae 64 05 3e 74 05 1c 3e c8 c0 16 be
       0.20363766 0.13026688 0.15236455 -0.14721978
0001a0 da 3a 44 3e 14 37 e5 bd da 7e 59 3e ec 28 24 3e
       0.19163075 -0.11192146 0.21239796 0.16031235
0001b0 3e 5a 51 be a4 d8 b3 3d 79 d9 d8 bd 34 34 b0 bd
       -0.20444581 0.08781555 -0.105883546 -0.08603707
0001c0 f0 80 95 3c a6 3a 5b 3e f0 58 19 3c 5e 65 2e 3e
       0.018249959 0.21409091 0.009359583 0.17030856
0001d0 a6 91 c1 bd 56 ec 3e be 88 bf 73 3d e8 cd ba bd
       -0.09451608 -0.18644843 0.05950883 -0.09121305
0001e0 8c 48 c7 3d 36 79 03 3e d4 31 27 be fc f3 7a bd
       0.09730634 0.12839207 -0.16327602 -0.061267838
0001f0 ef 94 c7 bd 58 1c 53 3d 30 59 11 3e 1a 2d 33 3e
       -0.09745204 0.051540703 0.14194179 0.17497674
