results/1003/Agent Behavior/Agent Behavior-6591.onnx (onnx, 74608 bytes, 6 tensors)

network_body._body_endoder.seq_layers.0.weight f4 [128, 6]
000000 5b 5d c5 3d 15 83 8a 3e 86 e9 8b be cd 06 eb be
       0.09636947 0.27053133 -0.27326602 -0.45903626
000010 ea e9 9f be 59 da 01 3f 97 ca b8 3d 72 0f 1f 3c
       -0.3123315 0.507238 0.09023016 0.009708272
000020 37 42 87 bd 66 76 05 bf f3 74 3a bb eb 1d f4 3e
       -0.06604426 -0.52133787 -0.0028451055 0.47679076
000030 6f 94 02 bf 51 d4 75 3e a2 9e 2b 3e b9 dd 05 be
       -0.5100774 0.24006774 0.16759732 -0.13072862
000040 24 95 c5 3e d7 18 0d be 1d b8 80 3e 8e e2 47 be
       0.38590348 -0.13779007 0.25140467 -0.19520018
000050 14 7c 75 3f c3 b3 03 bf ba 07 49 be 8f ea 97 be
       0.95892453 -0.5144617 -0.19631854 -0.29671142
000060 64 60 03 be e9 f6 77 3e 77 9b c6 bd 50 e8 02 bf
       -0.12829739 0.24215282 -0.09697621 -0.5113573
000070 a6 a2 8d 3d dd 75 49 3e 80 f1 a3 be 2a 46 35 3e
       0.06915788 0.19673868 -0.32020187 0.17702547
000080 1e 3d 5a 3f 28 f9 d9 3e 03 ef 96 3e 61 76 94 3f
       0.8524951 0.42572904 0.29479226 1.1598626
000090 d5 69 a7 3e b8 f5 c2 3d c5 fa 57 bf 7e a0 c2 3e
       0.3269793 0.095195234 -0.8436702 0.3801307
0000a0 19 03 a9 be d4 bc df 3e 95 fa 0c 3e 87 15 45 bf
       -0.33010176 0.43698752 0.13767464 -0.76985973
0000b0 15 a6 1f 3f db c8 2a 3f c6 fc 49 3e 1f 25 02 3e
       0.62362796 0.6671273 0.19725332 0.12709473
0000c0 a2 6d 24 bd 01 a2 09 3f 11 6e 49 bf f2 39 ab be
       -0.040143616 0.53762823 -0.78683573 -0.33442646
0000d0 d5 2a 93 be d4 7c 15 3f 44 0b 5b 3e e9 d0 b3 bd
       -0.28743616 0.583936 0.21391016 -0.08780081
0000e0 eb a5 61 be d1 4a a1 3d 7a a1 06 3e ee 89 4b 3e
       -0.22035949 0.07875598 0.13147536 0.19876835
0000f0 c1 4b c3 bd 5c a0 c8 be 63 86 35 3e f1 06 09 be
       -0.09535933 -0.39184844 0.17727046 -0.13381554
000100 2f bd 24 3f 4f 08 40 bf bd 82 0f bc f5 b0 04 bf
       0.6435117 -0.7501268 -0.008759198 -0.51832515
000110 c3 65 c2 3e 3d fe bf 3e 5f b7 72 be 75 dd 0f bf
       0.37968263 0.37498656 -0.23702763 -0.5619729
000120 64 ab df 3e bc 1a 3e 3e 9a 6d e9 bd 0f 57 b8 bd
       0.43685448 0.18564886 -0.11397858 -0.0900098
000130 87 a5 43 be 16 33 a9 3e cb de 40 bf 6b 2d d9 3e
       -0.19106112 0.33046788 -0.75339955 0.42417464
000140 07 77 21 be 8d 75 8d bd 66 c4 8c 3d d0 03 ca be
       -0.15768062 -0.06907187 0.068733975 -0.39456034
000150 b7 65 cd 3e 3f 53 54 bd 98 c0 01 3f a1 ed 10 bf
       0.40116665 -0.051837202 0.506845 -0.5661259
000160 ee 21 21 3e d8 8b f7 3e 6a f5 33 3f 84 3e c0 3e
       0.157356 0.4834888 0.7029635 0.37547696
000170 79 61 0b 3e ef 56 b6 3e 64 af 58 3e 00 bd e2 3d
       0.13611402 0.356132 0.21160656 0.11071205
000180 2a 82 37 be 42 a8 bd bd d0 7f ed bd b7 e5 98 bd
       -0.17920747 -0.09260608 -0.11596644 -0.0746569
000190 3e 2b 3e be a2 b4 21 3e c9 d5 e5 3e 3f 83 13 3f
       -0.18571183 0.15791562 0.44889668 0.5762214
0001a0 48 f6 14 bf a0 34 32 3f 88 2c e0 bc de 10 7f 3e
       -0.58188295 0.6961155 -0.027364984 0.24908778
0001b0 c5 2a 2e bf 1e 74 4e 3e 46 75 a9 3e 4b 40 8b be
       -0.6803401 0.20161483 0.33097285 -0.2719749
0001c0 ca 73 cc bd 72 71 25 be 66 6f fe bd 7c 8e ad be
       -0.099830225 -0.16156557 -0.12423591 -0.3389777
0001d0 78 6b 04 bf c9 a2 c6 bc 6b 72 c4 bd 67 bc dd be
       -0.51726484 -0.024247544 -0.09592136 -0.43307802
0001e0 30 d8 f4 bd d6 46 03 bf 43 d1 76 3e 9e 5a 6e bc
       -0.11955297 -0.5127996 0.24103265 -0.014547972
0001f0 fe fe 05 3d ef 0c 28 3e 10 24 9c be af 6e 24 be
       0.032713883 0.16411184 -0.30496264 -0.16057847
000200 e9 41 20 bd a9 21 91 bf c3 2e 87 3e 30 eb a3 be
       -0.039125357 -1.1338397 0.26402864 -0.3201537
000210 af 2f 1c bf 70 d9 4c 3c cc a5 cb be c4 a1 63 3d
       -0.6101026 0.012503013 -0.3977493 0.055574194
000220 40 31 83 3f 49 28 ce bd 7d c2 6c 3f 15 c9 09 bf
       1.0249405 -0.100662775 0.92484266 -0.5382245
000230 7e cb 12 bf 33 dc 58 be 74 6b a8 3e 63 e7 e6 be
       -0.57341754 -0.2117775 0.3289448 -0.4509841
000240 8f a4 9f 3e 14 cd 99 3e d3 a4 d2 bd a9 fb 98 bc
       0.31180236 0.30039275 -0.10285344 -0.018674688
000250 08 40 58 3e 18 d1 10 3f a2 f0 1c 3f f6 9a d4 3e
       0.21118176 0.5656905 0.61304677 0.41524476
000260 43 c4 13 3f 31 cc 1f 3f 08 2b eb bd 64 88 7c be
       0.57721347 0.62420946 -0.11482817 -0.24661404
000270 e1 96 77 3d c4 2b 9b be e4 74 61 3e ac 08 21 bf
       0.060446624 -0.30306828 0.22017246 -0.6290386
000280 74 9c 54 bd f0 cc e0 be da 27 b0 be 0a cd 65 bb
       -0.051907018 -0.43906355 -0.34405404 -0.003506484
000290 d5 4d 8c 3e 08 23 f7 3e 08 e8 1a 3e 15 98 b1 3d
       0.2740313 0.48268914 0.15127575 0.086715855
0002a0 48 ec 7d be 24 fa 80 3b 11 08 17 3f 29 b1 07 3f
       -0.24797165 0.003936069 0.58996683 0.530047
0002b0 52 2d 2b bd ce c1 cc bd 1b 4e aa be b6 3a 2e be
       -0.041791268 -0.09997903 -0.33262715 -0.17014584
0002c0 23 f4 6a 3f 6a 5d 0a 3e 80 bf d2 bd 2b ce c4 3e
       0.91778773 0.13512197 -0.10290432 0.38438544
0002d0 e3 57 23 be 46 2d 6a bd 09 78 29 bf f8 df 79 bd
       -0.15951495 -0.057172082 -0.66198784 -0.06100461
0002e0 8e c6 bd 3e 16 65 e4 3b 1e 36 16 bf be 5d d7 bd
       0.37065548 0.006970058 -0.58676326 -0.10515927
0002f0 65 98 cd bb eb d7 04 be 24 87 24 bc ec e5 be be
       -0.0062742704 -0.12972991 -0.010041986 -0.3728479
000300 03 be 0c bf 9b 7f 6f bd 9c 92 ea 3e b6 06 18 3e
       -0.54977435 -0.058471303 0.4581498 0.1484631
000310 82 13 b9 3e f8 79 b0 be 70 f3 52 be c2 8d 37 3f
       0.36147696 -0.34468055 -0.20600677 0.7170068
000320 75 c6 d7 3e c7 02 66 3f 86 1f 72 3f 36 33 6a 3f
       0.42143598 0.8984799 0.9457935 0.9148439
000330 57 49 ca 3d dd eb 81 3e 79 5d fc 3d 78 3c 11 3f
       0.0987727 0.25375262 0.12322516 0.56732893
000340 64 fa 86 3d ad e2 c4 be d0 3a 1a bf a2 24 45 bf
       0.06590727 -0.3845419 -0.6024599 -0.7700902
000350 f7 76 54 be df b4 5a 3e 2f 8e 88 be 0d b0 79 be
       -0.20748506 0.2135806 -0.26670977 -0.24383564
000360 c2 20 34 3e 17 57 6b bd 06 b2 9f 3e 05 7e 65 bc
       0.17590621 -0.057456102 0.3119051 -0.014007096
000370 75 35 80 3d 1b 02 ed 3d 20 8f 9d bd 80 25 83 be
       0.06260196 0.11572667 -0.076933146 -0.25614548
000380 c0 14 e4 3e 23 b8 10 3f 6a 8c dc be af 64 0e bf
       0.4454708 0.5653097 -0.43075877 -0.5562238
000390 a5 bb d5 bd fa ee b1 3e 08 97 c8 3e c6 29 da 3e
       -0.10436181 0.34752637 0.39177728 0.42609996
0003a0 b0 f0 04 be 1d 19 fb 3e a2 39 9e be 50 f8 dd 3d
       -0.1298244 0.49042597 -0.30903345 0.108383775
0003b0 f4 d3 da bc 5e 48 f5 be ae 13 e4 be 66 db 2f 3e
       -0.026712395 -0.47906774 -0.44546264 0.17173538
0003c0 70 b7 04 bf 40 cd 5c bf 43 63 41 bf fb 13 a3 3d
       -0.51842403 -0.86250687 -0.75542086 0.07962795
0003d0 2f 2b bc bd d0 99 00 3f 20 2f aa 3d 9f 38 33 be
       -0.09187924 0.502347 0.0830977 -0.17502068
0003e0 57 4e 06 3d 36 6a c3 bd fc ba 01 bf 6a 07 a4 3e
       0.032789554 -0.095417425 -0.5067594 0.32036906
0003f0 90 40 41 bf 05 5e 92 bf 76 b6 97 3b bd ec e0 3e
       -0.7548914 -1.1434942 0.0046299053 0.43930617

network_body._body_endoder.seq_layers.0.bias f4 [128]
000000 00 00 00 00 00 00 00 00 00 00 00 00 00 00 00 00
       0.0 0.0 0.0 0.0
000010 00 00 00 00 00 00 00 00 00 00 00 00 00 00 00 00
       0.0 0.0 0.0 0.0
000020 00 00 00 00 00 00 00 00 00 00 00 00 00 00 00 00
       0.0 0.0 0.0 0.0
000030 00 00 00 00 00 00 00 00 00 00 00 00 00 00 00 00
       0.0 0.0 0.0 0.0
000040 00 00 00 00 00 00 00 00 00 00 00 00 00 00 00 00
       0.0 0.0 0.0 0.0
000050 00 00 00 00 00 00 00 00 00 00 00 00 00 00 00 00
       0.0 0.0 0.0 0.0
000060 00 00 00 00 00 00 00 00 00 00 00 00 00 00 00 00
       0.0 0.0 0.0 0.0
000070 00 00 00 00 00 00 00 00 00 00 00 00 00 00 00 00
       0.0 0.0 0.0 0.0
000080 00 00 00 00 00 00 00 00 00 00 00 00 00 00 00 00
       0.0 0.0 0.0 0.0
000090 00 00 00 00 00 00 00 00 00 00 00 00 00 00 00 00
       0.0 0.0 0.0 0.0
0000a0 00 00 00 00 00 00 00 00 00 00 00 00 00 00 00 00
       0.0 0.0 0.0 0.0
0000b0 00 00 00 00 00 00 00 00 00 00 00 00 00 00 00 00
       0.0 0.0 0.0 0.0
0000c0 00 00 00 00 00 00 00 00 00 00 00 00 00 00 00 00
       0.0 0.0 0.0 0.0
0000d0 00 00 00 00 00 00 00 00 00 00 00 00 00 00 00 00
       0.0 0.0 0.0 0.0
0000e0 00 00 00 00 00 00 00 00 00 00 00 00 00 00 00 00
       0.0 0.0 0.0 0.0
0000f0 00 00 00 00 00 00 00 00 00 00 00 00 00 00 00 00
       0.0 0.0 0.0 0.0
000100 00 00 00 00 00 00 00 00 00 00 00 00 00 00 00 00
       0.0 0.0 0.0 0.0
000110 00 00 00 00 00 00 00 00 00 00 00 00 00 00 00 00
       0.0 0.0 0.0 0.0
000120 00 00 00 00 00 00 00 00 00 00 00 00 00 00 00 00
       0.0 0.0 0.0 0.0
000130 00 00 00 00 00 00 00 00 00 00 00 00 00 00 00 00
       0.0 0.0 0.0 0.0
000140 00 00 00 00 00 00 00 00 00 00 00 00 00 00 00 00
       0.0 0.0 0.0 0.0
000150 00 00 00 00 00 00 00 00 00 00 00 00 00 00 00 00
       0.0 0.0 0.0 0.0
000160 00 00 00 00 00 00 00 00 00 00 00 00 00 00 00 00
       0.0 0.0 0.0 0.0
000170 00 00 00 00 00 00 00 00 00 00 00 00 00 00 00 00
       0.0 0.0 0.0 0.0
000180 00 00 00 00 00 00 00 00 00 00 00 00 00 00 00 00
       0.0 0.0 0.0 0.0
000190 00 00 00 00 00 00 00 00 00 00 00 00 00 00 00 00
       0.0 0.0 0.0 0.0
0001a0 00 00 00 00 00 00 00 00 00 00 00 00 00 00 00 00
       0.0 0.0 0.0 0.0
0001b0 00 00 00 00 00 00 00 00 00 00 00 00 00 00 00 00
       0.0 0.0 0.0 0.0
0001c0 00 00 00 00 00 00 00 00 00 00 00 00 00 00 00 00
       0.0 0.0 0.0 0.0
0001d0 00 00 00 00 00 00 00 00 00 00 00 00 00 00 00 00
       0.0 0.0 0.0 0.0
0001e0 00 00 00 00 00 00 00 00 00 00 00 00 00 00 00 00
       0.0 0.0 0.0 0.0
0001f0 00 00 00 00 00 00 00 00 00 00 00 00 00 00 00 00
       0.0 0.0 0.0 0.0

network_body._body_endoder.seq_layers.2.weight f4 [128, 128]
000000 4c 6c 5d 3d 27 23 1a bd 9e 8c 34 bd 59 1f 6e bd
       0.054058358 -0.03763118 -0.044079416 -0.058135364
000010 b2 a3 91 bd e8 64 21 3c dc 16 65 3c d7 be 35 3d
       -0.071113005 0.009850718 0.013982501 0.044371452
000020 dd a2 2e bd b6 0a c9 bd 59 95 03 be 26 ef 15 3d
       -0.042635787 -0.09816496 -0.1284994 0.036605023
000030 60 48 7b bd d7 62 76 bd 9d 7c 93 bc f2 ca ae 3d
       -0.06134832 -0.060152855 -0.018003756 0.085348025
000040 f4 29 90 bd 33 0f e5 bb 9e 98 7b 3d 94 7c 72 bc
       -0.07039252 -0.0069903373 0.061424844 -0.01480021
000050 d7 d0 3e bc 80 20 81 3d 8f d7 8f bd 7e a0 a2 bb
       -0.011646471 0.06305027 -0.070235364 -0.00496298
000060 6e 49 4e bc c9 e7 8a 3d 96 ec c3 bd 88 60 98 bd
       -0.012590749 0.06782491 -0.095666096 -0.07440287
000070 b6 44 82 bb 3e 8b a8 bd 22 c0 99 3c 5c ba 93 3d
       -0.003975476 -0.08229683 0.018768374 0.072132796
000080 08 74 90 3d 7b 5e 4e 3e 02 96 05 3e c5 60 8a bc
       0.07053381 0.20153229 0.13045505 -0.016891846
000090 1f 1d 7a bd c0 05 9d bd 0b 21 92 3d 32 83 71 3b
       -0.06106293 -0.07667112 0.07135209 0.003685188
0000a0 18 40 56 be 4a a3 12 bd 79 f9 16 3d c7 1c 2e 3e
       -0.20922887 -0.035800256 0.03685901 0.17003165
0000b0 f8 ed 9d 3d db c7 98 3d 4b 21 f2 bb 0c e9 96 3c
       0.077114046 0.074599944 -0.0073892227 0.018421672
0000c0 99 97 74 3e 74 ab 4e ba da af 0a bc 08 ea f4 bc
       0.23885955 -0.0007883825 -0.008464778 -0.029896751
0000d0 ab 96 f6 3d 31 bc 4e be 8b 6a 9a bd a5 59 d1 bd
       0.120404564 -0.20188977 -0.07539853 -0.102221765
0000e0 1b 13 d8 3d e2 c6 02 3e d7 f0 35 be c9 75 90 3d
       0.10550519 0.1277118 -0.17767654 0.07053716
0000f0 c2 1d 97 3c 0d 5e a5 bd 8e 9e 0d 3d 1d fb 99 3d
       0.018446807 -0.080745794 0.034575038 0.07518599
000100 cc ca 8d 3d 44 f3 b1 bd ad 73 c8 3c 30 77 07 3d
       0.06923446 -0.08688977 0.024469221 0.03307265
000110 92 67 8c bb f7 85 d4 bd fa b4 0f be 45 52 01 3e
       -0.0042848075 -0.10377114 -0.14033881 0.1262904
000120 31 c2 04 3d d7 63 c3 3d 9f ec 09 be 27 49 ae bd
       0.032411758 0.09540527 -0.1346917 -0.085100465
000130 ef 3d 64 bd 9c ec 37 3d 7c 3e cc bd ab aa 8e 3d
       -0.055723127 0.044903383 -0.099728554 0.06966146
000140 a3 d4 4d 3c 67 61 03 3d 5d 94 0d be af ea fd 3d
       0.012562904 0.032075312 -0.13826127 0.12398278
000150 d9 f4 f9 3c a5 1c 68 3a 1c 65 02 be 2b 24 c9 bd
       0.03051226 0.0008854366 -0.12733883 -0.098213516
000160 79 e9 0b be ec 76 ba 3c c7 27 ed bd c9 f4 84 3c
       -0.13663282 0.022761784 -0.115798526 0.016230004
000170 2a 7e f0 3c 9c bc 38 3a 42 68 09 bd 05 ea bb bd
       0.029357035 0.0007047148 -0.033546694 -0.09175495
000180 85 a2 e9 3d 13 83 35 bd ab 9f 2a 3d 4e 62 0f be
       0.11407951 -0.044314455 0.041656177 -0.14002344
000190 d4 43 f3 bd 30 93 af bd 20 3d 11 bd 88 6e 05 be
       -0.118781716 -0.08572996 -0.035458684 -0.13030446
0001a0 bf 2f ae bc c5 8d be 3b bb da 51 3e 17 49 c4 bd
       -0.021263001 0.00581524 0.20493595 -0.09584253
0001b0 1c c7 be 3c 04 b2 21 3e 2d 56 70 3d 56 3e ed bd
       0.023288302 0.15790564 0.058675934 -0.11584155
0001c0 09 c6 b7 3d a1 19 9b bd 5a 0c 2c 3e 3f 53 18 bd
       0.08973319 -0.07573248 0.16801587 -0.037188765
0001d0 a7 6a 49 bd 51 49 33 be 64 79 4d bd 37 50 bf 3d
       -0.049173977 -0.17508437 -0.050164595 0.09341472
0001e0 44 8a 81 bd b2 fa 17 3e a8 19 d5 3c a8 a8 66 bd
       -0.063252 0.14841726 0.02601321 -0.056313187
0001f0 51 8a 76 bc cd c2 8f bc fb 2e 90 3c 0d 9d 0f 3d
       -0.015047626 -0.017548943 0.017600527 0.035061885
000200 18 20 ec 3d a2 06 94 3d b0 b4 8f 3c ed 68 47 3d
       0.11529559 0.072278276 0.017542213 0.04868405
000210 a4 35 df ba cf d9 f2 bb e6 fd 44 3e dd 0f 79 3c
       -0.0017029536 -0.0074112187 0.1923748 0.015201536
000220 7c 97 03 bd 89 fd e8 3d ad 9a 14 be 72 f1 3e be
       -0.03212689 0.11376483 -0.14512129 -0.18646792
000230 ee 93 f3 3d 2d ff 55 ba e4 31 1a be fd 44 21 3d
       0.1189345 -0.00081633293 -0.15058094 0.039372433
000240 c8 9f 05 ba cb 73 2e be ae 89 d8 3d 1a eb b0 bd
       -0.00050973566 -0.17036359 0.10573135 -0.08638592
000250 17 cf b7 bb 55 14 92 3d b2 58 a7 3d 10 a6 40 3c
       -0.005609404 0.07132784 0.08171214 0.011758342
000260 a4 58 47 bd c4 8b 19 be f9 7c af 3d 39 09 0f 3d
       -0.04866852 -0.14994723 0.085687585 0.034920905
000270 94 98 48 bd 88 09 15 3e d3 8e cf 3c 71 ac 4b 3e
       -0.048973635 0.14554417 0.025336659 0.1989
000280 26 5a 82 bd 46 dd 19 be ef 81 70 bd 00 c4 4d bd
       -0.06364851 -0.15025815 -0.058717664 -0.05023575
000290 28 d6 ba bd d5 41 d7 bd 7b 20 c3 bd c1 33 50 be
       -0.09122878 -0.10510603 -0.095276795 -0.20332243
0002a0 e6 13 06 be e8 49 22 bc cc c2 e3 bd f9 06 af 3d
       -0.13093528 -0.009905316 -0.11121139 0.08546252
0002b0 e7 5d 17 3d 05 09 f5 bc d4 72 72 be d4 83 2a bd
       0.036954787 -0.029911527 -0.23676616 -0.041629627
0002c0 58 0b cf bd 4f 36 8c bd 06 91 28 3e 5e 4f 83 3d
       -0.101095855 -0.06846296 0.16461572 0.064116225
0002d0 73 0c 89 3d 14 c6 26 3d 8c 0b 54 bd 23 00 13 bd
       0.066918276 0.040716246 -0.051768824 -0.035888802
0002e0 1d 36 19 3e fc e8 d8 3b 99 da 82 bc 12 55 15 bd
       0.14962049 0.006619571 -0.015973376 -0.036458082
0002f0 c6 0c a2 3d 3b 93 5c bc 28 59 d0 bd 47 fa cd 3d
       0.079125926 -0.013462837 -0.10173255 0.10057502
000300 70 8b 8a 3d ab 7b fc bd a7 26 da 3c 5f e1 c3 bd
       0.06764877 -0.12328275 0.026629759 -0.095644705
000310 70 8e 63 3d 3a 4e e9 3c 34 fe ac 3c a3 9c 05 be
       0.05555576 0.028479684 0.021117307 -0.13048033
000320 22 be f0 3d 8e d9 a4 bc 19 29 c2 bd 59 72 dc bd
       0.11755015 -0.02012327 -0.09480495 -0.107639976
000330 68 fa 2e bd 02 7e a5 bd 88 c4 b2 3d 72 9e 2c bd
       -0.042719275 -0.08080675 0.087288916 -0.042143293
000340 4d 2b 92 bd 7f a5 27 3d 6c 68 07 be b4 19 c0 3c
       -0.07137165 0.040929314 -0.13223428 0.023449756
000350 d7 5d a3 bd 9f 58 aa bd 8c 5d 41 bd e7 c8 b9 3d
       -0.07976883 -0.083176844 -0.047208354 0.09071522
000360 25 87 10 bc 9b d5 ec bd 54 5a f6 3d bd b1 29 3d
       -0.0088212835 -0.115641795 0.120289475 0.04142927
000370 68 7c 19 be 44 cc 82 3d fa fb 14 be 39 d4 62 3d
       -0.14988863 0.06386617 -0.14549246 0.055378173
000380 20 e6 ac 3d e2 d7 f8 3d 4a 44 82 bc 3d 55 ec 3d
       0.0844233 0.121505514 -0.015901703 0.115396954
000390 85 75 b8 bd ef 18 05 be bf 7d b4 3c 3e 42 a6 bc
       -0.0900679 -0.12997793 0.022032617 -0.020295259
0003a0 47 4f a2 3d fb 50 46 bd fa 75 c6 bd 4c 91 5c 3d
       0.07925277 -0.048417073 -0.09690471 0.053849503
0003b0 94 d2 bf bd 11 bc d4 bd f9 3e 4c 3d f5 58 51 3e
       -0.093663365 -0.10387433 0.049864743 0.2044409
0003c0 33 93 b7 bd 6a e3 af 3d c9 2b 4f 3c ae 88 5b bd
       -0.08963623 0.08588298 0.012644717 -0.053597145
0003d0 ae 36 54 3d af 64 b0 bd 3d 6a bd 3d e5 4c 50 3d
       0.05180996 -0.08612954 0.09248779 0.050854582
0003e0 cf a5 48 3d 5b 1f 30 be 64 39 c9 3d 56 d2 74 bd
       0.048986252 -0.17199461 0.098253995 -0.059770904
0003f0 c6 2a 77 3e 08 c2 03 be c4 14 4e 3b 1e c7 61 3d
       0.2413741 -0.12866986 0.0031445483 0.055121534

action_model._continuous_distribution.log_sigma f4 [1, 2]
000000 00 00 00 00 00 00 00 00
       0.0 0.0

action_model._continuous_distribution.mu.weight f4 [2, 128]
000000 d5 3a 15 3b 12 3d fd 3c bb 6e 97 bb e9 6f 00 3c
       0.0022770662 0.03091291 -0.0046213544 0.007839181
000010 d1 1b 25 ba 5f f4 df 3b d4 9c a8 bc c0 46 56 3b
       -0.00062983955 0.006834551 -0.020582594 0.003269598
000020 9b a3 0f bc 9b 43 c4 ba 9b 83 98 b9 a8 b0 f7 bc
       -0.008767034 -0.0014973761 -0.00029089753 -0.030235603
000030 c8 30 68 3c 68 0a 22 bd eb a3 81 3b 2b 70 6f 3c
       0.014171787 -0.039560705 0.003956308 0.014614145
000040 24 b4 43 bc 72 bf 71 bb 84 db 8f 3c bf d8 e4 bc
       -0.011944804 -0.0036887792 0.017560728 -0.027935384
000050 42 16 a5 3b 88 1b bd 3a 03 0a e3 3b 59 6c 80 bc
       0.0050380537 0.0014427761 0.0069286837 -0.015676664
000060 c0 90 ec 3c 22 b9 4f bc a3 d7 2b bc 42 b4 eb 3c
       0.028877616 -0.012678416 -0.0104884235 0.028772477
000070 c7 cc ef bc 03 18 5a b9 53 98 4c bb b6 a6 ba bc
       -0.02927245 -0.00020799045 -0.0031218722 -0.022784572
000080 d8 e7 8b 3b 54 e8 90 3c 31 76 03 3c 5f b8 2a 39
       0.0042695813 0.017688908 0.0080237845 0.00016281147
000090 f0 1d e2 ba fb fa 53 3c 17 8f f6 bb ef 67 56 bb
       -0.0017251354 0.012938256 -0.007524382 -0.0032715758
0000a0 0a 01 87 bb f9 8c 3e 3b 3e 20 a4 bc a3 6f c6 3c
       -0.004119997 0.0029075725 -0.020034906 0.024223154
0000b0 33 c7 02 3c f1 3b 0f bc 6f c2 91 3c 5d 32 9c ba
       0.007982063 -0.0087423185 0.017792908 -0.0011916865
0000c0 c9 48 b7 3b 2f a3 0d bd 9d f9 a4 bb cf c0 13 3c
       0.0055933935 -0.034579452 -0.005034639 0.009018137
0000d0 07 36 07 bd 70 4e 2e bc c8 59 0b 3b 4d 31 98 bc
       -0.03301051 -0.010638818 0.002126323 -0.018578196
0000e0 4a 04 3f bc 3b 2c ab 3b 7e cb 10 3c 08 96 04 bb
       -0.011658737 0.0052237785 0.008837579 -0.0020231027
0000f0 68 b7 9e 3c 7b 4b e9 bc 3a df 29 3c 2d e2 64 bc
       0.019374564 -0.028478375 0.010368163 -0.01396994
000100 ef ab b3 3b 30 49 e6 3a 4f 5b d1 bc d4 40 3f bc
       0.0054831426 0.0017569419 -0.025556235 -0.011673171
000110 8b c8 a4 bc 90 cc 60 3c d5 62 2a 3c 97 ae c7 3c
       -0.020115158 0.0137206465 0.01039954 0.024375243
000120 38 f5 d5 bb 32 ca 02 bc 9e d0 21 bc 07 b4 90 bc
       -0.0065294765 -0.007982777 -0.009876398 -0.017663969
000130 26 bc 4b bb 66 8d b1 bb 30 27 9a bd 6d 7f 21 bc
       -0.0031087487 -0.0054184673 -0.07527006 -0.009857041
000140 6d 78 e7 3c 43 94 d6 bc fb 22 64 3c 97 6c 43 3c
       0.028255666 -0.026193744 0.013924356 0.011927745
000150 5d 17 b2 bc 2b 71 38 bc 91 9f 40 3c 7d 5f 89 3c
       -0.021739656 -0.01125745 0.011756794 0.016769165
000160 88 c0 f7 b9 33 53 ed ba 7c 0d 81 3b a0 1e 26 bc
       -0.00047254958 -0.001810646 0.003938375 -0.0101391375
000170 d7 16 14 bc 6d 33 05 3d 57 ba cb bb 65 ec 37 3c
       -0.009038649 0.032519747 -0.006217282 0.011225794
000180 20 e0 c6 3b ab 6b 52 bb 1e 4e 10 bc 3c cf 1f 3a
       0.0060691983 -0.0032107632 -0.008807687 0.0006096249
000190 38 30 ce bb 38 66 12 bc 4d 18 ad 3b 73 a5 7c bb
       -0.006292369 -0.008935504 0.005282438 -0.0038550764
0001a0 18 09 cb bc b2 81 24 3c 98 49 4c 3c 3f c6 6a 3c
       -0.02478461 0.010040687 0.012468718 0.014329492
0001b0 06 5f 8d 3b 43 15 8a 3b 53 2e 8e 3c b3 0f 8f bc
       0.004314306 0.0042139604 0.017356073 -0.01746354
0001c0 ba 21 14 3c b5 20 0a bc 5a 11 d3 3b 1c 17 1b bb
       0.009041244 -0.0084306495 0.0064412775 -0.0023664897
0001d0 46 69 3f bc 8f 87 ca bc 25 e7 a4 3a 9a 8a 3c bb
       -0.011682814 -0.024722842 0.0012581093 -0.0028769136
0001e0 38 38 5e bc c3 80 ff ba 78 fc 2e bc d2 61 d0 3b
       -0.013563208 -0.001949333 -0.01068031 0.0063593173
0001f0 4c c6 2e bc 3b 26 cf 3c b7 e2 70 3c 9b 46 85 bc
       -0.010667395 0.025286784 0.0147024905 -0.016269019
000200 32 a7 ad 3b fb 56 05 bb 97 8c 02 3c f0 88 8c 3c
       0.0052994723 -0.0020346034 0.00796809 0.01715514
000210 f2 7c 6a bb e7 c7 2e bc 70 8b 35 bd c2 a7 fd bb
       -0.003578004 -0.010667778 -0.04432243 -0.0077409456
000220 6d be e9 bc 24 30 39 bc 20 3e ac bc fd be ac bc
       -0.028533185 -0.0113029815 -0.021025717 -0.021087164
000230 75 6d d6 bb ff d3 28 3c 5d 60 18 ba 91 59 bd 3b
       -0.00654381 0.01030445 -0.0005812699 0.0057784994
000240 06 9e 8d 3c c8 1e 09 bb 4f 95 b4 bb 6d 7e e9 3b
       0.017287266 -0.0020922888 -0.005510963 0.007125667
000250 d6 84 b0 3c 09 7e 97 b9 b4 37 03 bb 7e 46 bc 3b
       0.021547716 -0.00028894868 -0.0020022215 0.005745708
000260 62 15 5d bc cb c4 cd ba 48 c1 54 3c 25 34 60 bc
       -0.013493868 -0.0015698908 0.012985535 -0.013684307
000270 ed 6c fc 3b dc 94 03 3c ac d5 8e bc c2 ba 98 bc
       0.0077034147 0.008031096 -0.017435871 -0.01864374
000280 50 5e 8c bb 9a fb 27 bc 46 c4 04 3d 2b 48 29 bc
       -0.004283704 -0.010252858 0.032413743 -0.010332148
000290 6e 26 18 bc 79 2c 40 bc 78 6f 36 bb 31 e5 30 bb
       -0.009286506 -0.011729353 -0.0027837437 -0.0026992077
0002a0 ab 13 43 bc 4f 56 dd 3c 60 d1 6b 3a 86 28 8b 3c
       -0.011906545 0.027018694 0.0008995738 0.016987097
0002b0 e8 a1 c4 3c 91 2c b9 3a f0 19 4d bc 4b 2e 80 3c
       0.024002984 0.0014127662 -0.012518391 0.015647074
0002c0 6d 95 8a 3c 43 23 52 bc 88 74 b5 3c 60 74 7e bb
       0.016916955 -0.01282579 0.022150293 -0.003882669
0002d0 dd aa 05 3c c4 c1 0b bc ac e6 b3 3a e9 1e 83 bb
       0.008158413 -0.008530084 0.0013725362 -0.0040014875
0002e0 68 d2 4f 3c 4f be f4 3b 87 41 1d 3c bf 7c 9c 3c
       0.012684442 0.0074689756 0.0095981425 0.019102452
0002f0 4f a0 10 3c 6b 95 52 3b 38 51 ce bc 37 b4 11 bd
       0.008827283 0.0032132517 -0.025185212 -0.035572257
000300 37 ca d4 bc ca 63 97 ba bb 64 05 bd 48 54 bd 3b
       -0.02597533 -0.0011550125 -0.032566767 0.0057778694
000310 8e 75 23 3c 12 5a 7f 3c a7 c5 87 bc 62 0a 72 3c
       0.009976758 0.015585439 -0.01657374 0.014772983
000320 b1 b1 17 bc 2c 4d a1 3c e7 f7 b7 bc 37 74 c2 3c
       -0.0092586735 0.019690119 -0.022457076 0.023737056
000330 70 81 5e bb 4b 1d 9d ba 0b 47 b2 ba 33 3b 4e 3c
       -0.0033951662 -0.0011986879 -0.0013601495 0.012587356
000340 3b 5a a5 bb e8 00 c3 3c de 5d 13 bd 70 66 fb bc
       -0.0050461567 0.023804143 -0.03597819 -0.030688494
000350 68 56 73 bc d0 f2 2f 3a 55 ee 05 bd ac b0 b8 bc
       -0.014852144 0.0006711902 -0.032697994 -0.022545181
000360 3f 36 7d bb 96 88 89 bc ea 2b 4e 3c 3a 33 dc 3a
       -0.003863707 -0.016788762 0.012583712 0.0016799935
000370 20 13 09 bc 70 f3 3c 3c 9b 9d 33 3c 1f 96 04 3c
       -0.008366376 0.011532649 0.010962869 0.008092432
000380 ff db b1 ba d6 29 44 bb f3 38 b8 3c e0 00 89 3b
       -0.0013569592 -0.0029932163 0.022488093 0.0041810125
000390 82 8a 61 bc b3 83 c0 bc 07 e7 2c bc a7 38 96 bc
       -0.013765933 -0.0235003 -0.010553128 -0.01833756
0003a0 73 fc 68 3c 7d 25 0a 3c 00 07 88 bb 44 3b ac 3c
       0.014220345 0.008431789 -0.004151225 0.021024354
0003b0 2d 74 19 3b 66 5b c0 bc ab 6f 8b bc 4b 4c 1f 3c
       0.0023415193 -0.023481082 -0.01702102 0.0097227795
0003c0 f3 20 b9 3c 08 c5 eb bb 82 26 cd 3c b5 36 ff 3b
       0.02259872 -0.007195119 0.025042776 0.007788504
0003d0 eb 85 23 bd 53 b6 17 ba bd 94 8e 3c 9f 48 27 bc
       -0.039922636 -0.00057873613 0.017404908 -0.010210185
0003e0 67 09 ab 39 1f bd 47 bc 51 0c 95 bb bf 04 38 3b
       0.00032622667 -0.012191086 -0.0045485874 0.0028079
0003f0 e3 55 b8 bc 43 3c 0a bb 6f 5f 35 3c 13 26 2c 3c
       -0.022501891 -0.0021093048 0.011070116 0.0105071245

action_model._continuous_distribution.mu.bias f4 [2]
000000 00 00 00 00 00 00 00 00
       0.0 0.0
