results/1004/Agent Behavior/checkpoint.pt (torch, 440939 bytes, 36 tensors)

network_body._body_endoder.seq_layers.0.weight f4 [128, 6]
-0.10314171 -0.15807654 -0.771431 -0.021051554 -0.24791254 0.24360004 0.25069347 1.0170121
-0.15191516 -0.42283463 -0.7186608 0.0068655573 0.004867955 -0.0475607 0.27414796 0.07329941
-0.8872749 0.44718826 0.17133996 -0.22713126 -0.050919518 -0.2751854 0.009633831 -0.15927726
0.4395124 0.11024077 -0.19346684 0.075144105 0.1470669 0.007027438 -0.38524368 -0.4862519
0.20668267 0.22913744 0.57439905 0.34744284 -0.9115625 -0.60019076 -0.3327249 0.11880301
-0.3115586 0.5999973 -0.120251596 -0.37045327 0.42138654 0.6712722 -0.25118724 -0.9312767
0.05379017 -0.5864909 0.33565614 -0.41530588 -0.18720661 -0.29076213 -0.11482538 0.07500861
-0.11037273 -0.0035151911 -0.42118135 0.085063286 0.15008652 0.116419554 0.61791426 0.22133206
-0.0131845055 0.75220364 0.73650646 0.2553672 0.2461006 -0.21749973 0.40175042 -0.73500365
0.32136422 0.22858734 -0.12427707 0.18649179 0.035344955 -0.19311722 -0.43793347 -0.22440468
0.41673878 -0.038086638 0.029129466 -1.6079595e-05 0.12964763 -0.24380466 -0.16783273 0.14683683
-0.13681543 -0.067233026 0.1272579 -0.61695766 -0.4285764 -0.30803415 0.23291375 -0.050630447
0.15706788 -0.0094691655 -0.39114264 -0.46669024 -0.2949509 -0.08003503 0.16762698 -0.0829452
-0.12530528 1.320594 -0.19425212 0.17200606 -0.5643668 0.4562383 -0.8083072 -0.008835454
-0.13777539 -0.47273985 0.3178894 -0.16230789 -0.41275045 -0.30618188 0.22644724 -0.4973428
0.27034715 0.07225248 0.12932436 0.17511813 -0.5640901 -0.15608798 -0.48083514 -0.44663796
-0.36143583 0.41502026 -0.43506235 0.03503399 0.077363215 0.050509088 0.13397774 0.30626586
-0.28724515 0.47722095 -0.058193192 -0.35263744 0.13286576 0.49792397 0.13202675 0.2912559
0.6092459 0.48892808 0.042237952 -0.06477611 0.3149384 -0.3032413 0.2099614 0.97608733
0.35896903 0.50218374 -0.0650457 0.32465777 -0.4186285 0.15813375 -0.4819079 0.3035184
-0.40508434 -0.399038 0.21223558 -0.08106318 0.47781166 0.54208905 0.37771463 0.2115515
-0.11786327 0.1981636 -0.3273904 -0.4885911 0.35411778 0.0980818 0.028114922 0.1425509
0.7775254 0.5585674 -0.39330333 0.11184826 0.6358613 0.029971685 -0.4563435 -0.00021320705
-0.020031724 0.093234904 0.5834036 -0.386676 -0.14673379 0.12147903 0.45211178 -0.012603532
-0.049340572 0.84912556 -0.47897938 -0.20705432 0.40608704 0.69173366 0.5119179 -0.08052179
-0.60497814 0.52056545 -0.3035122 -0.17389885 -0.5380343 -0.18798609 1.5407002 -0.43889874
0.5286913 0.6146445 0.45146894 -0.10469018 -0.19701745 0.47098848 -0.52372104 0.045272548
0.9646517 0.14341906 -0.30444026 -0.26201203 -0.4066409 -0.57462907 0.00329561 0.5171905
0.4137015 -0.3042102 0.008789505 -0.20544598 0.07556149 0.13133793 -0.34947845 0.5104806
-0.3276016 -0.41250002 -0.46133438 0.23202759 -0.03750599 -0.23507276 0.5220529 0.100314185
0.316467 -0.6474089 -0.4432092 0.6203313 0.025355818 0.26839435 -0.083555155 0.34695417
-0.31141332 -0.6541779 0.79406893 -0.105193935 0.06251125 -0.12930942 0.27756777 0.32292503
00000000: f63b d3bd d1de 21be 817c 45bf 4f74 acbc
00000010: c9dc 7dbe 4a72 793e e55a 803e 742d 823f
00000020: a68f 1bbe c87d d8be 27fa 37bf 78f8 e03b
00000030: 5e83 9f3b 02cf 42bd 1f5d 8c3e 001e 963d
00000040: 7324 63bf dcf5 e43e be73 2f3e 1995 68be
00000050: fc90 50bd 1ae5 8cbe 37d7 1d3c 9419 23be
00000060: c507 e13e eac5 e13d 2c1c 46be 27e5 993d
00000070: b598 163e 6c46 e63b a93e c5be 02f6 f8be
00000080: 9fa4 533e 01a3 6a3e d10b 133f 07e4 b13e
00000090: 295c 69bf 1aa6 19bf eb5a aabe fe4e f33d
000000a0: 9c84 9fbe 6c99 193f 7846 f6bd 0dac bdbe
000000b0: fabf d73e 7fd8 2b3f 9d9b 80be 2668 6ebf
000000c0: 1553 5c3d 4524 16bf 1fdb ab3e f9a2 d4be
000000d0: 17b3 3fbe c6de 94be 9229 ebbd 1d9e 993d
000000e0: 190b e2bd 1f5f 66bb 15a5 d7be a935 ae3d
000000f0: 48b0 193e 606d ee3d a12f 1e3f dfa4 623e
00000100: d303 58bc 6b90 403f b08b 3c3f 7dbf 823e
00000110: cc01 7c3e 40b8 5ebe 3bb2 cd3e 3329 3cbf
00000120: da89 a43e cd12 6a3e fa84 febd b4f7 3e3e
00000130: dfc5 103d 85c0 45be d138 e0be 57ca 65be
00000140: c95e d53e bc00 1cbd eba0 ee3c abe2 86b7
00000150: 59c2 043e eea7 79be 58dc 2bbe 655c 163e
00000160: 5819 0cbe 78b1 89bd e54f 023e f0f0 1dbf
00000170: 5e6e dbbe a7b6 9dbe f180 6e3e df61 4fbd
00000180: 67d6 203e 8f24 1bbc d943 c8be 06f2 eebe
00000190: ce03 97be 68e9 a3bd 68a6 2b3e 2cdf a9bd
000001a0: 0750 00be 3909 a93f 07ea 46be 5b22 303e
000001b0: 587a 10bf 1198 e93e 38ed 4ebf 94c2 10bc
000001c0: fe14 0dbe f50a f2be 66c2 a23e 0a34 26be
000001d0: 0754 d3be dfc3 9cbe c9e1 673e b7a3 febe
000001e0: f16a 8a3e 1cf9 933d 9b6d 043e 2b52 333e
000001f0: 3568 10bf 87d5 1fbe 0630 f6be bbad e4be
00000200: 1e0e b9be 897d d43e 7ec0 debe cd7f 0f3d
00000210: 9b70 9e3d 9ee2 4e3d 7631 093e e1ce 9c3e
00000220: cc11 93be 4e56 f43e fc5b 6ebd e58c b4be
00000230: f60d 083e e4ef fe3e 0532 073e 7e1f 953e
00000240: 8af7 1b3f c854 fa3e b401 2d3d 56a9 84bd
00000250: 9b3f a13e 7242 9bbe 1f00 573e dce0 793f
00000260: caca b73e 1d8f 003f ae36 85bd 8b39 a63e
00000270: 7a56 d6be d0ed 213e a2bc f6be c466 9b3e
00000280: 3767 cfbe b54e ccbe 4954 593e 7404 a6bd
00000290: bba3 f43e 59c6 0a3f d063 c13e f5a0 583e
000002a0: 4c62 f1bd 66eb 4a3e b79f a7be 9d28 fabe
000002b0: ed4e b53e 1cdf c83d 4451 e63c ddf8 113e
000002c0: e80b 473f 46fe 0e3f 0e5f c9be b310 e53d
000002d0: cec7 223f 2e87 f53c dba5 e9be 5590 5fb9
000002e0: 9219 a4bc f1f1 be3d f059 153f 66fa c5be
000002f0: 6241 16be ffc9 f83d 327b e73e 0b7f 4ebc
00000300: 5719 4abd 4b60 593f c93c f5be 0c06 54be
00000310: a4ea cf3e 7515 313f 0d0d 033f 9ce8 a4bd
00000320: d9df 1abf c743 053f f365 9bbe 8a12 32be
00000330: 9ebc 09bf 6d7f 40be aa35 c53f 56b7 e0be
00000340: 5058 073f 5859 1d3f f026 e73e ce67 d6bd
00000350: f1be 49be 6725 f13e 9512 06bf b56f 393d
00000360: 6af3 763f 72dc 123e 98df 9bbe 7126 86be
00000370: 3c33 d0be e41a 13bf 29fb 573b 9966 043f
00000380: afd0 d33e 70c1 9bbe db01 103c 6e60 52be
00000390: fcbf 9a3d 737d 063e d7ee b2be dbae 023f
000003a0: 66bb a7be 3433 d3be 0534 ecbe a498 6d3e
000003b0: e29f 19bd eab6 70be 42a5 053f 8671 cd3d
000003c0: f607 a23e 97bc 25bf 51ec e2be 08ce 1e3f
000003d0: 01b7 cf3c fc6a 893e f71e abbd faa3 b13e
000003e0: 9171 9fbe 3478 27bf 1a48 4b3f eb6f d7bd
000003f0: e605 803d b069 04be 5d1d 8e3e 6e56 a53e

network_body._body_endoder.seq_layers.0.bias f4 [128]
-0.0039618225 -0.004055648 -0.0058078105 -0.0037241871 -0.009658215 -0.0022992294 -0.0089377165 0.004804573
-0.0015766397 -0.0021207856 -0.0018324179 0.00032215318 -0.008744229 -0.0018582115 -0.0018954612 -0.0035401033
0.0026945218 0.005794786 0.011103055 0.010516831 -0.0037628892 0.0052451026 0.0032034016 -0.0040679816
-0.0043762634 -0.010616731 0.0013339694 -0.0035441387 -0.006135202 -0.002865907 -0.0061277687 -0.0010620432
0.005389011 -0.0080877235 -0.0038611498 0.017883783 0.007886255 0.0018776499 -0.00093514874 0.0022588416
-0.009740653 -0.0005846544 0.0011036631 0.0030356266 -0.0015615341 -0.001233394 0.007126667 0.0016337882
-0.009512522 0.0017620221 0.005619617 0.0040451447 -0.008286948 -0.004675335 -0.0012652283 -0.0001215872
0.004602886 -0.0063245064 -0.004417233 -0.0057272343 -0.0034967172 0.002457351 0.005431917 -0.0024110866
-0.006884909 -0.016345315 -0.011393544 0.0011491313 -0.0019124427 -0.0016929643 0.0019862785 0.008355104
-0.0010857418 0.0033240602 0.00049599103 0.002146419 -0.0040092287 -0.0010355036 -0.006253395 0.0041985074
-0.0012922484 -0.0011796574 -0.0038619156 -0.0016022583 0.0015993941 0.0018413761 0.0025540628 -0.0031496957
-0.0011976379 0.0074534775 -0.004275569 0.0008349558 0.0027038103 0.0010634463 -0.015950711 -0.0043656966
0.0047202166 0.0007571602 -0.0030564684 -0.0011464959 0.005562665 0.011611717 0.007818049 0.0108510805
-0.0007463407 0.023731839 -0.0017707715 -0.003676775 0.0009742657 -0.009521617 0.003324025 0.0029264512
0.0095007885 -0.0020237747 -0.007820241 -0.0009400981 -0.006187283 0.0019131504 0.0014989073 -0.0024185844
0.0040541925 -0.0031689797 -0.0020255474 0.00027728622 0.00046584784 0.0023540636 -0.0023060353 -0.0029009304
00000000: 2dd2 81bb 3ee5 84bb 724f bebb 7e11 74bb
00000010: 7d3d 1ebc abae 16bb 806f 12bc ae6f 9d3b
00000020: 40a7 ceba e1fc 0abb be2d f0ba abe6 a839
00000030: f443 0fbc 3b8f f3ba 2071 f8ba 1401 68bb
00000040: 9396 303b 30e2 bd3b 97e9 353c c94e 2c3c
00000050: ce9a 76bb 1cdf ab3b 29f0 513b b44c 85bb
00000060: c266 8fbb ccf1 2dbc 96d8 ae3a c844 68bb
00000070: ce09 c9bb f1d1 3bbb 73cb c8bb 4234 8bba
00000080: 4d96 b03b 5f82 04bc 580b 7dbb 0381 923c
00000090: 5a35 013c 7a1b f63a c524 75ba 1309 143b
000000a0: 4397 1fbc 7e43 19ba caa8 903a 5df1 463b
000000b0: 64ac ccba d6a9 a1ba d186 e93b d624 d63a
000000c0: 69da 1bbc a7f3 e63a c424 b83b 228d 843b
000000d0: fbc5 07bc 8d33 99bb 04d6 a5ba a2fc feb8
000000e0: ced3 963b ce3d cfbb 70be 90bb 86ab bbbb
000000f0: 2e29 65bb 820b 213b 39fe b13b 5203 1ebb
00000100: cd9a e1bb 9ce6 85bc fdab 3abc 739e 963a
00000110: eeaa faba 75e6 ddba 392c 023b d9e3 083c
00000120: 734f 8eba 7ad8 593b 6505 023a efaa 0c3b
00000130: d95f 83bb bcb9 87ba 48e9 ccbb a293 893b
00000140: a960 a9ba bc9e 9aba 3118 7dbb de02 d2ba
00000150: c3a2 d13a 545a f13a 1062 273b 206b 4ebb
00000160: 0ffa 9cba 4d3c f43b 131a 8cbb efe0 5a3a
00000170: 6932 313b 5663 8b3a 11ab 82bc 1e0e 8fbb
00000180: 0cac 9a3b 297c 463a 084f 48bb 0546 96ba
00000190: 0447 b63b 123f 3e3c 4617 003c bbc8 313c
000001a0: 14a6 43ba 4669 c23c 3b19 e8ba 0cf6 70bb
000001b0: dd65 7f3a 8e00 1cbc e3d7 593b b4c9 3f3b
000001c0: 32a9 1b3c 4ea1 04bb 7820 00bc ea70 76ba
000001d0: b1be cabb adc2 fa3a fc76 c43a 1d81 1ebb
000001e0: 08d9 843b a8ae 4fbb 0cbf 04bb ba60 9139
000001f0: 0a3d f439 a246 1a3b da20 17bb 891d 3ebb

network_body._body_endoder.seq_layers.2.weight f4 [128, 128]
0.12547939 -0.18854795 0.0043719094 -0.1348051 0.09322055 0.05273883 0.044576716 0.12101081
0.14422822 0.037795514 0.048708707 0.0546458 0.027588682 0.10335426 0.062057547 0.016665425
0.047799353 -0.18842709 0.061499353 0.005881596 -0.03982963 -0.030062143 -0.09024098 -0.14564815
-0.011327318 -0.09041948 -0.09645447 -0.008388488 -0.06475376 -0.036755934 -0.08070364 0.014791462
-0.045921504 0.11227566 0.0043377653 0.055774115 0.034530498 0.11029783 0.060154233 -0.1022104
-0.009489216 -0.102513276 0.042918436 0.002558699 0.018532492 0.14682798 0.14525186 0.07369548
-0.04339421 -0.18326224 0.13512532 -0.086899154 -0.025838971 0.045146458 0.03844153 -0.03703599
-0.08886001 -0.12950848 0.05291932 0.14512086 0.06776056 0.15487061 0.048573337 0.09095982
0.0010257901 -0.13663192 0.032168947 0.0947431 -0.038631096 -0.07430303 0.009124649 0.096583046
0.054941542 0.11169191 0.04911907 0.06786344 0.14759555 -0.06899894 -0.050127257 0.04172629
-0.08520012 0.107371464 -0.020484526 -0.07261599 0.0740405 -0.020424033 0.013415145 -0.09424535
0.1611129 0.059223875 -0.10356112 0.040396437 0.106760725 -0.016197816 -0.044351626 0.15942214
-0.14486386 -0.16525549 0.1307677 -0.06487904 0.06767016 0.113577865 0.0677348 0.18866275
0.08447837 -0.04011471 0.022578351 0.04197912 -0.08649038 -0.09134557 -0.111730516 0.116760306
0.01778433 0.010051761 -0.11777147 0.2586388 0.03640596 0.09202649 0.043981776 0.0464917
0.043745317 0.04926616 -0.0843681 0.09807459 -0.026849829 0.07037186 -0.17437576 -0.065074615
-0.0016572142 -0.06199064 0.043618485 -0.015707176 0.060871635 0.05859993 -0.08792357 0.08122261
0.06797194 -0.06326953 0.2400613 -0.030723747 0.06846703 0.075735636 0.118402146 0.050689917
-0.04740686 -0.038379494 0.013291719 -0.03604646 -0.016904192 0.051075045 0.1291131 0.01625538
-0.10999247 0.00051739335 -0.06783802 -0.103919104 0.033445332 0.16656485 0.06726593 -0.12578472
-0.103085734 -0.06818359 0.08803792 -0.06394983 -0.0145383375 -0.0013508991 -0.059702966 -0.07128464
0.1298079 0.12156089 0.11141244 -0.1456294 -0.033454165 -0.057708587 0.020747464 -0.0020593344
0.027530735 -0.107163146 0.020092651 0.00863486 0.06317401 0.07386477 0.007439103 -0.008599529
-0.0138416905 -0.16959131 -0.05122538 0.05120412 -0.036818665 -0.081584595 -0.029777046 -0.027593441
-0.10491226 0.16626905 0.10104229 -0.043736845 -0.23005864 0.019040879 0.16323565 0.009593699
0.06597132 0.10166015 0.025994359 0.018792678 -0.053364106 -0.07623772 0.03495116 -0.27471918
-0.002162806 -0.047290348 0.09900625 -0.032613114 0.16947804 0.12574682 -0.2671114 0.049648177
0.020328283 -0.0996131 0.0063833557 -0.00052456104 -0.0061520194 -0.0034034383 -0.042557325 -0.098792866
0.14082582 -0.16271175 -0.04716817 0.025940513 -0.015956772 0.055209655 -0.0818069 0.051710263
-0.10809235 0.029966295 0.15888837 0.08445844 0.044606876 0.0638973 -0.011707852 -0.07740554
-0.19186495 -0.06645291 -0.0042807544 -0.026738647 0.04173639 0.1683589 -0.05526786 -0.11346397
-0.17361763 -0.118926935 0.030556714 -0.04721753 -0.053047914 -0.17446552 0.023728069 0.1555783
00000000: ab7d 003e b712 41be 3c42 8f3b 590a 0abe
00000010: 6aea be3d ac04 583d 1396 363d 84d4 f73d
00000020: 90b0 133e 78cf 1a3d c882 473d 46d4 5f3d
00000030: a901 e23c 66ab d33d 0e30 7e3d ee85 883c
00000040: 41c9 433d 08f3 40be bfe6 7b3d 67ba c03b
00000050: 6524 23bd e244 f6bc 43d0 b8bd ca24 15be
00000060: 3796 39bc d92d b9bd ec89 c5bd de6f 09bc
00000070: 9f9d 84bd 648d 16bd f347 a5bd e357 723c
00000080: 3018 3cbd c8f0 e53d d023 8e3b 6673 643d
00000090: da6f 0d3d d4e3 e13d 4964 763d b053 d1bd
000000a0: a878 1bbc 7bf2 d1bd 3ecb 2f3d d9af 273b
000000b0: 74d1 973c 135a 163e e7bc 143e a8ed 963d
000000c0: 21be 31bd 19a9 3bbe 4b5e 0a3e 2ff8 b1bd
000000d0: 40ac d3bc 7eeb 383d de74 1d3d 0db3 17bd
000000e0: 3dfc b5bd df9d 04be eec1 583d 909a 143e
000000f0: 0cc6 8a3d 6796 1e3e d6f4 463d 2449 ba3d
00000100: ce73 863a 3de9 0bbe 96c3 033d ac08 c23d
00000110: a43b 1ebd 302c 98bd 8d7f 153c 55cd c53d
00000120: 620a 613d babe e43d 1431 493d fdfb 8a3d
00000130: 4a23 173e 514f 8dbd 3d52 4dbd 30e9 2a3d
00000140: 677d aebd 92e5 db3d 2acf a7bc b1b7 94bd
00000150: 8ca2 973d 4d50 a7bc 32cb 5b3c b503 c1bd
00000160: c8fa 243e bc94 723d da17 d4bd bc76 253d
00000170: 5ea5 da3d 48b1 84bc 0daa 35bd 8f3f 233e
00000180: 3157 14be bc38 29be f8e7 053e 4ddf 84bd
00000190: a796 8a3d 839b e83d 8bb8 8a3d cf30 413e
000001a0: ff02 ad3d 524f 24bd 3cf6 b83c 4cf2 2b3d
000001b0: de21 b1bd 6313 bbbd f8d2 e4bd 0720 ef3d
000001c0: 71b0 913c 24b0 243c 2b32 f1bd 4e6c 843e
000001d0: 6a1e 153d 6278 bc3d 3c26 343d 156e 3e3d
000001e0: 4a2e 333d 50cb 493d 2fc9 acbd 55db c83d
000001f0: 2cf4 dbbc 1f1f 903d 8f8f 32be d745 85bd
00000200: e236 d9ba e6e9 7dbd 4ca9 323d 56ac 80bc
00000210: 8954 793d 7b06 703d 4611 b4bd 0a58 a63d
00000220: df34 8b3d 7593 81bd a1d2 753e 5eb0 fbbc
00000230: 7138 8c3d 491b 9b3d d37c f23d 3ba0 4f3d
00000240: b22d 42bd d133 1dbd 83c5 593c 74a5 13bd
00000250: a97a 8abc 1134 513d 3936 043e 012a 853c
00000260: bb43 e1bd aea1 073a a9ee 8abd 8ad3 d4bd
00000270: f9fd 083d fa8f 2a3e b8c2 893d b6cd 00be
00000280: 9d1e d3bd d7a3 8bbd 3a4d b43d 21f8 82bd
00000290: 3532 6ebc a710 b1ba 198b 74bd aefd 91bd
000002a0: 5dec 043e eaf4 f83d 352c e43d e01f 15be
000002b0: 3c07 09bd d75f 6cbd 96f6 a93c e6f5 06bb
000002c0: 2388 e13c 5a78 dbbd 5899 a43c 3a79 0d3c
000002d0: 6061 813d 6a46 973d b8c3 f33b 0ae5 0cbc
000002e0: 42c8 62bc 58a9 2dbe b4d1 51bd 69bb 513d
000002f0: 2bcf 16bd d315 a7bd feee f3bc a40b e2bc
00000300: 3ddc d6bd 6f42 2a3e 43ef ce3d 6825 33bd
00000310: 7e94 6bbe 9efb 9b3c 3f27 273e e42e 1d3c
00000320: f91b 873d 3233 d03d 1ff2 d43c 1af3 993c
00000330: 5294 5abd 8622 9cbd f328 0f3d fea7 8cbe
00000340: ddbd 0dbb 86b3 41bd cac3 ca3d 5495 05bd
00000350: a78b 2d3e c6c3 003e d3c2 88be e35b 4b3d
00000360: 8087 a63c f401 ccbd 782b d13b b282 09ba
00000370: e196 c9bb 380c 5fbb 9750 2ebd ea53 cabd
00000380: a534 103e e99d 26be 6933 41bd 3381 d43c
00000390: c7b7 82bc 8523 623d 608a a7bd 24ce 533d
000003a0: 865f ddbd e07b f53c a2b3 223e 8cf8 ac3d
000003b0: b3b5 363d 96dc 823d 4ad2 3fbc cc86 9ebd
000003c0: 3f78 44be 7718 88bd 9245 8cbb 020b dbbc
000003d0: c7f3 2a3d 4766 2c3e 8d60 62bd cc5f e8bd
000003e0: d2c8 31be f78f f3bd 1352 fa3c 2b67 41bd
000003f0: c548 59bd 17a7 32be 5e61 c23c eb4f 1f3e

network_body._body_endoder.seq_layers.2.bias f4 [128]
0.004309491 -0.009896359 -0.0015280779 0.0039997506 -0.009468522 -0.0074667186 0.0024458822 -0.009611447
0.013469071 -0.00430795 -0.00754698 -0.0068705278 -0.022974716 -0.010993285 -0.007236083 -0.0020010858
-0.0038707159 0.0021428128 0.0039803484 0.0014847916 0.0024015987 0.00019053635 0.003504012 -0.014636828
0.0011612504 -0.011984628 -0.0011637089 -0.0016777288 0.022833996 0.002283103 0.015008293 -0.0031380798
-0.0027417256 -0.007813588 0.009273942 1.2705999e-05 0.015554142 -0.0014891787 -0.00760436 0.006170877
-0.00053634786 -0.001329973 -0.006906279 -0.0019553918 0.004369435 0.0016873579 0.014656153 -0.00547133
-0.0068808463 -0.004920584 -0.00042540973 -0.0042852964 0.00043958527 0.004466705 0.0019157593 0.004237085
0.0014492399 -0.0014135324 -0.0006201074 0.017853925 -0.008924025 0.0028625797 0.009210695 -0.0054844506
0.0004013452 -0.0021313063 -3.446342e-05 -0.002236508 0.0059856484 -0.0020584418 -0.006066794 -0.00039200814
0.002807495 -0.00358585 -0.001470931 -0.0035858518 -0.0067308177 0.0062328847 0.03574432 0.0034468751
-0.012669509 0.00248352 -0.0073481146 0.0026657868 -9.609264e-05 0.0011553032 -0.004137122 -0.001454471
-0.0070373192 -0.003954068 0.0011209954 0.0053518694 -0.003279436 0.015521903 -0.005216827 0.007865859
0.004766188 0.007430345 -0.0011150462 0.00032945888 -0.00010250999 0.0106214285 0.0006724465 0.002236959
0.0009497738 0.0002733215 0.0020925596 0.005965324 -0.007061863 -0.005286085 -0.004940005 0.0011314926
-0.0022778674 -0.003099797 -0.010203698 -0.0024706805 0.0020138454 0.0015741114 -0.000964796 0.0019748365
0.00706659 0.00219395 0.04531838 0.0013981983 -0.001827942 0.00390294 0.0030909178 -0.0037320352
00000000: a136 8d3b 5724 22bc c949 c8ba 5710 833b
00000010: dc21 1bbc 60ab f4bb 184b 203b 5579 1dbc
00000020: 61ad 5c3c b429 8dbb a84c f7bb 2a22 e1bb
00000030: 7935 bcbc 2e1d 34bc aa1c edbb a624 03bb
00000040: d6ab 7dbb 6f6e 0c3b 956d 823b 579d c23a
00000050: 2464 1d3b b6ca 4739 91a3 653b 4ecf 6fbc
00000060: 1935 983a 2c5b 44bc 9787 98ba 3de7 dbba
00000070: 5c0e bb3c 1da0 153b 58e5 753c 3ea8 4dbb
00000080: 86ae 33bb 9004 00bc bbf1 173c da2b 5537
00000090: cdd6 7e3c 8c30 c3ba ff2d f9bb 1135 ca3b
000000a0: b299 0cba 7d52 aeba 114e e2bb 0826 00bb
000000b0: 7a2d 8f3b 562a dd3a 5c20 703c d848 b3bb
000000c0: b978 e1bb da3c a1bb 8709 dfb9 ac6b 8cbb
000000d0: 2378 e639 705d 923b 371a fb3a 3fd7 8a3b
000000e0: 6cf4 bd3a 4746 b9ba b48e 22ba 6542 923c
000000f0: 1336 12bc 1e9a 3b3b 74e8 163c e8b6 b3bb
00000100: a46b d239 63ad 0bbb d18c 10b8 6192 12bb
00000110: 4223 c43b ece6 06bb f5cb c6bb 7186 cdb9
00000120: f3fd 373b 9400 6bbb 41cc c0ba 9c00 6bbb
00000130: 318e dcbb 3a3d cc3b a368 123d f8e4 613b
00000140: c693 4fbc 8dc2 223b 74c8 f0bb 7bb4 2e3b
00000150: 5885 c9b8 8b6d 973a b290 87bb f3a3 beba
00000160: 5099 e6bb 2091 81bb 5dee 923a bc5e af3b
00000170: ceeb 56bb 944f 7e3c ebf1 aabb cedf 003c
00000180: af2d 9c3b 407a f33b be26 92ba 39bb ac39
00000190: a2fa d6b8 8005 2e3c 1f47 303a f299 123b
000001a0: 3efa 783a 974c 8f39 5323 093b c478 c33b
000001b0: 3367 e7bb e536 adbb c4df a1bb 974e 943a
000001c0: 4648 15bb f725 4bbb 692d 27bc 24eb 21bb
000001d0: b8fa 033b 6a52 ce3a 5dea 7cba 426c 013b
000001e0: da8e e73b 5fc8 0f3b c49f 393d c043 b73a
000001f0: 8e97 efba 78c8 7f3b ff90 4a3b 2995 74bb

action_model._continuous_distribution.log_sigma f4 [1, 2]
-0.03753883 -0.02295244
00000000: 51c2 19bd c106 bcbc

action_model._continuous_distribution.mu.weight f4 [2, 128]
0.023450756 -0.011259002 -0.008631175 0.012381487 -0.035164297 -0.01088355 0.0078005637 -0.002169779
-0.039350707 -0.01162832 -0.007647307 -0.014761976 0.013496976 -9.765593e-05 -0.0043508178 0.014853046
-0.016196752 0.01682825 0.0005349182 0.005641004 0.0045175585 -0.022044763 0.016656276 -0.00343995
0.0023272391 -0.021916185 -0.014621108 -0.0022003623 0.0055756117 -0.020251188 0.030124158 0.0009577536
0.0021467723 -0.019326804 0.01831997 0.007142391 0.012039861 -0.04038583 -0.024084114 -0.01550571
0.0041987244 -0.019355899 -0.06329103 -0.008594658 0.01819664 -0.020431736 -0.031643458 -0.012252918
-0.0049482235 -0.012037641 -0.012216353 -0.0061763013 -0.0041502602 0.0075177653 0.0260474 0.0022865809
0.009052828 0.021036072 0.005659369 0.020236716 0.0034534244 0.017281441 0.008228079 -0.014411841
-0.0142020555 -0.008465273 -0.012392119 -0.0022840623 0.015181942 0.023574207 -0.005764752 -0.018883783
0.009989015 -0.014719007 -0.023549194 -0.025911558 -0.012290283 0.012036975 0.040040668 0.0097357975
0.0013059517 0.016811822 -0.023153186 0.020136451 0.013030009 0.018461272 -0.011987647 0.0044541014
-0.028849022 -0.007879178 0.008669205 -0.031017773 -0.004724045 0.014482162 -0.03242398 -0.023425328
0.011771474 0.022345435 -0.019247029 -0.012402269 0.0027156335 0.012338394 -0.0028779604 0.008845664
0.008074169 0.06230607 0.011178612 0.0030907113 -0.004270023 -0.0042503574 -0.03138302 0.012922022
-0.0036663963 -0.030674765 -0.004025094 -0.0077725654 -0.0106761055 0.028349953 -0.002910075 0.0077856686
0.037061054 -0.0046814485 -0.07612295 0.0022061984 0.00020533797 0.011060593 -0.016014775 0.018573165
-0.032926597 0.006673798 -0.0237934 -0.041585285 -0.0046490207 0.0005775618 -0.016647259 -0.0022932917
-0.058585916 0.0018989342 0.00096250605 -0.004841053 -0.010282765 -0.000493001 0.007712412 0.023452513
0.038585037 -0.023690628 -0.043856226 -0.020455759 0.003276802 0.019756267 -0.013878122 -0.00016040614
-0.0052889497 0.0074461824 0.024054836 0.042213112 -0.07572227 0.036698345 -0.02219772 -0.0049459767
0.020433005 -0.022335518 0.008546728 -0.005772578 0.0037903648 0.03900333 -0.00026160208 0.021544239
0.019356286 -0.010624531 0.014648117 0.0020316048 0.015056519 -0.038613535 0.023671601 -0.0055788443
-0.004795977 -0.0048475624 -0.023510136 0.011883366 -0.009965638 0.007823071 -0.008679361 0.04852411
-0.017652154 -0.042036608 -0.0021365837 -0.00021936465 0.0075131212 0.017357392 0.00016387843 0.00067504734
0.004742217 -0.042730298 0.001395595 0.010100452 0.02156565 -0.0015934192 -0.0050377725 0.0021106421
0.004293935 0.027825043 -0.022649786 0.005950194 0.011055612 -0.006431829 0.0052777748 0.016334621
-0.00080545316 0.016791677 -0.00390738 0.021641668 0.00945574 -0.024214 0.004568723 -0.022574693
-0.011512099 -0.0098926 -0.022267623 -0.002619038 0.025510611 -0.0055484097 0.0056959265 0.009671694
-0.013549588 -0.0005306671 -0.037302412 -0.025294865 -0.01309499 -0.0027259842 -0.005340274 -0.020297911
-0.024546549 0.0012378438 0.0017491423 0.02808208 0.0010584891 0.01246667 0.020585908 -0.01621825
0.020568235 0.010760807 0.012709416 -0.021605307 0.012266318 -0.0021985783 -0.026168782 -0.017423542
0.012035586 -0.02391344 0.051895507 0.000431614 0.023096256 0.01243032 0.0047323336 0.026174149
00000000: cd1b c03c ad77 38bc c669 0dbc b8db 4a3c
00000010: 7008 10bd eb50 32bc df9b ff3b da32 0ebb
00000020: 352e 21bd b684 3ebc 4396 fabb 37dc 71bc
00000030: 6c22 5d3c a1cc ccb8 4e91 8ebb 315a 733c
00000040: 0daf 84bc 66db 893c c139 0c3a 2cd8 b83b
00000050: 0708 943b 3897 b4bc be72 883c c970 61bb
00000060: 9884 183b 9289 b3bc 5f8d 6fbc f433 10bb
00000070: 9fb3 b63b d2e5 a5bc f0c6 f63c c211 7b3a
00000080: ddb0 0c3b 3f53 9ebc c313 963c b80a ea3b
00000090: d642 453c 9d6b 25bd 0c4c c5bc a90b 7ebc
000000a0: 7495 893b 4390 9ebc ba9e 81bd 9cd0 0cbc
000000b0: 1f11 953c 7560 a7bc 929c 01bd 77c0 48bc
000000c0: b524 a2bb 8739 45bc 1927 48bc 9262 cabb
000000d0: e8fe 87bb 9657 f63b 5b61 d53c 76da 153b
000000e0: 5052 143c d753 ac3c 3a72 b93b 78c7 a53c
000000f0: d952 623b cf91 8d3c 11cf 063c a41f 6cbc
00000100: bdaf 68bc eeb1 0abc 5008 4bbc 35b0 15bb
00000110: aebd 783c b21e c13c 3fe6 bcbb 2ab2 9abc
00000120: f7a8 233c fd27 71bc 3dea c0bc 7a44 d4bc
00000130: 2f5d 49bc bb36 453c af01 243d e582 1f3c
00000140: 782c ab3a f2b8 893c c0ab bdbc 33f5 a43c
00000150: d27b 553c 183c 973c d667 44bc b6f3 913b
00000160: c954 ecbc ab17 01bc 4809 0e3c fc18 febc
00000170: 29cc 9abb 9746 6d3c 02cf 04bd 79e6 bfbc
00000180: 24dd 403c c60d b73c f2ab 9dbc e332 4bbc
00000190: c5f8 313b fa26 4a3c 2a9c 3cbb 67ed 103c
000001a0: 8549 043c a634 7f3d 7f26 373c 888d 4a3b
000001b0: 8deb 8bbb 9546 8bbb 7b8b 00bd e3b6 533c
000001c0: ec47 70bb a549 fbbc f0e4 83bb 01b1 febb
000001d0: d5ea 2ebc 293e e83c f5b6 3ebb ec1e ff3b
000001e0: 55cd 173d d666 99bb 59e6 9bbd de95 103b
000001f0: fe4f 5739 7d37 353c 6b31 83bc c026 983c
00000200: 0ade 06bd e0af da3b 60ea c2bc 5555 2abd
00000210: d056 98bb 8467 173a d55f 88bc 0d4b 16bb
00000220: c9f7 6fbd a9e5 f83a b050 7c3a b2a1 9ebb
00000230: 0b79 28bc bd3c 01ba 67b8 fc3b 7c1f c03c
00000240: 580b 1e3d d912 c2bc 96a2 33bd d692 a7bc
00000250: 9dbf 563b e5d7 a13c 1061 63bc b232 28b9
00000260: ed4e adbb 1bff f33b a60e c53c a8e7 2c3d
00000270: 4714 9bbd 0151 163d fed7 b5bc dc11 a2bb
00000280: 1e63 a73c faf8 b6bc 9307 0c3c e527 bdbb
00000290: c567 783b f5c1 1f3d a327 89b9 8b7d b03c
000002a0: 1391 9e3c 8312 2ebc a8fe 6f3c ac24 053b
000002b0: 9eaf 763c 3a29 1ebd f2ea c13c bdce b6bb
000002c0: 9227 9dbb 4dd8 9ebb 5498 c0bc 73b2 423c
000002d0: ea46 23bc 572c 003c e133 0ebc 38c1 463d
000002e0: 409b 90bc 942e 2cbd ed05 0cbb 4005 66b9
000002f0: a130 f63b 1731 8e3c c8d6 2b39 a9f5 303a
00000300: 9964 9b3b f705 2fbd 66ec b63a 5e7c 253c
00000310: 72aa b03c 47da d0ba e613 a5bb b352 0a3b
00000320: 23b4 8c3b 58f1 e33c 0b8c b9bc d8f9 c23b
00000330: 9922 353c 18c2 d2bb 2ff1 ac3b 2fd0 853c
00000340: 0c25 53ba b38e 893c 7b09 80bb de49 b13c
00000350: 40ec 1a3c 705c c6bc 3ab5 953b 90ee b8bc
00000360: 3e9d 3cbc 9214 22bc 976a b6bc 2ba4 2bbb
00000370: a1fb d03c 6fcf b5bb e5a4 ba3b 0676 1e3c
00000380: 17ff 5dbc 771c 0bba 6aca 18bd 2d37 cfbc
00000390: 5e8c 56bc 6da6 32bb 77fd aebb ce47 a6bc
000003a0: d815 c9bc 253f a23a 7a43 e53a 640c e63c
000003b0: 00bd 8a3a 0141 4c3c c7a3 a83c 23dc 84bc
000003c0: b77e a83c 194e 303c 283b 503c 9dfd b0bc
000003d0: abf8 483c 0616 10bb ea5f d6bc d1bb 8ebc
000003e0: e830 453c 1ee6 c3bc 6290 543d 404a e239
000003f0: 5c34 bd3c 8aa8 4b3c b111 9b3b 2b6b d63c

action_model._continuous_distribution.mu.bias f4 [2]
0.0060298587 -0.0005886312
00000000: 1f96 c53b 5f4e 1aba

exp_avg f4 [128, 6]
0.00055320724 0.000121562516 -0.0017465573 0.0004652224 8.95961e-05 -0.0016896764 -0.0014627308 5.5310633e-05
-0.001417414 -0.0014101785 3.62445e-05 -0.0010838733 0.00027039635 3.034619e-05 -0.00044884218 0.00013415296
2.0979183e-05 -0.0002483977 0.0006084229 0.00013369488 -0.001464921 1.2691191e-05 9.601124e-05 -0.001264859
0.00065598835 0.00010586933 -0.0006725577 0.00035081204 7.6613636e-05 -0.0005655271 -0.00047763152 5.6377714e-05
0.00011782916 -0.00081464695 4.2215856e-05 0.00045535178 0.00018695323 3.4706718e-05 0.0012412798 -0.00021944975
2.4495173e-05 0.0014783654 0.0021340412 0.00010442958 -0.0011407501 0.00090296497 7.8320794e-05 -0.00074070005
-0.00021420588 3.8606875e-05 0.00038026625 -0.00046252075 2.895745e-05 0.00063425896 2.1597632e-05 1.1724531e-05
-9.634131e-05 -2.0762178e-05 8.390227e-06 4.8388683e-06 0.0009768583 5.78482e-05 -0.00025090712 0.00047054107
4.279842e-05 -8.0150494e-05 -0.0018070206 -0.000183619 0.0017578909 -0.0013336276 -0.00013671756 0.0019811909
0.00079746445 5.796644e-05 -0.00029334502 0.00045187978 4.3016233e-05 -0.00017797328 0.00093004043 -1.9640587e-05
0.0008564614 0.0006853888 -1.5151662e-05 0.0005872893 -0.001984119 -0.00012802628 0.001244285 -0.0013719719
-9.625937e-05 0.0012811322 -0.0022741973 -8.39824e-05 0.0011083164 -0.0015014948 -6.571191e-05 0.0014535245
0.001804349 9.4879535e-05 -0.0011796138 0.0011261776 7.088699e-05 -0.0013400614 0.0009074517 4.711968e-05
-0.00047089602 0.0004946712 3.5347468e-05 -0.00040259495 0.0023993445 7.058849e-05 -0.000614926 0.0013873007
5.4233657e-05 -0.00079681585 -0.0013895879 -5.1023017e-06 -0.0010430044 -0.0006204724 -5.2427094e-06 -0.0012778735
0.0004472567 4.591901e-05 -0.0005202191 0.0004177586 3.442186e-05 -0.0006880029 0.0019071291 3.38643e-05
-0.00066191505 0.0013992012 2.5602872e-05 -0.0008231859 -0.00048789318 -2.6361087e-05 0.0001887796 -0.00020293047
-1.8978928e-05 0.00010110508 -0.0004094037 -2.692346e-05 -0.00010836164 -0.00019732228 -2.0064617e-05 -0.00013548927
-0.0015351857 -8.5645435e-05 0.00045283773 -0.00092948356 -6.4597e-05 0.0002771559 -0.0016359856 -0.000119138436
0.001005964 -0.0011704306 -8.906655e-05 0.0010829677 -0.0001860291 -8.651502e-05 0.0006834248 -5.50854e-06
-6.5042215e-05 0.0007243309 0.0010341859 6.412121e-05 -0.0006309082 0.00087425363 4.8330214e-05 -0.0007916534
4.9578055e-05 4.5641955e-05 -0.00061687524 -1.5669211e-05 3.1176784e-05 -0.00045117052 -0.0001867712 -4.9726077e-06
0.0003025497 -0.00017906057 -3.7275022e-06 0.00028871174 0.00014885419 -6.60364e-06 0.00023282795 0.0001291181
-5.646244e-06 0.00031835446 0.0014610142 0.00013632425 -0.0011990351 0.0007846601 0.00010110542 -0.0011087379
-7.787021e-07 -2.537729e-05 -0.0006198741 0.0002285272 -1.7815468e-05 -0.0007871002 0.00019317726 1.8550545e-05
-2.8989161e-05 0.0004315115 1.3778063e-05 -0.00023621094 -0.0004822309 5.870518e-05 0.00014273616 -0.00080659834
4.3884724e-05 0.00053680426 -0.00042015084 1.2967305e-05 -0.0005419638 -0.00023998973 9.840561e-06 -0.00063962693
0.0004129295 7.707445e-05 -0.0007267948 0.0005778512 5.5813878e-05 -0.00068011164 -0.0009287138 5.8395046e-05
-2.4818233e-05 -0.0011092897 4.3424072e-05 0.00046301028 0.0022531953 0.00015798354 -0.0012078484 0.0014068249
0.00011866844 -0.0011401412 -0.0004747656 -2.2721666e-05 0.00015261944 -0.00028566574 -1.4263474e-05 0.0001777038
0.0019080407 0.00011075589 -0.00082036084 0.0012808567 8.32238e-05 -0.00073502015 0.00016711978 4.149977e-05
-0.0014753868 -8.114055e-05 3.0235278e-05 -0.0015991258 -0.0017027411 -0.000108508 0.0013220632 -0.0013340142
00000000: 1c05 113a 61ef fe38 bdec e4ba 18e9 f339
00000010: 8ae5 bb38 2278 ddba 1ab9 bfba 57fd 6738
00000020: 86c8 b9ba bdd5 b8ba 3c05 1838 c110 8eba
00000030: fcc3 8d39 f28f fe37 9452 ebb9 69ab 0c39
00000040: 74fc af37 603b 82b9 927e 1f3a 7230 0c39
00000050: 9802 c0ba 40ec 5437 a459 c938 a0c9 a5ba
00000060: a2f6 2b3a 2a06 de38 954e 30ba 32ed b739
00000070: a2ab a038 e23f 14ba 9e6a fab9 1c77 6c38
00000080: 0c1b f738 088e 55ba ee10 3138 48bc ee39
00000090: e008 4439 0e92 1138 70b2 a23a 181c 66b9
000000a0: fc7a cd37 b6c5 c13a 45db 0b3b 3401 db38
000000b0: 3985 95ba f4b4 6c3a 2840 a438 8a2b 42ba
000000c0: 749c 60b9 d1ed 2138 795e c739 7c7e f2b9
000000d0: a6e9 f237 6644 263a 902c b537 7ab4 4437
000000e0: d90a cab8 702a aeb7 c0c3 0c37 905d a236
000000f0: ed09 803a 08a2 7238 2f8c 83b9 f4b2 f639
00000100: 7482 3338 7816 a8b8 8dd9 ecba da89 40b9
00000110: 0869 e63a 1ecd aeba d75b 0fb9 ded6 013b
00000120: ef0c 513a fe20 7338 1acc 99b9 47ea ec39
00000130: 546c 3438 579e 3ab9 f5cd 733a d7c1 a4b7
00000140: 2784 603a aaab 333a e533 7eb7 51f4 193a
00000150: fe07 02bb cb3e 06b9 4717 a33a bdd3 b3ba
00000160: dbde c9b8 aaeb a73a b30a 15bb b51f b0b8
00000170: ed44 913a cecd c4ba d0ce 89b8 3084 be3a
00000180: e87f ec3a 10fa c638 459d 9aba 409c 933a
00000190: 2aa9 9438 00a5 afba 0de2 6d3a 5fa2 4538
000001a0: 98e2 f6b9 d3ac 013a 0e42 1438 6113 d3b9
000001b0: 523e 1d3b e808 9438 fc32 21ba 16d6 b53a
000001c0: f278 6338 68e1 50ba d522 b6ba 7034 abb6
000001d0: 6cb5 88ba 33a7 22ba 88ea afb6 527e a7ba
000001e0: c77d ea39 2999 4038 505f 08ba 9c06 db39
000001f0: 3160 1038 185b 34ba a2f8 f93a 8409 0e38
00000200: 5e84 2dba 6765 b73a c0c5 d637 12cb 57ba
00000210: eacb ffb9 0122 ddb7 23f3 4539 bcc9 54b9
00000220: f034 9fb7 6008 d438 3ca5 d6b9 b1d9 e1b7
00000230: 3640 e3b8 4ce8 4eb9 7050 a8b7 2012 0eb9
00000240: 4938 c9ba 8b9c b3b8 da6a ed39 96a8 73ba
00000250: 4078 87b8 3c4f 9139 916e d6ba f6d9 f9b8
00000260: 8dda 833a 2269 99ba 3dc9 bab8 5ef2 8d3a
00000270: ce10 43b9 666f b5b8 dd27 333a 00d6 b8b6
00000280: 4667 88b8 06e1 3d3a 858d 873a d078 8638
00000290: 8863 25ba 2b2e 653a 2cb6 4a38 f686 4fba
000002a0: 08f2 4f38 ad6f 3f38 ccb5 21ba 6071 83b7
000002b0: d1c3 0238 158b ecb9 03d8 43b9 60da a6b6
000002c0: 899f 9e39 35c2 3bb9 0026 7ab6 3c5e 9739
000002d0: be15 1c39 d694 ddb6 4723 7439 e063 0739
000002e0: de74 bdb6 d0e8 a639 807f bf3a 43f2 0e39
000002f0: f128 9dba a6b1 4d3a 8f08 d438 1253 91ba
00000300: 0008 51b5 51e1 d4b7 0c7f 22ba cea0 6f39
00000310: 6d72 95b7 6655 4eba a08f 4a39 fe9c 9b37
00000320: c02d f3b7 7e3c e239 5428 6737 64af 77b9
00000330: f0d3 fcb9 353a 7638 72ab 1539 e671 53ba
00000340: dd10 3838 53b8 0c3a b147 dcb9 278e 5937
00000350: 9312 0eba c1a5 7bb9 e318 2537 a3ac 27ba
00000360: 767e d839 08a3 a138 6086 3eba f07a 173a
00000370: b219 6a38 8549 32ba ee74 73ba 34ed 7438
00000380: c030 d0b7 9665 91ba 3e22 3638 30c0 f239
00000390: 58aa 133b 62a8 2539 ab50 9eba 3665 b83a
000003a0: a2dd f838 ca70 95ba f6e9 f8b9 689a beb7
000003b0: 7808 2039 68c5 95b9 284d 6fb7 0056 3a39
000003c0: 3917 fa3a 9e45 e838 7c0d 57ba 6be2 a73a
000003d0: 7088 ae38 5eae 40ba e03c 2f39 0a10 2e38
000003e0: c461 c1ba 002a aab8 c4a1 fd37 c299 d1ba
000003f0: 832e dfba ca8e e3b8 1449 ad3a 17da aeba

exp_avg_sq f4 [128, 6]
7.312214e-05 4.5171487e-07 7.811927e-05 0.00010436541 2.5326395e-07 3.746402e-05 3.5437217e-05 2.2967141e-07
3.3157332e-05 5.1041778e-05 1.2826565e-07 2.9808078e-05 1.7541282e-05 3.0144005e-07 3.0721632e-05 1.5617074e-05
1.6925273e-07 7.22522e-05 2.6211683e-05 1.4263865e-07 2.3470888e-05 4.089941e-05 7.96509e-08 1.0965664e-05
8.704176e-06 6.4389035e-08 1.1047529e-05 4.1379612e-06 3.569127e-08 7.475191e-06 1.2869531e-05 1.16243825e-07
1.000899e-05 1.7953482e-05 6.537321e-08 2.3454024e-05 0.00011948226 6.5837713e-07 7.813611e-05 0.0001911218
3.6952554e-07 9.5788964e-05 4.4680444e-05 2.7729433e-07 4.44254e-05 1.96867e-05 1.5597809e-07 2.9396997e-05
2.7143564e-05 1.2708917e-07 1.2606885e-05 4.3401655e-05 7.149714e-08 1.4000246e-05 3.335164e-06 1.8134292e-08
3.2802436e-06 4.7908666e-06 1.0101707e-08 3.4047914e-06 2.2739574e-05 1.0360782e-07 3.4977068e-06 1.0624051e-05
5.8230995e-08 7.841935e-06 0.00010791454 4.863045e-07 4.3885964e-05 4.7663503e-05 2.734213e-07 2.4350464e-05
5.587303e-06 2.635647e-08 2.7255794e-06 2.5012498e-06 1.4806887e-08 3.1840952e-06 3.361299e-05 2.9741196e-07
3.7646398e-05 5.4203316e-05 1.673248e-07 6.098371e-05 2.7507114e-05 1.229849e-07 1.4308964e-05 1.3357423e-05
6.910922e-08 8.984488e-06 3.5499797e-05 2.3915587e-07 5.2765143e-05 3.203858e-05 1.3433922e-07 3.0459425e-05
3.2092932e-05 1.8468623e-07 3.5372705e-05 4.2436146e-05 1.0362451e-07 1.821322e-05 1.3563168e-05 5.776919e-08
5.115861e-06 6.1576457e-06 3.2493123e-08 4.766952e-06 8.660029e-05 5.3364124e-07 9.7325064e-05 0.00010967183
2.993949e-07 5.0098493e-05 6.549328e-05 3.3722944e-07 5.6022578e-05 6.708457e-05 1.8937116e-07 2.7336233e-05
2.0587373e-05 9.1068586e-08 4.692585e-06 9.4779125e-06 5.1217917e-08 7.0164856e-06 1.626485e-05 1.0729414e-07
2.6546199e-05 1.8644336e-05 6.034916e-08 1.4463594e-05 8.102315e-06 4.6203386e-08 3.1235115e-06 4.6004707e-06
2.5831532e-08 6.4449314e-06 3.0331678e-06 5.0664458e-08 4.4756857e-06 1.9864071e-06 2.8491598e-08 1.079255e-05
1.8824461e-05 8.948499e-08 8.592101e-06 8.696612e-06 5.0268497e-08 1.0926833e-05 2.2793914e-05 1.12900544e-07
6.091559e-06 1.1067966e-05 6.3435465e-08 9.415952e-06 6.4673172e-06 4.9099025e-08 1.0196321e-05 4.581938e-06
2.7614599e-08 6.573592e-06 1.3178186e-05 7.5021966e-08 3.4959944e-06 6.1990836e-06 4.21895e-08 7.3584156e-06
3.189566e-05 1.5759831e-07 1.38964115e-05 5.1094332e-05 8.8358995e-08 1.3502325e-05 9.365802e-06 1.3010484e-07
1.35175505e-05 4.845127e-06 7.318312e-08 3.0502382e-05 2.3053446e-05 1.3671715e-07 1.5447917e-05 1.0511142e-05
7.6753025e-08 1.3729684e-05 1.0507434e-05 5.8858127e-08 8.059694e-06 4.968413e-06 3.3026392e-08 7.0348124e-06
2.4404502e-05 1.5261399e-07 1.4536972e-05 2.7772647e-05 8.556167e-08 1.6304448e-05 1.4876792e-05 1.0007044e-07
1.661289e-05 6.8175923e-06 5.6077713e-08 1.1064001e-05 1.9990675e-05 1.7554443e-07 1.4255981e-05 2.7153908e-05
9.8753844e-08 3.350359e-05 6.8526815e-06 3.9581604e-08 4.149405e-06 3.0430008e-06 2.2135232e-08 3.5908618e-06
2.770815e-05 2.2726842e-07 4.5660905e-05 2.749206e-05 1.276259e-07 2.4736137e-05 9.025661e-05 3.735499e-07
4.435831e-05 0.0001406627 2.1010781e-07 4.4508048e-05 2.3427423e-05 1.11050156e-07 7.3511656e-06 1.0200904e-05
6.246011e-08 4.8649918e-06 2.6380158e-05 1.2031072e-07 1.8988827e-05 4.2562613e-05 6.7125676e-08 1.0709257e-05
8.152608e-06 3.543961e-08 2.9264093e-06 3.8064945e-06 1.9744121e-08 2.2776396e-06 0.00012599121 5.5485225e-07
8.278613e-05 0.00020265846 3.111662e-07 4.686494e-05 1.1245641e-05 2.2502664e-07 2.1146285e-05 6.895786e-06
00000000: 2659 9938 3883 f234 f7d3 a338 c1de da38
00000010: 55f8 8734 af22 1d38 6ca2 1438 999b 7634
00000020: 6a12 0b38 b115 5638 65b9 0934 5c0c fa37
00000030: 9e25 9337 9bd5 a134 1adb 0038 6901 8337
00000040: d6bb 3534 1b86 9738 29e1 db37 3728 1934
00000050: 59e3 c437 688b 2b38 8c0c ab33 2bf9 3737
00000060: 2708 1237 3f46 8a33 c758 3937 d1d8 8a36
00000070: f74a 1933 67d3 fa36 37ea 5737 b8a1 f933
00000080: 49ec 2737 cf9a 9637 4d63 8c33 22bf c437
00000090: 8d92 fa38 55bb 3035 01dd a338 de67 4839
000000a0: 3463 c634 4fe2 c838 4367 3b38 0bdf 9434
000000b0: 6955 3a38 de24 a537 ee7a 2734 9299 f637
000000c0: 5cb2 e337 0176 0834 2982 5337 2c0a 3638
000000d0: f889 9933 99e2 6a37 aed1 5f36 bbc5 9b32
000000e0: 2822 5c36 3bc1 a036 c78b 2d32 df7d 6436
000000f0: ddc0 be37 007f de33 25ba 6a36 f43d 3237
00000100: a819 7a33 db90 0337 2d50 e238 978a 0235
00000110: 3212 3838 4cea 4738 bdca 9234 3944 cc37
00000120: 917a bb36 7e66 e232 19e9 3636 25db 2736
00000130: 6161 7e32 57ae 5536 acfb 0c38 fdab 9f34
00000140: 83e6 1d38 5e58 6338 e4a9 3334 c3c8 7f38
00000150: 14bf e637 d50d 0434 8810 7037 b219 6037
00000160: 3269 9433 15bc 1637 9ee5 1438 5565 8034
00000170: 2450 5d38 2a61 0638 e23e 1034 1e83 ff37
00000180: 869b 0638 2a4e 4634 275d 1438 77fd 3138
00000190: 2d88 de33 98c8 9837 5d8d 6337 e51d 7833
000001a0: e9a8 ab36 c69d ce36 918e 0b33 cef3 9f36
000001b0: 2d9d b538 8c3f 0f35 ff1a cc38 9eff e538
000001c0: 86bc a034 d920 5238 7059 8938 760c b534
000001d0: c9f9 6a38 c1af 8c38 f355 4b34 1d50 e537
000001e0: 0cb3 ac37 7c91 c333 0075 9d36 5303 1f37
000001f0: b2fa 5b33 276f eb36 8070 8837 9469 e633
00000200: 87af de37 6866 9c37 4d99 8133 aaa8 7237
00000210: 2eef 0737 2971 4633 859d 5136 be5d 9a36
00000220: 24e4 dd32 8a41 d836 6d8d 4b36 299a 5933
00000230: d92d 9636 374e 0536 b0bd f432 a611 3537
00000240: 39e9 9d37 e52a c033 cb26 1037 aae7 1137
00000250: cce6 5733 6452 3737 8f35 bf37 bb73 f233
00000260: 1866 cc36 8db0 3937 043a 8833 35f9 1d37
00000270: d501 d936 f3e0 5233 de10 2b37 8cbe 9936
00000280: 2535 ed32 ba92 dc36 e117 5d37 c31b a133
00000290: ba9c 6a36 b901 d036 d933 3533 4fe8 f636
000002a0: b4c7 0538 4b38 2934 a224 6937 1f4e 5638
000002b0: dfbf bd33 0b88 6237 d021 1d37 f2b2 0b34
000002c0: 70c9 6237 5393 a236 d828 9d33 5edf ff37
000002d0: e662 c137 86cc 1234 2696 8137 0359 3037
000002e0: 6cd3 a433 8b58 6637 1649 3037 32cb 7c33
000002f0: 1f38 0737 58b6 a636 e7d8 0d33 940c ec36
00000300: 45b8 cc37 37de 2334 d2e3 7337 4ef9 e837
00000310: 07be b733 89c5 8837 5697 7937 4ee6 d633
00000320: e95b 8b37 acc2 e436 19da 7033 869f 3937
00000330: a6b1 a737 497d 3c34 f92c 6f37 93c8 e337
00000340: 8012 d433 3586 0c38 16f0 e536 6f00 2a33
00000350: 1e3b 8b36 5b36 4c36 e423 be32 89fa 7036
00000360: cd6e e837 1107 7434 0684 3f38 c09e e637
00000370: 8a09 0934 7380 cf37 2648 bd38 4f8c c834
00000380: 5f0d 3a38 db7e 1339 ff99 6134 27ae 3a38
00000390: 0286 c437 787a ee33 08aa f636 8d24 2b37
000003a0: cf21 8633 f63d a336 f54a dd37 c22e 0134
000003b0: 324a 9f37 4285 3238 bb26 9033 e9ab 3337
000003c0: 2fc7 0837 4336 1833 5463 4436 1473 7f36
000003d0: c899 a932 8dd9 1836 821c 0439 28f1 1435
000003e0: 779d ad38 b780 5439 5b0e a734 d990 4438
000003f0: a9ab 3c37 da9e 7134 4d63 b137 5a62 e736

exp_avg f4 [128]
6.393289e-05 3.813221e-05 1.8733994e-05 7.536725e-05 5.8511403e-05 2.8323731e-05 2.0423078e-05 5.2217554e-05
1.9298832e-05 6.6685943e-06 3.0099567e-05 -9.380289e-05 2.990042e-05 -8.977831e-06 -6.353381e-05 -3.654107e-05
4.798509e-05 2.3544393e-05 3.2709766e-05 2.809138e-07 2.299426e-05 1.6522907e-05 -1.4764326e-05 -1.3717703e-05
-4.2096886e-05 -6.0143735e-05 -4.2945605e-05 3.158199e-05 2.893035e-05 -2.4902147e-06 -1.9147833e-06 7.043767e-05
-1.5123644e-05 9.544992e-06 2.964095e-05 6.2535278e-06 4.2521202e-05 2.9941904e-05 7.86302e-05 -1.691636e-05
5.506415e-05 2.2528984e-05 -5.4344648e-05 -2.2710983e-06 -4.6775804e-05 2.2217464e-06 -7.7951745e-06 -1.3220662e-05
0.00016092008 1.3769201e-05 -2.51716e-05 -5.657856e-06 2.708746e-05 -2.7887745e-06 -9.7274e-05 -7.084573e-05
4.0701198e-06 -6.3486414e-07 -3.140376e-07 2.1191554e-06 -2.7528109e-05 -6.639639e-05 3.2246877e-05 -1.8223183e-05
6.525559e-05 3.6040802e-07 8.547708e-06 -3.853634e-05 3.1188138e-05 1.0229338e-05 -3.9968014e-05 6.5220884e-06
-3.869937e-05 -2.5352245e-05 -4.263685e-05 3.2013624e-05 3.7239024e-05 1.0652253e-05 1.2423738e-05 1.3366374e-05
2.075297e-05 1.0988547e-05 -1.0238837e-06 3.2773823e-05 2.3818538e-06 -2.6229141e-05 1.2303055e-05 -9.549218e-06
-2.5145036e-06 -2.649465e-05 3.4463585e-05 1.1307544e-05 7.2952716e-06 -7.580586e-05 -1.7848215e-05 4.2065794e-06
-3.7799e-05 -2.0944473e-05 3.732676e-05 -1.5778305e-05 3.904657e-06 -6.613533e-05 -3.0599585e-05 2.0873587e-05
-0.0001062255 -1.8730516e-05 -2.3944942e-05 -1.1508591e-06 -1.1425045e-06 1.6833039e-05 3.813707e-05 8.1222184e-05
-3.8991977e-05 -9.251698e-06 -8.065526e-06 8.4740124e-05 -6.243464e-05 -6.180054e-05 -7.736272e-05 9.740674e-06
4.169663e-05 -7.447724e-05 4.5863108e-06 -4.16085e-05 4.5344925e-05 -4.5916648e-05 -8.650995e-06 -7.015966e-05
00000000: b513 8638 26f0 1f38 f226 9d37 7c0e 9e38
00000010: 246a 7538 c098 ed37 3a52 ab37 2c04 5b38
00000020: ede3 a137 cac2 df36 547e fc37 0bb8 c4b8
00000030: aad2 fa37 7e9f 16b7 743d 85b8 ad43 19b8
00000040: 9943 4938 3381 c537 d831 0938 80d0 9634
00000050: cce3 c037 ac9a 8a37 4cb4 77b7 1625 66b7
00000060: 3091 30b8 d842 7cb8 7e20 34b8 e776 0438
00000070: 74af f237 901d 27b6 ba7f 00b6 f0b7 9338
00000080: 8ebb 7db7 6e23 2037 75a5 f837 65d5 d136
00000090: cb58 3238 c02b fb37 44e6 a438 9be7 8db7
000000a0: aef4 6638 a0fc bc37 1ff0 63b8 2c69 18b6
000000b0: 2331 44b8 5019 1536 05c8 02b7 50ce 5db7
000000c0: a8bc 2839 4502 6737 9927 d3b7 9dd8 bdb6
000000d0: e139 e337 c826 3bb6 95ff cbb8 0393 94b8
000000e0: 1092 8836 886b 2ab5 0099 a8b4 d036 0e36
000000f0: 2aec e6b7 4a3e 8bb8 d240 0738 fddd 98b7
00000100: d4d9 8838 1a7e c134 2068 0f37 14a2 21b8
00000110: 02d0 0238 ac9e 2b37 54a3 27b8 50d8 da36
00000120: 2251 22b8 88ab d4b7 f8d4 32b8 5e46 0638
00000130: 1931 1c38 14b7 3237 8c6f 5037 2440 6037
00000140: aa16 ae37 735b 3837 606c 89b5 a076 0938
00000150: f0d7 1f36 a706 dcb7 3869 4e37 9435 20b7
00000160: d8be 28b6 d440 deb7 fe8c 1038 88b5 3d37
00000170: e8c9 f436 f6f9 9eb8 c0b8 95b7 3e26 8d36
00000180: 5e8a 1eb8 eab1 afb7 4e8f 1c38 a75b 84b7
00000190: c004 8336 23b2 8ab8 0e58 00b8 b019 af37
000001a0: 62c5 deb8 7a1f 9db7 5fdd c8b7 3877 9ab5
000001b0: 2858 99b5 ad34 8d37 5ef5 1f38 d455 aa38
000001c0: 518b 23b8 be37 1bb7 2c51 07b7 82b6 b138
000001d0: 58ef 82b8 ea9a 81b8 cb3d a2b8 e06b 2337
000001e0: 6ae3 2e38 aa30 9cb8 1ce4 9936 c984 2eb8
000001f0: be30 3e38 a096 40b8 be23 11b7 ae22 93b8

exp_avg_sq f4 [128]
1.1414392e-07 5.897455e-08 7.580492e-08 3.6586766e-08 1.6961447e-08 2.9088724e-08 1.6596327e-07 6.932358e-08
3.177335e-08 4.697314e-09 2.5975996e-08 1.2178528e-07 6.6193095e-09 7.43039e-08 3.086378e-08 6.006545e-08
4.6569138e-08 1.4440927e-08 1.3456987e-07 8.476556e-08 2.2779776e-08 2.6829131e-08 1.1816411e-08 1.26762565e-08
2.2479295e-08 2.8336679e-08 1.228125e-08 1.8761954e-08 3.9890917e-08 3.252669e-08 3.4428552e-08 1.4857079e-08
3.8585473e-08 2.5353136e-08 4.389948e-08 1.0108535e-08 5.7180895e-08 9.3463505e-08 2.7770659e-08 3.0986158e-08
9.1603045e-09 1.4025164e-07 5.6243437e-08 5.6983036e-09 3.7466148e-08 4.460322e-08 4.193497e-08 7.504112e-08
1.5090578e-07 1.9637449e-08 3.5163637e-08 4.2165347e-09 5.13561e-08 1.0253844e-08 8.754076e-08 5.5778262e-08
4.946918e-09 5.406972e-09 3.7893113e-08 3.539354e-09 3.658257e-08 8.325747e-08 6.9632776e-08 7.653315e-08
6.7864605e-08 1.3063683e-08 7.580795e-08 1.2328696e-08 6.989988e-08 7.0917935e-08 1.5515955e-08 2.558473e-08
2.4972515e-08 1.61577e-07 2.8011344e-08 1.0661184e-07 2.6627559e-08 3.9312177e-08 7.365882e-08 8.42953e-08
5.1143072e-08 3.3513903e-08 1.7253273e-08 2.8372922e-08 8.6138755e-08 2.6159467e-08 3.1271153e-08 1.7207118e-08
9.234738e-08 1.3496067e-08 5.743243e-08 6.2142476e-08 3.6772757e-08 1.0291112e-07 1.551732e-08 6.056292e-08
2.972421e-08 7.681713e-08 4.620486e-08 1.1964555e-07 1.1409527e-07 6.943144e-08 3.859292e-08 2.2796769e-07
7.5495585e-08 4.9610147e-08 1.0655097e-08 3.5460759e-09 3.6709565e-08 7.2828144e-09 1.5695942e-07 4.9637293e-08
1.7654951e-08 1.3774453e-08 2.4558592e-08 4.4311506e-08 5.860289e-08 1.0337526e-07 4.5504663e-08 7.509283e-08
3.3311508e-08 7.717139e-08 4.3865978e-08 4.1715285e-08 1.5388287e-07 7.1252934e-08 3.1852718e-08 7.249621e-08
00000000: 491f f533 344b 7d33 32ca a233 9323 1d33
00000010: 9eb2 9132 c8de f932 a333 3234 0bdf 9433
00000020: 2b77 0833 0366 a131 d221 df32 15c4 0234
00000030: 1070 e331 0091 9f33 168f 0433 55fd 8033
00000040: 4f03 4833 de17 7832 497e 1034 5c08 b633
00000050: 42ad c332 e275 e632 2001 4b32 c4c6 5932
00000060: 7e18 c132 0469 f332 82fd 5232 f929 a132
00000070: 8754 2b33 79b3 0b33 98de 1333 203e 7f32
00000080: 2db9 2533 23c8 d932 fd8b 3c33 cfa9 2d32
00000090: 0f97 7533 1bb6 c833 538c ee32 a415 0533
000000a0: 725f 1d32 1498 1634 5090 7133 cfca c331
000000b0: 77ea 2033 c291 3f33 fd1b 3433 4b26 a133
000000c0: aa08 2234 35af a832 d406 1733 08e1 9031
000000d0: a192 5c33 e228 3032 0bfe bb33 d990 6f33
000000e0: 8df9 a931 3bc8 b931 ebbf 2233 f938 7331
000000f0: f61e 1d33 47cb b233 0689 9533 8b5a a433
00000100: f6bc 9133 af6e 6032 dccb a233 2ece 5332
00000110: de1b 9633 8c4b 9833 f247 8532 6bc5 db32
00000120: 2483 d632 f37d 2d34 999d f032 7bf2 e433
00000130: 9fba e432 32d8 2833 5d2e 9e33 d505 b533
00000140: 67a8 5b33 edf0 0f33 5934 9432 b7b8 f332
00000150: 48fb b833 47b5 e032 ff4e 0633 dace 9332
00000160: 8250 c633 55dc 6732 a0ab 7633 3073 8533
00000170: 13f0 1d33 fdff dc33 f34a 8532 d10e 8233
00000180: 3b54 ff32 aaf6 a433 c872 4633 eb77 0034
00000190: 8a04 f533 561a 9533 5dc1 2533 48c7 7434
000001a0: 2320 a233 ef12 5533 9d0d 3732 3aaf 7331
000001b0: 98aa 1d33 503c fa31 ad88 2834 c830 5533
000001c0: a6a7 9732 afa4 6c32 eaf4 d232 0451 3e33
000001d0: 8fb2 7b33 26ff dd33 e870 4333 b842 a133
000001e0: 6412 0f33 6cb9 a533 2767 3c33 712a 3333
000001f0: 003b 2534 b703 9933 6fce 0833 37af 9b33
