results/100A/Agent Behavior/checkpoint.pt (torch, 440939 bytes, 36 tensors)

network_body._body_endoder.seq_layers.0.weight f4 [128, 6]
0	0xbea37075	-0.31921735
1	0xbe958e60	-0.29210186
2	0x3cdebaf1	0.02718875
3	0xbe1b03b4	-0.15138131
4	0xbe4b6979	-0.19864453
5	0xbea5b9eb	-0.32368407
6	0x3f490b45	0.7853282
7	0xbe8616cc	-0.26189268
8	0x3e52b2dc	0.20576042
9	0xbeb60d1a	-0.3555687
10	0x3df7cde0	0.120998144
11	0xbe918fd5	-0.28430048
12	0xbeaccd4a	-0.33750373
13	0xbe91b630	-0.2845931
14	0xbf1ae349	-0.6050306
15	0x3c961f06	0.01832534
16	0xbeb6b537	-0.3568513
17	0x3ed672b3	0.41884384
18	0xbc9eaf16	-0.019370597
19	0xbf32f317	-0.69902176
20	0xbea508f2	-0.32233387
21	0x3ea3ea14	0.32014525
22	0xbda64191	-0.081179745
23	0x3ee9e9bd	0.4568614
24	0x3e498260	0.1967864
25	0x3f1cd4b0	0.61262035
26	0xbda5320a	-0.08066185
27	0x3ea57e4e	0.32322925
28	0xbe0a6847	-0.13516341
29	0x3ebcf950	0.3690896
30	0x3eaeb2d1	0.341208
31	0xbf500546	-0.81258047
32	0x3f144b4f	0.5792741
33	0x3f84a516	1.036288
34	0xbf4d0236	-0.800815
35	0xbd428f06	-0.04749968
36	0x3f1780e1	0.5918103
37	0xbe8a8ecf	-0.2706208
38	0xbede3b1c	-0.43404472
39	0x3db08a3a	0.086201146
40	0x3e35184b	0.17685048
41	0x3df6eb9b	0.12056657
42	0x3e742c79	0.2384509
43	0x3f02e976	0.51137483
44	0x3d341689	0.043966804
45	0x3e09cfb0	0.13458133
46	0xbdcae3b3	-0.099067114
47	0xbd5c06e7	-0.05371752
48	0x3ea215f7	0.31657383
49	0xbf209727	-0.6273064
50	0x3c88345d	0.016626531
51	0xbf085474	-0.53253865
52	0x3c976c20	0.018484175
53	0x3df80bd3	0.1211163
54	0xbe948316	-0.2900626
55	0xbda64fb8	-0.08120674
56	0xbf1f70b6	-0.6228136
57	0xbd7ce2b3	-0.061739635
58	0xbe30734f	-0.17231487
59	0x3e9b2437	0.30301067
60	0x3f14ccfd	0.5812529
61	0x3cfc103d	0.030769462
62	0x3ec62bc7	0.38705274
63	0x3e40975b	0.18807738
64	0x3f4cf241	0.8005715
65	0xbf446ce5	-0.7672866
66	0x3edb3cd5	0.4281985
67	0x3d557714	0.052115515
68	0xbebcae9b	-0.36851963
69	0xbe8967a9	-0.268369
70	0x3e9dac13	0.30795345
71	0x3ec99af0	0.3937602
72	0x3d2f7289	0.04283384
73	0xbe720c2d	-0.23637457
74	0x3ed05584	0.40690243
75	0x389dfa07	7.5329146e-05
76	0x3ee98260	0.4560728
77	0xbe72ae18	-0.23699224
78	0xbe9ef3c7	-0.31045362
79	0x3e3fcc9a	0.18730393
80	0xbe016643	-0.12636666
81	0xbd8e9559	-0.069620796
82	0x3e8425f9	0.2581022
83	0xbe81e77a	-0.25371915
84	0x3e52592e	0.20541832
85	0x3f274507	0.653397
86	0xbd345f52	-0.044036217
87	0xbda396d6	-0.07987754
88	0xbd93846c	-0.07202992
89	0xbc611482	-0.0137378
90	0x3cf9d637	0.030497653
91	0xbe069802	-0.13143924
92	0x3de4b7da	0.111678794
93	0xbe97d161	-0.2965193
94	0xbd82a6b9	-0.06379456
95	0x3c6c8dcf	0.014438107
96	0xbe4a04d0	-0.19728398
97	0x3d4bd76d	0.049765993
98	0xbe8d2362	-0.27566057
99	0x3f8a3025	1.0795943
100	0xbe98652b	-0.29764685
101	0x3e020b4b	0.1269962
102	0xbf10714c	-0.5642288
103	0x3e128754	0.14309436
104	0xbf660e43	-0.8986551
105	0xbe8e9b96	-0.27853078
106	0x3f42fa04	0.76162744
107	0x3ea9ded0	0.33177805
108	0x3f94cea9	1.1625568
109	0x3e956fb6	0.2918679
110	0xbea1d81c	-0.3161019
111	0xbdacf429	-0.08445007
112	0xbe80ffe9	-0.25195244
113	0xbf01d319	-0.50712734
114	0xbe53929c	-0.20661396
115	0x3e8234b8	0.25430846
116	0x3e686d78	0.22698009
117	0xbf07e354	-0.5308125
118	0xbec6e899	-0.38849333
119	0x3f3a727a	0.7283093
120	0x3f5a2b0e	0.85221946
121	0xbf61fc8e	-0.8827599
122	0xbeddcf1f	-0.43322083
123	0x3f5572cc	0.8337829
124	0x3ee9eadc	0.45686996
125	0xbf25561c	-0.6458452
126	0xbdf57d9c	-0.11986849
127	0xbe8c5104	-0.2740556
128	0xbecf1499	-0.40445402
129	0xbe89a557	-0.26883957
130	0xbe924df6	-0.28575104
131	0xbe8ea2f2	-0.27858692
132	0x3edfcbb4	0.437101
133	0xbea6ccc2	-0.32578093
134	0x3dff1866	0.124558255
135	0xbf82f42f	-1.0230769
136	0x3ea6eca2	0.32602412
137	0x3ed45de2	0.41477877
138	0xbe96ef3a	-0.2947939
139	0xbdf1af2e	-0.11800991
140	0xbe2b28eb	-0.16714828
141	0x3eca1b65	0.39474025
142	0xbe8b2d90	-0.271832
143	0xbf3c7276	-0.73612154
144	0x3e2424b6	0.16029629
145	0x3cb480f3	0.022034144
146	0x3dda92f5	0.10672561
147	0xbec2260b	-0.3791965
148	0x3e4bdb5c	0.19907898
149	0xbf384290	-0.71976566
150	0xbe8c3ec8	-0.27391648
151	0xbf036882	-0.5133134
152	0xbea624c7	-0.32449934
153	0x3eb52580	0.35380173
154	0x3e918501	0.28421786
155	0x3e20bf47	0.15697967
156	0xbd25aa48	-0.040445596
157	0x3de39350	0.11112082
158	0xbeeb65fe	-0.4597625
159	0x3eea44e6	0.4575569
160	0xbdb8c401	-0.0902176
161	0x3d683076	0.05668684
162	0x3e9dcfcc	0.308226
163	0xbe364356	-0.17799124
164	0xbf0bf415	-0.54669315
165	0xbf60e562	-0.8785001
166	0x3e3d3fec	0.18481416
167	0x3f298ebb	0.66233414
168	0x3ed4bfdc	0.41552627
169	0xbd7ee7fa	-0.06223295
170	0x3e6ea7f9	0.23306264
171	0xbf4ee543	-0.80818576
172	0xbf18abfb	-0.5963742
173	0xbeb50f30	-0.3536315
174	0x3f076ef5	0.5290368
175	0x3e643282	0.22284892
176	0x3ebe55bf	0.37174794
177	0x3e36d7f4	0.17855817
178	0x3ec43d82	0.38328177
179	0x3e26e2e2	0.16297486
180	0xbc3f6785	-0.011682396
181	0x3f31bbc4	0.6942713
182	0xbc4701f7	-0.012146465
183	0xbed31828	-0.41229367
184	0x3e290819	0.16506995
185	0x3cc1cc99	0.02365713
186	0x3d8bcdaa	0.06826337
187	0x3d60ff3b	0.054930907
188	0x3eebc6cc	0.46050107
189	0x3eb9ee87	0.36314794
190	0x3ebe8258	0.3720882
191	0x3eb8d0b9	0.36096743
192	0xbee8dac9	-0.4547942
193	0x3f271ba9	0.6527658
194	0xbec4811d	-0.38379756
195	0xbe02e515	-0.127827
196	0x3d0da8fd	0.034584988
197	0xbf61cf9b	-0.88207406
198	0xbcf55209	-0.029946344
199	0xbeebe1ab	-0.46070608
200	0x3ec5db30	0.3864379
201	0xbf64d985	-0.8939441
202	0x3d3f21ce	0.046663098
203	0x3f12b669	0.57309586
204	0x3e5003dc	0.20313972
205	0x3ec13606	0.3773653
206	0xbedaf1f5	-0.42762724
207	0xbf5f8de5	-0.8732589
208	0x3e9b2bf8	0.30306983
209	0x3f24c507	0.6436314
210	0xbf4d7698	-0.80259085
211	0xbeacda7f	-0.3376045
212	0xbe039722	-0.12850621
213	0xbe091822	-0.13388112
214	0x3d846822	0.06465174
215	0x3e45f04a	0.19329944
216	0x3c68754f	0.014188125
217	0xbe81625b	-0.25270352
218	0x3c539c6c	0.012915712
219	0xbdeb76b4	-0.1149725
220	0xbe5a8c98	-0.21342695
221	0x3df8d401	0.121498115
222	0xbe93f780	-0.28899765
223	0x3d47d378	0.048785657
224	0xbda66693	-0.08125033
225	0x3ca425ed	0.020037616
226	0xbd0e2fcb	-0.034713548
227	0xbe9b0101	-0.30274203
228	0x3f2504a2	0.64460194
229	0xbd492181	-0.049104217
230	0x3e85d5f9	0.2613981
231	0x3e892723	0.2678767
232	0xbcbc85a8	-0.023012951
233	0x3e469f70	0.19396758
234	0xbee6f574	-0.4510914
235	0xbcbe0317	-0.023194833
236	0xbf5b7821	-0.8573018
237	0xbedc7d19	-0.43064192
238	0x3eb56863	0.35431203
239	0x3de8bdb4	0.11364308
240	0x3f4bf872	0.7967597
241	0x3f1446cf	0.57920545
242	0x3e229fcb	0.15881269
243	0x3e66c0cd	0.22534485
244	0x3d99e856	0.07515018
245	0xbebaef69	-0.3651078
246	0x3ea4f3bc	0.32217205
247	0xbec9be63	-0.39403066
248	0x3f2791f8	0.65457106
249	0x3e8a6c4c	0.2703575
250	0xbec00e79	-0.37511042
251	0x3e312ff7	0.17303453
252	0xbf2c3c3a	-0.672794
253	0x3ef8027e	0.484394
254	0xbf09f6ae	-0.5389203
255	0x3ecfd4c4	0.40592015

network_body._body_endoder.seq_layers.0.bias f4 [128]
0	0x3a6b2b5a	0.00089709985
1	0x3b4dbc78	0.0031392854
2	0x3c206d09	0.009791621
3	0xbbba32d5	-0.005682329
4	0xbb51c932	-0.003201079
5	0xbc189f71	-0.009315358
6	0xbbd99122	-0.0066396156
7	0xbbddfbc4	-0.0067743976
8	0xbc0bcbc9	-0.008532473
9	0xbbf83da8	-0.0075757094
10	0xba80e3ea	-0.0009833549
11	0x3b4c9296	0.0031215302
12	0x3c815911	0.01578954
13	0xbc6ce656	-0.014459213
14	0xbc405934	-0.011740018
15	0x3a6d7803	0.00090587157
16	0xbb4efe3c	-0.003158464
17	0x3c73e17d	0.014885304
18	0xbb9191af	-0.0044424157
19	0x3c3b871d	0.011445788
20	0xbbe4a595	-0.0069777467
21	0xbb6ab9d2	-0.0035816324
22	0xba9e5fb8	-0.001208297
23	0xbbfe06c5	-0.007752272
24	0xbb855d89	-0.004069988
25	0xbb29723d	-0.0025855445
26	0x3b7dc241	0.003872052
27	0xbad430f8	-0.001618891
28	0x3c43a5b3	0.011941361
29	0x3bbf5a7a	0.005839643
30	0x3c38a6f3	0.011270273
31	0x3b882b76	0.0041555716
32	0xbbdb129d	-0.0066855685
33	0xbb2ed2b9	-0.0026675893
34	0x3bbe5eb3	0.005809629
35	0x3d558f9e	0.052138917
36	0xbba29e02	-0.0049626837
37	0xbb66d825	-0.0035224047
38	0xbaf9e6d0	-0.001906598
39	0xbba86da0	-0.0051400214
40	0x3c15f000	0.009151459
41	0x3c464ca9	0.012103238
42	0xbadfb818	-0.0017068414
43	0xbc3fc433	-0.011704492
44	0xbbaa307b	-0.0051937676
45	0xba68ba60	-0.00088778697
46	0x3c91d645	0.017802367
47	0x3a9c125a	0.0011907325
48	0x3cd1c22a	0.02560528
49	0xbc1c4967	-0.009538985
50	0x3acd5199	0.0015664577
51	0x3c33ca31	0.010973499
52	0x3b97220b	0.0046122125
53	0xbac02670	-0.0014659893
54	0xbba31dc1	-0.004977912
55	0x3c095e99	0.00838437
56	0xba00bdd5	-0.00049110997
57	0x3c8af71e	0.016963538
58	0xbc95bebe	-0.01827943
59	0x3c48034e	0.012207819
60	0x3bc94171	0.0061418344
61	0x3bc9c208	0.0061571635
62	0x3a5b36ab	0.0008362333
63	0x3ab2cc4a	0.0013641205
64	0x3a86ac7f	0.0010274797
65	0x3c2c0d20	0.010501176
66	0xb9aa8541	-0.0003252421
67	0xbc87c210	-0.016572028
68	0xbc8f08d5	-0.017460266
69	0xbc1dbe37	-0.00962787
70	0xbc6560fc	-0.014000174
71	0xbc2323ed	-0.009957296
72	0xbc97a541	-0.018511416
73	0xbad501a2	-0.0016251097
74	0x3b8be0a9	0.004268725
75	0x3b861173	0.0040914356
76	0x3c3c369c	0.011487629
77	0xbc5bf0df	-0.013424127
78	0xbc45360e	-0.012036813
79	0x3ba4a5cd	0.005024648
80	0x3ceb0247	0.02868761
81	0x3c29cc0d	0.010363591
82	0x3c2e68c2	0.010645093
83	0xbc5bfad7	-0.013426504
84	0xbba494a8	-0.005022604
85	0x3cea86b0	0.028628677
86	0xbb6e50c9	-0.003636407
87	0xbb84e9f2	-0.0040562088
88	0x3b0517d1	0.0020308385
89	0x3cd8f496	0.026483815
90	0xbc04c85e	-0.008104412
91	0x3c58abf3	0.01322459
92	0x3c4d10b4	0.012516189
93	0x3be37fce	0.0069427257
94	0xbae7798d	-0.0017660126
95	0xbabb8e86	-0.0014309443
96	0x3b5ec4ff	0.003399193
97	0xbbcc3e77	-0.0062330323
98	0x3c9a26a6	0.018817257
99	0xbc2b0fc4	-0.010440771
100	0x3c1d7a55	0.009611686
101	0xbaaa1dc3	-0.001297884
102	0x3c19e251	0.009392337
103	0x3d0b69dd	0.034036506
104	0x3c491d0d	0.012274993
105	0x3c5bf54d	0.0134251835
106	0xb9b1ab5f	-0.00033887752
107	0xbbea66db	-0.0071533746
108	0x3be6340a	0.0070252465
109	0x3cc8d71c	0.024516635
110	0x3b7ae2f8	0.0038282257
111	0xbb273896	-0.0025515906
112	0xbc7ec94f	-0.015550925
113	0xbb1ca449	-0.0023901633
114	0xbc82337d	-0.015893692
115	0x3be73208	0.0070555247
116	0x3bd43678	0.0064762197
117	0x3bde23b6	0.0067791594
118	0xba109767	-0.0005515725
119	0xbafa750c	-0.0019108369
120	0xbb39833e	-0.0028306986
121	0xbbcb8d9a	-0.0062119486
122	0x3b28d5bb	0.002576216
123	0xbc32acab	-0.010905425
124	0x3c01a1ca	0.007912109
125	0x3c52a213	0.012856024
126	0xbc6e18ef	-0.014532312
127	0x3ca5ba5f	0.02023047

network_body._body_endoder.seq_layers.2.weight f4 [128, 128]
0	0xbd5d3f59	-0.05401549
1	0xbad84ccf	-0.0016502383
2	0xbdccec03	-0.10005953
3	0xbd2e41fd	-0.0425434
4	0x3d9cbd10	0.07653248
5	0xbd2990fa	-0.041398026
6	0x3cdee353	0.027208006
7	0xbd79132c	-0.0608093
8	0x3c254aa0	0.010088593
9	0xbbaecce0	-0.0053344816
10	0xbd4cc5db	-0.049993377
11	0xbcf139d1	-0.029446514
12	0xbd6d13dd	-0.05788027
13	0x3d67a734	0.05655594
14	0xbc1a6418	-0.009423278
15	0xbdb45e66	-0.088070676
16	0xbdfdf321	-0.12399889
17	0x3cb39fa3	0.021926707
18	0x3d9353e8	0.07193738
19	0x3d1f798d	0.03893428
20	0xbd129d5a	-0.035794593
21	0x3de17918	0.11009425
22	0xbd651889	-0.0559316
23	0x3dded396	0.108802006
24	0xbcebbd02	-0.02877665
25	0x3d8ee0d5	0.06976477
26	0x3c87d510	0.016581088
27	0x3e1104f7	0.1416205
28	0x3e1a8034	0.15087968
29	0xbdd49ac0	-0.10381079
30	0xbde8ac89	-0.113610335
31	0xbd609749	-0.054831777
32	0xbd4f2732	-0.05057449
33	0x3d2d983a	0.042381503
34	0xbcc9360f	-0.02456191
35	0x3dda66ea	0.106641605
36	0xbe06ffa8	-0.13183463
37	0x3db35660	0.08756709
38	0xbe350b76	-0.17680153
39	0x3df1ad53	0.11800637
40	0x3dd60e36	0.10451929
41	0xbe186a19	-0.14884223
42	0xbdee0b88	-0.11623293
43	0x3dfe7006	0.124237105
44	0xbd8c2b8c	-0.068442434
45	0x3d8a3cce	0.06749879
46	0xbc83516a	-0.016030032
47	0xbd1c8679	-0.03821418
48	0x3e723345	0.2365237
49	0xbdb31a49	-0.08745248
50	0xbcaef2ab	-0.021355947
51	0xbd6add8a	-0.057340182
52	0x3c84f1f1	0.016228648
53	0x3dc7ff38	0.09765476
54	0xbda56d2c	-0.080774635
55	0x3e208e58	0.156793
56	0xbe45fc7c	-0.19334596
57	0xbbfd4bf0	-0.0077299997
58	0xbc773936	-0.015089324
59	0xbd15564d	-0.036459256
60	0x3c40b86b	0.011762719
61	0xbcf162c6	-0.029466044
62	0x3cf5c090	0.029999048
63	0xbd5b74ed	-0.053578306
64	0x3c73363f	0.014844476
65	0xbe2482a6	-0.16065463
66	0xbd0bca56	-0.03412851
67	0xbd746096	-0.059662424
68	0xbc816b7e	-0.015798327
69	0x3cfa061e	0.030520495
70	0xbc483f59	-0.0122221345
71	0x3dc5e77a	0.09663291
72	0xbe005cad	-0.12535353
73	0xbd92ec67	-0.071739964
74	0xbe161152	-0.14655045
75	0xbbb88f1a	-0.0056322934
76	0xbb41dc4d	-0.0029580772
77	0x3da5bcf4	0.080926806
78	0xbd91b437	-0.071144514
79	0xbc9f0a54	-0.019414105
80	0xbdfb0a41	-0.12257815
81	0x3dbf51a3	0.09341743
82	0xbb0abfdc	-0.0021171486
83	0xbe09df19	-0.13464011
84	0x3deeba58	0.11656636
85	0xbc9a8c90	-0.018865854
86	0x3d5a3320	0.053271413
87	0x3ddf9dac	0.109187454
88	0xbdec0c63	-0.115258
89	0x3e3b23a3	0.18275313
90	0x3d852268	0.06500703
91	0xbd9dd6a4	-0.07706955
92	0x3dccb359	0.09995145
93	0xbd910107	-0.07080274
94	0x3da428e1	0.080156095
95	0xbc3eb656	-0.011640152
96	0x3e0212bc	0.12702459
97	0x3d7014f0	0.058613718
98	0xbd8318d3	-0.06401219
99	0x3de4d5a8	0.11173564
100	0x3e026fa3	0.12737899
101	0xbd559205	-0.05214121
102	0xbd5bef3f	-0.05369496
103	0x3d5965d4	0.053075626
104	0x3d39e53c	0.04538463
105	0xbd82052a	-0.06348641
106	0xbd928725	-0.07154683
107	0xbd4c979c	-0.049949273
108	0xbcdb2c6b	-0.026754579
109	0x3d63b5b4	0.055593207
110	0x3bd8090d	0.006592876
111	0xbc3e75b3	-0.011624741
112	0x3d8a0bcd	0.06740532
113	0xbc04b6d0	-0.0081002265
114	0xbd22f8ed	-0.039788175
115	0x3cc04ac2	0.023473147
116	0x3c1fe614	0.009759445
117	0x3e0d5cdf	0.13804959
118	0xbcda53b4	-0.02665124
119	0x3d25fd78	0.04052493
120	0x3dd7b0e6	0.105317876
121	0xbd7ee833	-0.06223316
122	0x3c878e58	0.016547367
123	0x3a585bf6	0.00082534493
124	0x3df15002	0.117828384
125	0x3d097b1b	0.03356467
126	0xbaefa6a8	-0.001828392
127	0x3c02d305	0.007984881
128	0xbcd89e3a	-0.026442636
129	0xbdb46c7b	-0.088097535
130	0x3d83cd3f	0.06435632
131	0x3cb2a8f2	0.021809075
132	0xbd83810a	-0.064210966
133	0x3db14798	0.086562335
134	0xbdf8511d	-0.12124846
135	0x3d20e325	0.039279122
136	0xbd16285b	-0.03665958
137	0x3d687b61	0.05675829
138	0x3daceb64	0.08443335
139	0x3b9e4ef4	0.0048311893
140	0x3cd6897e	0.026188608
141	0xbdae629a	-0.085149005
142	0x3e080a64	0.13285214
143	0x3e14c79b	0.14529268
144	0xbde0f784	-0.1098471
145	0x3cf18a70	0.029484957
146	0xbd8c5983	-0.068530105
147	0x3dfb878f	0.12281715
148	0x3d453c5a	0.04815326
149	0x3d3dd0ed	0.046341825
150	0xbb83739a	-0.0040115835
151	0xbe06f503	-0.13179402
152	0xbddceaef	-0.107869975
153	0xbd8a89ad	-0.06764541
154	0xbdeb8111	-0.11499227
155	0xbd1bbefc	-0.038023934
156	0x3c5681ec	0.013092499
157	0x3abe7db2	0.001453331
158	0x3dd8070a	0.105482176
159	0xbc0f2c06	-0.008738523
160	0xbdadc424	-0.084846765
161	0xbd36d9c1	-0.04464126
162	0x3db70b4d	0.08937702
163	0x3d3f5a22	0.046716817
164	0x3ce6f618	0.028193519
165	0x3cd0933b	0.02546083
166	0xbe09ef01	-0.13470079
167	0xbdc6429b	-0.09680673
168	0xbdffb17e	-0.12485026
169	0x3c3885d7	0.011262379
170	0xbda7a1a7	-0.081851296
171	0xbd8ae61c	-0.06782171
172	0xbbcd7437	-0.0062699574
173	0x3e119c9e	0.14219901
174	0x3d3a4a52	0.045481034
175	0x3d6fba97	0.058527555
176	0xbcf29fdf	-0.029617248
177	0x3d8756c3	0.06608345
178	0xbce1d69e	-0.027568158
179	0x3db0dea2	0.08636214
180	0x3d03213b	0.032014113
181	0x3cd8e1f9	0.02647494
182	0x3e0549e9	0.13016476
183	0x3e2f20ec	0.17102402
184	0xbdb6f796	-0.08933942
185	0xbcb39f85	-0.02192665
186	0x3d02f516	0.031972013
187	0x3d04e859	0.032448146
188	0x3dc93a53	0.098255776
189	0xbc91d67e	-0.017802473
190	0x3d49e73f	0.0492928
191	0x3d9ed1a3	0.07754829
192	0x3d274386	0.04083588
193	0xbcc5add6	-0.024130743
194	0x3e0c1d50	0.13683057
195	0xbc02fecc	-0.007995319
196	0x3c90656d	0.017626489
197	0x3ce5f7a7	0.028072191
198	0x3d898bd4	0.06716123
199	0x3d134163	0.03595103
200	0xbc5d1336	-0.01349335
201	0xbc7d44f8	-0.015458338
202	0x3de2d9d2	0.11076702
203	0x3ddac7f6	0.10682671
204	0xbdde72bc	-0.108617276
205	0xbe25031e	-0.1611447
206	0x3db7e302	0.08978845
207	0x3d876ac8	0.06612164
208	0xbc6b2b26	-0.014353549
209	0xbe139b22	-0.14414647
210	0x3e43811c	0.1909222
211	0xbd47f2c5	-0.048815507
212	0x3e54332a	0.20722643
213	0xbdc36c09	-0.095420904
214	0xbd3ec8f9	-0.04657838
215	0x3d18fcdd	0.037350524
216	0x3db2e870	0.0873574
217	0x3d4d5e9d	0.05013906
218	0xbc51f5a1	-0.01281491
219	0x3d927764	0.07151678
220	0xbd3aeead	-0.045637775
221	0x3d854162	0.065066114
222	0x3dd41676	0.103558466
223	0xbdca8471	-0.098885424
224	0x3d272b40	0.04081273
225	0xbe18347f	-0.14863776
226	0xbcb8efb6	-0.02257524
227	0xbdfd2d30	-0.123621345
228	0x3c06af4f	0.008220508
229	0xbaf17596	-0.0018421884
230	0x3ca8bc46	0.020597588
231	0x3c23cba8	0.009997286
232	0x3dec4774	0.11537066
233	0xbd45b19e	-0.048265092
234	0x3dfed20a	0.124424055
235	0x3dd52aa3	0.10408523
236	0x3dc4b97d	0.096056916
237	0x3da1be6f	0.078976505
238	0xbdf187b8	-0.117934644
239	0xbd2887a4	-0.041144982
240	0x3c91e8be	0.017811175
241	0xbcbd1f02	-0.023086075
242	0x3d7a0c77	0.061047044
243	0x3c73d342	0.014881911
244	0xbd47da0b	-0.048791926
245	0x3d8edb87	0.06975465
246	0xbd6230c7	-0.0552223
247	0xbb9bc886	-0.004754129
248	0x3d8609b5	0.0654482
249	0x3b36d217	0.002789622
250	0x3db06d56	0.08614604
251	0x3e15364a	0.14571491
252	0x3ddf948c	0.10917005
253	0x3ce14f0a	0.02750351
254	0xbde89bd2	-0.11357845
255	0x3b917591	0.004439064

network_body._body_endoder.seq_layers.2.bias f4 [128]
0	0x3b86ba59	0.00411157
1	0x3a417a40	0.00073805824
2	0x39e6d85f	0.00044030228
3	0xba17705c	-0.0005776936
4	0x3b90ce1c	0.0044191014
5	0x3b47d28e	0.003049049
6	0xba5d38af	-0.00084389275
7	0x3cca44f1	0.024691077
8	0xbc5196ec	-0.01279233
9	0xbb8084f1	-0.003922098
10	0xbb355f93	-0.0027675375
11	0xbbd883f7	-0.0066075283
12	0x3ca53cec	0.020170651
13	0x3bfd3c94	0.0077281687
14	0xbb9273bc	-0.004469363
15	0xbb44c798	-0.0030026194
16	0xbb87752b	-0.0041338406
17	0xbb00690d	-0.0019593865
18	0x3bac88cf	0.0052653323
19	0x3b2aabc5	0.0026042324
20	0xbac287b3	-0.0014841467
21	0x3b864628	0.0040977187
22	0x3b4608a6	0.0030217557
23	0xbc6cb3f8	-0.014447205
24	0xbc0bf766	-0.008542871
25	0xbb9c7c24	-0.004775541
26	0x3c78b05c	0.015178766
27	0x3a975358	0.0011545224
28	0x3c4cb0ca	0.012493322
29	0x3bbfd4ba	0.0058542164
30	0xbaeb2b58	-0.0017941995
31	0xbb5bb4aa	-0.0033524432
32	0x3cc05b83	0.023481136
33	0xbba426f5	-0.005009527
34	0x3bc6e9bf	0.006070345
35	0xbc7f6567	-0.015588141
36	0xbb4d6090	-0.0031338073
37	0xb84fb4c6	-4.9521004e-05
38	0x3bc28c1d	0.005937113
39	0xbab25336	-0.0013605121
40	0x3ac54d56	0.0015052955
41	0xbb691cbc	-0.0035570106
42	0xbb8b4615	-0.004250298
43	0x3b14f8e9	0.002273137
44	0xbbacc8a5	-0.005272942
45	0xbb4a46f1	-0.0030865038
46	0xbbc8a856	-0.006123583
47	0xb8276fb2	-3.9919927e-05
48	0xbba64537	-0.005074169
49	0x3b809f10	0.0039252117
50	0xbbba657a	-0.0056883665
51	0x3c7a1e55	0.015266021
52	0x3b9dce2d	0.004815838
53	0xbbd8c801	-0.006615639
54	0x3bc9d788	0.0061597265
55	0xbbb34b14	-0.0054715965
56	0x3c15adc3	0.009135666
57	0xbbe8a185	-0.0070993328
58	0x3b88ecb9	0.00417861
59	0xbb606926	-0.003424236
60	0x3b9bec87	0.004758421
61	0x3bf1d22e	0.0073797917
62	0x3bb9810b	0.005661135
63	0xbbb1158c	-0.00540418
64	0xba0343d3	-0.000500736
65	0xbc156368	-0.009117939
66	0xbb277abb	-0.002555533
67	0xbaaa8b6e	-0.0013011524
68	0xbbb4be09	-0.005515818
69	0x3ae040b2	0.0017109124
70	0x3b96c4c5	0.0046010935
71	0xbaed3ed5	-0.001810039
72	0xbb561163	-0.0032664172
73	0x3b5ae293	0.003339921
74	0x3c21c990	0.009874716
75	0xbc2ae344	-0.010430161
76	0x3c21d8dc	0.009878363
77	0xbbb1e1d8	-0.005428534
78	0xbb34a32c	-0.0027563078
79	0xbb6a7157	-0.0035773122
80	0x3b332e83	0.0027340956
81	0xbc833d85	-0.016020546
82	0x3ca84db5	0.020544866
83	0x3b5203aa	0.003204564
84	0xbba13c2d	-0.0049205036
85	0xbb0bf057	-0.002135297
86	0x3ca67e5a	0.020323921
87	0xbb53fe88	-0.0032347757
88	0x3c7d0741	0.015443624
89	0xbc5cd9ce	-0.013479663
90	0x3c3c0589	0.011475929
91	0x392e3ec0	0.0001661731
92	0x390c93df	0.00013406527
93	0xbc110061	-0.008850188
94	0x3b966449	0.0045895916
95	0x3b4528dc	0.0030084169
96	0x3ad03fb6	0.0015888128
97	0xbb988b48	-0.0046552755
98	0x3b1d5f86	0.0024013235
99	0x3c037022	0.00802234
100	0x3a7ec262	0.00097182964
101	0x3ab10ac3	0.0013507236
102	0xbb69b7ec	-0.0035662604
103	0xbbe7170a	-0.007052307
104	0xba7c9122	-0.00096346636
105	0x3c287f38	0.010284238
106	0x3b361db6	0.0027788705
107	0x3cbe9a2a	0.02326687
108	0x3bf08c92	0.007340976
109	0xbc0b06ca	-0.008485505
110	0xbba139dc	-0.0049202275
111	0x3b74733d	0.0037300133
112	0x3c42892f	0.011873527
113	0x3c5ff558	0.013669334
114	0xbbaa1657	-0.0051906514
115	0xbbfc20d4	-0.007694343
116	0x3ba6973f	0.005083948
117	0x3bc3dd7b	0.0059773303
118	0xbb90754f	-0.0044085155
119	0xbb4ae8ff	-0.003096163
120	0x3cbc6533	0.022997474
121	0x3bd0ceb6	0.006372298
122	0xbb6caadf	-0.003611259
123	0xbc32b6d1	-0.010907845
124	0x3c614d2c	0.013751309
125	0x3c38bcb1	0.011275456
126	0x3c69ae8d	0.014262808
127	0x3bcb8b63	0.0062116846

action_model._continuous_distribution.log_sigma f4 [1, 2]
0	0xbce3b370	-0.027795523
1	0xbd14aa54	-0.03629525

action_model._continuous_distribution.mu.weight f4 [2, 128]
0	0x3ce8f233	0.028435802
1	0x3c8dddac	0.017317615
2	0xbc5242c9	-0.012833306
3	0x3d089fa0	0.033355355
4	0x3b81913d	0.0039540813
5	0x3ca085a7	0.01959498
6	0x3b64e998	0.0034929272
7	0x3c1fda42	0.009756627
8	0xbc143c1d	-0.009047535
9	0x3c0df392	0.008664029
10	0xbc0013c8	-0.007817216
11	0xbbabb12a	-0.0052396255
12	0x3ca5da97	0.020245833
13	0xbd0bd567	-0.034139063
14	0xbb43f249	-0.0029899052
15	0xbc648483	-0.013947609
16	0x3c24bed1	0.01005526
17	0xbccdb551	-0.025110872
18	0x3c5d2886	0.013498431
19	0xbd01a3e2	-0.03165043
20	0xbc3519e9	-0.011053541
21	0x3cba940f	0.022775678
22	0x3c0ba7e7	0.008523918
23	0xbc8884ac	-0.016664825
24	0xbac5a1c9	-0.0015078123
25	0xbb3ea9e4	-0.0029092962
26	0x3d1f02b1	0.038820926
27	0x3b36df83	0.002790422
28	0xbc87cb74	-0.016576506
29	0x3caa5466	0.020792197
30	0x3c3a79f5	0.011381616
31	0xbc982f25	-0.018577168
32	0x3d2b5192	0.04182584
33	0xbcfc7efa	-0.030822266
34	0xbcefb1ee	-0.029259648
35	0xbc828b99	-0.015935706
36	0x3ba334c3	0.004980655
37	0x3c54fd58	0.012999855
38	0x3cfd0ec3	0.030890828
39	0x3bcdd063	0.006280945
40	0xbbd8c2cc	-0.0066150185
41	0x3b2933ce	0.0025818232
42	0xbd11f06d	-0.03562968
43	0xbc0942e8	-0.008377768
44	0xb9beb2f5	-0.00036372957
45	0xbbb86d85	-0.00562829
46	0xbc6479d8	-0.013945065
47	0x3bcd60db	0.0062676496
48	0x3b70d6a1	0.0036749023
49	0xbb1cf923	-0.0023952208
50	0xbb2234d1	-0.002475072
51	0xbc887d0c	-0.01666119
52	0x3ca59347	0.020211829
53	0xbd02051b	-0.03174315
54	0xbcb160fb	-0.02165269
55	0xbc0cd69e	-0.008596091
56	0x3c83e98b	0.016102573
57	0xbd167a6d	-0.036737848
58	0x3ba1e6da	0.0049408497
59	0x3c93ebee	0.018056836
60	0x3cb0b3aa	0.021570046
61	0x3c9aa8d4	0.018879332
62	0xbc0d9d47	-0.008643455
63	0xbd24180c	-0.040061995
64	0x3cb90368	0.022584632
65	0xbcd87d60	-0.026426971
66	0xbca975e6	-0.020686101
67	0xbc6530ad	-0.013988656
68	0x3d075f47	0.033049848
69	0xbd274f57	-0.04084715
70	0xbbb45834	-0.0055036787
71	0x3a9c1728	0.0011908757
72	0xbc9e2ded	-0.019309008
73	0xbd09c257	-0.033632603
74	0x3c87242b	0.016496738
75	0xbc06c2ea	-0.008225182
76	0xbc4268a5	-0.0118657695
77	0xbc5258ff	-0.012838601
78	0xbca55737	-0.020183189
79	0x3c654dc1	0.013995589
80	0xbc2ab0c3	-0.01041812
81	0x3cbd0c8a	0.023077268
82	0x3d96a654	0.07355943
83	0x3b653f10	0.0034980215
84	0xbb729bd5	-0.0037019153
85	0x3c0b9fb5	0.008521964
86	0xbc3dd435	-0.011586239
87	0xbcab317f	-0.020897625
88	0x3cb446cb	0.022006413
89	0xbcc1ee48	-0.023673192
90	0x3cfc54c8	0.030802146
91	0x3c02e7af	0.007989808
92	0xbc82d4e6	-0.015970659
93	0xbcb1dfb6	-0.021713119
94	0xbcd8804f	-0.02642837
95	0x3ad2d451	0.0016085004
96	0x3ccead2c	0.02522906
97	0xbbb1ac17	-0.005422126
98	0xbc995b21	-0.018720211
99	0xbc120e49	-0.008914539
100	0xbc03608f	-0.008018627
101	0xbd21ea41	-0.039530043
102	0x3beed2f6	0.007288332
103	0xbbdbe986	-0.006711188
104	0xbc8955bd	-0.016764516
105	0xbc948f3a	-0.018134702
106	0xbccae370	-0.024766654
107	0xbc68710c	-0.014187109
108	0x3d175e4c	0.036955163
109	0xbcb4325b	-0.021996668
110	0xbd3a3722	-0.045462735
111	0x3aedad35	0.0018133285
112	0xbd072aca	-0.03299979
113	0x3c2796af	0.010228797
114	0xbaf060f3	-0.001833944
115	0xbcae0d5f	-0.02124661
116	0xbd0c6595	-0.034276564
117	0xbc63822e	-0.013886018
118	0xbbdee66c	-0.006802371
119	0x3b750494	0.0037386762
120	0x3d3d9ac2	0.046290167
121	0x3cd89054	0.026436009
122	0x3a2f44d3	0.0006685976
123	0x3bec7159	0.0072156605
124	0xbd2d023d	-0.042238463
125	0x3d4c379b	0.049857717
126	0x3d567199	0.05235443
127	0xbd1a62cd	-0.03769188
128	0xbc513ebb	-0.012771304
129	0xbb6329e8	-0.003466243
130	0xbbb7add9	-0.005605441
131	0xbba416cc	-0.0050076004
132	0x3cbf3e83	0.023345238
133	0x3b5ab43e	0.0033371593
134	0xbd30252d	-0.043004204
135	0xbd2bc159	-0.041932438
136	0x3c6618ea	0.014044026
137	0xbb84ce5b	-0.00405292
138	0xbc53035a	-0.012879217
139	0xbc291119	-0.010319018
140	0xbcfd8467	-0.030946923
141	0x3cf055d7	0.029337807
142	0xbca5a218	-0.020218894
143	0x3c4e638a	0.012596974
144	0x3c568355	0.013092835
145	0xbc8866a8	-0.016650513
146	0x3cdfec6f	0.02733442
147	0x3c5b5ebb	0.013389285
148	0xbc64d332	-0.0139663685
149	0xbc9a1a93	-0.0188115
150	0xbafc570b	-0.0019252015
151	0xbb4bc9e2	-0.0031095673
152	0xbb025e36	-0.001989258
153	0x3c21b493	0.009869712
154	0x3c04762b	0.008084814
155	0xbd051c7d	-0.03249787
156	0x3c2d0676	0.010560622
157	0x3bfd8353	0.0077366023
158	0xbb135981	-0.0022483768
159	0xb9e5b01d	-0.00043809498
160	0xbd2d3341	-0.042285208
161	0xbb0d0930	-0.0021520369
162	0xbc3ca169	-0.011513093
163	0xbb905992	-0.004405209
164	0xbcd23334	-0.025659181
165	0xbb51ef8a	-0.0032033646
166	0x3ceea3eb	0.029130897
167	0x3b25e5c9	0.0025313965
168	0x3c857dac	0.016295277
169	0xbb9e5fa9	-0.004833181
170	0x3badc78e	0.00530333
171	0xbca2c547	-0.01986946
172	0xbcb48b75	-0.022039155
173	0x3c629398	0.013829134
174	0xbc91691d	-0.017750317
175	0xbc8eb2f3	-0.017419314
176	0xbcc7fb5a	-0.024411846
177	0x3c8bddab	0.017073473
178	0x3bf2cc79	0.007409629
179	0x3c0ce9aa	0.008600632
180	0x3cda22ef	0.026627986
181	0xbd02aab9	-0.031901095
182	0x3cc31fe1	0.023818912
183	0x3b93f4fb	0.004515288
184	0x3ca93e04	0.020659454
185	0xbc826f89	-0.015922325
186	0x3bf57af0	0.007491462
187	0xbcd82240	-0.02638352
188	0xbb302070	-0.0026874803
189	0x39fd0fb1	0.0004826761
190	0x3cde31f3	0.027123427
191	0x3bab24ba	0.005222884
192	0xbcf9c344	-0.030488618
193	0x3bbd8d22	0.0057846466
194	0x3b423138	0.0029631387
195	0x3c80069a	0.015628148
196	0xbbcf2e18	-0.0063226335
197	0x3cc3e7bf	0.023914216
198	0x3c4d9f71	0.012550221
199	0xbc9851b6	-0.01859365
200	0xbc59e712	-0.01329972
201	0xbc7438ad	-0.014906091
202	0x3b1729ea	0.0023065754
203	0xbc596f76	-0.013271203
204	0xbc5bfb07	-0.013426549
205	0x3bae57c2	0.00532052
206	0x387fc777	6.0982504e-05
207	0xbba6cbd3	-0.0050902157
208	0x3c23c0ae	0.009994669
209	0x3aceeab6	0.0015786502
210	0x3c3a671f	0.011377125
211	0x3c50c013	0.012741107
212	0xbca73508	-0.02041103
213	0xbce354af	-0.027750341
214	0xbd2dfbae	-0.04247635
215	0xbaad916b	-0.001324219
216	0x3cca11ba	0.024666656
217	0xbc37a037	-0.011207632
218	0x3d06fe07	0.032957103
219	0x3b3d2042	0.0028858338
220	0x3d08ede2	0.033429988
221	0xbcab7371	-0.02092907
222	0x3d292418	0.041294187
223	0x3d05c5c2	0.0326593
224	0xbb45a578	-0.0030158442
225	0x3cc9bee2	0.024627153
226	0xbc14fb7d	-0.009093163
227	0x3d545bf0	0.05184549
228	0xbbafd39c	-0.005365802
229	0xbb1ea00d	-0.0024204284
230	0xbd0cb5e1	-0.03435314
231	0xbb3f093c	-0.0029149791
232	0xbcee307a	-0.02907585
233	0xbc9095ff	-0.017649649
234	0x3c8ae051	0.016952666
235	0x3d190f7b	0.03736828
236	0x3b8fb4a8	0.0043855496
237	0x3b670f6f	0.0035257002
238	0x3b053972	0.002032843
239	0x3cd82eda	0.026389528
240	0x3b01f03d	0.001982703
241	0x3d09810e	0.03357034
242	0xbc4228a5	-0.011850511
243	0xbbdbd36a	-0.006708552
244	0xbc73723a	-0.014858777
245	0x3bf31c1e	0.0074191233
246	0xbc7c0fc6	-0.01538462
247	0xbbcd35c4	-0.006262513
248	0x3cd77ba8	0.026304081
249	0xbb5b68dd	-0.0033479251
250	0xbcb21f9a	-0.021743584
251	0xbc1eeb18	-0.009699605
252	0x3ca1f582	0.019770388
253	0x3c9eae5d	0.019370252
254	0x3d25d3a3	0.040485036
255	0xbc8d0b07	-0.017217172

action_model._continuous_distribution.mu.bias f4 [2]
0	0x3b46bef4	0.003032622
1	0x3b8e078e	0.0043343967

exp_avg f4 [128, 6]
0	0x380c32a9	3.3425782e-05
1	0x372683f7	9.9250965e-06
2	0xb78d23c8	-1.6825172e-05
3	0xb80ac34c	-3.308365e-05
4	0x36de0547	6.61673e-06
5	0x380ac34c	3.308365e-05
6	0xba8c3336	-0.0010696414
7	0xb9eec8e6	-0.00045544578
8	0xb9968c97	-0.00028714977
9	0x3ac6fcc2	0.0015181529
10	0xb99f309a	-0.00030363054
11	0xbac6fcc2	-0.0015181529
12	0xb82739b6	-3.986965e-05
13	0xb74146f8	-1.152022e-05
14	0x38d3178d	0.00010065651
15	0x38211076	3.840072e-05
16	0xb700d9f8	-7.680144e-06
17	0xb8211076	-3.840072e-05
18	0xb98736bb	-0.00025789984
19	0xb8b52045	-8.636763e-05
20	0x396cb6ab	0.00022574763
21	0x3996f03a	0.00028789212
22	0xb871805a	-5.7578414e-05
23	0xb996f03a	-0.00028789212
24	0xba04318b	-0.0005042783
25	0xb98584cd	-0.0002546668
26	0xb9abe94e	-0.00032789487
27	0x3a5e87ff	0.0008488893
28	0xb9320666	-0.00016977786
29	0xba5e87ff	-0.0008488893
30	0x3641949f	2.884575e-06
31	0x34623298	2.1066296e-07
32	0x360484cf	1.9746838e-06
33	0xb53c7f70	-7.0220904e-07
34	0x3416cc6a	1.4044204e-07
35	0x353c7f70	7.0220904e-07
36	0xba048947	-0.00050558563
37	0xb9434915	-0.00018623874
38	0x38d19fa4	9.995632e-05
39	0x3a22bce7	0.0006207958
40	0xb90230b9	-0.00012415917
41	0xba22bce7	-0.0006207958
42	0xb9919ef7	-0.00027774993
43	0xb8e0b812	-0.00010715438
44	0x38c80838	9.538274e-05
45	0x39bb440d	0.0003571812
46	0xb895d00a	-7.143624e-05
47	0xb9bb440d	-0.0003571812
48	0xba9bd33d	-0.0011888515
49	0xb9ef175d	-0.0004560304
50	0xb8c3b5c6	-9.3321825e-05
51	0x3ac73e21	0.0015201011
52	0xb99f64e7	-0.0003040202
53	0xbac73e21	-0.0015201011
54	0xb892dbaa	-7.002738e-05
55	0x370b4610	8.301358e-06
56	0x39fb0874	0.0004788075
57	0xb7e81f74	-2.7671202e-05
58	0x36b9b2cc	5.5342443e-06
59	0x37e81f74	2.7671202e-05
60	0x3802a9f3	3.1152693e-05
61	0x373fdaf6	1.1435468e-05
62	0x37dde373	2.6451167e-05
63	0xb81fe121	-3.811822e-05
64	0x36ffce9c	7.6236447e-06
65	0x381fe121	3.811822e-05
66	0x39eb7d25	0.00044915933
67	0x38bc35da	8.974569e-05
68	0xb967b922	-0.00022098844
69	0xb99cd78c	-0.00029915234
70	0x387af278	5.983046e-05
71	0x399cd78c	0.00029915234
72	0xb9c9a3df	-0.000384598
73	0x37fd4bb8	3.019521e-05
74	0xb97b67f8	-0.00023975957
75	0xb8d31488	-0.00010065088
76	0x37a8dd20	2.013013e-05
77	0x38d31488	0.00010065088
78	0xb49902c4	-2.8500483e-07
79	0x375b9c28	1.3089775e-05
80	0x3823a0d6	3.901202e-05
81	0xb837021d	-4.3632568e-05
82	0x3712681b	8.726517e-06
83	0x3837021d	4.3632568e-05
84	0x37bfd5a0	2.2868451e-05
85	0xb8af7445	-8.366307e-05
86	0xb986297c	-0.0002558938
87	0x3992363f	0.00027887707
88	0xb869f05e	-5.577539e-05
89	0xb992363f	-0.00027887707
90	0xb900b542	-0.00012274555
91	0xb8e8182e	-0.00011067126
92	0xb965abec	-0.00021903188
93	0x39c1697c	0.0003689042
94	0xb89abacb	-7.378085e-05
95	0xb9c1697c	-0.0003689042
96	0x36a6d1ba	4.971601e-06
97	0x3687cef4	4.047406e-06
98	0x3752ddd2	1.2568622e-05
99	0xb76258e7	-1.3491349e-05
100	0x363513f0	2.6982707e-06
101	0x376258e7	1.3491349e-05
102	0x3a6d57b2	0.00090539
103	0x398e8ba4	0.0002718839
104	0xb9ce3871	-0.00039333434
105	0xba6d936b	-0.00090627995
106	0x393e0f87	0.00018125596
107	0x3a6d936b	0.00090627995
108	0x37b6e5bc	2.180307e-05
109	0x38851144	6.34515e-05
110	0x3993846a	0.0002813668
111	0xb95dc76e	-0.00021150496
112	0x38316c58	4.230099e-05
113	0x395dc76e	0.00021150496
114	0x3a0477c8	0.0005053249
115	0x394ddabc	0.00019631808
116	0xb8a12308	-7.683603e-05
117	0xba2b8b9c	-0.0006543936
118	0x39093c7c	0.0001308787
119	0x3a2b8b9c	0.0006543936
120	0xb8a2ec5d	-7.768788e-05
121	0xb785f96b	-1.597098e-05
122	0x38a78f09	7.989823e-05
123	0x385f4a5b	5.3236592e-05
124	0xb732a1e6	-1.0647322e-05
125	0xb85f4a5b	-5.3236592e-05
126	0x3902241c	0.00012411218
127	0x385bc094	5.239302e-05
128	0xb8ead4dc	-0.00011197638
129	0xb937207c	-0.00017464341
130	0x38128066	3.4928693e-05
131	0x3937207c	0.00017464341
132	0x397e3030	0.00024241279
133	0x39155b07	0.00014243658
134	0x38940410	7.057947e-05
135	0xb9f8ed0a	-0.00047478854
136	0x38c72407	9.49577e-05
137	0x39f8ed0a	0.00047478854
138	0x35e34b70	1.6934773e-06
139	0x35654aa8	8.5417787e-07
140	0x35acdea8	1.28798e-06
141	0xb63f138c	-2.8472596e-06
142	0x3518dc72	5.69452e-07
143	0x363f138c	2.8472596e-06
144	0x36beb953	5.684016e-06
145	0x363ea692	2.8409163e-06
146	0x372a1246	1.0137044e-05
147	0xb71ee02c	-9.469728e-06
148	0x35fe3365	1.8939432e-06
149	0x371ee02c	9.469728e-06
150	0x37c5a30e	2.3560158e-05
151	0x36d6d25e	6.402187e-06
152	0x37c1a8fa	2.3086079e-05
153	0xb7b304a2	-2.134062e-05
154	0x368f36e4	4.268122e-06
155	0x37b304a2	2.134062e-05
156	0xb8fb9278	-0.000119958946
157	0xb83de2ff	-4.5272518e-05
158	0x390f06f3	0.00013640132
159	0x391e3d27	0.00015090835
160	0xb7fd2ea8	-3.0181676e-05
161	0xb91e3d27	-0.00015090835
162	0x365a27a0	3.2507596e-06
163	0xb8ee8dc8	-0.00011375133
164	0xb9cfe2a4	-0.00039650977
165	0x39c6cb78	0.000379171
166	0xb89f092f	-7.5834214e-05
167	0xb9c6cb78	-0.000379171
168	0xb9273291	-0.00015945199
169	0xb8bc3d99	-8.976012e-05
170	0xb8f75006	-0.00011792783
171	0x399cddfe	0.00029920036
172	0xb87afcca	-5.9840073e-05
173	0xb99cddfe	-0.00029920036
174	0xb9bbceb6	-0.0003582143
175	0xb8721f62	-5.7726524e-05
176	0x3654dc80	3.171881e-06
177	0x3949c4d6	0.00019242181
178	0xb8216a49	-3.8484377e-05
179	0xb949c4d6	-0.00019242181
180	0x3a6e705d	0.0009095723
181	0x395cb1d7	0.00021047085
182	0xba041755	-0.0005038877
183	0xba37e98c	-0.0007015697
184	0x3913213e	0.00014031396
185	0x3a37e98c	0.0007015697
186	0xb9555c1e	-0.00020347579
187	0xb8d8299b	-0.00010307432
188	0xb8dfedbc	-0.0001067775
189	0x39b422ac	0.00034358108
190	0xb8901bbe	-6.8716225e-05
191	0xb9b422ac	-0.00034358108
192	0xb7e01993	-2.671479e-05
193	0xb737887f	-1.09394305e-05
194	0x383e771a	4.5410452e-05
195	0x3818f1bf	3.6464768e-05
196	0xb6f4b5fd	-7.292953e-06
197	0xb818f1bf	-3.6464768e-05
198	0x384802b8	4.7686248e-05
199	0xb6e669c6	-6.866848e-06
200	0xb8f06db0	-0.00011464523
201	0x37c002d4	2.28895e-05
202	0xb6999bf2	-4.5779097e-06
203	0xb7c002d4	-2.28895e-05
204	0x3a5fa7b1	0.0008531763
205	0x392394d3	0.00015600333
206	0xba1d4b35	-0.00060002814
207	0xba08515c	-0.0005200112
208	0x38da1bc6	0.00010400223
209	0x3a08515c	0.0005200112
210	0xb7eb9eba	-2.8088096e-05
211	0xb8ce7302	-9.844267e-05
212	0xb8ee1e7f	-0.00011354405
213	0x39ac0a82	0.00032814225
214	0xb889a205	-6.5628476e-05
215	0xb9ac0a82	-0.00032814225
216	0xb95e46a4	-0.00021197886
217	0xb80066e5	-3.0613406e-05
218	0x38aed419	8.336473e-05
219	0x38d600da	0.00010204474
220	0xb7ab33dd	-2.040894e-05
221	0xb8d600da	-0.00010204474
222	0x34b4cf20	3.3678316e-07
223	0xb6c01020	-5.723923e-06
224	0xb7b3fd7b	-2.1456499e-05
225	0x37a00d75	1.9079753e-05
226	0xb6800ac4	-3.8159505e-06
227	0xb7a00d75	-1.9079753e-05
228	0xb9985889	-0.00029057663
229	0xb89f22d1	-7.588196e-05
230	0x3891ebfd	6.958095e-05
231	0x39849d04	0.00025293988
232	0xb8542e6b	-5.058797e-05
233	0xb9849d04	-0.00025293988
234	0x399afd6f	0.00029561992
235	0x392d4a40	0.00016526226
236	0x39763bf8	0.00023482728
237	0xba10688b	-0.0005508742
238	0x38e70daa	0.000110174835
239	0x3a10688b	0.0005508742
240	0xb9ef4c62	-0.00045642542
241	0xb93d9021	-0.00018078137
242	0x39785396	0.00023682261
243	0x3a1df81b	0.00060260453
244	0xb8fcc02b	-0.000120520905
245	0xba1df81b	-0.00060260453
246	0xb9c9fabc	-0.0003852452
247	0xb82f7b8a	-4.1838306e-05
248	0xb9495ade	-0.00019202704
249	0x39123c50	0.00013946113
250	0xb7e9f9f8	-2.7892165e-05
251	0xb9123c50	-0.00013946113
252	0xb8af3d3e	-8.3560575e-05
253	0xb818aa47	-3.6398207e-05
254	0x3975684c	0.00023403874
255	0x38fe711e	0.000121327335

exp_avg_sq f4 [128, 6]
0	0x30e4a802	1.6636934e-09
1	0x301b0575	5.6396426e-10
2	0x31bc7051	5.484289e-09
3	0x31d74eb4	6.266271e-09
4	0x2f89cbf4	2.5065072e-10
5	0x31d74eb4	6.266271e-09
6	0x3616f7f9	2.249608e-06
7	0x353b8be5	6.98665e-07
8	0x36ab9875	5.1139455e-06
9	0x37023d9a	7.762947e-06
10	0x34a6b53f	3.1051783e-07
11	0x37023d9a	7.762947e-06
12	0x33b50557	8.4294406e-08
13	0x32905b17	1.680523e-08
14	0x3402c3b2	1.2178387e-07
15	0x34487e86	1.867248e-07
16	0x320050f7	7.46899e-09
17	0x34487e86	1.867248e-07
18	0x34c9009a	3.7439605e-07
19	0x33c5eec2	9.216957e-08
20	0x35a2225c	1.207994e-06
21	0x35897402	1.0241058e-06
22	0x332ff0aa	4.0964245e-08
23	0x35897402	1.0241058e-06
24	0x35a48f07	1.2260579e-06
25	0x34ac0621	3.2041956e-07
26	0x3626e7ca	2.4870847e-06
27	0x366eec09	3.5602154e-06
28	0x3418e8fb	1.4240861e-07
29	0x366eec09	3.5602154e-06
30	0x2fde3496	4.041893e-10
31	0x2ec9bbd7	9.173789e-11
32	0x30e7b2e6	1.6858308e-09
33	0x308c17c3	1.0193094e-09
34	0x2e3351ac	4.0772427e-11
35	0x308c17c3	1.0193094e-09
36	0x34fcdc24	4.709883e-07
37	0x33870b6a	6.2885036e-08
38	0x351437a4	5.5215264e-07
39	0x353b8fe0	6.9872294e-07
40	0x32f0144f	2.7948913e-08
41	0x353b8fe0	6.9872294e-07
42	0x344d635a	1.9128257e-07
43	0x335c8c08	5.13501e-08
44	0x34dd8e05	4.126779e-07
45	0x3519285f	5.705569e-07
46	0x32c40ac2	2.2822295e-08
47	0x3519285f	5.705569e-07
48	0x363aa650	2.7812966e-06
49	0x357a84c8	9.332548e-07
50	0x36d1c1f3	6.251264e-06
51	0x372df8ae	1.0369504e-05
52	0x34deaef5	4.147802e-07
53	0x372df8ae	1.0369504e-05
54	0x348e3190	2.6485623e-07
55	0x33856b99	6.212867e-08
56	0x348e2985	2.647977e-07
57	0x35394e51	6.9031836e-07
58	0x32ed3111	2.7612744e-08
59	0x35394e51	6.9031836e-07
60	0x331922d5	3.5654768e-08
61	0x3121ee3c	2.3564004e-09
62	0x3335ec2e	4.235715e-08
63	0x32e0e76b	2.6182269e-08
64	0x308ff032	1.0472887e-09
65	0x32e0e76b	2.6182269e-08
66	0x356647cf	8.578617e-07
67	0x34b5698d	3.3790676e-07
68	0x367c7af0	3.7622485e-06
69	0x367bf625	3.754519e-06
70	0x34214155	1.5018061e-07
71	0x367bf625	3.754519e-06
72	0x35301858	6.5600534e-07
73	0x35189ccd	5.685259e-07
74	0x370dda20	8.455041e-06
75	0x36d3f63c	6.3169555e-06
76	0x3487a7d5	2.5267823e-07
77	0x36d3f63c	6.3169555e-06
78	0x32c56a97	2.298229e-08
79	0x32480152	1.1641832e-08
80	0x3453a97c	1.9712564e-07
81	0x340ae46b	1.293535e-07
82	0x31b1c843	5.174145e-09
83	0x340ae46b	1.293535e-07
84	0x34ca489f	3.767827e-07
85	0x33a215d5	7.547684e-08
86	0x354b8a60	7.5824755e-07
87	0x35611e44	8.3863074e-07
88	0x33101364	3.354525e-08
89	0x35611e44	8.3863074e-07
90	0x344a122f	1.8819331e-07
91	0x339a4b88	7.184923e-08
92	0x352846c9	6.2687883e-07
93	0x35564c74	7.9832466e-07
94	0x330926ae	3.1932977e-08
95	0x35564c74	7.9832466e-07
96	0x30958685	1.087941e-09
97	0x2f897d34	2.5009117e-10
98	0x314f7c1e	3.0193017e-09
99	0x313ef505	2.7787916e-09
100	0x2ef46cdb	1.1115172e-10
101	0x313ef505	2.7787916e-09
102	0x35ca6d84	1.5082046e-06
103	0x348d1583	2.6278948e-07
104	0x35b38a55	1.3376799e-06
105	0x3643f33c	2.9198845e-06
106	0x33fad0df	1.16795256e-07
107	0x3643f33c	2.9198845e-06
108	0x354c0889	7.600834e-07
109	0x33b0c60e	8.2316646e-08
110	0x35139028	5.497154e-07
111	0x357584d2	9.146289e-07
112	0x331d21d6	3.6585185e-08
113	0x357584d2	9.146289e-07
114	0x35223ef5	6.044132e-07
115	0x3497b39c	2.8256625e-07
116	0x361bbccb	2.3206692e-06
117	0x3652b256	3.1396244e-06
118	0x3406d88a	1.2558499e-07
119	0x3652b256	3.1396244e-06
120	0x326c667d	1.3760311e-08
121	0x302e2f4b	6.336804e-10
122	0x32320102	1.0361193e-08
123	0x31f1ec56	7.0408914e-09
124	0x2f9ad4b5	2.8163574e-10
125	0x31f1ec56	7.0408914e-09
126	0x34985a40	2.8377872e-07
127	0x336bcd99	5.490219e-08
128	0x358caa3a	1.0480355e-06
129	0x3523c08d	6.100243e-07
130	0x32d19a4b	2.4400967e-08
131	0x3523c08d	6.100243e-07
132	0x34f3c0a9	4.5402456e-07
133	0x340acd34	1.2926904e-07
134	0x3591042e	1.0804558e-06
135	0x35c0c7be	1.4363247e-06
136	0x3376c236	5.7452972e-08
137	0x35c0c7be	1.4363247e-06
138	0x2da67344	1.8923203e-11
139	0x2d169301	8.559154e-12
140	0x2eb68da8	8.301565e-11
141	0x2ed1217f	9.51017e-11
142	0x2c85d7fe	3.8040673e-12
143	0x2ed1217f	9.51017e-11
144	0x32ab46bb	1.9939185e-08
145	0x30fcbf74	1.8389827e-09
146	0x32c2cb7f	2.2677112e-08
147	0x32af84e9	2.0433122e-08
148	0x3060aa26	8.173252e-10
149	0x32af84e9	2.0433122e-08
150	0x3108c1f6	1.9900859e-09
151	0x307babec	9.1557584e-10
152	0x328b5d30	1.6224107e-08
153	0x322ec58d	1.0173051e-08
154	0x2fdfb53b	4.0692236e-10
155	0x322ec58d	1.0173051e-08
156	0x338cb693	6.552468e-08
157	0x32b8a374	2.1494749e-08
158	0x34dbf550	4.0970417e-07
159	0x348038a0	2.3883058e-07
160	0x32241f7f	9.553218e-09
161	0x348038a0	2.3883058e-07
162	0x34f0ae61	4.483036e-07
163	0x3429c715	1.5811777e-07
164	0x35f6beb8	1.8383935e-06
165	0x35ebcd5f	1.7568635e-06
166	0x3396e9d6	7.027454e-08
167	0x35ebcd5f	1.7568635e-06
168	0x344394f3	1.8214978e-07
169	0x3335ca21	4.232618e-08
170	0x34f446a6	4.5499945e-07
171	0x34fc7c49	4.7029087e-07
172	0x32a19729	1.8811606e-08
173	0x34fc7c49	4.7029087e-07
174	0x356268e8	8.434422e-07
175	0x3446a4d0	1.8500145e-07
176	0x35fdc5c6	1.8907529e-06
177	0x3609f271	2.055571e-06
178	0x33b0927e	8.2222854e-08
179	0x3609f271	2.055571e-06
180	0x36526562	3.135145e-06
181	0x35709149	8.9618385e-07
182	0x36ff0462	7.6001024e-06
183	0x37270f96	9.957605e-06
184	0x34d5d68c	3.9830445e-07
185	0x37270f96	9.957605e-06
186	0x34798bf7	2.3240851e-07
187	0x3389ad2d	6.41106e-08
188	0x3509dc90	5.135744e-07
189	0x353f379d	7.123397e-07
190	0x32f4c206	2.849357e-08
191	0x353f379d	7.123397e-07
192	0x30a49304	1.1974355e-09
193	0x30581cc4	7.862122e-10
194	0x326dd33b	1.3843244e-08
195	0x321613f7	8.735689e-09
196	0x2fc01983	3.4942724e-10
197	0x321613f7	8.735689e-09
198	0x3466bdcf	2.1489471e-07
199	0x3301aaa2	3.0190343e-08
200	0x3487cf24	2.5296424e-07
201	0x34b417a9	3.3544828e-07
202	0x326684b1	1.34179325e-08
203	0x34b417a9	3.3544828e-07
204	0x36545e77	3.1645448e-06
205	0x351f8d78	5.943798e-07
206	0x36a3685b	4.869927e-06
207	0x36dd99cf	6.604219e-06
208	0x348dd311	2.6416868e-07
209	0x36dd99cf	6.604219e-06
210	0x33d60b6c	9.967229e-08
211	0x343318f0	1.6679746e-07
212	0x35c7d07c	1.4887332e-06
213	0x35f8bf16	1.8533053e-06
214	0x339f329d	7.413221e-08
215	0x35f8bf16	1.8533053e-06
216	0x3415d177	1.3952909e-07
217	0x330ba774	3.2515757e-08
218	0x349f52da	2.967634e-07
219	0x34c1f6d8	3.6128654e-07
220	0x3278462e	1.4451457e-08
221	0x34c1f6d8	3.6128654e-07
222	0x31310d69	2.5764513e-09
223	0x2fdeae62	4.050547e-10
224	0x31741c75	3.552285e-09
225	0x319aa3c4	4.500608e-09
226	0x2f45f057	1.8002431e-10
227	0x319aa3c4	4.500608e-09
228	0x34301058	1.6397223e-07
229	0x3302eff3	3.0486216e-08
230	0x3488e0a1	2.5495413e-07
231	0x34b5db7f	3.3873582e-07
232	0x3268c70c	1.3549435e-08
233	0x34b5db7f	3.3873582e-07
234	0x35200201	5.960756e-07
235	0x33c56f4f	9.193774e-08
236	0x3524ab76	6.134427e-07
237	0x35891b87	1.0215307e-06
238	0x332f7f5e	4.0861202e-08
239	0x35891b87	1.0215307e-06
240	0x35023fae	4.852144e-07
241	0x3383cd0b	6.13746e-08
242	0x34c80ab0	3.726068e-07
243	0x35370e96	6.819404e-07
244	0x32ea5013	2.7277599e-08
245	0x35370e96	6.819404e-07
246	0x34e2f245	4.2272055e-07
247	0x34734fb3	2.2660133e-07
248	0x36266c85	2.4799094e-06
249	0x3628f759	2.5177926e-06
250	0x33d846de	1.00711745e-07
251	0x3628f759	2.5177926e-06
252	0x32e27156	2.6361402e-08
253	0x329fce0b	1.8603734e-08
254	0x34f9785b	4.6467434e-07
255	0x345df389	2.0670826e-07

exp_avg f4 [128]
0	0x36de0549	6.616731e-06
1	0xb99f309d	-0.00030363063
2	0xb700d9f3	-7.68014e-06
3	0xb8718058	-5.7578407e-05
4	0xb9320667	-0.00016977788
5	0x3416cc60	1.404419e-07
6	0xb90230b9	-0.00012415917
7	0xb895d00c	-7.1436254e-05
8	0xb99f64e7	-0.0003040202
9	0x36b9b2c4	5.5342407e-06
10	0x36ffce9c	7.6236447e-06
11	0x387af272	5.983044e-05
12	0x37a8dd28	2.0130145e-05
13	0x3712681a	8.726516e-06
14	0xb869f05d	-5.5775385e-05
15	0xb89abaca	-7.3780844e-05
16	0x363513f0	2.6982707e-06
17	0x393e0f88	0.00018125598
18	0x38316c5e	4.2301013e-05
19	0x39093c7b	0.00013087869
20	0xb732a1e5	-1.0647321e-05
21	0x38128060	3.492867e-05
22	0x38c72408	9.495771e-05
23	0x3518dc70	5.694519e-07
24	0x35fe336d	1.8939442e-06
25	0x368f36ed	4.2681263e-06
26	0xb7fd2eaa	-3.018168e-05
27	0xb89f092e	-7.583421e-05
28	0xb87afccc	-5.984008e-05
29	0xb8216a45	-3.8484362e-05
30	0x3913213a	0.0001403139
31	0xb8901bbe	-6.8716225e-05
32	0xb6f4b5fe	-7.2929533e-06
33	0xb6999bda	-4.577899e-06
34	0x38da1bc7	0.00010400224
35	0xb889a1fd	-6.562842e-05
36	0xb7ab33d9	-2.0408932e-05
37	0xb6800ac2	-3.8159496e-06
38	0xb8542e6a	-5.0587965e-05
39	0x38e70dac	0.00011017485
40	0xb8fcc029	-0.00012052089
41	0xb7e9fa04	-2.7892187e-05
42	0xb7cb8db3	-2.426547e-05
43	0xb85d2bbc	-5.2731237e-05
44	0x365f376c	3.326185e-06
45	0x393dc733	0.00018098652
46	0x3967ab98	0.000220938
47	0x381212dc	3.4826677e-05
48	0xb6b523ec	-5.398402e-06
49	0x378571d6	1.5907844e-05
50	0x382d38ae	4.12992e-05
51	0x3291b162	1.6960886e-08
52	0xb8541191	-5.05611e-05
53	0x390b12cc	0.00013263075
54	0xb71a0faa	-9.182762e-06
55	0xb8ccbf4b	-9.763109e-05
56	0x3777abce	1.4762349e-05
57	0xb916975b	-0.00014361499
58	0xb6a364bc	-4.8695056e-06
59	0xb7c5f100	-2.3596454e-05
60	0xb7e6c346	-2.7509068e-05
61	0x36026120	1.9428044e-06
62	0xb5c25f2c	-1.4481825e-06
63	0xb9893f1d	-0.000261777
64	0x36d83494	6.4434225e-06
65	0xb73a8321	-1.1116995e-05
66	0x37a27738	1.936742e-05
67	0x37d7dc39	2.5732546e-05
68	0x37d5db5a	2.5493722e-05
69	0xb87aca95	-5.9793314e-05
70	0x36efc8dd	7.1461386e-06
71	0xb9bfbca0	-0.00036570895
72	0x384e1c78	4.914074e-05
73	0x38080f35	3.243909e-05
74	0xb947121e	-0.00018984868
75	0x38b96771	8.840755e-05
76	0x369ed8fc	4.7340272e-06
77	0xb8aeca3f	-8.334638e-05
78	0xb8909792	-6.894687e-05
79	0xb8c9456c	-9.597358e-05
80	0xb883bc23	-6.28161e-05
81	0xb8140403	-3.5289686e-05
82	0x39060f96	0.00012785042
83	0xb8f80ffd	-0.000118285396
84	0x379811ea	1.8128154e-05
85	0xb7f331dc	-2.8991075e-05
86	0x36c9ee03	6.017975e-06
87	0xb79f4d2e	-1.8990217e-05
88	0xb86684f5	-5.49601e-05
89	0x36dfde88	6.671824e-06
90	0xb622dde0	-2.426903e-06
91	0x384fc477	4.9535618e-05
92	0xb797e28b	-1.8106095e-05
93	0xb7506bfd	-1.2422909e-05
94	0xb69b2b0f	-4.6243727e-06
95	0x371088a4	8.614883e-06
96	0xb86bd892	-5.6230063e-05
97	0xb89a9567	-7.3711206e-05
98	0xb8ee7606	-0.00011370708
99	0xb8ac932b	-8.229011e-05
100	0xb9262595	-0.00015844994
101	0x36ca9d90	6.038412e-06
102	0xb7113470	-8.654883e-06
103	0xb7ab0286	-2.0385964e-05
104	0x381b3414	3.700338e-05
105	0x37c81430	2.3851258e-05
106	0x3810eeda	3.4554723e-05
107	0xb674b1cc	-3.6462325e-06
108	0xb7d1f33b	-2.5028005e-05
109	0xb8f1412c	-0.00011503915
110	0xb79aa448	-1.843473e-05
111	0xb8f8b243	-0.00011858765
112	0x37ede688	2.8359951e-05
113	0x385060af	4.9681108e-05
114	0xb8ccbcd0	-9.762647e-05
115	0xb8559de4	-5.0930204e-05
116	0x37402b20	1.1454133e-05
117	0xb692dd13	-4.3768755e-06
118	0x3828958a	4.019359e-05
119	0xb9a2f17d	-0.0003107897
120	0xb88386ed	-6.271699e-05
121	0x34a5ba69	3.0869276e-07
122	0x379d9a28	1.8787643e-05
123	0x3671cce4	3.603106e-06
124	0x394c1bfb	0.0001946538
125	0xb6e129b1	-6.710376e-06
126	0xb86d958f	-5.664449e-05
127	0x387b74eb	5.995195e-05

exp_avg_sq f4 [128]
0	0x2f89cbf5	2.5065075e-10
1	0x34a6b53f	3.1051783e-07
2	0x320050f6	7.468989e-09
3	0x332ff0ab	4.096425e-08
4	0x3418e8fc	1.4240862e-07
5	0x2e3351ac	4.0772427e-11
6	0x32f0144d	2.7948909e-08
7	0x32c40ac2	2.2822295e-08
8	0x34deaef5	4.147802e-07
9	0x32ed310f	2.761274e-08
10	0x308ff031	1.0472886e-09
11	0x34214154	1.501806e-07
12	0x3487a7d5	2.5267823e-07
13	0x31b1c842	5.1741447e-09
14	0x33101363	3.3545245e-08
15	0x330926af	3.193298e-08
16	0x2ef46cdc	1.1115173e-10
17	0x33fad0e0	1.1679526e-07
18	0x331d21d6	3.6585185e-08
19	0x3406d88a	1.2558499e-07
20	0x2f9ad4b6	2.8163577e-10
21	0x32d19a4c	2.4400968e-08
22	0x3376c236	5.7452972e-08
23	0x2c85d7ff	3.8040677e-12
24	0x3060aa28	8.173253e-10
25	0x2fdfb53d	4.069224e-10
26	0x32241f82	9.55322e-09
27	0x3396e9d6	7.027454e-08
28	0x32a19728	1.8811605e-08
29	0x33b09280	8.222287e-08
30	0x34d5d68a	3.983044e-07
31	0x32f4c205	2.8493568e-08
32	0x2fc01983	3.4942724e-10
33	0x326684b0	1.3417932e-08
34	0x348dd310	2.6416865e-07
35	0x339f329d	7.413221e-08
36	0x32784630	1.4451459e-08
37	0x2f45f057	1.8002431e-10
38	0x3268c70b	1.35494345e-08
39	0x332f7f5e	4.0861202e-08
40	0x32ea5012	2.7277597e-08
41	0x33d846dd	1.0071174e-07
42	0x320e0c78	8.268323e-09
43	0x341ac885	1.4415316e-07
44	0x3149127c	2.9259857e-09
45	0x3443d750	1.823912e-07
46	0x34d01502	3.8758304e-07
47	0x330176ae	3.014309e-08
48	0x2f3f51b9	1.7400383e-10
49	0x323b95ab	1.0918863e-08
50	0x3384db36	6.186603e-08
51	0x27a3a13d	4.5416403e-15
52	0x336e2001	5.54428e-08
53	0x33c5177a	9.177798e-08
54	0x2fd5c074	3.888122e-10
55	0x333545e6	4.220592e-08
56	0x30a373cc	1.1892722e-09
57	0x3366945f	5.368599e-08
58	0x33195031	3.5696022e-08
59	0x321b3093	9.033232e-09
60	0x3186a1f8	3.918327e-09
61	0x2fbaa99a	3.3953712e-10
62	0x3187ac58	3.9486103e-09
63	0x347a86cd	2.3332105e-07
64	0x32e22ca7	2.6330168e-08
65	0x31a6ba7f	4.852438e-09
66	0x3098b308	1.1110339e-09
67	0x32b1ba87	2.0690335e-08
68	0x3371e9b2	5.632473e-08
69	0x3307cdc8	3.1619294e-08
70	0x318494ed	3.8586365e-09
71	0x34fad2eb	4.6719592e-07
72	0x33319021	4.134211e-08
73	0x3289f897	1.6061945e-08
74	0x342ffeee	1.6390888e-07
75	0x33af46db	8.161961e-08
76	0x302e1c81	6.334134e-10
77	0x3462ea62	2.1133158e-07
78	0x33cac59f	9.442305e-08
79	0x3473cd22	2.2705765e-07
80	0x34466c80	1.8479659e-07
81	0x332e8af6	4.0638916e-08
82	0x345c68c9	2.0527217e-07
83	0x33b56d66	8.448369e-08
84	0x322f376b	1.0198941e-08
85	0x32c63601	2.3074792e-08
86	0x30540c9e	7.714308e-10
87	0x323d3695	1.1013658e-08
88	0x33a5d98a	7.7229814e-08
89	0x3392b400	6.8313966e-08
90	0x2f188cd5	1.3874353e-10
91	0x33a64c6b	7.743878e-08
92	0x30919785	1.0593203e-09
93	0x31a67a4b	4.845139e-09
94	0x2fa406d5	2.983628e-10
95	0x32f029f4	2.7958755e-08
96	0x33cab0ac	9.4384944e-08
97	0x3372d5b6	5.6539385e-08
98	0x335f7031	5.202327e-08
99	0x343ef111	1.7782828e-07
100	0x3403e724	1.2284414e-07
101	0x33116db4	3.3860218e-08
102	0x34a135cb	3.0027726e-07
103	0x30a9b459	1.2347626e-09
104	0x332e1663	4.0532893e-08
105	0x340908dd	1.2762344e-07
106	0x32b67990	2.1242869e-08
107	0x316838f0	3.3792809e-09
108	0x30c26f5c	1.4147008e-09
109	0x342ee5f8	1.6288675e-07
110	0x3175d0d6	3.5770902e-09
111	0x33b57b7f	8.450933e-08
112	0x32d25eed	2.4490385e-08
113	0x33a318d1	7.594793e-08
114	0x334108e4	4.49444e-08
115	0x3350f8db	4.8655107e-08
116	0x33023a52	3.0321026e-08
117	0x31512403	3.0433973e-09
118	0x330a1d54	3.2157303e-08
119	0x345e2353	2.0688212e-07
120	0x32072f07	7.868727e-09
121	0x2c284925	2.391484e-12
122	0x33993e3b	7.135937e-08
123	0x2e90ac2c	6.578946e-11
124	0x346906cd	2.170229e-07
125	0x302a717e	6.200692e-10
126	0x33aba48a	7.9927375e-08
127	0x33131512	3.4245268e-08
