results/1007/Agent Behavior/Agent Behavior-8347.onnx (onnx, 74608 bytes, 6 tensors)

network_body._body_endoder.seq_layers.0.weight f4 [128, 6]
000000 09 5d ac be 1c f8 be be 77 c7 cd be da 7b 9a 3e
       -0.3366473 -0.37298667 -0.40191242 0.30172616
000010 d7 a3 65 bf 34 5e 8d be d7 fa 37 bf 26 d0 8b 3e
       -0.89703125 -0.27610934 -0.71867126 0.27307242
000020 70 8d b6 be 1b 3e 42 be 81 7d ae be 33 35 ee be
       -0.35654783 -0.18969004 -0.34080127 -0.46524963
000030 a0 6b 3a 3d 0f 82 85 3e b9 4e 56 3d 91 e6 2b 3e
       0.045512795 0.2607579 0.05232117 0.16787173
000040 e4 08 75 be a1 c9 8d 3e 8e 8f 5b 3b 30 17 3e 3e
       -0.23929173 0.27692893 0.0033502313 0.18563533
000050 c3 84 59 3f 1b 04 38 3e 24 4e db be 89 9c 60 be
       0.84968203 0.17970316 -0.42833054 -0.21934713
000060 f6 2c 88 3e fd fc 03 3f 24 86 54 3d b3 40 75 bf
       0.26596802 0.51557904 0.05188574 -0.9580185
000070 5b 3f 08 3f fd 60 02 be 1a 0c 0d 3e bf 83 07 3f
       0.5322167 -0.1273231 0.13774148 0.52935404
000080 79 33 fd be ad 2a 09 bf 63 b0 01 be 61 f7 97 bf
       -0.49453333 -0.53580743 -0.12664942 -1.1872369
000090 fb 40 2d 3e 5b b1 c6 3e c8 dc 71 bf af e8 d1 3e
       0.1691932 0.38807186 -0.9447751 0.40997836
0000a0 80 b2 1e 3b c6 d7 a4 bd 8c b0 1a 3e 03 0e 2d be
       0.002421528 -0.08048968 0.1510641 -0.16899876
0000b0 a5 72 97 bc fc 99 2a bf 3c 38 34 be 55 85 bf bd
       -0.018487284 -0.6664121 -0.17599577 -0.09351603
0000c0 a2 fd d0 be fc 36 52 be 69 26 28 3d 86 e0 98 be
       -0.40818506 -0.20528787 0.041052256 -0.29858798
0000d0 14 f8 17 3f 86 cf 91 3e dc 32 8a 3b 2d 57 08 3f
       0.5936291 0.2847864 0.0042174887 0.5325802
0000e0 2c 00 84 3f c2 d8 08 3f a7 ca fd bd 58 79 e4 be
       1.0312552 0.53455746 -0.123921685 -0.44623828
0000f0 a9 5c 94 bd 42 d2 01 3f 2d e9 25 3e 37 46 97 bd
       -0.07244236 0.5071145 0.16202231 -0.07386439
000100 f5 fd fa 3d e1 30 8c 3d 91 af 06 bf 1d 56 99 3e
       0.1225547 0.068452604 -0.52611643 0.29948512
000110 62 5e 52 3e 83 a1 15 bf 6f 0d 15 bf 27 62 86 3e
       0.20543817 -0.5844957 -0.58223623 0.2624676
000120 a4 ce 5e bf 02 bb c5 3e 10 cb 45 be db 70 e1 3e
       -0.8703406 0.38619238 -0.19315743 0.44031414
000130 69 ed c9 be bb 3d 4a 3d 1c ae d2 3e 3e 14 2e 3d
       -0.39438942 0.049375277 0.4114846 0.042499773
000140 78 f2 30 bf 23 5d a5 3e 46 0c a7 bc a0 d5 0a 3f
       -0.6911998 0.3229762 -0.020391595 0.54232216
000150 c1 8e 78 3e 8c 0c cf be 86 3e 91 be 74 9b 31 be
       0.24273206 -0.4043926 -0.28368014 -0.17344457
000160 c9 45 1d be aa 9d 80 be 46 41 b4 be e7 db 10 be
       -0.15358652 -0.25120288 -0.3520605 -0.14146386
000170 60 ac 3b 3f c8 42 d6 3e 7b 7e 89 3d dd 42 ca 3e
       0.733099 0.41847825 0.06713577 0.39504138
000180 70 a1 c4 bd 0b a8 79 3e ac 03 11 bf 30 86 20 be
       -0.09601104 0.2438051 -0.5664623 -0.15676188
000190 ed 84 02 3f bd 66 00 3e 81 f0 06 3f a3 ef a7 3d
       0.5098408 0.12539192 0.5271073 0.08200004
0001a0 16 21 3a be 65 47 bc be bd 11 18 be bf 5c 8f be
       -0.18176684 -0.3677322 -0.14850517 -0.28000447
0001b0 9f 03 a8 3e c6 4f d4 bd 42 07 c2 bd e4 2a 25 3f
       0.32815263 -0.10366778 -0.094740406 0.6451857
0001c0 e6 a3 13 3b 99 60 0a 3f 9a 6e f5 3e b5 3f e1 bd
       0.002252811 0.54053646 0.47935945 -0.10998479
0001d0 c0 a8 cb be cf 9e 70 3e 57 d6 e5 bd f1 af 89 3d
       -0.39777184 0.2349808 -0.11222523 0.06723011
0001e0 75 5f 37 3f 3e 53 14 3f 6b 15 42 3e f1 ba 6f be
       0.7163003 0.5793952 0.18953483 -0.23411156
0001f0 44 03 46 bd 4a 42 04 bd 2f ab 0d bf 22 0f cb 3e
       -0.048342958 -0.03228978 -0.5533933 0.39659983
000200 39 6b 0e 3f 79 93 0a bf 08 9d 1e 3e f9 fd a6 be
       0.5563236 -0.54131275 0.1548959 -0.3261564
000210 48 08 08 3f a7 28 81 3e 2f ba e1 be 82 76 9e bf
       0.53137636 0.25226328 -0.4408736 -1.2379916
000220 f0 61 33 bf 29 b6 05 3e d0 a3 1f 3f 43 5a 3c 3f
       -0.70071316 0.1305777 0.62359333 0.7357523
000230 da 91 96 3e 63 19 9e bd 60 4c 7a 3d 19 00 15 3d
       0.2940815 -0.07719686 0.061107993 0.036377046
000240 8a 45 43 3f 3d 1b d4 3e e5 58 db 3c 86 1a 30 be
       0.76277983 0.4142703 0.026775787 -0.17197618
000250 77 44 27 3f 4a 9a d3 3e 4a f3 f7 be 96 81 d7 3d
       0.65338844 0.4132865 -0.48427802 0.105227634
000260 4f 8d 8b bf 2e 2c c6 be 0e e6 c9 bd f8 b8 0d be
       -1.0902499 -0.3870558 -0.098583326 -0.13840091
000270 cc 10 7f 3e b3 00 e1 be 7d 66 9c 3e 95 9f c3 3e
       0.24908751 -0.43945846 0.30546942 0.3820769
000280 42 95 b5 bd 31 2d 41 be 40 e5 28 bf d8 29 67 3f
       -0.08866359 -0.18864895 -0.6597481 0.90298223
000290 39 ee b0 bd 8d 05 45 bf e5 85 9e 3c 40 2d ab 3d
       -0.08639187 -0.76961595 0.019350955 0.0835824
0002a0 c2 6f 7d 3d e2 af 2a bd 3a c6 15 be be 47 bd be
       0.06187416 -0.04167164 -0.14626399 -0.36968797
0002b0 73 40 4a bd bc dc 4a be ab c8 06 bf 34 24 99 be
       -0.04937787 -0.19810766 -0.52649945 -0.29910433
0002c0 cc ee 7c 3e c6 51 bb 3d 36 a9 11 3f c2 01 30 3d
       0.24700469 0.091464564 0.5689882 0.042970426
0002d0 e7 f6 12 3e 6f a8 69 bf 0b 9b f3 be 0c e4 ca 3e
       0.14351998 -0.91272634 -0.47579226 0.3962711
0002e0 b8 55 ae 3e 7c 85 bc 3e 1d 48 dd 3e 71 61 1b bf
       0.34049773 0.3682059 0.4321908 -0.6069556
0002f0 d7 c7 66 3e 19 f7 57 be 27 be 6b 3e d7 52 18 3e
       0.2253717 -0.21090354 0.23021756 0.14875351
000300 01 ee b6 be 71 3c 9f bd 08 84 b2 bd 3c b2 3d bf
       -0.35728458 -0.077752 -0.08716589 -0.7410009
000310 69 f2 04 3f 3f 93 5e 3e aa 24 ba 3d ac 0a a7 3c
       0.5193239 0.21735857 0.09089024 0.020390831
000320 f9 55 eb be 6b 39 0a be 1e 02 8d bc 03 ee 1d 3e
       -0.4596403 -0.13498466 -0.017212924 0.15422826
000330 ca 80 77 be 86 7e e5 3e 39 e7 5a be 82 c7 93 3e
       -0.24170223 0.44823092 -0.21377267 0.2886315
000340 eb da 20 3e 4d 27 08 3f d6 be 11 bf 8d 1b cc be
       0.1570851 0.5318497 -0.5693182 -0.3986477
000350 b3 b7 20 3e 10 1b 14 3d 4f b8 39 bf 0a db 9d 3d
       0.15695076 0.03615862 -0.7254686 0.07707794
000360 51 3a 46 be 4a 37 a7 be a1 1f a6 3d 2f e0 9f 3f
       -0.19358183 -0.3265937 0.081115015 1.249029
000370 f7 fc e1 3e 0a e7 bf 3d 95 50 ae be 6e 7e 3f be
       0.4413831 0.09370239 -0.34045854 -0.18700573
000380 41 21 25 3e 53 1c a4 be 54 22 30 3e 97 80 eb be
       0.16125967 -0.3205286 0.17200595 -0.45996544
000390 0d f2 0a 3d 6f f0 fd be 96 bb ea be da 66 12 3e
       0.033922244 -0.495975 -0.45846242 0.14297047
0003a0 58 08 25 3f 6b 81 87 be 50 8c 1e 3f 45 89 11 3e
       0.64465857 -0.26465926 0.6193285 0.1421252
0003b0 bf d3 1f 3e 32 63 48 3f 8f ce 26 3d 8c 55 82 be
       0.15608118 0.7827636 0.040724333 -0.25455892
0003c0 5f d7 f2 3e 1d 8e 33 bd df 2f 37 3e 8a dc 91 3f
       0.4742994 -0.0438367 0.17889355 1.1395428
0003d0 97 74 a5 3e 76 12 83 be fb 7b d4 3e 50 65 e7 be
       0.32315513 -0.25600022 0.4150084 -0.45194483
0003e0 d1 83 b8 3e 10 10 cd 3d 97 30 94 3e 1c 28 64 bf
       0.36038068 0.10012829 0.2894332 -0.891237
0003f0 0d 27 d5 3d e8 c7 32 bf a7 0b 73 3e de f3 1d 3f
       0.10407839 -0.6983628 0.23734914 0.61700237

network_body._body_endoder.seq_layers.0.bias f4 [128]
000000 00 00 00 00 00 00 00 00 00 00 00 00 00 00 00 00
       0.0 0.0 0.0 0.0
000010 00 00 00 00 00 00 00 00 00 00 00 00 00 00 00 00
       0.0 0.0 0.0 0.0
000020 00 00 00 00 00 00 00 00 00 00 00 00 00 00 00 00
       0.0 0.0 0.0 0.0
000030 00 00 00 00 00 00 00 00 00 00 00 00 00 00 00 00
       0.0 0.0 0.0 0.0
000040 00 00 00 00 00 00 00 00 00 00 00 00 00 00 00 00
       0.0 0.0 0.0 0.0
000050 00 00 00 00 00 00 00 00 00 00 00 00 00 00 00 00
       0.0 0.0 0.0 0.0
000060 00 00 00 00 00 00 00 00 00 00 00 00 00 00 00 00
       0.0 0.0 0.0 0.0
000070 00 00 00 00 00 00 00 00 00 00 00 00 00 00 00 00
       0.0 0.0 0.0 0.0
000080 00 00 00 00 00 00 00 00 00 00 00 00 00 00 00 00
       0.0 0.0 0.0 0.0
000090 00 00 00 00 00 00 00 00 00 00 00 00 00 00 00 00
       0.0 0.0 0.0 0.0
0000a0 00 00 00 00 00 00 00 00 00 00 00 00 00 00 00 00
       0.0 0.0 0.0 0.0
0000b0 00 00 00 00 00 00 00 00 00 00 00 00 00 00 00 00
       0.0 0.0 0.0 0.0
0000c0 00 00 00 00 00 00 00 00 00 00 00 00 00 00 00 00
       0.0 0.0 0.0 0.0
0000d0 00 00 00 00 00 00 00 00 00 00 00 00 00 00 00 00
       0.0 0.0 0.0 0.0
0000e0 00 00 00 00 00 00 00 00 00 00 00 00 00 00 00 00
       0.0 0.0 0.0 0.0
0000f0 00 00 00 00 00 00 00 00 00 00 00 00 00 00 00 00
       0.0 0.0 0.0 0.0
000100 00 00 00 00 00 00 00 00 00 00 00 00 00 00 00 00
       0.0 0.0 0.0 0.0
000110 00 00 00 00 00 00 00 00 00 00 00 00 00 00 00 00
       0.0 0.0 0.0 0.0
000120 00 00 00 00 00 00 00 00 00 00 00 00 00 00 00 00
       0.0 0.0 0.0 0.0
000130 00 00 00 00 00 00 00 00 00 00 00 00 00 00 00 00
       0.0 0.0 0.0 0.0
000140 00 00 00 00 00 00 00 00 00 00 00 00 00 00 00 00
       0.0 0.0 0.0 0.0
000150 00 00 00 00 00 00 00 00 00 00 00 00 00 00 00 00
       0.0 0.0 0.0 0.0
000160 00 00 00 00 00 00 00 00 00 00 00 00 00 00 00 00
       0.0 0.0 0.0 0.0
000170 00 00 00 00 00 00 00 00 00 00 00 00 00 00 00 00
       0.0 0.0 0.0 0.0
000180 00 00 00 00 00 00 00 00 00 00 00 00 00 00 00 00
       0.0 0.0 0.0 0.0
000190 00 00 00 00 00 00 00 00 00 00 00 00 00 00 00 00
       0.0 0.0 0.0 0.0
0001a0 00 00 00 00 00 00 00 00 00 00 00 00 00 00 00 00
       0.0 0.0 0.0 0.0
0001b0 00 00 00 00 00 00 00 00 00 00 00 00 00 00 00 00
       0.0 0.0 0.0 0.0
0001c0 00 00 00 00 00 00 00 00 00 00 00 00 00 00 00 00
       0.0 0.0 0.0 0.0
0001d0 00 00 00 00 00 00 00 00 00 00 00 00 00 00 00 00
       0.0 0.0 0.0 0.0
0001e0 00 00 00 00 00 00 00 00 00 00 00 00 00 00 00 00
       0.0 0.0 0.0 0.0
0001f0 00 00 00 00 00 00 00 00 00 00 00 00 00 00 00 00
       0.0 0.0 0.0 0.0

network_body._body_endoder.seq_layers.2.weight f4 [128, 128]
000000 f8 29 39 be 46 f2 2d bd d5 a6 ec 3d 37 ac 33 bd
       -0.18082416 -0.042467378 0.11555258 -0.04386541
000010 87 47 b7 3d 6f b4 50 bd 7e 9b dd 3d f5 13 ac bc
       0.0894919 -0.050953325 0.108206734 -0.02100561
000020 84 2c 82 bd ca b8 af 3d 08 d6 a4 bd dc 99 28 be
       -0.06356147 0.085801676 -0.08048636 -0.16464943
000030 8f 76 46 3d 71 60 96 3d f0 e8 39 3c ca b3 af 3c
       0.04845291 0.073426135 0.0113470405 0.021448035
000040 b8 c0 0c 3e b3 e6 0a 3d f6 0f 9a bc 56 fa 56 3b
       0.13745391 0.03391142 -0.018806439 0.003280302
000050 0f 61 1a bb 7c 84 65 bd ad e4 80 bd 35 2f 9a bd
       -0.0023556387 -0.05603455 -0.062936164 -0.07528535
000060 17 e7 a8 bc 48 52 31 be 21 f7 a5 bd 2f b9 a3 3d
       -0.020618005 -0.17316544 -0.08103777 0.07994305
000070 6a 80 28 3e 6d 42 f5 bc 9c ef c3 bc 82 cd 9c 3c
       0.16455236 -0.0299389 -0.023917966 0.019140963
000080 fb e0 ab 3d 9e b2 78 3d d7 83 92 3d 52 ac b4 bd
       0.08392521 0.060717218 0.07154053 -0.0882193
000090 74 c6 09 be 24 15 c3 bd 4a 52 95 3c 94 06 18 bd
       -0.1345461 -0.09525517 0.018227715 -0.03711565
0000a0 9b 14 b1 bd 01 ee b2 3c e2 94 d9 bd 03 e7 26 3d
       -0.08646508 0.021842005 -0.106241 0.040747654
0000b0 cc e5 95 bc 8c f3 6e 3d fc dd 8f bc 12 6c 45 bb
       -0.018298052 0.058337733 -0.017561905 -0.003012423
0000c0 72 03 0d be 08 ae a3 3d cf ed 64 3d 23 22 86 bd
       -0.13770846 0.07992178 0.055890854 -0.0654948
0000d0 52 e2 ad bc ac df 6e bd 75 38 5a 3b a5 12 ee bc
       -0.021226082 -0.05831878 0.0033297811 -0.029061625
0000e0 62 e1 01 be a0 82 b4 3d f1 09 dc bd 1b 6d 0e be
       -0.12683633 0.08813977 -0.10744084 -0.13908808
0000f0 3e a9 95 bc 71 8c 9d 3d 76 a3 30 3d 1c 5e 86 3d
       -0.018269178 0.07692803 0.04312464 0.06560919
000100 87 eb ca bd fa 9a 27 3e f1 82 90 bc 32 26 8b be
       -0.099082045 0.16367713 -0.017640563 -0.27177578
000110 f6 53 25 bd ad 49 4d 3d 55 bb f1 bd 1a 76 41 bd
       -0.040363275 0.05011909 -0.11803309 -0.04723177
000120 a6 9e e9 3d 0c 93 d6 bd 00 e9 24 bd 13 4d 9a 3c
       0.11407213 -0.10477266 -0.04026127 0.01883558
000130 f1 ad 44 bc 31 28 ed bc 7f a2 20 be 68 63 b2 bd
       -0.0120043615 -0.028949829 -0.15686987 -0.087103665
000140 2a 11 79 bd 0d f6 6d 3c 2b 09 13 be f7 97 f1 3d
       -0.060807385 0.014523995 -0.14358966 0.11796563
000150 96 48 a5 bd 9e 85 4e 3d c9 c6 db bc 79 9c 5e bd
       -0.08070485 0.050420396 -0.026828187 -0.054348443
000160 f2 b8 03 be 8a 41 a9 3d 1d 42 d5 3c 7a d8 ec 3d
       -0.1286352 0.08264454 0.026032502 0.11564727
000170 ee 6e 86 3d a1 e7 ba 3d a1 e6 4e 3e 7a 46 81 bc
       0.06564127 0.09126211 0.20205165 -0.015780676
000180 e4 68 96 bc 36 3b 55 be e1 d8 fe bb c6 e7 9e bc
       -0.018360563 -0.20823368 -0.007777319 -0.019397628
000190 67 bc e8 bc b3 d4 73 3d b4 e0 26 3e 36 22 91 ba
       -0.02841015 0.059529018 0.16296655 -0.0011072818
0001a0 fd ec 08 3d 2b b2 98 3b f1 60 05 3d 4b e2 da bd
       0.033429135 0.004659911 0.032563154 -0.10687693
0001b0 33 09 91 3d 45 92 2a bd a1 da f6 bd e9 13 96 bc
       0.07081833 -0.0416434 -0.12053419 -0.01832004
0001c0 fd cf c5 3c 5f 2d 13 bd 27 6a 3e 3c 9a 23 94 bc
       0.024147028 -0.03593194 0.011621988 -0.018083382
0001d0 e0 02 52 3e 5b 98 9b bc 82 2f 9b 3d b8 3a b6 3d
       0.20508909 -0.018993547 0.07577421 0.088979185
0001e0 e8 fc f2 3c ae 03 47 3c 58 1f 18 3e 19 98 c2 bd
       0.02966161 0.012146873 0.14855707 -0.095016666
0001f0 e4 d5 fe bd 2c 5a f4 3c 79 f4 bc bc b6 3f d8 3d
       -0.1244314 0.029828154 -0.023065792 0.10559027
000200 9b b9 a9 bd ab 38 30 3e b8 68 76 bd 0b 33 a2 ba
       -0.082873546 0.17209117 -0.06015846 -0.0012374831
000210 7d dd 0e bb 0c 2e 26 bd 2f b4 9c bd 3e 8b 9f bd
       -0.0021799498 -0.040571257 -0.07651555 -0.0779023
000220 2e f6 58 bd 36 02 0d 3d 3b f7 d8 bd 23 4d 20 bc
       -0.05296915 0.034425937 -0.105940305 -0.009784016
000230 34 a3 14 3e 20 dc 4e 3d a9 0f 1b bd 11 48 8c 3b
       0.14515382 0.050502896 -0.03785673 0.004281052
000240 ce 51 9a 3c 5b ef f3 3c 4a bf a6 bb d0 34 ca bc
       0.018837836 0.02977722 -0.0050887214 -0.024683386
000250 fc a3 81 bd 9c 77 1d bd 7d 58 b3 38 54 45 7e bd
       -0.06330106 -0.038444147 8.551867e-05 -0.062077835
000260 9d c9 99 ba e1 f1 09 3e 40 3e 9e 3a 5c 7c e4 bb
       -0.0011733059 0.13471176 0.0012072995 -0.0069728326
000270 bb f3 a5 3d c9 3d 7b bd 33 cd 95 3d b1 14 64 bd
       0.081031285 -0.06133822 0.07314529 -0.055683795
000280 a8 ab 12 3a e3 d9 b7 3c 05 19 9c 3d cf ab 2f 3c
       0.0005595037 0.022442764 0.076219596 0.010722115
000290 c4 8b 10 3e 29 3b af bd 1e 97 97 3d 95 3c 24 bd
       0.14115816 -0.08556206 0.0740187 -0.040096838
0002a0 63 db 9b bd c3 ec a5 bc a6 0b 53 bd 5b 85 01 bd
       -0.07610204 -0.020254498 -0.05152478 -0.03162132
0002b0 05 f7 3f be 24 fe c4 bd 2a 4b fe 3d 91 88 83 3d
       -0.18746574 -0.09618786 0.1241668 0.06422532
0002c0 ea d5 7c bd 63 30 94 3d cd 40 0a 3d 3e 07 59 3b
       -0.06172744 0.072357915 0.033753205 0.003311589
0002d0 26 eb e3 bc de 95 ab 3b 35 af c6 3c 2e db 23 3b
       -0.027822088 0.0052363714 0.024253467 0.0025002467
0002e0 29 3f f4 bd 3a da 37 bd 4d 25 be bd 56 08 87 3c
       -0.11926109 -0.04488585 -0.09284458 0.016483467
0002f0 57 b5 65 bc c2 d0 91 3d 1c 1b 67 bd 1d 23 ca bc
       -0.014020286 0.071198955 -0.056422338 -0.024674946
000300 51 3b 54 bd 0c ee 18 3c d8 88 13 be 0a b2 a6 bd
       -0.05181438 0.009334099 -0.1440767 -0.08139427
000310 2d 49 3c be 0f 70 8a 3c a0 e0 09 bd 65 d4 a0 bd
       -0.1838729 0.016899137 -0.033661485 -0.07853011
000320 80 2f 54 3e fc d5 9d 3d 32 e4 dc bb 02 70 28 3d
       0.20721245 0.0770683 -0.00674107 0.041122444
000330 0f 1f 40 bd ab 7a b6 bb 52 57 54 3a ba 05 58 3e
       -0.04690462 -0.0055688224 0.000810017 0.21095935
000340 57 74 2d be 0c db ef 3d 31 6b c7 bd 27 81 52 bd
       -0.16938911 0.11711702 -0.09737242 -0.0513927
000350 78 74 bf bd db 72 0c 3c 83 fc eb 3d 72 c9 be 3b
       -0.093483865 0.008572306 0.11522772 0.005822354
000360 c3 76 38 bd 4f 55 14 3d 17 82 c8 3d f9 c8 da 3d
       -0.045035135 0.03621417 0.09790438 0.10682864
000370 eb 34 81 3c 21 02 27 be 6b 74 b7 3d b1 76 26 3c
       0.015772304 -0.16309406 0.08957752 0.010160134
000380 9f 6b 0a be c4 e7 f8 3b 34 76 12 3d f8 a4 a4 3c
       -0.13517617 0.007595988 0.03575726 0.020098194
000390 43 5e 9e 3d d7 ca 2a 3c fd 44 bd bd 9b 2c 85 3b
       0.07732823 0.010424337 -0.09241674 0.0040641553
0003a0 1e a0 11 3d 07 20 0a bd fc 09 26 3e f0 e1 de bc
       0.03555309 -0.03372195 0.16214746 -0.027207345
0003b0 24 dd 47 bd 61 94 26 bb 76 99 fa 3c 9e 45 38 3d
       -0.04879488 -0.002541803 0.030590754 0.044988267
0003c0 a1 18 8f 3d 3b 6e 6c bc 4d 0c 0e 3d 17 4e 27 3e
       0.069871195 -0.014430578 0.0346797 0.16338383
0003d0 48 bd 1b 3e 9e 8b 86 bd 70 41 bf 3c 9f 2d a6 bd
       0.15208924 -0.065695986 0.023346633 -0.0811417
0003e0 24 aa 74 3e e6 06 2f 3d 2e 57 e1 bc b4 b9 85 bd
       0.23893028 0.04273119 -0.02750739 -0.06529561
0003f0 87 1c 5d 3d 12 5e c2 3d a6 0a 85 bd f7 13 a9 bc
       0.053982284 0.09490599 -0.06496172 -0.020639403

action_model._continuous_distribution.log_sigma f4 [1, 2]
000000 00 00 00 00 00 00 00 00
       0.0 0.0

action_model._continuous_distribution.mu.weight f4 [2, 128]
000000 37 97 7f bc cd 41 73 bc 22 1d e0 bc cc ff c4 bb
       -0.015600017 -0.014847231 -0.027357642 -0.0060119387
000010 d2 c9 50 bc 18 25 0d bb 5d 16 99 bb a7 25 7b 3c
       -0.01274343 -0.0021537002 -0.0046718554 0.015328801
000020 f6 cb ca 3c d8 3a e7 ba d3 58 c0 bc e1 e6 b5 3a
       0.02475546 -0.0017641438 -0.023479855 0.0013878011
000030 e3 c0 c7 bb 0b 6c d8 3c ef 9a 3f bc 10 82 07 bc
       -0.006095992 0.026418706 -0.011694654 -0.008270755
000040 57 26 59 bc 17 6b f7 bc cb 56 b7 bc bb 85 51 bc
       -0.01325377 -0.030202432 -0.022380253 -0.0127882315
000050 1c 07 85 3c a5 1b 18 bc e7 fd eb bc d5 fb d0 3c
       0.016238742 -0.009283935 -0.028807594 0.025510708
000060 6a 95 73 3b a2 4d 4a bc fd eb 4c bc 23 6b 7d bc
       0.0037167915 -0.012347611 -0.012507436 -0.015467438
000070 c7 aa cb b9 6b 90 e6 ba 30 ae 51 bb f8 42 dc bc
       -0.00038846416 -0.0017590647 -0.0031994693 -0.026887402
000080 56 8f 94 3c f8 aa 0e 3c 85 a6 fe 3c 47 fb d7 bc
       0.018134754 0.008707754 0.031085262 -0.026364936
000090 83 a5 2f 3b 1d a6 b1 bc ed e5 84 bb 0e 89 0a 3d
       0.0026801534 -0.021685654 -0.0040557296 0.03382211
0000a0 a4 55 15 3d c7 94 3c 3c 68 d2 57 3b 48 61 ad bc
       0.036458626 0.011510081 0.0032931808 -0.021164551
0000b0 45 3c 7d 3b 5d d7 1a bb 57 ea 54 bc 43 e4 f4 ba
       0.003864066 -0.0023626902 -0.012995324 -0.001868375
0000c0 ba 24 da bc 3f a1 8a bb 25 3e 93 bb e1 34 b3 3b
       -0.02662884 -0.004230648 -0.004493492 0.00546895
0000d0 24 34 8e 3c 4b a6 01 3d e2 99 e2 3c a7 24 3d b8
       0.017358847 0.03165273 0.027661268 -4.5095247e-05
0000e0 c0 7c 78 3c 4c 36 8e 3c 8d 76 8c bc 89 c0 88 bb
       0.0151664615 0.017359875 -0.017146373 -0.0041733426
0000f0 f7 67 85 bb ed d8 50 bc cb ba 59 3b aa cd 99 bb
       -0.0040712315 -0.012747032 0.003322291 -0.0046937065
000100 27 d6 86 3c 67 b9 19 bb c2 96 76 3c 2f e6 ab 3c
       0.016459538 -0.0023456456 0.015050592 0.020983784
000110 2f 04 89 3c fd 70 56 bb 5d 7e 68 bb 00 c7 28 3d
       0.016725628 -0.0032721155 -0.003547571 0.041205406
000120 96 11 2e 3b bf ca 3d bc 76 d4 1e bd 26 1d 90 3c
       0.0026560775 -0.011583983 -0.038776837 0.017592024
000130 b7 29 08 3d 5c 29 1e 3c b8 eb 04 3d 83 a7 77 3c
       0.033242907 0.0096534155 0.03245136 0.0151156215
000140 93 39 57 3c 09 99 c4 bb dd d5 d6 3c 28 ea 93 bb
       0.013136285 -0.0059996885 0.026225025 -0.0045139976
000150 72 4b 78 bc 8f 01 d9 3c bb e6 9b 39 70 51 bf 3c
       -0.015154706 0.026490001 0.0002973581 0.023354262
000160 9f ff 03 3c 4c 7a 28 3b dd 19 6a 3c 2f ef cd bb
       0.00805655 0.002570766 0.014288393 -0.0062846164
000170 44 9e a8 3b 22 7d 60 bb a8 09 e2 3c e3 ab 04 bc
       0.00514582 -0.0034254272 0.027592495 -0.008097622
000180 df 27 8c bb e2 95 64 bb a4 5a 28 bb b1 81 c7 3c
       -0.004277214 -0.0034879376 -0.0025688792 0.024353834
000190 f8 83 87 3c 53 f5 7c bc c3 a8 ea bb 4f 4a 0e 3c
       0.01654242 -0.015439349 -0.0071612312 0.008684709
0001a0 ec 83 2c bc 33 a8 8b 3c 30 e7 67 3c cb bc ae bc
       -0.0105294995 0.017047977 0.0141542405 -0.021330258
0001b0 f2 52 f7 bc 44 22 10 bd 15 5a 80 bc d7 de 15 3d
       -0.030190919 -0.03518893 -0.015667954 0.03658947
0001c0 0b fd c9 3b 3e 79 b0 bc b5 41 08 bd 8e dc 05 3c
       0.0061641983 -0.021542188 -0.033265788 0.00817026
0001d0 c1 75 9b bc 3d 29 13 3d 6a f6 fe bb f8 da 58 bc
       -0.018977048 0.035928 -0.0077808397 -0.0132358
0001e0 d3 4e 18 bc 97 fe 2e 3c 82 43 ab ba ef 83 ec bc
       -0.009296137 0.010680816 -0.0013066384 -0.028871505
0001f0 68 3f ce 3c eb be 8c 3c 50 10 4e bb 1a f1 5e 3c
       0.025176719 0.01718088 -0.0031442828 0.013607288
000200 1b 6c 36 bb 2f b9 a2 bc 6b 28 56 3d 6b 07 d1 bb
       -0.0027835432 -0.019863693 0.05228464 -0.006379058
000210 c2 5b e0 3b 13 da 4d 3c 93 7c 9b 3c fd d8 38 3c
       0.006846876 0.0125642 0.0189803 0.011282203
000220 02 42 f6 3b ef e8 44 ba b7 b8 4a b8 da fa 34 3d
       0.007515193 -0.00075115165 -4.8332582e-05 0.044184543
000230 17 b8 f4 bb 23 df 67 bc 0f a4 34 bd e3 00 78 3b
       -0.0074682343 -0.014152321 -0.04410177 0.0037842325
000240 b2 d9 99 bb 2b 99 85 3c 69 f0 a3 ba b8 de ad bb
       -0.0046951408 0.016308388 -0.0012507561 -0.005306091
000250 c3 aa 19 bd e0 19 ce bc b2 e6 90 bc 92 0b 64 bb
       -0.037516367 -0.025158823 -0.01768813 -0.0034796936
000260 79 ef 42 bc db c7 37 3d 5f 49 89 3c 36 3a 33 bc
       -0.011897915 0.04486833 0.016758619 -0.010939172
000270 f3 db bf bc ad f7 da 3b b1 98 44 bc 00 f6 6a 3c
       -0.02342031 0.0066823573 -0.011999295 0.0143408775
000280 18 4b 4d 39 ea be 4f 3b 19 53 1d 3d 7b 8f 12 3c
       0.00019578298 0.0031699487 0.038409326 0.008945341
000290 a8 29 20 bd a0 c6 f6 bb 0c 32 90 3c e3 6f 5b 3c
       -0.039102226 -0.007531002 0.01760199 0.013393375
0002a0 7a 74 12 bd b3 4b 06 3d 00 d8 bc bc aa 99 af 3a
       -0.035755612 0.032787036 -0.023052216 0.0013397236
0002b0 96 75 1c bc 91 f1 89 3b 1b f4 48 bc 2c f8 91 bc
       -0.009549519 0.004209705 -0.0122652305 -0.017818533
0002c0 b3 23 0a bd 1d bd e5 3b 56 5b 2b bc f7 18 cd 3c
       -0.03372545 0.0070110695 -0.010458788 0.025036318
0002d0 45 e9 85 ba bf 83 e1 b9 0b 72 f0 ba 5b 0c 4d 3a
       -0.0010216614 -0.00043013503 -0.0018344534 0.00078219705
0002e0 c7 b5 76 3c e3 b7 a8 bb e7 9e 1e 3b d6 e6 8f bc
       0.0150579875 -0.005148874 0.00242036 -0.017566126
0002f0 e3 f9 f4 bc be 4b 12 3b fa 55 8e bb a7 58 82 bc
       -0.029904312 0.0022322978 -0.0043437453 -0.015911413
000300 d1 7f 90 3c 5e 42 89 bc cb 88 16 3c 4f d3 39 bc
       0.017639073 -0.01675528 0.009187887 -0.011341884
000310 d3 3d df 3c 15 5a cd 3b 71 1c bd bc 2b ff fe 3b
       0.02725116 0.006266842 -0.023084851 0.0077818832
000320 fb 0b ec bc 94 5f a0 bc 6a c4 eb 3b 13 56 5d 3c
       -0.028814306 -0.019576825 0.0071950452 0.013509291
000330 94 f0 b6 bb 05 15 09 3b 2a 3a 45 bc 48 d2 3e bc
       -0.0055828784 0.002091707 -0.012037793 -0.011646815
000340 83 d5 59 3b e7 5f 42 bc 64 86 40 3c e5 f7 f8 bc
       0.0033238835 -0.011863685 0.011750791 -0.030391643
000350 7c 96 11 bd 9b 70 f1 bc 05 25 e1 bc 02 b7 83 3c
       -0.035543904 -0.02947264 -0.027483473 0.016078476
000360 a7 19 7d 3c 35 dd 04 bb d0 f3 16 bc 03 56 c2 3b
       0.0154480105 -0.0020273451 -0.009213403 0.0059306636
000370 8f 1a b6 bc 7c e9 08 3d b3 3f b0 3c 79 87 ac 3c
       -0.022229461 0.033425793 0.02151475 0.021060692
000380 8b 5f 66 3c 9c 4f 06 bd d1 60 31 bd d3 0d 2c bc
       0.014060865 -0.032790765 -0.043305222 -0.010501343
000390 29 3f b1 3c d8 6d 8d bb 40 05 09 bc da 84 c0 bc
       0.021636562 -0.004316073 -0.008363068 -0.023500849
0003a0 d8 ff ce 3c b2 65 69 bc e5 9c 35 3c a7 54 65 3c
       0.02526848 -0.014245437 0.01108477 0.0139972335
0003b0 1f 2e a3 3c 39 45 c5 bb db 9c 6d bc 5f 17 47 bc
       0.019919453 -0.006020215 -0.014502729 -0.012151568
0003c0 6f 41 6f 3a 2b 36 07 3d 5b 16 7e bc f7 6e 8b bc
       0.0009126877 0.033010643 -0.01550826 -0.017020686
0003d0 43 6c 51 3c 63 ae cf 3b d7 44 4d bb ff a0 22 3c
       0.012782159 0.006337927 -0.003132155 0.00992608
0003e0 ab 5e a5 3b cc c8 8c bc d3 6d 5a 38 7b 56 52 bc
       0.0050466857 -0.017185591 5.2077532e-05 -0.012838001
0003f0 91 24 8a bb ca 66 b3 bc e3 b2 80 bc 3d 0a 37 3c
       -0.004215785 -0.0218996 -0.0157103 0.011171875

action_model._continuous_distribution.mu.bias f4 [2]
000000 00 00 00 00 00 00 00 00
       0.0 0.0
