results/1008/Agent Behavior/Agent Behavior-441964.pt (torch, 441610 bytes, 36 tensors)

network_body._body_endoder.seq_layers.0.weight f4 [128, 6]
00000000: b6e9 483e 6867 013f 831a db3e 87ef a33d
00000010: e35c f2be 045f aebd 5540 f0be 2edd 20bf
00000020: 4bbf b53e e540 353c c3db 17bf 23f0 6c3e
00000030: f2a2 0c3f b88a 0b3e 51a7 283d a822 50bf
00000040: 2e94 23bf 6243 093f a14c 773c a2b3 8cbd
00000050: 7709 053e 1232 633e 9feb 493f 33b6 013d
00000060: 2237 66be 1112 72be ecb6 14bf 76f5 81bf
00000070: 47fc 01be 75a4 1e3e 0ecf fdbd e3c0 043d
00000080: f403 fe3e 00ae 5a3f 94d5 8f3f a28b 0cbf
00000090: 67eb debc d6fd 51bf 80f4 7bbf 96f0 e8bd
000000a0: aa56 493f e20c 8a3f bb83 4dbe 70b2 33be
000000b0: a5ee 263e 2b53 ff3e e28f 3a3e ea57 c13e
000000c0: 5d52 263e 2792 8bbd 8f17 d2be 9a17 1bbe
000000d0: 00ff 033e c733 893d 429f d43e 5286 e93e
000000e0: 9e03 943e 9976 79be 571d 323e 2928 2bbf
000000f0: 794e 1d3e 137a 973d 5633 583d 30da 9a3e
00000100: 802f 98be 3ac8 cf3e ef1d 863d a619 403f
00000110: 9f9e 05bf 115b d7bd 13ec 7c3e 4c70 81be
00000120: d3ba b1be da1e 263e be00 a6be 829c babd
00000130: 1439 24be 7156 f73e a94f b7be 5b61 08bf
00000140: 3427 a0be 84c8 76be 4a15 02be 229b 02be
00000150: a33c d73e 2e12 ee3c 66b3 5dbe 7c95 933e
00000160: 3378 a1be 20ac 603c 6b10 0fbf 805c a13d
00000170: 853b e8be f407 b5be 2f83 753e f851 69be
00000180: f4d5 a3be e58f 093f b607 5cbe a7be c1bd
00000190: 36ea 143d 7a26 87bd 94e8 81be cb3b 463f
000001a0: b3a2 813d e56a 26bf 3208 94bd 5a73 073e
000001b0: 4e04 5cbd f495 a93f e701 6c3e 2e23 17be
000001c0: 1f0f 10be 1d34 5e3f ce6f 15be 3260 90bc
000001d0: 4836 34bf 9282 21be 6ec7 74bf 0ca0 883e
000001e0: 3b91 e1be 0127 463f e19d 2e3d acff 99be
000001f0: 05bf febe d660 b03e b463 32bf 9685 00bf
00000200: a7a1 743e a71c aebe 47a1 793d 1ff9 e1be
00000210: 9119 acbe a4fa f83e edaf 403e 1299 5cbe
00000220: c5f5 fabd 5932 613e d86c e5be af46 0a3f
00000230: a001 8b3e 4689 21be 0f23 703f 558a 14bf
00000240: 2043 bc3d 86bc c03e 7109 86be e4b6 d9be
00000250: a77d 47be 32d8 343e 2912 003e fec9 a03e
00000260: 25d2 1a3f b016 aa3d bd80 ba3e 3d3c 38bf
00000270: 3628 42be 5275 8b3e b9d4 6b3f 8c41 3dbe
00000280: acb5 e33e b054 323e 7f4d fabe 8aea 39bf
00000290: 83c1 323e 4416 d4be 0b24 7abd 98a6 283d
000002a0: ae3a cb3d 477b 993e bc4b 253f 7279 8dbe
000002b0: 964d 12bf b8d5 a7be eba0 d9bd 559a c43d
000002c0: a9a0 093e 5f57 ed3e 83fb 593d d39c 76bd
000002d0: 2f0c 7ebf 43cf 0c3f fcbf 80be 1968 62be
000002e0: 4c33 4cbd aa51 68be 9ba1 cdbe 4fba 57be
000002f0: b7db e5be cfdd 8538 7a81 57bd 8a60 f2bd
00000300: e6d2 5c3e 7096 85be a70d e8bc 0de4 99bd
00000310: d684 81be 8cd0 b73e b787 963e b10d 1ebe
00000320: 9414 103f 563d 723e 4c07 f23e 21e7 c03c
00000330: e2d3 dfbe 7c64 f23e 594b 023c ca09 c93e
00000340: a144 ccbe b154 c7bd 14b5 623d 46bd 26bf
00000350: c978 aa3d d074 b93d 1b01 5f3e f3ca 30bf
00000360: 400d f5be 5312 f53c 4ae0 55be e033 f03e
00000370: 5b25 e8bd d6b9 abbe 9a9a 3bbf 8b2d 243f
00000380: c84c eabc b536 31be 0b74 b33d d4b7 bdbb
00000390: 090f 0dbc 2465 24be 57c8 a4bd 8bad 8dbe
000003a0: 150c dabb 0fc9 3a3f 13a4 02bf 8151 cdbe
000003b0: 26d1 acbe 555b 34be ced5 3bbe c410 263f
000003c0: 277a 503e d753 57bd 180e c9be 2ac7 813f
000003d0: 7203 bfbd 1298 2b3e 29e1 e9be e1e2 7c3e
000003e0: 48bd cb3e 90c5 3cbc f806 863e 5193 f23d
000003f0: 5fb7 503e 1fb7 ca3d 248a c83e b019 3a3e
0.19620404 0.5054841 0.42793664 0.080046706 -0.47336492 -0.085142165 -0.4692408 -0.62837493
0.35497507 0.011062835 -0.59319705 0.2313848 0.54936135 0.13627136 0.04117519 -0.8130288
-0.6389798 0.53618443 0.015093953 -0.068702 0.12991892 0.22187069 0.78875154 0.0316679
-0.22481969 -0.23639704 -0.58091617 -1.0153034 -0.12693892 0.15492423 -0.12393008 0.032410514
0.4961239 0.8542175 1.1237054 -0.5490056 -0.027211858 -0.8202795 -0.9841995 -0.11374013
0.78647864 1.0785182 -0.20069782 -0.17548537 0.16301973 0.4986814 0.1821895 0.37762386
0.16242357 -0.06814986 -0.410336 -0.15145722 0.12890244 0.06699329 0.41527754 0.4561029
0.2890901 -0.24361648 0.17394005 -0.66858155 0.15361966 0.07396331 0.052783333 0.3024459
-0.2972374 0.40582448 0.06548678 0.75039136 -0.5219516 -0.105154164 0.2469943 -0.25280988
-0.34712848 0.16222706 -0.3242244 -0.09111883 -0.16037399 0.48308137 -0.35802963 -0.5327355
-0.3127991 -0.24099928 -0.12703434 -0.12754491 0.4203845 0.029061403 -0.21650466 0.28824985
-0.31537017 0.013712913 -0.55884427 0.07878971 -0.4535791 -0.3535763 0.23975824 -0.22785175
-0.3199917 0.5373519 -0.21487316 -0.09460192 0.036356173 -0.06599136 -0.25372756 0.77434987
0.063298605 -0.6500686 -0.07228126 0.13227597 -0.053715043 1.3248887 0.230476 -0.14759514
-0.14068268 0.8679827 -0.14593431 -0.017623994 -0.70395327 -0.15772465 -0.95616806 0.26684606
-0.44056115 0.77403265 0.042631034 -0.30077875 -0.4975511 0.3444888 -0.69683385 -0.50203836
0.2388979 -0.34006235 0.06094482 -0.44135377 -0.33613256 0.48628724 0.1881711 -0.21542767
-0.12253908 0.21991862 -0.44809604 0.54014105 0.27149677 -0.15775022 0.93803495 -0.5802358
0.091924906 0.37643832 -0.26179078 -0.42522347 -0.19481526 0.17660597 0.12506928 0.31404108
0.60476905 0.083051085 0.36426345 -0.71966916 -0.18960652 0.27237946 0.92121464 -0.18482035
0.44474542 0.17415118 -0.4888725 -0.72623503 0.17456631 -0.41423237 -0.06106953 0.0411745
0.09923302 0.29976866 0.64568686 -0.27631718 -0.57149637 -0.32780242 -0.10626396 0.09599749
0.13440193 0.4635572 0.053218376 -0.060208153 -0.9923734 0.55003756 -0.25146472 -0.22110023
-0.049853608 -0.22687402 -0.40162358 -0.21067165 -0.44894192 6.383249e-05 -0.052613713 -0.118348196
0.21564826 -0.26091337 -0.028326822 -0.075142 -0.25296658 0.35901296 0.29400417 -0.1543491
0.562814 0.2365621 0.47271192 0.02354771 -0.4371634 0.47342288 0.007952535 0.3926528
-0.3989611 -0.097329505 0.05534847 -0.6513256 0.08323819 0.09055483 0.21777765 -0.69059676
-0.4786167 0.029915964 -0.2088634 0.46914577 -0.1133525 -0.3354022 -0.7328278 0.64131993
-0.028601065 -0.17306025 0.08762368 -0.0057897363 -0.008609542 -0.16054207 -0.08046024 -0.27671465
-0.0066542723 0.7296304 -0.5103161 -0.40101245 -0.33753318 -0.17612965 -0.18343279 0.6486933
0.20359097 -0.05257019 -0.39268565 1.0138905 -0.09326829 0.16757229 -0.45679596 0.24695922
0.39792848 -0.011521712 0.26177192 0.118445046 0.2038245 0.09898209 0.39167893 0.18173862

network_body._body_endoder.seq_layers.0.bias f4 [128]
00000000: ec73 fbba 9ef0 283d a80f 30ba 2b28 bf3b
00000010: 3648 093b de96 2d3d d3dc 2bbc dbf6 593b
00000020: 2862 c7bc 26ef dc3a deae 373b a65b 633b
00000030: c944 5fba 2921 0e3c 7f95 33b9 c640 373b
00000040: 233d c03a 5346 ba39 3ab8 353b 4d88 c4bc
00000050: 3dbd 053b 7846 5f3d 8a2b 6d3d 4d61 4f3d
00000060: 18ed 2cbb c5ce dd3c 043d 583c 6893 c8bc
00000070: fb4b 173c a38f 0ebc f14b 9c3d 6ad7 cf3b
00000080: ab09 32bb 5711 583c 6801 8a3b c7ed e0ba
00000090: dec5 5bbc 9933 333d e486 57b9 bda7 ecb9
000000a0: 79e6 533d e1f4 123c 720d 5b3c 4b6c fb3b
000000b0: 6299 71bb f9be c23c f432 113d 6f39 8dbc
000000c0: 9404 aa3b 012b 4e3c c3a9 6b3c 5d7f 97bb
000000d0: 3fd6 503c bf8f 44bb d7e5 ae3c 4c48 383d
000000e0: a810 28ba a619 f2ba 37a6 acba 12b8 12bb
000000f0: 5153 e6bb 705d a53d 5d67 143d c16b 4d3c
00000100: 71ab 0abc 5eff b1ba 8054 893c 7663 23bb
00000110: cd1e 03bb 4292 5e3b caf6 aa3c a28a 1f3a
00000120: 4003 1bbb 3664 9ebc 7481 133c 4f95 4d3c
00000130: 1a1a c43b 15eb 22bb 83b3 aebb 170d 063d
00000140: 2e05 78bb 7be2 8ebb ea52 e2ba 1f85 263d
00000150: b2ce 2dbb 2656 c43b d989 54bc 3389 503c
00000160: 8089 973b 6ca8 78ba 0662 9ab9 ac46 0a3c
00000170: 0597 083b d264 e23c b715 8f3b d0a5 66bb
00000180: a0ee d6bb db0f 22bc 18e6 84bc 2442 cc3c
00000190: 6519 91bd 5263 10bc 5ad6 3e3c 7c99 d73b
000001a0: 58e2 8bbb a77d f6ba d2da b539 6e81 bfba
000001b0: ef5c 68bd 860d a0bb 0258 96bc 2467 d5bb
000001c0: c428 cf3b 6b39 253c 57f0 25bb 67a3 9d3b
000001d0: 13ce 1ebc da8b eebb e5dd c53d 6910 0fbc
000001e0: aada 3439 e1a4 2bbc d33c 36bc 36cf 9a3c
000001f0: a898 eaba 720d f13b 5f2e f63b d8db 173c
-0.0019184328 0.041245095 -0.00067162 0.005833646 0.0020947582 0.042380206 -0.01048966 0.003325871
-0.024338797 0.001685594 0.0028027813 0.0034692078 -0.00085170247 0.008674898 -0.00017126462 0.0027962192
0.0014666658 0.0003552908 0.0027728216 -0.023990775 0.0020406984 0.054510564 0.05790285 0.050629903
-0.0026386436 0.027076134 0.013198141 -0.024484351 0.009234424 -0.008701238 0.07631672 0.006342818
-0.0027166407 0.013187728 0.0042115934 -0.0017160707 -0.013413874 0.04375038 -0.00020554248 -0.00045138402
0.051733468 0.0089695165 0.013369905 0.0076728216 -0.0036865105 0.023772703 0.035448983 -0.0172393
0.005188534 0.012583495 0.014383736 -0.004623337 0.012746393 -0.0029992906 0.02134983 0.044990823
-0.00064111734 -0.0018470779 -0.0013172094 -0.0022387546 -0.007028975 0.080744624 0.036231387 0.012537898
-0.008463726 -0.0013580134 0.016763926 -0.002493111 -0.0020007372 0.0033961688 0.020869631 0.00060860266
-0.002365306 -0.019334894 0.009003032 0.012547805 0.005984557 -0.0024859358 -0.005331458 0.032727327
-0.0037844884 -0.0043604947 -0.0017267142 0.040654298 -0.0026520905 0.005991715 -0.012972319 0.012728023
0.0046245456 -0.0009485546 -0.00029446202 0.008439701 0.0020841968 0.027635965 0.0043666023 -0.0035194047
-0.006559208 -0.009891476 -0.016222998 0.024933882 -0.07084922 -0.008812742 0.011647785 0.006579576
-0.0042689256 -0.0018805758 0.00034686044 -0.0014610717 -0.056729253 -0.0048844246 -0.018352512 -0.0065125395
0.0063219983 0.01008449 -0.0025320256 0.004810739 -0.009692687 -0.007279855 0.09661464 -0.00873194
0.00017247596 -0.010476322 -0.0111229 0.018897634 -0.0017898278 0.007356339 0.007512852 0.009268723

network_body._body_endoder.seq_layers.2.weight f4 [128, 128]
00000000: 7096 8e3d 6e8c 69bd aa5d e53d aedd b9bd
00000010: 21bb e4bd 905b 533c dddb a1bb 0050 0bbe
00000020: 6db5 6138 149a cfbd 1777 d0bd b0d3 38be
00000030: e78b 053e 6185 bf3d a838 3abd c8cb d83c
00000040: 2f79 09be 88de 4fbe 2db7 9e3c f6a5 cdba
00000050: 8d6e 81bc 2fba 15bc 7caf 913d b0c3 79be
00000060: 7ae9 a8bc 2e73 9dbd 70ad 6fbd 5669 1bbe
00000070: 5374 91bd 4784 3bbd cd2c 49bc b838 133e
00000080: 2920 973c 57e8 33b9 5c78 3a3c 0c89 dbbb
00000090: 9a10 8ebd 1a83 09be e4ac b8bc 48c3 3a3d
000000a0: 859c 543d 5e27 4dbe 38c4 503d 2768 8a3a
000000b0: d90a 95bd 00a0 023d d06a dabd 7c1b c03d
000000c0: 362a 873e 038a 453d 3129 a43d a7dc fb3d
000000d0: 2f10 89bd b790 5d3b a80c 4d3e 42ec 703c
000000e0: ff77 e93b 352e 813c c6cb 0bbb 8e2c 743d
000000f0: 7ecc 0ebe 01d5 c8bc 0c7e e4bc 0fa5 273c
00000100: 5d10 5fbe 4eea a1bc 9517 01be 96d5 5a3d
00000110: d614 4f3c 40c9 d4bb 74b4 b03d aaa4 a03c
00000120: 5c56 b8bd bbd4 42bd 80e9 843d 0325 b1bd
00000130: c078 94bc c86c a83d 6b1b de3d 2112 47be
00000140: d4e4 86be 60c3 03bd 5f69 eb3d 7609 963d
00000150: 5be7 db3d 3347 65bd 420c f73d 040e 083e
00000160: 0578 bdbd 17e2 0fbc 771a 04bd 3a77 43be
00000170: 1574 c83c b4fe 9bbd a1b9 98bd 1db9 bd3d
00000180: c793 e13d e352 aebc c688 483d 197b d43d
00000190: bd09 96bb 251c aabd 92ac 7ebd f03a 123e
000001a0: 6e66 203e 0d6e 5c3d 6b66 b6bd d60d de3d
000001b0: 6326 913d df27 0c3e 8775 42be e1ef 3e3d
000001c0: 9418 09be f120 5e3c 4b83 bdbd fb65 05be
000001d0: 83f8 0d3d 83ac babd eca7 dbbb 9b67 cbbd
000001e0: e3b2 40be 0636 2cbc 993a debc eb38 55bd
000001f0: 9d1e 073d 7028 d9bd e06e a53d 32ca 08be
00000200: 04f2 33be 3b1a 1cbd 7054 343e 9c5a 39be
00000210: 4716 4e3e e734 bebd 87e3 62bd 9526 52bb
00000220: 8b97 7bbd 776b 9bbd e2b3 ceba 059b 273e
00000230: 83a1 dabd fb6e d83d 01f3 6cbe 028f 163e
00000240: 0f86 e93d 5e8e 9abc d13e a73d 98f5 943d
00000250: 7ca8 4bbd 6571 93bd a9a3 0d3e 1aff bbbc
00000260: 0159 1fbe e6f4 e6bc c61b 123b 7fbd 5ebd
00000270: 144c 0b3e 37ee 9ebd 7d85 4c3c 1ccd f53d
00000280: 61cc af3d d906 9abd bfda 0bbd 57e9 23bd
00000290: 2d73 81bd 5ab0 5f3e 320b b73d dc42 febc
000002a0: e1cd 033c 103e fc3c 4562 f43d 8533 65bc
000002b0: 00b7 c13d 591d 32be 7bfa 973d d821 fdbd
000002c0: 83e8 7cba 43c8 cebc 55d1 9e3d 9ca6 3cbd
000002d0: 6589 9cbd bfed 55bd a487 e63b 0740 4dbc
000002e0: dbae 293e 8b27 93bc bbc4 b7bd 29cc e73d
000002f0: b017 c23d 7649 5bbe 44c6 0abe ae95 d1bd
00000300: c146 bc3c f08e 873d 1ca7 2cbd 1c37 debd
00000310: 4d77 10be cd83 9d39 b7de 233d 09b8 4ebd
00000320: bcae 943d 3510 0dbb 241e 15be 2e19 54be
00000330: 4206 dc3c 30db 6cbd 41c7 b83d e00d 023d
00000340: 387d e4bd 4323 013e 385e 02bc 23a3 7f3a
00000350: 96af dd3d 39fc 83bc 3fc9 a23c eb1c 8fb9
00000360: 538f e6bd 63cf 4bbe 1178 45bd 6dac 29bd
00000370: 9f8d 113e 87dd a03d 5c18 893d e414 b53d
00000380: 21e2 94bd 3365 cebd 4bad 32bd 0e3d 5237
00000390: 6461 3bbd f149 58bd cd8a 373e 712f a13d
000003a0: ece9 b03d c122 6cbd 84f5 6b3d 9370 98bc
000003b0: 445a 28bd 47fd b1bd bc5b 553d c470 2fbe
000003c0: 67fb 483d 64db 5ebd 5c84 62be c45b 7b3c
000003d0: 38aa 36bd 6546 4d3c 3868 b83d ac3b 00be
000003e0: e6cb 24bc 73d0 523d 2fd6 02bd e1c6 0f3e
000003f0: 577a 9c3d 28c2 2c3d 8c84 fcbd a713 ac3d
0.069622874 -0.05701869 0.111995056 -0.09075485 -0.111685045 0.012900248 -0.00493954 -0.13604736
5.3813146e-05 -0.1013681 -0.101789646 -0.18049502 0.1304165 0.09351612 -0.045464188 0.026464358
-0.13425134 -0.20299733 0.019374454 -0.0015689719 -0.015799785 -0.009138628 0.07113549 -0.24391055
-0.020619143 -0.076879844 -0.058515012 -0.15176901 -0.07102265 -0.045780446 -0.012278748 0.14377105
0.018447952 -0.00017157324 0.011381235 -0.006699687 -0.0693676 -0.13428918 -0.022543378 0.04559639
0.05190708 -0.20034549 0.05096838 0.0010559604 -0.0727746 0.03189087 -0.10664904 0.09380242
0.26399392 0.04822732 0.08015669 0.122979455 -0.0669254 0.003380818 0.20024359 0.014704766
0.0071249004 0.015769104 -0.0021331175 0.059612803 -0.13945195 -0.02451563 -0.027892135 0.010232224
-0.21783586 -0.019765045 -0.12606652 0.053426348 0.012639245 -0.0064937174 0.08628169 0.019609768
-0.09000847 -0.047566157 0.06489849 -0.086496376 -0.018123984 0.082238734 0.10845073 -0.1944051
-0.26346457 -0.032168746 0.11494707 0.07326023 0.10737487 -0.055976104 0.12062885 0.13286597
-0.092514075 -0.008781931 -0.0322518 -0.1908845 0.024469415 -0.0761694 -0.07457281 0.09263823
0.110145144 -0.021279758 0.048958562 0.103750415 -0.0045787976 -0.083061494 -0.062176295 0.14280295
0.15664074 0.05381589 -0.089062534 0.10842483 0.070874 0.13687085 -0.18990146 0.046615485
-0.13388282 0.0135576585 -0.09253558 -0.13027184 0.034660827 -0.09114935 -0.0067033675 -0.099318705
-0.1881824 -0.010510927 -0.02712755 -0.052056234 0.03298818 -0.10603416 0.08077788 -0.13358381
-0.1757279 -0.038110953 0.17610335 -0.18100971 0.20125686 -0.09287434 -0.05539277 -0.0032066454
-0.06142382 -0.07588857 -0.0015770162 0.16367729 -0.10675337 0.10568043 -0.23139574 0.1470299
0.11402523 -0.018866714 0.08166278 0.07273406 -0.049721226 -0.07199363 0.13831963 -0.02294879
-0.15561296 -0.028192949 0.0022294386 -0.054379936 0.1360324 -0.077602796 0.012482998 0.12002012
0.08583904 -0.07520837 -0.03414416 -0.040017452 -0.06320796 0.21844617 0.08937682 -0.03103774
0.008044691 0.030791312 0.11932806 -0.013989334 0.094587326 -0.17394008 0.07420822 -0.12359971
-0.0009647684 -0.025241977 0.07754771 -0.04605733 -0.076433934 -0.052228685 0.0070352126 -0.012527472
0.16570608 -0.017963191 -0.0897307 0.11318237 0.09477174 -0.21414742 -0.13552195 -0.10233627
0.022982957 0.0661906 -0.042151555 -0.10850355 -0.1410801 0.00030043573 0.04000732 -0.05046848
0.072598904 -0.0021524553 -0.14562279 -0.2071273 0.026858453 -0.05782622 0.0902238 0.031751513
-0.11156696 0.12611108 -0.007957034 0.00097517873 0.10824506 -0.01611148 0.019871352 -0.0002729663
-0.11257806 -0.1990333 -0.048210207 -0.041424204 0.1421418 0.07854753 0.06694099 0.08841875
-0.07269693 -0.10077896 -0.043622296 1.2531191e-05 -0.045747176 -0.05280489 0.17924042 0.07870377
0.08638367 -0.05765033 0.05760719 -0.018608367 -0.04110171 -0.08690887 0.052089438 -0.1713286
0.04906788 -0.054408446 -0.22120804 0.015341703 -0.044595927 0.01252899 0.09004253 -0.12522763
-0.010058379 0.051468324 -0.031942543 0.1404071 0.07640522 0.04217735 -0.12329969 0.08402186

network_body._body_endoder.seq_layers.2.bias f4 [128]
00000000: 639c 583c 7a0c d33c f1ef 003c 33f5 963c
00000010: 77d6 993c c0af 873c 92ec a63b 0a74 89bb
00000020: 3a51 cd3a 45ea 423c babf dbb8 b64d a639
00000030: c06b 453a 5bab 41ba 462a 8ebb 708b 063a
00000040: 9c3c 24ba f64b a9bb eb2c c4bb 4a2c 03ba
00000050: ac8b 0cbb 764f 0e3b a139 a6bb 68bd 14bb
00000060: 4c74 29bc 4047 063c a807 133a b5a7 fcb9
00000070: dc11 6ebb 23db f23a ab79 e3bb 4ffc 04bb
00000080: ea52 10bc 44fa 82ba bb98 d33a b4e3 1fbc
00000090: bb2f 19ba 70dd 9fba 3aef ae3c 2a62 44bb
000000a0: b1f2 573b 95d9 3e3c 2d4c 943b 5861 293b
000000b0: eff5 a3bb 38c1 ac38 744c a33b 49a7 58ba
000000c0: ab51 a53c e18f 673a dfbe 2b3c adce d93a
000000d0: de3a 813c 8742 b03b 9e77 13bb 16b5 073c
000000e0: 6c61 7f3c 8d3f c93b bd1a 023b 5151 983b
000000f0: 3876 a8bb 9a9c 85bb 6123 11bc fa16 ccba
00000100: 4bae dabb b572 28bb a979 603b 59d9 d73a
00000110: 2f5d 36bc 184a 603b 2015 ed3a 582c 113b
00000120: 8531 423c 777e 1fba e49b 7b3b d6fc a5bb
00000130: 20e2 f63b f7d2 593b 44fe 753c 4e6b 2f3c
00000140: 024d efbb ced0 4abb c0c4 0c3b f064 abb8
00000150: e0b0 f8bb c97a fcbb 2467 8fbb 6483 7cbc
00000160: 8f28 27bc 4592 66bb b03e 5b3b df5f c33b
00000170: 7edc 0fbb 133f 963b 5504 59bb 8ae1 d83a
00000180: b265 2a3c 717d 14bb 6d81 a9bb a6e7 a03c
00000190: fa76 003c b545 bdba c545 803a ca7b f53a
000001a0: 0792 853b febc c939 72ea 4c3b 116d 56bb
000001b0: 4097 d7b9 ae24 8bba aae2 9e3a 34bd 85bb
000001c0: 092f 1abb bb8d 5cbb acea 8e3c 989d 0cbb
000001d0: 3869 1f3a c2db 75ba f708 91bb f564 1fbb
000001e0: f2b9 a4bb e593 f63b 5e0a 41bc b3c1 833b
000001f0: 79f4 8eb8 b376 35bc a93e 413c 4ae3 053b
0.013220879 0.025762785 0.0078697065 0.018427467 0.018779023 0.016563296 0.0050941193 -0.004194741
0.0015664466 0.0118966745 -0.000104784456 0.00031719886 0.00075310096 -0.00073878997 -0.0043385355 0.0005132472
-0.0006265135 -0.005166526 -0.0059868 -0.0005003853 -0.0021445556 0.0021714843 -0.005072788 -0.0022695903
-0.010342669 0.008195698 0.0005608746 -0.00048190137 -0.0036326563 0.0018528443 -0.006941994 -0.002029199
-0.008808831 -0.0009992798 0.001614354 -0.0097588785 -0.0005843599 -0.0012196731 0.021354306 -0.0029965737
0.0032951052 0.011648555 0.0045256824 0.0025845375 -0.005003683 8.237589e-05 0.004983479 -0.00082646735
0.020180544 0.00088333903 0.010482519 0.001661738 0.01577514 0.0053790244 -0.0022501717 0.00828292
0.015587192 0.006141609 0.0019852363 0.0046483655 -0.005141046 -0.0040775063 -0.008858533 -0.0015570812
-0.0066736094 -0.0025703136 0.0034252203 0.0016467973 -0.011130615 0.003422385 0.0018087961 0.0022151675
0.011852627 -0.00060842134 0.0038392479 -0.005065541 0.0075342804 0.0033237317 0.015014235 0.010706736
-0.007302881 -0.0030947211 0.0021479577 -8.1727165e-05 -0.0075894445 -0.007705067 -0.004376309 -0.015412185
-0.010202541 -0.0035182398 0.0033454113 0.0059623565 -0.0021951492 0.0045851558 -0.0033114154 0.0016546708
0.010400223 -0.0022657777 -0.0051728995 0.019641709 0.007840866 -0.001444033 0.0009786418 0.0018728909
0.0040762457 0.00038478518 0.003126767 -0.0032718817 -0.00041120686 -0.001061579 0.0012121995 -0.0040813927
-0.002352657 -0.0033653814 0.017445885 -0.0021456238 0.00060810475 -0.0009378755 -0.0044261175 -0.002432165
-0.005027049 0.0075249546 -0.011782257 0.0040208935 -6.816624e-05 -0.011075663 0.0117947245 0.0020429664

action_model._continuous_distribution.log_sigma f4 [1, 2]
00000000: 6937 6bbd 03d4 f6bd
-0.05742589 -0.12052157

action_model._continuous_distribution.mu.weight f4 [2, 128]
00000000: e6c3 28bb 0513 383d 0443 1e3d 974c 10bb
00000010: d2a1 98bc 5a08 0a3d 984c 19bb 24ed e8bc
00000020: 0561 eebc e47d 68bd 85d1 0abb 69dd 573c
00000030: 2ac9 9a3c 7393 413c 309c 28bc bd93 b9bb
00000040: 7e9f 58bc 081d c8bb e449 87bc 4e43 fa3b
00000050: 57b8 24ba a784 3d3c 445a debb bc62 403d
00000060: 45a1 80bb aeb8 ef3b 27f3 013c b90e 343b
00000070: c612 4f3a 707f d8bc befb 95bc c715 97ba
00000080: eec1 2f3b f948 c5bc 2c55 5abc 9cbb 5ebb
00000090: 4691 94bc 0966 bcbc c607 913c 4351 adba
000000a0: 97d7 5bbb 3437 21bc 1c6d 98bc a30f 173d
000000b0: 9856 09bd a3e4 2e3c df2d 463c 3d7e c83b
000000c0: 78cd 07bd c629 eebc ee5c 04bd d3e7 0c3c
000000d0: b44b ca3b 3612 203d 3f37 603c cd40 febc
000000e0: b8d7 883d b40c a33c a1c8 46bd 2761 c8bb
000000f0: fa4d 81bc 3886 52bc 783d 683b 195a bbbc
00000100: 1c1c 0fbc 90a8 12bd e8e0 213d d7fd 9c3c
00000110: 8d07 c33b 355a c93b 26e5 f8bc 0b13 a83c
00000120: 0b36 14bd d9df 50ba 85c7 f4bc 61e6 933c
00000130: 77c5 37bc 8f4d c6bc 11a3 e4bb 0c7a 23bd
00000140: 007c 0fbd 9cc9 4abc 8aaa 043d 9e6a a73b
00000150: 877a 8abc f353 853a 0fd4 e6ba fecb dfba
00000160: abff 4abc 6ef3 073c 3a5e d5bc 950a e2ba
00000170: 9bf2 dc3c 050c 0c3c 766b 45bc c03e b43c
00000180: 4146 c6bb e07a cbbc 1c28 183c e241 173d
00000190: 058d 69bb 3475 5cbc d9cc 76bc 2832 c33c
000001a0: d116 023d 2dd5 4a3c 0ea9 a2ba 67d4 9bbc
000001b0: d769 5b3b 8dc7 40bc eabc 39b9 0169 d23b
000001c0: 7b62 f3bc 7746 18bd 97f2 b1bc f0e4 eebc
000001d0: af40 3b3c 0b2e 11bd 0cb7 0bbc 4476 a4bc
000001e0: aabb b73c 3cf2 0abd dbb4 fb3b 6b8d 05bc
000001f0: 1f86 243d d2d9 123c f320 97bc a813 a8bc
00000200: 06f5 403d 73ce d0bc dd01 8d3b e952 33bd
00000210: 1030 113d 76a2 f9bc 469a fa3c e08e 85bc
00000220: 0ed7 c63c 041e 243d 81bb 043d 0687 293c
00000230: 546a c13b 6e5c c5bc 0bb2 a3bb 1ef0 173d
00000240: 9c54 983c 5224 a9bc 32af 1c3b df91 55bc
00000250: 240f 6bbc 2c8a bdbc 5d00 653c e81f 0bbd
00000260: a813 213d 8562 2c3d c442 88bc 0aaa c4bc
00000270: 6a68 1cbb e1cb af3c 3795 2e3c a873 423d
00000280: 8858 e9bb 264e cd3c 35c7 7e3d 08d3 813b
00000290: 095f de3c f770 b7bc 20c7 07bd 79be 70bc
000002a0: bd2a 153c 12ea ce3c 55e3 593d ca46 7e3a
000002b0: 7930 ed3a 9ec6 edbc 98a3 b03c 8eff 3bbc
000002c0: e01c d53c 3f59 a23b 1e7f 2d3d 2930 ccbc
000002d0: 4b09 53bd cefc 72bc 9eee f9bb edf3 363d
000002e0: ef77 95bc 7126 a5bc e24e f43c dd30 183c
000002f0: 266d 94bc 7327 9ebb 5f9d 9d3c ac10 943c
00000300: 1fa9 7b3c 977e b53c d83a a2bb 3ebf a6bc
00000310: 0b58 be3a 5fc8 1fbd d36b 1e3d 165f d83c
00000320: 5058 9abb 9b0c 28bd 0230 8f3c ca03 303b
00000330: 1a9d b83c 95e1 fa3c 6f67 8ebc 060e 063d
00000340: 5d3a 8a3c 66c1 07bc 4589 393d 7176 0ebd
00000350: 8d0d ab3c 89ba 9cbc b764 f23b 4307 e23b
00000360: f0a7 69bc d384 8f3b 372a 8fbc 6d7d 1bbd
00000370: dc62 0e3d 2b15 90bc ea19 e5bb 8c5e e03c
00000380: 5d37 203d c84b e53a 769d d0bc f786 5abd
00000390: eb18 c73c b284 e0bc 40b1 4fbc d59c 9339
000003a0: 50ba 65bc ff2f 5fbc 364d c43c 6f19 b33c
000003b0: 6457 ccbc 5e1b 3e3d fea6 be3c bcea 643c
000003c0: 492b 59bc 3919 f43c ee23 853c 405c 1bbc
000003d0: b1e7 33bc 15f8 283d 4124 45bb 4d07 9b3b
000003e0: 7da5 d7bc 4b8c 133d d79e 3e3b 8ec0 123d
000003f0: 4a21 153d 0483 1fbc 9047 c7bb 8256 613c
-0.002575153 0.044940013 0.03863813 -0.0022018307 -0.01863185 0.03369937 -0.00233916 -0.02843339
-0.029098997 -0.056760684 -0.0021182012 0.013175347 0.01889475 0.01181494 -0.010291144 -0.0056633637
-0.01322162 -0.0061069764 -0.016514726 0.007637418 -0.00062835723 0.011567271 -0.006785663 0.04696916
-0.003925475 0.0073157167 0.007931507 0.0027474596 0.0007899221 -0.026427954 -0.018308517 -0.0011526876
0.0026818472 -0.024082648 -0.013325971 -0.0033986336 -0.018135678 -0.022997873 0.017703902 -0.001322307
-0.003354525 -0.009839822 -0.018606715 0.036880147 -0.033529848 0.010674628 0.012095897 0.0061185644
-0.033154935 -0.029072654 -0.032315187 0.008600193 0.0061735753 0.039079867 0.013685047 -0.031036759
0.0668177 0.019903518 -0.04853118 -0.006115097 -0.015784252 -0.012849383 0.003543703 -0.02287011
-0.008734729 -0.035805285 0.039521128 0.019164009 0.005951828 0.0061447867 -0.030382704 0.020516893
-0.036184352 -0.0007967926 -0.029880295 0.01805419 -0.011216513 -0.024206905 -0.006977447 -0.039911315
-0.035030365 -0.012377169 0.0323892 0.0051091453 -0.016904129 0.0010172114 -0.0017610806 -0.0017074344
-0.012390058 0.008297784 -0.026045907 -0.0017245585 0.026971152 0.008547788 -0.012049546 0.022002578
-0.0060508554 -0.024838865 0.009286907 0.036928065 -0.0035637033 -0.013455678 -0.015063488 0.023827627
0.03176004 0.012379927 -0.0012410001 -0.01902218 0.0033479834 -0.011766327 -0.00017713351 0.006421209
-0.029710045 -0.037176576 -0.021722121 -0.0291619 0.011428996 -0.0354443 -0.0085275285 -0.020075925
0.022428352 -0.03392242 0.0076814718 -0.008151392 0.04016697 0.008963065 -0.018448329 -0.020517185
0.047108673 -0.025489068 0.0043032006 -0.04378024 0.035446227 -0.030472975 0.030591141 -0.01630348
0.024272468 0.040067688 0.03240538 0.0103471335 0.005902568 -0.024091925 -0.0049955896 0.037094228
0.018595032 -0.020647202 0.0023908135 -0.013035267 -0.0143468715 -0.023137175 0.013977137 -0.033965975
0.039325386 0.042086143 -0.016633399 -0.024006862 -0.0023865947 0.021459522 0.010655693 0.04747358
-0.0071211495 0.025061678 0.062201697 0.0039619245 0.027144926 -0.022392733 -0.033148885 -0.01469385
0.009104428 0.025258098 0.053195316 0.00096998794 0.0018096111 -0.029025372 0.021562383 -0.011474503
0.026014745 0.0049544866 0.042357557 -0.024925308 -0.051522534 -0.014830781 -0.0076273223 0.04466622
-0.018245665 -0.020159932 0.02982277 0.009288994 -0.018118452 -0.00482648 0.01924008 0.018074356
0.015360146 0.02215509 -0.0049508624 -0.020354863 0.0014522088 -0.03900945 0.038677048 0.026412528
-0.0047102347 -0.041027647 0.017478947 0.0026857727 0.02253585 0.030625144 -0.017383305 0.032728218
0.016873533 -0.008285856 0.045296926 -0.034780923 0.020880485 -0.019131916 0.00739726 0.0068978383
-0.014261231 0.0043798476 -0.017476184 -0.037961412 0.03476225 -0.017588219 -0.0069916146 0.027388833
0.0391153 0.0017493898 -0.025465708 -0.05335137 0.024303874 -0.027407024 -0.012676537 0.00028154874
-0.014021471 -0.013622283 0.023962598 0.021862714 -0.024944015 0.046412818 0.023272987 0.013971981
-0.013254949 0.029797183 0.016252484 -0.009482443 -0.0109805325 0.041252214 -0.0030081423 0.004731095
-0.026324028 0.036022466 0.0029086375 0.035828166 0.0364087 -0.009735826 -0.006081529 0.013753535

action_model._continuous_distribution.mu.bias f4 [2]
00000000: d5d7 6d3b 6f49 10ba
0.0036291976 -0.00055041065

exp_avg f4 [128, 6]
00000000: 508e 7e38 6c51 d837 3a9b d1b8 db43 b4b8
00000010: 4836 9037 db43 b438 17c8 9238 d8c9 9237
00000020: c08b a9b8 bca5 74b8 ccb7 4337 bca5 7438
00000030: d568 253a cd57 4039 4ad9 35ba 2c49 20ba
00000040: 8a3a 0039 2c49 203a 5ab4 d7b8 40c3 d9b7
00000050: 6c19 cb38 0b78 b538 d62c 91b7 0b78 b5b8
00000060: 7447 cd3a a0a5 d239 ecfb c6ba 058a afba
00000070: 6a6e 8c39 058a af3a 0ab3 2f36 f293 3135
00000080: f7d2 36b6 4bfb 13b6 46c5 ec34 4bfb 1336
00000090: b715 88ba d0b0 b6b9 9605 af3a 043e 983a
000000a0: 6e96 73b9 043e 98ba a495 0a39 0bc2 f337
000000b0: 72cf cfb8 b521 cbb8 5d81 a237 b521 cb38
000000c0: 2925 96b9 4698 b9b8 9a8d 9d39 90a9 9a39
000000d0: b175 77b8 90a9 9ab9 ac29 6838 2849 5535
000000e0: e09f 8437 08bd 31b6 cc30 0e35 08bd 3136
000000f0: 5478 51ba e48d 6fb9 5067 523a eaa0 473a
00000100: efb3 1fb9 eaa0 47ba bfe3 b7b8 d395 c4b8
00000110: 2c25 1d3a 2ed2 a339 8d0e 83b8 2ed2 a3b9
00000120: ec30 2eb8 baf5 f1b8 aa32 273a 14a2 c939
00000130: 784e a1b8 14a2 c9b9 60ca 9f39 df0a d6b8
00000140: 6813 163a 6a5e b239 eeb1 8eb8 6a5e b2b9
00000150: b678 99ba e546 b6b9 99ac bc3a bce5 973a
00000160: 3409 73b9 bce5 97ba 8738 3e3a fe00 5239
00000170: d42d 3fba d200 2fba ab00 0c39 d200 2f3a
00000180: 4634 643a e0b1 8a38 5023 d2b7 7928 67b9
00000190: 2bed 3838 7928 6739 fd4e 823a 901a 6f39
000001a0: bc55 4dba d040 47ba 0967 1f39 d040 473a
000001b0: 1daf dd3a a2a2 0d3a c6d9 10bb 120f ecba
000001c0: d9d8 bc39 120f ec3a 2500 01ba 5f74 02b9
000001d0: 0697 033a a46c d939 81f0 adb8 a46c d9b9
000001e0: 0084 e33a 0b97 063a c9c8 02bb 1451 e0ba
000001f0: 1074 b339 1451 e03a 861b 2838 e51b 73b6
00000200: 1818 a237 2b97 4a37 8912 22b6 2b97 4ab7
00000210: 27c2 243b 2b7b 233a b8ab 26bb f63b 08bb
00000220: 93f9 d939 f63b 083b 600e 0439 db91 fd37
00000230: 1118 fcb8 e24e d3b8 e40b a937 e24e d338
00000240: 113c 7f39 0a1f cf38 893d 03ba de99 acb9
00000250: b214 8a38 de99 ac39 66f0 f437 df51 0f37
00000260: 7af3 1db8 c8dd eeb7 d317 bf36 c8dd ee37
00000270: e677 5239 b09d 6a38 d41b 69b9 6583 43b9
00000280: 1f69 1c38 6583 4339 c86c ae37 ca2b 2b36
00000290: 9446 80b6 75a4 0eb7 663a e435 75a4 0e37
000002a0: 1649 9e38 7f36 c937 c7da f3b8 6ead a7b8
000002b0: 5524 8637 6ead a738 2157 3cb7 2d13 afb5
000002c0: e402 00b6 50e5 9136 dc6e 69b5 50e5 91b6
000002d0: 6ebf 86ba 9534 08ba 8537 023b 5202 e33a
000002e0: 759b b5b9 5202 e3ba c4a0 5d37 cc44 c6b8
000002f0: f832 ff39 5439 a539 dc2d 84b8 5439 a5b9
00000300: cc36 9bba 6def c1b9 3e25 bd3a db9c a13a
00000310: 484a 81b9 db9c a1ba bf60 9339 1e6b ae38
00000320: 9675 a0b9 4559 91b9 d48e 6838 4559 9139
00000330: 64ff ecb6 5195 81b6 701b bf36 d6f8 5737
00000340: 16c7 2cb6 d6f8 57b7 9cdb d8b7 581f a7b6
00000350: a79a 6b37 ca44 8b37 7ad4 5eb6 ca44 8bb7
00000360: 4dc5 0537 2b52 b336 cd3d c2b7 226f 95b7
00000370: 3a18 6f36 226f 9537 b5bd 1dba a4f5 06ba
00000380: 1e57 0b3b bcee e03a 35f2 b3b9 bcee e0ba
00000390: 52d3 abb8 21e4 a2b7 33a0 4838 1cbe 8738
000003a0: 2a30 59b7 1cbe 87b8 12f0 03ba f931 85b9
000003b0: 5902 983a f5fd 5d3a f297 31b9 f5fd 5dba
000003c0: 315c aeb7 8c48 09b7 a670 c337 44ce e437
000003d0: 650b b7b6 44ce e4b7 fa74 5639 cea1 6d38
000003e0: 125e 56b9 d806 46b9 e26b 1e38 d806 4639
000003f0: 0cb4 b03a 9858 dc39 f5e5 dcba 279f b7ba
6.0690858e-05 2.5787122e-05 -9.99481e-05 -8.595708e-05 1.7191414e-05 8.595708e-05 6.999092e-05 1.7498547e-05
-8.0845784e-05 -5.8328485e-05 1.1665699e-05 5.8328485e-05 0.00063098717 0.00018343255 -0.00069369806 -0.0006114419
0.00012228839 0.0006114419 -0.00010285592 -2.5959336e-05 9.6845295e-05 8.653112e-05 -1.7306225e-05 -8.653112e-05
0.0015661553 0.00040177722 -0.001518128 -0.0013392573 0.00026785146 0.0013392573 2.6181247e-06 6.6152927e-07
-2.724291e-06 -2.2050979e-06 4.410196e-07 2.2050979e-06 -0.0010382448 -0.0003484548 0.0013353105 0.0011615162
-0.00023230325 -0.0011615162 0.00013216451 2.9058216e-05 -9.909169e-05 -9.686073e-05 1.9372144e-05 9.686073e-05
-0.00028637916 -8.8498506e-05 0.00030050875 0.00029499503 -5.8998998e-05 -0.00029499503 5.535192e-05 7.945514e-07
1.5810074e-05 -2.6485086e-06 5.297013e-07 2.6485086e-06 -0.00079906476 -0.00022845675 0.0008026259 0.00076152256
-0.00015230452 -0.00076152256 -8.768541e-05 -9.373915e-05 0.0005994614 0.0003124638 -6.249277e-05 -0.0003124638
-4.1530395e-05 -0.00011537546 0.0006378094 0.00038458465 -7.691694e-05 -0.00038458465 0.00030477624 -0.0001020634
0.00057249377 0.0003402115 -6.8042296e-05 -0.0003402115 -0.0011708948 -0.00034766566 0.00143947 0.0011588852
-0.00023177714 -0.0011588852 0.0007256348 0.0002002753 -0.00072929007 -0.00066758425 0.00013351689 0.00066758425
0.0008705299 6.6134846e-05 -2.5050394e-05 -0.00022044954 4.40899e-05 0.00022044954 0.0009941753 0.00022802711
-0.0007832905 -0.00076009054 0.00015201805 0.00076009054 0.001691315 0.00054029573 -0.002210246 -0.0018009862
0.00036019718 0.0018009862 -0.0004920981 -0.00012441118 0.00050197577 0.0004147041 -8.29408e-05 -0.0004147041
0.0017358065 0.00051342015 -0.0019956103 -0.0017114007 0.00034228014 0.0017114007 4.0079954e-05 -3.6226058e-06
1.9323124e-05 1.2075335e-05 -2.415067e-06 -1.2075335e-05 0.0025140138 0.000623631 -0.0025431942 -0.0020787693
0.00041575413 0.0020787693 0.00012593856 3.022787e-05 -0.00012020779 -0.00010075957 2.0151907e-05 0.00010075957
0.00024341072 9.876311e-05 -0.0005006423 -0.00032921036 6.5842076e-05 0.00032921036 2.919901e-05 8.542526e-06
-3.7658472e-05 -2.8475086e-05 5.695017e-06 2.8475086e-05 0.00020071826 5.5936805e-05 -0.00022230978 -0.00018645597
3.72912e-05 0.00018645597 2.0793072e-05 2.5506474e-06 -3.8229136e-06 -8.50215e-06 1.700432e-06 8.50215e-06
7.5476404e-05 2.3986444e-05 -0.000116278934 -7.995484e-05 1.5990963e-05 7.995484e-05 -1.12259595e-05 -1.3044097e-06
-1.907517e-06 4.3480322e-06 -8.6960586e-07 -4.3480322e-06 -0.0010280439 -0.00051958236 0.0019869518 0.0017319417
-0.00034638835 -0.0017319417 1.3210058e-05 -9.45419e-05 0.00048675365 0.00031513965 -6.3027925e-05 -0.00031513965
-0.0011841892 -0.00036990215 0.0014430655 0.0012330072 -0.0002466014 -0.0012330072 0.00028110106 8.316919e-05
-0.00030605186 -0.00027723066 5.544613e-05 0.00027723066 -7.0630795e-06 -3.8618823e-06 5.6954377e-06 1.2872935e-05
-2.574588e-06 -1.2872935e-05 -2.585147e-05 -4.9806367e-06 1.4043099e-05 1.6602124e-05 -3.3204255e-06 -1.6602124e-05
7.973355e-06 5.3441813e-06 -2.315538e-05 -1.7813934e-05 3.5627877e-06 1.7813934e-05 -0.0006017343 -0.00051482976
0.0021261643 0.0017160992 -0.00034322 -0.0017160992 -8.193277e-05 -1.9418136e-05 4.7832913e-05 6.472712e-05
-1.2945422e-05 -6.472712e-05 -0.00050330267 -0.0002540497 0.0011597379 0.00084683235 -0.0001693664 -0.00084683235
-2.0785346e-05 -8.1827275e-06 2.3298267e-05 2.7275768e-05 -5.4551515e-06 -2.7275768e-05 0.00020452208 5.6655896e-05
-0.00020443674 -0.00018885301 3.777061e-05 0.00018885301 0.0013481393 0.00042027677 -0.00168532 -0.0014009223

exp_avg_sq f4 [128, 6]
00000000: b57b 5233 81dd 3331 8fbd e432 fdcf f932
00000010: 4fe1 9f30 fdcf f932 621f 4233 8a22 fa31
00000020: cc21 bf33 76b4 ad33 8a57 5e31 76b4 ad33
00000030: b291 4336 a953 b434 b2b2 ab36 4b74 7a36
00000040: 674a 2034 4b74 7a36 6e54 1534 9575 0a32
00000050: 8730 8533 034e c033 7126 7631 034e c033
00000060: a00a 3d37 d844 9435 4d9c 5b37 eaed 4d37
00000070: 76cb 0335 eaed 4d37 3255 952e 3c9e bc2c
00000080: db4f 4c2e 15fc 822e 11a9 272c 15fc 822e
00000090: b0ce 6736 9550 b434 8bd1 9336 e56f 7a36
000000a0: 9547 2034 e56f 7a36 5863 3d33 864e c031
000000b0: 4e56 b533 ea8b 8533 79f0 2a31 ea8b 8533
000000c0: 9548 7935 4e8c 9133 3a16 3335 8a26 4a35
000000d0: 4e60 0133 8a26 4a35 9449 9035 551f 4533
000000e0: 71a5 9734 01e4 0835 4a38 af32 01e4 0835
000000f0: 54ac 8a35 72ad ee33 8bae c835 87bf a535
00000100: 6228 5433 87bf a535 7176 9637 c428 df35
00000110: 9da4 b037 c1f8 9a37 225d 4635 c1f8 9a37
00000120: f451 0d37 b0fa 8335 7ae1 7737 e14d 3737
00000130: 2ea1 ea34 e14d 3737 999d 6635 696d cf34
00000140: ce8b 0537 f10b 9036 3a61 3834 f10b 9036
00000150: 98ef 8d37 fe31 c335 feb9 8937 5e8d 8737
00000160: c281 2d35 5e8d 8737 b788 1a35 410e d533
00000170: 7285 c535 90f4 9335 0b62 3d33 90f4 9335
00000180: cd70 f235 bb40 0035 3749 1437 0721 b236
00000190: 6201 6434 0721 b236 fea2 3f36 01ad bf34
000001a0: b3a2 ba36 bb1b 8536 e360 2a34 bb1b 8536
000001b0: 8d29 c037 dbce 0e36 668e ce37 3a58 c637
000001c0: 93e1 7d35 3a58 c637 19f6 2036 e8fb 7834
000001d0: 1fac 2936 cde7 2c36 a851 dd33 cde7 2c36
000001e0: 440d 1537 93b4 6835 894f 2237 d899 2137
000001f0: 6cd9 ce34 d899 2137 5c93 4332 1a68 8431
00000200: 2e12 7d33 f1e5 3733 b563 eb30 f1e5 3733
00000210: ab98 db37 9f24 7a36 6f9b 3c38 e3b5 2d38
00000220: 7159 de35 e3b5 2d38 4357 9733 150b 3332
00000230: d9c2 0834 d9ab f833 5426 9f31 d9ab f833
00000240: d3d8 8736 497a 1235 59f0 1237 f270 cb36
00000250: da33 8234 f270 cb36 0502 1b33 b3cb 0131
00000260: 4076 5932 9745 b432 7ebf 6630 9745 b432
00000270: b8a0 9234 6b70 c132 ec53 7334 3155 8634
00000280: 29f2 2b32 3155 8634 1396 2032 dc68 c430
00000290: 5dec c132 4665 8832 1e96 2e30 4665 8832
000002a0: 52f6 7434 e078 a532 4d3a 5134 81d2 6534
000002b0: 1a16 1332 81d2 6534 e02f 7032 274d 8e30
000002c0: 9383 3c32 0ea4 4532 fbfa fc2f 0ea4 4532
000002d0: ab4c 2c35 526f ac34 71e7 b836 327e 6f36
000002e0: 8446 1934 327e 6f36 64a0 d935 7a5f 1f35
000002f0: 9bdd 6437 f859 dd36 3aaa 8d34 f859 dd36
00000300: 6c5e 0a37 990e 4435 f8f9 0c37 a126 0837
00000310: df45 ae34 a126 0837 9cbb 8f35 3c0c 3133
00000320: 12cb 6a34 48e6 f534 2b60 9d32 48e6 f534
00000330: b29e 6532 8fc9 3d31 512f 5133 fbcb 0333
00000340: 1bb3 a830 fbcb 0333 5ea3 ee31 9478 6630
00000350: 4c94 6532 a80c 2032 12dd cc2f a80c 2032
00000360: d759 c62f c21e 4e2f ef7e 9531 9b23 0f31
00000370: b737 b72e 9b23 0f31 60c4 c735 65cd 4735
00000380: 9002 5437 6dc0 0a37 289a b134 6dc0 0a37
00000390: 36f9 7534 430c 0b33 41ec 1335 4d1f c134
000003a0: 4732 7732 4d1f c134 10c1 0b37 bf5b a035
000003b0: a578 9f37 4db8 5e37 6c8a 0e35 4db8 5e37
000003c0: e5af 1d32 33ea 8230 04ad 2a32 78d3 3532
000003d0: cbbc e82f 78d3 3532 d506 cd33 365c 2032
000003e0: 8255 ea33 f6b8 de33 e08a 8e31 f6b8 de33
000003f0: 117d 4437 ff5d 8135 c434 2137 2aad 3337
4.9006946e-08 2.6173839e-09 2.6628895e-08 2.9081997e-08 1.1632809e-09 2.9081997e-08 4.5197687e-08 7.2798843e-09
8.900278e-08 8.088766e-08 3.2355012e-09 8.088766e-08 2.914207e-06 3.3588483e-07 5.117e-06 3.7320594e-06
1.4928229e-07 3.7320594e-06 1.3907422e-07 8.059392e-09 6.202122e-08 8.954887e-08 3.5819563e-09 8.954887e-08
1.1267752e-05 1.1046895e-06 1.3089809e-05 1.2274346e-05 4.909738e-07 1.2274346e-05 6.790869e-11 5.360849e-12
4.6455156e-11 5.956494e-11 2.3825978e-12 5.956494e-11 3.454199e-06 3.3586244e-07 4.4053354e-06 3.7318034e-06
1.4927203e-07 3.7318034e-06 4.4095344e-08 5.5968625e-09 8.444168e-08 6.218745e-08 2.4874949e-09 6.218745e-08
9.286535e-07 6.77761e-08 6.671504e-07 7.5306946e-07 3.012274e-08 7.5306946e-07 1.075025e-06 4.5896133e-08
2.8246316e-07 5.099574e-07 2.0398279e-08 5.099574e-07 1.0331955e-06 1.1114288e-07 1.495196e-06 1.23492e-06
4.9396824e-08 1.23492e-06 1.7936547e-05 1.6626659e-06 2.1057489e-05 1.8474066e-05 7.3896274e-07 1.8474066e-05
8.423336e-06 9.83322e-07 1.4774845e-05 1.0925783e-05 4.370317e-07 1.0925783e-05 8.591101e-07 3.863636e-07
7.959969e-06 4.2929246e-06 1.7171706e-07 4.2929246e-06 1.692008e-05 1.4543182e-06 1.6418282e-05 1.6159083e-05
6.4636345e-07 1.6159083e-05 5.7568417e-07 9.921178e-08 1.4716481e-06 1.102353e-06 4.409416e-08 1.102353e-06
1.8063234e-06 4.777791e-07 8.838534e-06 5.3086583e-06 2.1234658e-07 5.3086583e-06 2.8556092e-06 3.57024e-07
5.5621726e-06 3.966937e-06 1.5867731e-07 3.966937e-06 2.2907532e-05 2.1280055e-06 2.4623423e-05 2.3644523e-05
9.45781e-07 2.3644523e-05 2.3985106e-06 2.3188443e-07 2.528315e-06 2.5764923e-06 1.03059676e-07 2.5764923e-06
8.884181e-06 8.6689505e-07 9.674471e-06 9.632167e-06 3.8528685e-07 9.632167e-06 1.13839995e-08 3.8535406e-09
5.8922687e-08 4.281714e-08 1.7126839e-09 4.281714e-08 2.6177926e-05 3.727422e-06 4.496745e-05 4.141581e-05
1.656632e-06 4.141581e-05 7.047358e-08 1.0421691e-08 1.2736872e-07 1.1579659e-07 4.6318664e-09 1.1579659e-07
4.048555e-06 5.4567187e-07 8.758238e-06 6.06302e-06 2.4252114e-07 6.06302e-06 3.6090587e-08 1.888776e-09
1.2657949e-08 2.0986404e-08 8.394564e-10 2.0986404e-08 2.7311557e-07 2.2519279e-08 2.2661669e-07 2.502143e-07
1.0008571e-08 2.502143e-07 9.347349e-09 1.429068e-09 2.2575643e-08 1.5878538e-08 6.351416e-10 1.5878538e-08
2.2813882e-07 1.9263496e-08 1.9485852e-07 2.1403868e-07 8.5615515e-09 2.1403868e-07 1.3980724e-08 1.0353788e-09
1.0972957e-08 1.1504211e-08 4.6016865e-10 1.1504211e-08 6.418656e-07 3.2118493e-07 5.5105706e-06 3.568723e-06
1.4274889e-07 3.568723e-06 1.621444e-06 5.937105e-07 1.3641456e-05 6.596787e-06 2.6387153e-07 6.596787e-06
8.247425e-06 7.303693e-07 8.402851e-06 8.115226e-06 3.2460864e-07 8.115226e-06 1.0708932e-06 4.122215e-08
2.1866825e-07 4.5802358e-07 1.8320938e-08 4.5802358e-07 1.33656375e-08 2.7617693e-09 4.870464e-08 3.0686333e-08
1.2274514e-09 3.0686333e-08 6.9452843e-09 8.3844864e-10 1.3363273e-08 9.3161034e-09 3.7264464e-10 9.3161034e-09
3.6079825e-10 1.8746518e-10 4.3509014e-09 2.0829478e-09 8.3317735e-11 2.0829478e-09 1.4883808e-06 7.4432165e-07
1.2636781e-05 8.270244e-06 3.3080983e-07 8.270244e-06 2.2908065e-07 3.237461e-08 5.510556e-07 3.5971826e-07
1.4388724e-08 3.5971826e-07 8.3299965e-06 1.1947631e-06 1.9010457e-05 1.3275142e-05 5.310055e-07 1.3275142e-05
9.1785965e-09 9.525308e-10 9.9346416e-09 1.0583669e-08 4.23347e-10 1.0583669e-08 9.547299e-08 9.334192e-09
1.0912028e-07 1.0371325e-07 4.148532e-09 1.0371325e-07 1.171163e-05 9.638605e-07 9.608633e-06 1.0709549e-05

exp_avg f4 [128]
00000000: 4a36 9037 c8b7 4337 893a 0039 d52c 91b7
00000010: 696e 8c39 46c5 ec34 6c96 73b9 5d81 a237
00000020: b275 77b8 b430 0e35 efb3 1fb9 8c0e 83b8
00000030: 7a4e a1b8 f0b1 8eb8 3409 73b9 ab00 0c39
00000040: 26ed 3838 0967 1f39 d9d8 bc39 81f0 adb8
00000050: 1074 b339 8b12 22b6 8ef9 d939 e90b a937
00000060: b214 8a38 d417 bf36 1e69 1c38 5e3a e435
00000070: 5424 8637 df6e 69b5 729b b5b9 dd2d 84b8
00000080: 494a 81b9 d48e 6838 10c7 2cb6 76d4 5eb6
00000090: 3918 6f36 33f2 b3b9 2a30 59b7 f597 31b9
000000a0: 670b b7b6 e06b 1e38 b9e5 9239 8b4b c037
000000b0: f103 9cb9 3e0f 8cb9 7521 5b3a a81d 8435
000000c0: 47c3 f439 9cc6 cb36 5c86 3539 ec7f 5737
000000d0: 5a4b 6bb9 1686 d7b8 e9e3 063a 627f 66ba
000000e0: baa8 78b6 037b 0038 1644 2138 6689 aab7
000000f0: 32b4 a7b8 99fd dc36 f95a 64ba eeb8 3337
00000100: d491 9037 ac33 8239 fe12 9c37 ec9f a3b6
00000110: c7b7 3636 b881 18b9 b024 0237 3d2e ea36
00000120: 324e 1c36 ab00 bb37 e853 c7b7 7993 f2b9
00000130: bed1 0cb8 ba15 8fb7 9a44 6ab8 8f3a 9f37
00000140: 9d14 71b9 46ca d0b6 d6b6 9538 a729 cc37
00000150: 19ef b637 b1c2 dab9 4c0b ceb8 f25f 4639
00000160: 985a 0d37 a9a2 b5b9 77ea c8b8 6a7c a737
00000170: 9ed6 5138 3ee3 35b5 f13f 39b8 6362 1834
00000180: ac4c 8eb7 677e 1438 717d 1338 3896 3538
00000190: cc8f 6f38 df9a aab9 babf 143a 9ed8 fa39
000001a0: 2024 26b7 6a93 a5b8 7fea 1f36 f545 8338
000001b0: 2e83 8537 d568 9738 3c17 6b39 b5f3 88b9
000001c0: 3062 b639 3f6a 09ba 332c 01ba 6b4d 8ab6
000001d0: 199c 0cb6 5b08 8bb9 5761 0d38 a3b3 e6b8
000001e0: 2638 8639 8903 a9b9 bcf7 5eb7 b22e e939
000001f0: 7549 14b9 680b 2a36 48c9 02b7 1262 12b8
1.7191418e-05 1.1665696e-05 0.00012228837 -1.7306224e-05 0.00026785143 4.410196e-07 -0.00023230322 1.9372144e-05
-5.8999e-05 5.2969995e-07 -0.00015230452 -6.249276e-05 -7.691696e-05 -6.804231e-05 -0.00023177714 0.00013351689
4.408988e-05 0.00015201805 0.00036019718 -8.29408e-05 0.00034228014 -2.4150675e-06 0.00041575398 2.0151916e-05
6.5842076e-05 5.6950175e-06 3.7291196e-05 1.7004311e-06 1.5990961e-05 -8.69606e-07 -0.00034638826 -6.302793e-05
-0.00024660144 5.544613e-05 -2.5745867e-06 -3.3204246e-06 3.5627875e-06 -0.00034321993 -1.2945422e-05 -0.00016936644
-5.4551524e-06 3.7770602e-05 0.00028018447 2.2923361e-05 -0.00029757575 -0.00026714237 0.00083591725 9.843397e-07
0.000466848 6.0729926e-06 0.00017311558 1.2844783e-05 -0.00022439417 -0.00010276974 0.00051456556 -0.0008792785
-3.7053092e-06 3.063214e-05 3.84488e-05 -2.032956e-05 -7.9967445e-05 6.5860336e-06 -0.0008711066 1.0712289e-05
1.7234044e-05 0.0002483403 1.8605493e-05 -4.876396e-06 2.7227086e-06 -0.00014544174 7.757146e-06 6.9791263e-06
2.3291327e-06 2.2292448e-05 -2.376172e-05 -0.00046267713 -3.357394e-05 -1.7057046e-05 -5.5853838e-05 1.8981546e-05
-0.0002299123 -6.222431e-06 7.1389295e-05 2.4338091e-05 2.180743e-05 -0.00041725257 -9.82495e-05 0.00018918494
8.425348e-06 -0.00034644202 -9.580416e-05 1.9965886e-05 5.002936e-05 -6.7758435e-07 -4.4166987e-05 1.4191896e-07
-1.6963422e-05 3.540367e-05 3.5164358e-05 4.3293665e-05 5.711596e-05 -0.00032540315 0.00056743214 0.00047845108
-9.902782e-06 -7.895271e-05 2.382934e-06 6.259597e-05 1.591592e-05 7.2197676e-05 0.00022420002 -0.00026121517
0.000347869 -0.0005241967 -0.00049275457 -4.121733e-06 -2.0952486e-06 -0.0002651837 3.3707674e-05 -0.000110007146
0.00025600306 -0.00032236826 -1.3289911e-05 0.00044476014 -0.00014141745 2.5338613e-06 -7.795468e-06 -3.4900448e-05

exp_avg_sq f4 [128]
00000000: 50e1 9f30 8c57 5e31 664a 2034 6d26 7631
00000010: 75cb 0335 11a9 272c 9547 2034 77f0 2a31
00000020: 4e60 0133 4838 af32 6228 5433 1f5d 4635
00000030: 2ea1 ea34 3961 3834 c281 2d35 0b62 3d33
00000040: 6301 6434 e360 2a34 91e1 7d35 a751 dd33
00000050: 6cd9 ce34 b263 eb30 6f59 de35 5426 9f31
00000060: da33 8234 7fbf 6630 29f2 2b32 1e96 2e30
00000070: 1a16 1332 fbfa fc2f 8446 1934 3aaa 8d34
00000080: e145 ae34 2760 9d32 1bb3 a830 16dd cc2f
00000090: b737 b72e 289a b134 4532 7732 6d8a 0e35
000000a0: cabc e82f e18a 8e31 5cfc e534 624f 4431
000000b0: 9a36 8034 9c21 8d33 0acc 5436 0efe 1130
000000c0: f7d7 2336 2232 f22f 9e15 ca34 5fde 3533
000000d0: 5555 4234 586e 5234 0336 1536 c084 0736
000000e0: 02ba 7a2e c674 1c34 dae6 2a33 a100 aa30
000000f0: 6ebd c532 d295 8a30 6bee 0236 38f5 e431
00000100: bddc 9632 b9b0 c634 4e9e a031 203c 0b32
00000110: ec47 902f 98d5 0734 8aa0 1a30 9495 812f
00000120: f819 3b2f eb16 8230 ea5b bc30 6274 b134
00000130: 6a39 4e32 4ccc 9e31 f441 f433 27e5 0331
00000140: b4b1 f134 727e 9230 5b7c 0334 91f9 cf31
00000150: b373 2434 ce81 1235 fc62 de33 791e 6a35
00000160: c820 2a31 ee3e 7935 13b7 da33 0af4 4731
00000170: c719 5134 aab8 3a2f 455d ef32 5713 b22b
00000180: 48de 3531 e58a 6a32 014e cb31 be93 1e32
00000190: 9f13 1d32 0a73 6c35 32a1 f435 dbd8 9a35
000001a0: fe89 9030 9bcf bf34 845c d030 85dd bb32
000001b0: 5ccd 1e30 6cce 4933 513f 7a33 161e 8b34
000001c0: 683a b534 ab11 a835 c7a0 5335 9688 ef30
000001d0: a25e fb30 de18 8835 c852 0f33 f21d b033
000001e0: 95e4 f034 6b3a c034 fb85 0b32 5126 dd35
000001f0: 20c4 8d34 312a 9a2f f978 8c2f 246e 6f33
1.163281e-09 3.2355016e-09 1.4928227e-07 3.5819554e-09 4.909737e-07 2.3825978e-12 1.4927203e-07 2.4874944e-09
3.012274e-08 2.0398275e-08 4.9396824e-08 7.3896257e-07 4.370317e-07 1.7171705e-07 6.4636345e-07 4.409416e-08
2.1234659e-07 1.5867731e-07 9.4578087e-07 1.0305967e-07 3.8528685e-07 1.7126836e-09 1.6566318e-06 4.6318664e-09
2.4252114e-07 8.3945645e-10 1.0008571e-08 6.351416e-10 8.5615515e-09 4.6016865e-10 1.4274889e-07 2.6387153e-07
3.246087e-07 1.832093e-08 1.2274514e-09 3.7264475e-10 8.3317735e-11 3.3080983e-07 1.4388722e-08 5.310056e-07
4.2334697e-10 4.1485326e-09 4.283819e-07 2.8566878e-09 2.3881586e-07 6.571938e-08 3.1709228e-06 5.3111726e-10
2.44146e-06 4.4055165e-10 3.764116e-07 4.2344592e-08 1.8098702e-07 1.9597917e-07 2.223417e-06 2.0193838e-06
5.7008627e-11 1.4571114e-07 3.9791168e-08 1.2369307e-09 2.3019961e-08 1.0083403e-09 1.9510287e-06 6.6635515e-09
1.7562678e-08 3.7008957e-07 4.67461e-09 8.104536e-09 2.624455e-10 1.265056e-07 5.6253013e-10 2.3571245e-10
1.7016777e-10 9.465259e-10 1.3704924e-09 3.30535e-07 1.2003833e-08 4.621631e-09 1.1374132e-07 1.9193267e-09
4.5019044e-07 1.0658836e-09 1.2245566e-07 6.0528653e-09 1.5315781e-07 5.457813e-07 1.0355686e-07 8.7216137e-07
2.475689e-09 9.2851303e-07 1.0184717e-07 2.9097031e-09 1.947402e-07 1.6982207e-10 2.7865676e-08 1.2653029e-12
2.6465319e-09 1.3652174e-08 5.9169456e-09 9.230403e-09 9.143064e-09 8.8084255e-07 1.8226331e-06 1.1537007e-06
1.0516599e-09 3.5727575e-07 1.5160286e-09 2.18704e-08 5.77719e-10 4.69867e-08 5.8265247e-08 2.5912658e-07
3.3756373e-07 1.2522117e-06 7.8837587e-07 1.7428359e-09 1.828955e-09 1.0140027e-06 3.337007e-08 8.201086e-08
4.48698e-07 3.5805292e-07 8.1213285e-09 1.6476935e-06 2.6405996e-07 2.8042416e-10 2.5551808e-10 5.5746696e-08
