results/1008/Agent Behavior.onnx (onnx, 75061 bytes, 7 tensors)

network_body._body_endoder.seq_layers.0.weight f4 [128, 6]
000000 b6 e9 48 3e 68 67 01 3f 83 1a db 3e 87 ef a3 3d
       0.19620404 0.5054841 0.42793664 0.080046706
000010 e3 5c f2 be 04 5f ae bd 55 40 f0 be 2e dd 20 bf
       -0.47336492 -0.085142165 -0.4692408 -0.62837493
000020 4b bf b5 3e e5 40 35 3c c3 db 17 bf 23 f0 6c 3e
       0.35497507 0.011062835 -0.59319705 0.2313848
000030 f2 a2 0c 3f b8 8a 0b 3e 51 a7 28 3d a8 22 50 bf
       0.54936135 0.13627136 0.04117519 -0.8130288
000040 2e 94 23 bf 62 43 09 3f a1 4c 77 3c a2 b3 8c bd
       -0.6389798 0.53618443 0.015093953 -0.068702
000050 77 09 05 3e 12 32 63 3e 9f eb 49 3f 33 b6 01 3d
       0.12991892 0.22187069 0.78875154 0.0316679
000060 22 37 66 be 11 12 72 be ec b6 14 bf 76 f5 81 bf
       -0.22481969 -0.23639704 -0.58091617 -1.0153034
000070 47 fc 01 be 75 a4 1e 3e 0e cf fd bd e3 c0 04 3d
       -0.12693892 0.15492423 -0.12393008 0.032410514
000080 f4 03 fe 3e 00 ae 5a 3f 94 d5 8f 3f a2 8b 0c bf
       0.4961239 0.8542175 1.1237054 -0.5490056
000090 67 eb de bc d6 fd 51 bf 80 f4 7b bf 96 f0 e8 bd
       -0.027211858 -0.8202795 -0.9841995 -0.11374013
0000a0 aa 56 49 3f e2 0c 8a 3f bb 83 4d be 70 b2 33 be
       0.78647864 1.0785182 -0.20069782 -0.17548537
0000b0 a5 ee 26 3e 2b 53 ff 3e e2 8f 3a 3e ea 57 c1 3e
       0.16301973 0.4986814 0.1821895 0.37762386
0000c0 5d 52 26 3e 27 92 8b bd 8f 17 d2 be 9a 17 1b be
       0.16242357 -0.06814986 -0.410336 -0.15145722
0000d0 00 ff 03 3e c7 33 89 3d 42 9f d4 3e 52 86 e9 3e
       0.12890244 0.06699329 0.41527754 0.4561029
0000e0 9e 03 94 3e 99 76 79 be 57 1d 32 3e 29 28 2b bf
       0.2890901 -0.24361648 0.17394005 -0.66858155
0000f0 79 4e 1d 3e 13 7a 97 3d 56 33 58 3d 30 da 9a 3e
       0.15361966 0.07396331 0.052783333 0.3024459
000100 80 2f 98 be 3a c8 cf 3e ef 1d 86 3d a6 19 40 3f
       -0.2972374 0.40582448 0.06548678 0.75039136
000110 9f 9e 05 bf 11 5b d7 bd 13 ec 7c 3e 4c 70 81 be
       -0.5219516 -0.105154164 0.2469943 -0.25280988
000120 d3 ba b1 be da 1e 26 3e be 00 a6 be 82 9c ba bd
       -0.34712848 0.16222706 -0.3242244 -0.09111883
000130 14 39 24 be 71 56 f7 3e a9 4f b7 be 5b 61 08 bf
       -0.16037399 0.48308137 -0.35802963 -0.5327355
000140 34 27 a0 be 84 c8 76 be 4a 15 02 be 22 9b 02 be
       -0.3127991 -0.24099928 -0.12703434 -0.12754491
000150 a3 3c d7 3e 2e 12 ee 3c 66 b3 5d be 7c 95 93 3e
       0.4203845 0.029061403 -0.21650466 0.28824985
000160 33 78 a1 be 20 ac 60 3c 6b 10 0f bf 80 5c a1 3d
       -0.31537017 0.013712913 -0.55884427 0.07878971
000170 85 3b e8 be f4 07 b5 be 2f 83 75 3e f8 51 69 be
       -0.4535791 -0.3535763 0.23975824 -0.22785175
000180 f4 d5 a3 be e5 8f 09 3f b6 07 5c be a7 be c1 bd
       -0.3199917 0.5373519 -0.21487316 -0.09460192
000190 36 ea 14 3d 7a 26 87 bd 94 e8 81 be cb 3b 46 3f
       0.036356173 -0.06599136 -0.25372756 0.77434987
0001a0 b3 a2 81 3d e5 6a 26 bf 32 08 94 bd 5a 73 07 3e
       0.063298605 -0.6500686 -0.07228126 0.13227597
0001b0 4e 04 5c bd f4 95 a9 3f e7 01 6c 3e 2e 23 17 be
       -0.053715043 1.3248887 0.230476 -0.14759514
0001c0 1f 0f 10 be 1d 34 5e 3f ce 6f 15 be 32 60 90 bc
       -0.14068268 0.8679827 -0.14593431 -0.017623994
0001d0 48 36 34 bf 92 82 21 be 6e c7 74 bf 0c a0 88 3e
       -0.70395327 -0.15772465 -0.95616806 0.26684606
0001e0 3b 91 e1 be 01 27 46 3f e1 9d 2e 3d ac ff 99 be
       -0.44056115 0.77403265 0.042631034 -0.30077875
0001f0 05 bf fe be d6 60 b0 3e b4 63 32 bf 96 85 00 bf
       -0.4975511 0.3444888 -0.69683385 -0.50203836
000200 a7 a1 74 3e a7 1c ae be 47 a1 79 3d 1f f9 e1 be
       0.2388979 -0.34006235 0.06094482 -0.44135377
000210 91 19 ac be a4 fa f8 3e ed af 40 3e 12 99 5c be
       -0.33613256 0.48628724 0.1881711 -0.21542767
000220 c5 f5 fa bd 59 32 61 3e d8 6c e5 be af 46 0a 3f
       -0.12253908 0.21991862 -0.44809604 0.54014105
000230 a0 01 8b 3e 46 89 21 be 0f 23 70 3f 55 8a 14 bf
       0.27149677 -0.15775022 0.93803495 -0.5802358
000240 20 43 bc 3d 86 bc c0 3e 71 09 86 be e4 b6 d9 be
       0.091924906 0.37643832 -0.26179078 -0.42522347
000250 a7 7d 47 be 32 d8 34 3e 29 12 00 3e fe c9 a0 3e
       -0.19481526 0.17660597 0.12506928 0.31404108
000260 25 d2 1a 3f b0 16 aa 3d bd 80 ba 3e 3d 3c 38 bf
       0.60476905 0.083051085 0.36426345 -0.71966916
000270 36 28 42 be 52 75 8b 3e b9 d4 6b 3f 8c 41 3d be
       -0.18960652 0.27237946 0.92121464 -0.18482035
000280 ac b5 e3 3e b0 54 32 3e 7f 4d fa be 8a ea 39 bf
       0.44474542 0.17415118 -0.4888725 -0.72623503
000290 83 c1 32 3e 44 16 d4 be 0b 24 7a bd 98 a6 28 3d
       0.17456631 -0.41423237 -0.06106953 0.0411745
0002a0 ae 3a cb 3d 47 7b 99 3e bc 4b 25 3f 72 79 8d be
       0.09923302 0.29976866 0.64568686 -0.27631718
0002b0 96 4d 12 bf b8 d5 a7 be eb a0 d9 bd 55 9a c4 3d
       -0.57149637 -0.32780242 -0.10626396 0.09599749
0002c0 a9 a0 09 3e 5f 57 ed 3e 83 fb 59 3d d3 9c 76 bd
       0.13440193 0.4635572 0.053218376 -0.060208153
0002d0 2f 0c 7e bf 43 cf 0c 3f fc bf 80 be 19 68 62 be
       -0.9923734 0.55003756 -0.25146472 -0.22110023
0002e0 4c 33 4c bd aa 51 68 be 9b a1 cd be 4f ba 57 be
       -0.049853608 -0.22687402 -0.40162358 -0.21067165
0002f0 b7 db e5 be cf dd 85 38 7a 81 57 bd 8a 60 f2 bd
       -0.44894192 6.383249e-05 -0.052613713 -0.118348196
000300 e6 d2 5c 3e 70 96 85 be a7 0d e8 bc 0d e4 99 bd
       0.21564826 -0.26091337 -0.028326822 -0.075142
000310 d6 84 81 be 8c d0 b7 3e b7 87 96 3e b1 0d 1e be
       -0.25296658 0.35901296 0.29400417 -0.1543491
000320 94 14 10 3f 56 3d 72 3e 4c 07 f2 3e 21 e7 c0 3c
       0.562814 0.2365621 0.47271192 0.02354771
000330 e2 d3 df be 7c 64 f2 3e 59 4b 02 3c ca 09 c9 3e
       -0.4371634 0.47342288 0.007952535 0.3926528
000340 a1 44 cc be b1 54 c7 bd 14 b5 62 3d 46 bd 26 bf
       -0.3989611 -0.097329505 0.05534847 -0.6513256
000350 c9 78 aa 3d d0 74 b9 3d 1b 01 5f 3e f3 ca 30 bf
       0.08323819 0.09055483 0.21777765 -0.69059676
000360 40 0d f5 be 53 12 f5 3c 4a e0 55 be e0 33 f0 3e
       -0.4786167 0.029915964 -0.2088634 0.46914577
000370 5b 25 e8 bd d6 b9 ab be 9a 9a 3b bf 8b 2d 24 3f
       -0.1133525 -0.3354022 -0.7328278 0.64131993
000380 c8 4c ea bc b5 36 31 be 0b 74 b3 3d d4 b7 bd bb
       -0.028601065 -0.17306025 0.08762368 -0.0057897363
000390 09 0f 0d bc 24 65 24 be 57 c8 a4 bd 8b ad 8d be
       -0.008609542 -0.16054207 -0.08046024 -0.27671465
0003a0 15 0c da bb 0f c9 3a 3f 13 a4 02 bf 81 51 cd be
       -0.0066542723 0.7296304 -0.5103161 -0.40101245
0003b0 26 d1 ac be 55 5b 34 be ce d5 3b be c4 10 26 3f
       -0.33753318 -0.17612965 -0.18343279 0.6486933
0003c0 27 7a 50 3e d7 53 57 bd 18 0e c9 be 2a c7 81 3f
       0.20359097 -0.05257019 -0.39268565 1.0138905
0003d0 72 03 bf bd 12 98 2b 3e 29 e1 e9 be e1 e2 7c 3e
       -0.09326829 0.16757229 -0.45679596 0.24695922
0003e0 48 bd cb 3e 90 c5 3c bc f8 06 86 3e 51 93 f2 3d
       0.39792848 -0.011521712 0.26177192 0.118445046
0003f0 5f b7 50 3e 1f b7 ca 3d 24 8a c8 3e b0 19 3a 3e
       0.2038245 0.09898209 0.39167893 0.18173862

network_body._body_endoder.seq_layers.0.bias f4 [128]
000000 ec 73 fb ba 9e f0 28 3d a8 0f 30 ba 2b 28 bf 3b
       -0.0019184328 0.041245095 -0.00067162 0.005833646
000010 36 48 09 3b de 96 2d 3d d3 dc 2b bc db f6 59 3b
       0.0020947582 0.042380206 -0.01048966 0.003325871
000020 28 62 c7 bc 26 ef dc 3a de ae 37 3b a6 5b 63 3b
       -0.024338797 0.001685594 0.0028027813 0.0034692078
000030 c9 44 5f ba 29 21 0e 3c 7f 95 33 b9 c6 40 37 3b
       -0.00085170247 0.008674898 -0.00017126462 0.0027962192
000040 23 3d c0 3a 53 46 ba 39 3a b8 35 3b 4d 88 c4 bc
       0.0014666658 0.0003552908 0.0027728216 -0.023990775
000050 3d bd 05 3b 78 46 5f 3d 8a 2b 6d 3d 4d 61 4f 3d
       0.0020406984 0.054510564 0.05790285 0.050629903
000060 18 ed 2c bb c5 ce dd 3c 04 3d 58 3c 68 93 c8 bc
       -0.0026386436 0.027076134 0.013198141 -0.024484351
000070 fb 4b 17 3c a3 8f 0e bc f1 4b 9c 3d 6a d7 cf 3b
       0.009234424 -0.008701238 0.07631672 0.006342818
000080 ab 09 32 bb 57 11 58 3c 68 01 8a 3b c7 ed e0 ba
       -0.0027166407 0.013187728 0.0042115934 -0.0017160707
000090 de c5 5b bc 99 33 33 3d e4 86 57 b9 bd a7 ec b9
       -0.013413874 0.04375038 -0.00020554248 -0.00045138402
0000a0 79 e6 53 3d e1 f4 12 3c 72 0d 5b 3c 4b 6c fb 3b
       0.051733468 0.0089695165 0.013369905 0.0076728216
0000b0 62 99 71 bb f9 be c2 3c f4 32 11 3d 6f 39 8d bc
       -0.0036865105 0.023772703 0.035448983 -0.0172393
0000c0 94 04 aa 3b 01 2b 4e 3c c3 a9 6b 3c 5d 7f 97 bb
       0.005188534 0.012583495 0.014383736 -0.004623337
0000d0 3f d6 50 3c bf 8f 44 bb d7 e5 ae 3c 4c 48 38 3d
       0.012746393 -0.0029992906 0.02134983 0.044990823
0000e0 a8 10 28 ba a6 19 f2 ba 37 a6 ac ba 12 b8 12 bb
       -0.00064111734 -0.0018470779 -0.0013172094 -0.0022387546
0000f0 51 53 e6 bb 70 5d a5 3d 5d 67 14 3d c1 6b 4d 3c
       -0.007028975 0.080744624 0.036231387 0.012537898
000100 71 ab 0a bc 5e ff b1 ba 80 54 89 3c 76 63 23 bb
       -0.008463726 -0.0013580134 0.016763926 -0.002493111
000110 cd 1e 03 bb 42 92 5e 3b ca f6 aa 3c a2 8a 1f 3a
       -0.0020007372 0.0033961688 0.020869631 0.00060860266
000120 40 03 1b bb 36 64 9e bc 74 81 13 3c 4f 95 4d 3c
       -0.002365306 -0.019334894 0.009003032 0.012547805
000130 1a 1a c4 3b 15 eb 22 bb 83 b3 ae bb 17 0d 06 3d
       0.005984557 -0.0024859358 -0.005331458 0.032727327
000140 2e 05 78 bb 7b e2 8e bb ea 52 e2 ba 1f 85 26 3d
       -0.0037844884 -0.0043604947 -0.0017267142 0.040654298
000150 b2 ce 2d bb 26 56 c4 3b d9 89 54 bc 33 89 50 3c
       -0.0026520905 0.005991715 -0.012972319 0.012728023
000160 80 89 97 3b 6c a8 78 ba 06 62 9a b9 ac 46 0a 3c
       0.0046245456 -0.0009485546 -0.00029446202 0.008439701
000170 05 97 08 3b d2 64 e2 3c b7 15 8f 3b d0 a5 66 bb
       0.0020841968 0.027635965 0.0043666023 -0.0035194047
000180 a0 ee d6 bb db 0f 22 bc 18 e6 84 bc 24 42 cc 3c
       -0.006559208 -0.009891476 -0.016222998 0.024933882
000190 65 19 91 bd 52 63 10 bc 5a d6 3e 3c 7c 99 d7 3b
       -0.07084922 -0.008812742 0.011647785 0.006579576
0001a0 58 e2 8b bb a7 7d f6 ba d2 da b5 39 6e 81 bf ba
       -0.0042689256 -0.0018805758 0.00034686044 -0.0014610717
0001b0 ef 5c 68 bd 86 0d a0 bb 02 58 96 bc 24 67 d5 bb
       -0.056729253 -0.0048844246 -0.018352512 -0.0065125395
0001c0 c4 28 cf 3b 6b 39 25 3c 57 f0 25 bb 67 a3 9d 3b
       0.0063219983 0.01008449 -0.0025320256 0.004810739
0001d0 13 ce 1e bc da 8b ee bb e5 dd c5 3d 69 10 0f bc
       -0.009692687 -0.007279855 0.09661464 -0.00873194
0001e0 aa da 34 39 e1 a4 2b bc d3 3c 36 bc 36 cf 9a 3c
       0.00017247596 -0.010476322 -0.0111229 0.018897634
0001f0 a8 98 ea ba 72 0d f1 3b 5f 2e f6 3b d8 db 17 3c
       -0.0017898278 0.007356339 0.007512852 0.009268723

network_body._body_endoder.seq_layers.2.weight f4 [128, 128]
000000 70 96 8e 3d 6e 8c 69 bd aa 5d e5 3d ae dd b9 bd
       0.069622874 -0.05701869 0.111995056 -0.09075485
000010 21 bb e4 bd 90 5b 53 3c dd db a1 bb 00 50 0b be
       -0.111685045 0.012900248 -0.00493954 -0.13604736
000020 6d b5 61 38 14 9a cf bd 17 77 d0 bd b0 d3 38 be
       5.3813146e-05 -0.1013681 -0.101789646 -0.18049502
000030 e7 8b 05 3e 61 85 bf 3d a8 38 3a bd c8 cb d8 3c
       0.1304165 0.09351612 -0.045464188 0.026464358
000040 2f 79 09 be 88 de 4f be 2d b7 9e 3c f6 a5 cd ba
       -0.13425134 -0.20299733 0.019374454 -0.0015689719
000050 8d 6e 81 bc 2f ba 15 bc 7c af 91 3d b0 c3 79 be
       -0.015799785 -0.009138628 0.07113549 -0.24391055
000060 7a e9 a8 bc 2e 73 9d bd 70 ad 6f bd 56 69 1b be
       -0.020619143 -0.076879844 -0.058515012 -0.15176901
000070 53 74 91 bd 47 84 3b bd cd 2c 49 bc b8 38 13 3e
       -0.07102265 -0.045780446 -0.012278748 0.14377105
000080 29 20 97 3c 57 e8 33 b9 5c 78 3a 3c 0c 89 db bb
       0.018447952 -0.00017157324 0.011381235 -0.006699687
000090 9a 10 8e bd 1a 83 09 be e4 ac b8 bc 48 c3 3a 3d
       -0.0693676 -0.13428918 -0.022543378 0.04559639
0000a0 85 9c 54 3d 5e 27 4d be 38 c4 50 3d 27 68 8a 3a
       0.05190708 -0.20034549 0.05096838 0.0010559604
0000b0 d9 0a 95 bd 00 a0 02 3d d0 6a da bd 7c 1b c0 3d
       -0.0727746 0.03189087 -0.10664904 0.09380242
0000c0 36 2a 87 3e 03 8a 45 3d 31 29 a4 3d a7 dc fb 3d
       0.26399392 0.04822732 0.08015669 0.122979455
0000d0 2f 10 89 bd b7 90 5d 3b a8 0c 4d 3e 42 ec 70 3c
       -0.0669254 0.003380818 0.20024359 0.014704766
0000e0 ff 77 e9 3b 35 2e 81 3c c6 cb 0b bb 8e 2c 74 3d
       0.0071249004 0.015769104 -0.0021331175 0.059612803
0000f0 7e cc 0e be 01 d5 c8 bc 0c 7e e4 bc 0f a5 27 3c
       -0.13945195 -0.02451563 -0.027892135 0.010232224
000100 5d 10 5f be 4e ea a1 bc 95 17 01 be 96 d5 5a 3d
       -0.21783586 -0.019765045 -0.12606652 0.053426348
000110 d6 14 4f 3c 40 c9 d4 bb 74 b4 b0 3d aa a4 a0 3c
       0.012639245 -0.0064937174 0.08628169 0.019609768
000120 5c 56 b8 bd bb d4 42 bd 80 e9 84 3d 03 25 b1 bd
       -0.09000847 -0.047566157 0.06489849 -0.086496376
000130 c0 78 94 bc c8 6c a8 3d 6b 1b de 3d 21 12 47 be
       -0.018123984 0.082238734 0.10845073 -0.1944051
000140 d4 e4 86 be 60 c3 03 bd 5f 69 eb 3d 76 09 96 3d
       -0.26346457 -0.032168746 0.11494707 0.07326023
000150 5b e7 db 3d 33 47 65 bd 42 0c f7 3d 04 0e 08 3e
       0.10737487 -0.055976104 0.12062885 0.13286597
000160 05 78 bd bd 17 e2 0f bc 77 1a 04 bd 3a 77 43 be
       -0.092514075 -0.008781931 -0.0322518 -0.1908845
000170 15 74 c8 3c b4 fe 9b bd a1 b9 98 bd 1d b9 bd 3d
       0.024469415 -0.0761694 -0.07457281 0.09263823
000180 c7 93 e1 3d e3 52 ae bc c6 88 48 3d 19 7b d4 3d
       0.110145144 -0.021279758 0.048958562 0.103750415
000190 bd 09 96 bb 25 1c aa bd 92 ac 7e bd f0 3a 12 3e
       -0.0045787976 -0.083061494 -0.062176295 0.14280295
0001a0 6e 66 20 3e 0d 6e 5c 3d 6b 66 b6 bd d6 0d de 3d
       0.15664074 0.05381589 -0.089062534 0.10842483
0001b0 63 26 91 3d df 27 0c 3e 87 75 42 be e1 ef 3e 3d
       0.070874 0.13687085 -0.18990146 0.046615485
0001c0 94 18 09 be f1 20 5e 3c 4b 83 bd bd fb 65 05 be
       -0.13388282 0.0135576585 -0.09253558 -0.13027184
0001d0 83 f8 0d 3d 83 ac ba bd ec a7 db bb 9b 67 cb bd
       0.034660827 -0.09114935 -0.0067033675 -0.099318705
0001e0 e3 b2 40 be 06 36 2c bc 99 3a de bc eb 38 55 bd
       -0.1881824 -0.010510927 -0.02712755 -0.052056234
0001f0 9d 1e 07 3d 70 28 d9 bd e0 6e a5 3d 32 ca 08 be
       0.03298818 -0.10603416 0.08077788 -0.13358381
000200 04 f2 33 be 3b 1a 1c bd 70 54 34 3e 9c 5a 39 be
       -0.1757279 -0.038110953 0.17610335 -0.18100971
000210 47 16 4e 3e e7 34 be bd 87 e3 62 bd 95 26 52 bb
       0.20125686 -0.09287434 -0.05539277 -0.0032066454
000220 8b 97 7b bd 77 6b 9b bd e2 b3 ce ba 05 9b 27 3e
       -0.06142382 -0.07588857 -0.0015770162 0.16367729
000230 83 a1 da bd fb 6e d8 3d 01 f3 6c be 02 8f 16 3e
       -0.10675337 0.10568043 -0.23139574 0.1470299
000240 0f 86 e9 3d 5e 8e 9a bc d1 3e a7 3d 98 f5 94 3d
       0.11402523 -0.018866714 0.08166278 0.07273406
000250 7c a8 4b bd 65 71 93 bd a9 a3 0d 3e 1a ff bb bc
       -0.049721226 -0.07199363 0.13831963 -0.02294879
000260 01 59 1f be e6 f4 e6 bc c6 1b 12 3b 7f bd 5e bd
       -0.15561296 -0.028192949 0.0022294386 -0.054379936
000270 14 4c 0b 3e 37 ee 9e bd 7d 85 4c 3c 1c cd f5 3d
       0.1360324 -0.077602796 0.012482998 0.12002012
000280 61 cc af 3d d9 06 9a bd bf da 0b bd 57 e9 23 bd
       0.08583904 -0.07520837 -0.03414416 -0.040017452
000290 2d 73 81 bd 5a b0 5f 3e 32 0b b7 3d dc 42 fe bc
       -0.06320796 0.21844617 0.08937682 -0.03103774
0002a0 e1 cd 03 3c 10 3e fc 3c 45 62 f4 3d 85 33 65 bc
       0.008044691 0.030791312 0.11932806 -0.013989334
0002b0 00 b7 c1 3d 59 1d 32 be 7b fa 97 3d d8 21 fd bd
       0.094587326 -0.17394008 0.07420822 -0.12359971
0002c0 83 e8 7c ba 43 c8 ce bc 55 d1 9e 3d 9c a6 3c bd
       -0.0009647684 -0.025241977 0.07754771 -0.04605733
0002d0 65 89 9c bd bf ed 55 bd a4 87 e6 3b 07 40 4d bc
       -0.076433934 -0.052228685 0.0070352126 -0.012527472
0002e0 db ae 29 3e 8b 27 93 bc bb c4 b7 bd 29 cc e7 3d
       0.16570608 -0.017963191 -0.0897307 0.11318237
0002f0 b0 17 c2 3d 76 49 5b be 44 c6 0a be ae 95 d1 bd
       0.09477174 -0.21414742 -0.13552195 -0.10233627
000300 c1 46 bc 3c f0 8e 87 3d 1c a7 2c bd 1c 37 de bd
       0.022982957 0.0661906 -0.042151555 -0.10850355
000310 4d 77 10 be cd 83 9d 39 b7 de 23 3d 09 b8 4e bd
       -0.1410801 0.00030043573 0.04000732 -0.05046848
000320 bc ae 94 3d 35 10 0d bb 24 1e 15 be 2e 19 54 be
       0.072598904 -0.0021524553 -0.14562279 -0.2071273
000330 42 06 dc 3c 30 db 6c bd 41 c7 b8 3d e0 0d 02 3d
       0.026858453 -0.05782622 0.0902238 0.031751513
000340 38 7d e4 bd 43 23 01 3e 38 5e 02 bc 23 a3 7f 3a
       -0.11156696 0.12611108 -0.007957034 0.00097517873
000350 96 af dd 3d 39 fc 83 bc 3f c9 a2 3c eb 1c 8f b9
       0.10824506 -0.01611148 0.019871352 -0.0002729663
000360 53 8f e6 bd 63 cf 4b be 11 78 45 bd 6d ac 29 bd
       -0.11257806 -0.1990333 -0.048210207 -0.041424204
000370 9f 8d 11 3e 87 dd a0 3d 5c 18 89 3d e4 14 b5 3d
       0.1421418 0.07854753 0.06694099 0.08841875
000380 21 e2 94 bd 33 65 ce bd 4b ad 32 bd 0e 3d 52 37
       -0.07269693 -0.10077896 -0.043622296 1.2531191e-05
000390 64 61 3b bd f1 49 58 bd cd 8a 37 3e 71 2f a1 3d
       -0.045747176 -0.05280489 0.17924042 0.07870377
0003a0 ec e9 b0 3d c1 22 6c bd 84 f5 6b 3d 93 70 98 bc
       0.08638367 -0.05765033 0.05760719 -0.018608367
0003b0 44 5a 28 bd 47 fd b1 bd bc 5b 55 3d c4 70 2f be
       -0.04110171 -0.08690887 0.052089438 -0.1713286
0003c0 67 fb 48 3d 64 db 5e bd 5c 84 62 be c4 5b 7b 3c
       0.04906788 -0.054408446 -0.22120804 0.015341703
0003d0 38 aa 36 bd 65 46 4d 3c 38 68 b8 3d ac 3b 00 be
       -0.044595927 0.01252899 0.09004253 -0.12522763
0003e0 e6 cb 24 bc 73 d0 52 3d 2f d6 02 bd e1 c6 0f 3e
       -0.010058379 0.051468324 -0.031942543 0.1404071
0003f0 57 7a 9c 3d 28 c2 2c 3d 8c 84 fc bd a7 13 ac 3d
       0.07640522 0.04217735 -0.12329969 0.08402186

network_body._body_endoder.seq_layers.2.bias f4 [128]
000000 63 9c 58 3c 7a 0c d3 3c f1 ef 00 3c 33 f5 96 3c
       0.013220879 0.025762785 0.0078697065 0.018427467
000010 77 d6 99 3c c0 af 87 3c 92 ec a6 3b 0a 74 89 bb
       0.018779023 0.016563296 0.0050941193 -0.004194741
000020 3a 51 cd 3a 45 ea 42 3c ba bf db b8 b6 4d a6 39
       0.0015664466 0.0118966745 -0.000104784456 0.00031719886
000030 c0 6b 45 3a 5b ab 41 ba 46 2a 8e bb 70 8b 06 3a
       0.00075310096 -0.00073878997 -0.0043385355 0.0005132472
000040 9c 3c 24 ba f6 4b a9 bb eb 2c c4 bb 4a 2c 03 ba
       -0.0006265135 -0.005166526 -0.0059868 -0.0005003853
000050 ac 8b 0c bb 76 4f 0e 3b a1 39 a6 bb 68 bd 14 bb
       -0.0021445556 0.0021714843 -0.005072788 -0.0022695903
000060 4c 74 29 bc 40 47 06 3c a8 07 13 3a b5 a7 fc b9
       -0.010342669 0.008195698 0.0005608746 -0.00048190137
000070 dc 11 6e bb 23 db f2 3a ab 79 e3 bb 4f fc 04 bb
       -0.0036326563 0.0018528443 -0.006941994 -0.002029199
000080 ea 52 10 bc 44 fa 82 ba bb 98 d3 3a b4 e3 1f bc
       -0.008808831 -0.0009992798 0.001614354 -0.0097588785
000090 bb 2f 19 ba 70 dd 9f ba 3a ef ae 3c 2a 62 44 bb
       -0.0005843599 -0.0012196731 0.021354306 -0.0029965737
0000a0 b1 f2 57 3b 95 d9 3e 3c 2d 4c 94 3b 58 61 29 3b
       0.0032951052 0.011648555 0.0045256824 0.0025845375
0000b0 ef f5 a3 bb 38 c1 ac 38 74 4c a3 3b 49 a7 58 ba
       -0.005003683 8.237589e-05 0.004983479 -0.00082646735
0000c0 ab 51 a5 3c e1 8f 67 3a df be 2b 3c ad ce d9 3a
       0.020180544 0.00088333903 0.010482519 0.001661738
0000d0 de 3a 81 3c 87 42 b0 3b 9e 77 13 bb 16 b5 07 3c
       0.01577514 0.0053790244 -0.0022501717 0.00828292
0000e0 6c 61 7f 3c 8d 3f c9 3b bd 1a 02 3b 51 51 98 3b
       0.015587192 0.006141609 0.0019852363 0.0046483655
0000f0 38 76 a8 bb 9a 9c 85 bb 61 23 11 bc fa 16 cc ba
       -0.005141046 -0.0040775063 -0.008858533 -0.0015570812
000100 4b ae da bb b5 72 28 bb a9 79 60 3b 59 d9 d7 3a
       -0.0066736094 -0.0025703136 0.0034252203 0.0016467973
000110 2f 5d 36 bc 18 4a 60 3b 20 15 ed 3a 58 2c 11 3b
       -0.011130615 0.003422385 0.0018087961 0.0022151675
000120 85 31 42 3c 77 7e 1f ba e4 9b 7b 3b d6 fc a5 bb
       0.011852627 -0.00060842134 0.0038392479 -0.005065541
000130 20 e2 f6 3b f7 d2 59 3b 44 fe 75 3c 4e 6b 2f 3c
       0.0075342804 0.0033237317 0.015014235 0.010706736
000140 02 4d ef bb ce d0 4a bb c0 c4 0c 3b f0 64 ab b8
       -0.007302881 -0.0030947211 0.0021479577 -8.1727165e-05
000150 e0 b0 f8 bb c9 7a fc bb 24 67 8f bb 64 83 7c bc
       -0.0075894445 -0.007705067 -0.004376309 -0.015412185
000160 8f 28 27 bc 45 92 66 bb b0 3e 5b 3b df 5f c3 3b
       -0.010202541 -0.0035182398 0.0033454113 0.0059623565
000170 7e dc 0f bb 13 3f 96 3b 55 04 59 bb 8a e1 d8 3a
       -0.0021951492 0.0045851558 -0.0033114154 0.0016546708
000180 b2 65 2a 3c 71 7d 14 bb 6d 81 a9 bb a6 e7 a0 3c
       0.010400223 -0.0022657777 -0.0051728995 0.019641709
000190 fa 76 00 3c b5 45 bd ba c5 45 80 3a ca 7b f5 3a
       0.007840866 -0.001444033 0.0009786418 0.0018728909
0001a0 07 92 85 3b fe bc c9 39 72 ea 4c 3b 11 6d 56 bb
       0.0040762457 0.00038478518 0.003126767 -0.0032718817
0001b0 40 97 d7 b9 ae 24 8b ba aa e2 9e 3a 34 bd 85 bb
       -0.00041120686 -0.001061579 0.0012121995 -0.0040813927
0001c0 09 2f 1a bb bb 8d 5c bb ac ea 8e 3c 98 9d 0c bb
       -0.002352657 -0.0033653814 0.017445885 -0.0021456238
0001d0 38 69 1f 3a c2 db 75 ba f7 08 91 bb f5 64 1f bb
       0.00060810475 -0.0009378755 -0.0044261175 -0.002432165
0001e0 f2 b9 a4 bb e5 93 f6 3b 5e 0a 41 bc b3 c1 83 3b
       -0.005027049 0.0075249546 -0.011782257 0.0040208935
0001f0 79 f4 8e b8 b3 76 35 bc a9 3e 41 3c 4a e3 05 3b
       -6.816624e-05 -0.011075663 0.0117947245 0.0020429664

action_model._continuous_distribution.log_sigma f4 [1, 2]
000000 69 37 6b bd 03 d4 f6 bd
       -0.05742589 -0.12052157

action_model._continuous_distribution.mu.weight f4 [2, 128]
000000 e6 c3 28 bb 05 13 38 3d 04 43 1e 3d 97 4c 10 bb
       -0.002575153 0.044940013 0.03863813 -0.0022018307
000010 d2 a1 98 bc 5a 08 0a 3d 98 4c 19 bb 24 ed e8 bc
       -0.01863185 0.03369937 -0.00233916 -0.02843339
000020 05 61 ee bc e4 7d 68 bd 85 d1 0a bb 69 dd 57 3c
       -0.029098997 -0.056760684 -0.0021182012 0.013175347
000030 2a c9 9a 3c 73 93 41 3c 30 9c 28 bc bd 93 b9 bb
       0.01889475 0.01181494 -0.010291144 -0.0056633637
000040 7e 9f 58 bc 08 1d c8 bb e4 49 87 bc 4e 43 fa 3b
       -0.01322162 -0.0061069764 -0.016514726 0.007637418
000050 57 b8 24 ba a7 84 3d 3c 44 5a de bb bc 62 40 3d
       -0.00062835723 0.011567271 -0.006785663 0.04696916
000060 45 a1 80 bb ae b8 ef 3b 27 f3 01 3c b9 0e 34 3b
       -0.003925475 0.0073157167 0.007931507 0.0027474596
000070 c6 12 4f 3a 70 7f d8 bc be fb 95 bc c7 15 97 ba
       0.0007899221 -0.026427954 -0.018308517 -0.0011526876
000080 ee c1 2f 3b f9 48 c5 bc 2c 55 5a bc 9c bb 5e bb
       0.0026818472 -0.024082648 -0.013325971 -0.0033986336
000090 46 91 94 bc 09 66 bc bc c6 07 91 3c 43 51 ad ba
       -0.018135678 -0.022997873 0.017703902 -0.001322307
0000a0 97 d7 5b bb 34 37 21 bc 1c 6d 98 bc a3 0f 17 3d
       -0.003354525 -0.009839822 -0.018606715 0.036880147
0000b0 98 56 09 bd a3 e4 2e 3c df 2d 46 3c 3d 7e c8 3b
       -0.033529848 0.010674628 0.012095897 0.0061185644
0000c0 78 cd 07 bd c6 29 ee bc ee 5c 04 bd d3 e7 0c 3c
       -0.033154935 -0.029072654 -0.032315187 0.008600193
0000d0 b4 4b ca 3b 36 12 20 3d 3f 37 60 3c cd 40 fe bc
       0.0061735753 0.039079867 0.013685047 -0.031036759
0000e0 b8 d7 88 3d b4 0c a3 3c a1 c8 46 bd 27 61 c8 bb
       0.0668177 0.019903518 -0.04853118 -0.006115097
0000f0 fa 4d 81 bc 38 86 52 bc 78 3d 68 3b 19 5a bb bc
       -0.015784252 -0.012849383 0.003543703 -0.02287011
000100 1c 1c 0f bc 90 a8 12 bd e8 e0 21 3d d7 fd 9c 3c
       -0.008734729 -0.035805285 0.039521128 0.019164009
000110 8d 07 c3 3b 35 5a c9 3b 26 e5 f8 bc 0b 13 a8 3c
       0.005951828 0.0061447867 -0.030382704 0.020516893
000120 0b 36 14 bd d9 df 50 ba 85 c7 f4 bc 61 e6 93 3c
       -0.036184352 -0.0007967926 -0.029880295 0.01805419
000130 77 c5 37 bc 8f 4d c6 bc 11 a3 e4 bb 0c 7a 23 bd
       -0.011216513 -0.024206905 -0.006977447 -0.039911315
000140 00 7c 0f bd 9c c9 4a bc 8a aa 04 3d 9e 6a a7 3b
       -0.035030365 -0.012377169 0.0323892 0.0051091453
000150 87 7a 8a bc f3 53 85 3a 0f d4 e6 ba fe cb df ba
       -0.016904129 0.0010172114 -0.0017610806 -0.0017074344
000160 ab ff 4a bc 6e f3 07 3c 3a 5e d5 bc 95 0a e2 ba
       -0.012390058 0.008297784 -0.026045907 -0.0017245585
000170 9b f2 dc 3c 05 0c 0c 3c 76 6b 45 bc c0 3e b4 3c
       0.026971152 0.008547788 -0.012049546 0.022002578
000180 41 46 c6 bb e0 7a cb bc 1c 28 18 3c e2 41 17 3d
       -0.0060508554 -0.024838865 0.009286907 0.036928065
000190 05 8d 69 bb 34 75 5c bc d9 cc 76 bc 28 32 c3 3c
       -0.0035637033 -0.013455678 -0.015063488 0.023827627
0001a0 d1 16 02 3d 2d d5 4a 3c 0e a9 a2 ba 67 d4 9b bc
       0.03176004 0.012379927 -0.0012410001 -0.01902218
0001b0 d7 69 5b 3b 8d c7 40 bc ea bc 39 b9 01 69 d2 3b
       0.0033479834 -0.011766327 -0.00017713351 0.006421209
0001c0 7b 62 f3 bc 77 46 18 bd 97 f2 b1 bc f0 e4 ee bc
       -0.029710045 -0.037176576 -0.021722121 -0.0291619
0001d0 af 40 3b 3c 0b 2e 11 bd 0c b7 0b bc 44 76 a4 bc
       0.011428996 -0.0354443 -0.0085275285 -0.020075925
0001e0 aa bb b7 3c 3c f2 0a bd db b4 fb 3b 6b 8d 05 bc
       0.022428352 -0.03392242 0.0076814718 -0.008151392
0001f0 1f 86 24 3d d2 d9 12 3c f3 20 97 bc a8 13 a8 bc
       0.04016697 0.008963065 -0.018448329 -0.020517185
000200 06 f5 40 3d 73 ce d0 bc dd 01 8d 3b e9 52 33 bd
       0.047108673 -0.025489068 0.0043032006 -0.04378024
000210 10 30 11 3d 76 a2 f9 bc 46 9a fa 3c e0 8e 85 bc
       0.035446227 -0.030472975 0.030591141 -0.01630348
000220 0e d7 c6 3c 04 1e 24 3d 81 bb 04 3d 06 87 29 3c
       0.024272468 0.040067688 0.03240538 0.0103471335
000230 54 6a c1 3b 6e 5c c5 bc 0b b2 a3 bb 1e f0 17 3d
       0.005902568 -0.024091925 -0.0049955896 0.037094228
000240 9c 54 98 3c 52 24 a9 bc 32 af 1c 3b df 91 55 bc
       0.018595032 -0.020647202 0.0023908135 -0.013035267
000250 24 0f 6b bc 2c 8a bd bc 5d 00 65 3c e8 1f 0b bd
       -0.0143468715 -0.023137175 0.013977137 -0.033965975
000260 a8 13 21 3d 85 62 2c 3d c4 42 88 bc 0a aa c4 bc
       0.039325386 0.042086143 -0.016633399 -0.024006862
000270 6a 68 1c bb e1 cb af 3c 37 95 2e 3c a8 73 42 3d
       -0.0023865947 0.021459522 0.010655693 0.04747358
000280 88 58 e9 bb 26 4e cd 3c 35 c7 7e 3d 08 d3 81 3b
       -0.0071211495 0.025061678 0.062201697 0.0039619245
000290 09 5f de 3c f7 70 b7 bc 20 c7 07 bd 79 be 70 bc
       0.027144926 -0.022392733 -0.033148885 -0.01469385
0002a0 bd 2a 15 3c 12 ea ce 3c 55 e3 59 3d ca 46 7e 3a
       0.009104428 0.025258098 0.053195316 0.00096998794
0002b0 79 30 ed 3a 9e c6 ed bc 98 a3 b0 3c 8e ff 3b bc
       0.0018096111 -0.029025372 0.021562383 -0.011474503
0002c0 e0 1c d5 3c 3f 59 a2 3b 1e 7f 2d 3d 29 30 cc bc
       0.026014745 0.0049544866 0.042357557 -0.024925308
0002d0 4b 09 53 bd ce fc 72 bc 9e ee f9 bb ed f3 36 3d
       -0.051522534 -0.014830781 -0.0076273223 0.04466622
0002e0 ef 77 95 bc 71 26 a5 bc e2 4e f4 3c dd 30 18 3c
       -0.018245665 -0.020159932 0.02982277 0.009288994
0002f0 26 6d 94 bc 73 27 9e bb 5f 9d 9d 3c ac 10 94 3c
       -0.018118452 -0.00482648 0.01924008 0.018074356
000300 1f a9 7b 3c 97 7e b5 3c d8 3a a2 bb 3e bf a6 bc
       0.015360146 0.02215509 -0.0049508624 -0.020354863
000310 0b 58 be 3a 5f c8 1f bd d3 6b 1e 3d 16 5f d8 3c
       0.0014522088 -0.03900945 0.038677048 0.026412528
000320 50 58 9a bb 9b 0c 28 bd 02 30 8f 3c ca 03 30 3b
       -0.0047102347 -0.041027647 0.017478947 0.0026857727
000330 1a 9d b8 3c 95 e1 fa 3c 6f 67 8e bc 06 0e 06 3d
       0.02253585 0.030625144 -0.017383305 0.032728218
000340 5d 3a 8a 3c 66 c1 07 bc 45 89 39 3d 71 76 0e bd
       0.016873533 -0.008285856 0.045296926 -0.034780923
000350 8d 0d ab 3c 89 ba 9c bc b7 64 f2 3b 43 07 e2 3b
       0.020880485 -0.019131916 0.00739726 0.0068978383
000360 f0 a7 69 bc d3 84 8f 3b 37 2a 8f bc 6d 7d 1b bd
       -0.014261231 0.0043798476 -0.017476184 -0.037961412
000370 dc 62 0e 3d 2b 15 90 bc ea 19 e5 bb 8c 5e e0 3c
       0.03476225 -0.017588219 -0.0069916146 0.027388833
000380 5d 37 20 3d c8 4b e5 3a 76 9d d0 bc f7 86 5a bd
       0.0391153 0.0017493898 -0.025465708 -0.05335137
000390 eb 18 c7 3c b2 84 e0 bc 40 b1 4f bc d5 9c 93 39
       0.024303874 -0.027407024 -0.012676537 0.00028154874
0003a0 50 ba 65 bc ff 2f 5f bc 36 4d c4 3c 6f 19 b3 3c
       -0.014021471 -0.013622283 0.023962598 0.021862714
0003b0 64 57 cc bc 5e 1b 3e 3d fe a6 be 3c bc ea 64 3c
       -0.024944015 0.046412818 0.023272987 0.013971981
0003c0 49 2b 59 bc 39 19 f4 3c ee 23 85 3c 40 5c 1b bc
       -0.013254949 0.029797183 0.016252484 -0.009482443
0003d0 b1 e7 33 bc 15 f8 28 3d 41 24 45 bb 4d 07 9b 3b
       -0.0109805325 0.041252214 -0.0030081423 0.004731095
0003e0 7d a5 d7 bc 4b 8c 13 3d d7 9e 3e 3b 8e c0 12 3d
       -0.026324028 0.036022466 0.0029086375 0.035828166
0003f0 4a 21 15 3d 04 83 1f bc 90 47 c7 bb 82 56 61 3c
       0.0364087 -0.009735826 -0.006081529 0.013753535

action_model._continuous_distribution.mu.bias f4 [2]
000000 d5 d7 6d 3b 6f 49 10 ba
       0.0036291976 -0.00055041065
